custom_maze/static/custom_maze/run/room248890/trained_model.pth (torch, 158674 bytes, 12 tensors)

layer1.weight f4 [128, 16]
0.20563236 -0.17664331 -0.22469366 0.22545981 -0.14854386 0.11260417 -0.16773188 -0.10718933
-0.18945244 0.012941211 0.2090841 -0.108661056 0.11529544 0.17684317 -0.15281534 -0.16138843
0.13629562 0.21498814 0.095345885 0.24543884 -0.1702581 -0.042788178 -0.03669256 0.11402407
-0.17910916 -0.018090636 0.0014995933 -0.18708193 0.0018072128 -0.22755796 0.038024455 0.13301232
-0.20416248 0.06466943 -0.22181687 0.22717172 -0.076960236 0.121527135 0.13882795 0.036007583
0.21755552 -0.18137547 0.044563264 0.1562477 -0.073536545 -0.06299353 0.08171049 -0.15618968
0.17069674 0.08171755 -0.08797449 -0.03657347 0.19961375 -0.22163191 -0.24800602 0.080726445
-0.21248922 -0.20699573 -0.14619282 0.0013926625 0.17985994 0.10793096 0.24170911 0.2398768
0.04917258 -0.10469708 0.020759135 -0.19503105 -0.04135987 -0.23485309 0.0456571 0.21594808
0.18731657 -0.07390645 0.22581202 0.23635298 0.15587744 0.0832628 -0.04078713 -0.007624179
-0.13651633 -0.019619852 -0.14561993 0.058178782 -0.21718496 -0.14417174 -0.016683102 0.15672585
0.22616851 -0.083034694 -0.12241194 0.15726957 -0.16165528 -0.09398022 -0.11224398 0.13448644
0.01226455 0.07400161 0.21146774 0.10819459 -0.22122258 0.1125395 0.028142214 0.15310425
0.09910849 -0.17701659 -0.0018213689 0.17756638 0.24186215 0.1326566 -0.12465295 0.0042428374
0.18431002 -0.19791162 0.08670792 0.03088808 -0.0108650625 -0.03150341 -0.14729756 -0.065509945
0.17459235 -0.0051319897 -0.031573296 0.12619665 -0.16616139 -0.13465655 -0.02014178 -0.031101972
-0.013690591 -0.22650832 -0.15519875 -0.04051581 -0.06719637 0.007021606 0.12639466 -0.21926436
0.2418864 -0.08474189 0.14255598 -0.12726489 0.19572794 -0.13315082 0.18023181 -0.14172426
0.17085135 0.18948147 0.0590401 0.1765014 0.0716705 0.18733412 0.18689427 0.10137391
-0.06642005 -0.096491784 0.041442215 -0.19339246 0.15670162 -0.10983789 -0.017047852 0.07986477
-0.15103236 0.07105377 0.16126195 0.03785032 -0.24057913 0.10268071 -0.21426845 0.030010968
-0.19692788 0.16818967 0.19671264 -0.09051567 0.13957635 -0.24861738 0.029071897 0.019583732
-0.090530604 0.07850516 0.0055160522 0.114525706 -0.10933459 -0.06998637 0.07236943 -0.19830155
0.051689595 -0.15968183 0.0616 -0.18915614 0.20238829 -0.11347121 -0.016066372 0.21857432
0.0936034 -0.15720108 0.1755004 -0.15909219 0.050057203 0.20365578 0.0109514 -0.1334162
0.057609677 0.15413511 0.09205666 -0.16720334 -0.1349599 -0.14992559 -0.21762592 0.061617643
0.21712759 -0.122149915 0.1679104 0.19356129 0.012334764 0.0097902715 0.046889037 -0.20539474
0.029264033 0.074213356 -0.17433318 -0.24579269 0.16632566 0.1408672 0.21811748 0.15936056
-0.024102986 -0.19271994 0.22238415 -0.19009638 0.24827677 -0.023737073 -0.13070565 0.039536536
-0.06867328 0.2027652 -0.028991818 -0.1856164 0.110363126 0.24169588 0.07416943 0.07112265
0.085339904 -0.14440829 0.1841867 0.1135582 0.123766184 0.005833715 0.15097588 0.13599643
0.22032651 0.030320853 0.0065710247 0.151636 -0.15892896 -0.11685255 -0.23019317 -0.19183525
00000000: 4a91 523e fce1 34be 1816 66be f0de 663e
00000010: e21b 18be 049d e63d e8c1 2bbe 1486 dbbd
00000020: d2ff 41be 6007 543c 241a 563e b089 debd
00000030: 0420 ec3d 6016 353e a07b 1cbe 0243 25be
00000040: 1491 0b3e da25 5c3e b444 c33d 5254 7b3e
00000050: 2458 2ebe a842 2fbd f04a 16bd 7485 e93d
00000060: 6468 37be d032 94bc 008e c43a 6892 3fbe
00000070: 00e0 ec3a f404 69be 88bf 1b3d 6234 083e
00000080: f80f 51be 6871 843d f623 63be b49f 683e
00000090: 549d 9dbd 38e3 f83d ea28 0e3e b07c 133d
000000a0: e0c6 5e3e 7eba 39be f887 363d 66ff 1f3e
000000b0: 549a 96bd c002 81bd d457 a73d 30f0 1fbe
000000c0: 20cb 2e3e 885b a73d f82b b4bd 10ce 15bd
000000d0: 8c67 4c3e 7af3 62be 4af5 7dbe e853 a53d
000000e0: c696 59be b0f6 53be 92b3 15be 008a b63a
000000f0: 342d 383e e80a dd3d 9882 773e 44a2 753e
00000100: 3069 493d 6c6b d6bd 100f aa3c 38b6 47be
00000110: f868 29bd 547d 70be f002 3b3d 7e21 5d3e
00000120: eacf 3f3e 445c 97bd 443b 673e 8406 723e
00000130: 569e 1f3e b085 aa3d 6810 27bd 40d4 f9bb
00000140: f0ca 0bbe d0b9 a0bc 641d 15be e04c 6e3d
00000150: bc65 5ebe c2a1 13be 00ab 88bc be7c 203e
00000160: b898 673e 180e aabd 1cb3 fabd 460b 213e
00000170: f688 25be b478 c0bd 2ce0 e5bd d0b6 093e
00000180: 40f1 483c 288e 973d 008b 583e 2095 dd3d
00000190: 2c88 62be 1c7b e63d 808a e63c 5cc7 1c3e
000001a0: 64f9 ca3d d643 35be 00bb eeba f6d3 353e
000001b0: b6aa 773e 22d7 073e 0c4a ffbd 8007 8b3b
000001c0: c4bb 3c3e 58a9 4abe ec93 b13d 0009 fd3c
000001d0: 6003 32bc b809 01bd 2cd5 16be 142a 86bd
000001e0: 56c8 323e 402a a8bb 0053 01bd b239 013e
000001f0: 3626 2abe 68e3 09be 6000 a5bc 90c9 febc
00000200: 804e 60bc ccf1 67be 6cec 1ebe e8f3 25bd
00000210: 409e 89bd 8015 e63b 9a6d 013e d686 60be
00000220: 12b1 773e 288d adbd 32fa 113e ba51 02be
00000230: e86c 483e b058 08be b08e 383e 2a20 11be
00000240: a8f3 2e3e 6e07 423e 08d4 713d c8bc 343e
00000250: fcc7 923d 84d4 3f3e 3661 3f3e 209d cf3d
00000260: 3c07 88bd 7c9d c5bd 50bf 293d ac08 46be
00000270: 6476 203e b0f2 e0bd f0a7 8bbc 2490 a33d
00000280: 3aa8 1abe a484 913d da21 253e f008 1b3d
00000290: 605a 76be 444a d23d 3069 5bbe 90d9 f53c
000002a0: 76a7 49be ea39 2c3e 0a6f 493e 4860 b9bd
000002b0: 1aed 0e3e 8e95 7ebe 3028 ee3c 106e a03c
000002c0: 1c68 b9bd 50c7 a03d 00c0 b43b 748c ea3d
000002d0: d0ea dfbd 0455 8fbd 6c36 943d 900f 4bbe
000002e0: 78b8 533d a283 23be 4850 7c3d 26b2 41be
000002f0: e03e 4f3e 9863 e8bd a09d 83bc f2d1 5f3e
00000300: 24b3 bf3d 52f9 20be 60b6 333e 10e9 22be
00000310: c808 4d3d 248b 503e 806d 333c 429e 08be
00000320: 20f8 6b3d 98d5 1d3e 3488 bc3d 5a37 2bbe
00000330: ee32 0abe 1886 19be 54d9 5ebe c862 7c3d
00000340: b256 5e3e bc29 fabd b4f0 2b3e ee34 463e
00000350: c017 4a3c 6067 203c b80e 403d 0053 52be
00000360: 20bb ef3c 2cfd 973d 6684 32be 14b1 7bbe
00000370: 4651 2a3e 7e3f 103e 305a 5f3e 6a2f 233e
00000380: a073 c5bc 6058 45be acb8 633e a0a8 42be
00000390: 443c 7e3e 4074 c2bc b4d7 05be 10f1 213d
000003a0: 94a4 8cbd aea1 4f3e 4080 edbc 3a12 3ebe
000003b0: 1006 e23d 207f 773e 24e6 973d c0a8 913d
000003c0: b0c6 ae3d c4df 13be 709b 3c3e 3491 e83d
000003d0: 2079 fd3d c028 bf3b 6c99 1a3e a642 0b3e
000003e0: 469d 613e 7063 f83c c051 d73b 7846 1b3e
000003f0: 46be 22be 6450 efbd c2b7 6bbe 7670 44be

layer1.bias f4 [128]
0.14981088 0.03708577 -0.22619084 -0.025532126 0.15011257 0.01785788 -0.053233534 0.22692788
-0.057565004 -0.045904726 -0.040463954 -0.08520952 -0.11178085 0.08412832 0.07076809 0.17182398
0.17803732 0.16904989 0.024383515 0.22948343 0.007751763 0.23528188 0.24007851 0.06600639
0.1214062 -0.017633557 0.17530796 -0.02474761 0.014624327 0.13334996 0.057008952 -0.0403395
-0.018592745 -0.13218138 -0.1852783 0.13459817 -0.120613486 0.021421105 -0.22924128 0.20749962
-0.20473224 -0.21829978 0.043246984 -0.059735686 -0.019592673 -0.12714353 0.11309281 -0.098427385
0.24548262 -0.051021993 -0.06795937 -0.054747045 0.13125944 0.15739423 0.028196096 0.20736301
0.123672694 0.18446475 -0.11087343 -0.029528022 -0.093158245 0.06621528 -0.19320634 -0.14013085
-0.20175278 0.08606267 -0.171146 -0.23623899 0.03927651 0.20855203 0.13270006 -0.06842399
-0.17327252 0.2375274 -0.07067233 -0.05076897 -0.24751323 -0.22170728 -0.038975894 0.1416055
-0.19146544 -0.101181775 -0.00422132 -0.010151148 -0.16161585 -0.05720231 0.09120938 -0.18324941
-0.019580811 -0.17452195 0.17199144 0.0646736 0.19660392 0.08851415 0.21580869 0.24614298
0.025335163 0.09005326 -0.0154488385 0.16993463 0.0034478307 -0.052428782 0.06702873 -0.14484411
0.0646981 0.1564174 -0.045409143 0.23254448 0.15442812 0.17133483 -0.1998969 0.07487568
0.05406183 0.20769519 -0.026713222 -0.08855349 0.11056307 -0.07739231 -0.13088968 -0.18257004
0.21997738 -0.20558995 0.19414225 0.048953712 -0.06550676 -0.0032925606 -0.0036030412 0.1760256
00000000: 0668 193e 40e7 173d 929e 67be c028 d1bc
00000010: 1cb7 193e b04a 923c 680b 5abd c85f 683e
00000020: 48c9 6bbd 9806 3cbd 88bd 25bd 5482 aebd
00000030: 5ced e4bd 784b ac3d dcee 903d a0f2 2f3e
00000040: 6a4f 363e 6a1b 2d3e f0bf c73c b4fd 6a3e
00000050: 8002 fe3b bced 703e 24d7 753e 5c2e 873d
00000060: d0a3 f83d 4074 90bc ee83 333e 80bb cabc
00000070: e09a 6f3c e48c 083e 3882 693d 083b 25bd
00000080: d04f 98bc 8e5a 07be 98b9 3dbe 1ad4 093e
00000090: 3404 f7bd 507b af3c 3abe 6abe c87a 543e
000000a0: 54a5 51be fa89 5fbe c023 313d 68ad 74bd
000000b0: d080 a0bc ea31 02be 349d e73d 4c94 c9bd
000000c0: cc5f 7b3e 70fc 50bd 482e 8bbd 703e 60bd
000000d0: e068 063e f42b 213e 80fb e63c f856 543e
000000e0: 1c48 fd3d 54e4 3c3e 9c11 e3bd c0e4 f1bc
000000f0: c0c9 bebd e09b 873d e2d7 45be 767e 0fbe
00000100: 4898 4ebe a041 b03d e640 2fbe a2e8 71be
00000110: 68e0 203d aa8e 553e 86e2 073e e021 8cbd
00000120: 5a6e 31be 623a 733e a8bc 90bd 20f3 4fbd
00000130: 1c74 7dbe 3c07 63be 30a5 1fbd 0801 113e
00000140: 840f 44be 6438 cfbd 0053 8abb 0051 26bc
00000150: a07e 25be f84c 6abd fccb ba3d bca5 3bbe
00000160: f067 a0bc e2b5 32be 861e 303e 9873 843d
00000170: 8a52 493e e846 b53d f4fc 5c3e e80c 7c3e
00000180: b08b cf3c d86d b83d 201d 7dbc 5803 2e3e
00000190: 00f5 613b 90bf 56bd 5c46 893d 0452 14be
000001a0: 7080 843d e22b 203e f0fe 39bd 2420 6e3e
000001b0: 6822 1e3e 6672 2f3e c6b1 4cbe 6c58 993d
000001c0: f06f 5d3d 0cae 543e b0d5 dabc 885b b5bd
000001d0: e46e e23d dc7f 9ebd f207 06be a4f3 3abe
000001e0: c041 613e 2c86 52be 3acd 463e b083 483d
000001f0: 6828 86bd 00c8 57bb 0021 6cbb 0e40 343e

layer2.weight f4 [128, 128]
0.0049561006 0.023001917 0.00363545 0.055321362 -0.022365257 0.04100603 -0.038261637 -0.08542892
-0.06840541 -0.063788556 0.0028136498 -0.038650494 0.06333416 0.053634636 0.08716507 0.027887737
0.05339758 -0.03614972 -0.047217544 0.08158247 0.050635867 0.04589032 -0.0126575725 0.020570243
0.028688822 0.049783837 -0.042420857 -0.0030700185 0.027117029 0.055011056 0.06921428 0.05870272
-0.06118049 0.0119164 -0.019531913 -0.02617353 -0.058954474 -0.064767756 0.05870704 0.01353604
-0.06215009 -0.08015708 0.064198725 0.04043732 0.010511066 0.025969202 0.054279882 0.053665962
-0.061438914 -0.068162076 -0.0258027 -0.082922086 -0.042569 0.016340544 0.054755416 0.023894407
-0.021688884 0.044930406 0.046594657 -0.047480963 0.06558509 0.06793727 0.08613795 -0.08629203
-0.06803624 -0.06111355 0.027533166 -0.07466983 -0.00416296 -0.011418761 0.06864237 0.0022512844
-0.012721036 -0.06399643 -0.057762496 0.035327595 -0.023530185 -0.010156263 0.05059923 -0.0029566013
-0.08473976 0.022805627 0.054924287 0.01792986 -0.038088422 -0.0347001 -0.063135855 -0.02196933
-0.044062085 0.06387695 0.053163107 0.06948796 0.046113625 0.07819455 0.067061916 0.06036317
-0.037734535 -0.075078815 0.0065424656 0.0060982485 0.030532146 -0.083790176 -0.06503691 -0.0509275
-0.03066397 0.060379386 -0.07515435 -0.0040574875 0.06713919 0.00064290804 0.012322843 -0.0007102692
0.06933126 -0.039547432 -0.006412295 0.01989936 -0.07638862 0.031669877 -0.0606638 0.08673221
-0.008697107 -0.0031491388 -0.041181654 0.04967981 0.0340063 -0.07376284 0.009271937 0.043123662
0.01669775 -0.058047548 0.035592202 0.032514777 -0.0043542646 0.050456405 0.0051535373 -0.011954173
-0.01830035 -0.08633662 -0.0278499 0.0049899127 -0.031505685 0.04977174 0.030192105 0.06253629
-0.0657797 0.026908044 -0.06723442 -0.04745163 -0.055077616 -0.019101035 -0.057017647 -0.077584
-0.022944797 -0.036104582 -0.006148372 -0.08104094 0.051064353 0.05782931 0.06985408 -0.047000214
-0.07938424 -0.0660093 -0.07526535 -0.044262197 -0.03268366 0.06899672 -0.053875137 0.0036482206
-0.05327158 -0.018298129 -0.022855751 -0.0032878756 -0.06462241 0.014713907 -0.011019009 0.08051596
-0.011940876 -0.022034604 -0.007375066 -0.06430227 0.027577473 0.06165084 0.018255359 0.022892809
0.06619413 0.06697228 -0.024164168 0.008816825 0.025814112 0.08112425 0.024608258 -0.08381887
-0.010963217 0.08036499 0.083325654 -0.06725009 -0.025104865 -0.041633595 -0.02838255 -0.058926173
0.055513047 0.03129458 0.015672801 -2.0999667e-05 0.07143213 0.013869063 0.016412245 -0.06564375
-0.0716604 0.045203052 -0.04313461 -0.0590669 0.05028102 0.055093873 -0.017872455 0.00046356264
0.014951942 0.056575935 -0.06464697 -0.06648481 0.061273318 -0.0070364266 -0.08411898 0.082050905
0.06519096 0.051579427 0.027747462 0.047593106 -0.060830723 -0.059476346 0.033846393 -0.043749135
-0.026169231 -0.029169759 0.08243232 -0.0052753524 0.07377083 -0.00383491 0.030644383 0.007175764
-0.052824352 0.06714469 -0.04222489 0.076530226 0.011661485 0.01825988 -0.006764959 -0.04642039
0.0864914 -0.021284306 -0.06815709 -0.004583438 -0.039110348 0.02130364 -0.074720405 -0.013184746
00000000: c966 a23b 846e bc3c bb40 6e3b a798 623d
00000010: 5837 b7bc f0f5 273d 3cb8 1cbd 5cf5 aebd
00000020: 2318 8cbd 93a3 82bd 3665 383b fb4f 1ebd
00000030: 57b5 813d feaf 5b3d 9a83 b23d d374 e43c
00000040: 6cb7 5a3d bb11 14bd 2f67 41bd b614 a73d
00000050: 8e67 4f3d 7df7 3b3d b561 4fbc ed82 a83c
00000060: d204 eb3c 23ea 4b3d 7ec1 2dbd 5d32 49bb
00000070: 8824 de3c 4653 613d 37c0 8d3d 4372 703d
00000080: 6598 7abd 013d 433c 6401 a0bc df69 d6bc
00000090: 3f7a 71bd f5a4 84bd cb76 703d 44c6 5d3c
000000a0: 1891 7ebd 6529 a4bd 9f7a 833d 9aa1 253d
000000b0: 9b36 2c3c 5dbd d43c 9554 5e3d d7d0 5b3d
000000c0: 5fa7 7bbd 8f98 8bbd 2f60 d3bc 0ed3 a9bd
000000d0: d55c 2ebd 9bdc 853c 3747 603d 34be c33c
000000e0: e3ac b1bc f208 383d 0ada 3e3d 667b 42bd
000000f0: 7a51 863d b222 8b3d 1869 b03d e0b9 b0bd
00000100: 9656 8bbd 3452 7abd 3c8d e13c 7fec 98bd
00000110: 7169 88bb c115 3bbc 5f94 8c3d 498a 133b
00000120: e46b 50bc 8f10 83bd 5e98 6cbd abb3 103d
00000130: 60c2 c0bc 7466 26bc 2341 4f3d 8ac3 41bb
00000140: 0a8c adbd ded2 ba3c 4af8 603d a4e1 923c
00000150: 9b02 1cbd b121 0ebd 5f4d 81bd 06f9 b3bc
00000160: 727a 34bd ebd1 823d 8fc1 593d b44f 8e3d
00000170: a4e1 3c3d 7724 a03d c257 893d 5f3f 773d
00000180: 878f 1abd ecc2 99bd 2e62 d63b d1d3 c73b
00000190: 8d1e fa3c 2f9a abbd 1232 85bd 5b99 50bd
000001a0: 0233 fbbc 6050 773d 86ea 99bd acf4 84bb
000001b0: 4680 893d d488 283a c0e5 493c 5c31 3aba
000001c0: 8cfd 8d3d 7dfc 21bd 3b1e d2bb fc03 a33c
000001d0: a371 9cbd 46b8 013d 9b7a 78bd a8a0 b13d
000001e0: 507e 0ebc c861 4ebb 18ae 28bd 0e7d 4b3d
000001f0: 314a 0b3d f910 97bd 53e9 173c 70a2 303d
00000200: b8c9 883c 44c3 6dbd 21c9 113d 372e 053d
00000210: 38ae 8ebb 60ab 4e3d 01df a83b 70db 43bc
00000220: 9eea 95bc 41d1 b0bd 7925 e4bc 6c82 a33b
00000230: 1b0c 01bd 74dd 4b3d 6f55 f73c 0713 803d
00000240: 82b7 86bd 426e dc3c 33b2 89bd a45c 42bd
00000250: 1199 61bd c679 9cbc 568b 69bd 5ce4 9ebd
00000260: baf6 bbbc 66e2 13bd 4878 c9bb cbf8 a5bd
00000270: db28 513d 6dde 6c3d a80f 8f3d 4c83 40bd
00000280: 3494 a2bd e22f 87bd b824 9abd 474c 35bd
00000290: 4ddf 05bd 274e 8d3d 2dac 5cbd fc16 6f3b
000002a0: 4d33 5abd f5e5 95bc fc3b bbbc 6679 57bb
000002b0: c158 84bd 9912 713c 1389 34bc 8de5 a43d
000002c0: aaa3 43bc ea81 b4bc 8aaa f1bb e9b0 83bd
000002d0: 27ea e13c 9785 7c3d 438c 953c b389 bb3c
000002e0: ca90 873d c328 893d eff3 c5bc 7274 103c
000002f0: 1e78 d33c 7924 a63d 4297 c93c 3aa9 abbd
00000300: 119f 33bc 6696 a43d a4a6 aa3d 6aba 89bd
00000310: b8a8 cdbc fd87 2abd 8682 e8bc 925c 71bd
00000320: a661 633d bf2e 003d 3f64 803c 7128 b0b7
00000330: 024b 923d 113b 633c f972 863c 3b70 86bd
00000340: b0c2 92bd d626 393d ebad 30bd 22f0 71bd
00000350: 79f3 4d3d 1daa 613d 4169 92bc 530a f339
00000360: fdf8 743c 2bbc 673d a165 84bd 3029 88bd
00000370: bbf9 7a3d d391 e6bb 9246 acbd 4e0a a83d
00000380: d782 853d f344 533d a54e e33c fdf0 423d
00000390: a329 79bd 789d 73bd 84a2 0a3d 4b32 33bd
000003a0: db60 d6bc 6bf5 eebc 47d2 a83d dddc acbb
000003b0: 2915 973d 1d53 7bbb ee09 fb3c ac22 eb3b
000003c0: 595e 58bd 2883 893d 02f4 2cbd e1bb 9c3d
000003d0: d00f 3f3c be95 953c 97ac ddbb 4f23 3ebd
000003e0: 6722 b13d 6d5c aebc f295 8bbd aa30 96bb
000003f0: 2c32 20bd f984 ae3c 0307 99bd d504 58bc

layer2.bias f4 [128]
-0.006475136 -0.014515944 0.02254555 0.025356418 0.045158725 -0.065973006 0.064971186 -0.06219718
-0.03649484 0.041313056 0.032114908 -0.05988433 -0.055805884 0.026859459 0.007545982 0.07856929
0.08610041 -0.0701716 0.026472192 -0.068943515 0.037783448 -0.042434435 -0.033909615 0.060814254
0.063716784 -0.04295891 -0.00082301203 0.00014973721 0.06791249 0.088028245 -0.043643903 -0.060803454
0.079732604 0.010430755 -0.0031769136 0.0060771857 -0.029033825 0.061545797 -0.07377789 0.0135102775
0.07397542 0.01960329 -0.07322469 0.0037219354 -0.047974102 0.070272125 0.078507215 -0.02865052
-0.065653086 0.057715252 0.076540045 0.06354655 0.032524575 -0.03845964 -0.06798844 -0.06227198
-0.07945184 -0.030935312 -0.08449752 0.076595575 -0.08638574 -0.0578906 -0.026784776 -0.026954258
0.03531849 -0.018428298 -0.02686338 -0.036777962 0.08408378 -0.0044804416 0.01352505 -0.018057395
-0.04312396 0.035136532 -0.0016900464 -0.038318723 -0.07992311 0.062198557 0.0064673177 -0.0034924352
-0.039460335 -0.012720677 -0.08142078 -0.04669399 0.0020696525 0.022729805 0.05762318 0.06953519
-0.0556089 -0.04473441 -0.057874925 0.0063325325 0.033230156 -0.0097278925 0.0058486336 -0.053267915
0.037015438 0.021183217 -0.052536163 0.047004916 0.06489537 -0.06718331 0.064019494 -0.02045457
-0.023744576 0.05519061 -0.07132867 0.06252223 0.06839304 0.027241625 -0.07105366 -0.07863686
0.0059640636 0.036317486 -0.0078746015 0.064905025 -0.077550955 -0.08474001 0.012422573 0.039997127
-0.04903326 -0.005787458 0.044829525 -0.01226587 -0.0025582188 0.040014237 -0.042166825 -0.0855837
00000000: 612d d4bb 48d4 6dbc 72b1 b83c 43b8 cf3c
00000010: 5bf8 383d db1c 87bd 9d0f 853d 78c2 7ebd
00000020: 9d7b 15bd e137 293d ec8a 033d 4549 75bd
00000030: b694 64bd 5e08 dc3c 4944 f73b f0e8 a03d
00000040: 6955 b03d 21b6 8fbd 36dc d83c 4232 8dbd
00000050: d1c2 1a3d bbcf 2dbd cfe4 0abd 5e18 793d
00000060: f27d 823d aff5 2fbd 67bf 57ba c702 1d39
00000070: b415 8b3d 2748 b43d f3c3 32bd 0b0d 79bd
00000080: d94a a33d c2e5 2a3c c433 50bb 2123 c73b
00000090: 58d8 edbc 7217 7c3d dd18 97bd 365a 5d3c
000000a0: 6d80 973d 1497 a03c d4f6 95bd b7eb 733b
000000b0: 7e80 44bd d5ea 8f3d 64c8 a03d 7fb4 eabc
000000c0: 2075 86bd d466 6c3d 07c1 9c3d b224 823d
000000d0: 7d38 053d db87 1dbd 863d 8bbd e710 7fbd
000000e0: a5b7 a2bd 0d6c fdbc 090d adbd 24de 9c3d
000000f0: 02eb b0bd b21e 6dbd bf6b dbbc 2dcf dcbc
00000100: 1faa 103d f1f6 96bc 9710 dcbc 7da4 16bd
00000110: 1e34 ac3d abd0 92bb 2c98 5d3c 1aed 93bc
00000120: c0a2 30bd 53eb 0f3d 8c84 ddba 18f4 1cbd
00000130: baae a3bd eac3 7e3d cbeb d33b 57e1 64bb
00000140: 29a1 21bd 636a 50bc f0bf a6bd 3242 3fbd
00000150: 02a3 073b db33 ba3c 4906 6c3d 7768 8e3d
00000160: 28c6 63bd 6e3b 37bd 420e 6dbd 2281 cf3b
00000170: 581c 083d bd61 1fbc e5a5 bf3b 752f 5abd
00000180: 809d 173d 6d88 ad3c 2930 57bd 3a88 403d
00000190: dde7 843d 6797 89bd a71c 833d 5890 a7bc
000001a0: fc83 c2bc 8d0f 623d c414 92bd a80b 803d
000001b0: a611 8c3d d429 df3c 9584 91bd 5d0c a1bd
000001c0: 316e c33b a5c1 143d 7904 01bc edec 843d
000001d0: 09d3 9ebd 2c8c adbd 0c88 4b3c 07d4 233d
000001e0: 1ad7 48bd b7a4 bdbb 2a9f 373d caf6 48bc
000001f0: caa7 27bb f8e5 233d 1fb7 2cbd 8246 afbd

layer3.weight f4 [4, 128]
-0.069216765 -0.07060209 -0.008700996 0.008951242 -0.00048540524 -0.012952358 0.026704138 0.011106748
-0.060012337 0.045922372 0.056013636 0.05978817 -0.025322068 0.07753681 0.07018492 0.05068461
-0.06601739 0.067177616 0.021791764 -0.053315785 0.0687865 0.07100614 0.0023000273 -0.028196262
-0.086171135 0.0013911516 -0.022737097 0.029390715 -0.023900455 -0.025580123 0.040151067 -0.05563755
-0.025552223 0.011326249 -0.0072192913 -0.009809985 -0.06515719 0.03840604 -0.074709214 0.080617815
-0.051057722 0.03748978 0.010242369 -0.054205272 -0.070782125 0.033911258 -0.05826811 -0.012042618
-0.021079345 -0.023137312 0.002258481 -0.02456431 -0.048726045 -0.03116691 0.08446977 0.015109824
-0.0010688967 0.050443772 0.03358367 -0.02772368 -0.056749646 0.062228926 0.053708214 -0.052608505
0.07497623 0.0813327 0.033800464 -0.006209727 0.051342204 0.058708515 -0.053697962 0.06446254
0.060554147 -0.06955453 0.029159328 -0.062225763 0.013897302 0.054147456 -0.05042134 -0.009181522
0.075918674 -0.02439015 -0.08135533 -0.05646996 0.018542895 -0.024624042 0.075810716 0.012107209
-0.0039140936 -0.042810924 -0.046660945 0.010332868 0.07840858 -0.0802509 0.05767908 0.03596947
-0.07199331 0.06896294 -0.055669125 0.03715154 0.05596365 -0.07003536 0.015952835 -0.009535682
-0.06912532 -0.023421247 -0.05117759 0.043980245 0.023916377 -0.0008646215 -0.0180581 0.08474392
0.028403824 0.003061684 -0.016695946 -0.035823967 0.025907572 -0.033828314 0.015179409 0.06760474
-0.007908793 0.08146967 0.0670461 -0.0105167655 -0.044635586 0.019592857 -0.088039815 -0.06701486
0.042865854 -0.08421033 0.028481934 -0.009120199 0.022484848 0.04590877 -0.0063420995 -0.032183923
0.08055786 -0.025100313 0.039365526 0.022979494 0.018039789 -0.03176903 0.051197916 0.083202966
-0.06812752 0.055955492 -0.071849026 0.06811342 -0.06464182 0.08632585 0.08479733 0.003262619
0.01571463 -0.007238226 -0.061203334 0.029504238 -0.08550629 0.03577552 -0.027506044 -0.027835475
0.05925499 -0.0026504677 -0.03775566 0.0048804046 0.024327688 -0.01360573 0.01580569 -0.08719872
0.060705855 -0.058249347 0.0846173 0.053493842 0.03414609 -0.00011871714 -0.05147935 0.06499299
-0.0763108 -0.08163522 0.02167134 0.04376006 -0.035154402 0.07743307 -0.005045199 0.032821164
-0.05417523 -0.048740998 -0.07865849 0.048978377 -0.03481436 -0.031828698 -0.028266743 -0.024295729
-0.07945713 -0.0879005 -0.08693714 -0.073371306 -0.020179637 0.022555698 0.039183892 -0.036669865
0.032630943 0.065179445 -0.069571674 0.047519624 0.007092714 -0.011670662 -0.03808779 -0.059593674
-0.06554814 0.010815482 -0.011399479 0.06980201 0.07192543 -0.06692401 -0.051524226 0.08112118
-0.03248976 -0.0018793279 -0.013607921 -0.06835164 -0.075629264 0.07380319 -0.050154507 0.024917364
-0.059892513 -0.045401756 0.04630183 0.014377385 0.05804254 -0.014515269 -0.072960205 0.040548228
-0.08458983 0.02544497 0.063759625 0.021359064 -0.07253231 0.060422808 -0.03009247 -0.08452993
0.047262706 0.057004843 0.05730577 0.049252193 -0.015564062 -0.020134045 0.034813855 -0.03880571
-0.06009675 0.029006008 0.088116825 -0.0013377726 0.00953623 0.016784698 -0.06926077 -0.024559895
00000000: 85c1 8dbd d497 90bd 9f8e 0ebc 3ba8 123c
00000010: fd7d feb9 2136 54bc a3c2 da3c 14f9 353c
00000020: 7fcf 75bd 1919 3c3d 8e6e 653d 71e4 743d
00000030: 3a70 cfbc 9ecb 9e3d 1dbd 8f3d aa9a 4f3d
00000040: 2034 87bd 6b94 893d a484 b23c a761 5abd
00000050: f0df 8c3d ab6b 913d 0ebc 163b d9fb e6bc
00000060: 7e7a b0bd 4d57 b63a 2643 babc ccc4 f03c
00000070: e3ca c3bc 688d d1bc 7275 243d 33e4 63bd
00000080: e552 d1bc bb91 393c ce8f ecbb 0fba 20bc
00000090: 2271 85bd a74f 1d3d 2501 99bd f41a a53d
000000a0: e721 51bd e28e 193d 9ccf 273c 5906 5ebd
000000b0: 38f6 90bd 88e6 0a3d 8baa 6ebd 674e 45bc
000000c0: 97ae acbc 768a bdbc 0603 143b 183b c9bc
000000d0: f694 47bd bf51 ffbc 7dfe ac3d 328f 773c
000000e0: 391a 8cba 219e 4e3d 088f 093d c51c e3bc
000000f0: 5172 68bd c2e3 7e3d 25fd 5b3d 047c 57bd
00000100: 238d 993d c291 a63d 5b72 0a3d f77a cbbb
00000110: 344c 523d 5778 703d 65f2 5bbd f004 843d
00000120: a007 783d 9b72 8ebd 8bdf ee3c 71e0 7ebd
00000130: 82b1 633c b9c9 5d3d 9b86 4ebd 186e 16bc
00000140: 407b 9b3d dacd c7bc a09d a6bd 0b4d 67bd
00000150: 45e7 973c 5cb8 c9bc a642 9b3d 515d 463c
00000160: cc41 80bb 825a 2fbd 8c1f 3fbd 314b 293c
00000170: ad94 a03d 955a a4bd e640 6c3d b954 133d
00000180: 3a71 93bd 713c 8d3d 4f05 64bd 372c 183d
00000190: 243a 653d b36e 8fbd 85af 823c 8d3b 1cbc
000001a0: 9391 8dbd eadd bfbc 989f 51bd a124 343d
000001b0: 47ec c33c c4a7 62ba 95ee 93bc 388e ad3d
000001c0: 23af e83c 89a6 483b f0c5 88bc 27bc 12bd
000001d0: 1e3c d43c 8f8f 0abd 0eb3 783c 5b74 8a3d
000001e0: e293 01bc 92d9 a63d 774f 893d 834e 2cbc
000001f0: ced3 36bd 3381 a03c 384e b4bd 163f 89bd
00000200: 1b94 2f3d 7776 acbd f252 e93c e36c 15bc
00000210: 2532 b83c d60a 3c3d 63d1 cfbb 4ad3 03bd
00000220: 85fb a43d 2c9f cdbc bf3d 213d 7e3f bc3c
00000230: 2ec8 933c 3e20 02bd e8b4 513d 5166 aa3d
00000240: 7186 8bbd 9631 653d 9525 93bd 0c7f 8b3d
00000250: ee62 84bd 9bcb b03d 39aa ad3d aad1 553b
00000260: f8bb 803c a42e edbb 59b0 7abd dfb2 f13c
00000270: ec1d afbd 5a89 123d 5b54 e1bc 3907 e4bc
00000280: 5cb5 723d 78b3 2dbb aea5 1abd cdeb 9f3b
00000290: dc4a c73c 91ea 5ebc ef7a 813c 3e95 b2bd
000002a0: b4a6 783d de96 6ebd d64b ad3d 5c1c 5b3d
000002b0: c5dc 0b3d c7f7 f8b8 03dc 52bd 0b1b 853d
000002c0: d648 9cbd 5e30 a7bd 1888 b13c c03d 333d
000002d0: 10fe 0fbd 3b95 9e3d 3252 a5bb 7c6f 063d
000002e0: d9e6 5dbd a4a4 47bd b417 a1bd 8d9d 483d
000002f0: 8199 0ebd cf5e 02bd a88f e7bc d607 c7bc
00000300: 6bba a2bd 2d05 b4bd 190c b2bd b243 96bd
00000310: c44f a5bc bac6 b83c 4a7f 203d 2433 16bd
00000320: 06a8 053d cd7c 853d 987b 8ebd f0a3 423d
00000330: ff69 e83b 4e36 3fbc f101 1cbd 7f18 74bd
00000340: 1a3e 86bd 6b33 313c e1c4 3abc 5bf4 8e3d
00000350: a44d 933d 750f 89bd 110b 53bd dc22 a63d
00000360: fc13 05bd c853 f6ba c2f3 5ebc f2fb 8bbd
00000370: 84e3 9abd 2026 973d d06e 4dbd 801f cc3c
00000380: da51 75bd 31f7 39bd fda6 3d3d 208f 6b3c
00000390: 04be 6d3d 73d1 6dbc 296c 95bd e615 263d
000003a0: 6f3d adbd f871 d03c 6894 823d 34f9 ae3c
000003b0: d28b 94bd e87d 773d 7c84 f6bc 071e adbd
000003c0: 8a96 413d e97d 693d 75b9 6a3d abbc 493d
000003d0: 6800 7fbc 27f0 a4bc f998 0e3d bcf2 1ebd
000003e0: 0228 76bd 029e ed3c 9876 b43d 3358 afba
000003f0: d93d 1c3c 1080 893c 97d8 8dbd d531 c9bc

layer3.bias f4 [4]
0.048890535 -0.010881705 -0.0683312 -0.02571829
00000000: 7141 483d 2e49 32bc 3af1 8bbd 2aaf d2bc

layer1.weight f4 [128, 16]
0.20563236 -0.17664331 -0.22469366 0.22545981 -0.14854386 0.11260417 -0.16773188 -0.10718933
-0.18945244 0.012941211 0.2090841 -0.108661056 0.11529544 0.17684317 -0.15281534 -0.16138843
0.13629562 0.21498814 0.095345885 0.24543884 -0.1702581 -0.042788178 -0.03669256 0.11402407
-0.17910916 -0.018090636 0.0014995933 -0.18708193 0.0018072128 -0.22755796 0.038024455 0.13301232
-0.20416248 0.06466943 -0.22181687 0.22717172 -0.076960236 0.121527135 0.13882795 0.036007583
0.21755552 -0.18137547 0.044563264 0.1562477 -0.073536545 -0.06299353 0.08171049 -0.15618968
0.17069674 0.08171755 -0.08797449 -0.03657347 0.19961375 -0.22163191 -0.24800602 0.080726445
-0.21248922 -0.20699573 -0.14619282 0.0013926625 0.17985994 0.10793096 0.24170911 0.2398768
0.04917258 -0.10469708 0.020759135 -0.19503105 -0.04135987 -0.23485309 0.0456571 0.21594808
0.18731657 -0.07390645 0.22581202 0.23635298 0.15587744 0.0832628 -0.04078713 -0.007624179
-0.13651633 -0.019619852 -0.14561993 0.058178782 -0.21718496 -0.14417174 -0.016683102 0.15672585
0.22616851 -0.083034694 -0.12241194 0.15726957 -0.16165528 -0.09398022 -0.11224398 0.13448644
0.01226455 0.07400161 0.21146774 0.10819459 -0.22122258 0.1125395 0.028142214 0.15310425
0.09910849 -0.17701659 -0.0018213689 0.17756638 0.24186215 0.1326566 -0.12465295 0.0042428374
0.18431002 -0.19791162 0.08670792 0.03088808 -0.0108650625 -0.03150341 -0.14729756 -0.065509945
0.17459235 -0.0051319897 -0.031573296 0.12619665 -0.16616139 -0.13465655 -0.02014178 -0.031101972
-0.013690591 -0.22650832 -0.15519875 -0.04051581 -0.06719637 0.007021606 0.12639466 -0.21926436
0.2418864 -0.08474189 0.14255598 -0.12726489 0.19572794 -0.13315082 0.18023181 -0.14172426
0.17085135 0.18948147 0.0590401 0.1765014 0.0716705 0.18733412 0.18689427 0.10137391
-0.06642005 -0.096491784 0.041442215 -0.19339246 0.15670162 -0.10983789 -0.017047852 0.07986477
-0.15103236 0.07105377 0.16126195 0.03785032 -0.24057913 0.10268071 -0.21426845 0.030010968
-0.19692788 0.16818967 0.19671264 -0.09051567 0.13957635 -0.24861738 0.029071897 0.019583732
-0.090530604 0.07850516 0.0055160522 0.114525706 -0.10933459 -0.06998637 0.07236943 -0.19830155
0.051689595 -0.15968183 0.0616 -0.18915614 0.20238829 -0.11347121 -0.016066372 0.21857432
0.0936034 -0.15720108 0.1755004 -0.15909219 0.050057203 0.20365578 0.0109514 -0.1334162
0.057609677 0.15413511 0.09205666 -0.16720334 -0.1349599 -0.14992559 -0.21762592 0.061617643
0.21712759 -0.122149915 0.1679104 0.19356129 0.012334764 0.0097902715 0.046889037 -0.20539474
0.029264033 0.074213356 -0.17433318 -0.24579269 0.16632566 0.1408672 0.21811748 0.15936056
-0.024102986 -0.19271994 0.22238415 -0.19009638 0.24827677 -0.023737073 -0.13070565 0.039536536
-0.06867328 0.2027652 -0.028991818 -0.1856164 0.110363126 0.24169588 0.07416943 0.07112265
0.085339904 -0.14440829 0.1841867 0.1135582 0.123766184 0.005833715 0.15097588 0.13599643
0.22032651 0.030320853 0.0065710247 0.151636 -0.15892896 -0.11685255 -0.23019317 -0.19183525
00000000: 4a91 523e fce1 34be 1816 66be f0de 663e
00000010: e21b 18be 049d e63d e8c1 2bbe 1486 dbbd
00000020: d2ff 41be 6007 543c 241a 563e b089 debd
00000030: 0420 ec3d 6016 353e a07b 1cbe 0243 25be
00000040: 1491 0b3e da25 5c3e b444 c33d 5254 7b3e
00000050: 2458 2ebe a842 2fbd f04a 16bd 7485 e93d
00000060: 6468 37be d032 94bc 008e c43a 6892 3fbe
00000070: 00e0 ec3a f404 69be 88bf 1b3d 6234 083e
00000080: f80f 51be 6871 843d f623 63be b49f 683e
00000090: 549d 9dbd 38e3 f83d ea28 0e3e b07c 133d
000000a0: e0c6 5e3e 7eba 39be f887 363d 66ff 1f3e
000000b0: 549a 96bd c002 81bd d457 a73d 30f0 1fbe
000000c0: 20cb 2e3e 885b a73d f82b b4bd 10ce 15bd
000000d0: 8c67 4c3e 7af3 62be 4af5 7dbe e853 a53d
000000e0: c696 59be b0f6 53be 92b3 15be 008a b63a
000000f0: 342d 383e e80a dd3d 9882 773e 44a2 753e
00000100: 3069 493d 6c6b d6bd 100f aa3c 38b6 47be
00000110: f868 29bd 547d 70be f002 3b3d 7e21 5d3e
00000120: eacf 3f3e 445c 97bd 443b 673e 8406 723e
00000130: 569e 1f3e b085 aa3d 6810 27bd 40d4 f9bb
00000140: f0ca 0bbe d0b9 a0bc 641d 15be e04c 6e3d
00000150: bc65 5ebe c2a1 13be 00ab 88bc be7c 203e
00000160: b898 673e 180e aabd 1cb3 fabd 460b 213e
00000170: f688 25be b478 c0bd 2ce0 e5bd d0b6 093e
00000180: 40f1 483c 288e 973d 008b 583e 2095 dd3d
00000190: 2c88 62be 1c7b e63d 808a e63c 5cc7 1c3e
000001a0: 64f9 ca3d d643 35be 00bb eeba f6d3 353e
000001b0: b6aa 773e 22d7 073e 0c4a ffbd 8007 8b3b
000001c0: c4bb 3c3e 58a9 4abe ec93 b13d 0009 fd3c
000001d0: 6003 32bc b809 01bd 2cd5 16be 142a 86bd
000001e0: 56c8 323e 402a a8bb 0053 01bd b239 013e
000001f0: 3626 2abe 68e3 09be 6000 a5bc 90c9 febc
00000200: 804e 60bc ccf1 67be 6cec 1ebe e8f3 25bd
00000210: 409e 89bd 8015 e63b 9a6d 013e d686 60be
00000220: 12b1 773e 288d adbd 32fa 113e ba51 02be
00000230: e86c 483e b058 08be b08e 383e 2a20 11be
00000240: a8f3 2e3e 6e07 423e 08d4 713d c8bc 343e
00000250: fcc7 923d 84d4 3f3e 3661 3f3e 209d cf3d
00000260: 3c07 88bd 7c9d c5bd 50bf 293d ac08 46be
00000270: 6476 203e b0f2 e0bd f0a7 8bbc 2490 a33d
00000280: 3aa8 1abe a484 913d da21 253e f008 1b3d
00000290: 605a 76be 444a d23d 3069 5bbe 90d9 f53c
000002a0: 76a7 49be ea39 2c3e 0a6f 493e 4860 b9bd
000002b0: 1aed 0e3e 8e95 7ebe 3028 ee3c 106e a03c
000002c0: 1c68 b9bd 50c7 a03d 00c0 b43b 748c ea3d
000002d0: d0ea dfbd 0455 8fbd 6c36 943d 900f 4bbe
000002e0: 78b8 533d a283 23be 4850 7c3d 26b2 41be
000002f0: e03e 4f3e 9863 e8bd a09d 83bc f2d1 5f3e
00000300: 24b3 bf3d 52f9 20be 60b6 333e 10e9 22be
00000310: c808 4d3d 248b 503e 806d 333c 429e 08be
00000320: 20f8 6b3d 98d5 1d3e 3488 bc3d 5a37 2bbe
00000330: ee32 0abe 1886 19be 54d9 5ebe c862 7c3d
00000340: b256 5e3e bc29 fabd b4f0 2b3e ee34 463e
00000350: c017 4a3c 6067 203c b80e 403d 0053 52be
00000360: 20bb ef3c 2cfd 973d 6684 32be 14b1 7bbe
00000370: 4651 2a3e 7e3f 103e 305a 5f3e 6a2f 233e
00000380: a073 c5bc 6058 45be acb8 633e a0a8 42be
00000390: 443c 7e3e 4074 c2bc b4d7 05be 10f1 213d
000003a0: 94a4 8cbd aea1 4f3e 4080 edbc 3a12 3ebe
000003b0: 1006 e23d 207f 773e 24e6 973d c0a8 913d
000003c0: b0c6 ae3d c4df 13be 709b 3c3e 3491 e83d
000003d0: 2079 fd3d c028 bf3b 6c99 1a3e a642 0b3e
000003e0: 469d 613e 7063 f83c c051 d73b 7846 1b3e
000003f0: 46be 22be 6450 efbd c2b7 6bbe 7670 44be

layer1.bias f4 [128]
0.14981088 0.03708577 -0.22619084 -0.025532126 0.15011257 0.01785788 -0.053233534 0.22692788
-0.057565004 -0.045904726 -0.040463954 -0.08520952 -0.11178085 0.08412832 0.07076809 0.17182398
0.17803732 0.16904989 0.024383515 0.22948343 0.007751763 0.23528188 0.24007851 0.06600639
0.1214062 -0.017633557 0.17530796 -0.02474761 0.014624327 0.13334996 0.057008952 -0.0403395
-0.018592745 -0.13218138 -0.1852783 0.13459817 -0.120613486 0.021421105 -0.22924128 0.20749962
-0.20473224 -0.21829978 0.043246984 -0.059735686 -0.019592673 -0.12714353 0.11309281 -0.098427385
0.24548262 -0.051021993 -0.06795937 -0.054747045 0.13125944 0.15739423 0.028196096 0.20736301
0.123672694 0.18446475 -0.11087343 -0.029528022 -0.093158245 0.06621528 -0.19320634 -0.14013085
-0.20175278 0.08606267 -0.171146 -0.23623899 0.03927651 0.20855203 0.13270006 -0.06842399
-0.17327252 0.2375274 -0.07067233 -0.05076897 -0.24751323 -0.22170728 -0.038975894 0.1416055
-0.19146544 -0.101181775 -0.00422132 -0.010151148 -0.16161585 -0.05720231 0.09120938 -0.18324941
-0.019580811 -0.17452195 0.17199144 0.0646736 0.19660392 0.08851415 0.21580869 0.24614298
0.025335163 0.09005326 -0.0154488385 0.16993463 0.0034478307 -0.052428782 0.06702873 -0.14484411
0.0646981 0.1564174 -0.045409143 0.23254448 0.15442812 0.17133483 -0.1998969 0.07487568
0.05406183 0.20769519 -0.026713222 -0.08855349 0.11056307 -0.07739231 -0.13088968 -0.18257004
0.21997738 -0.20558995 0.19414225 0.048953712 -0.06550676 -0.0032925606 -0.0036030412 0.1760256
00000000: 0668 193e 40e7 173d 929e 67be c028 d1bc
00000010: 1cb7 193e b04a 923c 680b 5abd c85f 683e
00000020: 48c9 6bbd 9806 3cbd 88bd 25bd 5482 aebd
00000030: 5ced e4bd 784b ac3d dcee 903d a0f2 2f3e
00000040: 6a4f 363e 6a1b 2d3e f0bf c73c b4fd 6a3e
00000050: 8002 fe3b bced 703e 24d7 753e 5c2e 873d
00000060: d0a3 f83d 4074 90bc ee83 333e 80bb cabc
00000070: e09a 6f3c e48c 083e 3882 693d 083b 25bd
00000080: d04f 98bc 8e5a 07be 98b9 3dbe 1ad4 093e
00000090: 3404 f7bd 507b af3c 3abe 6abe c87a 543e
000000a0: 54a5 51be fa89 5fbe c023 313d 68ad 74bd
000000b0: d080 a0bc ea31 02be 349d e73d 4c94 c9bd
000000c0: cc5f 7b3e 70fc 50bd 482e 8bbd 703e 60bd
000000d0: e068 063e f42b 213e 80fb e63c f856 543e
000000e0: 1c48 fd3d 54e4 3c3e 9c11 e3bd c0e4 f1bc
000000f0: c0c9 bebd e09b 873d e2d7 45be 767e 0fbe
00000100: 4898 4ebe a041 b03d e640 2fbe a2e8 71be
00000110: 68e0 203d aa8e 553e 86e2 073e e021 8cbd
00000120: 5a6e 31be 623a 733e a8bc 90bd 20f3 4fbd
00000130: 1c74 7dbe 3c07 63be 30a5 1fbd 0801 113e
00000140: 840f 44be 6438 cfbd 0053 8abb 0051 26bc
00000150: a07e 25be f84c 6abd fccb ba3d bca5 3bbe
00000160: f067 a0bc e2b5 32be 861e 303e 9873 843d
00000170: 8a52 493e e846 b53d f4fc 5c3e e80c 7c3e
00000180: b08b cf3c d86d b83d 201d 7dbc 5803 2e3e
00000190: 00f5 613b 90bf 56bd 5c46 893d 0452 14be
000001a0: 7080 843d e22b 203e f0fe 39bd 2420 6e3e
000001b0: 6822 1e3e 6672 2f3e c6b1 4cbe 6c58 993d
000001c0: f06f 5d3d 0cae 543e b0d5 dabc 885b b5bd
000001d0: e46e e23d dc7f 9ebd f207 06be a4f3 3abe
000001e0: c041 613e 2c86 52be 3acd 463e b083 483d
000001f0: 6828 86bd 00c8 57bb 0021 6cbb 0e40 343e

layer2.weight f4 [128, 128]
0.0049561006 0.023001917 0.00363545 0.055321362 -0.022365257 0.04100603 -0.038261637 -0.08542892
-0.06840541 -0.063788556 0.0028136498 -0.038650494 0.06333416 0.053634636 0.08716507 0.027887737
0.05339758 -0.03614972 -0.047217544 0.08158247 0.050635867 0.04589032 -0.0126575725 0.020570243
0.028688822 0.049783837 -0.042420857 -0.0030700185 0.027117029 0.055011056 0.06921428 0.05870272
-0.06118049 0.0119164 -0.019531913 -0.02617353 -0.058954474 -0.064767756 0.05870704 0.01353604
-0.06215009 -0.08015708 0.064198725 0.04043732 0.010511066 0.025969202 0.054279882 0.053665962
-0.061438914 -0.068162076 -0.0258027 -0.082922086 -0.042569 0.016340544 0.054755416 0.023894407
-0.021688884 0.044930406 0.046594657 -0.047480963 0.06558509 0.06793727 0.08613795 -0.08629203
-0.06803624 -0.06111355 0.027533166 -0.07466983 -0.00416296 -0.011418761 0.06864237 0.0022512844
-0.012721036 -0.06399643 -0.057762496 0.035327595 -0.023530185 -0.010156263 0.05059923 -0.0029566013
-0.08473976 0.022805627 0.054924287 0.01792986 -0.038088422 -0.0347001 -0.063135855 -0.02196933
-0.044062085 0.06387695 0.053163107 0.06948796 0.046113625 0.07819455 0.067061916 0.06036317
-0.037734535 -0.075078815 0.0065424656 0.0060982485 0.030532146 -0.083790176 -0.06503691 -0.0509275
-0.03066397 0.060379386 -0.07515435 -0.0040574875 0.06713919 0.00064290804 0.012322843 -0.0007102692
0.06933126 -0.039547432 -0.006412295 0.01989936 -0.07638862 0.031669877 -0.0606638 0.08673221
-0.008697107 -0.0031491388 -0.041181654 0.04967981 0.0340063 -0.07376284 0.009271937 0.043123662
0.01669775 -0.058047548 0.035592202 0.032514777 -0.0043542646 0.050456405 0.0051535373 -0.011954173
-0.01830035 -0.08633662 -0.0278499 0.0049899127 -0.031505685 0.04977174 0.030192105 0.06253629
-0.0657797 0.026908044 -0.06723442 -0.04745163 -0.055077616 -0.019101035 -0.057017647 -0.077584
-0.022944797 -0.036104582 -0.006148372 -0.08104094 0.051064353 0.05782931 0.06985408 -0.047000214
-0.07938424 -0.0660093 -0.07526535 -0.044262197 -0.03268366 0.06899672 -0.053875137 0.0036482206
-0.05327158 -0.018298129 -0.022855751 -0.0032878756 -0.06462241 0.014713907 -0.011019009 0.08051596
-0.011940876 -0.022034604 -0.007375066 -0.06430227 0.027577473 0.06165084 0.018255359 0.022892809
0.06619413 0.06697228 -0.024164168 0.008816825 0.025814112 0.08112425 0.024608258 -0.08381887
-0.010963217 0.08036499 0.083325654 -0.06725009 -0.025104865 -0.041633595 -0.02838255 -0.058926173
0.055513047 0.03129458 0.015672801 -2.0999667e-05 0.07143213 0.013869063 0.016412245 -0.06564375
-0.0716604 0.045203052 -0.04313461 -0.0590669 0.05028102 0.055093873 -0.017872455 0.00046356264
0.014951942 0.056575935 -0.06464697 -0.06648481 0.061273318 -0.0070364266 -0.08411898 0.082050905
0.06519096 0.051579427 0.027747462 0.047593106 -0.060830723 -0.059476346 0.033846393 -0.043749135
-0.026169231 -0.029169759 0.08243232 -0.0052753524 0.07377083 -0.00383491 0.030644383 0.007175764
-0.052824352 0.06714469 -0.04222489 0.076530226 0.011661485 0.01825988 -0.006764959 -0.04642039
0.0864914 -0.021284306 -0.06815709 -0.004583438 -0.039110348 0.02130364 -0.074720405 -0.013184746
00000000: c966 a23b 846e bc3c bb40 6e3b a798 623d
00000010: 5837 b7bc f0f5 273d 3cb8 1cbd 5cf5 aebd
00000020: 2318 8cbd 93a3 82bd 3665 383b fb4f 1ebd
00000030: 57b5 813d feaf 5b3d 9a83 b23d d374 e43c
00000040: 6cb7 5a3d bb11 14bd 2f67 41bd b614 a73d
00000050: 8e67 4f3d 7df7 3b3d b561 4fbc ed82 a83c
00000060: d204 eb3c 23ea 4b3d 7ec1 2dbd 5d32 49bb
00000070: 8824 de3c 4653 613d 37c0 8d3d 4372 703d
00000080: 6598 7abd 013d 433c 6401 a0bc df69 d6bc
00000090: 3f7a 71bd f5a4 84bd cb76 703d 44c6 5d3c
000000a0: 1891 7ebd 6529 a4bd 9f7a 833d 9aa1 253d
000000b0: 9b36 2c3c 5dbd d43c 9554 5e3d d7d0 5b3d
000000c0: 5fa7 7bbd 8f98 8bbd 2f60 d3bc 0ed3 a9bd
000000d0: d55c 2ebd 9bdc 853c 3747 603d 34be c33c
000000e0: e3ac b1bc f208 383d 0ada 3e3d 667b 42bd
000000f0: 7a51 863d b222 8b3d 1869 b03d e0b9 b0bd
00000100: 9656 8bbd 3452 7abd 3c8d e13c 7fec 98bd
00000110: 7169 88bb c115 3bbc 5f94 8c3d 498a 133b
00000120: e46b 50bc 8f10 83bd 5e98 6cbd abb3 103d
00000130: 60c2 c0bc 7466 26bc 2341 4f3d 8ac3 41bb
00000140: 0a8c adbd ded2 ba3c 4af8 603d a4e1 923c
00000150: 9b02 1cbd b121 0ebd 5f4d 81bd 06f9 b3bc
00000160: 727a 34bd ebd1 823d 8fc1 593d b44f 8e3d
00000170: a4e1 3c3d 7724 a03d c257 893d 5f3f 773d
00000180: 878f 1abd ecc2 99bd 2e62 d63b d1d3 c73b
00000190: 8d1e fa3c 2f9a abbd 1232 85bd 5b99 50bd
000001a0: 0233 fbbc 6050 773d 86ea 99bd acf4 84bb
000001b0: 4680 893d d488 283a c0e5 493c 5c31 3aba
000001c0: 8cfd 8d3d 7dfc 21bd 3b1e d2bb fc03 a33c
000001d0: a371 9cbd 46b8 013d 9b7a 78bd a8a0 b13d
000001e0: 507e 0ebc c861 4ebb 18ae 28bd 0e7d 4b3d
000001f0: 314a 0b3d f910 97bd 53e9 173c 70a2 303d
00000200: b8c9 883c 44c3 6dbd 21c9 113d 372e 053d
00000210: 38ae 8ebb 60ab 4e3d 01df a83b 70db 43bc
00000220: 9eea 95bc 41d1 b0bd 7925 e4bc 6c82 a33b
00000230: 1b0c 01bd 74dd 4b3d 6f55 f73c 0713 803d
00000240: 82b7 86bd 426e dc3c 33b2 89bd a45c 42bd
00000250: 1199 61bd c679 9cbc 568b 69bd 5ce4 9ebd
00000260: baf6 bbbc 66e2 13bd 4878 c9bb cbf8 a5bd
00000270: db28 513d 6dde 6c3d a80f 8f3d 4c83 40bd
00000280: 3494 a2bd e22f 87bd b824 9abd 474c 35bd
00000290: 4ddf 05bd 274e 8d3d 2dac 5cbd fc16 6f3b
000002a0: 4d33 5abd f5e5 95bc fc3b bbbc 6679 57bb
000002b0: c158 84bd 9912 713c 1389 34bc 8de5 a43d
000002c0: aaa3 43bc ea81 b4bc 8aaa f1bb e9b0 83bd
000002d0: 27ea e13c 9785 7c3d 438c 953c b389 bb3c
000002e0: ca90 873d c328 893d eff3 c5bc 7274 103c
000002f0: 1e78 d33c 7924 a63d 4297 c93c 3aa9 abbd
00000300: 119f 33bc 6696 a43d a4a6 aa3d 6aba 89bd
00000310: b8a8 cdbc fd87 2abd 8682 e8bc 925c 71bd
00000320: a661 633d bf2e 003d 3f64 803c 7128 b0b7
00000330: 024b 923d 113b 633c f972 863c 3b70 86bd
00000340: b0c2 92bd d626 393d ebad 30bd 22f0 71bd
00000350: 79f3 4d3d 1daa 613d 4169 92bc 530a f339
00000360: fdf8 743c 2bbc 673d a165 84bd 3029 88bd
00000370: bbf9 7a3d d391 e6bb 9246 acbd 4e0a a83d
00000380: d782 853d f344 533d a54e e33c fdf0 423d
00000390: a329 79bd 789d 73bd 84a2 0a3d 4b32 33bd
000003a0: db60 d6bc 6bf5 eebc 47d2 a83d dddc acbb
000003b0: 2915 973d 1d53 7bbb ee09 fb3c ac22 eb3b
000003c0: 595e 58bd 2883 893d 02f4 2cbd e1bb 9c3d
000003d0: d00f 3f3c be95 953c 97ac ddbb 4f23 3ebd
000003e0: 6722 b13d 6d5c aebc f295 8bbd aa30 96bb
000003f0: 2c32 20bd f984 ae3c 0307 99bd d504 58bc

layer2.bias f4 [128]
-0.006475136 -0.014515944 0.02254555 0.025356418 0.045158725 -0.065973006 0.064971186 -0.06219718
-0.03649484 0.041313056 0.032114908 -0.05988433 -0.055805884 0.026859459 0.007545982 0.07856929
0.08610041 -0.0701716 0.026472192 -0.068943515 0.037783448 -0.042434435 -0.033909615 0.060814254
0.063716784 -0.04295891 -0.00082301203 0.00014973721 0.06791249 0.088028245 -0.043643903 -0.060803454
0.079732604 0.010430755 -0.0031769136 0.0060771857 -0.029033825 0.061545797 -0.07377789 0.0135102775
0.07397542 0.01960329 -0.07322469 0.0037219354 -0.047974102 0.070272125 0.078507215 -0.02865052
-0.065653086 0.057715252 0.076540045 0.06354655 0.032524575 -0.03845964 -0.06798844 -0.06227198
-0.07945184 -0.030935312 -0.08449752 0.076595575 -0.08638574 -0.0578906 -0.026784776 -0.026954258
0.03531849 -0.018428298 -0.02686338 -0.036777962 0.08408378 -0.0044804416 0.01352505 -0.018057395
-0.04312396 0.035136532 -0.0016900464 -0.038318723 -0.07992311 0.062198557 0.0064673177 -0.0034924352
-0.039460335 -0.012720677 -0.08142078 -0.04669399 0.0020696525 0.022729805 0.05762318 0.06953519
-0.0556089 -0.04473441 -0.057874925 0.0063325325 0.033230156 -0.0097278925 0.0058486336 -0.053267915
0.037015438 0.021183217 -0.052536163 0.047004916 0.06489537 -0.06718331 0.064019494 -0.02045457
-0.023744576 0.05519061 -0.07132867 0.06252223 0.06839304 0.027241625 -0.07105366 -0.07863686
0.0059640636 0.036317486 -0.0078746015 0.064905025 -0.077550955 -0.08474001 0.012422573 0.039997127
-0.04903326 -0.005787458 0.044829525 -0.01226587 -0.0025582188 0.040014237 -0.042166825 -0.0855837
00000000: 612d d4bb 48d4 6dbc 72b1 b83c 43b8 cf3c
00000010: 5bf8 383d db1c 87bd 9d0f 853d 78c2 7ebd
00000020: 9d7b 15bd e137 293d ec8a 033d 4549 75bd
00000030: b694 64bd 5e08 dc3c 4944 f73b f0e8 a03d
00000040: 6955 b03d 21b6 8fbd 36dc d83c 4232 8dbd
00000050: d1c2 1a3d bbcf 2dbd cfe4 0abd 5e18 793d
00000060: f27d 823d aff5 2fbd 67bf 57ba c702 1d39
00000070: b415 8b3d 2748 b43d f3c3 32bd 0b0d 79bd
00000080: d94a a33d c2e5 2a3c c433 50bb 2123 c73b
00000090: 58d8 edbc 7217 7c3d dd18 97bd 365a 5d3c
000000a0: 6d80 973d 1497 a03c d4f6 95bd b7eb 733b
000000b0: 7e80 44bd d5ea 8f3d 64c8 a03d 7fb4 eabc
000000c0: 2075 86bd d466 6c3d 07c1 9c3d b224 823d
000000d0: 7d38 053d db87 1dbd 863d 8bbd e710 7fbd
000000e0: a5b7 a2bd 0d6c fdbc 090d adbd 24de 9c3d
000000f0: 02eb b0bd b21e 6dbd bf6b dbbc 2dcf dcbc
00000100: 1faa 103d f1f6 96bc 9710 dcbc 7da4 16bd
00000110: 1e34 ac3d abd0 92bb 2c98 5d3c 1aed 93bc
00000120: c0a2 30bd 53eb 0f3d 8c84 ddba 18f4 1cbd
00000130: baae a3bd eac3 7e3d cbeb d33b 57e1 64bb
00000140: 29a1 21bd 636a 50bc f0bf a6bd 3242 3fbd
00000150: 02a3 073b db33 ba3c 4906 6c3d 7768 8e3d
00000160: 28c6 63bd 6e3b 37bd 420e 6dbd 2281 cf3b
00000170: 581c 083d bd61 1fbc e5a5 bf3b 752f 5abd
00000180: 809d 173d 6d88 ad3c 2930 57bd 3a88 403d
00000190: dde7 843d 6797 89bd a71c 833d 5890 a7bc
000001a0: fc83 c2bc 8d0f 623d c414 92bd a80b 803d
000001b0: a611 8c3d d429 df3c 9584 91bd 5d0c a1bd
000001c0: 316e c33b a5c1 143d 7904 01bc edec 843d
000001d0: 09d3 9ebd 2c8c adbd 0c88 4b3c 07d4 233d
000001e0: 1ad7 48bd b7a4 bdbb 2a9f 373d caf6 48bc
000001f0: caa7 27bb f8e5 233d 1fb7 2cbd 8246 afbd
