custom_maze/static/custom_maze/run/room24875/trained_model.pth (torch, 146386 bytes, 12 tensors)

layer1.weight f4 [128, 4]
-0.0894286 0.1618228 0.32505488 0.35226548 0.33037978 -0.1497981 -0.4373725 0.23746753
-0.1729644 -0.3848601 -0.48543507 -0.43537652 0.1239692 0.45551872 -0.37535685 -0.30038643
0.4540921 -0.37405133 0.43910158 -0.23371905 0.2334066 0.20200145 0.20254952 0.20787168
0.13562006 0.22086447 -0.1997804 -0.16337484 -0.0833447 0.31207818 -0.101367235 0.3580464
0.24898243 -0.048945248 0.16455978 -0.11996549 0.3735155 0.019967198 -0.08211911 0.112490475
0.33109045 -0.24526137 0.15681481 0.028910577 -0.24803448 0.046238363 -0.47014797 0.37006456
0.1043669 0.2502324 0.3286544 0.26688737 0.27105957 0.43075824 0.47223347 0.45775092
0.49617535 -0.35007304 0.49798757 -0.25346398 -0.29739052 -0.0074315667 -0.23207605 0.21655768
-0.4906364 0.15020788 -0.0056021214 0.10823983 0.10395551 -0.27326506 -0.03060317 -0.09928024
-0.24188197 0.387792 0.4211902 -0.48172808 0.21557683 0.44593722 -0.23973304 0.21551985
0.005856931 -0.15151435 0.2578553 0.02126187 0.2569096 -0.0603773 0.053890526 -0.27175313
0.07072008 0.38851303 -0.14281619 0.3036999 0.053739667 0.1766426 0.25211525 -0.37538785
0.41320878 0.38278264 0.32061 -0.32720476 0.085576296 0.108122766 -0.45137644 0.16338843
-0.08511877 -0.1502825 -0.15832138 0.23142225 -0.20879972 -0.334414 -0.13428396 0.36859155
-0.17727709 -0.48226905 0.3713857 -0.2786101 0.46967947 0.36409467 0.4289701 -0.3112294
0.16941577 -0.07519114 0.22944427 0.03307122 0.43120104 0.27254808 0.21312267 0.31770813
-0.3161375 -0.15141821 -0.4378516 0.2446785 0.023065627 0.2950244 -0.49920422 0.13687605
-0.21194518 -0.05807638 -0.3537215 -0.069298804 -0.1256988 -0.17797667 -0.2557959 0.14917725
0.2635966 0.02880323 0.27531165 -0.24400717 0.28335094 -0.18571156 -0.022003174 0.30692255
-0.27480036 -0.42619348 -0.061433673 -0.20569277 -0.45647323 -0.07080555 0.10692847 -0.16514009
0.24626231 0.3575431 -0.4134298 -0.2562701 -0.33941036 -0.17096227 -0.4038977 -0.37930262
-0.3946668 -0.46731663 0.49569237 0.35589987 0.342211 0.19626957 0.19615877 0.44229627
-0.17514646 -0.077314794 -0.30497742 -0.40468532 0.45813292 -0.02601701 0.045200765 -0.14576119
0.48529512 0.4125772 -0.48175603 0.20750064 -0.36324805 -0.4701929 -0.46458006 0.15517694
-0.26791072 -0.111510515 -0.090685904 -0.32883316 -0.41887927 0.4152947 -0.12268746 0.46581864
0.46457916 0.15044606 -0.26528972 -0.40027362 -0.36240768 -0.22601229 0.20622092 0.47138023
0.47309357 -0.42761207 -0.23521817 0.07598293 -0.40790778 -0.101145744 0.27864254 0.24579829
-0.36742002 -0.07356554 0.4253825 -0.46342027 0.18019992 0.104102015 0.03237641 -0.24702317
-0.26950616 0.1567936 0.3969686 -0.1802451 -0.16044039 -0.48572814 0.16815758 -0.40764964
0.3357541 -0.14572912 0.20527732 -0.3499058 0.2635343 0.023751736 -0.43321157 0.2788617
0.01141119 0.4617054 0.17179888 -0.41488332 -0.4938839 0.475973 0.4990099 -0.28796542
0.13658887 -0.34670132 0.31874377 -0.39845198 0.12330449 0.42908418 -0.38142604 -0.28869063
00000000: 5826 b7bd e0b4 253e 986d a63e 245c b43e
00000010: 8a27 a93e ac64 19be 4aef dfbe b02a 733e
00000020: 941d 31be 620c c5be f28a f8be ace9 debe
00000030: 90e3 fd3d c039 e93e c62e c0be 40cc 99be
00000040: c27e e83e a883 bfbe ecd1 e03e 0c54 6fbe
00000050: 2402 6f3e 78d9 4e3e 2469 4f3e 50dc 543e
00000060: fcdf 0a3e 4c2a 623e 3c93 4cbe bc4b 27be
00000070: a0b0 aabd b6c8 9f3e a099 cfbd dc51 b73e
00000080: 40f5 7e3e d07a 48bd 5c82 283e 78b0 f5bd
00000090: 6c3d bf3e 4092 a33c 102e a8bd 6861 e63d
000000a0: b084 a93e cc25 7bbe 1094 203e e0d5 ec3c
000000b0: c0fc 7dbe 7064 3d3d 3cb7 f0be 1a79 bd3e
000000c0: 50be d53d 761e 803e 6445 a83e 76a5 883e
000000d0: 52c8 8a3e 588c dc3e 96c8 f13e 545e ea3e
000000e0: b20a fe3e c63c b3be 3af8 fe3e 08c6 81be
000000f0: 9243 98be 8084 f3bb 58a5 6dbe 4cc1 5d3e
00000100: b234 fbbe 18d0 193e 0092 b7bb d8ac dd3d
00000110: a0e6 d43d 66e9 8bbe 80b3 fabc 7053 cbbd
00000120: e8af 77be ac8c c63e 3ea6 d73e 10a5 f6be
00000130: 2cc0 5c3e e251 e43e 947c 75be 3cb1 5c3e
00000140: 80eb bf3b 9426 1bbe 9c05 843e 602d ae3c
00000150: a889 833e 304e 77bd 50bc 5c3d 3a23 8bbe
00000160: b0d5 903d 2eeb c63e 683e 12be 8e7e 9b3e
00000170: 201e 5c3d cce1 343e 4015 813e d632 c0be
00000180: 1a90 d33e 16fc c33e fe26 a43e 6287 a7be
00000190: a042 af3d 786f dd3d d01a e7be 4c4f 273e
000001a0: c052 aebd a8e3 19be 001f 22be f4f9 6c3e
000001b0: 98cf 55be 5038 abbe bc81 09be 08b8 bc3e
000001c0: 2088 35be f8eb f6be 4426 be3e fca5 8ebe
000001d0: d479 f03e 9e6a ba3e f8a1 db3e 7659 9fbe
000001e0: 547b 2d3e d0fd 99bd 70f3 6a3e b075 073d
000001f0: 62c6 dc3e 6c8b 8b3e d43c 5a3e a4aa a23e
00000200: c6dc a1be 600d 1bbe 162e e0be 008d 7a3e
00000210: 20f4 bc3c 700d 973e b297 ffbe 3c29 0c3e
00000220: 2808 59be 80e1 6dbd fc1a b5be 88ec 8dbd
00000230: 30b7 00be 843f 36be aef7 82be ecc1 183e
00000240: 22f6 863e c0f4 eb3c a6f5 8c3e 04dd 79be
00000250: 6013 913e 2c2b 3ebe 0040 b4bc f424 9d3e
00000260: a2b2 8cbe 0836 dabe e0a1 7bbd 20a1 52be
00000270: dcb6 e9be 8002 91bd 50fd da3d 7c1a 29be
00000280: 302c 7c3e e40f b73e 12ad d3be d635 83be
00000290: 32c7 adbe bc10 2fbe aecb cebe f433 c2be
000002a0: c411 cabe 2044 efbe 64cb fd3e 8238 b63e
000002b0: 4836 af3e e4fa 483e d8dd 483e a874 e23e
000002c0: 9859 33be 3857 9ebd 0026 9cbe ea32 cfbe
000002d0: 6690 ea3e a021 d5bc 7024 393d 6c42 15be
000002e0: 9a78 f83e 523d d33e baa8 f6be 0c7b 543e
000002f0: a6fb b9be 20bd f0be 70dd edbe b4e6 1e3e
00000300: 982b 89be a05f e4bd 88b9 b9bd d25c a8be
00000310: 5877 d6be 82a1 d43e 9043 fbbd c87f ee3e
00000320: 52dd ed3e 880e 1a3e 0ed4 87be aaf0 ccbe
00000330: 808d b9be c46f 67be 942b 533e c058 f13e
00000340: 5239 f23e f8ef dabe 08dd 70be f09c 9b3d
00000350: 4ad9 d0be 8025 cfbd 3caa 8e3e 8cb2 7b3e
00000360: 7a1e bcbe 88a9 96bd bccb d93e 6c45 edbe
00000370: 5486 383e 7033 d53d 209d 043d a4f3 7cbe
00000380: b6fc 89be 808e 203e 783f cb3e 2c92 38be
00000390: 7c4a 24be 5cb1 f8be 8031 2c3e 74b7 d0be
000003a0: f6e7 ab3e 043a 15be 3834 523e da26 b3be
000003b0: f8ed 863e 0093 c23c e8cd ddbe f6c6 8e3e
000003c0: 00f6 3a3c a664 ec3e 0cec 2f3e 966b d4be
000003d0: 5ade fcbe bcb2 f33e 3a7e ff3e 3470 93be
000003e0: f4dd 0b3e d682 b1be 6232 a33e e601 ccbe
000003f0: 1087 fc3d ecb0 db3e 464a c3be 42cf 93be

layer1.bias f4 [128]
-0.4580316 0.18935627 -0.0879066 -0.41462302 -0.07799375 0.17856866 -0.44614774 -0.30079132
0.07747078 0.28699046 -0.022369444 0.42447823 -0.20577669 0.43740708 0.12420106 -0.3369379
0.32893217 0.2591713 0.108529925 -0.186338 -0.3151011 -0.41262692 0.4489243 0.42084044
-0.1736604 0.08794922 -0.022515416 -0.100419104 -0.24125755 -0.1706379 0.45333076 0.1737814
-0.17972636 0.23655552 -0.06921947 -0.35737062 0.45094484 -0.35130906 0.37529987 0.026284695
-0.4388731 -0.096145034 -0.04375261 0.48785007 0.39228976 0.41603893 -0.32113695 -0.43587327
0.32428008 0.20928037 0.4767748 0.3347367 0.034169674 0.39827234 -0.038932383 -0.44357193
-0.30794555 0.028155267 -0.052188158 -0.03175354 -0.10347259 0.37473685 -0.19972783 -0.32043004
-0.109901726 0.3404019 -0.003597021 -0.3143013 0.052759588 0.1845684 -0.24143553 0.088447034
-0.16254169 0.17877328 0.17721301 -0.15166473 0.3244127 0.27391046 -0.41719997 0.24534404
-0.39805728 -0.41065925 -0.34596312 -0.2099815 0.4718467 -0.29252654 0.15037662 -0.16140753
-0.37498134 -0.39120066 -0.45470768 -0.43323702 -0.0046688914 -0.13806033 0.44651234 0.096728146
0.33082008 -0.24885553 0.466143 -0.4238727 -0.015959918 0.15727264 0.4030187 0.46509486
-0.376732 -0.31808805 0.010788143 0.22624433 0.47873592 0.28464246 -0.2699129 -0.026551187
0.24595225 -0.17625558 -0.27896833 0.20044506 -0.04915899 -0.42499644 0.18928659 -0.038850725
-0.2962103 0.07925266 -0.12638962 -0.4674577 -0.31131786 0.2819209 -0.213624 -0.35821176
00000000: 1e83 eabe 9ce6 413e 6008 b4bd 7849 d4be
00000010: 30bb 9fbd b4da 363e 7a6d e4be 5201 9abe
00000020: 00a9 9e3d 6af0 923e 2040 b7bc 3655 d93e
00000030: 20b7 52be d2f3 df3e 205d fe3d 2083 acbe
00000040: cc69 a83e 1ab2 843e f044 de3d 64cf 3ebe
00000050: ee54 a1be d643 d3be 68d9 e53e 6678 d73e
00000060: 08d4 31be b81e b43d 4072 b8bc 88a8 cdbd
00000070: 380c 77be b4bb 2ebe f81a e83e c0f3 313e
00000080: 300a 38be 9c3b 723e f0c2 8dbd 48f9 b6be
00000090: 3ee2 e63e c8de b3be 4e27 c03e 0053 d73c
000000a0: fab3 e0be b0e7 c4bd f035 33bd 7cc7 f93e
000000b0: 34da c83e 0e03 d53e 106c a4be c82a dfbe
000000c0: 0a08 a63e 984d 563e d41b f43e 9c62 ab3e
000000d0: 80f5 0b3d 5aea cb3e 9077 1fbd dc1b e3be
000000e0: 0aab 9dbe e0a5 e63c 40c3 55bd 0010 02bd
000000f0: 70e9 d3bd 82dd bf3e 7485 4cbe 680f a4be
00000100: 2814 e1bd 2849 ae3e 00bc 6bbb 1aec a0be
00000110: 701a 583d 80ff 3c3e e03a 77be b823 b53d
00000120: 5471 26be 5810 373e 5477 353e 004e 1bbe
00000130: 6c19 a63e fe3d 8c3e 3c9b d5be 783b 7b3e
00000140: 2ace cbbe ee41 d2be 1422 b1be 6405 57be
00000150: e495 f13e 0ac6 95be 54fc 193e 0448 25be
00000160: 8efd bfbe 744b c8be 72cf e8be 3ed1 ddbe
00000170: 80fd 98bb b05f 0dbe 449d e43e 6819 c63d
00000180: 4061 a93e fcd3 7ebe 4caa ee3e d805 d9be
00000190: 60be 82bc 140c 213e 7858 ce3e ea20 ee3e
000001a0: 04e3 c0be 70dc a2be c0c0 303c 98ac 673e
000001b0: e01c f53e a8bc 913e 0632 8abe e081 d9bc
000001c0: e8da 7b3e 587c 34be f0d4 8ebe 7841 4d3e
000001d0: f05a 49bd 2299 d9be 58d4 413e f021 1fbd
000001e0: e0a8 97be 384f a23d 486c 01be 9e56 efbe
000001f0: 0e65 9fbe f057 903e 40c0 5abe 8867 b7be

layer2.weight f4 [128, 128]
0.015622741 -0.034601204 0.022665342 0.048816588 0.044482436 -0.057329133 -0.040310584 -0.04127361
-0.070588596 -0.011788432 -0.067750245 -0.06857613 0.027384039 -0.0011848111 0.07838217 0.05735925
0.05165487 -0.066553816 0.046292223 0.035050783 0.00935482 0.025271408 0.015427116 -0.0033710734
-0.050271865 0.024888631 -0.021203859 -0.03236116 0.023185719 0.05834702 -0.06118403 -0.08286775
0.0072168154 0.059213214 0.014080303 -0.0133531755 -0.018041296 -0.0039414256 -0.07462267 -0.010492004
-0.0031569886 -0.002115424 0.06796607 -0.029032202 0.021583516 0.0056773913 0.01756234 -0.03717747
0.052221116 0.015554052 0.022975849 -0.06574495 0.049843483 0.058988612 0.049619675 -0.05678841
-0.026149612 -0.02048594 -0.039355263 -0.06568005 -0.030524844 0.026910793 0.02935823 0.025595201
0.03559868 -0.08452311 0.0016472252 0.02510539 -0.04229904 0.08326419 0.07206977 -0.018420354
0.077604055 -0.019508291 -0.035530392 -0.010061949 0.07997741 0.056055088 0.057173148 0.011285472
-0.029764915 0.004129822 -0.068504855 -0.031235209 0.046336845 0.046757217 -0.077353045 -0.06692623
0.028954083 -0.0115609225 -0.033347134 -0.034200102 0.08751363 -0.02368265 0.071405 -0.023460189
-0.052209787 0.08836078 -0.072650544 0.08410428 -0.0201575 0.04763163 0.012708876 -0.01994272
0.024385586 0.01881155 -0.013020121 0.024401676 -0.02261134 0.011649726 0.046228793 -0.045525603
0.008626765 0.08322838 0.023545716 0.000874231 -0.04020766 -0.04375691 -0.03366191 -0.077983536
-0.08406507 0.01108539 0.07844016 -0.047009625 0.04831485 0.0029523235 0.06952695 -0.079822846
0.05843829 -0.026971128 -0.0332913 -0.042495232 -0.06854292 -0.05080993 0.058208305 -0.009483652
0.0047342815 -0.06996395 0.04638914 0.0416887 0.0024270474 -0.07573521 0.06558156 0.067484625
-0.072974466 0.0878586 -0.039696123 -0.01754997 -0.06844768 -0.079367906 0.07006369 -0.053935215
0.005456963 -0.06619495 -0.085056946 0.07958111 0.045206584 -0.0038635805 -0.058840267 -0.06561071
-0.058169764 -0.01841262 -0.07123147 0.04570661 0.05563151 0.035783738 0.06863952 -0.077394105
-0.07337961 0.018003942 -0.071374066 0.084957205 -0.059302144 0.085658714 -0.045553472 0.013022649
0.04924231 0.00846256 -0.07053073 -0.050810806 -0.073396 0.04585885 0.038867127 0.028622482
0.026481306 0.07235522 0.06717166 -0.08028613 0.055458024 0.085669614 0.038862806 -0.042248927
-0.0069990954 0.036695205 -0.044846006 -0.08833581 -0.026845824 0.04998944 -0.016193103 -0.06147145
-0.050791997 0.026066214 0.087227724 0.029257046 -0.013768985 -0.007502655 -0.010441723 -0.051445223
0.085224845 0.06536689 0.06936814 -0.058726016 -0.058787562 -0.057182737 -0.01060264 0.05342349
0.041648336 0.004022864 0.02109769 0.06297451 0.058684956 0.07785037 -0.06348775 0.08803825
-0.037026018 0.024335157 0.022461625 0.062471595 0.002206493 -0.069839716 -0.0552116 -0.045486785
0.03455345 0.0013115573 -0.071152836 0.06581668 -0.07250837 -0.03408226 0.05949923 0.016801314
0.037236784 -0.077401906 0.08152246 -0.07232797 -0.057720594 0.0480969 0.00540213 -0.07778731
0.036018737 -0.03143057 -0.012574122 -0.015561849 0.036610384 0.08371856 -0.0028837295 -0.046595227
00000000: 86f6 7f3c feb9 0dbd abac b93c e7f3 473d
00000010: 3733 363d f4d1 6abd b61c 25bd 840e 29bd
00000020: c190 90bd 4424 41bc a4c0 8abd a471 8cbd
00000030: 7e54 e03c aa4b 9bba d586 a03d 88f1 6a3d
00000040: 0f94 533d 5e4d 88bd ea9c 3d3d 6991 0f3d
00000050: f544 193c fc05 cf3c 04c2 7c3c 3aed 5cbb
00000060: dfe9 4dbd 3ee3 cb3c b7b3 adbc 238d 04bd
00000070: faef bd3c 49fd 6e3d 1b9c 7abd 91b6 a9bd
00000080: 097b ec3b 8e89 723d 12b1 663c 47c7 5abc
00000090: 57cb 93bc 1327 81bb c5d3 98bd a8e6 2bbc
000000a0: 7be5 4ebb eda2 0abb cb31 8b3d f1d4 edbc
000000b0: eacf b03c 6909 ba3b e5de 8f3c 6747 18bd
000000c0: cfe5 553d 6cd6 7e3c d937 bc3c 4aa5 86bd
000000d0: ae28 4c3d 0b9e 713d 003e 4b3d f79a 68bd
000000e0: b637 d6bc 21d2 a7bc fc32 21bd 4383 86bd
000000f0: 3d0f fabc 0674 dc3c ac80 f03c 07ad d13c
00000100: eccf 113d 741a adbd b5e7 d73a d2a9 cd3c
00000110: c241 2dbd 6a86 aa3d 5199 933d 48e6 96bc
00000120: e0ee 9e3d dacf 9fbc 5188 11bd dfda 24bc
00000130: 32cb a33d 059a 653d 642e 6a3d b3e6 383c
00000140: 8dd5 f3bc 7553 873b 464c 8cbd fbe0 ffbc
00000150: b4cb 3d3d 7f84 3f3d 466b 9ebd 9f10 89bd
00000160: 1d31 ed3c 066a 3dbc 0197 08bd 6815 0cbd
00000170: 593a b33d 1e02 c2bc c93c 923d 952f c0bc
00000180: eed9 55bd 7ff6 b43d cfc9 94bd dd3e ac3d
00000190: 5721 a5bc 6219 433d e438 503c ea5e a3bc
000001a0: 48c4 c73c ae1a 9a3c 5852 55bc 06e6 c73c
000001b0: 6b3b b9bc 7ede 3e3c 675a 3d3d 0e79 3abd
000001c0: 4657 0d3c a473 aa3d f2e2 c03c a62c 653a
000001d0: cab0 24bd 723a 33bd 12e1 09bd d5b5 9fbd
000001e0: 4f2a acbd 7f9f 353c 3ca5 a03d 2a8d 40bd
000001f0: cbe5 453d c57b 413b 2564 8e3d 297a a3bd
00000200: fd5c 6f3d 8ef2 dcbc 755c 08bd 7b0f 2ebd
00000210: 3b60 8cbd 131e 50bd d56b 6e3d 5261 1bbc
00000220: 0822 9b3b 4249 8fbd 8a02 3e3d c5c1 2a3d
00000230: 190f 1f3b 101b 9bbd a04f 863d 6135 8a3d
00000240: a373 95bd 36ef b33d 6798 22bd f4c4 8fbc
00000250: 4c2e 8cbd a48b a2bd 8d7d 8f3d 2ceb 5cbd
00000260: 53d0 b23b 3891 87bd 5632 aebd 6cfb a23d
00000270: 8a2a 393d 2034 7dbb 7e02 71bd e85e 86bd
00000280: 6b43 6ebd 10d6 96bc cee1 91bd db36 3b3d
00000290: dedd 633d f891 123d e092 8c3d cd80 9ebd
000002a0: 0d48 96bd 017d 933c 912c 92bd 0bfe ad3d
000002b0: cee6 72bd d66d af3d 4796 3abd f35c 553c
000002c0: 4eb2 493d 8da6 0a3c 6a72 90bd fe1e 50bd
000002d0: a450 96bd 7dd6 3b3d 2333 1f3d b279 ea3c
000002e0: 53ef d83c f92e 943d 4c91 893d 0e6d a4bd
000002f0: f427 633d 8d73 af3d 9b2e 1f3d 360d 2dbd
00000300: ab58 e5bb b64d 163d 72b0 37bd 68e9 b4bd
00000310: c6eb dbbc bac1 4c3d 66a7 84bc 7dc9 7bbd
00000320: 450b 50bd d088 d53c 73a4 b23d 79ac ef3c
00000330: 4f97 61bc d5d8 f5bb c313 2bbc 3ab8 52bd
00000340: 5d8a ae3d 13df 853d e210 8e3d b18a 70bd
00000350: 3acb 70bd 7238 6abd b2b6 2dbc 97d2 5a3d
00000360: 7297 2a3d 3bd2 833b 10d5 ac3c c8f8 803d
00000370: a35f 703d 0470 9f3d de05 82bd 664d b43d
00000380: 98a8 17bd 865a c73c 7101 b83c 37e2 7f3d
00000390: cf9a 103b 2008 8fbd 8f25 62bd 5a50 3abd
000003a0: eb87 0d3d 8fe8 ab3a 94b8 91bd e5ca 863d
000003b0: 457f 94bd d799 0bbd 77b5 733d e9a2 893c
000003c0: 9985 183d e484 9ebd 3ff5 a63d b020 94bd
000003d0: 6e6c 6cbd 4101 453d 5a04 b13b f44e 9fbd
000003e0: 6288 133d 57bd 00bd b103 4ebc 20f7 7ebc
000003f0: c5f4 153d a374 ab3d f4fc 3cbb a3da 3ebd

layer2.bias f4 [128]
-0.06790679 -0.05078141 -0.04071257 0.06794675 0.016308365 -0.07368223 -0.045206487 -0.020702722
-0.0646894 0.024569241 0.081731334 0.03531965 0.042572595 -0.058319185 0.06681942 -0.035116058
-0.07643445 0.08447736 -0.07156114 -0.079416975 -0.02788307 -0.026993548 -0.02805839 0.061845843
0.08089744 0.052116916 0.036905203 -0.0674227 -0.06518794 0.06568211 -0.049253408 0.0021176578
-0.074560374 -0.071293995 -0.040271018 0.028189002 0.03972859 -0.02920079 -0.071925364 0.037265874
-0.045649007 0.025920775 -0.026722755 0.05549187 0.0879498 0.05529502 -0.03613867 0.011184025
0.07173022 0.078090705 0.07662987 -0.0031324169 0.061073944 0.052483678 0.07864256 -0.024914814
-0.06321291 0.019543441 -0.027701722 0.0012518878 -0.042868655 0.058581505 -0.08739545 0.0073980256
-0.07154069 0.07838426 -0.009056135 -0.004778188 -0.044415656 -0.041378036 -0.0032793619 -0.017321965
0.041327767 0.04290779 -0.04549179 0.07640681 0.00042226928 0.03452965 0.042535283 0.039861012
0.021523848 -0.079716675 0.054266628 0.009153916 -0.010146232 0.086169355 0.054320797 0.074472
0.075200915 0.014351476 -0.020103868 0.034367394 -0.027066348 0.07598507 -0.08664816 -0.05500069
0.08550201 -0.041567814 -0.033747148 -0.048709333 0.04245042 0.0484026 -0.079007015 -0.087431
0.0017082434 0.020188529 -0.0114897685 0.018904546 0.021383498 -0.0042328713 0.08545961 0.010024038
-0.0071319947 0.017799025 -0.04904417 0.024143 0.045848195 0.081317 0.08496769 -0.07457495
-0.0096510695 0.035597775 0.08782255 0.039337613 0.016805455 -0.03131966 -0.02939398 -0.003940456
00000000: b712 8bbd 2b00 50bd 39c2 26bd aa27 8b3d
00000010: 1f99 853c b6e6 96bd 702a 39bd c198 a9bc
00000020: e07b 84bd 6f45 c93c c262 a73d 56ab 103d
00000030: 9a60 2e3d 19e0 6ebd 9fd8 883d dbd5 0fbd
00000040: aa89 9cbd 7702 ad3d a68e 92bd 5ea5 a2bd
00000050: 096b e4bc 9321 ddbc b5da e5bc 1152 7d3d
00000060: 8fad a53d 8c78 553d e929 173d ea14 8abd
00000070: 4181 85bd 5884 863d f1bd 49bd 67c8 0a3b
00000080: 1cb3 98bd 9602 92bd 39f3 24bd 9fec e63c
00000090: 72ba 223d 7f36 efbc 9b4d 93bd 1aa4 183d
000000a0: 74fa 3abd ce57 d43c aee9 dabc 714b 633d
000000b0: 061f b43d 087d 623d 2406 14bd 333d 373c
000000c0: 4be7 923d 05ee 9f3d 1ff0 9c3d 3c49 4dbb
000000d0: ac28 7a3d 20f9 563d 5a0f a13d 271a ccbc
000000e0: c575 81bd 9119 a03c b9ee e2bc 6216 a43a
000000f0: 0b97 2fbd 29f3 6f3d 63fc b2bd 236b f23b
00000100: ed83 92bd ed87 a03d 2f60 14bc 5992 9cbb
00000110: 31ed 35bd 047c 29bd 90ea 56bb cbe6 8dbc
00000120: 4e47 293d 14c0 2f3d 9955 3abd 2c7b 9c3d
00000130: 0664 dd39 f66e 0d3d 7a39 2e3d 4d45 233d
00000140: c852 b03c 7f42 a3bd af46 5e3d 4efa 153c
00000150: 623c 26bc 8f79 b03d 7c7f 5e3d c784 983d
00000160: f002 9a3d 7422 6b3c deb0 a4bc d3c4 0c3d
00000170: 3fba ddbc 0f9e 9b3d 9774 b1bd 6748 61bd
00000180: ae1b af3d 0343 2abd 733a 0abd 7083 47bd
00000190: 7ee0 2d3d ce41 463d 6ece a1bd 060f b3bd
000001a0: 23e7 df3a 6a62 a53c 953f 3cbc b5dd 9a3c
000001b0: 722c af3c e6b3 8abb 7305 af3d dd3b 243c
000001c0: 82b3 e9bb 43cf 913c 8ae2 48bd 8ac7 c53c
000001d0: 51cb 3b3d 8789 a63d 8a03 ae3d c0ba 98bd
000001e0: 851f 1ebc f9ce 113d 4fdc b33d 7a20 213d
000001f0: 98ab 893c 0b49 00bd a5cb f0bc f11e 81bb

layer3.weight f4 [4, 128]
0.083344 0.034830038 -0.026457315 0.041056752 -0.015398298 0.07009417 0.038545243 0.030199576
0.013188329 -0.054671615 -0.057245154 0.043809015 -0.050434466 0.0761893 0.023149714 0.07440248
0.054995198 -0.081034236 0.0684112 -0.0835729 -0.033423547 0.085021876 -0.01731403 0.07992409
0.0056270994 0.00058977137 0.05341483 -0.011253883 0.04609938 -0.015944194 -0.086731926 0.054902308
-0.030806258 0.011242145 -0.0023971652 -0.0477708 0.00025284948 0.08096769 -0.025854152 0.05754932
0.023950705 -0.021666905 -0.004981146 0.054551434 -0.0074384445 -0.06353228 0.05875634 0.07984725
0.06959367 -0.0021000616 0.009417871 0.013355462 0.053505126 -0.07685168 -0.08559916 0.03190797
0.02553746 -0.021238618 0.01338075 0.020489616 -0.013708462 -0.08024095 -0.06915441 0.010503237
0.050428323 0.028159553 0.08656968 -0.03785981 -0.079483 -0.06536583 -0.015200682 0.04157619
0.0011057963 0.009771957 0.030607937 0.08094849 -0.0037164353 0.046330683 0.0485129 -0.022951813
0.06289871 0.048426256 0.051194217 0.06181125 0.028536683 -0.009998402 0.0061378875 0.01925663
-0.0011715875 0.039268304 0.05762393 -0.012989701 -0.023500502 0.03541573 0.06282311 -0.020590095
-0.06993151 0.020716313 -0.02823234 -0.061135437 -0.071597435 -0.08586083 -0.021096699 0.08615406
-0.012381764 -0.034859773 0.06789941 0.006729187 0.04787201 0.014441354 0.03815866 -0.002756541
0.04496228 0.02273106 0.0052854675 -0.06337125 -0.031119788 0.009588988 0.022892745 -0.038390204
0.01766939 0.05364355 0.04953715 0.06348087 0.033708323 0.06629314 0.043564446 -0.07173005
0.0035638849 -0.023928504 0.05552762 -0.028681446 -0.009214133 -0.036220327 0.0765419 -0.006941217
0.06641325 -0.08291484 -0.052803796 -0.041697785 0.029382464 0.070624195 0.0033298223 -0.078080185
-0.03821148 0.03839601 -0.072040625 -0.058981057 -0.08711727 0.081128806 0.081744 -0.07572571
0.049966216 0.021211708 0.08772245 -0.024069516 -0.018227288 0.016787268 0.08442593 -0.01821199
0.015423154 0.03853069 -0.046647225 0.015938146 -0.019056434 0.033938434 -0.0109750815 -0.08804868
0.021794852 0.061333105 -0.07780368 0.001679141 0.009452674 0.012002759 -0.01151357 -0.047159363
-0.0795162 -0.055335198 -0.063486926 -0.021123221 -0.03963948 0.073128834 0.053032503 -0.017593822
0.0054595238 0.06319078 0.073202774 -0.076398455 -0.021539653 0.027058203 0.06987692 -0.032622628
0.014225826 -0.0053778957 0.016493462 0.00084846874 0.0148846125 0.03498729 -0.03680971 -0.08783327
-0.07378458 0.079181254 -0.05672028 -0.03592535 -0.0392107 0.0789508 -0.043467805 -0.013906068
-0.047926404 0.07881763 -0.084608935 0.06444639 0.016936943 0.014157558 -0.025664575 -0.010065795
0.017717218 -0.042890117 0.0052245446 -0.046594456 -0.083638586 0.02575108 -0.049094312 -0.026891142
-0.049686708 -0.012931011 0.03148344 -0.014697354 -0.07760889 0.034019735 0.068187654 -0.06015682
-0.011559015 0.08777015 0.029390883 -0.03080038 0.07559363 0.056151822 -0.053584415 0.056264892
0.053395398 -0.050790925 -0.06762438 -0.08832739 0.039913528 0.009517622 0.0739367 -0.014949613
-0.054319207 -0.05495559 0.07609387 0.0689828 0.03828484 0.029163564 0.08566642 0.05375589
00000000: 42b0 aa3d f1a9 0e3d 03bd d8bc 202b 283d
00000010: 2549 7cbc 888d 8f3d 9ee1 1d3d 1a65 f73c
00000020: dc13 583c 58ef 5fbd e579 6abd 1571 333d
00000030: 5f94 4ebd 2309 9c3d 78a4 bd3c 5460 983d
00000040: a542 613d 47f5 a5bd 2c1b 8c3d 4528 abbd
00000050: 21e7 08bd f31f ae3d 27d6 8dbc 3eaf a33d
00000060: 8863 b83b e39a 1a3a 82c9 5a3d 3562 38bc
00000070: b4d2 3c3d 669d 82bc 82a0 b1bd 3ee1 603d
00000080: 685d fcbc f930 383c c219 1dbb 50ab 43bd
00000090: e290 8439 63d2 a53d 16cc d3bc d6b8 6b3d
000000a0: 4534 c43c cb7e b1bc e238 a3bb 5371 5f3d
000000b0: 32be f3bb 361d 82bd 7daa 703d f486 a33d
000000c0: 2087 8e3d 30a1 09bb 6a4d 1a3c ded0 5a3c
000000d0: 3128 5b3d 6a64 9dbd 9d4e afbd eeb1 023d
000000e0: ef33 d13c 9cfc adbc ef3a 5b3c d7d9 a73c
000000f0: 7599 60bc 5e55 a4bd d4a0 8dbd c515 2c3c
00000100: ee8d 4e3d ddae e63c 724b b13d e312 1bbd
00000110: fcc7 a2bd 85de 85bd 480c 79bc cc4b 2a3d
00000120: 5ef0 903a 8f1a 203c 7fbd fa3c 52c8 a53d
00000130: 708f 73bb 3ec5 3d3d 76b5 463d 7105 bcbc
00000140: 0ad1 803d 9c5a 463d 07b1 513d cb2d 7d3d
00000150: c3c5 e93c 56d0 23bc 5520 c93b 15c0 9d3c
00000160: f48f 99ba cdd7 203d 1207 6c3d c1d2 54bc
00000170: 2084 c0bc 1610 113d 67a9 803d 8fac a8bc
00000180: 4038 8fbd 42b5 a93c 8247 e7bc 2769 7abd
00000190: ada1 92bd ced7 afbd fcd2 acbc 8a71 b03d
000001a0: e2dc 4abc 1fc9 0ebd d90e 8b3d 8380 dc3b
000001b0: 7115 443d 6e9b 6c3c 414c 1c3d 15a7 34bb
000001c0: 5e2a 383d 7d36 ba3c b731 ad3b c9c8 81bd
000001d0: edee febc 211b 1d3c 9189 bb3c 0c3f 1dbd
000001e0: 66bf 903c 57b9 5b3d 77e7 4a3d 4202 823d
000001f0: bd11 0a3d b3c4 873d a270 323d 34e7 92bd
00000200: 1190 693b b605 c4bc ee70 633d 5af5 eabc
00000210: e0f6 16bc c45b 14bd 00c2 9c3d 2673 e3bb
00000220: ac03 883d 41cf a9bd cb48 58bd 4ccb 2abd
00000230: 7eb3 f03c 6ba3 903d 2639 5a3b 81e8 9fbd
00000240: a483 1cbd 2245 1d3d 098a 93bd 1f96 71bd
00000250: 8a6a b2bd dc26 a63d 6669 a73d 1516 9bbd
00000260: 60a9 4c3d 2dc4 ad3c d4a7 b33d 6f2d c5bc
00000270: 6551 95bc 7485 893c 81e7 ac3d 5031 95bc
00000280: 66b1 7c3c 5bd2 1d3d 2911 3fbd b790 823c
00000290: 3d1c 9cbc 0703 0b3d d4d0 33bc de52 b4bd
000002a0: 1e8b b23c 6c38 7b3d 8957 9fbd 9f16 dc3a
000002b0: 63df 1a3c 38a7 443c 6aa3 3cbc 2d2a 41bd
000002c0: 64d9 a2bd 29a7 62bd 6f05 82bd 9b0a adbc
000002d0: 025d 22bd 92c4 953d 9c38 593d eb20 90bc
000002e0: cee5 b23b 2b6a 813d 56eb 953d cb76 9cbd
000002f0: ed73 b0bc 2aa9 dd3c a11b 8f3d 4e9f 05bd
00000300: 7013 693c 0f39 b0bb 4c1d 873c c66b 5e3a
00000310: 97de 733c d54e 0f3d c7c5 16bd eee1 b3bd
00000320: 5f1c 97bd c829 a23d 8653 68bd 7626 13bd
00000330: 669b 20bd f5b0 a13d 4c0b 32bd 47d6 63bc
00000340: 7a4e 44bd 236b a13d 7347 adbd 78fc 833d
00000350: 58bf 8a3c 1af5 673c 843e d2bc 01eb 24bc
00000360: b323 913c 8cad 2fbd a832 ab3b d4d9 3ebd
00000370: b54a abbd eef3 d23c 1e17 49bd d04a dcbc
00000380: 4a84 4bbd 97dc 53bc c8f4 003d 2ccd 70bc
00000390: 69f1 9ebd 4758 0b3d f8a5 8b3d ff66 76bd
000003a0: 0662 3dbc d6c0 b33d 26c5 f03c 1451 fcbc
000003b0: d5d0 9a3d 74ff 653d 557b 5bbd 0476 663d
000003c0: 22b5 5a3d 250a 50bd a77e 8abd fee4 b4bd
000003d0: 5e7c 233d cdef 1b3c 206c 973d 39ef 74bc
000003e0: d17d 5ebd 1d19 61bd 1ad7 9b3d db46 8d3d
000003f0: 90d0 1c3d 6de8 ee3c e071 af3d 232f 5c3d

layer3.bias f4 [4]
-0.04485715 -0.00901088 -0.07373575 0.07522686
00000000: 22bc 37bd 5fa2 13bc c502 97bd 8a10 9a3d

layer1.weight f4 [128, 4]
-0.0894286 0.1618228 0.32505488 0.35226548 0.33037978 -0.1497981 -0.4373725 0.23746753
-0.1729644 -0.3848601 -0.48543507 -0.43537652 0.1239692 0.45551872 -0.37535685 -0.30038643
0.4540921 -0.37405133 0.43910158 -0.23371905 0.2334066 0.20200145 0.20254952 0.20787168
0.13562006 0.22086447 -0.1997804 -0.16337484 -0.0833447 0.31207818 -0.101367235 0.3580464
0.24898243 -0.048945248 0.16455978 -0.11996549 0.3735155 0.019967198 -0.08211911 0.112490475
0.33109045 -0.24526137 0.15681481 0.028910577 -0.24803448 0.046238363 -0.47014797 0.37006456
0.1043669 0.2502324 0.3286544 0.26688737 0.27105957 0.43075824 0.47223347 0.45775092
0.49617535 -0.35007304 0.49798757 -0.25346398 -0.29739052 -0.0074315667 -0.23207605 0.21655768
-0.4906364 0.15020788 -0.0056021214 0.10823983 0.10395551 -0.27326506 -0.03060317 -0.09928024
-0.24188197 0.387792 0.4211902 -0.48172808 0.21557683 0.44593722 -0.23973304 0.21551985
0.005856931 -0.15151435 0.2578553 0.02126187 0.2569096 -0.0603773 0.053890526 -0.27175313
0.07072008 0.38851303 -0.14281619 0.3036999 0.053739667 0.1766426 0.25211525 -0.37538785
0.41320878 0.38278264 0.32061 -0.32720476 0.085576296 0.108122766 -0.45137644 0.16338843
-0.08511877 -0.1502825 -0.15832138 0.23142225 -0.20879972 -0.334414 -0.13428396 0.36859155
-0.17727709 -0.48226905 0.3713857 -0.2786101 0.46967947 0.36409467 0.4289701 -0.3112294
0.16941577 -0.07519114 0.22944427 0.03307122 0.43120104 0.27254808 0.21312267 0.31770813
-0.3161375 -0.15141821 -0.4378516 0.2446785 0.023065627 0.2950244 -0.49920422 0.13687605
-0.21194518 -0.05807638 -0.3537215 -0.069298804 -0.1256988 -0.17797667 -0.2557959 0.14917725
0.2635966 0.02880323 0.27531165 -0.24400717 0.28335094 -0.18571156 -0.022003174 0.30692255
-0.27480036 -0.42619348 -0.061433673 -0.20569277 -0.45647323 -0.07080555 0.10692847 -0.16514009
0.24626231 0.3575431 -0.4134298 -0.2562701 -0.33941036 -0.17096227 -0.4038977 -0.37930262
-0.3946668 -0.46731663 0.49569237 0.35589987 0.342211 0.19626957 0.19615877 0.44229627
-0.17514646 -0.077314794 -0.30497742 -0.40468532 0.45813292 -0.02601701 0.045200765 -0.14576119
0.48529512 0.4125772 -0.48175603 0.20750064 -0.36324805 -0.4701929 -0.46458006 0.15517694
-0.26791072 -0.111510515 -0.090685904 -0.32883316 -0.41887927 0.4152947 -0.12268746 0.46581864
0.46457916 0.15044606 -0.26528972 -0.40027362 -0.36240768 -0.22601229 0.20622092 0.47138023
0.47309357 -0.42761207 -0.23521817 0.07598293 -0.40790778 -0.101145744 0.27864254 0.24579829
-0.36742002 -0.07356554 0.4253825 -0.46342027 0.18019992 0.104102015 0.03237641 -0.24702317
-0.26950616 0.1567936 0.3969686 -0.1802451 -0.16044039 -0.48572814 0.16815758 -0.40764964
0.3357541 -0.14572912 0.20527732 -0.3499058 0.2635343 0.023751736 -0.43321157 0.2788617
0.01141119 0.4617054 0.17179888 -0.41488332 -0.4938839 0.475973 0.4990099 -0.28796542
0.13658887 -0.34670132 0.31874377 -0.39845198 0.12330449 0.42908418 -0.38142604 -0.28869063
00000000: 5826 b7bd e0b4 253e 986d a63e 245c b43e
00000010: 8a27 a93e ac64 19be 4aef dfbe b02a 733e
00000020: 941d 31be 620c c5be f28a f8be ace9 debe
00000030: 90e3 fd3d c039 e93e c62e c0be 40cc 99be
00000040: c27e e83e a883 bfbe ecd1 e03e 0c54 6fbe
00000050: 2402 6f3e 78d9 4e3e 2469 4f3e 50dc 543e
00000060: fcdf 0a3e 4c2a 623e 3c93 4cbe bc4b 27be
00000070: a0b0 aabd b6c8 9f3e a099 cfbd dc51 b73e
00000080: 40f5 7e3e d07a 48bd 5c82 283e 78b0 f5bd
00000090: 6c3d bf3e 4092 a33c 102e a8bd 6861 e63d
000000a0: b084 a93e cc25 7bbe 1094 203e e0d5 ec3c
000000b0: c0fc 7dbe 7064 3d3d 3cb7 f0be 1a79 bd3e
000000c0: 50be d53d 761e 803e 6445 a83e 76a5 883e
000000d0: 52c8 8a3e 588c dc3e 96c8 f13e 545e ea3e
000000e0: b20a fe3e c63c b3be 3af8 fe3e 08c6 81be
000000f0: 9243 98be 8084 f3bb 58a5 6dbe 4cc1 5d3e
00000100: b234 fbbe 18d0 193e 0092 b7bb d8ac dd3d
00000110: a0e6 d43d 66e9 8bbe 80b3 fabc 7053 cbbd
00000120: e8af 77be ac8c c63e 3ea6 d73e 10a5 f6be
00000130: 2cc0 5c3e e251 e43e 947c 75be 3cb1 5c3e
00000140: 80eb bf3b 9426 1bbe 9c05 843e 602d ae3c
00000150: a889 833e 304e 77bd 50bc 5c3d 3a23 8bbe
00000160: b0d5 903d 2eeb c63e 683e 12be 8e7e 9b3e
00000170: 201e 5c3d cce1 343e 4015 813e d632 c0be
00000180: 1a90 d33e 16fc c33e fe26 a43e 6287 a7be
00000190: a042 af3d 786f dd3d d01a e7be 4c4f 273e
000001a0: c052 aebd a8e3 19be 001f 22be f4f9 6c3e
000001b0: 98cf 55be 5038 abbe bc81 09be 08b8 bc3e
000001c0: 2088 35be f8eb f6be 4426 be3e fca5 8ebe
000001d0: d479 f03e 9e6a ba3e f8a1 db3e 7659 9fbe
000001e0: 547b 2d3e d0fd 99bd 70f3 6a3e b075 073d
000001f0: 62c6 dc3e 6c8b 8b3e d43c 5a3e a4aa a23e
00000200: c6dc a1be 600d 1bbe 162e e0be 008d 7a3e
00000210: 20f4 bc3c 700d 973e b297 ffbe 3c29 0c3e
00000220: 2808 59be 80e1 6dbd fc1a b5be 88ec 8dbd
00000230: 30b7 00be 843f 36be aef7 82be ecc1 183e
00000240: 22f6 863e c0f4 eb3c a6f5 8c3e 04dd 79be
00000250: 6013 913e 2c2b 3ebe 0040 b4bc f424 9d3e
00000260: a2b2 8cbe 0836 dabe e0a1 7bbd 20a1 52be
00000270: dcb6 e9be 8002 91bd 50fd da3d 7c1a 29be
00000280: 302c 7c3e e40f b73e 12ad d3be d635 83be
00000290: 32c7 adbe bc10 2fbe aecb cebe f433 c2be
000002a0: c411 cabe 2044 efbe 64cb fd3e 8238 b63e
000002b0: 4836 af3e e4fa 483e d8dd 483e a874 e23e
000002c0: 9859 33be 3857 9ebd 0026 9cbe ea32 cfbe
000002d0: 6690 ea3e a021 d5bc 7024 393d 6c42 15be
000002e0: 9a78 f83e 523d d33e baa8 f6be 0c7b 543e
000002f0: a6fb b9be 20bd f0be 70dd edbe b4e6 1e3e
00000300: 982b 89be a05f e4bd 88b9 b9bd d25c a8be
00000310: 5877 d6be 82a1 d43e 9043 fbbd c87f ee3e
00000320: 52dd ed3e 880e 1a3e 0ed4 87be aaf0 ccbe
00000330: 808d b9be c46f 67be 942b 533e c058 f13e
00000340: 5239 f23e f8ef dabe 08dd 70be f09c 9b3d
00000350: 4ad9 d0be 8025 cfbd 3caa 8e3e 8cb2 7b3e
00000360: 7a1e bcbe 88a9 96bd bccb d93e 6c45 edbe
00000370: 5486 383e 7033 d53d 209d 043d a4f3 7cbe
00000380: b6fc 89be 808e 203e 783f cb3e 2c92 38be
00000390: 7c4a 24be 5cb1 f8be 8031 2c3e 74b7 d0be
000003a0: f6e7 ab3e 043a 15be 3834 523e da26 b3be
000003b0: f8ed 863e 0093 c23c e8cd ddbe f6c6 8e3e
000003c0: 00f6 3a3c a664 ec3e 0cec 2f3e 966b d4be
000003d0: 5ade fcbe bcb2 f33e 3a7e ff3e 3470 93be
000003e0: f4dd 0b3e d682 b1be 6232 a33e e601 ccbe
000003f0: 1087 fc3d ecb0 db3e 464a c3be 42cf 93be

layer1.bias f4 [128]
-0.4580316 0.18935627 -0.0879066 -0.41462302 -0.07799375 0.17856866 -0.44614774 -0.30079132
0.07747078 0.28699046 -0.022369444 0.42447823 -0.20577669 0.43740708 0.12420106 -0.3369379
0.32893217 0.2591713 0.108529925 -0.186338 -0.3151011 -0.41262692 0.4489243 0.42084044
-0.1736604 0.08794922 -0.022515416 -0.100419104 -0.24125755 -0.1706379 0.45333076 0.1737814
-0.17972636 0.23655552 -0.06921947 -0.35737062 0.45094484 -0.35130906 0.37529987 0.026284695
-0.4388731 -0.096145034 -0.04375261 0.48785007 0.39228976 0.41603893 -0.32113695 -0.43587327
0.32428008 0.20928037 0.4767748 0.3347367 0.034169674 0.39827234 -0.038932383 -0.44357193
-0.30794555 0.028155267 -0.052188158 -0.03175354 -0.10347259 0.37473685 -0.19972783 -0.32043004
-0.109901726 0.3404019 -0.003597021 -0.3143013 0.052759588 0.1845684 -0.24143553 0.088447034
-0.16254169 0.17877328 0.17721301 -0.15166473 0.3244127 0.27391046 -0.41719997 0.24534404
-0.39805728 -0.41065925 -0.34596312 -0.2099815 0.4718467 -0.29252654 0.15037662 -0.16140753
-0.37498134 -0.39120066 -0.45470768 -0.43323702 -0.0046688914 -0.13806033 0.44651234 0.096728146
0.33082008 -0.24885553 0.466143 -0.4238727 -0.015959918 0.15727264 0.4030187 0.46509486
-0.376732 -0.31808805 0.010788143 0.22624433 0.47873592 0.28464246 -0.2699129 -0.026551187
0.24595225 -0.17625558 -0.27896833 0.20044506 -0.04915899 -0.42499644 0.18928659 -0.038850725
-0.2962103 0.07925266 -0.12638962 -0.4674577 -0.31131786 0.2819209 -0.213624 -0.35821176
00000000: 1e83 eabe 9ce6 413e 6008 b4bd 7849 d4be
00000010: 30bb 9fbd b4da 363e 7a6d e4be 5201 9abe
00000020: 00a9 9e3d 6af0 923e 2040 b7bc 3655 d93e
00000030: 20b7 52be d2f3 df3e 205d fe3d 2083 acbe
00000040: cc69 a83e 1ab2 843e f044 de3d 64cf 3ebe
00000050: ee54 a1be d643 d3be 68d9 e53e 6678 d73e
00000060: 08d4 31be b81e b43d 4072 b8bc 88a8 cdbd
00000070: 380c 77be b4bb 2ebe f81a e83e c0f3 313e
00000080: 300a 38be 9c3b 723e f0c2 8dbd 48f9 b6be
00000090: 3ee2 e63e c8de b3be 4e27 c03e 0053 d73c
000000a0: fab3 e0be b0e7 c4bd f035 33bd 7cc7 f93e
000000b0: 34da c83e 0e03 d53e 106c a4be c82a dfbe
000000c0: 0a08 a63e 984d 563e d41b f43e 9c62 ab3e
000000d0: 80f5 0b3d 5aea cb3e 9077 1fbd dc1b e3be
000000e0: 0aab 9dbe e0a5 e63c 40c3 55bd 0010 02bd
000000f0: 70e9 d3bd 82dd bf3e 7485 4cbe 680f a4be
00000100: 2814 e1bd 2849 ae3e 00bc 6bbb 1aec a0be
00000110: 701a 583d 80ff 3c3e e03a 77be b823 b53d
00000120: 5471 26be 5810 373e 5477 353e 004e 1bbe
00000130: 6c19 a63e fe3d 8c3e 3c9b d5be 783b 7b3e
00000140: 2ace cbbe ee41 d2be 1422 b1be 6405 57be
00000150: e495 f13e 0ac6 95be 54fc 193e 0448 25be
00000160: 8efd bfbe 744b c8be 72cf e8be 3ed1 ddbe
00000170: 80fd 98bb b05f 0dbe 449d e43e 6819 c63d
00000180: 4061 a93e fcd3 7ebe 4caa ee3e d805 d9be
00000190: 60be 82bc 140c 213e 7858 ce3e ea20 ee3e
000001a0: 04e3 c0be 70dc a2be c0c0 303c 98ac 673e
000001b0: e01c f53e a8bc 913e 0632 8abe e081 d9bc
000001c0: e8da 7b3e 587c 34be f0d4 8ebe 7841 4d3e
000001d0: f05a 49bd 2299 d9be 58d4 413e f021 1fbd
000001e0: e0a8 97be 384f a23d 486c 01be 9e56 efbe
000001f0: 0e65 9fbe f057 903e 40c0 5abe 8867 b7be

layer2.weight f4 [128, 128]
0.015622741 -0.034601204 0.022665342 0.048816588 0.044482436 -0.057329133 -0.040310584 -0.04127361
-0.070588596 -0.011788432 -0.067750245 -0.06857613 0.027384039 -0.0011848111 0.07838217 0.05735925
0.05165487 -0.066553816 0.046292223 0.035050783 0.00935482 0.025271408 0.015427116 -0.0033710734
-0.050271865 0.024888631 -0.021203859 -0.03236116 0.023185719 0.05834702 -0.06118403 -0.08286775
0.0072168154 0.059213214 0.014080303 -0.0133531755 -0.018041296 -0.0039414256 -0.07462267 -0.010492004
-0.0031569886 -0.002115424 0.06796607 -0.029032202 0.021583516 0.0056773913 0.01756234 -0.03717747
0.052221116 0.015554052 0.022975849 -0.06574495 0.049843483 0.058988612 0.049619675 -0.05678841
-0.026149612 -0.02048594 -0.039355263 -0.06568005 -0.030524844 0.026910793 0.02935823 0.025595201
0.03559868 -0.08452311 0.0016472252 0.02510539 -0.04229904 0.08326419 0.07206977 -0.018420354
0.077604055 -0.019508291 -0.035530392 -0.010061949 0.07997741 0.056055088 0.057173148 0.011285472
-0.029764915 0.004129822 -0.068504855 -0.031235209 0.046336845 0.046757217 -0.077353045 -0.06692623
0.028954083 -0.0115609225 -0.033347134 -0.034200102 0.08751363 -0.02368265 0.071405 -0.023460189
-0.052209787 0.08836078 -0.072650544 0.08410428 -0.0201575 0.04763163 0.012708876 -0.01994272
0.024385586 0.01881155 -0.013020121 0.024401676 -0.02261134 0.011649726 0.046228793 -0.045525603
0.008626765 0.08322838 0.023545716 0.000874231 -0.04020766 -0.04375691 -0.03366191 -0.077983536
-0.08406507 0.01108539 0.07844016 -0.047009625 0.04831485 0.0029523235 0.06952695 -0.079822846
0.05843829 -0.026971128 -0.0332913 -0.042495232 -0.06854292 -0.05080993 0.058208305 -0.009483652
0.0047342815 -0.06996395 0.04638914 0.0416887 0.0024270474 -0.07573521 0.06558156 0.067484625
-0.072974466 0.0878586 -0.039696123 -0.01754997 -0.06844768 -0.079367906 0.07006369 -0.053935215
0.005456963 -0.06619495 -0.085056946 0.07958111 0.045206584 -0.0038635805 -0.058840267 -0.06561071
-0.058169764 -0.01841262 -0.07123147 0.04570661 0.05563151 0.035783738 0.06863952 -0.077394105
-0.07337961 0.018003942 -0.071374066 0.084957205 -0.059302144 0.085658714 -0.045553472 0.013022649
0.04924231 0.00846256 -0.07053073 -0.050810806 -0.073396 0.04585885 0.038867127 0.028622482
0.026481306 0.07235522 0.06717166 -0.08028613 0.055458024 0.085669614 0.038862806 -0.042248927
-0.0069990954 0.036695205 -0.044846006 -0.08833581 -0.026845824 0.04998944 -0.016193103 -0.06147145
-0.050791997 0.026066214 0.087227724 0.029257046 -0.013768985 -0.007502655 -0.010441723 -0.051445223
0.085224845 0.06536689 0.06936814 -0.058726016 -0.058787562 -0.057182737 -0.01060264 0.05342349
0.041648336 0.004022864 0.02109769 0.06297451 0.058684956 0.07785037 -0.06348775 0.08803825
-0.037026018 0.024335157 0.022461625 0.062471595 0.002206493 -0.069839716 -0.0552116 -0.045486785
0.03455345 0.0013115573 -0.071152836 0.06581668 -0.07250837 -0.03408226 0.05949923 0.016801314
0.037236784 -0.077401906 0.08152246 -0.07232797 -0.057720594 0.0480969 0.00540213 -0.07778731
0.036018737 -0.03143057 -0.012574122 -0.015561849 0.036610384 0.08371856 -0.0028837295 -0.046595227
00000000: 86f6 7f3c feb9 0dbd abac b93c e7f3 473d
00000010: 3733 363d f4d1 6abd b61c 25bd 840e 29bd
00000020: c190 90bd 4424 41bc a4c0 8abd a471 8cbd
00000030: 7e54 e03c aa4b 9bba d586 a03d 88f1 6a3d
00000040: 0f94 533d 5e4d 88bd ea9c 3d3d 6991 0f3d
00000050: f544 193c fc05 cf3c 04c2 7c3c 3aed 5cbb
00000060: dfe9 4dbd 3ee3 cb3c b7b3 adbc 238d 04bd
00000070: faef bd3c 49fd 6e3d 1b9c 7abd 91b6 a9bd
00000080: 097b ec3b 8e89 723d 12b1 663c 47c7 5abc
00000090: 57cb 93bc 1327 81bb c5d3 98bd a8e6 2bbc
000000a0: 7be5 4ebb eda2 0abb cb31 8b3d f1d4 edbc
000000b0: eacf b03c 6909 ba3b e5de 8f3c 6747 18bd
000000c0: cfe5 553d 6cd6 7e3c d937 bc3c 4aa5 86bd
000000d0: ae28 4c3d 0b9e 713d 003e 4b3d f79a 68bd
000000e0: b637 d6bc 21d2 a7bc fc32 21bd 4383 86bd
000000f0: 3d0f fabc 0674 dc3c ac80 f03c 07ad d13c
00000100: eccf 113d 741a adbd b5e7 d73a d2a9 cd3c
00000110: c241 2dbd 6a86 aa3d 5199 933d 48e6 96bc
00000120: e0ee 9e3d dacf 9fbc 5188 11bd dfda 24bc
00000130: 32cb a33d 059a 653d 642e 6a3d b3e6 383c
00000140: 8dd5 f3bc 7553 873b 464c 8cbd fbe0 ffbc
00000150: b4cb 3d3d 7f84 3f3d 466b 9ebd 9f10 89bd
00000160: 1d31 ed3c 066a 3dbc 0197 08bd 6815 0cbd
00000170: 593a b33d 1e02 c2bc c93c 923d 952f c0bc
00000180: eed9 55bd 7ff6 b43d cfc9 94bd dd3e ac3d
00000190: 5721 a5bc 6219 433d e438 503c ea5e a3bc
000001a0: 48c4 c73c ae1a 9a3c 5852 55bc 06e6 c73c
000001b0: 6b3b b9bc 7ede 3e3c 675a 3d3d 0e79 3abd
000001c0: 4657 0d3c a473 aa3d f2e2 c03c a62c 653a
000001d0: cab0 24bd 723a 33bd 12e1 09bd d5b5 9fbd
000001e0: 4f2a acbd 7f9f 353c 3ca5 a03d 2a8d 40bd
000001f0: cbe5 453d c57b 413b 2564 8e3d 297a a3bd
00000200: fd5c 6f3d 8ef2 dcbc 755c 08bd 7b0f 2ebd
00000210: 3b60 8cbd 131e 50bd d56b 6e3d 5261 1bbc
00000220: 0822 9b3b 4249 8fbd 8a02 3e3d c5c1 2a3d
00000230: 190f 1f3b 101b 9bbd a04f 863d 6135 8a3d
00000240: a373 95bd 36ef b33d 6798 22bd f4c4 8fbc
00000250: 4c2e 8cbd a48b a2bd 8d7d 8f3d 2ceb 5cbd
00000260: 53d0 b23b 3891 87bd 5632 aebd 6cfb a23d
00000270: 8a2a 393d 2034 7dbb 7e02 71bd e85e 86bd
00000280: 6b43 6ebd 10d6 96bc cee1 91bd db36 3b3d
00000290: dedd 633d f891 123d e092 8c3d cd80 9ebd
000002a0: 0d48 96bd 017d 933c 912c 92bd 0bfe ad3d
000002b0: cee6 72bd d66d af3d 4796 3abd f35c 553c
000002c0: 4eb2 493d 8da6 0a3c 6a72 90bd fe1e 50bd
000002d0: a450 96bd 7dd6 3b3d 2333 1f3d b279 ea3c
000002e0: 53ef d83c f92e 943d 4c91 893d 0e6d a4bd
000002f0: f427 633d 8d73 af3d 9b2e 1f3d 360d 2dbd
00000300: ab58 e5bb b64d 163d 72b0 37bd 68e9 b4bd
00000310: c6eb dbbc bac1 4c3d 66a7 84bc 7dc9 7bbd
00000320: 450b 50bd d088 d53c 73a4 b23d 79ac ef3c
00000330: 4f97 61bc d5d8 f5bb c313 2bbc 3ab8 52bd
00000340: 5d8a ae3d 13df 853d e210 8e3d b18a 70bd
00000350: 3acb 70bd 7238 6abd b2b6 2dbc 97d2 5a3d
00000360: 7297 2a3d 3bd2 833b 10d5 ac3c c8f8 803d
00000370: a35f 703d 0470 9f3d de05 82bd 664d b43d
00000380: 98a8 17bd 865a c73c 7101 b83c 37e2 7f3d
00000390: cf9a 103b 2008 8fbd 8f25 62bd 5a50 3abd
000003a0: eb87 0d3d 8fe8 ab3a 94b8 91bd e5ca 863d
000003b0: 457f 94bd d799 0bbd 77b5 733d e9a2 893c
000003c0: 9985 183d e484 9ebd 3ff5 a63d b020 94bd
000003d0: 6e6c 6cbd 4101 453d 5a04 b13b f44e 9fbd
000003e0: 6288 133d 57bd 00bd b103 4ebc 20f7 7ebc
000003f0: c5f4 153d a374 ab3d f4fc 3cbb a3da 3ebd

layer2.bias f4 [128]
-0.06790679 -0.05078141 -0.04071257 0.06794675 0.016308365 -0.07368223 -0.045206487 -0.020702722
-0.0646894 0.024569241 0.081731334 0.03531965 0.042572595 -0.058319185 0.06681942 -0.035116058
-0.07643445 0.08447736 -0.07156114 -0.079416975 -0.02788307 -0.026993548 -0.02805839 0.061845843
0.08089744 0.052116916 0.036905203 -0.0674227 -0.06518794 0.06568211 -0.049253408 0.0021176578
-0.074560374 -0.071293995 -0.040271018 0.028189002 0.03972859 -0.02920079 -0.071925364 0.037265874
-0.045649007 0.025920775 -0.026722755 0.05549187 0.0879498 0.05529502 -0.03613867 0.011184025
0.07173022 0.078090705 0.07662987 -0.0031324169 0.061073944 0.052483678 0.07864256 -0.024914814
-0.06321291 0.019543441 -0.027701722 0.0012518878 -0.042868655 0.058581505 -0.08739545 0.0073980256
-0.07154069 0.07838426 -0.009056135 -0.004778188 -0.044415656 -0.041378036 -0.0032793619 -0.017321965
0.041327767 0.04290779 -0.04549179 0.07640681 0.00042226928 0.03452965 0.042535283 0.039861012
0.021523848 -0.079716675 0.054266628 0.009153916 -0.010146232 0.086169355 0.054320797 0.074472
0.075200915 0.014351476 -0.020103868 0.034367394 -0.027066348 0.07598507 -0.08664816 -0.05500069
0.08550201 -0.041567814 -0.033747148 -0.048709333 0.04245042 0.0484026 -0.079007015 -0.087431
0.0017082434 0.020188529 -0.0114897685 0.018904546 0.021383498 -0.0042328713 0.08545961 0.010024038
-0.0071319947 0.017799025 -0.04904417 0.024143 0.045848195 0.081317 0.08496769 -0.07457495
-0.0096510695 0.035597775 0.08782255 0.039337613 0.016805455 -0.03131966 -0.02939398 -0.003940456
00000000: b712 8bbd 2b00 50bd 39c2 26bd aa27 8b3d
00000010: 1f99 853c b6e6 96bd 702a 39bd c198 a9bc
00000020: e07b 84bd 6f45 c93c c262 a73d 56ab 103d
00000030: 9a60 2e3d 19e0 6ebd 9fd8 883d dbd5 0fbd
00000040: aa89 9cbd 7702 ad3d a68e 92bd 5ea5 a2bd
00000050: 096b e4bc 9321 ddbc b5da e5bc 1152 7d3d
00000060: 8fad a53d 8c78 553d e929 173d ea14 8abd
00000070: 4181 85bd 5884 863d f1bd 49bd 67c8 0a3b
00000080: 1cb3 98bd 9602 92bd 39f3 24bd 9fec e63c
00000090: 72ba 223d 7f36 efbc 9b4d 93bd 1aa4 183d
000000a0: 74fa 3abd ce57 d43c aee9 dabc 714b 633d
000000b0: 061f b43d 087d 623d 2406 14bd 333d 373c
000000c0: 4be7 923d 05ee 9f3d 1ff0 9c3d 3c49 4dbb
000000d0: ac28 7a3d 20f9 563d 5a0f a13d 271a ccbc
000000e0: c575 81bd 9119 a03c b9ee e2bc 6216 a43a
000000f0: 0b97 2fbd 29f3 6f3d 63fc b2bd 236b f23b
00000100: ed83 92bd ed87 a03d 2f60 14bc 5992 9cbb
00000110: 31ed 35bd 047c 29bd 90ea 56bb cbe6 8dbc
00000120: 4e47 293d 14c0 2f3d 9955 3abd 2c7b 9c3d
00000130: 0664 dd39 f66e 0d3d 7a39 2e3d 4d45 233d
00000140: c852 b03c 7f42 a3bd af46 5e3d 4efa 153c
00000150: 623c 26bc 8f79 b03d 7c7f 5e3d c784 983d
00000160: f002 9a3d 7422 6b3c deb0 a4bc d3c4 0c3d
00000170: 3fba ddbc 0f9e 9b3d 9774 b1bd 6748 61bd
00000180: ae1b af3d 0343 2abd 733a 0abd 7083 47bd
00000190: 7ee0 2d3d ce41 463d 6ece a1bd 060f b3bd
000001a0: 23e7 df3a 6a62 a53c 953f 3cbc b5dd 9a3c
000001b0: 722c af3c e6b3 8abb 7305 af3d dd3b 243c
000001c0: 82b3 e9bb 43cf 913c 8ae2 48bd 8ac7 c53c
000001d0: 51cb 3b3d 8789 a63d 8a03 ae3d c0ba 98bd
000001e0: 851f 1ebc f9ce 113d 4fdc b33d 7a20 213d
000001f0: 98ab 893c 0b49 00bd a5cb f0bc f11e 81bb

layer3.weight f4 [4, 128]
0.083344 0.034830038 -0.026457315 0.041056752 -0.015398298 0.07009417 0.038545243 0.030199576
0.013188329 -0.054671615 -0.057245154 0.043809015 -0.050434466 0.0761893 0.023149714 0.07440248
0.054995198 -0.081034236 0.0684112 -0.0835729 -0.033423547 0.085021876 -0.01731403 0.07992409
0.0056270994 0.00058977137 0.05341483 -0.011253883 0.04609938 -0.015944194 -0.086731926 0.054902308
-0.030806258 0.011242145 -0.0023971652 -0.0477708 0.00025284948 0.08096769 -0.025854152 0.05754932
0.023950705 -0.021666905 -0.004981146 0.054551434 -0.0074384445 -0.06353228 0.05875634 0.07984725
0.06959367 -0.0021000616 0.009417871 0.013355462 0.053505126 -0.07685168 -0.08559916 0.03190797
0.02553746 -0.021238618 0.01338075 0.020489616 -0.013708462 -0.08024095 -0.06915441 0.010503237
0.050428323 0.028159553 0.08656968 -0.03785981 -0.079483 -0.06536583 -0.015200682 0.04157619
0.0011057963 0.009771957 0.030607937 0.08094849 -0.0037164353 0.046330683 0.0485129 -0.022951813
0.06289871 0.048426256 0.051194217 0.06181125 0.028536683 -0.009998402 0.0061378875 0.01925663
-0.0011715875 0.039268304 0.05762393 -0.012989701 -0.023500502 0.03541573 0.06282311 -0.020590095
-0.06993151 0.020716313 -0.02823234 -0.061135437 -0.071597435 -0.08586083 -0.021096699 0.08615406
-0.012381764 -0.034859773 0.06789941 0.006729187 0.04787201 0.014441354 0.03815866 -0.002756541
0.04496228 0.02273106 0.0052854675 -0.06337125 -0.031119788 0.009588988 0.022892745 -0.038390204
0.01766939 0.05364355 0.04953715 0.06348087 0.033708323 0.06629314 0.043564446 -0.07173005
0.0035638849 -0.023928504 0.05552762 -0.028681446 -0.009214133 -0.036220327 0.0765419 -0.006941217
0.06641325 -0.08291484 -0.052803796 -0.041697785 0.029382464 0.070624195 0.0033298223 -0.078080185
-0.03821148 0.03839601 -0.072040625 -0.058981057 -0.08711727 0.081128806 0.081744 -0.07572571
0.049966216 0.021211708 0.08772245 -0.024069516 -0.018227288 0.016787268 0.08442593 -0.01821199
0.015423154 0.03853069 -0.046647225 0.015938146 -0.019056434 0.033938434 -0.0109750815 -0.08804868
0.021794852 0.061333105 -0.07780368 0.001679141 0.009452674 0.012002759 -0.01151357 -0.047159363
-0.0795162 -0.055335198 -0.063486926 -0.021123221 -0.03963948 0.073128834 0.053032503 -0.017593822
0.0054595238 0.06319078 0.073202774 -0.076398455 -0.021539653 0.027058203 0.06987692 -0.032622628
0.014225826 -0.0053778957 0.016493462 0.00084846874 0.0148846125 0.03498729 -0.03680971 -0.08783327
-0.07378458 0.079181254 -0.05672028 -0.03592535 -0.0392107 0.0789508 -0.043467805 -0.013906068
-0.047926404 0.07881763 -0.084608935 0.06444639 0.016936943 0.014157558 -0.025664575 -0.010065795
0.017717218 -0.042890117 0.0052245446 -0.046594456 -0.083638586 0.02575108 -0.049094312 -0.026891142
-0.049686708 -0.012931011 0.03148344 -0.014697354 -0.07760889 0.034019735 0.068187654 -0.06015682
-0.011559015 0.08777015 0.029390883 -0.03080038 0.07559363 0.056151822 -0.053584415 0.056264892
0.053395398 -0.050790925 -0.06762438 -0.08832739 0.039913528 0.009517622 0.0739367 -0.014949613
-0.054319207 -0.05495559 0.07609387 0.0689828 0.03828484 0.029163564 0.08566642 0.05375589
00000000: 42b0 aa3d f1a9 0e3d 03bd d8bc 202b 283d
00000010: 2549 7cbc 888d 8f3d 9ee1 1d3d 1a65 f73c
00000020: dc13 583c 58ef 5fbd e579 6abd 1571 333d
00000030: 5f94 4ebd 2309 9c3d 78a4 bd3c 5460 983d
00000040: a542 613d 47f5 a5bd 2c1b 8c3d 4528 abbd
00000050: 21e7 08bd f31f ae3d 27d6 8dbc 3eaf a33d
00000060: 8863 b83b e39a 1a3a 82c9 5a3d 3562 38bc
00000070: b4d2 3c3d 669d 82bc 82a0 b1bd 3ee1 603d
00000080: 685d fcbc f930 383c c219 1dbb 50ab 43bd
00000090: e290 8439 63d2 a53d 16cc d3bc d6b8 6b3d
000000a0: 4534 c43c cb7e b1bc e238 a3bb 5371 5f3d
000000b0: 32be f3bb 361d 82bd 7daa 703d f486 a33d
000000c0: 2087 8e3d 30a1 09bb 6a4d 1a3c ded0 5a3c
000000d0: 3128 5b3d 6a64 9dbd 9d4e afbd eeb1 023d
000000e0: ef33 d13c 9cfc adbc ef3a 5b3c d7d9 a73c
000000f0: 7599 60bc 5e55 a4bd d4a0 8dbd c515 2c3c
00000100: ee8d 4e3d ddae e63c 724b b13d e312 1bbd
00000110: fcc7 a2bd 85de 85bd 480c 79bc cc4b 2a3d
00000120: 5ef0 903a 8f1a 203c 7fbd fa3c 52c8 a53d
00000130: 708f 73bb 3ec5 3d3d 76b5 463d 7105 bcbc
00000140: 0ad1 803d 9c5a 463d 07b1 513d cb2d 7d3d
00000150: c3c5 e93c 56d0 23bc 5520 c93b 15c0 9d3c
00000160: f48f 99ba cdd7 203d 1207 6c3d c1d2 54bc
00000170: 2084 c0bc 1610 113d 67a9 803d 8fac a8bc
00000180: 4038 8fbd 42b5 a93c 8247 e7bc 2769 7abd
00000190: ada1 92bd ced7 afbd fcd2 acbc 8a71 b03d
000001a0: e2dc 4abc 1fc9 0ebd d90e 8b3d 8380 dc3b
000001b0: 7115 443d 6e9b 6c3c 414c 1c3d 15a7 34bb
000001c0: 5e2a 383d 7d36 ba3c b731 ad3b c9c8 81bd
000001d0: edee febc 211b 1d3c 9189 bb3c 0c3f 1dbd
000001e0: 66bf 903c 57b9 5b3d 77e7 4a3d 4202 823d
000001f0: bd11 0a3d b3c4 873d a270 323d 34e7 92bd
00000200: 1190 693b b605 c4bc ee70 633d 5af5 eabc
00000210: e0f6 16bc c45b 14bd 00c2 9c3d 2673 e3bb
00000220: ac03 883d 41cf a9bd cb48 58bd 4ccb 2abd
00000230: 7eb3 f03c 6ba3 903d 2639 5a3b 81e8 9fbd
00000240: a483 1cbd 2245 1d3d 098a 93bd 1f96 71bd
00000250: 8a6a b2bd dc26 a63d 6669 a73d 1516 9bbd
00000260: 60a9 4c3d 2dc4 ad3c d4a7 b33d 6f2d c5bc
00000270: 6551 95bc 7485 893c 81e7 ac3d 5031 95bc
00000280: 66b1 7c3c 5bd2 1d3d 2911 3fbd b790 823c
00000290: 3d1c 9cbc 0703 0b3d d4d0 33bc de52 b4bd
000002a0: 1e8b b23c 6c38 7b3d 8957 9fbd 9f16 dc3a
000002b0: 63df 1a3c 38a7 443c 6aa3 3cbc 2d2a 41bd
000002c0: 64d9 a2bd 29a7 62bd 6f05 82bd 9b0a adbc
000002d0: 025d 22bd 92c4 953d 9c38 593d eb20 90bc
000002e0: cee5 b23b 2b6a 813d 56eb 953d cb76 9cbd
000002f0: ed73 b0bc 2aa9 dd3c a11b 8f3d 4e9f 05bd
00000300: 7013 693c 0f39 b0bb 4c1d 873c c66b 5e3a
00000310: 97de 733c d54e 0f3d c7c5 16bd eee1 b3bd
00000320: 5f1c 97bd c829 a23d 8653 68bd 7626 13bd
00000330: 669b 20bd f5b0 a13d 4c0b 32bd 47d6 63bc
00000340: 7a4e 44bd 236b a13d 7347 adbd 78fc 833d
00000350: 58bf 8a3c 1af5 673c 843e d2bc 01eb 24bc
00000360: b323 913c 8cad 2fbd a832 ab3b d4d9 3ebd
00000370: b54a abbd eef3 d23c 1e17 49bd d04a dcbc
00000380: 4a84 4bbd 97dc 53bc c8f4 003d 2ccd 70bc
00000390: 69f1 9ebd 4758 0b3d f8a5 8b3d ff66 76bd
000003a0: 0662 3dbc d6c0 b33d 26c5 f03c 1451 fcbc
000003b0: d5d0 9a3d 74ff 653d 557b 5bbd 0476 663d
000003c0: 22b5 5a3d 250a 50bd a77e 8abd fee4 b4bd
000003d0: 5e7c 233d cdef 1b3c 206c 973d 39ef 74bc
000003e0: d17d 5ebd 1d19 61bd 1ad7 9b3d db46 8d3d
000003f0: 90d0 1c3d 6de8 ee3c e071 af3d 232f 5c3d
