custom_maze/static/custom_maze/run/room24818/trained_model.pth (torch, 158674 bytes, 12 tensors)

layer1.weight f4 [128, 16]
000000 54 f7 85 3d 60 80 6f 3d 7c a4 cb bd e4 f2 81 bd
       0.06541315 0.058472037 -0.09943482 -0.06345156
000010 40 55 dc bd 14 25 ec 3d 10 b2 09 3d 08 6f 70 3e
       -0.10758448 0.115305096 0.03361708 0.23479855
000020 f2 ca 5b 3e 1c 7c 5f 3e c8 4b e1 bd 2a c0 03 be
       0.21464136 0.21824688 -0.11000782 -0.12866274
000030 dc 0d c1 3d c2 e5 02 be 0e 1f 3a be cc 8b b4 3d
       0.094264716 -0.12782958 -0.18175909 0.08815727
000040 f0 52 82 3d 28 fe 9b bd 00 cf a0 bd 48 a0 58 bd
       0.06363475 -0.07616836 -0.07851982 -0.05288723
000050 d8 27 9a 3d cc cf e8 3d 90 e9 79 be 50 89 25 bd
       0.07527131 0.11367759 -0.24405503 -0.040414155
000060 e0 fb c0 3c 14 26 0d be 7a 3d 19 3e 7c 5c 4e be
       0.023557603 -0.13784057 0.14964858 -0.20152467
000070 66 37 41 be 30 37 65 3d 24 46 41 3e e2 19 0f 3e
       -0.18868789 0.055960834 0.18874413 0.13974717
000080 38 61 c7 bd 02 9b 34 be 90 10 2c bd 3e cc 29 be
       -0.0973534 -0.17637256 -0.042007983 -0.16581818
000090 d4 80 68 be 2c 5d 40 be 9c c3 00 3e c0 12 2b be
       -0.22705394 -0.18785542 0.12574619 -0.16706371
0000a0 6a b0 48 be b4 b1 0f be 40 de c2 3b ba 7f 08 be
       -0.19598547 -0.14032632 0.0059469044 -0.13329974
0000b0 e2 88 5f 3e b0 bc 5a 3e 70 5e 26 3e de e2 65 be
       0.2182956 0.21361041 0.16246963 -0.22449824
0000c0 d0 c0 b0 bd d0 0c b0 bd d8 1a 43 3e 54 27 c1 bd
       -0.08630526 -0.08596194 0.19053209 -0.09431329
0000d0 b0 3b 1c 3e e6 8e 66 3e 58 67 4b be 3c 27 68 be
       0.15257144 0.22515449 -0.19863641 -0.22671217
0000e0 a0 92 f8 bc d8 d3 bb bd 36 3e 75 be a6 97 72 3e
       -0.030343354 -0.09171265 -0.23949513 0.23690662
0000f0 70 0a 5e be be 53 62 3e 78 94 68 bd 08 a7 a4 bd
       -0.21683669 0.22102258 -0.056782216 -0.08039671
000100 d4 a9 ac bd 44 6f 46 be 20 22 2e 3e 58 ea 39 be
       -0.0843083 -0.19378382 0.17005205 -0.18155801
000110 80 68 b6 bc 40 f5 bf 3d 74 67 d5 bd d0 65 34 3d
       -0.022266626 0.093729496 -0.10420123 0.04404241
000120 6c 65 52 be 6c 55 0e be 2a ff 1c be a0 8f 21 be
       -0.20546502 -0.13899773 -0.15331712 -0.15777445
000130 92 ad 7b be 28 63 27 be 18 e7 c0 bd 68 3f bd 3d
       -0.2457793 -0.16346419 -0.09419078 0.092406094
000140 f0 d8 8a 3c 84 65 e7 bd 48 d9 1e 3e c8 71 4f 3e
       0.016949147 -0.112986594 0.15512574 0.20258248
000150 e4 6e c8 bd 24 7e 1b be 84 89 5c be 98 44 86 bd
       -0.09786776 -0.15184838 -0.21536833 -0.06556052
000160 b8 46 ef bd d4 30 61 3e 00 65 c5 bb e0 01 1e be
       -0.116834104 0.21991283 -0.006024003 -0.15430403
000170 68 ef 32 be 8a 02 33 3e 90 36 cf 3d 90 9a 78 3e
       -0.17474139 0.17481437 0.10117829 0.24277711
000180 90 5c ed 3d 3c a6 71 be 9e 72 3b 3e 70 11 63 bd
       0.115899205 -0.2359857 0.18305442 -0.05543655
000190 12 45 5a 3e 48 0f 3f be 28 d6 ac bd 06 77 4e be
       0.2131541 -0.18658173 -0.084392846 -0.20162591
0001a0 7c a8 5a 3e 5e bd 64 3e 68 05 01 bd 0e 62 55 3e
       0.21353334 0.22337863 -0.031499296 0.20838186
0001b0 18 5e 0e 3e 88 90 96 bd 60 38 03 3e d4 29 63 be
       0.13903081 -0.07351786 0.12814474 -0.22183925
0001c0 f0 84 de bd 56 ad 45 3e 10 dd 9f bd 20 2a d2 3d
       -0.108651996 0.19304404 -0.07805836 0.10261941
0001d0 b0 e2 c3 3c 96 8a 6e 3e 5a f8 35 be b6 ab 51 3e
       0.023911804 0.23295054 -0.1777052 0.20475659
0001e0 e4 f4 53 3e b6 e2 2e 3e c8 f7 3b be 56 56 3e 3e
       0.20698887 0.17078671 -0.1835624 0.18587622
0001f0 24 5d 5f be 24 0d c0 3d 3c 19 ca 3d be 74 2e 3e
       -0.21812874 0.093775064 0.09868094 0.17036721
000200 c4 ce bc 3d da f0 6e 3e 6e 17 38 be 0c fb 60 be
       0.09219125 0.23334065 -0.17977688 -0.21970767
000210 48 b0 60 3d f2 63 68 be 7c 3d 4c 3e c0 61 cd 3b
       0.054855615 -0.22694376 0.1994533 0.006267756
000220 3c 4f ed 3d 70 ee 42 be 00 b0 25 b9 3e 07 42 3e
       0.115873784 -0.19036269 -0.00015801191 0.18948075
000230 80 cf 4d 3c 00 1b 5f 3c 00 d6 4b 3a 9e be 58 3e
       0.012561679 0.013617277 0.0007775724 0.21166465
000240 dc 23 ce bd c0 0e 0d 3c 86 35 29 be 90 8b 9f bd
       -0.100654334 0.008609474 -0.16524324 -0.07790291
000250 4e ab 2e 3e 20 65 2e bd 2a 8d 49 3e 50 6b 84 3d
       0.17057535 -0.04257691 0.19682756 0.06465781
000260 90 d4 d3 bc 8a 7e 75 be 10 5e 6b bd 68 65 e8 bd
       -0.025858194 -0.23974052 -0.057462752 -0.11347467
000270 48 b5 2c 3e ac 50 29 3e 88 38 2a 3d e0 ac 7e 3d
       0.16866028 0.1653468 0.04155782 0.062176585
000280 c2 61 7e 3e dc af ab 3d 18 10 12 be cc c4 8e bd
       0.24841979 0.08383152 -0.14263952 -0.0697113
000290 b8 bb 00 3e 4a 33 0b 3e 52 8f 7f be b0 d9 31 3e
       0.12571609 0.13593784 -0.24957016 0.17368197
0002a0 dc a9 3b 3e c8 9b 2e be 38 ef 21 3e 06 f1 16 be
       0.18326515 -0.17051613 0.15813911 -0.1474038
0002b0 5c c4 a5 bd d4 54 bd bd 00 8b 50 3d 36 37 46 3e
       -0.08094093 -0.09244695 0.05091381 0.19356999
0002c0 20 7b 2b 3e ac 00 fb bd c4 d6 df 3d 20 3d 10 3d
       0.16746187 -0.122559875 0.10929635 0.035214543
0002d0 40 a0 3a 3c 80 bd 2f 3c 7c d9 36 be 70 bd 96 bc
       0.011390746 0.010726333 -0.17856401 -0.018400878
0002e0 24 16 93 3d a2 76 5b 3e 7c 75 d2 3d a0 e8 17 be
       0.07181957 0.21431974 0.102763146 -0.14834833
0002f0 c4 eb 8b 3d 20 40 e7 3c 20 d5 da 3d 50 ad 6c bd
       0.06832078 0.02822882 0.106851816 -0.05778247
000300 86 54 60 be 50 2b ae bd 5c dd b9 3d 88 dc de bd
       -0.21907243 -0.08504355 0.09075424 -0.10881907
000310 30 45 d7 3d e0 34 13 bd 04 23 30 be c4 c8 11 be
       0.10511243 -0.035939097 -0.17200857 -0.14236742
000320 2a b0 63 be 80 70 2c 3d 10 06 68 3e 80 87 15 3c
       -0.2223517 0.042099476 0.22658563 0.009126544
000330 f2 a0 0c 3e 30 26 a6 3c 3c 64 71 be 6c ed f2 bd
       0.13733271 0.020281881 -0.23573393 -0.11861691
000340 08 8e 1d be ac 35 18 3e e8 90 df 3d 20 f5 92 3c
       -0.15386212 0.14864224 0.109163105 0.01793915
000350 a0 f9 48 3d b0 c0 b5 3c dc a1 16 be 92 0e 59 be
       0.049066186 0.022186607 -0.14710182 -0.21196964
000360 50 c6 23 be 76 a8 40 3e b8 6f 60 bd 6c 46 c6 bd
       -0.15993619 0.18814263 -0.054794043 -0.09681401
000370 a4 bd 7d be c0 66 2c 3e 36 c0 3a 3e f2 0c 35 3e
       -0.24779373 0.16836071 0.18237385 0.1768072
000380 48 8a 14 3e e0 5b d4 3c 24 92 58 3e 5e 4e 5e be
       0.14505875 0.025922716 0.21149498 -0.21709582
000390 ce 09 34 3e 66 7f 70 3e ac 8b 05 3e 54 9f ca bd
       0.17581865 0.23486099 0.13041562 -0.09893671
0003a0 94 24 8b bd a4 a8 d1 bd 50 df 51 be 70 11 26 3e
       -0.06794086 -0.10237244 -0.20495343 0.1621759
0003b0 f0 f5 25 be e2 c9 7c be 24 1f c9 3d 10 69 50 bd
       -0.16207099 -0.24686387 0.09820393 -0.050881445
0003c0 80 68 48 bb 00 1d aa bc 0a 32 32 be 08 c9 6a 3d
       -0.0030579865 -0.020765781 -0.17401901 0.057320625
0003d0 98 79 6b 3d 5a 43 61 be 78 b4 3c 3d 56 ae 1e be
       0.057489008 -0.21998349 0.046070546 -0.15496191
0003e0 1e 18 50 be a0 db 60 bd e0 51 19 bc 30 30 58 3e
       -0.203217 -0.05489695 -0.009357899 0.21112132
0003f0 78 e1 c1 3d 76 8a 21 3e 1c 12 03 3e c4 83 b0 bd
       0.09466833 0.15775475 0.12799877 -0.08618882

layer1.bias f4 [128]
000000 98 1e 21 be 40 c9 5c 3d 88 8e 43 be 00 5b 9d bb
       -0.15734327 0.053902864 -0.1909734 -0.004802108
000010 30 d5 bc bd 20 99 f8 bc be 2d 00 be 3e 11 04 be
       -0.0922035 -0.030346453 -0.1251745 -0.12897202
000020 94 7c 21 be 5a f5 6f be 64 8c 6a be 20 95 1f be
       -0.15770179 -0.23433438 -0.22905117 -0.1558423
000030 28 a9 ec 3d a0 54 57 3d 0a ce 03 3e a4 73 9c bd
       0.115557015 0.05257094 0.12871566 -0.07639244
000040 12 d1 5c 3e 50 d8 ef bd 5c 31 17 3e d0 4e 89 bd
       0.21564129 -0.1171118 0.14764923 -0.067044854
000050 bc b4 c7 bd e8 11 6e bd c0 0a dc bc 8e 56 49 3e
       -0.09751269 -0.058122545 -0.026860595 0.19661924
000060 80 fa 9d 3d 0c 7f 2a 3e 4a a1 2f be 58 f2 93 3d
       0.07713795 0.16650027 -0.1715137 0.07223958
000070 a0 c1 e0 bc 9c d0 81 3d 14 26 37 be 18 d0 2b 3e
       -0.027436078 0.06338617 -0.1788562 0.167786
000080 50 b1 91 bc 04 d1 1f 3e 08 74 85 3d c4 cd 9c bd
       -0.017784745 0.15607077 0.06516272 -0.07656434
000090 54 15 5c 3e 14 03 ed 3d 00 bf 08 3b d0 88 0e bd
       0.21492511 0.11572853 0.0020865798 -0.034798443
0000a0 72 8e 7f be 80 34 28 bd 0c 71 88 bd 00 87 a9 3a
       -0.24956682 -0.041065693 -0.06662187 0.001293391
0000b0 c0 d1 44 3c 20 7a 2c bd d4 23 8c 3d d8 3d 0a 3d
       0.012012899 -0.042108655 0.06842771 0.033750385
0000c0 e0 0a 01 bc 0a 19 03 3e 60 ce 22 bd a6 a7 1d be
       -0.007876128 0.1280252 -0.039747596 -0.15395984
0000d0 f4 50 cf 3d 80 b0 e6 3b c8 e0 d9 3d 80 ae 84 3c
       0.101228625 0.0070400834 0.10638577 0.01619649
0000e0 f0 ef b4 3d dc 1c 73 3e 20 dc 37 3e 06 40 66 3e
       0.08834827 0.23741478 0.17955065 0.2248536
0000f0 00 1d f5 3b 40 b4 c3 3d aa b4 0e be 4a 97 14 3e
       0.0074802637 0.09555864 -0.13936105 0.14510837
000100 88 2f 26 bd 72 62 7c 3e 28 8d c8 bd dc 64 e8 bd
       -0.040572673 0.24646929 -0.097925484 -0.113473624
000110 98 8e 6e 3e ea 99 33 3e b0 a8 71 3e 90 79 a4 bc
       0.23296583 0.17539182 0.23599505 -0.020077497
000120 58 92 84 bd 48 67 ee 3d e0 a2 ec 3c 90 2d df 3d
       -0.06473225 0.11640793 0.028886259 0.10897362
000130 f8 76 31 bd 94 2e 87 3d e4 0a 32 be 00 80 49 3d
       -0.043326348 0.06600681 -0.17386967 0.049194336
000140 08 5a 92 3d 54 9f a6 bd a8 43 8e bd fa 89 2e be
       0.07146078 -0.08135858 -0.06946498 -0.17044821
000150 cc 02 00 3e 76 82 7f be fc f5 2a be d0 71 5c bd
       0.12501067 -0.2495211 -0.16695398 -0.053819478
000160 00 40 5b 39 a0 46 3b bd 34 c8 c7 3d 8a d0 0c 3e
       0.0002090931 -0.04572165 0.097549826 0.13751426
000170 2a e3 6f 3e 60 f3 e2 3c 6c cd 15 3e 70 97 62 bd
       0.234265 0.02770394 0.14629143 -0.055320203
000180 28 97 b0 bd a6 cf 63 be bc bd f9 bd 46 bd 33 be
       -0.08622581 -0.2224718 -0.12194392 -0.17552671
000190 10 9c f3 3c fa c8 46 3e b0 a1 b4 bd 6a 34 72 be
       0.029737502 0.19412604 -0.08819902 -0.23652807
0001a0 04 bd 0c be 60 88 22 bc c2 b8 2b 3e 20 29 ca bd
       -0.13743979 -0.00992021 0.16769698 -0.09871125
0001b0 80 60 15 be ce 26 15 3e 5e a1 2f 3e 42 d4 4a 3e
       -0.14587593 0.14565584 0.171514 0.19807532
0001c0 80 92 ac 3d 00 a2 62 3c 00 38 81 bd d2 1e 3f 3e
       0.0842638 0.013832569 -0.06309509 0.18664101
0001d0 58 40 27 be 68 be f4 bd c8 e7 94 3d 8a 5f 74 be
       -0.16333139 -0.119503796 0.07270771 -0.2386457
0001e0 0c 79 63 3e 80 12 5b bc a8 d2 24 3e b8 1d 03 bd
       0.22214144 -0.01337111 0.16095984 -0.032010764
0001f0 10 30 47 bd dc 1b e3 bd 8c 97 62 3e ce f8 4f 3e
       -0.04862982 -0.11089298 0.22128123 0.20309755

layer2.weight f4 [128, 128]
000000 1b bb 1a 3c fd ad 96 3d 67 34 4c 3d f8 99 a3 bd
       0.0094440235 0.073574044 0.049854662 -0.079883516
000010 b4 b6 38 3c 1f c4 84 bd 7d 10 97 3d bd 00 1a bb
       0.011274029 -0.0648272 0.07376192 -0.0023498975
000020 59 8c 7d 3d dd 6c 91 bd 9a 7b bf 3c a4 b8 a7 bd
       0.061901424 -0.07100842 0.023374368 -0.08189514
000030 a1 f5 31 3d 8e 16 84 bd bc e7 30 3d a0 b4 82 3d
       0.04344714 -0.064496145 0.04318975 0.06382108
000040 b4 c9 a5 bd 54 58 9e bd ff a3 13 3d 8e f8 c9 3c
       -0.080951124 -0.07731691 0.03604507 0.024654653
000050 aa e8 8c bd ef 6d 8a 3d f3 0b 1d 3d a2 0c c7 bc
       -0.06880315 0.067592494 0.038341474 -0.024298016
000060 5c cf 0b 3d 8c 4f 8b bd 8e 3a 40 3d 6b 91 1e 3d
       0.0341333 -0.06802282 0.046930842 0.0387129
000070 d6 34 a5 bd fc 5b a5 bd 16 84 bf bc 35 fa 3b 3d
       -0.08066718 -0.08074185 -0.023378413 0.045892913
000080 d6 eb 75 ba 0e 28 4b 3c c6 d4 ab bd 1e 5b 4a bd
       -0.00093811506 0.0123996865 -0.08390193 -0.049403302
000090 5f 89 58 bd bd 29 af 3d 0b 67 85 bd 64 c9 0d 3d
       -0.052865382 0.08552883 -0.065137945 0.03461589
0000a0 b5 8d 86 bd c7 1a b6 3c 94 e1 89 3d 71 2c 8e 3c
       -0.06569997 0.022229565 0.06732479 0.017355176
0000b0 4c 1a aa 3d d6 f2 00 3c 85 a4 82 bd fe 7e a0 bd
       0.08305797 0.007870397 -0.06379036 -0.07836722
0000c0 64 b3 d1 3c d7 64 a1 3d 86 1b 2a bb 61 25 a2 bb
       0.025598235 0.07880562 -0.0025956347 -0.0049483036
0000d0 ea c6 90 bb fd 00 36 bc 81 4e 2e 3d 8f 35 16 bd
       -0.0044182437 -0.011108634 0.042555336 -0.03667217
0000e0 49 d0 5b bd 08 3e 1f bd 9d fd a7 bd 43 16 18 3d
       -0.053665433 -0.038877517 -0.0820267 0.037130605
0000f0 73 79 96 3d f0 1c 98 bd b0 02 d4 b9 f0 72 2f bd
       0.07347383 -0.074273944 -0.00040437793 -0.042834222
000100 f6 3d fc bb d6 44 9a bd b6 2a 5b 3d e5 7a 69 3c
       -0.007697816 -0.07532661 0.05350753 0.014250492
000110 2f a5 80 bd ad e0 e9 bb c7 23 61 3d 26 9d a2 3d
       -0.06281506 -0.007137379 0.05496576 0.0794013
000120 0e ad ab bd 92 d2 51 bc ff 9b a9 bd 9f 45 43 39
       -0.08382617 -0.0128065515 -0.08281707 0.00018622585
000130 58 78 c1 3c 11 22 2a 3b 82 e4 37 bd b1 ab ab 3d
       0.023616955 0.0025960247 -0.044895656 0.08382357
000140 d3 05 4c bc ec c8 06 bd 25 c8 cc 3c d7 ea 7a bd
       -0.0124525605 -0.032906458 0.02499778 -0.061259117
000150 2a 7c 0f bd ec 09 ce 3c 08 26 89 3d f4 d8 8a 3c
       -0.03503052 0.025151215 0.06696707 0.016949154
000160 d7 e6 26 bd 11 3f e3 bc 6b e6 35 bd 9a 83 b2 bc
       -0.04074749 -0.027740033 -0.044409197 -0.021791268
000170 d4 cf 62 bd 73 c5 69 3d 2a 9b f4 3b e9 71 a0 3c
       -0.05537398 0.057073068 0.007464786 0.019585567
000180 e0 12 8a 3c af 3a 30 bd 95 a6 85 3d d6 12 8d 3c
       0.016854703 -0.043024715 0.065259136 0.017220896
000190 6a 90 2d bd a2 d1 29 3b a1 91 97 3d 5d 0c 93 3d
       -0.042374052 0.0025912304 0.074008234 0.071800925
0001a0 77 e9 2f 3c 22 4a a7 3d 08 f8 06 bd be 8f 74 bd
       0.010736815 0.081684366 -0.032951385 -0.059707396
0001b0 d8 97 54 bc d5 94 98 3d 4a d1 9a bc e2 53 87 3d
       -0.0129756555 0.074502625 -0.018898625 0.06607796
0001c0 af 08 a1 bd d8 49 e8 bc 7f b6 53 bd 48 79 11 3d
       -0.078629844 -0.028355524 -0.051687714 0.035516053
0001d0 8c 0b b4 bd fa e3 52 3d f2 f2 c4 3c 79 86 7e 3d
       -0.08791265 0.051486947 0.024041627 0.062139962
0001e0 65 b8 75 bc 25 34 64 3c 99 5a a5 bd d5 1f 91 bd
       -0.014997576 0.013928448 -0.08073921 -0.070861496
0001f0 c7 01 88 3d 3c f4 a1 bb 62 5b 9e bd 75 ae 70 3a
       0.06640964 -0.004942445 -0.07732274 0.00091812696
000200 4b 3b ab 3d 90 e8 99 3d e9 93 80 bc 3d 81 fe bc
       0.083609186 0.07515061 -0.015695529 -0.031067485
000210 50 d9 b3 bc 09 ea 9d bd 68 73 ae bc bd 18 9f bd
       -0.021954209 -0.07710654 -0.021295264 -0.0776839
000220 fe 2b 7f 3d 32 83 4f bd e4 9c 4c 3d ab ec 89 3d
       0.062297814 -0.050662227 0.04995431 0.06734594
000230 0d 6b 7c bd b7 43 6a 3d 06 b7 10 3d 1d 25 74 bd
       -0.06162553 0.057193484 0.035330795 -0.059605706
000240 f0 4c a1 bd 7c e4 aa bd 99 02 ad bd 0e ef a7 bc
       -0.07876003 -0.08344361 -0.08447761 -0.020499732
000250 00 3e 96 bd ed d0 53 bc 34 b8 a8 bc bc 0c 94 3d
       -0.07336044 -0.01292823 -0.020595647 0.072289914
000260 c0 88 91 bb 1c 6b 10 3d 94 89 fc bc 05 e8 2a 3d
       -0.0044413507 0.035258397 -0.030827321 0.041725177
000270 18 a1 a0 bd 80 46 6c 3d 56 3b 73 bd 70 79 dc 3c
       -0.07843226 0.05768442 -0.05938276 0.026913375
000280 51 d6 be 3c 91 cb 44 3d 53 39 0c 3d dc 3c 38 3c
       0.023295553 0.0480457 0.034234356 0.011244979
000290 8d 0c 24 bd 9f aa 0d 3c 3f a9 da bc fd 89 28 3d
       -0.04005103 0.008646636 -0.026692031 0.04114722
0002a0 1d d4 71 bd ec 3b 5c bd a7 c8 50 bc b2 0a a4 bd
       -0.059040178 -0.053768083 -0.012743152 -0.080098525
0002b0 0f ba 3b bd bd cb 65 3d e7 51 c8 3c 94 94 09 bd
       -0.045831736 0.056102503 0.024453117 -0.03358896
0002c0 e4 a4 1d bd 7f 7b cb 3b 53 9e 61 3d b1 9d 05 3d
       -0.03848733 0.0062097902 0.05508263 0.03262109
0002d0 96 64 8a 3d 42 a0 05 3d 96 ef 68 bd 38 ce 72 3c
       0.067574665 0.032623537 -0.056869112 0.014819674
0002e0 d1 58 e6 3b 2f 45 9a bd 74 fb b0 bd 75 52 d8 3c
       0.0070296307 -0.07532727 -0.08641711 0.026406506
0002f0 26 83 02 3c 0e cd b4 3d f5 28 09 3d 64 81 7c 3d
       0.007965839 0.088281736 0.033486325 0.061646834
000300 4b 29 0e bd f3 83 2b bd 58 38 f9 bc 5e 79 11 3d
       -0.03470735 -0.041873883 -0.030422375 0.035516135
000310 22 cc 4a bc 81 05 02 bc f0 40 8a bd ad e8 84 3d
       -0.012377771 -0.007935883 -0.06750667 0.06489692
000320 c9 32 8a 3d bf 4e 34 bd 39 23 74 3c 33 7c 26 bd
       0.06747968 -0.04402041 0.014900976 -0.04064579
000330 e9 92 9a 3c be d6 3d 3a 16 74 98 bd d2 d0 82 3c
       0.01886888 0.0007241777 -0.07444017 0.015968714
000340 9d 45 83 bd 8a 42 c9 3b 21 9d af bd b9 27 fa 3c
       -0.06409762 0.0061419653 -0.08574892 0.03053652
000350 46 10 4e 3d be 13 8a bd 8c 81 ae bc 0d 54 5c bd
       0.05030849 -0.06742047 -0.021302007 -0.053791095
000360 19 91 16 bc 2b 5e 52 bd eb 3e 9a 3c cc 49 69 bc
       -0.009189867 -0.051359337 0.01882883 -0.014238786
000370 f2 fe 6e 3c c4 63 68 3c 94 b4 b4 bd f1 78 2c 3c
       0.014587151 0.014183942 -0.08823505 0.010526882
000380 b7 bb 8b 3d b4 45 88 bd b2 4f 45 3d 0f f6 4d 3d
       0.06822913 -0.0665392 0.048171706 0.050283488
000390 c4 5d 9c bd c3 8d 2f bc 1e ce 55 bd 6e 9b 8a bd
       -0.07635072 -0.010714951 -0.05219852 -0.06767927
0003a0 db 93 41 3d 39 63 3c bd 7c f8 56 bd 62 84 37 3d
       0.047260147 -0.045993064 -0.052483067 0.044803984
0003b0 a0 67 9f bd ec 2f 04 bc ec 2c 2d bd a9 32 ae bb
       -0.07783437 -0.008068066 -0.04227917 -0.0053160978
0003c0 7e 81 a1 3d 38 e3 a3 bd ef c9 89 bc 3f 57 4d 3d
       0.07886027 -0.08002323 -0.016819922 0.050132032
0003d0 f0 61 5a 3c 07 c4 1b 3d cf 59 90 bd 80 cb cd 3c
       0.013329014 0.038028743 -0.0704838 0.02512145
0003e0 e5 c3 71 bd e0 ec 8d 3d e9 06 45 bd 58 e2 5e 3c
       -0.05902471 0.06929946 -0.048102293 0.013603769
0003f0 b7 4d 11 3d cf 33 4c 3d c2 0b 39 bd b6 4a 67 3d
       0.035474505 0.049854096 -0.04517723 0.056467734

layer2.bias f4 [128]
000000 8d 41 a0 bd 02 66 c4 bc 81 0f 1b bd a7 57 8a 3d
       -0.07825003 -0.023974422 -0.037856583 0.067549996
000010 89 9d a1 3d 07 45 aa 3d 16 d0 14 bc c3 47 f6 bc
       0.078913756 0.08313947 -0.009082815 -0.030063516
000020 f5 8f a9 3c e8 8a 9a bd 77 e1 2d bd bd 59 88 3d
       0.020698527 -0.075460255 -0.04245135 0.06657741
000030 ef bb 87 3a ac ac 71 3d 62 67 4c 3d a4 3b 8d 3d
       0.0010355691 0.059002563 0.04990328 0.06896141
000040 7e 0d aa bc ee ce 3b bd f4 07 6e 3d c8 ac 9a 3d
       -0.020758387 -0.04585164 0.058113053 0.07552487
000050 32 79 b6 3c f8 94 e1 3c 85 8b 09 bd b6 87 c3 bc
       0.022274587 0.027536854 -0.03358032 -0.023868423
000060 3e 35 61 3b 5a 50 a2 bd a6 c0 a1 3d ba 02 20 bd
       0.003436401 -0.07925482 0.07898073 -0.0390651
000070 d8 2f 69 3d c7 b1 3c bc e2 cf 8e 3d 55 09 3c bd
       0.056930393 -0.011516995 0.06973244 -0.045907337
000080 74 fa de 3c ea 65 00 3d 96 75 af 3d 58 e7 96 3d
       0.027219035 0.031347193 0.085673496 0.07368344
000090 7e ec 18 3d 5b 75 b5 bc b7 99 a4 3d 37 51 27 bc
       0.03733491 -0.022150686 0.08037131 -0.010212234
0000a0 9f d0 65 bd 40 c1 89 bd 7e e7 ab bd eb 80 02 bd
       -0.05610716 -0.06726313 -0.08393763 -0.031861227
0000b0 0e ef fb 3c fe 1c a0 3d 97 03 1a bd 8d 59 83 3d
       0.030753639 0.0781803 -0.03760108 0.06413565
0000c0 e0 d2 19 3d 4a 42 9c 3c b5 e2 a5 bd 1d f4 51 bd
       0.03755462 0.019074578 -0.080998816 -0.051258195
0000d0 e4 e1 28 bd 59 e9 1b ba 66 a9 da 3c 85 d5 29 3d
       -0.04123105 -0.0005947552 0.026692104 0.041463394
0000e0 74 6f 80 3d d9 eb 3a 3d 1c 87 97 bd a5 72 ae bd
       0.06271258 0.045635078 -0.07398817 -0.085179605
0000f0 71 0c 80 3d cf 3c 0b bc 6b 33 fd bb d6 fc 4e bd
       0.06252373 -0.008498385 -0.0077270768 -0.050534092
000100 39 c9 93 bd 37 13 a9 bd 92 e9 7c 3d ae d7 91 bb
       -0.072161146 -0.08255618 0.061746188 -0.00445076
000110 5c 2c 6e bd 99 cd ab 3d a9 11 21 3d f6 35 0b 3c
       -0.058147773 0.08388824 0.039323483 0.008496752
000120 ff 26 32 bd 1c 1f 1c bd b3 c3 a9 bd ec d2 36 3d
       -0.04349422 -0.038115606 -0.0828928 0.044634745
000130 ab d5 65 3d 49 90 ed bc 89 b2 9a 3d e8 82 7e 3d
       0.056111973 -0.028999465 0.07553584 0.06213656
000140 2d ca ff bc 18 0d 61 bd ee 10 b3 3d 2f 98 a9 3d
       -0.031224335 -0.054944128 0.087434635 0.0828098
000150 12 64 3f bd 05 ce d9 3c 32 fb 0e 3d 0b 14 4a bd
       -0.046726294 0.026587496 0.034907527 -0.04933552
000160 69 be e3 bc 60 e6 3d 3d a6 a9 f2 3c fd 7a 18 bc
       -0.027800756 0.04636228 0.02962191 -0.009306666
000170 43 fc ce bc b0 8e 92 bd 51 99 80 3d b8 03 3c 3d
       -0.025266772 -0.07156122 0.06279243 0.045901984
000180 2f 4f 4a 3d cb b7 28 3d 49 6a 81 3d b9 33 36 3d
       0.04939192 0.041190904 0.063191004 0.04448292
000190 bc 3b bc bc 08 33 97 3d 02 bb 0b 3d 22 6a 54 bd
       -0.022977702 0.0738278 0.03411389 -0.05185903
0001a0 83 c1 14 bd 3a 05 a2 3d 8b 29 96 bd 76 d4 18 bd
       -0.03631736 0.07911153 -0.073321424 -0.037311994
0001b0 64 8e fd bc ef c0 5e bc d7 31 88 3d 3d dc c6 bc
       -0.030951686 -0.013595804 0.06650131 -0.02427494
0001c0 09 6b 6c 3b c3 fc e0 bb 77 49 8c 3d 70 95 36 3c
       0.003607454 -0.006866069 0.0684995 0.011144027
0001d0 71 f0 9b 3c 74 1e da ba d0 c4 cb bc 3b e2 f0 bc
       0.01903555 -0.0016641156 -0.024874121 -0.02940475
0001e0 8c 90 39 bd 0d a3 1c 3d 6c 85 61 3d 68 9f ca 3c
       -0.045303866 0.038241435 0.05505888 0.024734214
0001f0 82 0c 76 3d 33 25 1a bc 9d 54 bd bc 65 62 8f 3d
       0.060070522 -0.009408283 -0.023111636 0.07001189

layer3.weight f4 [4, 128]
000000 e7 16 4c 3d a9 74 83 bd 25 b6 fd bb 0a 18 ad bd
       0.04982653 -0.064187355 -0.0077426606 -0.08451851
000010 e5 92 69 bd c7 29 84 3c 47 86 a4 3d b2 fa 8f 3d
       -0.057024855 0.016133202 0.08033424 0.07030238
000020 25 6f ad 3b eb 15 79 bc 9e 7e 90 3d 86 66 1f bd
       0.0052927905 -0.01520298 0.070554 -0.038916133
000030 19 5f aa bc e8 07 a6 bd bb c2 a2 bc ef 38 13 3d
       -0.0207973 -0.08106977 -0.019868245 0.035942968
000040 b4 1f 43 3d dd e4 19 3d 73 4b f2 bc 6a d4 be bb
       0.047637656 0.037571777 -0.029576993 -0.0058236616
000050 5d d0 18 3d 4f 1b d3 bc 39 5b 91 bd dd 0d bc 3b
       0.037308086 -0.025769858 -0.070974775 0.0057389573
000060 33 9c 51 3d 39 37 a5 bd f8 3b 81 bd a2 6b ca bc
       0.051174354 -0.080671735 -0.06310266 -0.024709526
000070 6e 38 b2 bc ff cd 9a 3d 1e 5a 23 bd 8c 50 eb ba
       -0.021755423 0.07558822 -0.039880864 -0.0017953082
000080 f0 56 a9 3d 8f 38 a1 bd 0d 4e 32 bd 25 90 a5 3d
       0.08268535 -0.07872116 -0.043531466 0.08084134
000090 56 f2 70 3c 5c 58 fe bc a0 de 59 bd b0 bf be bc
       0.014706215 -0.031047992 -0.053190827 -0.023284763
0000a0 10 d4 86 3d 38 0a 6e 3d 03 ac 31 3d fe e5 93 bd
       0.065834165 0.058115214 0.043376934 -0.07221602
0000b0 dc be 23 3d fe 8a 7a bd 22 06 7e 3b 0d 02 96 bd
       0.03997694 -0.06116771 0.003876098 -0.0732461
0000c0 09 14 9b bd e2 e5 85 3d d1 0f 9f 3d 77 41 a6 3a
       -0.07572181 0.06537987 0.077666886 0.0012684305
0000d0 33 64 89 3d 35 39 20 bd 5c be 89 bd a4 71 97 3d
       0.067085646 -0.039117057 -0.06725761 0.07394722
0000e0 28 e7 b4 3d d7 95 a4 bc d1 41 1e 3c f9 f6 30 3d
       0.08833152 -0.02009098 0.009659247 0.04320428
0000f0 18 06 f5 bc 48 68 90 bd 94 13 ca 3c d0 f9 a7 3b
       -0.029910132 -0.0705114 0.024667539 0.0051262155
000100 c2 8a 59 3d b2 9a 41 bd aa ba 4c bd 2b 7f 24 3c
       0.053110845 -0.04726667 -0.049982704 0.010040085
000110 23 20 29 3d 2b 78 96 3d 5a 4a be 3c 84 ac b0 bd
       0.041290414 0.07347139 0.023228813 -0.08626655
000120 41 de 2c 3d dc cd ac 3d 2e 11 6e bc 49 7c 7a bd
       0.042204145 0.08437702 -0.014530463 -0.061153684
000130 83 4f 77 37 6f ef 69 bc 7b b2 87 bd 95 07 58 3d
       1.474086e-05 -0.014278277 -0.06625839 0.052741606
000140 01 81 0d bd 88 3a ba bc 97 4c c1 bc 3c 50 ce 3c
       -0.034546856 -0.022732988 -0.023596091 0.025184743
000150 cb e5 0a bc 74 cb 60 3d 1e 68 80 3d d2 6c 50 bd
       -0.0084776385 0.054881528 0.06269859 -0.05088503
000160 ec 0b 3f 3d 30 74 67 bb 80 97 ce bc 21 b8 60 3d
       0.04664223 -0.0035317056 -0.025218725 0.0548631
000170 cc c2 9f bd 40 e4 8d 3d 7c dd 8e 3d 87 c8 82 3d
       -0.078008264 0.06928301 0.069758385 0.06385904
000180 ee d5 03 3d e4 09 06 3d 84 62 85 3d 3a 24 40 bd
       0.03218644 0.032724276 0.06512931 -0.04690955
000190 f4 48 89 3c f8 9a 41 3d 61 c1 57 3d 8e 69 46 3c
       0.01675842 0.04726693 0.052674655 0.012110127
0001a0 26 13 a2 bd b5 fa 91 3d 57 6a 3c 3d 50 3b c1 bc
       -0.079138085 0.07127897 0.04599985 -0.023587853
0001b0 cb 13 9c bd 1d 99 67 3d ff e7 4c 3d d1 2d ee 3b
       -0.07620963 0.056542505 0.050025936 0.0072686453
0001c0 41 39 81 3d aa 29 5b bd 83 5a 91 3d c9 16 d2 3c
       0.063097484 -0.05350653 0.07097342 0.02564563
0001d0 bc ad 01 3d 86 ce 06 bd 7f 7a 5d bd 47 4e a1 bd
       0.031659827 -0.0329118 -0.0540719 -0.07876258
0001e0 be 07 81 3d 5b fc 21 bd 97 1d b9 3a 63 5a 0b 3d
       0.06300305 -0.039547306 0.0014123198 0.034021746
0001f0 16 ed 5e bd 6c 22 f1 3b 2a 6d 1b 3d 63 93 4a 3c
       -0.05442532 0.0073588397 0.037945904 0.012364241
000200 77 83 37 bd 97 48 8b 3c 43 c9 26 bd 5f 7e 9b 3d
       -0.04480311 0.017002387 -0.040719282 0.07592463
000210 3b 58 89 3d 67 b2 06 bd 42 0a b8 bb 8b fc 53 3d
       0.06706282 -0.03288498 -0.005616457 0.051754516
000220 a4 8c b1 bd 7f 65 1f 3c 1a 61 c0 bc 1a 72 2a 3c
       -0.08669403 0.009728788 -0.023483802 0.0104031805
000230 0d 0b 2e bd dc 44 4b bd 44 59 25 bc 59 d7 70 bd
       -0.042491008 -0.049626216 -0.010092083 -0.05879912
000240 4f 7f 66 bd 93 45 7a 3c bf 80 ea 3b a4 d1 95 bd
       -0.056273755 0.015275377 0.007156461 -0.073153764
000250 ad 3e 96 bd 99 2a 81 3d 86 88 51 bd 00 1b 3e 3d
       -0.07336173 0.06306953 -0.05115559 0.046412468
000260 47 9d 69 bd 41 8c 9f 3b 9f 74 5a 3d be 98 2b 3c
       -0.057034757 0.0048690145 0.053333875 0.010473428
000270 78 07 a8 bd cf 50 8f bc 84 fc 8c bd 07 fa b4 3d
       -0.082045496 -0.017494587 -0.06884101 0.088367514
000280 db 91 6d bc 8e 09 8d 3d 23 7e a3 3d d7 11 3e 3d
       -0.014500107 0.06886588 0.07983043 0.046403732
000290 37 91 a1 3d d4 83 83 3c 44 7e 67 bd 45 d4 45 bc
       0.07889026 0.016054071 -0.0565169 -0.012074535
0002a0 47 44 8b bd ab 17 7c 3d 9f 3d 97 bd 9d df bb bc
       -0.06800132 0.06154601 -0.073848 -0.022933776
0002b0 db f8 a2 3d 61 c1 6a 3d a3 0e c4 bc ad 54 74 bc
       0.07957622 0.057313327 -0.02393276 -0.014912766
0002c0 f9 8a da bc 38 54 a8 bd 88 18 30 3d d3 bc 9e bd
       -0.026677595 -0.082191885 0.042992145 -0.07750859
0002d0 25 09 03 39 13 23 7d bd 16 d7 7e 3c a7 44 6c 3d
       0.0001249654 -0.061801028 0.01555421 0.05768266
0002e0 f0 ec 91 3c 34 1d a6 bd 1d 13 a2 bd 0e 21 9b bd
       0.017813176 -0.08111039 -0.07913802 -0.07574664
0002f0 f7 cb 6c 3d 20 e0 9c 3d 2f b1 57 bd 0d 84 97 3d
       0.057811704 0.07659936 -0.05265921 0.073982336
000300 1a 22 92 bc 24 28 81 bd 2a a2 b6 bc 20 b4 f2 3c
       -0.017838527 -0.06306484 -0.022294123 0.029626906
000310 c2 bd f6 3c f9 d2 13 bd 7d 7a c9 3a ee 6d 9b 3d
       0.03011978 -0.03608987 0.0015371587 0.07589327
000320 9c ac 03 bd 7f 1e 94 3d 31 68 2a 3d ab 4c 80 bb
       -0.032147035 0.07232379 0.04160327 -0.0039153895
000330 72 c3 38 3d fe e0 91 bd c6 e9 44 3c 08 c1 f6 bc
       0.045108266 -0.07122992 0.012018627 -0.030121341
000340 b0 58 0d 3d a4 ed 05 bd c1 9c 7d 3d 9a d1 c4 b9
       0.034508407 -0.032697335 0.06191707 -0.00037540199
000350 32 a1 44 3d fa e5 e5 3c 91 5d 4d bd 71 70 95 bc
       0.04800529 0.028063763 -0.05013806 -0.018242093
000360 df a2 19 3d 2f d5 84 3d 74 52 68 bd 0b 20 2e 3d
       0.03750884 0.06485974 -0.05671926 0.042511027
000370 f6 75 92 bd a1 ba 6c bc 02 a7 42 3c 4d f1 9e 3d
       -0.071514055 -0.014448793 0.011880638 0.07760868
000380 50 59 6c bc 5e f0 94 3c 41 04 fa bc 4d 96 a9 bc
       -0.014425591 0.018181022 -0.030519607 -0.020701552
000390 fb 6e 81 bd 7c 67 88 3d c1 ba 0d 3c 92 f1 ef 3c
       -0.06319996 0.06660363 0.008650483 0.029289994
0003a0 f4 81 61 3d ec 35 64 bd b0 54 8d bc d4 df 3c bc
       0.055055574 -0.055715486 -0.017252296 -0.011527974
0003b0 8d c0 90 3b ef 5d df bc ac b2 e4 bc b7 ba 0a bd
       0.004417485 -0.02726647 -0.027917229 -0.03386947
0003c0 9e f7 83 3c 3e 77 79 bd 49 c6 e6 3c 7c 5c a5 3d
       0.016109284 -0.060904734 0.028170722 0.080742806
0003d0 66 94 dc bb 9d 6a 82 3d e9 6c cb 3c 5c 39 25 3c
       -0.0067315577 0.06367991 0.024832206 0.010084476
0003e0 a2 ff 89 bd ba 28 99 3d d0 09 97 bd 9a d2 9d bd
       -0.06738211 0.07478471 -0.073749185 -0.07706185
0003f0 4c b5 80 bd 95 28 a2 bd f0 73 36 ba bd 1e 74 bd
       -0.0628458 -0.07917897 -0.0006960025 -0.059599627

layer3.bias f4 [4]
000000 ab 88 ad 3c 7c 4e 40 3d 67 38 48 bc 99 a5 90 3d
       0.021183332 0.04694985 -0.012220479 0.07062835

layer1.weight f4 [128, 16]
000000 54 f7 85 3d 60 80 6f 3d 7c a4 cb bd e4 f2 81 bd
       0.06541315 0.058472037 -0.09943482 -0.06345156
000010 40 55 dc bd 14 25 ec 3d 10 b2 09 3d 08 6f 70 3e
       -0.10758448 0.115305096 0.03361708 0.23479855
000020 f2 ca 5b 3e 1c 7c 5f 3e c8 4b e1 bd 2a c0 03 be
       0.21464136 0.21824688 -0.11000782 -0.12866274
000030 dc 0d c1 3d c2 e5 02 be 0e 1f 3a be cc 8b b4 3d
       0.094264716 -0.12782958 -0.18175909 0.08815727
000040 f0 52 82 3d 28 fe 9b bd 00 cf a0 bd 48 a0 58 bd
       0.06363475 -0.07616836 -0.07851982 -0.05288723
000050 d8 27 9a 3d cc cf e8 3d 90 e9 79 be 50 89 25 bd
       0.07527131 0.11367759 -0.24405503 -0.040414155
000060 e0 fb c0 3c 14 26 0d be 7a 3d 19 3e 7c 5c 4e be
       0.023557603 -0.13784057 0.14964858 -0.20152467
000070 66 37 41 be 30 37 65 3d 24 46 41 3e e2 19 0f 3e
       -0.18868789 0.055960834 0.18874413 0.13974717
000080 38 61 c7 bd 02 9b 34 be 90 10 2c bd 3e cc 29 be
       -0.0973534 -0.17637256 -0.042007983 -0.16581818
000090 d4 80 68 be 2c 5d 40 be 9c c3 00 3e c0 12 2b be
       -0.22705394 -0.18785542 0.12574619 -0.16706371
0000a0 6a b0 48 be b4 b1 0f be 40 de c2 3b ba 7f 08 be
       -0.19598547 -0.14032632 0.0059469044 -0.13329974
0000b0 e2 88 5f 3e b0 bc 5a 3e 70 5e 26 3e de e2 65 be
       0.2182956 0.21361041 0.16246963 -0.22449824
0000c0 d0 c0 b0 bd d0 0c b0 bd d8 1a 43 3e 54 27 c1 bd
       -0.08630526 -0.08596194 0.19053209 -0.09431329
0000d0 b0 3b 1c 3e e6 8e 66 3e 58 67 4b be 3c 27 68 be
       0.15257144 0.22515449 -0.19863641 -0.22671217
0000e0 a0 92 f8 bc d8 d3 bb bd 36 3e 75 be a6 97 72 3e
       -0.030343354 -0.09171265 -0.23949513 0.23690662
0000f0 70 0a 5e be be 53 62 3e 78 94 68 bd 08 a7 a4 bd
       -0.21683669 0.22102258 -0.056782216 -0.08039671
000100 d4 a9 ac bd 44 6f 46 be 20 22 2e 3e 58 ea 39 be
       -0.0843083 -0.19378382 0.17005205 -0.18155801
000110 80 68 b6 bc 40 f5 bf 3d 74 67 d5 bd d0 65 34 3d
       -0.022266626 0.093729496 -0.10420123 0.04404241
000120 6c 65 52 be 6c 55 0e be 2a ff 1c be a0 8f 21 be
       -0.20546502 -0.13899773 -0.15331712 -0.15777445
000130 92 ad 7b be 28 63 27 be 18 e7 c0 bd 68 3f bd 3d
       -0.2457793 -0.16346419 -0.09419078 0.092406094
000140 f0 d8 8a 3c 84 65 e7 bd 48 d9 1e 3e c8 71 4f 3e
       0.016949147 -0.112986594 0.15512574 0.20258248
000150 e4 6e c8 bd 24 7e 1b be 84 89 5c be 98 44 86 bd
       -0.09786776 -0.15184838 -0.21536833 -0.06556052
000160 b8 46 ef bd d4 30 61 3e 00 65 c5 bb e0 01 1e be
       -0.116834104 0.21991283 -0.006024003 -0.15430403
000170 68 ef 32 be 8a 02 33 3e 90 36 cf 3d 90 9a 78 3e
       -0.17474139 0.17481437 0.10117829 0.24277711
000180 90 5c ed 3d 3c a6 71 be 9e 72 3b 3e 70 11 63 bd
       0.115899205 -0.2359857 0.18305442 -0.05543655
000190 12 45 5a 3e 48 0f 3f be 28 d6 ac bd 06 77 4e be
       0.2131541 -0.18658173 -0.084392846 -0.20162591
0001a0 7c a8 5a 3e 5e bd 64 3e 68 05 01 bd 0e 62 55 3e
       0.21353334 0.22337863 -0.031499296 0.20838186
0001b0 18 5e 0e 3e 88 90 96 bd 60 38 03 3e d4 29 63 be
       0.13903081 -0.07351786 0.12814474 -0.22183925
0001c0 f0 84 de bd 56 ad 45 3e 10 dd 9f bd 20 2a d2 3d
       -0.108651996 0.19304404 -0.07805836 0.10261941
0001d0 b0 e2 c3 3c 96 8a 6e 3e 5a f8 35 be b6 ab 51 3e
       0.023911804 0.23295054 -0.1777052 0.20475659
0001e0 e4 f4 53 3e b6 e2 2e 3e c8 f7 3b be 56 56 3e 3e
       0.20698887 0.17078671 -0.1835624 0.18587622
0001f0 24 5d 5f be 24 0d c0 3d 3c 19 ca 3d be 74 2e 3e
       -0.21812874 0.093775064 0.09868094 0.17036721
000200 c4 ce bc 3d da f0 6e 3e 6e 17 38 be 0c fb 60 be
       0.09219125 0.23334065 -0.17977688 -0.21970767
000210 48 b0 60 3d f2 63 68 be 7c 3d 4c 3e c0 61 cd 3b
       0.054855615 -0.22694376 0.1994533 0.006267756
000220 3c 4f ed 3d 70 ee 42 be 00 b0 25 b9 3e 07 42 3e
       0.115873784 -0.19036269 -0.00015801191 0.18948075
000230 80 cf 4d 3c 00 1b 5f 3c 00 d6 4b 3a 9e be 58 3e
       0.012561679 0.013617277 0.0007775724 0.21166465
000240 dc 23 ce bd c0 0e 0d 3c 86 35 29 be 90 8b 9f bd
       -0.100654334 0.008609474 -0.16524324 -0.07790291
000250 4e ab 2e 3e 20 65 2e bd 2a 8d 49 3e 50 6b 84 3d
       0.17057535 -0.04257691 0.19682756 0.06465781
000260 90 d4 d3 bc 8a 7e 75 be 10 5e 6b bd 68 65 e8 bd
       -0.025858194 -0.23974052 -0.057462752 -0.11347467
000270 48 b5 2c 3e ac 50 29 3e 88 38 2a 3d e0 ac 7e 3d
       0.16866028 0.1653468 0.04155782 0.062176585
000280 c2 61 7e 3e dc af ab 3d 18 10 12 be cc c4 8e bd
       0.24841979 0.08383152 -0.14263952 -0.0697113
000290 b8 bb 00 3e 4a 33 0b 3e 52 8f 7f be b0 d9 31 3e
       0.12571609 0.13593784 -0.24957016 0.17368197
0002a0 dc a9 3b 3e c8 9b 2e be 38 ef 21 3e 06 f1 16 be
       0.18326515 -0.17051613 0.15813911 -0.1474038
0002b0 5c c4 a5 bd d4 54 bd bd 00 8b 50 3d 36 37 46 3e
       -0.08094093 -0.09244695 0.05091381 0.19356999
0002c0 20 7b 2b 3e ac 00 fb bd c4 d6 df 3d 20 3d 10 3d
       0.16746187 -0.122559875 0.10929635 0.035214543
0002d0 40 a0 3a 3c 80 bd 2f 3c 7c d9 36 be 70 bd 96 bc
       0.011390746 0.010726333 -0.17856401 -0.018400878
0002e0 24 16 93 3d a2 76 5b 3e 7c 75 d2 3d a0 e8 17 be
       0.07181957 0.21431974 0.102763146 -0.14834833
0002f0 c4 eb 8b 3d 20 40 e7 3c 20 d5 da 3d 50 ad 6c bd
       0.06832078 0.02822882 0.106851816 -0.05778247
000300 86 54 60 be 50 2b ae bd 5c dd b9 3d 88 dc de bd
       -0.21907243 -0.08504355 0.09075424 -0.10881907
000310 30 45 d7 3d e0 34 13 bd 04 23 30 be c4 c8 11 be
       0.10511243 -0.035939097 -0.17200857 -0.14236742
000320 2a b0 63 be 80 70 2c 3d 10 06 68 3e 80 87 15 3c
       -0.2223517 0.042099476 0.22658563 0.009126544
000330 f2 a0 0c 3e 30 26 a6 3c 3c 64 71 be 6c ed f2 bd
       0.13733271 0.020281881 -0.23573393 -0.11861691
000340 08 8e 1d be ac 35 18 3e e8 90 df 3d 20 f5 92 3c
       -0.15386212 0.14864224 0.109163105 0.01793915
000350 a0 f9 48 3d b0 c0 b5 3c dc a1 16 be 92 0e 59 be
       0.049066186 0.022186607 -0.14710182 -0.21196964
000360 50 c6 23 be 76 a8 40 3e b8 6f 60 bd 6c 46 c6 bd
       -0.15993619 0.18814263 -0.054794043 -0.09681401
000370 a4 bd 7d be c0 66 2c 3e 36 c0 3a 3e f2 0c 35 3e
       -0.24779373 0.16836071 0.18237385 0.1768072
000380 48 8a 14 3e e0 5b d4 3c 24 92 58 3e 5e 4e 5e be
       0.14505875 0.025922716 0.21149498 -0.21709582
000390 ce 09 34 3e 66 7f 70 3e ac 8b 05 3e 54 9f ca bd
       0.17581865 0.23486099 0.13041562 -0.09893671
0003a0 94 24 8b bd a4 a8 d1 bd 50 df 51 be 70 11 26 3e
       -0.06794086 -0.10237244 -0.20495343 0.1621759
0003b0 f0 f5 25 be e2 c9 7c be 24 1f c9 3d 10 69 50 bd
       -0.16207099 -0.24686387 0.09820393 -0.050881445
0003c0 80 68 48 bb 00 1d aa bc 0a 32 32 be 08 c9 6a 3d
       -0.0030579865 -0.020765781 -0.17401901 0.057320625
0003d0 98 79 6b 3d 5a 43 61 be 78 b4 3c 3d 56 ae 1e be
       0.057489008 -0.21998349 0.046070546 -0.15496191
0003e0 1e 18 50 be a0 db 60 bd e0 51 19 bc 30 30 58 3e
       -0.203217 -0.05489695 -0.009357899 0.21112132
0003f0 78 e1 c1 3d 76 8a 21 3e 1c 12 03 3e c4 83 b0 bd
       0.09466833 0.15775475 0.12799877 -0.08618882

layer1.bias f4 [128]
000000 98 1e 21 be 40 c9 5c 3d 88 8e 43 be 00 5b 9d bb
       -0.15734327 0.053902864 -0.1909734 -0.004802108
000010 30 d5 bc bd 20 99 f8 bc be 2d 00 be 3e 11 04 be
       -0.0922035 -0.030346453 -0.1251745 -0.12897202
000020 94 7c 21 be 5a f5 6f be 64 8c 6a be 20 95 1f be
       -0.15770179 -0.23433438 -0.22905117 -0.1558423
000030 28 a9 ec 3d a0 54 57 3d 0a ce 03 3e a4 73 9c bd
       0.115557015 0.05257094 0.12871566 -0.07639244
000040 12 d1 5c 3e 50 d8 ef bd 5c 31 17 3e d0 4e 89 bd
       0.21564129 -0.1171118 0.14764923 -0.067044854
000050 bc b4 c7 bd e8 11 6e bd c0 0a dc bc 8e 56 49 3e
       -0.09751269 -0.058122545 -0.026860595 0.19661924
000060 80 fa 9d 3d 0c 7f 2a 3e 4a a1 2f be 58 f2 93 3d
       0.07713795 0.16650027 -0.1715137 0.07223958
000070 a0 c1 e0 bc 9c d0 81 3d 14 26 37 be 18 d0 2b 3e
       -0.027436078 0.06338617 -0.1788562 0.167786
000080 50 b1 91 bc 04 d1 1f 3e 08 74 85 3d c4 cd 9c bd
       -0.017784745 0.15607077 0.06516272 -0.07656434
000090 54 15 5c 3e 14 03 ed 3d 00 bf 08 3b d0 88 0e bd
       0.21492511 0.11572853 0.0020865798 -0.034798443
0000a0 72 8e 7f be 80 34 28 bd 0c 71 88 bd 00 87 a9 3a
       -0.24956682 -0.041065693 -0.06662187 0.001293391
0000b0 c0 d1 44 3c 20 7a 2c bd d4 23 8c 3d d8 3d 0a 3d
       0.012012899 -0.042108655 0.06842771 0.033750385
0000c0 e0 0a 01 bc 0a 19 03 3e 60 ce 22 bd a6 a7 1d be
       -0.007876128 0.1280252 -0.039747596 -0.15395984
0000d0 f4 50 cf 3d 80 b0 e6 3b c8 e0 d9 3d 80 ae 84 3c
       0.101228625 0.0070400834 0.10638577 0.01619649
0000e0 f0 ef b4 3d dc 1c 73 3e 20 dc 37 3e 06 40 66 3e
       0.08834827 0.23741478 0.17955065 0.2248536
0000f0 00 1d f5 3b 40 b4 c3 3d aa b4 0e be 4a 97 14 3e
       0.0074802637 0.09555864 -0.13936105 0.14510837
000100 88 2f 26 bd 72 62 7c 3e 28 8d c8 bd dc 64 e8 bd
       -0.040572673 0.24646929 -0.097925484 -0.113473624
000110 98 8e 6e 3e ea 99 33 3e b0 a8 71 3e 90 79 a4 bc
       0.23296583 0.17539182 0.23599505 -0.020077497
000120 58 92 84 bd 48 67 ee 3d e0 a2 ec 3c 90 2d df 3d
       -0.06473225 0.11640793 0.028886259 0.10897362
000130 f8 76 31 bd 94 2e 87 3d e4 0a 32 be 00 80 49 3d
       -0.043326348 0.06600681 -0.17386967 0.049194336
000140 08 5a 92 3d 54 9f a6 bd a8 43 8e bd fa 89 2e be
       0.07146078 -0.08135858 -0.06946498 -0.17044821
000150 cc 02 00 3e 76 82 7f be fc f5 2a be d0 71 5c bd
       0.12501067 -0.2495211 -0.16695398 -0.053819478
000160 00 40 5b 39 a0 46 3b bd 34 c8 c7 3d 8a d0 0c 3e
       0.0002090931 -0.04572165 0.097549826 0.13751426
000170 2a e3 6f 3e 60 f3 e2 3c 6c cd 15 3e 70 97 62 bd
       0.234265 0.02770394 0.14629143 -0.055320203
000180 28 97 b0 bd a6 cf 63 be bc bd f9 bd 46 bd 33 be
       -0.08622581 -0.2224718 -0.12194392 -0.17552671
000190 10 9c f3 3c fa c8 46 3e b0 a1 b4 bd 6a 34 72 be
       0.029737502 0.19412604 -0.08819902 -0.23652807
0001a0 04 bd 0c be 60 88 22 bc c2 b8 2b 3e 20 29 ca bd
       -0.13743979 -0.00992021 0.16769698 -0.09871125
0001b0 80 60 15 be ce 26 15 3e 5e a1 2f 3e 42 d4 4a 3e
       -0.14587593 0.14565584 0.171514 0.19807532
0001c0 80 92 ac 3d 00 a2 62 3c 00 38 81 bd d2 1e 3f 3e
       0.0842638 0.013832569 -0.06309509 0.18664101
0001d0 58 40 27 be 68 be f4 bd c8 e7 94 3d 8a 5f 74 be
       -0.16333139 -0.119503796 0.07270771 -0.2386457
0001e0 0c 79 63 3e 80 12 5b bc a8 d2 24 3e b8 1d 03 bd
       0.22214144 -0.01337111 0.16095984 -0.032010764
0001f0 10 30 47 bd dc 1b e3 bd 8c 97 62 3e ce f8 4f 3e
       -0.04862982 -0.11089298 0.22128123 0.20309755

layer2.weight f4 [128, 128]
000000 1b bb 1a 3c fd ad 96 3d 67 34 4c 3d f8 99 a3 bd
       0.0094440235 0.073574044 0.049854662 -0.079883516
000010 b4 b6 38 3c 1f c4 84 bd 7d 10 97 3d bd 00 1a bb
       0.011274029 -0.0648272 0.07376192 -0.0023498975
000020 59 8c 7d 3d dd 6c 91 bd 9a 7b bf 3c a4 b8 a7 bd
       0.061901424 -0.07100842 0.023374368 -0.08189514
000030 a1 f5 31 3d 8e 16 84 bd bc e7 30 3d a0 b4 82 3d
       0.04344714 -0.064496145 0.04318975 0.06382108
000040 b4 c9 a5 bd 54 58 9e bd ff a3 13 3d 8e f8 c9 3c
       -0.080951124 -0.07731691 0.03604507 0.024654653
000050 aa e8 8c bd ef 6d 8a 3d f3 0b 1d 3d a2 0c c7 bc
       -0.06880315 0.067592494 0.038341474 -0.024298016
000060 5c cf 0b 3d 8c 4f 8b bd 8e 3a 40 3d 6b 91 1e 3d
       0.0341333 -0.06802282 0.046930842 0.0387129
000070 d6 34 a5 bd fc 5b a5 bd 16 84 bf bc 35 fa 3b 3d
       -0.08066718 -0.08074185 -0.023378413 0.045892913
000080 d6 eb 75 ba 0e 28 4b 3c c6 d4 ab bd 1e 5b 4a bd
       -0.00093811506 0.0123996865 -0.08390193 -0.049403302
000090 5f 89 58 bd bd 29 af 3d 0b 67 85 bd 64 c9 0d 3d
       -0.052865382 0.08552883 -0.065137945 0.03461589
0000a0 b5 8d 86 bd c7 1a b6 3c 94 e1 89 3d 71 2c 8e 3c
       -0.06569997 0.022229565 0.06732479 0.017355176
0000b0 4c 1a aa 3d d6 f2 00 3c 85 a4 82 bd fe 7e a0 bd
       0.08305797 0.007870397 -0.06379036 -0.07836722
0000c0 64 b3 d1 3c d7 64 a1 3d 86 1b 2a bb 61 25 a2 bb
       0.025598235 0.07880562 -0.0025956347 -0.0049483036
0000d0 ea c6 90 bb fd 00 36 bc 81 4e 2e 3d 8f 35 16 bd
       -0.0044182437 -0.011108634 0.042555336 -0.03667217
0000e0 49 d0 5b bd 08 3e 1f bd 9d fd a7 bd 43 16 18 3d
       -0.053665433 -0.038877517 -0.0820267 0.037130605
0000f0 73 79 96 3d f0 1c 98 bd b0 02 d4 b9 f0 72 2f bd
       0.07347383 -0.074273944 -0.00040437793 -0.042834222
000100 f6 3d fc bb d6 44 9a bd b6 2a 5b 3d e5 7a 69 3c
       -0.007697816 -0.07532661 0.05350753 0.014250492
000110 2f a5 80 bd ad e0 e9 bb c7 23 61 3d 26 9d a2 3d
       -0.06281506 -0.007137379 0.05496576 0.0794013
000120 0e ad ab bd 92 d2 51 bc ff 9b a9 bd 9f 45 43 39
       -0.08382617 -0.0128065515 -0.08281707 0.00018622585
000130 58 78 c1 3c 11 22 2a 3b 82 e4 37 bd b1 ab ab 3d
       0.023616955 0.0025960247 -0.044895656 0.08382357
000140 d3 05 4c bc ec c8 06 bd 25 c8 cc 3c d7 ea 7a bd
       -0.0124525605 -0.032906458 0.02499778 -0.061259117
000150 2a 7c 0f bd ec 09 ce 3c 08 26 89 3d f4 d8 8a 3c
       -0.03503052 0.025151215 0.06696707 0.016949154
000160 d7 e6 26 bd 11 3f e3 bc 6b e6 35 bd 9a 83 b2 bc
       -0.04074749 -0.027740033 -0.044409197 -0.021791268
000170 d4 cf 62 bd 73 c5 69 3d 2a 9b f4 3b e9 71 a0 3c
       -0.05537398 0.057073068 0.007464786 0.019585567
000180 e0 12 8a 3c af 3a 30 bd 95 a6 85 3d d6 12 8d 3c
       0.016854703 -0.043024715 0.065259136 0.017220896
000190 6a 90 2d bd a2 d1 29 3b a1 91 97 3d 5d 0c 93 3d
       -0.042374052 0.0025912304 0.074008234 0.071800925
0001a0 77 e9 2f 3c 22 4a a7 3d 08 f8 06 bd be 8f 74 bd
       0.010736815 0.081684366 -0.032951385 -0.059707396
0001b0 d8 97 54 bc d5 94 98 3d 4a d1 9a bc e2 53 87 3d
       -0.0129756555 0.074502625 -0.018898625 0.06607796
0001c0 af 08 a1 bd d8 49 e8 bc 7f b6 53 bd 48 79 11 3d
       -0.078629844 -0.028355524 -0.051687714 0.035516053
0001d0 8c 0b b4 bd fa e3 52 3d f2 f2 c4 3c 79 86 7e 3d
       -0.08791265 0.051486947 0.024041627 0.062139962
0001e0 65 b8 75 bc 25 34 64 3c 99 5a a5 bd d5 1f 91 bd
       -0.014997576 0.013928448 -0.08073921 -0.070861496
0001f0 c7 01 88 3d 3c f4 a1 bb 62 5b 9e bd 75 ae 70 3a
       0.06640964 -0.004942445 -0.07732274 0.00091812696
000200 4b 3b ab 3d 90 e8 99 3d e9 93 80 bc 3d 81 fe bc
       0.083609186 0.07515061 -0.015695529 -0.031067485
000210 50 d9 b3 bc 09 ea 9d bd 68 73 ae bc bd 18 9f bd
       -0.021954209 -0.07710654 -0.021295264 -0.0776839
000220 fe 2b 7f 3d 32 83 4f bd e4 9c 4c 3d ab ec 89 3d
       0.062297814 -0.050662227 0.04995431 0.06734594
000230 0d 6b 7c bd b7 43 6a 3d 06 b7 10 3d 1d 25 74 bd
       -0.06162553 0.057193484 0.035330795 -0.059605706
000240 f0 4c a1 bd 7c e4 aa bd 99 02 ad bd 0e ef a7 bc
       -0.07876003 -0.08344361 -0.08447761 -0.020499732
000250 00 3e 96 bd ed d0 53 bc 34 b8 a8 bc bc 0c 94 3d
       -0.07336044 -0.01292823 -0.020595647 0.072289914
000260 c0 88 91 bb 1c 6b 10 3d 94 89 fc bc 05 e8 2a 3d
       -0.0044413507 0.035258397 -0.030827321 0.041725177
000270 18 a1 a0 bd 80 46 6c 3d 56 3b 73 bd 70 79 dc 3c
       -0.07843226 0.05768442 -0.05938276 0.026913375
000280 51 d6 be 3c 91 cb 44 3d 53 39 0c 3d dc 3c 38 3c
       0.023295553 0.0480457 0.034234356 0.011244979
000290 8d 0c 24 bd 9f aa 0d 3c 3f a9 da bc fd 89 28 3d
       -0.04005103 0.008646636 -0.026692031 0.04114722
0002a0 1d d4 71 bd ec 3b 5c bd a7 c8 50 bc b2 0a a4 bd
       -0.059040178 -0.053768083 -0.012743152 -0.080098525
0002b0 0f ba 3b bd bd cb 65 3d e7 51 c8 3c 94 94 09 bd
       -0.045831736 0.056102503 0.024453117 -0.03358896
0002c0 e4 a4 1d bd 7f 7b cb 3b 53 9e 61 3d b1 9d 05 3d
       -0.03848733 0.0062097902 0.05508263 0.03262109
0002d0 96 64 8a 3d 42 a0 05 3d 96 ef 68 bd 38 ce 72 3c
       0.067574665 0.032623537 -0.056869112 0.014819674
0002e0 d1 58 e6 3b 2f 45 9a bd 74 fb b0 bd 75 52 d8 3c
       0.0070296307 -0.07532727 -0.08641711 0.026406506
0002f0 26 83 02 3c 0e cd b4 3d f5 28 09 3d 64 81 7c 3d
       0.007965839 0.088281736 0.033486325 0.061646834
000300 4b 29 0e bd f3 83 2b bd 58 38 f9 bc 5e 79 11 3d
       -0.03470735 -0.041873883 -0.030422375 0.035516135
000310 22 cc 4a bc 81 05 02 bc f0 40 8a bd ad e8 84 3d
       -0.012377771 -0.007935883 -0.06750667 0.06489692
000320 c9 32 8a 3d bf 4e 34 bd 39 23 74 3c 33 7c 26 bd
       0.06747968 -0.04402041 0.014900976 -0.04064579
000330 e9 92 9a 3c be d6 3d 3a 16 74 98 bd d2 d0 82 3c
       0.01886888 0.0007241777 -0.07444017 0.015968714
000340 9d 45 83 bd 8a 42 c9 3b 21 9d af bd b9 27 fa 3c
       -0.06409762 0.0061419653 -0.08574892 0.03053652
000350 46 10 4e 3d be 13 8a bd 8c 81 ae bc 0d 54 5c bd
       0.05030849 -0.06742047 -0.021302007 -0.053791095
000360 19 91 16 bc 2b 5e 52 bd eb 3e 9a 3c cc 49 69 bc
       -0.009189867 -0.051359337 0.01882883 -0.014238786
000370 f2 fe 6e 3c c4 63 68 3c 94 b4 b4 bd f1 78 2c 3c
       0.014587151 0.014183942 -0.08823505 0.010526882
000380 b7 bb 8b 3d b4 45 88 bd b2 4f 45 3d 0f f6 4d 3d
       0.06822913 -0.0665392 0.048171706 0.050283488
000390 c4 5d 9c bd c3 8d 2f bc 1e ce 55 bd 6e 9b 8a bd
       -0.07635072 -0.010714951 -0.05219852 -0.06767927
0003a0 db 93 41 3d 39 63 3c bd 7c f8 56 bd 62 84 37 3d
       0.047260147 -0.045993064 -0.052483067 0.044803984
0003b0 a0 67 9f bd ec 2f 04 bc ec 2c 2d bd a9 32 ae bb
       -0.07783437 -0.008068066 -0.04227917 -0.0053160978
0003c0 7e 81 a1 3d 38 e3 a3 bd ef c9 89 bc 3f 57 4d 3d
       0.07886027 -0.08002323 -0.016819922 0.050132032
0003d0 f0 61 5a 3c 07 c4 1b 3d cf 59 90 bd 80 cb cd 3c
       0.013329014 0.038028743 -0.0704838 0.02512145
0003e0 e5 c3 71 bd e0 ec 8d 3d e9 06 45 bd 58 e2 5e 3c
       -0.05902471 0.06929946 -0.048102293 0.013603769
0003f0 b7 4d 11 3d cf 33 4c 3d c2 0b 39 bd b6 4a 67 3d
       0.035474505 0.049854096 -0.04517723 0.056467734

layer2.bias f4 [128]
000000 8d 41 a0 bd 02 66 c4 bc 81 0f 1b bd a7 57 8a 3d
       -0.07825003 -0.023974422 -0.037856583 0.067549996
000010 89 9d a1 3d 07 45 aa 3d 16 d0 14 bc c3 47 f6 bc
       0.078913756 0.08313947 -0.009082815 -0.030063516
000020 f5 8f a9 3c e8 8a 9a bd 77 e1 2d bd bd 59 88 3d
       0.020698527 -0.075460255 -0.04245135 0.06657741
000030 ef bb 87 3a ac ac 71 3d 62 67 4c 3d a4 3b 8d 3d
       0.0010355691 0.059002563 0.04990328 0.06896141
000040 7e 0d aa bc ee ce 3b bd f4 07 6e 3d c8 ac 9a 3d
       -0.020758387 -0.04585164 0.058113053 0.07552487
000050 32 79 b6 3c f8 94 e1 3c 85 8b 09 bd b6 87 c3 bc
       0.022274587 0.027536854 -0.03358032 -0.023868423
000060 3e 35 61 3b 5a 50 a2 bd a6 c0 a1 3d ba 02 20 bd
       0.003436401 -0.07925482 0.07898073 -0.0390651
000070 d8 2f 69 3d c7 b1 3c bc e2 cf 8e 3d 55 09 3c bd
       0.056930393 -0.011516995 0.06973244 -0.045907337
000080 74 fa de 3c ea 65 00 3d 96 75 af 3d 58 e7 96 3d
       0.027219035 0.031347193 0.085673496 0.07368344
000090 7e ec 18 3d 5b 75 b5 bc b7 99 a4 3d 37 51 27 bc
       0.03733491 -0.022150686 0.08037131 -0.010212234
0000a0 9f d0 65 bd 40 c1 89 bd 7e e7 ab bd eb 80 02 bd
       -0.05610716 -0.06726313 -0.08393763 -0.031861227
0000b0 0e ef fb 3c fe 1c a0 3d 97 03 1a bd 8d 59 83 3d
       0.030753639 0.0781803 -0.03760108 0.06413565
0000c0 e0 d2 19 3d 4a 42 9c 3c b5 e2 a5 bd 1d f4 51 bd
       0.03755462 0.019074578 -0.080998816 -0.051258195
0000d0 e4 e1 28 bd 59 e9 1b ba 66 a9 da 3c 85 d5 29 3d
       -0.04123105 -0.0005947552 0.026692104 0.041463394
0000e0 74 6f 80 3d d9 eb 3a 3d 1c 87 97 bd a5 72 ae bd
       0.06271258 0.045635078 -0.07398817 -0.085179605
0000f0 71 0c 80 3d cf 3c 0b bc 6b 33 fd bb d6 fc 4e bd
       0.06252373 -0.008498385 -0.0077270768 -0.050534092
000100 39 c9 93 bd 37 13 a9 bd 92 e9 7c 3d ae d7 91 bb
       -0.072161146 -0.08255618 0.061746188 -0.00445076
000110 5c 2c 6e bd 99 cd ab 3d a9 11 21 3d f6 35 0b 3c
       -0.058147773 0.08388824 0.039323483 0.008496752
000120 ff 26 32 bd 1c 1f 1c bd b3 c3 a9 bd ec d2 36 3d
       -0.04349422 -0.038115606 -0.0828928 0.044634745
000130 ab d5 65 3d 49 90 ed bc 89 b2 9a 3d e8 82 7e 3d
       0.056111973 -0.028999465 0.07553584 0.06213656
000140 2d ca ff bc 18 0d 61 bd ee 10 b3 3d 2f 98 a9 3d
       -0.031224335 -0.054944128 0.087434635 0.0828098
000150 12 64 3f bd 05 ce d9 3c 32 fb 0e 3d 0b 14 4a bd
       -0.046726294 0.026587496 0.034907527 -0.04933552
000160 69 be e3 bc 60 e6 3d 3d a6 a9 f2 3c fd 7a 18 bc
       -0.027800756 0.04636228 0.02962191 -0.009306666
000170 43 fc ce bc b0 8e 92 bd 51 99 80 3d b8 03 3c 3d
       -0.025266772 -0.07156122 0.06279243 0.045901984
000180 2f 4f 4a 3d cb b7 28 3d 49 6a 81 3d b9 33 36 3d
       0.04939192 0.041190904 0.063191004 0.04448292
000190 bc 3b bc bc 08 33 97 3d 02 bb 0b 3d 22 6a 54 bd
       -0.022977702 0.0738278 0.03411389 -0.05185903
0001a0 83 c1 14 bd 3a 05 a2 3d 8b 29 96 bd 76 d4 18 bd
       -0.03631736 0.07911153 -0.073321424 -0.037311994
0001b0 64 8e fd bc ef c0 5e bc d7 31 88 3d 3d dc c6 bc
       -0.030951686 -0.013595804 0.06650131 -0.02427494
0001c0 09 6b 6c 3b c3 fc e0 bb 77 49 8c 3d 70 95 36 3c
       0.003607454 -0.006866069 0.0684995 0.011144027
0001d0 71 f0 9b 3c 74 1e da ba d0 c4 cb bc 3b e2 f0 bc
       0.01903555 -0.0016641156 -0.024874121 -0.02940475
0001e0 8c 90 39 bd 0d a3 1c 3d 6c 85 61 3d 68 9f ca 3c
       -0.045303866 0.038241435 0.05505888 0.024734214
0001f0 82 0c 76 3d 33 25 1a bc 9d 54 bd bc 65 62 8f 3d
       0.060070522 -0.009408283 -0.023111636 0.07001189
