tamer_maze/static/tamer_maze/run/room248/trained_model.pth (torch, 146386 bytes, 12 tensors)

layer1.weight f4 [128, 4]
0	0xbee80b4c	-0.4532112
1	0xbc60a6c0	-0.013711631
2	0xbec16a5a	-0.37776452
3	0xbea416b4	-0.3204857
4	0xbe8f4dc6	-0.27989024
5	0x3e132498	0.14369428
6	0xbdf96b20	-0.121786356
7	0x3ec90130	0.39258718
8	0xbc609d40	-0.013709366
9	0x3d18fc50	0.03735
10	0xbe329704	-0.1744042
11	0xbebc3310	-0.36757708
12	0xbece50cc	-0.40296018
13	0x3ea9e4c2	0.3318234
14	0x3eb9323a	0.36171132
15	0xbe8cb672	-0.27482945
16	0xbefb1412	-0.4903875
17	0xbce0b5a0	-0.027430356
18	0xbe94852a	-0.29007846
19	0xbd8cf0c8	-0.06881863
20	0xbe277be4	-0.16355854
21	0x3ec5e3cc	0.38650358
22	0xbee18358	-0.4404552
23	0xbdfe3728	-0.12412864
24	0x3ee24cfa	0.44199353
25	0x3e7a4b98	0.24442899
26	0x3eba1ce0	0.36350155
27	0xbe9aac76	-0.30209702
28	0x3e9e78a0	0.30951405
29	0xbea10866	-0.3145172
30	0xbd930680	-0.07178974
31	0xbe50b088	-0.20379841
32	0xbcf9bda0	-0.030485928
33	0x3ec7fd84	0.39060605
34	0xbec84912	-0.39118248
35	0x3eee6750	0.46563196
36	0x3e802c64	0.25033867
37	0x3ec22792	0.37920815
38	0x3ef2a454	0.47390997
39	0xbe5736dc	-0.21017021
40	0xbeb51496	-0.35367268
41	0xbeb2d5f2	-0.34928852
42	0xbead44e2	-0.33841616
43	0x3e9b3420	0.30313206
44	0xbe838e1c	-0.25694358
45	0x3e93f394	0.28896773
46	0x3d1af790	0.03783375
47	0x3ea40a1c	0.32038963
48	0xbed9adb4	-0.42515337
49	0x3e4c0954	0.19925433
50	0xbe283e3c	-0.1642999
51	0xbeaaa84c	-0.33331525
52	0xbeaa7c2a	-0.33297855
53	0xbeef1de6	-0.46702498
54	0xbed3c446	-0.41360682
55	0x3ebea2b4	0.37233508
56	0xbe29bc40	-0.16575718
57	0x3e8b3134	0.27185977
58	0xbe1cebb4	-0.15324289
59	0x39a40000	0.00031280518
60	0xbdca96c0	-0.098920345
61	0x3de6afd0	0.11264002
62	0xbc330180	-0.010925651
63	0x3e82bab0	0.25533056
64	0x3eb4b060	0.35290813
65	0xbd8a1f20	-0.06744218
66	0x3c709fc0	0.014686525
67	0xbdd91ff0	-0.10601795
68	0x3e54a22c	0.20764989
69	0xbede5d18	-0.434304
70	0xbeddb73a	-0.43303853
71	0x3de707c0	0.11280775
72	0xbece8f04	-0.40343487
73	0x3cef1fc0	0.029189944
74	0x3e3b903c	0.1831674
75	0xbe59608c	-0.21228236
76	0xbdb40e38	-0.087917745
77	0xbe8def44	-0.27721608
78	0xbe8fd0f2	-0.280891
79	0x3efd5f52	0.49486786
80	0xbe95ea68	-0.292804
81	0xbee02090	-0.43774843
82	0xbe876fa0	-0.2645235
83	0x3dc67168	0.09689599
84	0xbdfe5ba8	-0.12419826
85	0x3d9d0958	0.07667798
86	0xbe6e23c0	-0.23255825
87	0x3c045b00	0.008078337
88	0x3ed255ea	0.41081172
89	0x3e345e18	0.17614019
90	0x3e23e5b0	0.16005588
91	0x3ee7c15a	0.45264703
92	0x3eb6b87a	0.3568762
93	0xbe3dca80	-0.18534279
94	0xbe0a838c	-0.13526744
95	0x3e10ce50	0.14141202
96	0x3e9a6004	0.3015138
97	0x3e4aa564	0.19789654
98	0xbee0c930	-0.43903494
99	0x3edc2eaa	0.43004352
100	0xbedcc858	-0.431216
101	0x3e24a3fc	0.1607818
102	0xbe025b78	-0.12730205
103	0xbd6943f0	-0.056949556
104	0xbe997784	-0.29973996
105	0x3ecff160	0.40613842
106	0xbeeeccb8	-0.46640563
107	0xbd1a8280	-0.03772211
108	0x3ee5cd9e	0.44883436
109	0xbe09bf4c	-0.1345188
110	0xbe8c20ba	-0.27368718
111	0x3ef50b40	0.47860146
112	0x3e50f39c	0.2040543
113	0xbee1f7e4	-0.44134438
114	0xbd94e708	-0.07270628
115	0xbed7a3de	-0.42117208
116	0x3d240eb0	0.04005307
117	0xbd959738	-0.07304233
118	0x3e08313c	0.13300031
119	0x3b0cc400	0.002147913
120	0xbe818ab4	-0.25301135
121	0x3e14b440	0.14521885
122	0x3e3b68a8	0.18301642
123	0x3ecf2afa	0.40462476
124	0x3dd87728	0.10569602
125	0xbd231c10	-0.039821684
126	0xbeff7f56	-0.49901837
127	0x3e591a5c	0.21201462
128	0x3e475060	0.19464254
129	0xbe5132c0	-0.20429516
130	0x3e194b90	0.14970231
131	0x3e0bf968	0.1366936
132	0x3ea933dc	0.33047378
133	0x3d5d4520	0.054021
134	0x3eb130a8	0.34607434
135	0xbe813bb8	-0.25240874
136	0x3cc04360	0.023469627
137	0xbef3a422	-0.4758616
138	0xbe9f061c	-0.3105935
139	0x3eefbfc2	0.46825987
140	0xbeca21f8	-0.3947904
141	0x3ead94e4	0.33902657
142	0xbe4ff09c	-0.20306629
143	0xbea1d56a	-0.31608135
144	0xbeaac2c2	-0.33351713
145	0x3eab9242	0.33510023
146	0x3e9c945e	0.30581945
147	0x3dee5d70	0.116389155
148	0x3e89f3c2	0.26943785
149	0xbec4e76a	-0.38457805
150	0xbe9f856c	-0.3115648
151	0x3ee8961a	0.45427018
152	0x3c16a8c0	0.009195507
153	0xbea8543c	-0.32876766
154	0xbe28e4d4	-0.16493541
155	0xbedc6912	-0.43048912
156	0xbef84a62	-0.4849425
157	0x3e4cfbb8	0.20017898
158	0xbe6eb6b4	-0.23311883
159	0xbeb32a16	-0.34993047
160	0x3ef2a0ea	0.47388393
161	0x3eb863f8	0.3601377
162	0xbd6154f0	-0.055012643
163	0xbea88830	-0.32916403
164	0x3e801e86	0.25023288
165	0xbefa4408	-0.4888003
166	0x3e85ac94	0.2610823
167	0xbe993750	-0.29925013
168	0x3ec2c8f8	0.38043952
169	0xbea78ae0	-0.3272314
170	0xbee049a4	-0.43806183
171	0x3eb0ec6a	0.3455537
172	0xbef205c6	-0.4727003
173	0xbe80070a	-0.2500537
174	0x3ede5020	0.43420506
175	0xbeb631b0	-0.35584784
176	0xbe264f20	-0.16241121
177	0x3df0e808	0.117630064
178	0xbec7681a	-0.3894661
179	0xbeb9b008	-0.36267114
180	0x3efc7f56	0.493159
181	0xbe97ffe6	-0.29687423
182	0xbefb3904	-0.49066937
183	0x3e12b134	0.1432541
184	0x3dd68ef8	0.10476488
185	0x3cb6c120	0.022308886
186	0xbcf05760	-0.029338539
187	0x3e21d75c	0.1580481
188	0xbed43532	-0.41446835
189	0x3e5d9324	0.21638161
190	0x3e10b35c	0.1413092
191	0x3dec7790	0.11546242
192	0xbef38290	-0.4756055
193	0xbee9691e	-0.4558801
194	0xbed47eb8	-0.4150293
195	0x3dfc61d8	0.1232335
196	0x3ddc6050	0.10760558
197	0xbdadb340	-0.08481455
198	0xbee88828	-0.4541638
199	0x3df68ae8	0.12038213
200	0x3ea043d0	0.31301737
201	0xbde30400	-0.11084747
202	0xbeeef38e	-0.46670192
203	0x3dfdd928	0.12394935
204	0x3e71a824	0.23599297
205	0xbdd4f568	-0.1039837
206	0x3e204600	0.15651703
207	0x3ec34640	0.38139534
208	0x3e8df63a	0.27726918
209	0x3e585720	0.21126986
210	0xbe71e5f8	-0.23622882
211	0x3e3cbdf4	0.18431836
212	0x3e272538	0.16322792
213	0x3e8e5a8e	0.27803463
214	0x3e99b67e	0.30022043
215	0x3dc2c088	0.09509379
216	0xbef21d20	-0.47287846
217	0xbec0d2cc	-0.37660825
218	0x3def8d30	0.11696851
219	0xbef84b58	-0.48494983
220	0x3ec1c2bc	0.37843883
221	0x3d516490	0.051121294
222	0x3d351e00	0.044218063
223	0xbe8aadce	-0.27085727
224	0xbe48f3a4	-0.19624192
225	0xbef7679e	-0.4832124
226	0x3e0c4b50	0.13700604
227	0xbe811a3e	-0.25215334
228	0xbe483748	-0.19552338
229	0xbdf39e68	-0.11895448
230	0x3da10650	0.07862532
231	0xbee28722	-0.44243723
232	0xbe5cdbf4	-0.2156828
233	0xbe0e4f44	-0.13897425
234	0xbeb374dc	-0.35050094
235	0xbeb32726	-0.34990805
236	0xbed6c75a	-0.41948968
237	0x3dc27f00	0.094968796
238	0xbeed309a	-0.46326143
239	0x3e269098	0.16266096
240	0xbd5ad9a0	-0.0534302
241	0x3eb2844e	0.34866565
242	0xbe10e914	-0.14151412
243	0xbd0d2c10	-0.03446585
244	0x3efc98f8	0.49335456
245	0xbd35ae90	-0.04435593
246	0xbde42788	-0.111403525
247	0xbe8e25bc	-0.27763164
248	0x3e8e5712	0.27800804
249	0x3ef6a63c	0.48173702
250	0xbec0a09c	-0.37622535
251	0x3e620dd8	0.22075593
252	0xbe9451fa	-0.28968793
253	0xbeb15d4e	-0.34641498
254	0xbdd751d0	-0.10513651
255	0xbe53958c	-0.20662516

layer1.bias f4 [128]
0	0x3e806128	0.25074124
1	0xbe6432b4	-0.22284967
2	0x3e93cb5c	0.28866088
3	0xbd8987e8	-0.06715375
4	0xbe8e4154	-0.27784216
5	0xbea49ac2	-0.3214932
6	0xbe0d0fb0	-0.13775516
7	0xbd49bb90	-0.04925114
8	0xbed4bbb0	-0.41549444
9	0x3dc40b20	0.095724344
10	0x3e002f94	0.1251815
11	0x3ec12c46	0.3772909
12	0xbe9f6364	-0.31130517
13	0x3efd65b8	0.49491668
14	0xbd8ad750	-0.06779349
15	0xbe04d0fc	-0.12970346
16	0xbee5c068	-0.44873357
17	0x3e05a3d0	0.13050771
18	0xbe307cf0	-0.1723516
19	0x3ed81d1e	0.42209715
20	0x3ea72d5a	0.32651788
21	0xbc806de0	-0.015677392
22	0xbed6eb2e	-0.41976303
23	0x3d375690	0.044760287
24	0xbedad608	-0.42741418
25	0x3ef0cb96	0.47030324
26	0x3ef3fcb4	0.47653735
27	0x3eb5628c	0.35426748
28	0x3e577194	0.2103942
29	0xbe473170	-0.19452453
30	0x3ec998da	0.3937443
31	0x3ed6d2da	0.41957742
32	0xbe793e14	-0.24340087
33	0x3e2816c4	0.16414934
34	0xbe15e83c	-0.14639372
35	0x3e8e9e04	0.2785493
36	0x3e2e034c	0.16993445
37	0xbda65900	-0.08122444
38	0x3dcaad10	0.0989629
39	0xbe3091ec	-0.17243165
40	0x3e66e798	0.22549284
41	0xbe392814	-0.18081695
42	0x3df72aa0	0.12068677
43	0xbe8c3644	-0.2738515
44	0x3dce9bf8	0.100883424
45	0xbeec5616	-0.46159428
46	0x3e9d4b86	0.30721682
47	0xbdaee6f8	-0.085401475
48	0x3ec4a3e0	0.38406277
49	0x3df69668	0.120404065
50	0xbe52eedc	-0.2059893
51	0x3ee3923c	0.44447505
52	0xbe36c780	-0.1784954
53	0xbe27cd58	-0.16386926
54	0x3e8daf3c	0.27672756
55	0x3ec539be	0.38520616
56	0xbdf254d0	-0.11832583
57	0x3ecea9b0	0.40363836
58	0xbee3f8a2	-0.4452563
59	0xbe40003c	-0.1875009
60	0x3ea379c8	0.3192885
61	0x3e0924cc	0.13392943
62	0x3e979970	0.2960925
63	0xbe7b1960	-0.24521399
64	0x3ece26b6	0.4026391
65	0xbeec00ca	-0.46094352
66	0xbee4e99e	-0.44709486
67	0xbe02255c	-0.12709564
68	0xbd2e1720	-0.042502522
69	0x3df6ae30	0.120449424
70	0x3e6371c8	0.22211373
71	0xbe9adc4e	-0.30246204
72	0xbdecd130	-0.11563337
73	0xbe3bd4ac	-0.18342847
74	0xba8d2e00	-0.0010771155
75	0x3e9b88b0	0.30377722
76	0x3eff117c	0.49818027
77	0xbdefbea0	-0.11706281
78	0xbeac531a	-0.3365715
79	0xbe942b64	-0.28939354
80	0x3e1e076c	0.15432519
81	0xbe339b4c	-0.1753971
82	0x3e118b80	0.14213371
83	0xbd12db00	-0.035853386
84	0x3db2ab58	0.087240875
85	0x3ea7959c	0.3273133
86	0xbe1679d4	-0.14694911
87	0xbd5e5a70	-0.054285467
88	0xbe397a90	-0.1811316
89	0x3eaaffe8	0.33398366
90	0x3d49f830	0.049308956
91	0x3ec130a6	0.37732428
92	0xbe1d46bc	-0.15359014
93	0xbea88c58	-0.32919574
94	0xbd69aa60	-0.057047248
95	0xbed0dda2	-0.40794092
96	0x3ebe0ed8	0.371207
97	0xbee22dd4	-0.4417559
98	0xbeab2ac2	-0.3343106
99	0x3e248480	0.1606617
100	0xbe8fd9fc	-0.28095996
101	0xbd814168	-0.063113034
102	0xbecd38ee	-0.40082496
103	0xbe3bf488	-0.18355
104	0xbeef8e60	-0.4678831
105	0x3e37abf0	0.17936683
106	0x3e07fca8	0.13279974
107	0x3e9896d8	0.29802585
108	0x3ef48578	0.4775808
109	0x3edf477c	0.43609226
110	0xbe84e946	-0.25959224
111	0xbdf89b48	-0.121389925
112	0xbe834184	-0.25635922
113	0xbd70e850	-0.0588153
114	0x3ef8191a	0.4845665
115	0x3ddd7be0	0.10814643
116	0xbe1b46d0	-0.15163732
117	0xbe379a28	-0.179299
118	0xbecaf8a0	-0.3964281
119	0xbec5d074	-0.386356
120	0xbe54755c	-0.20747894
121	0x3e0fcd3c	0.14043134
122	0xbe0713bc	-0.13191122
123	0x3eecb3de	0.46230978
124	0xbc656d80	-0.014003158
125	0x3e73a4d0	0.2379334
126	0x3ee49340	0.44643593
127	0xbeac62bc	-0.33669078

layer2.weight f4 [128, 128]
0	0x3d484a7d	0.048899163
1	0xbb16a924	-0.0022989
2	0x3da19dd1	0.07891429
3	0xbd17ceaa	-0.037062325
4	0xbd37f709	-0.044913325
5	0xbd92fd58	-0.07177228
6	0xbdb0f7a1	-0.086409815
7	0x3bfcd3f5	0.007715697
8	0xbdb0622e	-0.08612476
9	0x3c9d8346	0.019227635
10	0x3bd33def	0.006446592
11	0x3d860d4b	0.06545504
12	0x3db474d5	0.088113464
13	0x3d6b2b89	0.057414565
14	0xbd6a065c	-0.05713497
15	0xbd89119e	-0.06692813
16	0x3d63efca	0.055648603
17	0x3b5b55ef	0.0033467968
18	0x3d998970	0.07496917
19	0xbd83562a	-0.06412919
20	0x3d4709e2	0.04859341
21	0x3d0d1e19	0.03445253
22	0x3b144770	0.0022625588
23	0x3d24166b	0.040060442
24	0xbc9520f0	-0.018204182
25	0x3d48c68d	0.049017478
26	0x3c87fbd7	0.016599579
27	0xbd3c29a6	-0.045938157
28	0xbd00dd9a	-0.031461336
29	0x3d92dd15	0.07171074
30	0xbd8291b3	-0.06375446
31	0x3dae5351	0.08511985
32	0x3c89eed6	0.016837519
33	0xbd6d7398	-0.057971567
34	0xbca6c78c	-0.020358823
35	0xbb999fb0	-0.0046882257
36	0x3d3dcda9	0.04633871
37	0xbda66274	-0.08124247
38	0xbd8f7cb6	-0.070062086
39	0xbd3bb913	-0.045830797
40	0xbc365572	-0.01112877
41	0xbd78eb26	-0.06077113
42	0x3cf5c4a3	0.03000099
43	0xbd083c2d	-0.033260513
44	0xbd91cdec	-0.071193546
45	0xbd442cd5	-0.047894318
46	0x39ea6abd	0.00044711484
47	0x3db33b9e	0.087516055
48	0x3b904704	0.004402997
49	0xbcc6b231	-0.02425489
50	0xbd22746b	-0.039661806
51	0xbd82debb	-0.06390139
52	0x3cd5a28e	0.026078489
53	0x3d48ab81	0.048991684
54	0x3d1669b8	0.036721915
55	0xbcdf229b	-0.02723818
56	0x3bdad7e4	0.006678568
57	0xbc832508	-0.016008869
58	0x3c77b8c8	0.015119739
59	0xbd6032c3	-0.05473591
60	0x3d7c1058	0.061539024
61	0x3da6e8d7	0.081498794
62	0xbc50f358	-0.01275333
63	0xbd17ae02	-0.03703118
64	0xbd8f9163	-0.07010152
65	0xbbd73858	-0.006567996
66	0xbd1881da	-0.03723321
67	0x3c0f5080	0.00874722
68	0x3d384978	0.04499194
69	0x3d817d42	0.06322719
70	0x3daeccea	0.08535178
71	0xbd26c75c	-0.040717468
72	0xbc73496f	-0.014849051
73	0xbd641c50	-0.055691063
74	0x3cbe9110	0.02326253
75	0x3d62cd33	0.055371474
76	0x3a82cb46	0.0009978793
77	0x3cb1bba0	0.021695912
78	0x3d61d1d8	0.055131763
79	0xbc2eb5be	-0.010663448
80	0x3cd4e9e4	0.025990434
81	0x3d9f13bd	0.07767437
82	0xbd81a218	-0.06329745
83	0xbce2a36a	-0.027665813
84	0x3d85cea8	0.06533557
85	0xbcf9cd25	-0.030493328
86	0x3d08240e	0.03323751
87	0x3d2d1799	0.042258833
88	0xbd0d026e	-0.034426145
89	0xbd688b96	-0.056773745
90	0xbda162ae	-0.0788015
91	0xbd66e905	-0.05637457
92	0x3bb4dbf0	0.0055193827
93	0xbc6299a0	-0.013830572
94	0xbd234312	-0.039858885
95	0x3b8024ce	0.0039106375
96	0x3cbfbc64	0.023405261
97	0xbd1aa8fc	-0.037758812
98	0xbd8f968e	-0.07011138
99	0x3cb8a129	0.022537785
100	0xbdad1a25	-0.08452252
101	0xbc61492d	-0.013750357
102	0xbd90124f	-0.07034742
103	0xbd3c867b	-0.046026688
104	0x3d6bb544	0.057545915
105	0x3d140265	0.036135096
106	0xbd90e268	-0.070744336
107	0x3c85c52e	0.016329374
108	0x3d7a1c38	0.061062068
109	0x3c703d68	0.014663078
110	0xbcc0f8ef	-0.0235562
111	0x3d353073	0.044235658
112	0x3d0ad4c1	0.033894304
113	0xbd70214d	-0.058625508
114	0x3d8258a4	0.06364563
115	0xbdab32c7	-0.083592944
116	0xbb3c4b1d	-0.0028731294
117	0x3da1bf39	0.07897801
118	0xbd6c704e	-0.05772429
119	0x3d82df88	0.063902915
120	0x3cac5700	0.021037579
121	0xbbe0185e	-0.0068388423
122	0xbd07e2ef	-0.033175405
123	0xbc8a3eb2	-0.016875599
124	0xbb84b0b4	-0.004049385
125	0x3d251398	0.04030189
126	0xbc6ebdef	-0.014571651
127	0xbd6173bf	-0.055042025
128	0xbd852bcd	-0.06502495
129	0xbd8c05e9	-0.06837065
130	0x3d2f3f0d	0.04278474
131	0xbd5c0700	-0.053717613
132	0xbd724fac	-0.059158012
133	0x3caa9c16	0.02082638
134	0x3b5a4c98	0.0033309814
135	0xbdaadf4e	-0.08343373
136	0xbc81d709	-0.015849607
137	0x3d8c20e8	0.06842214
138	0x3c52111b	0.012821461
139	0xbb1243f4	-0.0022318335
140	0x3dacedbf	0.08443784
141	0xbc12d2a8	-0.008961357
142	0x3c354d35	0.011065771
143	0xbdb143b3	-0.08655491
144	0xbd9e5aca	-0.077321604
145	0xbce59920	-0.028027117
146	0xbd686d41	-0.056744818
147	0xbcbe4162	-0.023224536
148	0x3b6568c1	0.0035005065
149	0x3d39a338	0.045321673
150	0xbc848006	-0.016174328
151	0xbd956661	-0.07294918
152	0x3d0c2f56	0.03422483
153	0x3d5c608c	0.05380301
154	0x3d5ee7c0	0.054420233
155	0x3d903c75	0.07042781
156	0xbbbb9481	-0.00572449
157	0x3c5d4ead	0.013507527
158	0x3d457280	0.0482049
159	0xbc09871c	-0.008394029
160	0xbd8a7c21	-0.06761957
161	0xbd0fccee	-0.035107546
162	0xbc39efe9	-0.011348703
163	0xbda5d323	-0.08096912
164	0xbd3fc5ba	-0.046819426
165	0x3d7d8946	0.061898492
166	0xbd5d47fe	-0.054023735
167	0xbd5d7ae4	-0.054072276
168	0x3d95cd16	0.07314508
169	0x3d91e2bc	0.07123324
170	0x3dafdd4b	0.0858713
171	0xbd91d6f2	-0.07121076
172	0x3cbddf1e	0.02317768
173	0x3da579b0	0.08079851
174	0xbda0bb10	-0.07848179
175	0x3d7aced5	0.061232407
176	0xbdac71b5	-0.084201254
177	0xbda7f747	-0.08201461
178	0xbc54da17	-0.01299145
179	0xbc574c96	-0.013140818
180	0x3c9d0de4	0.019171663
181	0xbb693c18	-0.0035588797
182	0xbca98f24	-0.020698138
183	0xbd2c6e61	-0.042097453
184	0x3d585941	0.052819494
185	0x3bad4146	0.005287322
186	0x3d4bf51b	0.049794298
187	0xbc5b3c7a	-0.013381118
188	0xbd903c86	-0.07042794
189	0xbd7185c8	-0.058965474
190	0xbd505297	-0.050860014
191	0x3bc1c3ce	0.0059132343
192	0xbd0334b8	-0.0320327
193	0xbd9140a0	-0.07092404
194	0x3cc53fe9	0.024078326
195	0xbd8b53aa	-0.06803067
196	0xbd92d61b	-0.071697436
197	0xbca601c8	-0.020264521
198	0x3cee6646	0.029101502
199	0x3d057654	0.03258355
200	0xbc9683af	-0.018373339
201	0x3d689510	0.056782782
202	0x3d3b8348	0.045779496
203	0xbd94c12a	-0.072634056
204	0x3d31281b	0.04325114
205	0x3c9e2933	0.019306755
206	0x3d28ee82	0.041243084
207	0xbd1d8277	-0.0384545
208	0xbceb091b	-0.028690865
209	0xbd220211	-0.039552752
210	0xbd9839e8	-0.0743292
211	0x3ce3c5b4	0.027804233
212	0x3d08829c	0.033327684
213	0x3d770efd	0.06031703
214	0xbd518c4a	-0.05115918
215	0xba779091	-0.00094438443
216	0x3d5c0d1f	0.05372345
217	0x3d93609c	0.07196161
218	0xbdb121bb	-0.08649012
219	0xbd6814ef	-0.05666059
220	0x3cc6edf1	0.024283381
221	0xbd1b2d8e	-0.03788524
222	0x3b329493	0.0027249202
223	0xbdabb578	-0.08384222
224	0x3daeee82	0.085415855
225	0x3d655371	0.05598778
226	0xb81f24aa	-3.79427e-05
227	0xbd2ad7ea	-0.041709818
228	0xbd5e94c0	-0.054341078
229	0x3ce98931	0.0285078
230	0xbd1c0372	-0.038089223
231	0x3d9485e9	0.07252104
232	0x3d5bcd37	0.053662505
233	0x3ca6e72b	0.020373901
234	0x3d9110d1	0.070832856
235	0xbcafa261	-0.021439733
236	0x3cd885bf	0.026430963
237	0xbd1b5e23	-0.037931573
238	0x3b7e467b	0.0038799334
239	0x3ced06e3	0.028933948
240	0xbcb2f1ab	-0.021843752
241	0x3d6bb007	0.05754092
242	0x3d056737	0.032569136
243	0xbbaa586c	-0.005198529
244	0x3d2e1047	0.042495992
245	0xbd77e097	-0.06051692
246	0x3d4d3e3b	0.050108176
247	0x3bd678cf	0.006545163
248	0xbda2d0e9	-0.07950003
249	0xbd700bfd	-0.058605183
250	0xbcb48989	-0.022038238
251	0x3c9ea6ab	0.019366583
252	0x3d29b9fd	0.041437138
253	0x3d77af3c	0.06046985
254	0xbc250e94	-0.0100742765
255	0x3da6472e	0.08119045

layer2.bias f4 [128]
0	0x3c2480ac	0.010040443
1	0xbd919fbf	-0.07110547
2	0xbda5a1b5	-0.08087484
3	0xbd043fa7	-0.032287266
4	0xbdaa01cc	-0.08301124
5	0x3d0f8c2c	0.035045788
6	0xbda22a21	-0.07918192
7	0x3d9c38bc	0.07628009
8	0x3dabbe11	0.08385862
9	0xbda40914	-0.08009544
10	0xbd84f220	-0.06491494
11	0xbc31105f	-0.010807126
12	0xbd9f2593	-0.077708386
13	0xbd29c0d1	-0.04144365
14	0xbc5284ce	-0.012849046
15	0xbda976be	-0.082746014
16	0xbd0cdcee	-0.034390382
17	0xbd53491e	-0.0515834
18	0x3d8bc801	0.06825257
19	0x3cac63e7	0.02104373
20	0x3ad487fa	0.001621484
21	0xbd29a565	-0.0414175
22	0x3da7a409	0.08185584
23	0x3d8aceb9	0.067777105
24	0x3daec4ed	0.08533654
25	0x3d4a23ee	0.04935067
26	0xbdaf8a15	-0.08571259
27	0x3cc06d0f	0.023489503
28	0xbd61f72e	-0.05516737
29	0xbc3ef9d9	-0.011656248
30	0x3d8286f7	0.06373399
31	0x3d969443	0.073524974
32	0xbcebd29c	-0.02878695
33	0x3d17f208	0.037096053
34	0xbd936c5e	-0.07198404
35	0xbcc5b856	-0.02413575
36	0x3d176c72	0.036968656
37	0xbd881ac2	-0.06645729
38	0x3d83d8c2	0.06437828
39	0x3d954a1b	0.07289525
40	0xbd62a7a0	-0.05533564
41	0xbd6e024f	-0.05810767
42	0x3d9a3b65	0.0753086
43	0x3dab25f1	0.08356846
44	0xbd9268d4	-0.07148901
45	0xbd5418c0	-0.051781416
46	0x3b5a80be	0.0033340896
47	0x3c91f8ac	0.017818771
48	0x3cf05206	0.029335987
49	0x3cdb1b5b	0.026746443
50	0x3da5fd47	0.081049494
51	0xbd9c58e4	-0.07634142
52	0xbd3271ce	-0.043565564
53	0xbd90c1b4	-0.07068196
54	0x3d7c6c77	0.061626878
55	0xbcfab793	-0.030605113
56	0x3cdf0318	0.027223155
57	0x3d1b231e	0.037875287
58	0x3d5478ee	0.05187314
59	0xbdab9ecf	-0.083799
60	0x3c2ec37c	0.010666724
61	0xbd49bde3	-0.049253356
62	0xbdae8504	-0.085214645
63	0xbdabccd2	-0.08388676
64	0x3ca4e389	0.020128028
65	0x3d83e1d7	0.0643956
66	0x3cbb2cce	0.022848513
67	0xbda6ce82	-0.08144857
68	0x3d125d7d	0.03573369
69	0x3d47e738	0.04880449
70	0xbcb88b87	-0.02252747
71	0xbcaec76b	-0.021335324
72	0x3d703544	0.058644548
73	0x3d9a0cfc	0.07522008
74	0xbc31f6ef	-0.010862096
75	0x3da5e334	0.08099976
76	0xbbdb22c2	-0.006687493
77	0xbda167d7	-0.07881134
78	0x3c2aeac0	0.010431945
79	0xbd54590b	-0.05184273
80	0x3d97e8ef	0.074174754
81	0x3c80f4c3	0.015741711
82	0xbd2eb9e8	-0.042657763
83	0xbd316824	-0.043312207
84	0x3d667f63	0.05627383
85	0x3c5bb2a7	0.013409293
86	0xbc79f44d	-0.015256
87	0xbdaf1274	-0.085484415
88	0xbd310e5a	-0.043226577
89	0xbd9e2fa2	-0.07723929
90	0xbc63f59c	-0.013913538
91	0xbd76cd48	-0.060254365
92	0x3c83581f	0.01603323
93	0xbcab956e	-0.020945277
94	0xbd0cd7f9	-0.034385655
95	0x3d4d62fd	0.05014323
96	0xbd6d59f0	-0.0579471
97	0x3d6ada1e	0.05733692
98	0x3ccd1f84	0.025039442
99	0xbd5becb4	-0.053692535
100	0x3d8510bc	0.064973325
101	0xbcc244d4	-0.02371446
102	0x3dae0b92	0.084983006
103	0x3c6c8f25	0.014438425
104	0x3c263ef2	0.010146843
105	0x3c3de06b	0.01158915
106	0xbda8c8d0	-0.08241427
107	0x3d1a9078	0.037735432
108	0xbda1f80a	-0.07908638
109	0x3d2e22fe	0.04251384
110	0xbc364e10	-0.01112701
111	0x3daf1699	0.08549232
112	0xbd622508	-0.055211097
113	0x3d87c19a	0.066287234
114	0x3d8c75f4	0.06858435
115	0xbc60b0a9	-0.013713994
116	0x3cdc6516	0.02690367
117	0xbd72f870	-0.05931896
118	0xbd86bf97	-0.065795116
119	0x3d1644eb	0.03668682
120	0xbd449c23	-0.048000466
121	0xbd5ad4e6	-0.053425692
122	0x3c342a25	0.010996376
123	0x3d5f4727	0.054511216
124	0xbc21fbe1	-0.009886713
125	0xbcb4f2c3	-0.022088414
126	0xbd9d3c83	-0.07677557
127	0x3d377446	0.04478862

layer3.weight f4 [4, 128]
0	0x3d917cd9	0.07103891
1	0xbd0df87b	-0.034660798
2	0x3d17ac9a	0.03702984
3	0x3d4f388e	0.050591044
4	0xbd24369d	-0.040091146
5	0xbd2e20df	-0.042511817
6	0x3db1c634	0.08680382
7	0xbc7f7f55	-0.015594323
8	0x3d38fb7b	0.045161705
9	0x3da277a6	0.079329774
10	0x3d59b12c	0.05314748
11	0x3d3042b7	0.043032374
12	0x3c3d8496	0.0115672555
13	0xbcefa977	-0.029255612
14	0x3d6fa983	0.05851127
15	0xbdab3305	-0.083593406
16	0xbdb361d3	-0.08758893
17	0xbd3130a8	-0.043259293
18	0xbd2dfb10	-0.04247576
19	0x3c6c22b1	0.014412568
20	0xbd922776	-0.07136433
21	0xbda59e02	-0.08086778
22	0xbd71a956	-0.058999382
23	0xbdb503ac	-0.08838591
24	0xbd92e753	-0.07173028
25	0x3da84734	0.08216706
26	0xbd2cfe49	-0.042234693
27	0xbc8ad3c3	-0.016946679
28	0x3d150335	0.03638001
29	0xbda44965	-0.080218114
30	0x3d88e988	0.066851676
31	0xbc95f561	-0.018305482
32	0x3b8be44e	0.0042691594
33	0x3d99d5bb	0.07511469
34	0xbd3dac6d	-0.046307016
35	0xbdb4cb97	-0.08827894
36	0xbda3bb5a	-0.07994719
37	0x3c31e56f	0.010857924
38	0x3d9ff1f8	0.07809824
39	0xbd19055d	-0.03735863
40	0x3cd1c386	0.025605928
41	0x3d59d95e	0.053185813
42	0x3d4e423a	0.050356127
43	0xbd4edf53	-0.050505947
44	0x3d1108ee	0.035408907
45	0xbcc3f5ab	-0.023920855
46	0x3d71f20e	0.059068732
47	0x3cf91ebc	0.030410163
48	0xbd89123f	-0.06692933
49	0x3daf6278	0.08563703
50	0xbd4b1d13	-0.049588274
51	0x3d9d409c	0.07678339
52	0x3cd73656	0.026271027
53	0xbd0bc548	-0.03412369
54	0x3d16587f	0.03670549
55	0xbc87cd80	-0.016577482
56	0xbc56540a	-0.01308156
57	0xbd2fe706	-0.04294493
58	0xbd2a8ed1	-0.041640107
59	0x3d8700a9	0.06591923
60	0x3ce0a953	0.02742449
61	0xbd5ca556	-0.053868614
62	0x3cd6601a	0.026168872
63	0xbd565281	-0.052324776
64	0xbbf5ac33	-0.0074973344
65	0x3d163f54	0.03668149
66	0x3d1ebc7f	0.038753983
67	0x3d0e9dae	0.034818344
68	0x3d4741c4	0.048646703
69	0x3d10f35a	0.035388328
70	0x3db0c48f	0.086312406
71	0xbd28d4d4	-0.041218594
72	0x3d8ec384	0.069708854
73	0x3da3bee6	0.07995395
74	0xbd8c20c9	-0.06842191
75	0x3cad36c1	0.021144273
76	0x3d988297	0.07446783
77	0xbd7328b8	-0.059365004
78	0x3dad3f8f	0.084593885
79	0xbc683fb4	-0.014175344
80	0xbd2bbdae	-0.04192894
81	0x3d03144b	0.032001775
82	0x3d5b71b0	0.053575218
83	0x3d3f15b6	0.046651565
84	0xbb413ca9	-0.002948562
85	0xbc636ed1	-0.013881401
86	0x3d6508a7	0.055916455
87	0x3d949002	0.0725403
88	0x3c9a3b24	0.018827029
89	0x3d86cc19	0.06581897
90	0xbcedab9f	-0.0290125
91	0x3d2564ab	0.040379208
92	0xbd39aef4	-0.045332864
93	0x3d8c4c06	0.06850438
94	0x3d1736e4	0.036917582
95	0x3d3958dd	0.045250762
96	0xbd9019ce	-0.07036172
97	0xbc5df495	-0.013547082
98	0xbd877883	-0.06614783
99	0xbd744902	-0.05963994
100	0x3da3eadc	0.0800378
101	0xbd4750a0	-0.048660874
102	0x3cc1f2a1	0.023675265
103	0xbcb8b0b2	-0.022545192
104	0x3c98b647	0.018641604
105	0xbda59324	-0.080847055
106	0xbda6b39a	-0.08139725
107	0xbc50f3a8	-0.012753405
108	0xbd6a41b7	-0.057191577
109	0xbcd95597	-0.02653007
110	0x3d9ee48d	0.07758436
111	0xbbcb4d17	-0.006204258
112	0xbc8750cf	-0.016518025
113	0x3d4e961e	0.05043613
114	0xbc932b4a	-0.017964978
115	0xbd881006	-0.06643681
116	0x3d44e1a4	0.04806675
117	0xbcb4de5e	-0.02207869
118	0x3d34eab8	0.044169158
119	0xbd9fc8f9	-0.07802004
120	0x3b702355	0.0036642153
121	0x3d911b3b	0.07085272
122	0xbd15eb91	-0.036601607
123	0x3d5659a7	0.052331593
124	0x3d3d2715	0.04617985
125	0x3d474ae7	0.048655417
126	0xbd9516b6	-0.072797224
127	0x3bdd16f2	0.00674712
128	0xbd71ba8f	-0.059015807
129	0x3d350f39	0.04420397
130	0x3d08f7fd	0.033439625
131	0x3d91ed65	0.071253575
132	0x3cf90865	0.03039951
133	0x3d87a2b7	0.06622832
134	0x3c2e77f5	0.010648717
135	0x3d987c70	0.074456096
136	0x3db16d04	0.08663371
137	0x3b702054	0.0036640363
138	0x3d235cc5	0.039883394
139	0x3d12535e	0.035724036
140	0xbd230429	-0.03979889
141	0xbda64c4d	-0.08120022
142	0xbd89e6dd	-0.06733487
143	0x3d3c7601	0.046010975
144	0xbcd77e10	-0.026305228
145	0x3d005f54	0.031340912
146	0x3daee830	0.0854038
147	0xbd9a9609	-0.07548148
148	0xbd93a171	-0.07208527
149	0x3d80d5fc	0.06290814
150	0x3bb7c825	0.005608576
151	0xbd059f24	-0.03262247
152	0x3d9de6cd	0.077100374
153	0x3d9a9e23	0.075496934
154	0x3d832ae3	0.06404664
155	0xbd61d737	-0.055136885
156	0x3d2dcace	0.042429738
157	0x3cee1cb7	0.029066427
158	0x3d2371ac	0.039903328
159	0xbd96c150	-0.0736109
160	0x3d38fca1	0.0451628
161	0x3c9e33ce	0.019311812
162	0x3d6d4358	0.057925552
163	0x3c704b76	0.014666429
164	0xbd30376f	-0.043021616
165	0x3cd4e441	0.025987746
166	0x3d83f5fb	0.064434014
167	0xbd941cd7	-0.07232063
168	0xbd695b54	-0.056971863
169	0x3d792601	0.06082726
170	0x3d6c6233	0.057710838
171	0x3d5d5f1e	0.05404579
172	0xbd130655	-0.03589471
173	0x3d5f43af	0.054507907
174	0x3d5cbcd3	0.053891014
175	0xbcba8da3	-0.022772616
176	0x3da376b6	0.07981627
177	0xbbcb9bd8	-0.0062136464
178	0xbd0c9e1c	-0.034330472
179	0x3c106eec	0.008815508
180	0xbd2fbdd5	-0.042905647
181	0x3cb8442d	0.022493446
182	0xb9faaf99	-0.00047814546
183	0x3c4d23fb	0.012520785
184	0xbbe3e5e0	-0.0069548935
185	0xbdb4a82e	-0.0882114
186	0x3d660ce4	0.056164637
187	0x3d8c3cc7	0.0684753
188	0xbd3cb4a9	-0.04607073
189	0xbd8707e6	-0.065933034
190	0xbd18001e	-0.037109487
191	0x3d48f68c	0.04906325
192	0x3d50a74f	0.050940808
193	0x3ced47d5	0.028964916
194	0x3d83058e	0.06397544
195	0xbd87bf23	-0.06628253
196	0x3d857b63	0.06517675
197	0x3bf6fb47	0.007537279
198	0xbdaef1f9	-0.08542246
199	0x3d18f8ca	0.03734664
200	0xbd4b6509	-0.0496569
201	0xbda5e3fd	-0.08100126
202	0xbc399fd4	-0.01132961
203	0x39ad3ae8	0.0003304102
204	0x3bb9ddbf	0.005672186
205	0xbd7b8637	-0.061407294
206	0xbc001534	-0.007817555
207	0xbd7c5785	-0.061606903
208	0xbcb8831c	-0.022523455
209	0xbd6da481	-0.05801821
210	0x37539a09	1.2612444e-05
211	0x3da7700e	0.081756696
212	0xbbb26adb	-0.005444867
213	0xbd3f54bc	-0.04671167
214	0xbd82d31e	-0.06387924
215	0xbd412a71	-0.047159616
216	0x3bac036d	0.005249432
217	0x3d2ecafd	0.042674053
218	0xbc363025	-0.011119877
219	0x3c82ce4d	0.015967513
220	0x3d184f97	0.037185278
221	0x3d819d84	0.06328872
222	0x3cf6aa56	0.03011052
223	0xbd81f804	-0.06346133
224	0xbc545c50	-0.012961462
225	0x3b59bd67	0.0033224465
226	0x3cf73116	0.030174773
227	0xbbbdb3eb	-0.00578927
228	0xbc806214	-0.015671767
229	0x3ca37886	0.019954931
230	0x3d8f3a8a	0.06993587
231	0xbd76ea60	-0.06028211
232	0xbcf656e0	-0.030070722
233	0xbdb140cb	-0.086549364
234	0xbd0ecd30	-0.03486365
235	0x3cc72b70	0.024312705
236	0x3d61e6b4	0.055151656
237	0xbcb9175b	-0.022594145
238	0xbcfc3d09	-0.030790823
239	0x3c18d0fe	0.009327171
240	0xbd4648e6	-0.048409365
241	0x3da56bbf	0.080771916
242	0xbd3b175e	-0.04567658
243	0x3d91ab2a	0.07112725
244	0xbd97a35c	-0.07404205
245	0x3d297604	0.041372314
246	0xbd882106	-0.06646924
247	0x3c14a017	0.0090713715
248	0x3c16cb91	0.009203807
249	0xbc27117c	-0.01019704
250	0x3d033aa7	0.032038357
251	0xbcaecfc0	-0.021339297
252	0x3a8cf8f6	0.0010755348
253	0x3d446411	0.047946993
254	0xbcb0e80c	-0.021595024
255	0xbdac3405	-0.084083594

layer3.bias f4 [4]
0	0xbcd15838	-0.025554761
1	0xbca5a85a	-0.020221878
2	0x3cadcb6c	0.021215163
3	0x3b438926	0.0029836386

layer1.weight f4 [128, 4]
0	0xbee80b4c	-0.4532112
1	0xbc60a6c0	-0.013711631
2	0xbec16a5a	-0.37776452
3	0xbea416b4	-0.3204857
4	0xbe8f4dc6	-0.27989024
5	0x3e132498	0.14369428
6	0xbdf96b20	-0.121786356
7	0x3ec90130	0.39258718
8	0xbc609d40	-0.013709366
9	0x3d18fc50	0.03735
10	0xbe329704	-0.1744042
11	0xbebc3310	-0.36757708
12	0xbece50cc	-0.40296018
13	0x3ea9e4c2	0.3318234
14	0x3eb9323a	0.36171132
15	0xbe8cb672	-0.27482945
16	0xbefb1412	-0.4903875
17	0xbce0b5a0	-0.027430356
18	0xbe94852a	-0.29007846
19	0xbd8cf0c8	-0.06881863
20	0xbe277be4	-0.16355854
21	0x3ec5e3cc	0.38650358
22	0xbee18358	-0.4404552
23	0xbdfe3728	-0.12412864
24	0x3ee24cfa	0.44199353
25	0x3e7a4b98	0.24442899
26	0x3eba1ce0	0.36350155
27	0xbe9aac76	-0.30209702
28	0x3e9e78a0	0.30951405
29	0xbea10866	-0.3145172
30	0xbd930680	-0.07178974
31	0xbe50b088	-0.20379841
32	0xbcf9bda0	-0.030485928
33	0x3ec7fd84	0.39060605
34	0xbec84912	-0.39118248
35	0x3eee6750	0.46563196
36	0x3e802c64	0.25033867
37	0x3ec22792	0.37920815
38	0x3ef2a454	0.47390997
39	0xbe5736dc	-0.21017021
40	0xbeb51496	-0.35367268
41	0xbeb2d5f2	-0.34928852
42	0xbead44e2	-0.33841616
43	0x3e9b3420	0.30313206
44	0xbe838e1c	-0.25694358
45	0x3e93f394	0.28896773
46	0x3d1af790	0.03783375
47	0x3ea40a1c	0.32038963
48	0xbed9adb4	-0.42515337
49	0x3e4c0954	0.19925433
50	0xbe283e3c	-0.1642999
51	0xbeaaa84c	-0.33331525
52	0xbeaa7c2a	-0.33297855
53	0xbeef1de6	-0.46702498
54	0xbed3c446	-0.41360682
55	0x3ebea2b4	0.37233508
56	0xbe29bc40	-0.16575718
57	0x3e8b3134	0.27185977
58	0xbe1cebb4	-0.15324289
59	0x39a40000	0.00031280518
60	0xbdca96c0	-0.098920345
61	0x3de6afd0	0.11264002
62	0xbc330180	-0.010925651
63	0x3e82bab0	0.25533056
64	0x3eb4b060	0.35290813
65	0xbd8a1f20	-0.06744218
66	0x3c709fc0	0.014686525
67	0xbdd91ff0	-0.10601795
68	0x3e54a22c	0.20764989
69	0xbede5d18	-0.434304
70	0xbeddb73a	-0.43303853
71	0x3de707c0	0.11280775
72	0xbece8f04	-0.40343487
73	0x3cef1fc0	0.029189944
74	0x3e3b903c	0.1831674
75	0xbe59608c	-0.21228236
76	0xbdb40e38	-0.087917745
77	0xbe8def44	-0.27721608
78	0xbe8fd0f2	-0.280891
79	0x3efd5f52	0.49486786
80	0xbe95ea68	-0.292804
81	0xbee02090	-0.43774843
82	0xbe876fa0	-0.2645235
83	0x3dc67168	0.09689599
84	0xbdfe5ba8	-0.12419826
85	0x3d9d0958	0.07667798
86	0xbe6e23c0	-0.23255825
87	0x3c045b00	0.008078337
88	0x3ed255ea	0.41081172
89	0x3e345e18	0.17614019
90	0x3e23e5b0	0.16005588
91	0x3ee7c15a	0.45264703
92	0x3eb6b87a	0.3568762
93	0xbe3dca80	-0.18534279
94	0xbe0a838c	-0.13526744
95	0x3e10ce50	0.14141202
96	0x3e9a6004	0.3015138
97	0x3e4aa564	0.19789654
98	0xbee0c930	-0.43903494
99	0x3edc2eaa	0.43004352
100	0xbedcc858	-0.431216
101	0x3e24a3fc	0.1607818
102	0xbe025b78	-0.12730205
103	0xbd6943f0	-0.056949556
104	0xbe997784	-0.29973996
105	0x3ecff160	0.40613842
106	0xbeeeccb8	-0.46640563
107	0xbd1a8280	-0.03772211
108	0x3ee5cd9e	0.44883436
109	0xbe09bf4c	-0.1345188
110	0xbe8c20ba	-0.27368718
111	0x3ef50b40	0.47860146
112	0x3e50f39c	0.2040543
113	0xbee1f7e4	-0.44134438
114	0xbd94e708	-0.07270628
115	0xbed7a3de	-0.42117208
116	0x3d240eb0	0.04005307
117	0xbd959738	-0.07304233
118	0x3e08313c	0.13300031
119	0x3b0cc400	0.002147913
120	0xbe818ab4	-0.25301135
121	0x3e14b440	0.14521885
122	0x3e3b68a8	0.18301642
123	0x3ecf2afa	0.40462476
124	0x3dd87728	0.10569602
125	0xbd231c10	-0.039821684
126	0xbeff7f56	-0.49901837
127	0x3e591a5c	0.21201462
128	0x3e475060	0.19464254
129	0xbe5132c0	-0.20429516
130	0x3e194b90	0.14970231
131	0x3e0bf968	0.1366936
132	0x3ea933dc	0.33047378
133	0x3d5d4520	0.054021
134	0x3eb130a8	0.34607434
135	0xbe813bb8	-0.25240874
136	0x3cc04360	0.023469627
137	0xbef3a422	-0.4758616
138	0xbe9f061c	-0.3105935
139	0x3eefbfc2	0.46825987
140	0xbeca21f8	-0.3947904
141	0x3ead94e4	0.33902657
142	0xbe4ff09c	-0.20306629
143	0xbea1d56a	-0.31608135
144	0xbeaac2c2	-0.33351713
145	0x3eab9242	0.33510023
146	0x3e9c945e	0.30581945
147	0x3dee5d70	0.116389155
148	0x3e89f3c2	0.26943785
149	0xbec4e76a	-0.38457805
150	0xbe9f856c	-0.3115648
151	0x3ee8961a	0.45427018
152	0x3c16a8c0	0.009195507
153	0xbea8543c	-0.32876766
154	0xbe28e4d4	-0.16493541
155	0xbedc6912	-0.43048912
156	0xbef84a62	-0.4849425
157	0x3e4cfbb8	0.20017898
158	0xbe6eb6b4	-0.23311883
159	0xbeb32a16	-0.34993047
160	0x3ef2a0ea	0.47388393
161	0x3eb863f8	0.3601377
162	0xbd6154f0	-0.055012643
163	0xbea88830	-0.32916403
164	0x3e801e86	0.25023288
165	0xbefa4408	-0.4888003
166	0x3e85ac94	0.2610823
167	0xbe993750	-0.29925013
168	0x3ec2c8f8	0.38043952
169	0xbea78ae0	-0.3272314
170	0xbee049a4	-0.43806183
171	0x3eb0ec6a	0.3455537
172	0xbef205c6	-0.4727003
173	0xbe80070a	-0.2500537
174	0x3ede5020	0.43420506
175	0xbeb631b0	-0.35584784
176	0xbe264f20	-0.16241121
177	0x3df0e808	0.117630064
178	0xbec7681a	-0.3894661
179	0xbeb9b008	-0.36267114
180	0x3efc7f56	0.493159
181	0xbe97ffe6	-0.29687423
182	0xbefb3904	-0.49066937
183	0x3e12b134	0.1432541
184	0x3dd68ef8	0.10476488
185	0x3cb6c120	0.022308886
186	0xbcf05760	-0.029338539
187	0x3e21d75c	0.1580481
188	0xbed43532	-0.41446835
189	0x3e5d9324	0.21638161
190	0x3e10b35c	0.1413092
191	0x3dec7790	0.11546242
192	0xbef38290	-0.4756055
193	0xbee9691e	-0.4558801
194	0xbed47eb8	-0.4150293
195	0x3dfc61d8	0.1232335
196	0x3ddc6050	0.10760558
197	0xbdadb340	-0.08481455
198	0xbee88828	-0.4541638
199	0x3df68ae8	0.12038213
200	0x3ea043d0	0.31301737
201	0xbde30400	-0.11084747
202	0xbeeef38e	-0.46670192
203	0x3dfdd928	0.12394935
204	0x3e71a824	0.23599297
205	0xbdd4f568	-0.1039837
206	0x3e204600	0.15651703
207	0x3ec34640	0.38139534
208	0x3e8df63a	0.27726918
209	0x3e585720	0.21126986
210	0xbe71e5f8	-0.23622882
211	0x3e3cbdf4	0.18431836
212	0x3e272538	0.16322792
213	0x3e8e5a8e	0.27803463
214	0x3e99b67e	0.30022043
215	0x3dc2c088	0.09509379
216	0xbef21d20	-0.47287846
217	0xbec0d2cc	-0.37660825
218	0x3def8d30	0.11696851
219	0xbef84b58	-0.48494983
220	0x3ec1c2bc	0.37843883
221	0x3d516490	0.051121294
222	0x3d351e00	0.044218063
223	0xbe8aadce	-0.27085727
224	0xbe48f3a4	-0.19624192
225	0xbef7679e	-0.4832124
226	0x3e0c4b50	0.13700604
227	0xbe811a3e	-0.25215334
228	0xbe483748	-0.19552338
229	0xbdf39e68	-0.11895448
230	0x3da10650	0.07862532
231	0xbee28722	-0.44243723
232	0xbe5cdbf4	-0.2156828
233	0xbe0e4f44	-0.13897425
234	0xbeb374dc	-0.35050094
235	0xbeb32726	-0.34990805
236	0xbed6c75a	-0.41948968
237	0x3dc27f00	0.094968796
238	0xbeed309a	-0.46326143
239	0x3e269098	0.16266096
240	0xbd5ad9a0	-0.0534302
241	0x3eb2844e	0.34866565
242	0xbe10e914	-0.14151412
243	0xbd0d2c10	-0.03446585
244	0x3efc98f8	0.49335456
245	0xbd35ae90	-0.04435593
246	0xbde42788	-0.111403525
247	0xbe8e25bc	-0.27763164
248	0x3e8e5712	0.27800804
249	0x3ef6a63c	0.48173702
250	0xbec0a09c	-0.37622535
251	0x3e620dd8	0.22075593
252	0xbe9451fa	-0.28968793
253	0xbeb15d4e	-0.34641498
254	0xbdd751d0	-0.10513651
255	0xbe53958c	-0.20662516

layer1.bias f4 [128]
0	0x3e806128	0.25074124
1	0xbe6432b4	-0.22284967
2	0x3e93cb5c	0.28866088
3	0xbd8987e8	-0.06715375
4	0xbe8e4154	-0.27784216
5	0xbea49ac2	-0.3214932
6	0xbe0d0fb0	-0.13775516
7	0xbd49bb90	-0.04925114
8	0xbed4bbb0	-0.41549444
9	0x3dc40b20	0.095724344
10	0x3e002f94	0.1251815
11	0x3ec12c46	0.3772909
12	0xbe9f6364	-0.31130517
13	0x3efd65b8	0.49491668
14	0xbd8ad750	-0.06779349
15	0xbe04d0fc	-0.12970346
16	0xbee5c068	-0.44873357
17	0x3e05a3d0	0.13050771
18	0xbe307cf0	-0.1723516
19	0x3ed81d1e	0.42209715
20	0x3ea72d5a	0.32651788
21	0xbc806de0	-0.015677392
22	0xbed6eb2e	-0.41976303
23	0x3d375690	0.044760287
24	0xbedad608	-0.42741418
25	0x3ef0cb96	0.47030324
26	0x3ef3fcb4	0.47653735
27	0x3eb5628c	0.35426748
28	0x3e577194	0.2103942
29	0xbe473170	-0.19452453
30	0x3ec998da	0.3937443
31	0x3ed6d2da	0.41957742
32	0xbe793e14	-0.24340087
33	0x3e2816c4	0.16414934
34	0xbe15e83c	-0.14639372
35	0x3e8e9e04	0.2785493
36	0x3e2e034c	0.16993445
37	0xbda65900	-0.08122444
38	0x3dcaad10	0.0989629
39	0xbe3091ec	-0.17243165
40	0x3e66e798	0.22549284
41	0xbe392814	-0.18081695
42	0x3df72aa0	0.12068677
43	0xbe8c3644	-0.2738515
44	0x3dce9bf8	0.100883424
45	0xbeec5616	-0.46159428
46	0x3e9d4b86	0.30721682
47	0xbdaee6f8	-0.085401475
48	0x3ec4a3e0	0.38406277
49	0x3df69668	0.120404065
50	0xbe52eedc	-0.2059893
51	0x3ee3923c	0.44447505
52	0xbe36c780	-0.1784954
53	0xbe27cd58	-0.16386926
54	0x3e8daf3c	0.27672756
55	0x3ec539be	0.38520616
56	0xbdf254d0	-0.11832583
57	0x3ecea9b0	0.40363836
58	0xbee3f8a2	-0.4452563
59	0xbe40003c	-0.1875009
60	0x3ea379c8	0.3192885
61	0x3e0924cc	0.13392943
62	0x3e979970	0.2960925
63	0xbe7b1960	-0.24521399
64	0x3ece26b6	0.4026391
65	0xbeec00ca	-0.46094352
66	0xbee4e99e	-0.44709486
67	0xbe02255c	-0.12709564
68	0xbd2e1720	-0.042502522
69	0x3df6ae30	0.120449424
70	0x3e6371c8	0.22211373
71	0xbe9adc4e	-0.30246204
72	0xbdecd130	-0.11563337
73	0xbe3bd4ac	-0.18342847
74	0xba8d2e00	-0.0010771155
75	0x3e9b88b0	0.30377722
76	0x3eff117c	0.49818027
77	0xbdefbea0	-0.11706281
78	0xbeac531a	-0.3365715
79	0xbe942b64	-0.28939354
80	0x3e1e076c	0.15432519
81	0xbe339b4c	-0.1753971
82	0x3e118b80	0.14213371
83	0xbd12db00	-0.035853386
84	0x3db2ab58	0.087240875
85	0x3ea7959c	0.3273133
86	0xbe1679d4	-0.14694911
87	0xbd5e5a70	-0.054285467
88	0xbe397a90	-0.1811316
89	0x3eaaffe8	0.33398366
90	0x3d49f830	0.049308956
91	0x3ec130a6	0.37732428
92	0xbe1d46bc	-0.15359014
93	0xbea88c58	-0.32919574
94	0xbd69aa60	-0.057047248
95	0xbed0dda2	-0.40794092
96	0x3ebe0ed8	0.371207
97	0xbee22dd4	-0.4417559
98	0xbeab2ac2	-0.3343106
99	0x3e248480	0.1606617
100	0xbe8fd9fc	-0.28095996
101	0xbd814168	-0.063113034
102	0xbecd38ee	-0.40082496
103	0xbe3bf488	-0.18355
104	0xbeef8e60	-0.4678831
105	0x3e37abf0	0.17936683
106	0x3e07fca8	0.13279974
107	0x3e9896d8	0.29802585
108	0x3ef48578	0.4775808
109	0x3edf477c	0.43609226
110	0xbe84e946	-0.25959224
111	0xbdf89b48	-0.121389925
112	0xbe834184	-0.25635922
113	0xbd70e850	-0.0588153
114	0x3ef8191a	0.4845665
115	0x3ddd7be0	0.10814643
116	0xbe1b46d0	-0.15163732
117	0xbe379a28	-0.179299
118	0xbecaf8a0	-0.3964281
119	0xbec5d074	-0.386356
120	0xbe54755c	-0.20747894
121	0x3e0fcd3c	0.14043134
122	0xbe0713bc	-0.13191122
123	0x3eecb3de	0.46230978
124	0xbc656d80	-0.014003158
125	0x3e73a4d0	0.2379334
126	0x3ee49340	0.44643593
127	0xbeac62bc	-0.33669078

layer2.weight f4 [128, 128]
0	0x3d484a7d	0.048899163
1	0xbb16a924	-0.0022989
2	0x3da19dd1	0.07891429
3	0xbd17ceaa	-0.037062325
4	0xbd37f709	-0.044913325
5	0xbd92fd58	-0.07177228
6	0xbdb0f7a1	-0.086409815
7	0x3bfcd3f5	0.007715697
8	0xbdb0622e	-0.08612476
9	0x3c9d8346	0.019227635
10	0x3bd33def	0.006446592
11	0x3d860d4b	0.06545504
12	0x3db474d5	0.088113464
13	0x3d6b2b89	0.057414565
14	0xbd6a065c	-0.05713497
15	0xbd89119e	-0.06692813
16	0x3d63efca	0.055648603
17	0x3b5b55ef	0.0033467968
18	0x3d998970	0.07496917
19	0xbd83562a	-0.06412919
20	0x3d4709e2	0.04859341
21	0x3d0d1e19	0.03445253
22	0x3b144770	0.0022625588
23	0x3d24166b	0.040060442
24	0xbc9520f0	-0.018204182
25	0x3d48c68d	0.049017478
26	0x3c87fbd7	0.016599579
27	0xbd3c29a6	-0.045938157
28	0xbd00dd9a	-0.031461336
29	0x3d92dd15	0.07171074
30	0xbd8291b3	-0.06375446
31	0x3dae5351	0.08511985
32	0x3c89eed6	0.016837519
33	0xbd6d7398	-0.057971567
34	0xbca6c78c	-0.020358823
35	0xbb999fb0	-0.0046882257
36	0x3d3dcda9	0.04633871
37	0xbda66274	-0.08124247
38	0xbd8f7cb6	-0.070062086
39	0xbd3bb913	-0.045830797
40	0xbc365572	-0.01112877
41	0xbd78eb26	-0.06077113
42	0x3cf5c4a3	0.03000099
43	0xbd083c2d	-0.033260513
44	0xbd91cdec	-0.071193546
45	0xbd442cd5	-0.047894318
46	0x39ea6abd	0.00044711484
47	0x3db33b9e	0.087516055
48	0x3b904704	0.004402997
49	0xbcc6b231	-0.02425489
50	0xbd22746b	-0.039661806
51	0xbd82debb	-0.06390139
52	0x3cd5a28e	0.026078489
53	0x3d48ab81	0.048991684
54	0x3d1669b8	0.036721915
55	0xbcdf229b	-0.02723818
56	0x3bdad7e4	0.006678568
57	0xbc832508	-0.016008869
58	0x3c77b8c8	0.015119739
59	0xbd6032c3	-0.05473591
60	0x3d7c1058	0.061539024
61	0x3da6e8d7	0.081498794
62	0xbc50f358	-0.01275333
63	0xbd17ae02	-0.03703118
64	0xbd8f9163	-0.07010152
65	0xbbd73858	-0.006567996
66	0xbd1881da	-0.03723321
67	0x3c0f5080	0.00874722
68	0x3d384978	0.04499194
69	0x3d817d42	0.06322719
70	0x3daeccea	0.08535178
71	0xbd26c75c	-0.040717468
72	0xbc73496f	-0.014849051
73	0xbd641c50	-0.055691063
74	0x3cbe9110	0.02326253
75	0x3d62cd33	0.055371474
76	0x3a82cb46	0.0009978793
77	0x3cb1bba0	0.021695912
78	0x3d61d1d8	0.055131763
79	0xbc2eb5be	-0.010663448
80	0x3cd4e9e4	0.025990434
81	0x3d9f13bd	0.07767437
82	0xbd81a218	-0.06329745
83	0xbce2a36a	-0.027665813
84	0x3d85cea8	0.06533557
85	0xbcf9cd25	-0.030493328
86	0x3d08240e	0.03323751
87	0x3d2d1799	0.042258833
88	0xbd0d026e	-0.034426145
89	0xbd688b96	-0.056773745
90	0xbda162ae	-0.0788015
91	0xbd66e905	-0.05637457
92	0x3bb4dbf0	0.0055193827
93	0xbc6299a0	-0.013830572
94	0xbd234312	-0.039858885
95	0x3b8024ce	0.0039106375
96	0x3cbfbc64	0.023405261
97	0xbd1aa8fc	-0.037758812
98	0xbd8f968e	-0.07011138
99	0x3cb8a129	0.022537785
100	0xbdad1a25	-0.08452252
101	0xbc61492d	-0.013750357
102	0xbd90124f	-0.07034742
103	0xbd3c867b	-0.046026688
104	0x3d6bb544	0.057545915
105	0x3d140265	0.036135096
106	0xbd90e268	-0.070744336
107	0x3c85c52e	0.016329374
108	0x3d7a1c38	0.061062068
109	0x3c703d68	0.014663078
110	0xbcc0f8ef	-0.0235562
111	0x3d353073	0.044235658
112	0x3d0ad4c1	0.033894304
113	0xbd70214d	-0.058625508
114	0x3d8258a4	0.06364563
115	0xbdab32c7	-0.083592944
116	0xbb3c4b1d	-0.0028731294
117	0x3da1bf39	0.07897801
118	0xbd6c704e	-0.05772429
119	0x3d82df88	0.063902915
120	0x3cac5700	0.021037579
121	0xbbe0185e	-0.0068388423
122	0xbd07e2ef	-0.033175405
123	0xbc8a3eb2	-0.016875599
124	0xbb84b0b4	-0.004049385
125	0x3d251398	0.04030189
126	0xbc6ebdef	-0.014571651
127	0xbd6173bf	-0.055042025
128	0xbd852bcd	-0.06502495
129	0xbd8c05e9	-0.06837065
130	0x3d2f3f0d	0.04278474
131	0xbd5c0700	-0.053717613
132	0xbd724fac	-0.059158012
133	0x3caa9c16	0.02082638
134	0x3b5a4c98	0.0033309814
135	0xbdaadf4e	-0.08343373
136	0xbc81d709	-0.015849607
137	0x3d8c20e8	0.06842214
138	0x3c52111b	0.012821461
139	0xbb1243f4	-0.0022318335
140	0x3dacedbf	0.08443784
141	0xbc12d2a8	-0.008961357
142	0x3c354d35	0.011065771
143	0xbdb143b3	-0.08655491
144	0xbd9e5aca	-0.077321604
145	0xbce59920	-0.028027117
146	0xbd686d41	-0.056744818
147	0xbcbe4162	-0.023224536
148	0x3b6568c1	0.0035005065
149	0x3d39a338	0.045321673
150	0xbc848006	-0.016174328
151	0xbd956661	-0.07294918
152	0x3d0c2f56	0.03422483
153	0x3d5c608c	0.05380301
154	0x3d5ee7c0	0.054420233
155	0x3d903c75	0.07042781
156	0xbbbb9481	-0.00572449
157	0x3c5d4ead	0.013507527
158	0x3d457280	0.0482049
159	0xbc09871c	-0.008394029
160	0xbd8a7c21	-0.06761957
161	0xbd0fccee	-0.035107546
162	0xbc39efe9	-0.011348703
163	0xbda5d323	-0.08096912
164	0xbd3fc5ba	-0.046819426
165	0x3d7d8946	0.061898492
166	0xbd5d47fe	-0.054023735
167	0xbd5d7ae4	-0.054072276
168	0x3d95cd16	0.07314508
169	0x3d91e2bc	0.07123324
170	0x3dafdd4b	0.0858713
171	0xbd91d6f2	-0.07121076
172	0x3cbddf1e	0.02317768
173	0x3da579b0	0.08079851
174	0xbda0bb10	-0.07848179
175	0x3d7aced5	0.061232407
176	0xbdac71b5	-0.084201254
177	0xbda7f747	-0.08201461
178	0xbc54da17	-0.01299145
179	0xbc574c96	-0.013140818
180	0x3c9d0de4	0.019171663
181	0xbb693c18	-0.0035588797
182	0xbca98f24	-0.020698138
183	0xbd2c6e61	-0.042097453
184	0x3d585941	0.052819494
185	0x3bad4146	0.005287322
186	0x3d4bf51b	0.049794298
187	0xbc5b3c7a	-0.013381118
188	0xbd903c86	-0.07042794
189	0xbd7185c8	-0.058965474
190	0xbd505297	-0.050860014
191	0x3bc1c3ce	0.0059132343
192	0xbd0334b8	-0.0320327
193	0xbd9140a0	-0.07092404
194	0x3cc53fe9	0.024078326
195	0xbd8b53aa	-0.06803067
196	0xbd92d61b	-0.071697436
197	0xbca601c8	-0.020264521
198	0x3cee6646	0.029101502
199	0x3d057654	0.03258355
200	0xbc9683af	-0.018373339
201	0x3d689510	0.056782782
202	0x3d3b8348	0.045779496
203	0xbd94c12a	-0.072634056
204	0x3d31281b	0.04325114
205	0x3c9e2933	0.019306755
206	0x3d28ee82	0.041243084
207	0xbd1d8277	-0.0384545
208	0xbceb091b	-0.028690865
209	0xbd220211	-0.039552752
210	0xbd9839e8	-0.0743292
211	0x3ce3c5b4	0.027804233
212	0x3d08829c	0.033327684
213	0x3d770efd	0.06031703
214	0xbd518c4a	-0.05115918
215	0xba779091	-0.00094438443
216	0x3d5c0d1f	0.05372345
217	0x3d93609c	0.07196161
218	0xbdb121bb	-0.08649012
219	0xbd6814ef	-0.05666059
220	0x3cc6edf1	0.024283381
221	0xbd1b2d8e	-0.03788524
222	0x3b329493	0.0027249202
223	0xbdabb578	-0.08384222
224	0x3daeee82	0.085415855
225	0x3d655371	0.05598778
226	0xb81f24aa	-3.79427e-05
227	0xbd2ad7ea	-0.041709818
228	0xbd5e94c0	-0.054341078
229	0x3ce98931	0.0285078
230	0xbd1c0372	-0.038089223
231	0x3d9485e9	0.07252104
232	0x3d5bcd37	0.053662505
233	0x3ca6e72b	0.020373901
234	0x3d9110d1	0.070832856
235	0xbcafa261	-0.021439733
236	0x3cd885bf	0.026430963
237	0xbd1b5e23	-0.037931573
238	0x3b7e467b	0.0038799334
239	0x3ced06e3	0.028933948
240	0xbcb2f1ab	-0.021843752
241	0x3d6bb007	0.05754092
242	0x3d056737	0.032569136
243	0xbbaa586c	-0.005198529
244	0x3d2e1047	0.042495992
245	0xbd77e097	-0.06051692
246	0x3d4d3e3b	0.050108176
247	0x3bd678cf	0.006545163
248	0xbda2d0e9	-0.07950003
249	0xbd700bfd	-0.058605183
250	0xbcb48989	-0.022038238
251	0x3c9ea6ab	0.019366583
252	0x3d29b9fd	0.041437138
253	0x3d77af3c	0.06046985
254	0xbc250e94	-0.0100742765
255	0x3da6472e	0.08119045

layer2.bias f4 [128]
0	0x3c2480ac	0.010040443
1	0xbd919fbf	-0.07110547
2	0xbda5a1b5	-0.08087484
3	0xbd043fa7	-0.032287266
4	0xbdaa01cc	-0.08301124
5	0x3d0f8c2c	0.035045788
6	0xbda22a21	-0.07918192
7	0x3d9c38bc	0.07628009
8	0x3dabbe11	0.08385862
9	0xbda40914	-0.08009544
10	0xbd84f220	-0.06491494
11	0xbc31105f	-0.010807126
12	0xbd9f2593	-0.077708386
13	0xbd29c0d1	-0.04144365
14	0xbc5284ce	-0.012849046
15	0xbda976be	-0.082746014
16	0xbd0cdcee	-0.034390382
17	0xbd53491e	-0.0515834
18	0x3d8bc801	0.06825257
19	0x3cac63e7	0.02104373
20	0x3ad487fa	0.001621484
21	0xbd29a565	-0.0414175
22	0x3da7a409	0.08185584
23	0x3d8aceb9	0.067777105
24	0x3daec4ed	0.08533654
25	0x3d4a23ee	0.04935067
26	0xbdaf8a15	-0.08571259
27	0x3cc06d0f	0.023489503
28	0xbd61f72e	-0.05516737
29	0xbc3ef9d9	-0.011656248
30	0x3d8286f7	0.06373399
31	0x3d969443	0.073524974
32	0xbcebd29c	-0.02878695
33	0x3d17f208	0.037096053
34	0xbd936c5e	-0.07198404
35	0xbcc5b856	-0.02413575
36	0x3d176c72	0.036968656
37	0xbd881ac2	-0.06645729
38	0x3d83d8c2	0.06437828
39	0x3d954a1b	0.07289525
40	0xbd62a7a0	-0.05533564
41	0xbd6e024f	-0.05810767
42	0x3d9a3b65	0.0753086
43	0x3dab25f1	0.08356846
44	0xbd9268d4	-0.07148901
45	0xbd5418c0	-0.051781416
46	0x3b5a80be	0.0033340896
47	0x3c91f8ac	0.017818771
48	0x3cf05206	0.029335987
49	0x3cdb1b5b	0.026746443
50	0x3da5fd47	0.081049494
51	0xbd9c58e4	-0.07634142
52	0xbd3271ce	-0.043565564
53	0xbd90c1b4	-0.07068196
54	0x3d7c6c77	0.061626878
55	0xbcfab793	-0.030605113
56	0x3cdf0318	0.027223155
57	0x3d1b231e	0.037875287
58	0x3d5478ee	0.05187314
59	0xbdab9ecf	-0.083799
60	0x3c2ec37c	0.010666724
61	0xbd49bde3	-0.049253356
62	0xbdae8504	-0.085214645
63	0xbdabccd2	-0.08388676
64	0x3ca4e389	0.020128028
65	0x3d83e1d7	0.0643956
66	0x3cbb2cce	0.022848513
67	0xbda6ce82	-0.08144857
68	0x3d125d7d	0.03573369
69	0x3d47e738	0.04880449
70	0xbcb88b87	-0.02252747
71	0xbcaec76b	-0.021335324
72	0x3d703544	0.058644548
73	0x3d9a0cfc	0.07522008
74	0xbc31f6ef	-0.010862096
75	0x3da5e334	0.08099976
76	0xbbdb22c2	-0.006687493
77	0xbda167d7	-0.07881134
78	0x3c2aeac0	0.010431945
79	0xbd54590b	-0.05184273
80	0x3d97e8ef	0.074174754
81	0x3c80f4c3	0.015741711
82	0xbd2eb9e8	-0.042657763
83	0xbd316824	-0.043312207
84	0x3d667f63	0.05627383
85	0x3c5bb2a7	0.013409293
86	0xbc79f44d	-0.015256
87	0xbdaf1274	-0.085484415
88	0xbd310e5a	-0.043226577
89	0xbd9e2fa2	-0.07723929
90	0xbc63f59c	-0.013913538
91	0xbd76cd48	-0.060254365
92	0x3c83581f	0.01603323
93	0xbcab956e	-0.020945277
94	0xbd0cd7f9	-0.034385655
95	0x3d4d62fd	0.05014323
96	0xbd6d59f0	-0.0579471
97	0x3d6ada1e	0.05733692
98	0x3ccd1f84	0.025039442
99	0xbd5becb4	-0.053692535
100	0x3d8510bc	0.064973325
101	0xbcc244d4	-0.02371446
102	0x3dae0b92	0.084983006
103	0x3c6c8f25	0.014438425
104	0x3c263ef2	0.010146843
105	0x3c3de06b	0.01158915
106	0xbda8c8d0	-0.08241427
107	0x3d1a9078	0.037735432
108	0xbda1f80a	-0.07908638
109	0x3d2e22fe	0.04251384
110	0xbc364e10	-0.01112701
111	0x3daf1699	0.08549232
112	0xbd622508	-0.055211097
113	0x3d87c19a	0.066287234
114	0x3d8c75f4	0.06858435
115	0xbc60b0a9	-0.013713994
116	0x3cdc6516	0.02690367
117	0xbd72f870	-0.05931896
118	0xbd86bf97	-0.065795116
119	0x3d1644eb	0.03668682
120	0xbd449c23	-0.048000466
121	0xbd5ad4e6	-0.053425692
122	0x3c342a25	0.010996376
123	0x3d5f4727	0.054511216
124	0xbc21fbe1	-0.009886713
125	0xbcb4f2c3	-0.022088414
126	0xbd9d3c83	-0.07677557
127	0x3d377446	0.04478862
