tamer_maze/static/tamer_maze/run/jknjkn/trained_model.pth (torch, 146066 bytes, 12 tensors)

layer1.weight f4 [128, 4]
0	0xbe1c4bac	-0.15263242
1	0xbe157648	-0.14595902
2	0x3ed7d2a4	0.42152894
3	0x3eebaed6	0.46031827
4	0xbeb39a5e	-0.3507871
5	0xbef1c7be	-0.47222704
6	0x3eb88f8e	0.36047024
7	0x3e2ed1d8	0.17072237
8	0xbed0ebdc	-0.40804946
9	0x3e1eb234	0.15497667
10	0xbe411864	-0.1885696
11	0xbed0db46	-0.40792292
12	0xbe2d5b24	-0.16929299
13	0xbebf2856	-0.3733546
14	0xbee138a8	-0.43988538
15	0xbeceea44	-0.40413105
16	0xbe038c38	-0.12846458
17	0x3ebd30a2	0.36951166
18	0xbe9d7d8a	-0.3075984
19	0xbcf84460	-0.030306041
20	0x3ddd4b68	0.10805398
21	0x3db26be8	0.08711988
22	0xbe416e18	-0.18889654
23	0xbeed27de	-0.4631948
24	0x3df71248	0.12064034
25	0xbdcf6bc0	-0.101279736
26	0xbea597f8	-0.32342505
27	0x3ea824f6	0.328407
28	0x3e11da84	0.14243513
29	0x3e220598	0.15822446
30	0x3c7f7000	0.015590668
31	0xbcede020	-0.029037535
32	0xbd041e50	-0.03225547
33	0x3ebae776	0.36504716
34	0xbefd2990	-0.49445772
35	0xbef32ee0	-0.474967
36	0x3de13590	0.10996544
37	0xbe930884	-0.28717434
38	0x3d42cb10	0.047556937
39	0x3e93bdbe	0.288557
40	0xbe887e1a	-0.26658708
41	0x3d092670	0.033483922
42	0xbddf58b0	-0.10905588
43	0xbeb3a024	-0.35083115
44	0x3d330110	0.043702185
45	0xbe48e138	-0.19617164
46	0x3dfd1f38	0.1235947
47	0xbe30f50c	-0.17280978
48	0x3e920a1a	0.28523332
49	0x3ebc6668	0.3679688
50	0xbed66cc4	-0.41879857
51	0xbe8d4d0e	-0.2759785
52	0x3ee2c3be	0.44289964
53	0xbe4787d4	-0.19485408
54	0x3e641cd0	0.22276616
55	0x3e6686b0	0.22512317
56	0x3ed950fa	0.42444593
57	0xbe8cc7e4	-0.27496254
58	0x3e9127f2	0.28350788
59	0xbecc8a8c	-0.39949453
60	0x3eada446	0.33914393
61	0xbe5bd624	-0.21468407
62	0xbe6afb6c	-0.22947472
63	0x3ee581a2	0.44825464
64	0x3df119f8	0.11772531
65	0xbe25f39c	-0.16206211
66	0x3e7dba24	0.24778038
67	0xbbca1b00	-0.0061677694
68	0x3e8ec986	0.27888125
69	0x3d4a2630	0.049352825
70	0xbe2c715c	-0.16840118
71	0xbd8c2e90	-0.068448186
72	0x3ed6fe7e	0.41991037
73	0xbea2c2a0	-0.31789112
74	0xbeb04f46	-0.3443548
75	0x3e9a928e	0.30189937
76	0xbe4ded98	-0.20110166
77	0x3e6e13f8	0.23249805
78	0x3ea1b89e	0.31586164
79	0x3d1bad30	0.03800696
80	0x3eda242e	0.42605728
81	0xbed7a77e	-0.42119974
82	0xbe915438	-0.28384566
83	0x3e8ba6ae	0.27275604
84	0x3d803930	0.06260908
85	0xbed66108	-0.41870904
86	0x3ed7dad2	0.42159134
87	0xbe96890a	-0.29401428
88	0xbdc746b8	-0.097302854
89	0xbe930002	-0.28710943
90	0x3ee5d71c	0.44890678
91	0xbeb9b8a0	-0.3627367
92	0x3e8694f2	0.2628551
93	0x3ed95a38	0.42451644
94	0x3e3f1708	0.1866113
95	0x3e99963a	0.29997426
96	0x3e5ac120	0.21362734
97	0xbcd6ac60	-0.026205242
98	0x3effda20	0.49971104
99	0x3e8a80ea	0.2705148
100	0x3e38e154	0.18054706
101	0x3e058128	0.1303755
102	0x3e9bb894	0.3041426
103	0xbe52a3c8	-0.2057029
104	0x3e04e210	0.12976861
105	0x3de60ea8	0.11233264
106	0xbe8679a8	-0.2626469
107	0xbea7b78c	-0.32757223
108	0x3e2650f8	0.16241825
109	0x3efa5918	0.48896098
110	0xbd42c110	-0.0475474
111	0xbe9cdcc0	-0.3063717
112	0x3efed528	0.49772
113	0xbe341ebc	-0.17589849
114	0xbb840280	-0.0040286183
115	0x3e2361dc	0.15955299
116	0x3e55bed8	0.20873582
117	0x3e113548	0.14180481
118	0xbddf1718	-0.10893077
119	0x3efcb23c	0.49354732
120	0x3e85be16	0.26121587
121	0x3e84daf8	0.2594831
122	0xbedd5acc	-0.43233335
123	0xbec137ae	-0.37737793
124	0xbe82f58c	-0.25577962
125	0xbee1e774	-0.44121897
126	0xbea9ecf0	-0.3318858
127	0x3ee44026	0.4458019
128	0xbde42f40	-0.11141825
129	0xbe280b1c	-0.16410488
130	0x3eaa9d72	0.33323246
131	0xbede99b4	-0.4347664
132	0xbeade95c	-0.33967102
133	0x3ea8793a	0.3290499
134	0x3ed40a96	0.41414326
135	0x3eb7defc	0.3591231
136	0xbebc7f2e	-0.3681578
137	0x3ec9454a	0.39310676
138	0x3e96192a	0.29316074
139	0xbe69853c	-0.22804731
140	0xbd3a5690	-0.04549271
141	0xbee908b0	-0.4551444
142	0xbd75ab70	-0.05997795
143	0x3d0ec1e0	0.034852862
144	0x3edbc274	0.42921793
145	0x3d386980	0.045022488
146	0xbede1f5c	-0.433833
147	0xbef853e4	-0.48501503
148	0xbe7d916c	-0.24762505
149	0x3e9aabfa	0.30209333
150	0xbea187b4	-0.31548846
151	0x3b8ed000	0.0043582916
152	0x3e051b38	0.12998664
153	0x3dc38f60	0.09548831
154	0xbcc0d500	-0.023539066
155	0x3ea129f0	0.31477308
156	0x3ec0941c	0.37612998
157	0xbec4988a	-0.38397628
158	0xbde0a348	-0.109686434
159	0xbec39806	-0.38201922
160	0xbec2f176	-0.38074845
161	0x3e70284c	0.23452872
162	0x3e62cd48	0.22148621
163	0xbb958500	-0.004562974
164	0x3ea35c2c	0.3190626
165	0x3ecb08f2	0.39655262
166	0xbe1da0cc	-0.1539337
167	0x3eb026b2	0.34404522
168	0x3e2481ec	0.16065186
169	0x3ec4d834	0.384462
170	0xbefb31bc	-0.49061382
171	0x3df9eac0	0.12202978
172	0x3ebc32ce	0.3675751
173	0xbeae19a6	-0.34003943
174	0x3ef5441a	0.4790352
175	0xbe2d2314	-0.16907912
176	0x3ed9c9e4	0.42536843
177	0x3e43e15c	0.19128937
178	0x3eef0312	0.4668203
179	0x3e9b8c42	0.30380446
180	0xbe05f598	-0.13081968
181	0x3d174bf0	0.036937654
182	0xbeaaf0de	-0.33386892
183	0x3ea86092	0.32886177
184	0xbcdf3ae0	-0.027249753
185	0x3d542ce0	0.05180061
186	0xbd12c520	-0.035832524
187	0xbd447480	-0.047962666
188	0xbe7f5694	-0.2493537
189	0x3ea73b24	0.32662308
190	0xbd1b36a0	-0.03789389
191	0xbdadb360	-0.08481479
192	0xbe633300	-0.22187424
193	0xbeaa2978	-0.33234763
194	0xbe0b17a0	-0.13583231
195	0xbc068740	-0.008210957
196	0x3eeb3544	0.45939076
197	0x3e26e990	0.16300035
198	0xbe81ab34	-0.2532593
199	0xbed23830	-0.41058493
200	0x3d026470	0.031834066
201	0x3d4bfeb0	0.049803436
202	0xbe9b837c	-0.30373752
203	0xbe57280c	-0.2101137
204	0xbe241b24	-0.16025978
205	0xbeddaf5e	-0.43297857
206	0xbe00c448	-0.12574875
207	0xbe010ad4	-0.12601787
208	0xbc81a680	-0.015826464
209	0x3e00592c	0.12534016
210	0x3d970e18	0.07375735
211	0x3d99a440	0.07502031
212	0xbed124f8	-0.40848517
213	0x3ed46c56	0.41488904
214	0x3d20f380	0.03929472
215	0xbe8d8458	-0.27640033
216	0x3d2b3e20	0.041807294
217	0xbda62320	-0.08112168
218	0x3e94878e	0.2900967
219	0x3c692d40	0.01423198
220	0x3ed31f02	0.41234595
221	0x3ed7604e	0.42065662
222	0xbee29422	-0.4425364
223	0xbe8586ee	-0.26079506
224	0x3ef65400	0.48110962
225	0xbe603894	-0.21896583
226	0x3e89d5ec	0.26921022
227	0xbee6aee8	-0.45055318
228	0x3d295c40	0.041347742
229	0xbebdac2a	-0.37045413
230	0x3eae1776	0.34002274
231	0xbeab63c2	-0.33474547
232	0xbe6d63c8	-0.23182595
233	0x3e46e894	0.19424659
234	0x3eadf26e	0.33974022
235	0x3e553098	0.20819318
236	0x3d90c368	0.07068521
237	0x3e91c188	0.28467965
238	0xbe1b2ca8	-0.15153754
239	0xbe20b26c	-0.15693063
240	0xbef9de96	-0.48802632
241	0xbed0e5a2	-0.40800196
242	0x3e8f9a9a	0.2804764
243	0x3e3fe620	0.1874013
244	0xbec44cac	-0.38339746
245	0xbef09f72	-0.46996647
246	0xbcbd9ae0	-0.02314514
247	0x3ce9b9c0	0.028530955
248	0x3ea0f404	0.3143617
249	0x3ec1aea4	0.37828553
250	0xbe4ec564	-0.20192486
251	0x3efb639c	0.49099433
252	0x3d1d2b70	0.038371503
253	0x3ef3cb84	0.47616208
254	0xbeafb93e	-0.34321016
255	0xbeeedbb8	-0.46652007

layer1.bias f4 [128]
0	0xbe9d0ff0	-0.30676222
1	0x3d102290	0.03518921
2	0xbeccab70	-0.39974546
3	0xbe471e44	-0.19445139
4	0x3eba6bd6	0.36410397
5	0xbe7065ec	-0.2347638
6	0x3dce8fb8	0.10086006
7	0xbda572d0	-0.08078539
8	0x3ec9ea78	0.39436698
9	0xbe0e0e44	-0.1387263
10	0xbdac6138	-0.084169805
11	0x3e84fd78	0.2597463
12	0xbe52049c	-0.20509571
13	0x3dce6e88	0.10079676
14	0xbd6cc9d0	-0.05780965
15	0x3eef01e8	0.46681142
16	0xbe890410	-0.26760912
17	0xbecb5206	-0.39711016
18	0xbeaecd12	-0.3414083
19	0x3d930910	0.07179463
20	0x3e7f6c20	0.2494359
21	0xbe979ce2	-0.2961188
22	0x3eb782f4	0.35842097
23	0xbeb52e1e	-0.35386747
24	0xbdd41ce0	-0.1035707
25	0xbeac8f14	-0.3370291
26	0x3decead0	0.115682244
27	0x3ea7a8f2	0.32746083
28	0xbda3b660	-0.0799377
29	0x3d97a188	0.074038565
30	0xbec0d906	-0.37665576
31	0x3ed07162	0.40711504
32	0xba7ce800	-0.0009647608
33	0xbe85bfbe	-0.2612285
34	0xbe3e6290	-0.18592286
35	0x3e0c27e8	0.13687098
36	0xbe0fe940	-0.14053822
37	0x3ecb1ce0	0.39670467
38	0x3eb13e86	0.34618014
39	0xbda838a0	-0.08213925
40	0x3e8440ae	0.25830597
41	0xbec8d2f4	-0.39223444
42	0x3ee5ff70	0.44921446
43	0xbe755b38	-0.23960578
44	0x3da8b560	0.082377195
45	0x3dcb81d8	0.09936875
46	0xbed4ee5c	-0.41588104
47	0x3cf2e880	0.02965188
48	0x3ec8a17e	0.3918571
49	0x3eb00824	0.3438121
50	0xbed721d2	-0.4201799
51	0x3ec6db4a	0.3883918
52	0x3eefc050	0.4682641
53	0x3e87654a	0.26444465
54	0x3e6d0144	0.23145014
55	0x3e7261cc	0.23670119
56	0x3ec75a6e	0.3893618
57	0xbec7e10c	-0.39038885
58	0x3e1c4a70	0.1526277
59	0xbed2895a	-0.41120416
60	0xbd6e8cb0	-0.05823964
61	0x3e4c4600	0.19948578
62	0x3ee6f1d6	0.4510638
63	0x3ecf4852	0.40484864
64	0x3e4fc2c8	0.20289147
65	0xbeaf3d1e	-0.34226316
66	0xbefcf140	-0.4940281
67	0x3e9eebc8	0.31039262
68	0xbeb88932	-0.36042172
69	0x3d8be770	0.068312526
70	0xbe2e2ca0	-0.1700921
71	0x3e2f5b54	0.17124683
72	0xbe843160	-0.2581892
73	0x38554000	5.0842762e-05
74	0xbdbaac30	-0.091148734
75	0x3b3b9200	0.0028620958
76	0x3eeac710	0.45854998
77	0xbd9fa9f8	-0.07796091
78	0x3e290d60	0.16509008
79	0xbe769838	-0.24081504
80	0xbe83c5d8	-0.2573688
81	0xbe4910c0	-0.19635296
82	0x3e8d402e	0.27588028
83	0x3ee843fa	0.45364362
84	0xbe1dc338	-0.15406501
85	0xbe29ef38	-0.16595161
86	0xbedc0760	-0.42974377
87	0x3ebd0206	0.36915606
88	0xbd9239b8	-0.07139915
89	0xbca4ade0	-0.020102441
90	0x3eda3c06	0.4262392
91	0x3ef15744	0.4713689
92	0x3e8cd8ac	0.27509058
93	0xbe3fa4f4	-0.18715268
94	0x3ee6c86c	0.45074785
95	0x3effa354	0.49929297
96	0x3db12008	0.086486876
97	0x3e1589b4	0.14603311
98	0xbe0c0260	-0.13672781
99	0x3eeb1ee4	0.45922005
100	0x3d83f370	0.064429164
101	0xbea69cba	-0.32541448
102	0xbe9e7186	-0.30945987
103	0xbefa922c	-0.48939645
104	0x3efee46e	0.49783653
105	0x3e442fc4	0.19158846
106	0x3e57f61c	0.21089977
107	0xbe9ae128	-0.30249906
108	0xbede36e6	-0.4340126
109	0x3d67d950	0.05660373
110	0xbcb2f500	-0.02184534
111	0xbed6fc18	-0.41989207
112	0xbea4ad44	-0.3216344
113	0xbdd17978	-0.102282465
114	0x3db36e70	0.08761299
115	0x3e3dc0a4	0.18530518
116	0xbe13a5ec	-0.14418763
117	0xbd878ce0	-0.06618667
118	0xbe3dfdc8	-0.18553841
119	0x3d9e4390	0.0772773
120	0xbe00a730	-0.12563777
121	0x3db56a68	0.08858186
122	0x3e9bff10	0.30468035
123	0xbd9970f8	-0.0749225
124	0xbe2aaac8	-0.1666671
125	0xbeba5694	-0.3639418
126	0x3e0bb7dc	0.13644356
127	0x3eb9e97e	0.36310953

layer2.weight f4 [128, 128]
0	0xbd84ee68	-0.06490785
1	0x3d6a66af	0.057226833
2	0xbda67ef0	-0.0812968
3	0x3da5e51f	0.08100342
4	0x3d95ad83	0.07308485
5	0x3d87fbdb	0.066398345
6	0xbdb31ec8	-0.087461054
7	0x3d2ec971	0.04267258
8	0xbdb04643	-0.08607151
9	0xbd7188eb	-0.058968466
10	0xba89d71a	-0.0010516376
11	0xbd29aeb5	-0.04142638
12	0x3c9d5763	0.019206708
13	0x3c6e2cd8	0.014537059
14	0x3d56f80e	0.052482657
15	0xbd8f2702	-0.06989862
16	0x3d9494ff	0.07254981
17	0xbd35a867	-0.044350054
18	0x3da1d7b6	0.07902472
19	0xbd42ea15	-0.04758652
20	0x3cbc535b	0.022988966
21	0xbc11fc8a	-0.008910308
22	0x3c4694c7	0.012120432
23	0x3c286e93	0.010280269
24	0xbd8c61d1	-0.068545945
25	0x3d568e13	0.052381586
26	0x3d28b546	0.0411885
27	0x3d748972	0.05970139
28	0xbcd159f7	-0.025555594
29	0x3b872b82	0.0041250596
30	0xba0ce858	-0.0005375198
31	0x3da78f73	0.08181658
32	0x3c3bf298	0.011471413
33	0x3da506e8	0.08057958
34	0xbdb4b0b6	-0.088227674
35	0xbd5a5473	-0.053303193
36	0x392e77b1	0.00016638522
37	0x3c9b5415	0.018960992
38	0xbcaa779a	-0.020808984
39	0xbd07a562	-0.033116706
40	0xbd4aa722	-0.049475797
41	0x3db462a0	0.08807874
42	0x3d4f687e	0.05063676
43	0xbd938276	-0.07202618
44	0xbc306eee	-0.010768635
45	0xbd867be4	-0.06566599
46	0x3d1bf3de	0.038074367
47	0xbd896083	-0.06707861
48	0xbd1bc314	-0.038027838
49	0x3c800666	0.015628051
50	0xbd23a898	-0.039955705
51	0x3d44152b	0.04787175
52	0x3d4909c0	0.049081564
53	0xbd0a8871	-0.033821527
54	0x3d03c39f	0.03216898
55	0x3d7628a0	0.060097337
56	0xbda9a335	-0.082830824
57	0xbd9a4b41	-0.07533885
58	0xbd9f0215	-0.07764069
59	0x3d7b9669	0.06142274
60	0x3b8e12be	0.0043357303
61	0xbc2915f0	-0.010320172
62	0x3c9e2fa1	0.01930982
63	0xbc466874	-0.0121098645
64	0xbd1967a9	-0.037452374
65	0xbd1b98fb	-0.03798769
66	0x3d4d0585	0.050054092
67	0x3d5d0fad	0.053970028
68	0xbd9d08fa	-0.07667728
69	0xbd97ecc6	-0.07418208
70	0xbd19c03d	-0.03753685
71	0x3cce45f6	0.025179844
72	0x3db1db58	0.086844146
73	0xbcbb90d0	-0.0228962
74	0x3a975333	0.0011545181
75	0xbd0caaf3	-0.034342717
76	0xbc8d1ca0	-0.017225564
77	0x3d79a545	0.06094863
78	0x3c2a84e2	0.010407658
79	0x3cf09b0e	0.02937081
80	0x3d5c4b6f	0.053782877
81	0xbd07f37f	-0.0331912
82	0x3d9fb38d	0.077979185
83	0xbda66416	-0.08124559
84	0xbda2f2ae	-0.07956444
85	0x3dad65b6	0.084666654
86	0xbcd968a4	-0.026539154
87	0x3d8d261a	0.06892033
88	0x3d2edac9	0.04268912
89	0xbd7cecf9	-0.061749432
90	0xbc543c68	-0.012953855
91	0xbd3c0bad	-0.045909572
92	0x3d897fac	0.067138046
93	0x3da2a596	0.07941739
94	0x3bbcc819	0.005761158
95	0x3d98cf98	0.0746147
96	0x3dae1224	0.08499554
97	0x3db13e23	0.0865443
98	0xbd71838a	-0.058963336
99	0xbda64c97	-0.08120077
100	0xbdb3c229	-0.087772675
101	0x3c2a9898	0.010412358
102	0x3cd05cdd	0.025434906
103	0xbd0eb131	-0.03483695
104	0xbd95a5a3	-0.07306983
105	0x3d668949	0.05628327
106	0x3cb6c4c5	0.022310624
107	0x3d7bd6d0	0.061484158
108	0x3d9d465a	0.07679434
109	0x3d1d1f95	0.038360197
110	0xbbbf9c16	-0.0058474643
111	0xbcd298b7	-0.025707586
112	0x3ce0d8a2	0.027447049
113	0x3c710711	0.014711157
114	0xbd6865fc	-0.056737885
115	0xbd907478	-0.07053465
116	0xbc37da93	-0.011221546
117	0x3d9c2db6	0.07625906
118	0x3db48169	0.088137455
119	0xbdada4ad	-0.08478675
120	0xbcd0aa83	-0.025471931
121	0xbb62ff73	-0.0034637123
122	0x3d01c881	0.031685356
123	0x3cf10990	0.029423505
124	0x3d462273	0.048372697
125	0x3b631750	0.0034651347
126	0x3c1788fb	0.009248967
127	0xbdab17b4	-0.083541304
128	0x3a490467	0.00076681975
129	0x3d7bb98c	0.06145625
130	0xbd70eb33	-0.058818053
131	0xba24c948	-0.0006286097
132	0x3d06158f	0.032735404
133	0x3dae1f5a	0.085020736
134	0xbcd95c44	-0.026533253
135	0xbceef69d	-0.029170329
136	0xbcead528	-0.028666094
137	0xbd69a4c8	-0.057041913
138	0xbd568b3d	-0.05237888
139	0x3d8ee413	0.069770955
140	0x3cd4577f	0.025920628
141	0xbd4bc7c9	-0.049751077
142	0xbd407c51	-0.046993557
143	0xbcc2e7cc	-0.02379217
144	0xbce324f2	-0.027727578
145	0x3d753a4f	0.05987006
146	0xbdad9849	-0.08476312
147	0xbc108691	-0.008821146
148	0x3c70818e	0.014679326
149	0xbd12d49a	-0.035847284
150	0xbc60ab50	-0.013712719
151	0x3c96862e	0.018374529
152	0x3d69a657	0.0570434
153	0x3d451e36	0.048124515
154	0xbd81bc38	-0.06334728
155	0xbd48ff00	-0.049071312
156	0x3d59bedd	0.053160537
157	0xbd8d352f	-0.068949096
158	0x3d77e43a	0.06052039
159	0x3ca55be0	0.020185411
160	0xbd37c04d	-0.044861127
161	0x3d0e395f	0.034722682
162	0xbd05d9a5	-0.032678265
163	0xbd4ac403	-0.049503338
164	0x3d67ba61	0.05657423
165	0x3d7b9c11	0.061428133
166	0xbd4c8e6a	-0.049940504
167	0xbce456ed	-0.02787348
168	0xbcc6b231	-0.02425489
169	0xbd5e9869	-0.05434457
170	0x3cae8312	0.021302734
171	0xbca97ea8	-0.020690277
172	0xbd60b9be	-0.054864638
173	0x3c239a99	0.009985589
174	0xbd1ad9aa	-0.037805237
175	0xbcb8af37	-0.022544486
176	0x3ce130ef	0.027489154
177	0x3d9db83a	0.07701154
178	0xbd2b08a0	-0.041756272
179	0x3d22ec46	0.03977611
180	0x3d51f5e7	0.0512599
181	0xbc5c22ff	-0.013436078
182	0x3d5024e2	0.050816424
183	0x3cb56a93	0.022145545
184	0xbd40f2cd	-0.047106553
185	0xbc9207f6	-0.017826062
186	0xbd7139a8	-0.058892876
187	0x3d2c2580	0.04202795
188	0xbc985233	-0.018593883
189	0xbb534d23	-0.0032242022
190	0x3d9b6b21	0.075887926
191	0x3cedb96e	0.029019084
192	0x3d4b1387	0.04957917
193	0x3d591e29	0.05300728
194	0xbd4d688c	-0.05014853
195	0x3cd429de	0.02589887
196	0xbd28e304	-0.041232124
197	0xbd339d44	-0.043851152
198	0x3c82215e	0.015885051
199	0x3d807c3f	0.06273698
200	0x3d7fa30d	0.062411357
201	0xbbc4c38c	-0.0060047563
202	0xbc7982f1	-0.015228973
203	0xbd246699	-0.040136907
204	0xbc1fb9e8	-0.009748913
205	0xbd3fadbe	-0.046796553
206	0xbcba9280	-0.022774935
207	0xbd360a67	-0.044443514
208	0xbbb06ecc	-0.0053843018
209	0xbce9db59	-0.028546976
210	0x3dafd88a	0.085862234
211	0xbdb27d35	-0.087152876
212	0xbd8bfd99	-0.06835479
213	0x3cc7b585	0.024378547
214	0xbd9fc085	-0.07800392
215	0x3cca9a37	0.024731738
216	0x3cee9158	0.02912204
217	0x3d39ac31	0.04533023
218	0x3bfd4589	0.0077292365
219	0x3d322d12	0.043500014
220	0xbd7250e3	-0.05915917
221	0xba54731e	-0.0008104312
222	0xbcbb7dca	-0.02288713
223	0xbc5f7f69	-0.013641217
224	0xbb4d8858	-0.0031361785
225	0x3d40b26b	0.047045153
226	0xbcd140aa	-0.02554353
227	0x3cb54dce	0.022131827
228	0xbd9335bb	-0.07187983
229	0x3d45772a	0.048209347
230	0x3d61235b	0.05496536
231	0xbd14caae	-0.036326103
232	0x3d457831	0.048210327
233	0xbd4b0ca2	-0.049572594
234	0xbd26b83f	-0.040703055
235	0x3d5fde95	0.05465563
236	0xbb0cb6ac	-0.0021471186
237	0x3cb27b3b	0.021787276
238	0xbd3e0133	-0.046387862
239	0xbc35018c	-0.011047732
240	0x3d94c84c	0.07264766
241	0x3da2b90a	0.0794545
242	0xbd720403	-0.059085857
243	0xbd8aa8dc	-0.067704886
244	0x3d7b9b38	0.061427325
245	0xbc87e10f	-0.016586808
246	0x3bdb861b	0.006699336
247	0xbd91fa22	-0.07127787
248	0x3d968d75	0.073511995
249	0xbd3248e1	-0.043526534
250	0x3d8bf810	0.068344235
251	0xbd11c99a	-0.035592653
252	0x3dadd7c4	0.0848842
253	0x3b525b4f	0.0032097881
254	0xbd98513b	-0.074373685
255	0xba41fe3b	-0.0007400249

layer2.bias f4 [128]
0	0xbd54a361	-0.051913623
1	0xbc047e8b	-0.008086811
2	0xbd81621d	-0.06317542
3	0xbd9749fd	-0.07387159
4	0xbd46463f	-0.048406836
5	0xbdb4716b	-0.08810695
6	0x3c0edf0e	0.008720173
7	0xbd1bc71f	-0.038031694
8	0x3d5ae80e	0.05344396
9	0x3d1635cb	0.036672395
10	0xbd2afd8b	-0.041745704
11	0x3cc2b7f5	0.023769358
12	0x3d01a41f	0.03165066
13	0x3d7e3dcf	0.062070664
14	0x3d10364f	0.035208043
15	0xbd81d373	-0.06339159
16	0xbcea9552	-0.028635655
17	0x3ceb0a36	0.028691392
18	0x3c50c78d	0.012742889
19	0xbd42cb94	-0.04755743
20	0x3d386834	0.04502125
21	0xbc113c78	-0.0088645145
22	0x3d6e9755	0.05824979
23	0x3d40d9dd	0.04708277
24	0x3da384cf	0.079843156
25	0x3ca115b7	0.019663675
26	0xbd473c2d	-0.048641372
27	0x3c813e2b	0.015776714
28	0x3bda2f9a	0.0066585066
29	0xbdad4d67	-0.08462029
30	0xbdb0d215	-0.0863382
31	0x3d999100	0.0749836
32	0x3d840cc6	0.06447749
33	0x3b973b99	0.004615259
34	0xbd4c57ba	-0.04988835
35	0xbd97c64a	-0.074108675
36	0x3d07444a	0.03302411
37	0x3caae82a	0.020862658
38	0x3d81d657	0.0633971
39	0x3d0d067c	0.034430012
40	0x3d09cbe9	0.03364173
41	0x3d73e354	0.05954297
42	0xbd44c863	-0.048042666
43	0x3b2a0e71	0.002594855
44	0x3d56a993	0.052407812
45	0x3d61ff6c	0.05517523
46	0x3d2a2c4f	0.041546162
47	0x3d497aa8	0.04918924
48	0xbcbc1cef	-0.022963015
49	0x3da503ff	0.08057403
50	0x3cca2454	0.024675526
51	0x3d57dcc2	0.052700765
52	0x3cef6d62	0.029226962
53	0x3b0083e9	0.0019609875
54	0xbda6e0ab	-0.08148321
55	0x3d43d368	0.047809035
56	0x3da77c0a	0.081779554
57	0xbbfd7889	-0.007735316
58	0xbdaae219	-0.08343906
59	0x3d2295a4	0.03969349
60	0x3d94747e	0.072487816
61	0xbd20a1d4	-0.03921683
62	0xbda61bc3	-0.08110764
63	0xbd91def9	-0.07122607
64	0xbd07f9f0	-0.033197343
65	0xbd206abd	-0.039164294
66	0x3c96e9f3	0.018422103
67	0x3c22fb30	0.009947583
68	0x3d2ebfe8	0.042663485
69	0x3cc01f96	0.023452561
70	0xbd3ee336	-0.046603404
71	0xbc0a93a3	-0.008458051
72	0xbd1ae257	-0.03781351
73	0x3d386cb6	0.04502555
74	0x3c47c38d	0.012192619
75	0xbc1edd4a	-0.009696314
76	0x3d18aee5	0.037276167
77	0xbce1d682	-0.027568106
78	0x3d89da79	0.067311235
79	0x3c98c5b9	0.018648969
80	0x3a8795c0	0.0010344312
81	0x3da84ee2	0.08218171
82	0x3ca01a40	0.019543767
83	0xbd451ccc	-0.048123166
84	0x3d97bb90	0.074088216
85	0xbd17d461	-0.037067775
86	0xbd08baca	-0.03338126
87	0xbdaec87f	-0.08534335
88	0x3cd6023c	0.026124112
89	0xbcc54120	-0.024078906
90	0x3c86b0f5	0.016441802
91	0xbd9b0c47	-0.07570701
92	0x3b410a47	0.0029455589
93	0x3d2bd8fd	0.041954983
94	0xbd46b5fb	-0.048513394
95	0x3d2f73e6	0.04283514
96	0xbd0658e1	-0.032799605
97	0xbd7c8bb0	-0.061656654
98	0x3db2dfd6	0.087340996
99	0x3d481a9d	0.048853505
100	0x3d63ec08	0.05564502
101	0x3da0d476	0.07853024
102	0xbd922e58	-0.071377456
103	0xbd8151cd	-0.063144304
104	0x3d1218ae	0.035668068
105	0x3d93e172	0.07220735
106	0x3d3edd52	0.046597786
107	0xbdb2fa61	-0.08739162
108	0x3d70d2e2	0.058794864
109	0x3c5aab14	0.013346452
110	0xbd281ab5	-0.041041095
111	0xbcebe789	-0.028796928
112	0x3d17b404	0.03703691
113	0x3d74827c	0.059694752
114	0xbd966cf8	-0.07345003
115	0x3c846910	0.016163379
116	0x3d012d38	0.031537265
117	0x3d8f575e	0.06999086
118	0x3ce71115	0.028206388
119	0xbcf2180d	-0.029552484
120	0x3c440391	0.011963741
121	0xbb7439ac	-0.003726582
122	0xbd6b98e5	-0.05751886
123	0x3da5ad6e	0.0808972
124	0xbd80070a	-0.062513426
125	0x3d854929	0.06508095
126	0xbc8a336d	-0.016870225
127	0x3daf3fba	0.08557077

layer3.weight f4 [4, 128]
0	0x3d058563	0.03259791
1	0xbccdede7	-0.025137855
2	0x3a08eb48	0.0005223048
3	0xbd1f5360	-0.038897872
4	0x3ca5ac44	0.020223744
5	0x3dae2a56	0.08504169
6	0x3d15a41e	0.036533467
7	0xbd5c4a10	-0.05378157
8	0x3c5cb31d	0.013470438
9	0xbd9ff2ff	-0.0781002
10	0x3db0e2c1	0.08637
11	0x3d47eaff	0.048808094
12	0x3d9bde8e	0.07610808
13	0x3d7b7d49	0.061398778
14	0xbda33078	-0.07968229
15	0x3d6f5a78	0.058435887
16	0xbcc2a55a	-0.023760486
17	0x3da605ec	0.08106598
18	0x3d46495a	0.048409797
19	0xbabefeaa	-0.0014571745
20	0xbc86da0f	-0.0164614
21	0xbd1f080c	-0.038826033
22	0x3d9befb9	0.07614083
23	0xbb6b6ef4	-0.0035924288
24	0x3d9c2f30	0.07626188
25	0x3bd6e1ba	0.0065576704
26	0xbd9322b4	-0.071843535
27	0x3c988c01	0.018621447
28	0x3d4eef47	0.05052116
29	0x3ba82d6f	0.005132369
30	0xbd6ec605	-0.058294315
31	0x3d445567	0.04793301
32	0x3da981b1	0.0827669
33	0x3c5eb8d9	0.013593876
34	0x3ca6567a	0.020304907
35	0xbd456c37	-0.048198905
36	0xbcf8eccb	-0.03038635
37	0xbcfe4b25	-0.031041691
38	0x3d22a9ed	0.039712835
39	0xbd3a68f2	-0.04551024
40	0x3cedb3b5	0.029016355
41	0x3d92354a	0.0713907
42	0x3d02a59c	0.03189622
43	0x3d8e4bed	0.069480754
44	0xbc85bec6	-0.01632632
45	0xbd1b4646	-0.037908815
46	0xbb3c4ea7	-0.0028733404
47	0xbd954a7b	-0.07289597
48	0x3c432c79	0.011912459
49	0xbd4451b7	-0.04792949
50	0x3d095ee8	0.033537775
51	0xbd7d50f9	-0.0618448
52	0x3d1b6001	0.037933353
53	0x3d9edfd2	0.07757534
54	0xbd332a9d	-0.04374181
55	0x3c712b37	0.014719776
56	0xbd51fef1	-0.05126852
57	0xbd7490d0	-0.059708416
58	0xbd64443b	-0.055729132
59	0x3c53be0e	0.012923731
60	0x3da52dcb	0.08065375
61	0x3d541f80	0.051787853
62	0xbcaeb6d3	-0.021327412
63	0xbdaf97ea	-0.08573897
64	0x3d900b14	0.07033363
65	0x3d1f1b9b	0.038844686
66	0x3d3ab575	0.045583207
67	0x3ce822b6	0.028336864
68	0xbd950b99	-0.07277603
69	0x3cfbcf42	0.030738477
70	0xbd59271f	-0.053015824
71	0xbd0f3aa3	-0.03496803
72	0x3d87aff9	0.06625361
73	0x3c41fd20	0.011840135
74	0xbc49bd2e	-0.01231317
75	0xbbe490bb	-0.006975261
76	0xbc129bd0	-0.008948281
77	0x3da2a7f0	0.07942188
78	0xbd738373	-0.05945153
79	0x3cc6232d	0.024186695
80	0x3d119c2c	0.035549328
81	0xbbad9a8b	-0.005297964
82	0xbd6e9e75	-0.058256585
83	0xbd2dd0a3	-0.0424353
84	0xbdabcf1e	-0.08389114
85	0xbc825700	-0.015910625
86	0x3a015591	0.000493371
87	0x3d6a610c	0.057221457
88	0x3d93fad6	0.072255775
89	0x3d14a5f8	0.036291093
90	0x3da911e8	0.082553685
91	0xbd930076	-0.07177822
92	0xbd4476ae	-0.047964744
93	0xbd48283a	-0.048866488
94	0x3d948d7a	0.07253547
95	0x3d94bc84	0.07262519
96	0xbd89975c	-0.06718323
97	0x3d376f9a	0.044784166
98	0xbc25302b	-0.010082285
99	0x3d607d95	0.054807264
100	0xbd680f77	-0.056655373
101	0xbd92f438	-0.07175487
102	0xbd90205b	-0.07037421
103	0xbd0674ff	-0.03282642
104	0xbcff2ded	-0.031149829
105	0x3d69b522	0.057057507
106	0x3d5be416	0.053684317
107	0xbc1ad35e	-0.009449808
108	0x3da015d1	0.07816661
109	0x3d48f333	0.049060058
110	0xbd857184	-0.06515792
111	0xbd5ba891	-0.053627554
112	0x3d49627b	0.049166184
113	0x3d14ac0e	0.036296897
114	0x3da18f63	0.07888677
115	0x3cedbd36	0.029020887
116	0x3d82309c	0.06356928
117	0x3d0b5d70	0.034024656
118	0xbd83a0c5	-0.06427149
119	0xbbc2a70d	-0.005940324
120	0x3d314b70	0.043284833
121	0x3c06f8f3	0.008238065
122	0xbd91bca9	-0.07116062
123	0xbcbae88c	-0.022815965
124	0xbd62e0e1	-0.055390242
125	0x3d8053ec	0.06266007
126	0x3d092e7b	0.033491593
127	0xbd6cb8fc	-0.057793602
128	0xbd9b5761	-0.075850256
129	0xbbb77159	-0.005598229
130	0xbd08e053	-0.033417057
131	0x3d9d3c37	0.07677501
132	0xbce99fff	-0.028518675
133	0xbd812745	-0.06306318
134	0xbc9cf84e	-0.01916137
135	0xbdb0ac68	-0.08626634
136	0x3d5edcfd	0.05440997
137	0xbd93dc69	-0.07219774
138	0x3d1df27d	0.038561333
139	0x3d613daa	0.054990448
140	0x3d1e8ae7	0.038706686
141	0xbdab8891	-0.08375657
142	0x3d46078b	0.048347037
143	0x3d90762a	0.07053788
144	0x3d4557d4	0.048179463
145	0xbb8e409e	-0.004341199
146	0xbc5d7ff4	-0.013519276
147	0x3cbc0467	0.022951318
148	0xbd374f27	-0.04475322
149	0x3ce4e6a5	0.027942011
150	0xbd94829f	-0.072514765
151	0xbdad12eb	-0.08450874
152	0x3b92aeba	0.0044763954
153	0x3d83c4f6	0.06434052
154	0xbd9e3808	-0.07725531
155	0xbcf63c3a	-0.030058015
156	0xba8af904	-0.0010602777
157	0x3caefd18	0.021360919
158	0xbc7c2e5d	-0.015391913
159	0xbba2b5fb	-0.0049655414
160	0x3ce4a1b4	0.027909137
161	0x3d78f7c4	0.060783163
162	0xbd98560e	-0.07438289
163	0x3da197f2	0.078903094
164	0x3d61a503	0.055089008
165	0xbdaee01b	-0.085388385
166	0xbd7f2193	-0.06228788
167	0xbd4c8038	-0.049926966
168	0xbbbd1433	-0.00577023
169	0x3d1f9586	0.038960956
170	0xbc409fdc	-0.011756863
171	0xbc20cc88	-0.009814389
172	0xbc22f1b0	-0.009945318
173	0x3d1bc059	0.038025234
174	0x3d5f4c61	0.0545162
175	0x3d360e2e	0.044447117
176	0xbce0d8bf	-0.027447103
177	0x3d71decc	0.059050366
178	0xbc48a820	-0.012247115
179	0x3d364a08	0.044504195
180	0xbcf62b58	-0.030049965
181	0x3ce92acb	0.028462788
182	0xbd580f7e	-0.05274915
183	0x3d90d9a2	0.0707276
184	0xbc25e294	-0.010124821
185	0xbd82551f	-0.06363892
186	0xbbe0f173	-0.0068647205
187	0xbd1c961b	-0.03822909
188	0xbcf64976	-0.030064326
189	0xbdab4766	-0.083632275
190	0xbca63856	-0.020290535
191	0xbd57cd23	-0.052685868
192	0xbcfc1625	-0.030772278
193	0xbd5d1c46	-0.05398204
194	0x3c846215	0.01616005
195	0x3db1f06c	0.08688435
196	0xbb2e019b	-0.002655125
197	0xbd728432	-0.059208103
198	0x3bb76170	0.0055963323
199	0x3d1263f9	0.035739873
200	0x3cbea7d3	0.023273384
201	0xbd6dc5ac	-0.058049843
202	0x3da2b78b	0.07945164
203	0x3db26fd6	0.08712737
204	0xbd537fc3	-0.051635515
205	0x3d57ba33	0.052667808
206	0x3db4c0be	0.08825825
207	0x3da3204c	0.079651445
208	0x3c285e01	0.0102763185
209	0xbd971b69	-0.07378275
210	0xbc0dc9de	-0.008654086
211	0x3d8747c4	0.06605485
212	0x3d3d51ea	0.046220697
213	0xbbb82f35	-0.005620862
214	0x3d1882f7	0.037234273
215	0x3d8d28a9	0.06892521
216	0x3cba82b3	0.0227674
217	0xbc954084	-0.01821924
218	0xbd88ed1f	-0.06685852
219	0x3c31ead3	0.010859209
220	0xbb9aec1e	-0.0047278544
221	0x3cbaafde	0.022788938
222	0xbd928f7d	-0.071562745
223	0xbd736f6b	-0.05943243
224	0x3d4640b6	0.048401557
225	0x3d87042f	0.06592595
226	0x3d1d0c9f	0.038342115
227	0xbd93e0aa	-0.07220586
228	0xbd8197f2	-0.063278094
229	0x3d6fa87c	0.05851029
230	0x3d966861	0.073441274
231	0xbd49fffa	-0.049316384
232	0xbc1b7d35	-0.009490301
233	0xbc604463	-0.01368818
234	0x3d7cdef1	0.06173605
235	0x3d14b602	0.03630639
236	0xbd39bcc7	-0.045346048
237	0x3c5d3111	0.013500468
238	0x3d0be917	0.03415784
239	0xbc1e2933	-0.009653377
240	0xbd51297f	-0.051064964
241	0x3d7a8419	0.061161134
242	0xbd9c682d	-0.076370575
243	0x3c86d127	0.016457153
244	0xbc9fec0c	-0.019521736
245	0xbda2be44	-0.079464465
246	0xbd8759fd	-0.06608961
247	0x3d551c6a	0.05202905
248	0xbd12bffc	-0.03582762
249	0xbd580658	-0.052740425
250	0x3da7c4cb	0.08191832
251	0x3d9dadd3	0.0769917
252	0xbd86f8b8	-0.06590408
253	0xbd5b9582	-0.05360938
254	0x3ba1798d	0.00492782
255	0x3d9d7d03	0.0768986

layer3.bias f4 [4]
0	0xbd8a907b	-0.06765839
1	0xbda10e1d	-0.0786402
2	0xbd80d40d	-0.062904455
3	0xbcf1a789	-0.029498832

layer1.weight f4 [128, 4]
0	0xbe1c4bac	-0.15263242
1	0xbe157648	-0.14595902
2	0x3ed7d2a4	0.42152894
3	0x3eebaed6	0.46031827
4	0xbeb39a5e	-0.3507871
5	0xbef1c7be	-0.47222704
6	0x3eb88f8e	0.36047024
7	0x3e2ed1d8	0.17072237
8	0xbed0ebdc	-0.40804946
9	0x3e1eb234	0.15497667
10	0xbe411864	-0.1885696
11	0xbed0db46	-0.40792292
12	0xbe2d5b24	-0.16929299
13	0xbebf2856	-0.3733546
14	0xbee138a8	-0.43988538
15	0xbeceea44	-0.40413105
16	0xbe038c38	-0.12846458
17	0x3ebd30a2	0.36951166
18	0xbe9d7d8a	-0.3075984
19	0xbcf84460	-0.030306041
20	0x3ddd4b68	0.10805398
21	0x3db26be8	0.08711988
22	0xbe416e18	-0.18889654
23	0xbeed27de	-0.4631948
24	0x3df71248	0.12064034
25	0xbdcf6bc0	-0.101279736
26	0xbea597f8	-0.32342505
27	0x3ea824f6	0.328407
28	0x3e11da84	0.14243513
29	0x3e220598	0.15822446
30	0x3c7f7000	0.015590668
31	0xbcede020	-0.029037535
32	0xbd041e50	-0.03225547
33	0x3ebae776	0.36504716
34	0xbefd2990	-0.49445772
35	0xbef32ee0	-0.474967
36	0x3de13590	0.10996544
37	0xbe930884	-0.28717434
38	0x3d42cb10	0.047556937
39	0x3e93bdbe	0.288557
40	0xbe887e1a	-0.26658708
41	0x3d092670	0.033483922
42	0xbddf58b0	-0.10905588
43	0xbeb3a024	-0.35083115
44	0x3d330110	0.043702185
45	0xbe48e138	-0.19617164
46	0x3dfd1f38	0.1235947
47	0xbe30f50c	-0.17280978
48	0x3e920a1a	0.28523332
49	0x3ebc6668	0.3679688
50	0xbed66cc4	-0.41879857
51	0xbe8d4d0e	-0.2759785
52	0x3ee2c3be	0.44289964
53	0xbe4787d4	-0.19485408
54	0x3e641cd0	0.22276616
55	0x3e6686b0	0.22512317
56	0x3ed950fa	0.42444593
57	0xbe8cc7e4	-0.27496254
58	0x3e9127f2	0.28350788
59	0xbecc8a8c	-0.39949453
60	0x3eada446	0.33914393
61	0xbe5bd624	-0.21468407
62	0xbe6afb6c	-0.22947472
63	0x3ee581a2	0.44825464
64	0x3df119f8	0.11772531
65	0xbe25f39c	-0.16206211
66	0x3e7dba24	0.24778038
67	0xbbca1b00	-0.0061677694
68	0x3e8ec986	0.27888125
69	0x3d4a2630	0.049352825
70	0xbe2c715c	-0.16840118
71	0xbd8c2e90	-0.068448186
72	0x3ed6fe7e	0.41991037
73	0xbea2c2a0	-0.31789112
74	0xbeb04f46	-0.3443548
75	0x3e9a928e	0.30189937
76	0xbe4ded98	-0.20110166
77	0x3e6e13f8	0.23249805
78	0x3ea1b89e	0.31586164
79	0x3d1bad30	0.03800696
80	0x3eda242e	0.42605728
81	0xbed7a77e	-0.42119974
82	0xbe915438	-0.28384566
83	0x3e8ba6ae	0.27275604
84	0x3d803930	0.06260908
85	0xbed66108	-0.41870904
86	0x3ed7dad2	0.42159134
87	0xbe96890a	-0.29401428
88	0xbdc746b8	-0.097302854
89	0xbe930002	-0.28710943
90	0x3ee5d71c	0.44890678
91	0xbeb9b8a0	-0.3627367
92	0x3e8694f2	0.2628551
93	0x3ed95a38	0.42451644
94	0x3e3f1708	0.1866113
95	0x3e99963a	0.29997426
96	0x3e5ac120	0.21362734
97	0xbcd6ac60	-0.026205242
98	0x3effda20	0.49971104
99	0x3e8a80ea	0.2705148
100	0x3e38e154	0.18054706
101	0x3e058128	0.1303755
102	0x3e9bb894	0.3041426
103	0xbe52a3c8	-0.2057029
104	0x3e04e210	0.12976861
105	0x3de60ea8	0.11233264
106	0xbe8679a8	-0.2626469
107	0xbea7b78c	-0.32757223
108	0x3e2650f8	0.16241825
109	0x3efa5918	0.48896098
110	0xbd42c110	-0.0475474
111	0xbe9cdcc0	-0.3063717
112	0x3efed528	0.49772
113	0xbe341ebc	-0.17589849
114	0xbb840280	-0.0040286183
115	0x3e2361dc	0.15955299
116	0x3e55bed8	0.20873582
117	0x3e113548	0.14180481
118	0xbddf1718	-0.10893077
119	0x3efcb23c	0.49354732
120	0x3e85be16	0.26121587
121	0x3e84daf8	0.2594831
122	0xbedd5acc	-0.43233335
123	0xbec137ae	-0.37737793
124	0xbe82f58c	-0.25577962
125	0xbee1e774	-0.44121897
126	0xbea9ecf0	-0.3318858
127	0x3ee44026	0.4458019
128	0xbde42f40	-0.11141825
129	0xbe280b1c	-0.16410488
130	0x3eaa9d72	0.33323246
131	0xbede99b4	-0.4347664
132	0xbeade95c	-0.33967102
133	0x3ea8793a	0.3290499
134	0x3ed40a96	0.41414326
135	0x3eb7defc	0.3591231
136	0xbebc7f2e	-0.3681578
137	0x3ec9454a	0.39310676
138	0x3e96192a	0.29316074
139	0xbe69853c	-0.22804731
140	0xbd3a5690	-0.04549271
141	0xbee908b0	-0.4551444
142	0xbd75ab70	-0.05997795
143	0x3d0ec1e0	0.034852862
144	0x3edbc274	0.42921793
145	0x3d386980	0.045022488
146	0xbede1f5c	-0.433833
147	0xbef853e4	-0.48501503
148	0xbe7d916c	-0.24762505
149	0x3e9aabfa	0.30209333
150	0xbea187b4	-0.31548846
151	0x3b8ed000	0.0043582916
152	0x3e051b38	0.12998664
153	0x3dc38f60	0.09548831
154	0xbcc0d500	-0.023539066
155	0x3ea129f0	0.31477308
156	0x3ec0941c	0.37612998
157	0xbec4988a	-0.38397628
158	0xbde0a348	-0.109686434
159	0xbec39806	-0.38201922
160	0xbec2f176	-0.38074845
161	0x3e70284c	0.23452872
162	0x3e62cd48	0.22148621
163	0xbb958500	-0.004562974
164	0x3ea35c2c	0.3190626
165	0x3ecb08f2	0.39655262
166	0xbe1da0cc	-0.1539337
167	0x3eb026b2	0.34404522
168	0x3e2481ec	0.16065186
169	0x3ec4d834	0.384462
170	0xbefb31bc	-0.49061382
171	0x3df9eac0	0.12202978
172	0x3ebc32ce	0.3675751
173	0xbeae19a6	-0.34003943
174	0x3ef5441a	0.4790352
175	0xbe2d2314	-0.16907912
176	0x3ed9c9e4	0.42536843
177	0x3e43e15c	0.19128937
178	0x3eef0312	0.4668203
179	0x3e9b8c42	0.30380446
180	0xbe05f598	-0.13081968
181	0x3d174bf0	0.036937654
182	0xbeaaf0de	-0.33386892
183	0x3ea86092	0.32886177
184	0xbcdf3ae0	-0.027249753
185	0x3d542ce0	0.05180061
186	0xbd12c520	-0.035832524
187	0xbd447480	-0.047962666
188	0xbe7f5694	-0.2493537
189	0x3ea73b24	0.32662308
190	0xbd1b36a0	-0.03789389
191	0xbdadb360	-0.08481479
192	0xbe633300	-0.22187424
193	0xbeaa2978	-0.33234763
194	0xbe0b17a0	-0.13583231
195	0xbc068740	-0.008210957
196	0x3eeb3544	0.45939076
197	0x3e26e990	0.16300035
198	0xbe81ab34	-0.2532593
199	0xbed23830	-0.41058493
200	0x3d026470	0.031834066
201	0x3d4bfeb0	0.049803436
202	0xbe9b837c	-0.30373752
203	0xbe57280c	-0.2101137
204	0xbe241b24	-0.16025978
205	0xbeddaf5e	-0.43297857
206	0xbe00c448	-0.12574875
207	0xbe010ad4	-0.12601787
208	0xbc81a680	-0.015826464
209	0x3e00592c	0.12534016
210	0x3d970e18	0.07375735
211	0x3d99a440	0.07502031
212	0xbed124f8	-0.40848517
213	0x3ed46c56	0.41488904
214	0x3d20f380	0.03929472
215	0xbe8d8458	-0.27640033
216	0x3d2b3e20	0.041807294
217	0xbda62320	-0.08112168
218	0x3e94878e	0.2900967
219	0x3c692d40	0.01423198
220	0x3ed31f02	0.41234595
221	0x3ed7604e	0.42065662
222	0xbee29422	-0.4425364
223	0xbe8586ee	-0.26079506
224	0x3ef65400	0.48110962
225	0xbe603894	-0.21896583
226	0x3e89d5ec	0.26921022
227	0xbee6aee8	-0.45055318
228	0x3d295c40	0.041347742
229	0xbebdac2a	-0.37045413
230	0x3eae1776	0.34002274
231	0xbeab63c2	-0.33474547
232	0xbe6d63c8	-0.23182595
233	0x3e46e894	0.19424659
234	0x3eadf26e	0.33974022
235	0x3e553098	0.20819318
236	0x3d90c368	0.07068521
237	0x3e91c188	0.28467965
238	0xbe1b2ca8	-0.15153754
239	0xbe20b26c	-0.15693063
240	0xbef9de96	-0.48802632
241	0xbed0e5a2	-0.40800196
242	0x3e8f9a9a	0.2804764
243	0x3e3fe620	0.1874013
244	0xbec44cac	-0.38339746
245	0xbef09f72	-0.46996647
246	0xbcbd9ae0	-0.02314514
247	0x3ce9b9c0	0.028530955
248	0x3ea0f404	0.3143617
249	0x3ec1aea4	0.37828553
250	0xbe4ec564	-0.20192486
251	0x3efb639c	0.49099433
252	0x3d1d2b70	0.038371503
253	0x3ef3cb84	0.47616208
254	0xbeafb93e	-0.34321016
255	0xbeeedbb8	-0.46652007

layer1.bias f4 [128]
0	0xbe9d0ff0	-0.30676222
1	0x3d102290	0.03518921
2	0xbeccab70	-0.39974546
3	0xbe471e44	-0.19445139
4	0x3eba6bd6	0.36410397
5	0xbe7065ec	-0.2347638
6	0x3dce8fb8	0.10086006
7	0xbda572d0	-0.08078539
8	0x3ec9ea78	0.39436698
9	0xbe0e0e44	-0.1387263
10	0xbdac6138	-0.084169805
11	0x3e84fd78	0.2597463
12	0xbe52049c	-0.20509571
13	0x3dce6e88	0.10079676
14	0xbd6cc9d0	-0.05780965
15	0x3eef01e8	0.46681142
16	0xbe890410	-0.26760912
17	0xbecb5206	-0.39711016
18	0xbeaecd12	-0.3414083
19	0x3d930910	0.07179463
20	0x3e7f6c20	0.2494359
21	0xbe979ce2	-0.2961188
22	0x3eb782f4	0.35842097
23	0xbeb52e1e	-0.35386747
24	0xbdd41ce0	-0.1035707
25	0xbeac8f14	-0.3370291
26	0x3decead0	0.115682244
27	0x3ea7a8f2	0.32746083
28	0xbda3b660	-0.0799377
29	0x3d97a188	0.074038565
30	0xbec0d906	-0.37665576
31	0x3ed07162	0.40711504
32	0xba7ce800	-0.0009647608
33	0xbe85bfbe	-0.2612285
34	0xbe3e6290	-0.18592286
35	0x3e0c27e8	0.13687098
36	0xbe0fe940	-0.14053822
37	0x3ecb1ce0	0.39670467
38	0x3eb13e86	0.34618014
39	0xbda838a0	-0.08213925
40	0x3e8440ae	0.25830597
41	0xbec8d2f4	-0.39223444
42	0x3ee5ff70	0.44921446
43	0xbe755b38	-0.23960578
44	0x3da8b560	0.082377195
45	0x3dcb81d8	0.09936875
46	0xbed4ee5c	-0.41588104
47	0x3cf2e880	0.02965188
48	0x3ec8a17e	0.3918571
49	0x3eb00824	0.3438121
50	0xbed721d2	-0.4201799
51	0x3ec6db4a	0.3883918
52	0x3eefc050	0.4682641
53	0x3e87654a	0.26444465
54	0x3e6d0144	0.23145014
55	0x3e7261cc	0.23670119
56	0x3ec75a6e	0.3893618
57	0xbec7e10c	-0.39038885
58	0x3e1c4a70	0.1526277
59	0xbed2895a	-0.41120416
60	0xbd6e8cb0	-0.05823964
61	0x3e4c4600	0.19948578
62	0x3ee6f1d6	0.4510638
63	0x3ecf4852	0.40484864
64	0x3e4fc2c8	0.20289147
65	0xbeaf3d1e	-0.34226316
66	0xbefcf140	-0.4940281
67	0x3e9eebc8	0.31039262
68	0xbeb88932	-0.36042172
69	0x3d8be770	0.068312526
70	0xbe2e2ca0	-0.1700921
71	0x3e2f5b54	0.17124683
72	0xbe843160	-0.2581892
73	0x38554000	5.0842762e-05
74	0xbdbaac30	-0.091148734
75	0x3b3b9200	0.0028620958
76	0x3eeac710	0.45854998
77	0xbd9fa9f8	-0.07796091
78	0x3e290d60	0.16509008
79	0xbe769838	-0.24081504
80	0xbe83c5d8	-0.2573688
81	0xbe4910c0	-0.19635296
82	0x3e8d402e	0.27588028
83	0x3ee843fa	0.45364362
84	0xbe1dc338	-0.15406501
85	0xbe29ef38	-0.16595161
86	0xbedc0760	-0.42974377
87	0x3ebd0206	0.36915606
88	0xbd9239b8	-0.07139915
89	0xbca4ade0	-0.020102441
90	0x3eda3c06	0.4262392
91	0x3ef15744	0.4713689
92	0x3e8cd8ac	0.27509058
93	0xbe3fa4f4	-0.18715268
94	0x3ee6c86c	0.45074785
95	0x3effa354	0.49929297
96	0x3db12008	0.086486876
97	0x3e1589b4	0.14603311
98	0xbe0c0260	-0.13672781
99	0x3eeb1ee4	0.45922005
100	0x3d83f370	0.064429164
101	0xbea69cba	-0.32541448
102	0xbe9e7186	-0.30945987
103	0xbefa922c	-0.48939645
104	0x3efee46e	0.49783653
105	0x3e442fc4	0.19158846
106	0x3e57f61c	0.21089977
107	0xbe9ae128	-0.30249906
108	0xbede36e6	-0.4340126
109	0x3d67d950	0.05660373
110	0xbcb2f500	-0.02184534
111	0xbed6fc18	-0.41989207
112	0xbea4ad44	-0.3216344
113	0xbdd17978	-0.102282465
114	0x3db36e70	0.08761299
115	0x3e3dc0a4	0.18530518
116	0xbe13a5ec	-0.14418763
117	0xbd878ce0	-0.06618667
118	0xbe3dfdc8	-0.18553841
119	0x3d9e4390	0.0772773
120	0xbe00a730	-0.12563777
121	0x3db56a68	0.08858186
122	0x3e9bff10	0.30468035
123	0xbd9970f8	-0.0749225
124	0xbe2aaac8	-0.1666671
125	0xbeba5694	-0.3639418
126	0x3e0bb7dc	0.13644356
127	0x3eb9e97e	0.36310953

layer2.weight f4 [128, 128]
0	0xbd84ee68	-0.06490785
1	0x3d6a66af	0.057226833
2	0xbda67ef0	-0.0812968
3	0x3da5e51f	0.08100342
4	0x3d95ad83	0.07308485
5	0x3d87fbdb	0.066398345
6	0xbdb31ec8	-0.087461054
7	0x3d2ec971	0.04267258
8	0xbdb04643	-0.08607151
9	0xbd7188eb	-0.058968466
10	0xba89d71a	-0.0010516376
11	0xbd29aeb5	-0.04142638
12	0x3c9d5763	0.019206708
13	0x3c6e2cd8	0.014537059
14	0x3d56f80e	0.052482657
15	0xbd8f2702	-0.06989862
16	0x3d9494ff	0.07254981
17	0xbd35a867	-0.044350054
18	0x3da1d7b6	0.07902472
19	0xbd42ea15	-0.04758652
20	0x3cbc535b	0.022988966
21	0xbc11fc8a	-0.008910308
22	0x3c4694c7	0.012120432
23	0x3c286e93	0.010280269
24	0xbd8c61d1	-0.068545945
25	0x3d568e13	0.052381586
26	0x3d28b546	0.0411885
27	0x3d748972	0.05970139
28	0xbcd159f7	-0.025555594
29	0x3b872b82	0.0041250596
30	0xba0ce858	-0.0005375198
31	0x3da78f73	0.08181658
32	0x3c3bf298	0.011471413
33	0x3da506e8	0.08057958
34	0xbdb4b0b6	-0.088227674
35	0xbd5a5473	-0.053303193
36	0x392e77b1	0.00016638522
37	0x3c9b5415	0.018960992
38	0xbcaa779a	-0.020808984
39	0xbd07a562	-0.033116706
40	0xbd4aa722	-0.049475797
41	0x3db462a0	0.08807874
42	0x3d4f687e	0.05063676
43	0xbd938276	-0.07202618
44	0xbc306eee	-0.010768635
45	0xbd867be4	-0.06566599
46	0x3d1bf3de	0.038074367
47	0xbd896083	-0.06707861
48	0xbd1bc314	-0.038027838
49	0x3c800666	0.015628051
50	0xbd23a898	-0.039955705
51	0x3d44152b	0.04787175
52	0x3d4909c0	0.049081564
53	0xbd0a8871	-0.033821527
54	0x3d03c39f	0.03216898
55	0x3d7628a0	0.060097337
56	0xbda9a335	-0.082830824
57	0xbd9a4b41	-0.07533885
58	0xbd9f0215	-0.07764069
59	0x3d7b9669	0.06142274
60	0x3b8e12be	0.0043357303
61	0xbc2915f0	-0.010320172
62	0x3c9e2fa1	0.01930982
63	0xbc466874	-0.0121098645
64	0xbd1967a9	-0.037452374
65	0xbd1b98fb	-0.03798769
66	0x3d4d0585	0.050054092
67	0x3d5d0fad	0.053970028
68	0xbd9d08fa	-0.07667728
69	0xbd97ecc6	-0.07418208
70	0xbd19c03d	-0.03753685
71	0x3cce45f6	0.025179844
72	0x3db1db58	0.086844146
73	0xbcbb90d0	-0.0228962
74	0x3a975333	0.0011545181
75	0xbd0caaf3	-0.034342717
76	0xbc8d1ca0	-0.017225564
77	0x3d79a545	0.06094863
78	0x3c2a84e2	0.010407658
79	0x3cf09b0e	0.02937081
80	0x3d5c4b6f	0.053782877
81	0xbd07f37f	-0.0331912
82	0x3d9fb38d	0.077979185
83	0xbda66416	-0.08124559
84	0xbda2f2ae	-0.07956444
85	0x3dad65b6	0.084666654
86	0xbcd968a4	-0.026539154
87	0x3d8d261a	0.06892033
88	0x3d2edac9	0.04268912
89	0xbd7cecf9	-0.061749432
90	0xbc543c68	-0.012953855
91	0xbd3c0bad	-0.045909572
92	0x3d897fac	0.067138046
93	0x3da2a596	0.07941739
94	0x3bbcc819	0.005761158
95	0x3d98cf98	0.0746147
96	0x3dae1224	0.08499554
97	0x3db13e23	0.0865443
98	0xbd71838a	-0.058963336
99	0xbda64c97	-0.08120077
100	0xbdb3c229	-0.087772675
101	0x3c2a9898	0.010412358
102	0x3cd05cdd	0.025434906
103	0xbd0eb131	-0.03483695
104	0xbd95a5a3	-0.07306983
105	0x3d668949	0.05628327
106	0x3cb6c4c5	0.022310624
107	0x3d7bd6d0	0.061484158
108	0x3d9d465a	0.07679434
109	0x3d1d1f95	0.038360197
110	0xbbbf9c16	-0.0058474643
111	0xbcd298b7	-0.025707586
112	0x3ce0d8a2	0.027447049
113	0x3c710711	0.014711157
114	0xbd6865fc	-0.056737885
115	0xbd907478	-0.07053465
116	0xbc37da93	-0.011221546
117	0x3d9c2db6	0.07625906
118	0x3db48169	0.088137455
119	0xbdada4ad	-0.08478675
120	0xbcd0aa83	-0.025471931
121	0xbb62ff73	-0.0034637123
122	0x3d01c881	0.031685356
123	0x3cf10990	0.029423505
124	0x3d462273	0.048372697
125	0x3b631750	0.0034651347
126	0x3c1788fb	0.009248967
127	0xbdab17b4	-0.083541304
128	0x3a490467	0.00076681975
129	0x3d7bb98c	0.06145625
130	0xbd70eb33	-0.058818053
131	0xba24c948	-0.0006286097
132	0x3d06158f	0.032735404
133	0x3dae1f5a	0.085020736
134	0xbcd95c44	-0.026533253
135	0xbceef69d	-0.029170329
136	0xbcead528	-0.028666094
137	0xbd69a4c8	-0.057041913
138	0xbd568b3d	-0.05237888
139	0x3d8ee413	0.069770955
140	0x3cd4577f	0.025920628
141	0xbd4bc7c9	-0.049751077
142	0xbd407c51	-0.046993557
143	0xbcc2e7cc	-0.02379217
144	0xbce324f2	-0.027727578
145	0x3d753a4f	0.05987006
146	0xbdad9849	-0.08476312
147	0xbc108691	-0.008821146
148	0x3c70818e	0.014679326
149	0xbd12d49a	-0.035847284
150	0xbc60ab50	-0.013712719
151	0x3c96862e	0.018374529
152	0x3d69a657	0.0570434
153	0x3d451e36	0.048124515
154	0xbd81bc38	-0.06334728
155	0xbd48ff00	-0.049071312
156	0x3d59bedd	0.053160537
157	0xbd8d352f	-0.068949096
158	0x3d77e43a	0.06052039
159	0x3ca55be0	0.020185411
160	0xbd37c04d	-0.044861127
161	0x3d0e395f	0.034722682
162	0xbd05d9a5	-0.032678265
163	0xbd4ac403	-0.049503338
164	0x3d67ba61	0.05657423
165	0x3d7b9c11	0.061428133
166	0xbd4c8e6a	-0.049940504
167	0xbce456ed	-0.02787348
168	0xbcc6b231	-0.02425489
169	0xbd5e9869	-0.05434457
170	0x3cae8312	0.021302734
171	0xbca97ea8	-0.020690277
172	0xbd60b9be	-0.054864638
173	0x3c239a99	0.009985589
174	0xbd1ad9aa	-0.037805237
175	0xbcb8af37	-0.022544486
176	0x3ce130ef	0.027489154
177	0x3d9db83a	0.07701154
178	0xbd2b08a0	-0.041756272
179	0x3d22ec46	0.03977611
180	0x3d51f5e7	0.0512599
181	0xbc5c22ff	-0.013436078
182	0x3d5024e2	0.050816424
183	0x3cb56a93	0.022145545
184	0xbd40f2cd	-0.047106553
185	0xbc9207f6	-0.017826062
186	0xbd7139a8	-0.058892876
187	0x3d2c2580	0.04202795
188	0xbc985233	-0.018593883
189	0xbb534d23	-0.0032242022
190	0x3d9b6b21	0.075887926
191	0x3cedb96e	0.029019084
192	0x3d4b1387	0.04957917
193	0x3d591e29	0.05300728
194	0xbd4d688c	-0.05014853
195	0x3cd429de	0.02589887
196	0xbd28e304	-0.041232124
197	0xbd339d44	-0.043851152
198	0x3c82215e	0.015885051
199	0x3d807c3f	0.06273698
200	0x3d7fa30d	0.062411357
201	0xbbc4c38c	-0.0060047563
202	0xbc7982f1	-0.015228973
203	0xbd246699	-0.040136907
204	0xbc1fb9e8	-0.009748913
205	0xbd3fadbe	-0.046796553
206	0xbcba9280	-0.022774935
207	0xbd360a67	-0.044443514
208	0xbbb06ecc	-0.0053843018
209	0xbce9db59	-0.028546976
210	0x3dafd88a	0.085862234
211	0xbdb27d35	-0.087152876
212	0xbd8bfd99	-0.06835479
213	0x3cc7b585	0.024378547
214	0xbd9fc085	-0.07800392
215	0x3cca9a37	0.024731738
216	0x3cee9158	0.02912204
217	0x3d39ac31	0.04533023
218	0x3bfd4589	0.0077292365
219	0x3d322d12	0.043500014
220	0xbd7250e3	-0.05915917
221	0xba54731e	-0.0008104312
222	0xbcbb7dca	-0.02288713
223	0xbc5f7f69	-0.013641217
224	0xbb4d8858	-0.0031361785
225	0x3d40b26b	0.047045153
226	0xbcd140aa	-0.02554353
227	0x3cb54dce	0.022131827
228	0xbd9335bb	-0.07187983
229	0x3d45772a	0.048209347
230	0x3d61235b	0.05496536
231	0xbd14caae	-0.036326103
232	0x3d457831	0.048210327
233	0xbd4b0ca2	-0.049572594
234	0xbd26b83f	-0.040703055
235	0x3d5fde95	0.05465563
236	0xbb0cb6ac	-0.0021471186
237	0x3cb27b3b	0.021787276
238	0xbd3e0133	-0.046387862
239	0xbc35018c	-0.011047732
240	0x3d94c84c	0.07264766
241	0x3da2b90a	0.0794545
242	0xbd720403	-0.059085857
243	0xbd8aa8dc	-0.067704886
244	0x3d7b9b38	0.061427325
245	0xbc87e10f	-0.016586808
246	0x3bdb861b	0.006699336
247	0xbd91fa22	-0.07127787
248	0x3d968d75	0.073511995
249	0xbd3248e1	-0.043526534
250	0x3d8bf810	0.068344235
251	0xbd11c99a	-0.035592653
252	0x3dadd7c4	0.0848842
253	0x3b525b4f	0.0032097881
254	0xbd98513b	-0.074373685
255	0xba41fe3b	-0.0007400249

layer2.bias f4 [128]
0	0xbd54a361	-0.051913623
1	0xbc047e8b	-0.008086811
2	0xbd81621d	-0.06317542
3	0xbd9749fd	-0.07387159
4	0xbd46463f	-0.048406836
5	0xbdb4716b	-0.08810695
6	0x3c0edf0e	0.008720173
7	0xbd1bc71f	-0.038031694
8	0x3d5ae80e	0.05344396
9	0x3d1635cb	0.036672395
10	0xbd2afd8b	-0.041745704
11	0x3cc2b7f5	0.023769358
12	0x3d01a41f	0.03165066
13	0x3d7e3dcf	0.062070664
14	0x3d10364f	0.035208043
15	0xbd81d373	-0.06339159
16	0xbcea9552	-0.028635655
17	0x3ceb0a36	0.028691392
18	0x3c50c78d	0.012742889
19	0xbd42cb94	-0.04755743
20	0x3d386834	0.04502125
21	0xbc113c78	-0.0088645145
22	0x3d6e9755	0.05824979
23	0x3d40d9dd	0.04708277
24	0x3da384cf	0.079843156
25	0x3ca115b7	0.019663675
26	0xbd473c2d	-0.048641372
27	0x3c813e2b	0.015776714
28	0x3bda2f9a	0.0066585066
29	0xbdad4d67	-0.08462029
30	0xbdb0d215	-0.0863382
31	0x3d999100	0.0749836
32	0x3d840cc6	0.06447749
33	0x3b973b99	0.004615259
34	0xbd4c57ba	-0.04988835
35	0xbd97c64a	-0.074108675
36	0x3d07444a	0.03302411
37	0x3caae82a	0.020862658
38	0x3d81d657	0.0633971
39	0x3d0d067c	0.034430012
40	0x3d09cbe9	0.03364173
41	0x3d73e354	0.05954297
42	0xbd44c863	-0.048042666
43	0x3b2a0e71	0.002594855
44	0x3d56a993	0.052407812
45	0x3d61ff6c	0.05517523
46	0x3d2a2c4f	0.041546162
47	0x3d497aa8	0.04918924
48	0xbcbc1cef	-0.022963015
49	0x3da503ff	0.08057403
50	0x3cca2454	0.024675526
51	0x3d57dcc2	0.052700765
52	0x3cef6d62	0.029226962
53	0x3b0083e9	0.0019609875
54	0xbda6e0ab	-0.08148321
55	0x3d43d368	0.047809035
56	0x3da77c0a	0.081779554
57	0xbbfd7889	-0.007735316
58	0xbdaae219	-0.08343906
59	0x3d2295a4	0.03969349
60	0x3d94747e	0.072487816
61	0xbd20a1d4	-0.03921683
62	0xbda61bc3	-0.08110764
63	0xbd91def9	-0.07122607
64	0xbd07f9f0	-0.033197343
65	0xbd206abd	-0.039164294
66	0x3c96e9f3	0.018422103
67	0x3c22fb30	0.009947583
68	0x3d2ebfe8	0.042663485
69	0x3cc01f96	0.023452561
70	0xbd3ee336	-0.046603404
71	0xbc0a93a3	-0.008458051
72	0xbd1ae257	-0.03781351
73	0x3d386cb6	0.04502555
74	0x3c47c38d	0.012192619
75	0xbc1edd4a	-0.009696314
76	0x3d18aee5	0.037276167
77	0xbce1d682	-0.027568106
78	0x3d89da79	0.067311235
79	0x3c98c5b9	0.018648969
80	0x3a8795c0	0.0010344312
81	0x3da84ee2	0.08218171
82	0x3ca01a40	0.019543767
83	0xbd451ccc	-0.048123166
84	0x3d97bb90	0.074088216
85	0xbd17d461	-0.037067775
86	0xbd08baca	-0.03338126
87	0xbdaec87f	-0.08534335
88	0x3cd6023c	0.026124112
89	0xbcc54120	-0.024078906
90	0x3c86b0f5	0.016441802
91	0xbd9b0c47	-0.07570701
92	0x3b410a47	0.0029455589
93	0x3d2bd8fd	0.041954983
94	0xbd46b5fb	-0.048513394
95	0x3d2f73e6	0.04283514
96	0xbd0658e1	-0.032799605
97	0xbd7c8bb0	-0.061656654
98	0x3db2dfd6	0.087340996
99	0x3d481a9d	0.048853505
100	0x3d63ec08	0.05564502
101	0x3da0d476	0.07853024
102	0xbd922e58	-0.071377456
103	0xbd8151cd	-0.063144304
104	0x3d1218ae	0.035668068
105	0x3d93e172	0.07220735
106	0x3d3edd52	0.046597786
107	0xbdb2fa61	-0.08739162
108	0x3d70d2e2	0.058794864
109	0x3c5aab14	0.013346452
110	0xbd281ab5	-0.041041095
111	0xbcebe789	-0.028796928
112	0x3d17b404	0.03703691
113	0x3d74827c	0.059694752
114	0xbd966cf8	-0.07345003
115	0x3c846910	0.016163379
116	0x3d012d38	0.031537265
117	0x3d8f575e	0.06999086
118	0x3ce71115	0.028206388
119	0xbcf2180d	-0.029552484
120	0x3c440391	0.011963741
121	0xbb7439ac	-0.003726582
122	0xbd6b98e5	-0.05751886
123	0x3da5ad6e	0.0808972
124	0xbd80070a	-0.062513426
125	0x3d854929	0.06508095
126	0xbc8a336d	-0.016870225
127	0x3daf3fba	0.08557077
