tamer_maze/static/tamer_maze/run/jknjkjd/trained_model.pth (torch, 73412 bytes, 6 tensors)

layer1.weight f4 [128, 4]
00000000: c891 b7bd 0a92 bb3e 6891 633e 6268 cd3e
00000010: 58ed dc3e b846 743e cafe dbbe d061 f1bd
00000020: b08a c13e 9874 5cbe aaaf 8e3e b455 d1be
00000030: 2c3c 83be cc8d d9be 4091 0ebc 94cb ddbe
00000040: 70ea 2abd d4dd 4f3e 10d2 77be 7439 433e
00000050: dcbf aabe 00e2 d13d 60a8 ce3d 80dc d43b
00000060: 92f5 9b3e 9c2e 39be 9005 da3d 102a 6a3d
00000070: 4019 7fbc c211 d1be a8c3 a0bd 1c73 9d3e
00000080: e494 f9be c0bb ef3d bcfa bc3e c679 e63e
00000090: 2878 e1be a86f e33e eafb ee3e 7836 87be
000000a0: 10b6 023e 0090 90be 2643 a5be 881a ea3d
000000b0: b4d9 eb3e a0a5 d23d ec60 023e 0829 ae3e
000000c0: 247e e83e e22f 893e b0d1 31bd 14dc 2c3e
000000d0: b0e0 013d a822 143e 282a ed3e b8aa 75be
000000e0: 8245 a6be 7007 c1bd 60b8 fbbd d012 763d
000000f0: 005a 1fbc ac7c 4c3e 8065 d03d 4af8 833e
00000100: 86c0 f6be 3891 873e 20a2 7d3d 68ed 9cbd
00000110: b81a f8bd f43c b33e fc73 d6be 920a d03e
00000120: 4cdb ca3e 00c3 f3bd 2c44 c3be 3cac 5fbe
00000130: e680 de3e b054 d1be 8e4f 98be e4ef 0a3e
00000140: 88ab b73e 1835 fcbd 009e b63e ca6e e4be
00000150: 8c26 d1be d4ac d1be 68e3 a03d 4c24 633e
00000160: 0ac8 ec3e 8619 ca3e 7eae ba3e bc67 b7be
00000170: 8a50 8ebe 5e95 efbe fa59 cbbe a40d c23e
00000180: 5cb6 8fbe 9207 c33e 7052 0cbd 24aa 81be
00000190: 8098 e33d 08f5 7fbe 00ac e3bb f06b dd3d
000001a0: ce25 903e c047 b9be febc 8bbe ece7 63be
000001b0: 8c6d c0be fc3f 50be 802a 0f3e 6003 3cbd
000001c0: 5ad8 883e 8ac0 c0be 08d6 89bd f802 f23e
000001d0: 0a0a afbe 84d4 1f3e 300a 2d3e f84d 36be
000001e0: 700a fd3e a0f6 92bd dcd8 06be 2624 e73e
000001f0: e6f8 ae3e 5ce7 e93e 0e25 833e b808 853e
00000200: 749d 2b3e 363f 8b3e 7027 c93d f4b4 4fbe
00000210: 2485 323e 1a59 e0be 8828 71be 2680 893e
00000220: 003a cebc 3471 2a3e 5051 5d3d e80f 20be
00000230: 34ff cabe aada b3be 00e2 14bb 0072 763b
00000240: 7e0b 8dbe c2d2 b23e ecf6 65be b686 90be
00000250: 42b6 e73e 0015 d3bd f414 173e 3cf1 fd3e
00000260: a8f3 d33e 001c 83be 74ac afbe 7c6d eabe
00000270: 00b5 cb3b c086 aebe d042 51bd d497 b9be
00000280: 1867 fe3e e4f6 9a3e a8bd 563e 0c57 b2be
00000290: 8abc d9be 1e40 f63e c078 f6be dcb7 8ebe
000002a0: f806 56be d827 10be c4a6 ed3e 7086 1bbd
000002b0: 40fe bcbe 94ae f53e 6432 adbe b8c7 e63e
000002c0: 8456 eabe 90d2 cfbd 480f e33d 4654 83be
000002d0: 0056 4fbc 4cd7 52be f4a1 e4be bc20 c53e
000002e0: f8df 9abe d095 6dbd 8c61 89be 10da b4be
000002f0: 4086 a43d cc28 413e 4005 aa3d 4e7b 95be
00000300: 00cc 2ebd de6f d9be f03d 9b3d 104b e43d
00000310: bec0 b4be 2c6a e3be 38a1 393e e0c0 953d
00000320: 5c4e 8ebe 7a37 de3e da2e c23e ecb4 7c3e
00000330: ea3d d2be 104c 2f3e 1055 ec3d d0bf b2be
00000340: 58eb 5c3e c0bd 12be 805b abbd 8cb5 9c3e
00000350: 7452 773e 98af acbd 2008 c4be 6c57 10be
00000360: 6c26 dc3e 88fe 72be 6293 bdbe 56ed f43e
00000370: 4839 bebd 2040 eb3d c8f4 7ebe 16ef edbe
00000380: 98a2 98bd 28c6 fcbd 8065 47bc 86d5 fcbe
00000390: 9656 d3be 30b7 fd3e 329a bdbe 94a2 edbe
000003a0: 6687 b43e d037 4fbe fe4a d13e 7ce5 8bbe
000003b0: b2e5 b53e 126e df3e 9e79 b5be be2e f63e
000003c0: 8812 a1bd c8cd b63d 7cf9 313e f8eb 73be
000003d0: a84e b2bd 30e5 95be 105c 943d 5e31 ed3e
000003e0: 6cd0 733e 3ed7 933e a873 a0bd 2641 a7be
000003f0: b275 c53e 74c2 763e 1032 ff3e eadb b13e
-0.089633524 0.36634856 0.22223437 0.401187 0.4314983 0.23855102 -0.42967826 -0.117862344
0.37801123 -0.21528852 0.27868396 -0.408857 -0.25631845 -0.42490995 -0.0087016225 -0.4331938
-0.041727483 0.20299464 -0.24201226 0.19064885 -0.33349502 0.10248184 0.10090709 0.006496012
0.30460793 -0.18084186 0.10645592 0.05716902 -0.015569985 -0.4083386 -0.078498185 0.30751884
-0.48746407 0.11705732 0.36910045 0.4501478 -0.44036984 0.44421124 0.4667657 -0.26408744
0.12764764 -0.28234863 -0.32277793 0.11430842 0.46064532 0.10285497 0.12732285 0.3401568
0.45408738 0.26794344 -0.043412864 0.16880828 0.03170842 0.14466345 0.46321225 -0.23990905
-0.32474905 -0.09425247 -0.12291026 0.060076535 -0.0097260475 0.19969434 0.101756096 0.25775367
-0.4819376 0.2647798 0.061922193 -0.07662469 -0.12114471 0.3500744 -0.41885364 0.40633065
0.39620435 -0.11902428 -0.3813795 -0.21843046 0.43457717 -0.40884924 -0.29748195 0.13568074
0.35873055 -0.12314814 0.3566742 -0.44615775 -0.4084972 -0.4095217 0.07855874 0.22181815
0.46246368 0.39472598 0.36461252 -0.3582133 -0.2779582 -0.46793646 -0.39717084 0.37901032
-0.28068817 0.38091713 -0.034258306 -0.2532512 0.111130714 -0.24995816 -0.006947994 0.10811603
0.28153843 -0.36187553 -0.27292627 -0.2225644 -0.37583578 -0.20336908 0.13981056 -0.045901656
0.26727563 -0.37646896 -0.06730276 0.4726789 -0.34187347 0.15608412 0.16898417 -0.1780318
0.49422026 -0.07175946 -0.13168663 0.45144767 0.3417427 0.45684326 0.25614208 0.25983214
0.16759282 0.27196664 0.09821975 -0.20283872 0.17433602 -0.4381798 -0.23550618 0.26855582
-0.02517414 0.16644746 0.054032624 -0.15631068 -0.3964783 -0.35127765 -0.0022717714 0.003760457
-0.2754783 0.3492642 -0.22457474 -0.28227776 0.4525624 -0.1030674 0.14754087 0.4959811
0.41396832 -0.256073 -0.3431126 -0.45786655 0.0062166452 -0.3408718 -0.051089108 -0.36248648
0.4968803 0.30266488 0.20970786 -0.34832036 -0.42526656 0.48095793 -0.48139 -0.2787465
-0.20901096 -0.14077699 0.46416295 -0.037970006 -0.36912727 0.47984755 -0.33827507 0.45074248
-0.4576913 -0.101475835 0.11086899 -0.25650233 -0.012654781 -0.20589942 -0.4465481 0.38501537
-0.30249 -0.0580042 -0.26832235 -0.35322618 0.08033419 0.18863219 0.083017826 -0.29195637
-0.04267502 -0.4246816 0.07580173 0.111471295 -0.353033 -0.4441694 0.18127906 0.073121786
-0.27794158 0.434017 0.3792637 0.24678391 -0.41062862 0.1711886 0.11539662 -0.34911966
0.21574152 -0.14330196 -0.083670616 0.3060726 0.24152547 -0.08431929 -0.3828745 -0.14095849
0.42998064 -0.23729908 -0.37026507 0.47837323 -0.09288269 0.1148684 -0.24898064 -0.4647147
-0.07452887 -0.12342483 -0.012170196 -0.49381655 -0.41276997 0.49553823 -0.37031704 -0.464131
0.3525955 -0.20236135 0.40877527 -0.2732352 0.35526806 0.43638664 -0.3544435 0.48082536
-0.07864863 0.089259684 0.17380327 -0.23820484 -0.08706409 -0.2927642 0.07244122 0.46326727
0.23809975 0.28875154 -0.0783456 -0.32666892 0.38566357 0.24097615 0.49842882 0.34738094

layer1.bias f4 [128]
00000000: ee7c b4be 407d f2bd 76f2 9ebe c4f5 83be
00000010: c073 4abe e632 abbe 085d f9be f851 90be
00000020: d82f 16be a0f7 973d 381a 273e 4c81 34be
00000030: c06d b2bc 50e1 3dbe 0021 633e 8c23 b3be
00000040: 7059 8d3d a4f8 da3e fc22 023e 50c7 d63e
00000050: da79 86be 6e71 a43e 4e38 f93e 54f9 c4be
00000060: 40d6 91be 58dd 82bd b481 2bbe 565b c1be
00000070: 2085 a13c 62cb 96be 8cf0 263e e8c4 c63d
00000080: 7674 903e f83a dfbe ecc2 003e b8e7 f2be
00000090: ecfb 03be e6be 80be 2aea 9d3e 2ccf 673e
000000a0: 0a86 abbe 9e12 c13e 8a15 ad3e c098 66bc
000000b0: 5878 e03d ca0d acbe 5c0a 0b3e 7c2c ddbe
000000c0: acef 3e3e f848 9e3e ac4e b9be 6ac2 f33e
000000d0: de3c bdbe c06a dc3c 301b 0c3e 526b eebe
000000e0: 0a01 bbbe c86e f3bd 5e30 973e a458 d63e
000000f0: 1ca0 2d3e 14b6 1fbe bc77 dc3e 005e 753c
00000100: d48d e43e 6054 513d a69b b43e 60bc debd
00000110: bc46 61be 5882 fd3e 000e 8bba c855 2bbe
00000120: a0f4 8a3c 40e7 5ebd 5ad7 8bbe 0419 edbe
00000130: 0072 81bd 36d0 9dbe 68cb c63e da0c d03e
00000140: 66e1 93be 60c0 b5be 6432 813e 3a07 e43e
00000150: 2cf5 043e 2812 9abe 8ad2 90be c8c9 693e
00000160: 84b0 febe a83d da3d 0051 0bbc 28c5 59be
00000170: 405d e2bc 825f c0be 66f2 80be 0005 e3bd
00000180: d2b9 adbe aab2 e13e fc82 d0be 7cb9 653e
00000190: b04a c3be 905b 483d 625b b93e 0e88 9fbe
000001a0: 5629 e03e c8d0 bd3e f078 ef3d 60f5 f8be
000001b0: da03 9abe 02fd 84be 10d3 673d 4aea b8be
000001c0: 64c6 09be ae0d b53e e032 4ebe ba37 ee3e
000001d0: 84c7 25be 1c23 e03e f8b0 b33e 529e 883e
000001e0: 2c87 4abe b647 c63e 40e3 68bc d032 4e3e
000001f0: a282 81be 0ac9 a3be d409 5e3e aee5 9fbe
-0.35251564 -0.11840296 -0.31044358 -0.25773442 -0.19770718 -0.3343727 -0.4870379 -0.28187537
-0.14666688 0.074202776 0.16318595 -0.17627448 -0.021780849 -0.18542981 0.22180557 -0.34988058
0.069018245 0.42767823 0.12708658 0.41948938 -0.2626484 0.3211779 0.4867577 -0.38471472
-0.28483772 -0.06389874 -0.16748697 -0.37764996 0.0197168 -0.29452044 0.16302699 0.09705526
0.28213853 -0.43599677 0.12574357 -0.47442412 -0.1288907 -0.25145644 0.30842716 0.22637624
-0.335007 0.37709516 0.33805496 -0.014074504 0.10960454 -0.3360427 0.1357817 -0.43198
0.18646115 0.30915046 -0.36192834 0.47609264 -0.369605 0.026906371 0.13682246 -0.46566254
-0.3652423 -0.11886364 0.2952909 0.41864502 0.16955608 -0.15596801 0.430601 0.014976025
0.44639456 0.051105857 0.35275 -0.108757734 -0.2199964 0.49513507 -0.0010609031 -0.16731942
0.01696235 -0.054419756 -0.27312738 -0.46308148 -0.06320572 -0.30822915 0.38827062 0.40634805
-0.28882903 -0.35498333 0.25233757 0.44536763 0.1298415 -0.30091977 -0.2828563 0.2283088
-0.49744046 0.10656291 -0.008503199 -0.21266615 -0.027632356 -0.37572867 -0.25184935 -0.11084938
-0.33930832 0.44081622 -0.40724933 0.22434038 -0.3814292 0.048915446 0.36202532 -0.3115849
0.43781537 0.3707335 0.11692989 -0.48624706 -0.30081064 -0.2597428 0.05659777 -0.36116248
-0.13454586 0.35362 -0.20136595 0.4652689 -0.1618939 0.43776786 0.35095954 0.2668329
-0.19778126 0.38726586 -0.014214337 0.20136571 -0.25294977 -0.31989318 0.21683437 -0.3122992

layer2.weight f4 [128, 128]
00000000: f0bd fabc ee4b fc3b d283 2a3a eda0 7c3d
00000010: 2cf5 30bd ff36 a3bd 3661 e6bb 5fe9 8a3d
00000020: c558 a33d b1bd 8c3d 5730 003c 7aeb a5bd
00000030: f87b 06bc fd44 93bd e79f 9abc c252 b4b9
00000040: 2ec4 a53d 6367 6dbc 54b8 08bc 4cd0 b33c
00000050: bd79 debc e8a5 973d 5f9b acbd e554 b5bc
00000060: 4ab1 753d 6a0a fb3c 8a9c a93d 42ef 653d
00000070: f67a a3bd 2451 8e3d 14a2 fdbb d31d fe39
00000080: 3494 9f3d 8fac 9a3d c19a 27bc 01e0 773d
00000090: 1a67 423d c82c 4ebd d917 75bd 2441 8f3d
000000a0: b861 b23d 53d9 393b a29f 9bbb 7f61 58bd
000000b0: 4348 90bd 6ae2 0e3d 175d 8c3d 2a1b 96bd
000000c0: 8e40 ad3d 3d7b f83b 542d 10bd b742 ebbc
000000d0: ffc9 7bbd f884 0dbc 70be 0e3c 3ad7 523c
000000e0: b667 aabd 3b6f 913d 7f5f 6d3d 91e6 8b3d
000000f0: 6e56 bc3a d239 ed3c 3ac9 92bd 0613 013d
00000100: c2cd f6ba a751 9f3b 318d 96bd 68fb 1a3c
00000110: 00a4 2d3d 4613 99bd 2620 79bd 33c6 a5bd
00000120: 3b73 d83c 66e8 083d 00c0 463c 8d13 a83d
00000130: ff61 933d 5d93 be3c b96d 8dbc 843c a6b8
00000140: 79f6 abbd e441 e4ba 6aba c5bb 3aa5 a3bc
00000150: 5b68 d8bc c7ee 7dbd 44bc 87bd d0f0 f03c
00000160: 643d 0ebd 1f02 dfbc f691 8e3d 3456 91bd
00000170: bf52 843d 22ee 47bd 3be8 a0bd 176e 92bd
00000180: 7f48 a13d 2e39 fabc 4c88 84bd c105 93bd
00000190: 2e66 1f3d 0675 be3c 2a5b 843d 227f 27bc
000001a0: 1f1b 05bc 917e 6f3d 3a5d 333d 0d07 26bd
000001b0: 9563 aebd 58f9 bd3c 63ee 83bd 6179 87bb
000001c0: 03f7 24bd 059b 6c3d 7d2f 99bd e88a 45bd
000001d0: 5bd3 e8bc 7802 25bd c380 9c3d 7be2 423d
000001e0: cbcd 5c3d 069b febc 612c d5ba f547 aabd
000001f0: 7d0f 9abd ed3c b43d 4de3 113c deab d3bc
00000200: fc80 de3c df3c 4bbd 87bf 4ebd 2e93 97bd
00000210: b3c1 fd3c 5ab2 1fbd b9b8 983d 405a a83d
00000220: 4d1c 8d3d e24b a43d c42c 313d 90a7 b13c
00000230: b487 da3c 1b87 8ebd bb9e 513c 1c9a acbd
00000240: 8b3a 943d 03f3 a4bd 390c 563d 7b19 15bd
00000250: 5411 da3c c247 89bd e2e7 4d3d dc78 2f3c
00000260: 04da 66bd fa1e 2d3c 225e 9fbd 2eb5 963c
00000270: d941 82bd ce42 23bd fa6c 43bd 1202 5c3c
00000280: 0c64 90bd 3286 24bc 406b ad3d e4a9 99bd
00000290: 9263 3b3d 5e8b 39bc 29b3 b23d b997 10bd
000002a0: c1b0 74bd ee84 cfb9 265a 563d 5f63 f8bb
000002b0: 66a6 3c3d 39ab 0cbc bf6b 54bd f183 a13d
000002c0: 1b35 73bd 1b2b 8c3d 6c97 a63c 6ae9 413c
000002d0: 9bcb 2e3d e570 8cbd 8c2e ff3c 5027 a9bd
000002e0: dcce 55bd a798 01bd 7736 603d 6fdc 833d
000002f0: 556b 36bd 7c61 063d 6587 3e3d 8e6b afbc
00000300: c043 483d 82a8 d3bc c576 57bd 25ef afbd
00000310: a550 97bd 6a65 573d 03d8 863d 0e4f 32bc
00000320: bfce b23d 5d60 94bd ecd9 723d ea58 713d
00000330: e762 683d ca03 26bd aa22 8b3d 0ff8 90bc
00000340: 7f15 e0bc 046d 0f3d 0149 a7bd d61f a1bb
00000350: ff5d b33d 6aa2 e33c 397f 8c3d 3cb4 723c
00000360: b40c 48bd 4d70 b3bd d97c 24bd 6953 6f3d
00000370: b698 833d 7da7 713d 2f07 2abd 1e03 a83c
00000380: fe2e 7a3d abb3 cfbc e5b1 95bc f58d 1bbb
00000390: 23b8 a5bd 1550 a83b be55 8d3d 0f3e 9ebd
000003a0: bace 31bd f66a 13bd e5c0 ee3b 887b 44bd
000003b0: a631 423d 6a83 67bd 1384 153d a77f 933d
000003c0: 9502 bebb 9d67 39bc 5678 683d e08b f43b
000003d0: a4fc 713d 9fea 473b ce86 99bc 1d1e 60bd
000003e0: f877 21bd cc96 a9bd 8564 b2bd 3ef0 3dbc
000003f0: 22c9 77ba 9a56 7ebd e62c 80bd 9b13 4bbd
-0.030608147 0.007699481 0.0006504628 0.06167691 -0.043202564 -0.07969474 -0.0070306314 0.06782793
0.07975916 0.06872118 0.007824025 -0.08101554 -0.008208267 -0.07190893 -0.018875076 -0.00034393935
0.08094059 -0.014489981 -0.0083447285 0.02194991 -0.027157659 0.07404691 -0.08428072 -0.022135207
0.05998353 0.030644614 0.082818106 0.056136377 -0.07982437 0.0694907 -0.0077402685 0.00048468876
0.077919394 0.07552444 -0.010229767 0.06051636 0.047461607 -0.050335675 -0.059837196 0.069948465
0.087100446 0.0028358295 -0.0047492543 -0.052827355 -0.07045033 0.034883894 0.06853693 -0.073294
0.084595785 0.0075830505 -0.03519948 -0.028718336 -0.061471935 -0.008637659 0.008712396 0.012868697
-0.083205625 0.07101294 0.0579524 0.068310864 0.001436902 0.028958235 -0.07167287 0.031512283
-0.0018829631 0.0048620286 -0.07351149 0.009459354 0.04239273 -0.07474379 -0.060821675 -0.08094444
0.026422134 0.033424757 0.012130737 0.08206854 0.07196426 0.023263628 -0.017264234 -7.926769e-05
-0.0839662 -0.0017414656 -0.006034185 -0.019976247 -0.026416948 -0.061995294 -0.06627706 0.029411703
-0.034726515 -0.027222691 0.069614336 -0.0709652 0.06461095 -0.048811086 -0.078567944 -0.07149904
0.07875156 -0.030544844 -0.06471309 -0.07178832 0.038915806 0.02324916 0.06462701 -0.010223182
-0.008124142 0.058470313 0.04379008 -0.040534068 -0.085150875 0.023190185 -0.06441953 -0.0041343425
-0.04027463 0.057765026 -0.07479761 -0.048228174 -0.028421095 -0.040285558 0.07641747 0.04757927
0.053907197 -0.03107978 -0.0016263836 -0.08314506 -0.075224854 0.08800683 0.00890429 -0.025838789
0.027161114 -0.049618598 -0.050475623 -0.07401119 0.030976152 -0.03898845 0.07457108 0.08220339
0.068901636 0.08022286 0.043255582 0.021686345 0.026676036 -0.06959363 0.012794192 -0.084278315
0.07237729 -0.08054163 0.05225775 -0.036401253 0.02661959 -0.0670314 0.05026997 0.010709967
-0.05636026 0.010566467 -0.07781626 0.01839694 -0.06360216 -0.03985863 -0.04771135 0.013428228
-0.070503324 -0.01004176 0.08467722 -0.07503107 0.045749255 -0.011324732 0.08725578 -0.035300944
-0.05973888 -0.00039581157 0.052332066 -0.0075802053 0.046057127 -0.008585745 -0.051860567 0.07886494
-0.059376817 0.06844159 0.020335875 0.011835435 0.042674642 -0.068574704 0.031150125 -0.082594514
-0.05219923 -0.03163972 0.05473944 0.06438529 -0.044535954 0.032807812 0.04651584 -0.02141359
0.048892736 -0.025837187 -0.0526035 -0.08590535 -0.073884286 0.05258695 0.0658417 -0.010883106
0.0873084 -0.07244942 0.059289858 0.058922686 0.056734946 -0.040530957 0.06793721 -0.017696409
-0.027354 0.035016075 -0.08168221 -0.004917125 0.08758163 0.027787406 0.06860203 0.014813479
-0.04884024 -0.08761654 -0.040158127 0.058429155 0.06425612 0.05899762 -0.041510757 0.020509299
0.06107997 -0.025354227 -0.018273303 -0.0023735736 -0.08091762 0.0051364996 0.0690112 -0.077266805
-0.04341004 -0.035990678 0.0072861784 -0.04796937 0.04741063 -0.05652181 0.03650291 0.07202082
-0.0057986476 -0.011316207 0.056755386 0.0074629635 0.059078828 0.0030504835 -0.018741038 -0.05471622
-0.03942105 -0.08280715 -0.08710579 -0.011592923 -0.00094522734 -0.06209431 -0.06258564 -0.049579244

layer2.bias f4 [128]
00000000: c4b6 0fba 7e9d 293d 4cf8 19bd eb3b d8bc
00000010: 18ca 10bc 5462 7dbd 92a3 95bd 7b0c 603d
00000020: bc15 153c 6047 a83d ea66 44bc 3269 963d
00000030: 644c 41bb 1cf1 7fbd e54a abbc ca4f 9b3d
00000040: b0d0 6fbd e5b7 67bd 4d70 833d 98ea 133d
00000050: 1750 11bd 6da6 633d 37be 7c3c 52e1 a53d
00000060: 0d22 a3bd 50a5 56bc b843 bb3a 98a0 523d
00000070: 6f9b 853d ccfd 743d cd97 89bd e149 2f3b
00000080: 2d98 983d b228 193d a0eb 023d 54b0 9d3d
00000090: 4c67 0c3b e468 adbd b397 aabd 677d a8bd
000000a0: bddb 623c 80a2 8dbd 705a ed3c 5c7e abbc
000000b0: cb3c de3c 9ec9 9dbd ebd1 ae3d 2e37 8b3d
000000c0: bb5e a33d 80bb 16bd 91c8 803c 516a 2dbd
000000d0: 1cf0 973c 0980 af3d b049 1f3d 1cf5 ab3c
000000e0: 3d3c bdbb c912 67bb f4f9 bb3c 85e6 6f3d
000000f0: db64 9dbd ae83 843d 2c4b b1bc 0b93 2bbd
00000100: 51e0 a0bd c823 9fbb 214d 98bd 2670 3c3c
00000110: 262f 5cbc 0c7d 26bd 38d3 e9bc 0f93 a63d
00000120: 4722 753d e252 62bd 5db6 7f3d 9ffd afbd
00000130: c962 263d 1c9c c73c 27ae 8b3d cf54 113d
00000140: 0ba8 90bd 01ea e43b 6592 84bd efc4 da3c
00000150: d14e a9bb 3f07 ab3d cea6 b1bd be96 d73c
00000160: d0b1 443d 870a fbbc 65b2 af3d 9bcd 58bc
00000170: e07c ad3d 61fe 9f3d 9e2e 7e3b 4123 a23b
00000180: b962 71bd 7cbd 7e3d 90af bdbc c2af 793d
00000190: a5e9 5fbd 1c7f 8e3d dd45 5ebd 89e0 a23d
000001a0: d80a 90bd af8e eb3b c22d 233d 562d 883c
000001b0: c02c b43c 4e57 8ebd 3665 abbb dd71 833d
000001c0: b486 8f3d 737d 823c 930d 4dbc 7417 ab3d
000001d0: b220 083c 1496 083b 118e 7e3d 0ca5 0a3c
000001e0: 95bd 9fbd 6239 883d 366b 643d 7179 91bd
000001f0: 19ba aebd 1f6c 13bd 745a 1ebd 7ce3 603c
-0.0005482251 0.041409962 -0.03759031 -0.026395759 -0.008837245 -0.06186135 -0.07306589 0.054699402
0.00909942 0.08216739 -0.011987427 0.07344283 -0.0029494995 -0.0624858 -0.020909736 0.07583578
-0.05854863 -0.05657186 0.06417904 0.036112398 -0.03547677 0.055578638 0.01542621 0.08099617
-0.07965479 -0.013100937 0.001428715 0.051422685 0.06523787 0.059812352 -0.06718407 0.0026746916
0.074509 0.037392326 0.03196299 0.076996475 0.0021423874 -0.08467272 -0.083297156 -0.082270436
0.013846335 -0.0691576 0.028973788 -0.020934276 0.027128598 -0.07704471 0.085361324 0.06797634
0.07977053 -0.036799908 0.015720638 -0.04233772 0.01854711 0.08569343 0.038888633 0.0209909
-0.005775003 -0.0035259 0.022946335 0.05856945 -0.07685252 0.064704284 -0.02164229 -0.041888278
-0.07855285 -0.0048565604 -0.07436586 0.011501348 -0.013438975 -0.040646598 -0.0285431 0.08133518
0.059847143 -0.055254824 0.062429775 -0.08593296 0.040621553 0.024366431 0.06820326 0.03548127
-0.07063302 0.0069859033 -0.06473235 0.026705233 -0.0051668664 0.083509915 -0.086743936 0.026316997
0.048021138 -0.030644668 0.08578948 -0.013232614 0.08471084 0.07812191 0.003878511 0.0049480502
-0.05893204 0.062192425 -0.023155004 0.06095863 -0.05466618 0.06957838 -0.054265846 0.07952983
-0.07033318 0.00718864 0.03983856 0.01662318 0.021993995 -0.06950246 -0.005230571 0.06418202
0.070081145 0.01592896 -0.012515443 0.08354083 0.008308576 0.0020841407 0.062147204 0.008462202
-0.07799832 0.0665157 0.055766307 -0.07103241 -0.08531589 -0.035991784 -0.03866048 0.0137261115

layer3.weight f4 [4, 128]
00000000: 0766 12bd 03a6 a93d 6142 593d 3881 51bd
00000010: 3d3f 873c e384 903d d164 963c 8444 b33d
00000020: fed9 88bd bcd3 b1bd b094 adbd f5e0 89bd
00000030: 0d40 aebc 3ac6 9d3d b1b9 5b3d 4695 753d
00000040: a37f ab3d b491 b2bc 42b0 c83a 8d76 153d
00000050: 5254 183c 2632 893c 8267 773c a685 a73c
00000060: c7b7 a5bc b357 21bb 4425 40bd ec61 f6bc
00000070: 2c37 36bc 7d7a 473d c739 083d 3dd6 c03c
00000080: 68e1 3a3d 2664 8f3d b7b0 693d 629f 9bbd
00000090: 1c41 67bd 5e0a debb cb64 adbd d83c bb3c
000000a0: 8468 1abd ee47 56ba ceec a9bd 18fe 9fbd
000000b0: 7ae5 573d f647 a6bd cedc 35bd bfcc 623d
000000c0: 94d0 2c3c 1e66 8c3d d096 c6bc 934d 323d
000000d0: a8ab 94bd 1429 613d 29ed 21bc 1ea8 7abd
000000e0: cdad 81bc 0dfb 92bc aeb1 8abd d1dd 513d
000000f0: 5f13 30bd bc5c 8cbd 3229 d5bc a720 2e3d
00000100: f06c 9fbd 6f00 813d 63d5 cf3c e4c2 a539
00000110: 411c 2c3d 6808 9f3d dfda afbd dfe0 a0bd
00000120: 8335 a2bd b300 febc a022 243d 9647 693d
00000130: fa2b 1b3d d79b 72bd f954 883d 19e1 f1bc
00000140: 7a11 85bd e23a a83d 8c3d 343d 80b5 10bb
00000150: b080 afbd 9384 ae3d 8f56 08bd 805e 83bd
00000160: e971 db3c f999 31bd 6deb 97bd ab3e 0bb9
00000170: 8c33 75bc 5fa0 3dbd 342b 82bd 4beb 583d
00000180: 7458 7d3d a670 643d 74af e73c e867 363d
00000190: f4e8 8fbd 8550 48bd dc21 a1bd 8399 2cbb
000001a0: 124e 193d 4ccd 04bd a267 863d ae83 2ebd
000001b0: d353 eebc db71 26bd fa1c 2f3d 5bba 803b
000001c0: 39a8 94bd 6a28 b0bd d32e d23c 7661 133d
000001d0: 5912 f33c ade5 2dbb 8399 56bd 2879 703c
000001e0: 7d50 89bb b6c5 53bd d293 b03d d392 78bd
000001f0: 007c 983d 824c f73b 2384 163d c4eb 243d
00000200: 62a7 1abd 23f1 993c 2d8f 663c 44c2 22ba
00000210: 980f 41bd ba39 d1bc d5c5 03bd 9824 48bd
00000220: ba53 bd3c 3d13 ae3d 0331 7cbc f719 8dbd
00000230: 688a 22bc a928 17bd 16be 813c 9db0 243d
00000240: 1e95 ef3c 3c57 81bd d79f a3bd 1519 a3bd
00000250: b087 48bd a270 acbd 5eab b2bd 71e6 1bbd
00000260: cf2f a4bd 3d3d 683d 7df1 78bd 2490 ac3d
00000270: 90d7 b8bc 6184 183d 6ab0 8f3d 1913 0a3d
00000280: 566c a7bd 45ff 45bd 57e8 8ebd 2925 97bd
00000290: f94d 2c3d 6029 55bb a40a 973d 5405 963d
000002a0: 8bcb 98bd 8eab ab3d b2e9 9c3d 679e 783d
000002b0: 1a73 8cbd 3528 e93b 7c03 ae3c f695 37bd
000002c0: 6201 a9bd b2a7 cabc 0de5 713d d5f0 533c
000002d0: baf2 e13c 6b55 17bd d820 51bd c7e0 75bd
000002e0: 5488 4cbd d74e 9bbd da13 0bbd 1418 523d
000002f0: 023d 9e3d 57e4 a6bd d6d3 04bc cd9a 6cbd
00000300: 5d9d 0bbd fb69 e33c bf65 c8bb f0c7 863c
00000310: 6c29 243d a497 05bd d5b6 f0bc 7d3d 6f3d
00000320: 3400 9d3d a828 8cbd 37c5 40bd 07e8 2d3d
00000330: 7468 95bd bea6 a03d 660c 4ebd d6c9 04bd
00000340: ac5a 7d3d 2b6c adbd de69 3dbd 7269 a93c
00000350: 00ff 283d b8e3 b2bd 086f 433c 0f83 173d
00000360: 8586 fa3c 8ff8 ae3d 0658 24bd 9e03 ae3d
00000370: 3585 a33c 1068 29bd 854d 17bd 303c a5bb
00000380: c993 92bd 886f 85bb 6e5c 703a 59ff e03c
00000390: b36e 87bd beea 473d 10f1 a63d 941a 96bd
000003a0: 5228 8cbc 7451 08bd 5be1 313d 7715 663c
000003b0: 073d 25bd 6974 adbd 4e03 a3bd a4ec a8bc
000003c0: d9b9 9fbd 19fa 263d bead 363c ea73 883d
000003d0: 4075 98bd a0d9 1b3d b101 5dbd 2c10 ec39
000003e0: 9366 87bc 33c8 883d 47df af3d 8127 34bd
000003f0: 3250 3cbc 3873 583d 5b2b 723d 9228 4e3d
-0.035741832 0.08283617 0.05304182 -0.051148623 0.016509647 0.07056596 0.01835862 0.08753303
-0.06682204 -0.08682963 -0.084756255 -0.0673236 -0.021270776 0.07703824 0.053643886 0.05995681
0.08373954 -0.021797992 0.0015311318 0.036490012 0.009297447 0.016747545 0.015100362 0.02044947
-0.020229233 -0.0024618923 -0.04691054 -0.03007599 -0.011121552 0.0487008 0.033258226 0.023539657
0.04562512 0.07001524 0.057053294 -0.07598759 -0.056458578 -0.006776138 -0.0846649 0.022856161
-0.03769733 -0.00081741705 -0.0829712 -0.078121364 0.05270908 -0.08119194 -0.04440003 0.055371042
0.010547776 0.06855415 -0.024241835 0.04353101 -0.07259303 0.054970816 -0.009883204 -0.061195485
-0.015829945 -0.017941976 -0.06772171 0.05123693 -0.042987224 -0.06853625 -0.02602062 0.04251161
-0.0778445 0.06298911 0.025370305 0.00031616457 0.042019133 0.07765275 -0.08586668 -0.07855391
-0.07920363 -0.031006193 0.040072083 0.056953035 0.037883736 -0.05923065 0.06656832 -0.02952628
-0.06497474 0.08214356 0.04400401 -0.0022080839 -0.08569467 0.0852138 -0.033285674 -0.06414509
0.026787715 -0.04335973 -0.07417951 -0.00013279419 -0.014965903 -0.04629552 -0.063558966 0.052958768
0.061851934 0.055771492 0.028281905 0.044532686 -0.07026854 -0.048904914 -0.07867786 -0.0026336617
0.03742797 -0.03242235 0.06562735 -0.04260605 -0.029092705 -0.040635925 0.042752244 0.0039284653
-0.072586484 -0.08601458 0.025657093 0.035981618 0.029671835 -0.0026534603 -0.052392494 0.014677323
-0.004190503 -0.051702224 0.086219445 -0.060686897 0.07445526 0.0075469622 0.03674711 0.040263906
-0.037757285 0.01879174 0.014072222 -0.00062087574 -0.047134012 -0.025540221 -0.03217109 -0.048863024
0.023111213 0.08499763 -0.015392545 -0.06889718 -0.009920694 -0.03690401 0.01583771 0.040207494
0.02924591 -0.06315467 -0.079894714 -0.079637684 -0.048957527 -0.084199205 -0.08724092 -0.038061563
-0.08016931 0.056699026 -0.060777176 0.0842593 -0.022563726 0.03723562 0.0701607 0.03370962
-0.0817496 -0.048339147 -0.06977909 -0.073801346 0.042066548 -0.0032525882 0.073750764 0.07325235
-0.07460698 0.08382331 0.07661761 0.06069794 -0.068578914 0.0071153888 0.021241896 -0.04482075
-0.08252217 -0.024738166 0.05905633 0.012935837 0.027581561 -0.036946695 -0.051056713 -0.060028818
-0.0499347 -0.07583397 -0.03395448 0.051292494 0.0772648 -0.08149021 -0.008107146 -0.057764817
-0.03408562 0.027760496 -0.0061156447 0.01645276 0.040078565 -0.03261532 -0.029384056 0.05840825
0.07666054 -0.06843692 -0.04706308 0.042457607 -0.072953135 0.078443035 -0.050304793 -0.03241905
0.06185405 -0.08467897 -0.04624354 0.020680163 0.041258812 -0.0873484 0.011928327 0.03699022
0.030581722 0.085435025 -0.04012301 0.08496784 0.019960979 -0.041359007 -0.036939163 -0.0050425753
-0.07157094 -0.0040721335 0.00091690465 0.02746551 -0.06612911 0.048807852 0.08151448 -0.07329288
-0.01710907 -0.033280805 0.043427806 0.014043204 -0.040341403 -0.08469469 -0.07959615 -0.020620652
-0.077991195 0.040765855 0.011149822 0.06662734 -0.07444239 0.03804934 -0.05395669 0.00045025477
-0.016528403 0.0667881 0.08587509 -0.043982986 -0.011493729 0.052844256 0.05912338 0.05033166

layer3.bias f4 [4]
00000000: ff15 44bd 2b28 babb d97a 4c3d 95f2 953d
-0.04787254 -0.005681058 0.049921844 0.073216595
