tamer_maze/static/tamer_maze/run/hksdf/trained_model.pth (torch, 146386 bytes, 12 tensors)

layer1.weight f4 [128, 4]
0	0x3e78ece4	0.24309117
1	0x3ecfd146	0.4058935
2	0xbda22f00	-0.07919121
3	0x3e0ad404	0.1355744
4	0x3eefd7e0	0.46844387
5	0x3df9f708	0.122053206
6	0xbef71cc8	-0.48264146
7	0x3e4a4950	0.19754529
8	0xbe3f2f38	-0.18670356
9	0x3e49d378	0.19709575
10	0x3eb1378c	0.3461269
11	0x3df12778	0.11775106
12	0xbec4fc38	-0.38473678
13	0x3edd698c	0.43244588
14	0xbed2456e	-0.41068596
15	0xbda8f610	-0.08250058
16	0x3eac7bd4	0.33688223
17	0xbed2b270	-0.41151762
18	0x3e9d1cf2	0.30686146
19	0x3bd21300	0.0064109564
20	0x3d1e9c80	0.03872347
21	0x3ebabcee	0.36472267
22	0xbeb79af6	-0.35860413
23	0xbc233300	-0.00996089
24	0xbe760284	-0.24024397
25	0xbe165890	-0.14682221
26	0x3ebfc30a	0.3745349
27	0xbe005b40	-0.12534809
28	0xbee41090	-0.44543886
29	0x3ea9c1ca	0.33155662
30	0xbedc2888	-0.42999673
31	0x3e9a8cde	0.30185598
32	0xbe86ad34	-0.26304018
33	0xbedf4ef2	-0.43614918
34	0xbe88e018	-0.2673347
35	0x3e87c748	0.26519227
36	0x3ec58b96	0.38583058
37	0xbed96178	-0.42457175
38	0xbef619ce	-0.48066562
39	0x3eab753a	0.33487874
40	0xbed81af2	-0.42208058
41	0xbe0142e4	-0.12623173
42	0xbeb8fa54	-0.36128485
43	0x3dc3eff0	0.09567249
44	0xbead753c	-0.33878505
45	0xbdf40490	-0.11914933
46	0x3e6092c0	0.2193098
47	0x3c983c40	0.018583417
48	0x3ee186ea	0.44048244
49	0xbee0e2b2	-0.43922955
50	0x3ecc16c6	0.39861125
51	0x3e8b8e2c	0.27256906
52	0xbee1d924	-0.44110978
53	0x3e8dd346	0.2770025
54	0xbe45b370	-0.19306731
55	0x3e544ed4	0.20733196
56	0xbe9194fe	-0.28433985
57	0x3e25f424	0.16206414
58	0x3e3c1430	0.18367076
59	0x3e6b9388	0.23005497
60	0x3e290180	0.16504478
61	0xbee532e0	-0.44765377
62	0x3e7eb98c	0.24875468
63	0xbd83fb28	-0.06444389
64	0xbd0a2950	-0.033730805
65	0xbe1f62dc	-0.15565056
66	0xbebb94ae	-0.3663687
67	0xbe506650	-0.20351529
68	0x3e1c2fb4	0.15252572
69	0x3eb052bc	0.3443812
70	0x3ec5e3de	0.3865041
71	0x3ed5550e	0.41666454
72	0xbe967914	-0.2938925
73	0xbb1d4c00	-0.0024001598
74	0x3ea661d6	0.32496518
75	0x3d0a3af0	0.033747613
76	0x3ef770f6	0.4832837
77	0xbbec1880	-0.007205069
78	0xbd723760	-0.05913484
79	0xbd5a6da0	-0.053327203
80	0xbec6abde	-0.38803
81	0x3e91c396	0.28469533
82	0xbeb601aa	-0.35548145
83	0x3eff2d62	0.49839312
84	0x3cf596a0	0.02997905
85	0x3d5b0630	0.053472698
86	0xbe3cd36c	-0.18440026
87	0x3e781e54	0.2423032
88	0xbd260130	-0.040528476
89	0x3e0481b4	0.12940103
90	0x3e951ce2	0.29123598
91	0x3e91a6ba	0.28447515
92	0xbea9292c	-0.33039224
93	0x3e99be06	0.3002779
94	0xbe73a56c	-0.23793572
95	0xbe5eb404	-0.21748358
96	0xbe824d04	-0.25449383
97	0x3ea1d1d4	0.316054
98	0xbee1e92c	-0.4412321
99	0xbe558904	-0.20853049
100	0x3d69bae0	0.057062984
101	0x3e3a16d0	0.18172765
102	0xbd64ab80	-0.055827618
103	0x3e4b5c88	0.19859517
104	0xbef45068	-0.47717595
105	0xbe426a70	-0.18985915
106	0xbd773a50	-0.060358346
107	0x3dbb04f0	0.09131801
108	0xbce3c7c0	-0.02780521
109	0xbe808cfa	-0.25107557
110	0x3e54d888	0.20785725
111	0x3e5f60e0	0.21814299
112	0x3e066f50	0.131284
113	0xbed56c96	-0.41684407
114	0xbeba72ba	-0.36415654
115	0xba854000	-0.0010166168
116	0x3e2fab38	0.17155159
117	0xbee9b59c	-0.4564637
118	0x3e18e750	0.14931989
119	0xbac9f200	-0.0015407205
120	0x3cb55420	0.02213484
121	0xbd6407b0	-0.055671394
122	0x3e1c8c0c	0.15287799
123	0x3e93a6f0	0.288383
124	0xbee42450	-0.44558954
125	0x3e34c268	0.17652285
126	0xbe7904a4	-0.24318177
127	0x3da2a040	0.079407215
128	0x3e9c9462	0.30581957
129	0xbd3f8ef0	-0.046767175
130	0x3edfab22	0.4368525
131	0xbebd8e4e	-0.37022632
132	0xbed1fbc6	-0.410124
133	0x3edf34f0	0.43595076
134	0xbefc0428	-0.4922192
135	0x3ee0c642	0.4390126
136	0xbea33110	-0.3187337
137	0xbe89b326	-0.26894492
138	0xbec23532	-0.3793121
139	0xbefdd21e	-0.4957437
140	0xbe05c954	-0.13065082
141	0x3e74fd60	0.2392478
142	0xbe9cd136	-0.30628365
143	0xbe1515d4	-0.14559108
144	0xbeea8c04	-0.45809948
145	0x3eb021b4	0.34400713
146	0xbec0b732	-0.37639767
147	0x3e5be0fc	0.21472543
148	0x3efb9fdc	0.491454
149	0xbc94a220	-0.018143713
150	0x3ef18744	0.47173512
151	0xbeba0568	-0.3633225
152	0xbe64ae10	-0.22332025
153	0x3dfeb238	0.12436336
154	0xbed6366a	-0.4183839
155	0x3efc991e	0.4933557
156	0x3d172010	0.03689581
157	0xbea9b942	-0.33149153
158	0xbe928224	-0.28614914
159	0x3e8ba64c	0.27275312
160	0x3d72bfd0	0.059264958
161	0x3ed5ee56	0.41783398
162	0x3e47f0e8	0.19525492
163	0xbeef58b4	-0.46747363
164	0x3ee86e22	0.45396525
165	0xbed49242	-0.41517836
166	0x3e087be8	0.13328516
167	0xbee81bde	-0.4533376
168	0x3ef89fdc	0.48559463
169	0xbe8189a2	-0.25300318
170	0xbe6c3aec	-0.23069352
171	0xbddc46f0	-0.10755718
172	0x3ed344b4	0.41263354
173	0x3e3e7878	0.18600643
174	0x3e9db9de	0.30805868
175	0xbe81ea3c	-0.2537402
176	0xbed46134	-0.4148041
177	0xbd031c20	-0.032009244
178	0x3dfc9ce0	0.12334609
179	0xbda45570	-0.080241084
180	0xbcf9dd40	-0.030501008
181	0xbefd6432	-0.49490505
182	0xbee3206e	-0.4436068
183	0xbd5a4860	-0.05329168
184	0xbe0e64b8	-0.13905609
185	0x3ec45556	0.38346356
186	0x3de6ae70	0.1126374
187	0xbde058e8	-0.109544575
188	0xbc6e96c0	-0.014562309
189	0xbd8cbc10	-0.068718076
190	0x3ee2a4ec	0.4426645
191	0xbeb0a3c4	-0.34499943
192	0xbdb91af0	-0.09038341
193	0xbda65c28	-0.08123046
194	0xbe81c2bc	-0.25343883
195	0xbeb07f18	-0.34471965
196	0xbef8687a	-0.4851721
197	0xbefc19f4	-0.4923855
198	0xbe9198dc	-0.28436935
199	0xbe92bede	-0.28661245
200	0x3df8fa68	0.12157136
201	0x3ed21338	0.41030288
202	0x3ed0a29e	0.40749067
203	0xbedcb556	-0.43107098
204	0xbdb27328	-0.087133706
205	0xbed2d230	-0.41175985
206	0xbefbf276	-0.4920842
207	0xbe1c741c	-0.15278667
208	0x3ed39648	0.41325593
209	0x3cb8e420	0.022569716
210	0x3edd78b8	0.43256164
211	0xbd905628	-0.07047683
212	0xbea844bc	-0.3286494
213	0xbe0d3244	-0.13788706
214	0xbec6239c	-0.38699043
215	0xbe905994	-0.28193343
216	0xbe8c7b42	-0.27437788
217	0xbe372d10	-0.17888284
218	0xbee48e9e	-0.44640058
219	0xbe112fa4	-0.1417833
220	0xbe8e13c2	-0.2774945
221	0xbe2f78d0	-0.1713593
222	0x3e9d211c	0.30689323
223	0x3dddf208	0.108371794
224	0x3ee1f1c4	0.44129765
225	0x3e8d482c	0.27594125
226	0x3eaf6fc8	0.3426497
227	0x3cfbfc60	0.03075999
228	0x3ec4dc3c	0.38449275
229	0x39c9c800	0.0003848672
230	0x3e63263c	0.22182554
231	0x3ebb8f44	0.3663274
232	0xbe5d96a8	-0.21639502
233	0xbe4b2fac	-0.19842404
234	0x3de09160	0.10965228
235	0xbe493834	-0.19650346
236	0x3eaa4ed4	0.33263266
237	0xbca510e0	-0.020149648
238	0x3ea3c72a	0.31987888
239	0xbe4cd468	-0.20002902
240	0x3e1a97ec	0.15097016
241	0xbe8af73e	-0.27141756
242	0x3eaa2f7e	0.3323936
243	0xbd3ce760	-0.046119094
244	0xbde99628	-0.11405593
245	0x3e18137c	0.14851183
246	0x3e130f54	0.14361316
247	0xbee1352c	-0.4398588
248	0x3e3f7854	0.18698245
249	0xbeb8a832	-0.36065823
250	0x3ce88160	0.028382003
251	0x3d7a0140	0.06103635
252	0xbda5f320	-0.08103013
253	0x3eedac8e	0.4642071
254	0x3ea5b310	0.32363176
255	0x3ea55902	0.3229447

layer1.bias f4 [128]
0	0x3e6a0bf4	0.22856122
1	0xbe8efde4	-0.27928078
2	0xbd7172d0	-0.058947384
3	0x3e8693f6	0.2628476
4	0xbd2b2850	-0.041786492
5	0x3e139a74	0.14414388
6	0xbdb44370	-0.08801925
7	0x3d20e9e0	0.03928554
8	0x3e135580	0.14388084
9	0xbd5f8a20	-0.054575086
10	0x3d6674d0	0.056263745
11	0x3d30ab00	0.04313183
12	0xbe0822cc	-0.13294524
13	0xbed2c03c	-0.41162288
14	0x3e4d6914	0.20059615
15	0xbea993e6	-0.3312065
16	0x3da418c8	0.08012539
17	0xbe0bb05c	-0.13641495
18	0xbe0c4c1c	-0.13700908
19	0xbea3bdac	-0.31980646
20	0xba7d5000	-0.0009663105
21	0x3e4a4698	0.19753492
22	0xbdfb2808	-0.12263495
23	0xbefaaff4	-0.48962367
24	0x3dcaad38	0.0989632
25	0x3df4fe38	0.11962551
26	0xbe502014	-0.20324737
27	0xbdc014f8	-0.093789995
28	0xbe96e61c	-0.29472435
29	0xbee46f14	-0.44615996
30	0x3eacb2b6	0.33730096
31	0xbe28e1fc	-0.16492456
32	0x3e3908a8	0.18069708
33	0xbc54e140	-0.012993157
34	0xbe631a58	-0.22178018
35	0x3e05ad6c	0.13054436
36	0xbedec45e	-0.4350919
37	0xbe5e8e7c	-0.21734041
38	0xbea48ab4	-0.32137072
39	0xbef7bdf0	-0.48387098
40	0x3edb67aa	0.42852527
41	0x3ed9e19a	0.42554933
42	0x3dcdcf10	0.1004926
43	0xbe99e67c	-0.30058658
44	0x3eca105a	0.394656
45	0x3e91cbb0	0.28475714
46	0xbe298ed8	-0.16558397
47	0xbdd997f0	-0.10624683
48	0xbeca60d4	-0.39527
49	0xbe3a0920	-0.18167543
50	0xbe7c4f8c	-0.2463972
51	0xbe88eb90	-0.2674222
52	0xbec78e00	-0.38975525
53	0xbe93c52e	-0.28861374
54	0xbe7c7e4c	-0.24657553
55	0xbe7b7eec	-0.24560136
56	0xbe29bc18	-0.16575658
57	0x3cb78b00	0.022405148
58	0xbefb03ec	-0.4902643
59	0x3e7122d8	0.23548448
60	0xbe0a5998	-0.1351074
61	0x3e2f8334	0.17139894
62	0x3df709c8	0.120624125
63	0x3ed979ce	0.42475742
64	0xbe94bed4	-0.2905184
65	0xbe92d372	-0.28676945
66	0xbdc4ee18	-0.09615725
67	0x3e898c1e	0.26864713
68	0xbee40fa6	-0.4454319
69	0xbe25dce0	-0.16197538
70	0x3d791a90	0.060816348
71	0x3eb21adc	0.34786117
72	0x3eb779ae	0.35835022
73	0xbd8a0f90	-0.067412496
74	0xbc1f6240	-0.0097280145
75	0x3ebf8848	0.37408662
76	0xbd933358	-0.071875274
77	0x3ef36c64	0.47543633
78	0xbebfcc50	-0.37460566
79	0xbe414100	-0.18872452
80	0xbd0a3f50	-0.033751786
81	0x3eda2622	0.42607218
82	0xbe623f24	-0.22094399
83	0x3e70256c	0.23451775
84	0x3ec92f44	0.39293873
85	0xbe6c27a4	-0.23061997
86	0xbeb5ce0e	-0.3550877
87	0x3da35328	0.07974845
88	0x3ecdc4cc	0.40189207
89	0x3e75f1bc	0.24017996
90	0xbe4686ac	-0.1938731
91	0xbe955730	-0.2916808
92	0x3e8c2b30	0.273767
93	0xbe658f1c	-0.22417873
94	0x3ee2df04	0.44310772
95	0x3e93399c	0.2875489
96	0x3eee3100	0.4652176
97	0x3dcca2f8	0.09992021
98	0x3e84ac00	0.25912476
99	0xbeb81c16	-0.35958928
100	0xbc2fa7c0	-0.010721147
101	0x3eac87de	0.33697408
102	0x3dff4f78	0.12466329
103	0x3ede544e	0.43423694
104	0x3e5f81cc	0.21826857
105	0x3d1dc8b0	0.03852147
106	0xbe660bf0	-0.22465491
107	0x3e1f3a7c	0.15549654
108	0xbdd5f128	-0.104463875
109	0xbed73608	-0.4203341
110	0xbd8ad050	-0.06778014
111	0xbecb29b8	-0.39680266
112	0x3dad3fc8	0.08459431
113	0xbc3b9a40	-0.01145035
114	0xbe5ce1b0	-0.21570468
115	0xbecc1c9c	-0.39865577
116	0x3eb9be7a	0.36278135
117	0xbdedf048	-0.11618096
118	0xbee917c6	-0.4552595
119	0xbeadc5e8	-0.33940053
120	0x3e72f61c	0.23726696
121	0x3e809bbe	0.25118822
122	0x3ecf9dd0	0.4055009
123	0xbed4a56c	-0.41532457
124	0xbe4fa5e8	-0.20278132
125	0xbe670300	-0.22559738
126	0x3cc3f240	0.023919225
127	0xbe8bf4d0	-0.27335215

layer2.weight f4 [128, 128]
0	0x3d8e28d6	0.069413826
1	0x3d2bfa23	0.041986596
2	0x3d783f08	0.060606986
3	0xbacfc383	-0.0015851114
4	0xbd85be4c	-0.06530437
5	0x3d93bbc1	0.072135456
6	0xbbb3be71	-0.005485349
7	0x3dabd2cc	0.08389816
8	0x3cf9925e	0.030465301
9	0x3c16f2e6	0.009213185
10	0xbd1bf375	-0.038073976
11	0x3c6d5128	0.014484681
12	0xbc097ff4	-0.008392323
13	0xbc9f0861	-0.019413175
14	0xbc9b9397	-0.018991275
15	0x3d636403	0.0555153
16	0x3cfdb8af	0.030971853
17	0x3daa0458	0.0830161
18	0xbd8ccc1e	-0.0687487
19	0xbd846bd9	-0.06465883
20	0x3d2d8117	0.042359438
21	0xbda907e8	-0.08253461
22	0xbd1695af	-0.036763843
23	0xbd6bf61f	-0.057607766
24	0xbc1cce30	-0.009570643
25	0xbda071d5	-0.07834212
26	0x3cb3a513	0.0219293
27	0xbd3bcd16	-0.045849882
28	0x3b0bab90	0.0021311976
29	0xbdacdf0e	-0.08440982
30	0x3d63f9b3	0.055658054
31	0xbd58210a	-0.052765884
32	0x3d1e1aed	0.038599897
33	0xbc83d6bd	-0.016093606
34	0x3d7b9fc2	0.061431654
35	0x3d86bb6e	0.06578718
36	0xbb79f984	-0.0038143108
37	0xbcbeffc5	-0.02331532
38	0xbc8d27da	-0.017230917
39	0xbc919569	-0.01777144
40	0x3d45ff9a	0.048339464
41	0x3d2b6f77	0.041854348
42	0x3b6201c6	0.003448592
43	0x3cae0ae8	0.021245435
44	0xbcecf2ab	-0.028924307
45	0xbb6560cc	-0.0035000322
46	0xbc6f0461	-0.014588446
47	0x3cea95fb	0.02863597
48	0xbd662171	-0.056184236
49	0x3dadba5d	0.084828116
50	0xbbbf2f31	-0.005834483
51	0x3cf091f3	0.029366469
52	0x3b2cee30	0.0026387088
53	0x3db36ae6	0.08760624
54	0x3ce4fed7	0.027953548
55	0xbcbc869a	-0.023013402
56	0x3d2bffdc	0.041992053
57	0xbd4a0556	-0.049321495
58	0x3d5f4004	0.05450441
59	0x3db18c2f	0.08669316
60	0x3bd75693	0.0065715997
61	0x3d8cb728	0.06870872
62	0x3d2a2c16	0.04154595
63	0xbcc821a4	-0.024430104
64	0x3d0f17c1	0.034934763
65	0xbbc10c39	-0.0058913496
66	0x3da892a6	0.08231096
67	0xbd84bf04	-0.06481746
68	0x3d09c7a5	0.03363766
69	0x3c392963	0.011301371
70	0xbd4c22bd	-0.049837817
71	0x3d7a9cf8	0.061184853
72	0xbb3fd3dc	-0.0029270565
73	0x3c8b4245	0.016999373
74	0x3da4a3a4	0.080390245
75	0x3bc2cac3	0.0059445812
76	0xbcb97534	-0.022638895
77	0xbd6bb1f9	-0.057542775
78	0x3d3a28d7	0.045449104
79	0x3d855223	0.06509807
80	0xbbb9af85	-0.0056666755
81	0xbdad25b5	-0.08454458
82	0xbd71305a	-0.058884002
83	0x3d12a186	0.035798572
84	0x3d824f45	0.06362776
85	0x3d86e866	0.06587295
86	0xbd889318	-0.06668681
87	0x3ae484b6	0.001743457
88	0x3c5980e7	0.013275362
89	0xbcb65057	-0.022255106
90	0xbdb0811b	-0.08618375
91	0xbda3fc3c	-0.08007094
92	0x3d7c2dc1	0.06156707
93	0xbd62b493	-0.05534799
94	0xbcab854c	-0.020937584
95	0x3cdc1c2b	0.0268689
96	0x3d7701f1	0.060304586
97	0xbda2e098	-0.07952994
98	0x3d404e9e	0.046949975
99	0x3d739f64	0.05947818
100	0xbd89564a	-0.067059115
101	0x3c5c8ce2	0.013461323
102	0x3d806a32	0.06270255
103	0xbdb20a40	-0.08693361
104	0xbd8fc4be	-0.070199475
105	0x3d4ddde5	0.050260443
106	0x3d10ffe1	0.035400275
107	0x3d67adeb	0.056562345
108	0xbda8cbdf	-0.0824201
109	0x3daa0f4b	0.08303698
110	0xbc935e88	-0.017989412
111	0x3d88b617	0.06675356
112	0x3bbb0e27	0.005708474
113	0x3c4433f6	0.011975279
114	0xbda6a306	-0.08136563
115	0xbd85ab10	-0.06526768
116	0x3da612db	0.08109065
117	0x3dab11db	0.08353015
118	0xbd0af4e5	-0.033924956
119	0x3c682ea5	0.014171277
120	0x3d5ff99c	0.054681405
121	0x3d520e30	0.05128306
122	0x3c660d4a	0.014041254
123	0x3d1a5096	0.03767451
124	0x3cb1f125	0.021721432
125	0x3d89b202	0.067234054
126	0xbca75c27	-0.020429684
127	0xbd6650ed	-0.05622952
128	0x3d5a2b75	0.0532641
129	0xbd14696c	-0.03623335
130	0xbd32486b	-0.043526094
131	0x3da4c2ad	0.08044944
132	0xbd0ef3cb	-0.034900468
133	0xbd6e0271	-0.058107797
134	0xbd9759ef	-0.073902
135	0xbd541f3f	-0.05178761
136	0x3cf01b61	0.02930993
137	0xbd15d74b	-0.036582272
138	0x3d9a6232	0.075382605
139	0x3d58977b	0.052878838
140	0x3d9c0baf	0.07619416
141	0xbce7e5a8	-0.02830775
142	0x3d2b6bdd	0.041850913
143	0xbc1ac129	-0.009445467
144	0xbd6e3965	-0.058160204
145	0x3d3ad8fd	0.045617092
146	0x3d55f1f6	0.052232705
147	0x3db2c8d0	0.08729708
148	0x3b84d902	0.0040541897
149	0x3d71fe85	0.05908062
150	0xbd0e1da6	-0.034696244
151	0x3d82bfea	0.06384261
152	0xbd74647a	-0.059666134
153	0xbc3a4118	-0.011368059
154	0xbd9d0238	-0.07666439
155	0x3d0b28f5	0.033974607
156	0x3d52c2a2	0.051455148
157	0x3d93a9bd	0.072101094
158	0x3af7059e	0.0018846279
159	0x3c2f9dce	0.010718776
160	0xbc346788	-0.011011012
161	0x3a2f7a7e	0.0006693973
162	0x3d8e3c82	0.06945135
163	0xbd8a1bc6	-0.067435786
164	0x3da587b1	0.08082522
165	0xbd683fa0	-0.056701303
166	0x3a3e4fa8	0.00072597945
167	0x3b69043c	0.0035555502
168	0xbc47207a	-0.012153739
169	0xbd1202ae	-0.035647087
170	0xbd82ea5d	-0.063923575
171	0x3c65c617	0.014024279
172	0xbd0f4220	-0.03497517
173	0x3d9f72c1	0.077855594
174	0xbd59b53a	-0.053151347
175	0xbd34ef43	-0.04417349
176	0x3d4fe8b6	0.05075904
177	0x3ccebe91	0.025237354
178	0xbc0ff2d3	-0.008785921
179	0xbd657477	-0.056019273
180	0xbd8c0494	-0.06836811
181	0x3b2c247c	0.0026266864
182	0xbd88444b	-0.06653651
183	0xba3a9c22	-0.00071186025
184	0xbcc72409	-0.024309175
185	0xbcf6a24b	-0.030106684
186	0x3cf2afdc	0.029624872
187	0xbce01dbd	-0.02735793
188	0x3d32ee4d	0.043684293
189	0xbd191767	-0.037375834
190	0xbd18132d	-0.037127662
191	0x3d44e5a7	0.048070576
192	0xbdac3ab6	-0.08409636
193	0xbca5e382	-0.020250086
194	0xbcdf5349	-0.027261393
195	0xbc84764d	-0.016169691
196	0x3cf7d9bb	0.03025519
197	0xbcdb0bc7	-0.026739014
198	0x3d9929ed	0.074787
199	0x3db18518	0.08667964
200	0x3da61fa1	0.081115015
201	0x3da5d30b	0.08096894
202	0xbc3d92f3	-0.01157068
203	0xbdaccb3c	-0.084372014
204	0xbd4c36ca	-0.04985694
205	0xbd407ed8	-0.046995968
206	0x3b5593cb	0.0032589312
207	0xbd0d889b	-0.034554105
208	0x3c61a6b1	0.0137726525
209	0xbd5e3d5c	-0.054257736
210	0x3c23edc5	0.010005419
211	0x3d344334	0.044009402
212	0xbda300f2	-0.07959165
213	0xbda2b4b7	-0.07944625
214	0x3d7efe6b	0.06225435
215	0xbb21f918	-0.0024715122
216	0xbd8fbd77	-0.070185594
217	0xbd887e3a	-0.06664701
218	0xbd4aa61d	-0.049474824
219	0xbd8143da	-0.0631177
220	0x3bdaf4f9	0.006682035
221	0xbd9739e6	-0.0738409
222	0x3d21dbf3	0.0395164
223	0xbd3209d9	-0.043466423
224	0x3c954577	0.0182216
225	0x3a503d7d	0.0007943733
226	0x3d9d32e5	0.07675723
227	0xbd3ae5c3	-0.045629274
228	0x3b771e8b	0.0037707414
229	0x3afe9060	0.0019421689
230	0x3d9e7504	0.07737163
231	0x3cfb773e	0.030696508
232	0xbd944477	-0.07239621
233	0xbd12a504	-0.035801902
234	0x3d8233a2	0.063575044
235	0xbd2d2e67	-0.04228058
236	0xbd44f37c	-0.048083767
237	0xbd94f14c	-0.07272586
238	0x3d9d904c	0.07693538
239	0xbcb577db	-0.022151878
240	0x3c769e1e	0.0150523465
241	0xbd345777	-0.044028725
242	0x3d877caa	0.06615575
243	0x3d16a37e	0.036777012
244	0x3d6be658	0.05759272
245	0x3c5de419	0.013543152
246	0x3c98681e	0.018604334
247	0x3d1c8695	0.038214285
248	0x3d824aae	0.063619
249	0xbd4ae0ed	-0.049530912
250	0xbd6bf7f7	-0.057609525
251	0xbb946331	-0.004528426
252	0xbd5c2b78	-0.053752393
253	0x3d89bc9c	0.067254275
254	0x3da193c3	0.078895114
255	0xbdaa7025	-0.08322171

layer2.bias f4 [128]
0	0xbd6bad85	-0.057538528
1	0x3d231960	0.03981912
2	0x3d18321d	0.037157167
3	0xbd244df5	-0.040113408
4	0x3c1c5eaf	0.009544059
5	0x3d90d209	0.07071311
6	0xbd516377	-0.051120248
7	0x3c4e6524	0.012597356
8	0xbd92e622	-0.071728006
9	0x3d801490	0.06253922
10	0xbd8d842b	-0.06909975
11	0xbd9473b1	-0.07248629
12	0xbcd173cc	-0.025567912
13	0xbc4b279d	-0.012399581
14	0xbb3abd31	-0.0028494115
15	0x3d0cfe03	0.034421932
16	0x3cb62688	0.02223517
17	0xbbf90563	-0.007599519
18	0xbd0b06df	-0.0339421
19	0x3c7331a8	0.014843382
20	0xbc6f86cc	-0.01461954
21	0xba28739d	-0.0006425919
22	0x3d7254aa	0.059162773
23	0x3d956084	0.072937995
24	0xbcd8daf9	-0.026471602
25	0x3d5208e8	0.051278025
26	0xbd7986e6	-0.060919665
27	0x3d590440	0.05298257
28	0x3bf82d03	0.007573725
29	0x3d98ba8f	0.07457458
30	0xbd4be3cb	-0.049777787
31	0xbc054a1a	-0.008135343
32	0xbd02c576	-0.031926595
33	0x3d8549cc	0.06508216
34	0xbd9ff39d	-0.078101374
35	0x3ca0b2f7	0.019616587
36	0x3bb84fa5	0.0056247287
37	0xbd6d92c0	-0.05800128
38	0xbd91f014	-0.071258694
39	0xbd095830	-0.033531368
40	0x3d2a5530	0.041585147
41	0x3d23f222	0.040025838
42	0x3d842a21	0.06453348
43	0x3aa22f8b	0.0012373788
44	0x3b9a390b	0.004706507
45	0xbd8c9ccd	-0.06865845
46	0xbd2fda62	-0.042932875
47	0x3d316e65	0.04331817
48	0xbc2e3589	-0.010632881
49	0xbd91ebe7	-0.07125073
50	0xbbc9062c	-0.006134769
51	0x3c551b8b	0.013007055
52	0x3d8072d9	0.062719055
53	0x3d4578cf	0.048210915
54	0xbbc8b87a	-0.006125507
55	0xbd1f2e41	-0.03886247
56	0x3d9e700e	0.077362165
57	0xbc892018	-0.016738936
58	0x3d724d62	0.05915583
59	0x3d4acbbf	0.049510714
60	0xbcefbfd4	-0.029266275
61	0xbd1df67f	-0.038565155
62	0xbd634412	-0.05548484
63	0xbd4fc681	-0.050726417
64	0xbd887386	-0.06662659
65	0x3c663b1e	0.014052181
66	0xbd8b8ca8	-0.068139374
67	0xbd9417b8	-0.072310865
68	0x3d9f29a6	0.07771616
69	0xba282f06	-0.00064156984
70	0x3cca49ea	0.024693448
71	0x3d83c8bb	0.06434771
72	0xbce2b895	-0.027675906
73	0x3aa5bc2d	0.0012644582
74	0xbd44c389	-0.04803804
75	0xbd9178b2	-0.07103099
76	0xbd630c33	-0.055431556
77	0xbce2d642	-0.027690057
78	0xbc886916	-0.016651671
79	0xbcf27c81	-0.029600384
80	0x3d29c4c8	0.04144743
81	0x3c3ec91a	0.011644626
82	0xbd9fb91f	-0.07798981
83	0x3ae06889	0.0017120998
84	0xbced7a20	-0.028988898
85	0x3d657e1f	0.05602848
86	0x3ce7677c	0.028247587
87	0xbd2cbf3b	-0.04217456
88	0x3d08e340	0.033419847
89	0xbd10f291	-0.03538758
90	0xbd3b1c73	-0.04568143
91	0x3c965860	0.018352687
92	0xbce2e8e3	-0.02769894
93	0x3d85d013	0.06533828
94	0x3d2defa1	0.042464856
95	0x3d78ce0c	0.060743377
96	0x3d644f01	0.055739406
97	0xbd6d3ec0	-0.05792117
98	0x3d854d9c	0.065089434
99	0x3dad2f57	0.08456295
100	0x3d610e79	0.054945443
101	0xbda60663	-0.08106687
102	0x3da27772	0.07932939
103	0xbdac2aa9	-0.08406574
104	0x3d767433	0.06016941
105	0xbd97cb8e	-0.07411872
106	0xbd58b4e1	-0.052906875
107	0xbbaec042	-0.0053329775
108	0xbd8455ac	-0.06461653
109	0xbd7bf102	-0.06150914
110	0xbbc05175	-0.0058690854
111	0x3c2ab349	0.0104187215
112	0x3d4f8bb7	0.05067035
113	0xbda453aa	-0.0802377
114	0x3c6ad731	0.014333532
115	0xbcfa040e	-0.030519512
116	0x3d646c95	0.055767614
117	0x3d47c1fc	0.048768982
118	0xbc21a93c	-0.009867009
119	0xbdb1bba1	-0.086783655
120	0x3c7bf7a6	0.015378868
121	0xbd6cf004	-0.057846084
122	0xbc83ee29	-0.016104775
123	0xbd84c78d	-0.06483374
124	0x3b5a271e	0.0033287476
125	0xbc7bf80c	-0.015378963
126	0xbb6cff5a	-0.0036162944
127	0x3cc947b6	0.024570327

layer3.weight f4 [4, 128]
0	0x3d3c5edc	0.045988902
1	0xbd67991a	-0.056542493
2	0x3d42f96e	0.047601156
3	0x3c531dda	0.012885535
4	0xbd9c70dc	-0.07638714
5	0xbd0b782d	-0.034050155
6	0x3c5a7e9f	0.013335853
7	0xbd97323b	-0.073826276
8	0xbdabd7b4	-0.083907515
9	0xbd944a3a	-0.0724072
10	0xbc5eb49b	-0.013592864
11	0xbd960a9c	-0.07326242
12	0xbdaaacb5	-0.083337225
13	0xbd147007	-0.03623965
14	0xbd074165	-0.03302135
15	0xbc80751b	-0.01568084
16	0xbdae810a	-0.08520706
17	0x3dacfb50	0.084463716
18	0xbda38646	-0.07984595
19	0xbd5268f1	-0.05136961
20	0xbd3f990c	-0.046776816
21	0xbc96d407	-0.01841165
22	0xbd065785	-0.03279831
23	0x3a04ccfd	0.0005065946
24	0xbc675e9f	-0.0141216805
25	0x3d8f69e1	0.07002617
26	0xbdb02ce6	-0.08602314
27	0x3d4bc7ff	0.049751278
28	0x3d2a840b	0.041629832
29	0xbd884cc6	-0.06655268
30	0x3db41310	0.087926984
31	0xbccd5695	-0.0250657
32	0xbd5f1c19	-0.054470155
33	0x3d9e1e9d	0.07720683
34	0xbca5079e	-0.020145234
35	0xbd015eb7	-0.031584468
36	0x3bec4891	0.007210799
37	0xbd82cb0f	-0.063863866
38	0x3d937e78	0.072018564
39	0x3d604884	0.054756656
40	0x3db2d861	0.08732677
41	0xbd4f81e5	-0.050660986
42	0xbcffce5a	-0.031226326
43	0xbb748f0e	-0.0037316713
44	0x3d8588ca	0.06520231
45	0xbcde5f3e	-0.027145024
46	0xbab0ce9d	-0.001348931
47	0x3d614c5b	0.05500446
48	0xbdb05d7f	-0.08611583
49	0xbc9cfb66	-0.019162845
50	0x3b17e482	0.0023176973
51	0x3db1c22c	0.086796135
52	0xbdae6c73	-0.08516779
53	0xbd551889	-0.05202535
54	0xbda8c5a6	-0.082408234
55	0x3d98441b	0.07434865
56	0x3db0c356	0.086310074
57	0xbcbe335f	-0.023217855
58	0x3d861236	0.06546442
59	0x3d4d29a6	0.050088547
60	0x3ca2a73e	0.019855138
61	0x3d83aa65	0.064289846
62	0xbb36b065	-0.0027876135
63	0x3cc461b9	0.023972379
64	0xbac5af47	-0.0015082144
65	0x3d4b97c2	0.049705274
66	0xbbe97f89	-0.007125799
67	0x3c2bdc24	0.010489497
68	0xbd2b41d3	-0.04181082
69	0xbc97119d	-0.018441016
70	0x3c899459	0.01679437
71	0x3d9ff118	0.07809657
72	0xbbe95056	-0.0071201725
73	0xbdac9a38	-0.084278524
74	0xbc9a7e8f	-0.018859176
75	0xbc081c1a	-0.008307481
76	0xbd363071	-0.04447979
77	0x3a5995a1	0.00083001895
78	0x3d8a6b65	0.06758765
79	0xbd896756	-0.06709163
80	0x3d5fac3c	0.054607615
81	0xbc506d87	-0.012721426
82	0xbcab2938	-0.020893678
83	0xbc8dab32	-0.017293546
84	0xbd3e04bc	-0.046391234
85	0x3bdf3b7c	0.006812511
86	0xbd951b44	-0.07280591
87	0x3d67432d	0.05646055
88	0xbd7e82dd	-0.06213652
89	0xbc311cca	-0.0108100865
90	0x3d8c4d31	0.068506606
91	0x3cef9f04	0.02925063
92	0x3d852804	0.06501773
93	0x3d805789	0.06266696
94	0x3d006510	0.03134638
95	0xbd1596cb	-0.03652076
96	0xbbbb176f	-0.0057095806
97	0x3d474a8a	0.04865507
98	0xbd6fda56	-0.05855783
99	0xbd94923f	-0.07254457
100	0x3cb09f69	0.021560388
101	0xbd1d5bc9	-0.03841761
102	0x3ce856f9	0.028361784
103	0x3da1a3ae	0.078925475
104	0x3bdec6d0	0.0067986026
105	0xbb48f2b9	-0.0030662252
106	0x3da61b83	0.08110716
107	0xbd920fda	-0.0713193
108	0x3d137641	0.036001448
109	0xbdac8d12	-0.084253445
110	0x3d67a0a9	0.0565497
111	0xbd948af0	-0.07253063
112	0xbd2b9899	-0.041893575
113	0xbb95c66c	-0.004570773
114	0x3ce2bb04	0.027677067
115	0x3b08906b	0.0020838033
116	0x3d92e10b	0.0717183
117	0xbd87f318	-0.06638163
118	0x3cc79592	0.024363313
119	0x3d85d110	0.06534016
120	0x3b07d646	0.0020727082
121	0x3d9e4a8c	0.077290624
122	0xbd8ae581	-0.06782056
123	0xbb4419ee	-0.0029922682
124	0x3d99a474	0.0750207
125	0xbd80bbc6	-0.06285815
126	0xbc8f0b34	-0.017461397
127	0x3db08cfa	0.08620639
128	0xbd63ddfa	-0.055631615
129	0xbda79762	-0.08183171
130	0x3cba3ec0	0.022735
131	0x3cd0b727	0.025477959
132	0x3c4e8030	0.0126038045
133	0x3da8bc24	0.0823901
134	0xbd64c158	-0.05584845
135	0x3d8c2585	0.06843094
136	0xbd890bc1	-0.06691695
137	0x3c3b3d00	0.011428118
138	0xbd989c62	-0.07451703
139	0x3d950379	0.07276053
140	0x3d4301b7	0.047609057
141	0x3d978db3	0.07400074
142	0xbd95fbf8	-0.0732345
143	0xbcbb7323	-0.02288205
144	0x3bff2edb	0.007787568
145	0xbd068e7c	-0.032850727
146	0xbdacd976	-0.08439915
147	0x3d6e479d	0.058173764
148	0x3d5ceb35	0.05393525
149	0x3d4b073e	0.049567454
150	0xbd596a57	-0.05307993
151	0x3d389a39	0.045068953
152	0x3ca3102e	0.019905176
153	0xbd5f1de0	-0.05447185
154	0xbdb31b83	-0.08745482
155	0xbd27a260	-0.040926337
156	0x3ca518db	0.020153454
157	0x3c8c5b14	0.017133273
158	0xbdb309d2	-0.087421075
159	0xbd4332a4	-0.047655717
160	0x3cc78c88	0.024359003
161	0xbcdfbe03	-0.027312284
162	0x3daaad7e	0.08333872
163	0x3c00275e	0.007821886
164	0x3daa6c11	0.08321393
165	0xbd4a94ca	-0.049458303
166	0x3d0fde74	0.035124257
167	0xbda23b59	-0.07921476
168	0xbbffa3cb	-0.007801508
169	0x3c04e4ad	0.008111161
170	0x3da9236e	0.08258711
171	0xbd985352	-0.07437767
172	0x3d7142a6	0.05890145
173	0xbd881761	-0.06645084
174	0xbd613470	-0.05498165
175	0x3d8fa9af	0.070147865
176	0x3d19edbc	0.037580237
177	0x3ba75307	0.005106333
178	0x3d2c0e14	0.042005613
179	0xbd56ad91	-0.05241162
180	0x3da4de78	0.08050245
181	0x3cf5b460	0.029993236
182	0x3d307f24	0.04309
183	0xbca862f4	-0.020554997
184	0xbdacc245	-0.084354915
185	0x3ca9db44	0.020734437
186	0xbcca891d	-0.024723584
187	0x3d48dc57	0.049038257
188	0xbd91d763	-0.0712116
189	0x3da30ab5	0.079610266
190	0xbd163535	-0.036671836
191	0xbd8e72e1	-0.06955505
192	0xbd12ea34	-0.035867885
193	0x3abaae2a	0.0014242579
194	0xbda68284	-0.08130363
195	0x3d732192	0.059358187
196	0xbd2e1518	-0.042500585
197	0x3da067ed	0.07832322
198	0x3cc7fb81	0.024411919
199	0x3ca836ea	0.020533998
200	0x3db17938	0.08665699
201	0x3d88ae43	0.06673863
202	0xbd87a139	-0.06622548
203	0x3ca30bda	0.019903112
204	0xbbaf7bd2	-0.0053553367
205	0xbc94b73f	-0.018153785
206	0x3d05eedb	0.032698493
207	0x3c978342	0.018495206
208	0xbd95c46c	-0.07312855
209	0xbd0c3570	-0.03423065
210	0x3c9661f1	0.018357249
211	0x3ce6aed1	0.02815953
212	0xbcb3a70b	-0.021930238
213	0xbbbc7a3a	-0.005751875
214	0xbd760899	-0.060066793
215	0x3d182a1d	0.037149537
216	0x3d9d255b	0.076731406
217	0xbd174afa	-0.036936738
218	0xbd4c2120	-0.049836278
219	0x3d4a6fde	0.04942309
220	0xbd7e215c	-0.062043533
221	0xbda14f0f	-0.07876407
222	0x3d62ac57	0.055340137
223	0x3d30d4dd	0.043171752
224	0x3d8605e6	0.06544094
225	0x3cebf3cd	0.028802777
226	0x3d53713c	0.05162166
227	0x3c0c0716	0.008546611
228	0xbd5613d0	-0.05226499
229	0x3c9dae95	0.019248286
230	0xbd925394	-0.071448475
231	0x3da2c55b	0.07947799
232	0x3cfc492a	0.030796606
233	0x3db0fce6	0.086419865
234	0x3d0e0122	0.03466905
235	0xbcc6f1b2	-0.024285171
236	0x3c44625d	0.011986342
237	0x3b8f9270	0.0043814704
238	0xba3deec8	-0.0007245359
239	0xbd484e22	-0.04890264
240	0x3d00ea44	0.031473413
241	0x3bde3db9	0.0067822603
242	0x3d5f2991	0.054483
243	0x3d5ed0b3	0.05439825
244	0x3d0283b6	0.03186389
245	0x3dad44a9	0.084603615
246	0x3cadfa1d	0.021237427
247	0x3bc17ab5	0.0059045204
248	0xbc2f9ce0	-0.010718554
249	0xbda65709	-0.081220694
250	0x3c189609	0.009313115
251	0xba9a3510	-0.0011765081
252	0x3d3cf291	0.046129767
253	0x3d06e1ef	0.03293031
254	0x3d1063cc	0.035251424
255	0x3d778ef4	0.060439065

layer3.bias f4 [4]
0	0x3c233625	0.0099616395
1	0xbd1df08e	-0.03855949
2	0xbd9ae2fc	-0.07562825
3	0x3d42145f	0.04738271

layer1.weight f4 [128, 4]
0	0x3e78ece4	0.24309117
1	0x3ecfd146	0.4058935
2	0xbda22f00	-0.07919121
3	0x3e0ad404	0.1355744
4	0x3eefd7e0	0.46844387
5	0x3df9f708	0.122053206
6	0xbef71cc8	-0.48264146
7	0x3e4a4950	0.19754529
8	0xbe3f2f38	-0.18670356
9	0x3e49d378	0.19709575
10	0x3eb1378c	0.3461269
11	0x3df12778	0.11775106
12	0xbec4fc38	-0.38473678
13	0x3edd698c	0.43244588
14	0xbed2456e	-0.41068596
15	0xbda8f610	-0.08250058
16	0x3eac7bd4	0.33688223
17	0xbed2b270	-0.41151762
18	0x3e9d1cf2	0.30686146
19	0x3bd21300	0.0064109564
20	0x3d1e9c80	0.03872347
21	0x3ebabcee	0.36472267
22	0xbeb79af6	-0.35860413
23	0xbc233300	-0.00996089
24	0xbe760284	-0.24024397
25	0xbe165890	-0.14682221
26	0x3ebfc30a	0.3745349
27	0xbe005b40	-0.12534809
28	0xbee41090	-0.44543886
29	0x3ea9c1ca	0.33155662
30	0xbedc2888	-0.42999673
31	0x3e9a8cde	0.30185598
32	0xbe86ad34	-0.26304018
33	0xbedf4ef2	-0.43614918
34	0xbe88e018	-0.2673347
35	0x3e87c748	0.26519227
36	0x3ec58b96	0.38583058
37	0xbed96178	-0.42457175
38	0xbef619ce	-0.48066562
39	0x3eab753a	0.33487874
40	0xbed81af2	-0.42208058
41	0xbe0142e4	-0.12623173
42	0xbeb8fa54	-0.36128485
43	0x3dc3eff0	0.09567249
44	0xbead753c	-0.33878505
45	0xbdf40490	-0.11914933
46	0x3e6092c0	0.2193098
47	0x3c983c40	0.018583417
48	0x3ee186ea	0.44048244
49	0xbee0e2b2	-0.43922955
50	0x3ecc16c6	0.39861125
51	0x3e8b8e2c	0.27256906
52	0xbee1d924	-0.44110978
53	0x3e8dd346	0.2770025
54	0xbe45b370	-0.19306731
55	0x3e544ed4	0.20733196
56	0xbe9194fe	-0.28433985
57	0x3e25f424	0.16206414
58	0x3e3c1430	0.18367076
59	0x3e6b9388	0.23005497
60	0x3e290180	0.16504478
61	0xbee532e0	-0.44765377
62	0x3e7eb98c	0.24875468
63	0xbd83fb28	-0.06444389
64	0xbd0a2950	-0.033730805
65	0xbe1f62dc	-0.15565056
66	0xbebb94ae	-0.3663687
67	0xbe506650	-0.20351529
68	0x3e1c2fb4	0.15252572
69	0x3eb052bc	0.3443812
70	0x3ec5e3de	0.3865041
71	0x3ed5550e	0.41666454
72	0xbe967914	-0.2938925
73	0xbb1d4c00	-0.0024001598
74	0x3ea661d6	0.32496518
75	0x3d0a3af0	0.033747613
76	0x3ef770f6	0.4832837
77	0xbbec1880	-0.007205069
78	0xbd723760	-0.05913484
79	0xbd5a6da0	-0.053327203
80	0xbec6abde	-0.38803
81	0x3e91c396	0.28469533
82	0xbeb601aa	-0.35548145
83	0x3eff2d62	0.49839312
84	0x3cf596a0	0.02997905
85	0x3d5b0630	0.053472698
86	0xbe3cd36c	-0.18440026
87	0x3e781e54	0.2423032
88	0xbd260130	-0.040528476
89	0x3e0481b4	0.12940103
90	0x3e951ce2	0.29123598
91	0x3e91a6ba	0.28447515
92	0xbea9292c	-0.33039224
93	0x3e99be06	0.3002779
94	0xbe73a56c	-0.23793572
95	0xbe5eb404	-0.21748358
96	0xbe824d04	-0.25449383
97	0x3ea1d1d4	0.316054
98	0xbee1e92c	-0.4412321
99	0xbe558904	-0.20853049
100	0x3d69bae0	0.057062984
101	0x3e3a16d0	0.18172765
102	0xbd64ab80	-0.055827618
103	0x3e4b5c88	0.19859517
104	0xbef45068	-0.47717595
105	0xbe426a70	-0.18985915
106	0xbd773a50	-0.060358346
107	0x3dbb04f0	0.09131801
108	0xbce3c7c0	-0.02780521
109	0xbe808cfa	-0.25107557
110	0x3e54d888	0.20785725
111	0x3e5f60e0	0.21814299
112	0x3e066f50	0.131284
113	0xbed56c96	-0.41684407
114	0xbeba72ba	-0.36415654
115	0xba854000	-0.0010166168
116	0x3e2fab38	0.17155159
117	0xbee9b59c	-0.4564637
118	0x3e18e750	0.14931989
119	0xbac9f200	-0.0015407205
120	0x3cb55420	0.02213484
121	0xbd6407b0	-0.055671394
122	0x3e1c8c0c	0.15287799
123	0x3e93a6f0	0.288383
124	0xbee42450	-0.44558954
125	0x3e34c268	0.17652285
126	0xbe7904a4	-0.24318177
127	0x3da2a040	0.079407215
128	0x3e9c9462	0.30581957
129	0xbd3f8ef0	-0.046767175
130	0x3edfab22	0.4368525
131	0xbebd8e4e	-0.37022632
132	0xbed1fbc6	-0.410124
133	0x3edf34f0	0.43595076
134	0xbefc0428	-0.4922192
135	0x3ee0c642	0.4390126
136	0xbea33110	-0.3187337
137	0xbe89b326	-0.26894492
138	0xbec23532	-0.3793121
139	0xbefdd21e	-0.4957437
140	0xbe05c954	-0.13065082
141	0x3e74fd60	0.2392478
142	0xbe9cd136	-0.30628365
143	0xbe1515d4	-0.14559108
144	0xbeea8c04	-0.45809948
145	0x3eb021b4	0.34400713
146	0xbec0b732	-0.37639767
147	0x3e5be0fc	0.21472543
148	0x3efb9fdc	0.491454
149	0xbc94a220	-0.018143713
150	0x3ef18744	0.47173512
151	0xbeba0568	-0.3633225
152	0xbe64ae10	-0.22332025
153	0x3dfeb238	0.12436336
154	0xbed6366a	-0.4183839
155	0x3efc991e	0.4933557
156	0x3d172010	0.03689581
157	0xbea9b942	-0.33149153
158	0xbe928224	-0.28614914
159	0x3e8ba64c	0.27275312
160	0x3d72bfd0	0.059264958
161	0x3ed5ee56	0.41783398
162	0x3e47f0e8	0.19525492
163	0xbeef58b4	-0.46747363
164	0x3ee86e22	0.45396525
165	0xbed49242	-0.41517836
166	0x3e087be8	0.13328516
167	0xbee81bde	-0.4533376
168	0x3ef89fdc	0.48559463
169	0xbe8189a2	-0.25300318
170	0xbe6c3aec	-0.23069352
171	0xbddc46f0	-0.10755718
172	0x3ed344b4	0.41263354
173	0x3e3e7878	0.18600643
174	0x3e9db9de	0.30805868
175	0xbe81ea3c	-0.2537402
176	0xbed46134	-0.4148041
177	0xbd031c20	-0.032009244
178	0x3dfc9ce0	0.12334609
179	0xbda45570	-0.080241084
180	0xbcf9dd40	-0.030501008
181	0xbefd6432	-0.49490505
182	0xbee3206e	-0.4436068
183	0xbd5a4860	-0.05329168
184	0xbe0e64b8	-0.13905609
185	0x3ec45556	0.38346356
186	0x3de6ae70	0.1126374
187	0xbde058e8	-0.109544575
188	0xbc6e96c0	-0.014562309
189	0xbd8cbc10	-0.068718076
190	0x3ee2a4ec	0.4426645
191	0xbeb0a3c4	-0.34499943
192	0xbdb91af0	-0.09038341
193	0xbda65c28	-0.08123046
194	0xbe81c2bc	-0.25343883
195	0xbeb07f18	-0.34471965
196	0xbef8687a	-0.4851721
197	0xbefc19f4	-0.4923855
198	0xbe9198dc	-0.28436935
199	0xbe92bede	-0.28661245
200	0x3df8fa68	0.12157136
201	0x3ed21338	0.41030288
202	0x3ed0a29e	0.40749067
203	0xbedcb556	-0.43107098
204	0xbdb27328	-0.087133706
205	0xbed2d230	-0.41175985
206	0xbefbf276	-0.4920842
207	0xbe1c741c	-0.15278667
208	0x3ed39648	0.41325593
209	0x3cb8e420	0.022569716
210	0x3edd78b8	0.43256164
211	0xbd905628	-0.07047683
212	0xbea844bc	-0.3286494
213	0xbe0d3244	-0.13788706
214	0xbec6239c	-0.38699043
215	0xbe905994	-0.28193343
216	0xbe8c7b42	-0.27437788
217	0xbe372d10	-0.17888284
218	0xbee48e9e	-0.44640058
219	0xbe112fa4	-0.1417833
220	0xbe8e13c2	-0.2774945
221	0xbe2f78d0	-0.1713593
222	0x3e9d211c	0.30689323
223	0x3dddf208	0.108371794
224	0x3ee1f1c4	0.44129765
225	0x3e8d482c	0.27594125
226	0x3eaf6fc8	0.3426497
227	0x3cfbfc60	0.03075999
228	0x3ec4dc3c	0.38449275
229	0x39c9c800	0.0003848672
230	0x3e63263c	0.22182554
231	0x3ebb8f44	0.3663274
232	0xbe5d96a8	-0.21639502
233	0xbe4b2fac	-0.19842404
234	0x3de09160	0.10965228
235	0xbe493834	-0.19650346
236	0x3eaa4ed4	0.33263266
237	0xbca510e0	-0.020149648
238	0x3ea3c72a	0.31987888
239	0xbe4cd468	-0.20002902
240	0x3e1a97ec	0.15097016
241	0xbe8af73e	-0.27141756
242	0x3eaa2f7e	0.3323936
243	0xbd3ce760	-0.046119094
244	0xbde99628	-0.11405593
245	0x3e18137c	0.14851183
246	0x3e130f54	0.14361316
247	0xbee1352c	-0.4398588
248	0x3e3f7854	0.18698245
249	0xbeb8a832	-0.36065823
250	0x3ce88160	0.028382003
251	0x3d7a0140	0.06103635
252	0xbda5f320	-0.08103013
253	0x3eedac8e	0.4642071
254	0x3ea5b310	0.32363176
255	0x3ea55902	0.3229447

layer1.bias f4 [128]
0	0x3e6a0bf4	0.22856122
1	0xbe8efde4	-0.27928078
2	0xbd7172d0	-0.058947384
3	0x3e8693f6	0.2628476
4	0xbd2b2850	-0.041786492
5	0x3e139a74	0.14414388
6	0xbdb44370	-0.08801925
7	0x3d20e9e0	0.03928554
8	0x3e135580	0.14388084
9	0xbd5f8a20	-0.054575086
10	0x3d6674d0	0.056263745
11	0x3d30ab00	0.04313183
12	0xbe0822cc	-0.13294524
13	0xbed2c03c	-0.41162288
14	0x3e4d6914	0.20059615
15	0xbea993e6	-0.3312065
16	0x3da418c8	0.08012539
17	0xbe0bb05c	-0.13641495
18	0xbe0c4c1c	-0.13700908
19	0xbea3bdac	-0.31980646
20	0xba7d5000	-0.0009663105
21	0x3e4a4698	0.19753492
22	0xbdfb2808	-0.12263495
23	0xbefaaff4	-0.48962367
24	0x3dcaad38	0.0989632
25	0x3df4fe38	0.11962551
26	0xbe502014	-0.20324737
27	0xbdc014f8	-0.093789995
28	0xbe96e61c	-0.29472435
29	0xbee46f14	-0.44615996
30	0x3eacb2b6	0.33730096
31	0xbe28e1fc	-0.16492456
32	0x3e3908a8	0.18069708
33	0xbc54e140	-0.012993157
34	0xbe631a58	-0.22178018
35	0x3e05ad6c	0.13054436
36	0xbedec45e	-0.4350919
37	0xbe5e8e7c	-0.21734041
38	0xbea48ab4	-0.32137072
39	0xbef7bdf0	-0.48387098
40	0x3edb67aa	0.42852527
41	0x3ed9e19a	0.42554933
42	0x3dcdcf10	0.1004926
43	0xbe99e67c	-0.30058658
44	0x3eca105a	0.394656
45	0x3e91cbb0	0.28475714
46	0xbe298ed8	-0.16558397
47	0xbdd997f0	-0.10624683
48	0xbeca60d4	-0.39527
49	0xbe3a0920	-0.18167543
50	0xbe7c4f8c	-0.2463972
51	0xbe88eb90	-0.2674222
52	0xbec78e00	-0.38975525
53	0xbe93c52e	-0.28861374
54	0xbe7c7e4c	-0.24657553
55	0xbe7b7eec	-0.24560136
56	0xbe29bc18	-0.16575658
57	0x3cb78b00	0.022405148
58	0xbefb03ec	-0.4902643
59	0x3e7122d8	0.23548448
60	0xbe0a5998	-0.1351074
61	0x3e2f8334	0.17139894
62	0x3df709c8	0.120624125
63	0x3ed979ce	0.42475742
64	0xbe94bed4	-0.2905184
65	0xbe92d372	-0.28676945
66	0xbdc4ee18	-0.09615725
67	0x3e898c1e	0.26864713
68	0xbee40fa6	-0.4454319
69	0xbe25dce0	-0.16197538
70	0x3d791a90	0.060816348
71	0x3eb21adc	0.34786117
72	0x3eb779ae	0.35835022
73	0xbd8a0f90	-0.067412496
74	0xbc1f6240	-0.0097280145
75	0x3ebf8848	0.37408662
76	0xbd933358	-0.071875274
77	0x3ef36c64	0.47543633
78	0xbebfcc50	-0.37460566
79	0xbe414100	-0.18872452
80	0xbd0a3f50	-0.033751786
81	0x3eda2622	0.42607218
82	0xbe623f24	-0.22094399
83	0x3e70256c	0.23451775
84	0x3ec92f44	0.39293873
85	0xbe6c27a4	-0.23061997
86	0xbeb5ce0e	-0.3550877
87	0x3da35328	0.07974845
88	0x3ecdc4cc	0.40189207
89	0x3e75f1bc	0.24017996
90	0xbe4686ac	-0.1938731
91	0xbe955730	-0.2916808
92	0x3e8c2b30	0.273767
93	0xbe658f1c	-0.22417873
94	0x3ee2df04	0.44310772
95	0x3e93399c	0.2875489
96	0x3eee3100	0.4652176
97	0x3dcca2f8	0.09992021
98	0x3e84ac00	0.25912476
99	0xbeb81c16	-0.35958928
100	0xbc2fa7c0	-0.010721147
101	0x3eac87de	0.33697408
102	0x3dff4f78	0.12466329
103	0x3ede544e	0.43423694
104	0x3e5f81cc	0.21826857
105	0x3d1dc8b0	0.03852147
106	0xbe660bf0	-0.22465491
107	0x3e1f3a7c	0.15549654
108	0xbdd5f128	-0.104463875
109	0xbed73608	-0.4203341
110	0xbd8ad050	-0.06778014
111	0xbecb29b8	-0.39680266
112	0x3dad3fc8	0.08459431
113	0xbc3b9a40	-0.01145035
114	0xbe5ce1b0	-0.21570468
115	0xbecc1c9c	-0.39865577
116	0x3eb9be7a	0.36278135
117	0xbdedf048	-0.11618096
118	0xbee917c6	-0.4552595
119	0xbeadc5e8	-0.33940053
120	0x3e72f61c	0.23726696
121	0x3e809bbe	0.25118822
122	0x3ecf9dd0	0.4055009
123	0xbed4a56c	-0.41532457
124	0xbe4fa5e8	-0.20278132
125	0xbe670300	-0.22559738
126	0x3cc3f240	0.023919225
127	0xbe8bf4d0	-0.27335215

layer2.weight f4 [128, 128]
0	0x3d8e28d6	0.069413826
1	0x3d2bfa23	0.041986596
2	0x3d783f08	0.060606986
3	0xbacfc383	-0.0015851114
4	0xbd85be4c	-0.06530437
5	0x3d93bbc1	0.072135456
6	0xbbb3be71	-0.005485349
7	0x3dabd2cc	0.08389816
8	0x3cf9925e	0.030465301
9	0x3c16f2e6	0.009213185
10	0xbd1bf375	-0.038073976
11	0x3c6d5128	0.014484681
12	0xbc097ff4	-0.008392323
13	0xbc9f0861	-0.019413175
14	0xbc9b9397	-0.018991275
15	0x3d636403	0.0555153
16	0x3cfdb8af	0.030971853
17	0x3daa0458	0.0830161
18	0xbd8ccc1e	-0.0687487
19	0xbd846bd9	-0.06465883
20	0x3d2d8117	0.042359438
21	0xbda907e8	-0.08253461
22	0xbd1695af	-0.036763843
23	0xbd6bf61f	-0.057607766
24	0xbc1cce30	-0.009570643
25	0xbda071d5	-0.07834212
26	0x3cb3a513	0.0219293
27	0xbd3bcd16	-0.045849882
28	0x3b0bab90	0.0021311976
29	0xbdacdf0e	-0.08440982
30	0x3d63f9b3	0.055658054
31	0xbd58210a	-0.052765884
32	0x3d1e1aed	0.038599897
33	0xbc83d6bd	-0.016093606
34	0x3d7b9fc2	0.061431654
35	0x3d86bb6e	0.06578718
36	0xbb79f984	-0.0038143108
37	0xbcbeffc5	-0.02331532
38	0xbc8d27da	-0.017230917
39	0xbc919569	-0.01777144
40	0x3d45ff9a	0.048339464
41	0x3d2b6f77	0.041854348
42	0x3b6201c6	0.003448592
43	0x3cae0ae8	0.021245435
44	0xbcecf2ab	-0.028924307
45	0xbb6560cc	-0.0035000322
46	0xbc6f0461	-0.014588446
47	0x3cea95fb	0.02863597
48	0xbd662171	-0.056184236
49	0x3dadba5d	0.084828116
50	0xbbbf2f31	-0.005834483
51	0x3cf091f3	0.029366469
52	0x3b2cee30	0.0026387088
53	0x3db36ae6	0.08760624
54	0x3ce4fed7	0.027953548
55	0xbcbc869a	-0.023013402
56	0x3d2bffdc	0.041992053
57	0xbd4a0556	-0.049321495
58	0x3d5f4004	0.05450441
59	0x3db18c2f	0.08669316
60	0x3bd75693	0.0065715997
61	0x3d8cb728	0.06870872
62	0x3d2a2c16	0.04154595
63	0xbcc821a4	-0.024430104
64	0x3d0f17c1	0.034934763
65	0xbbc10c39	-0.0058913496
66	0x3da892a6	0.08231096
67	0xbd84bf04	-0.06481746
68	0x3d09c7a5	0.03363766
69	0x3c392963	0.011301371
70	0xbd4c22bd	-0.049837817
71	0x3d7a9cf8	0.061184853
72	0xbb3fd3dc	-0.0029270565
73	0x3c8b4245	0.016999373
74	0x3da4a3a4	0.080390245
75	0x3bc2cac3	0.0059445812
76	0xbcb97534	-0.022638895
77	0xbd6bb1f9	-0.057542775
78	0x3d3a28d7	0.045449104
79	0x3d855223	0.06509807
80	0xbbb9af85	-0.0056666755
81	0xbdad25b5	-0.08454458
82	0xbd71305a	-0.058884002
83	0x3d12a186	0.035798572
84	0x3d824f45	0.06362776
85	0x3d86e866	0.06587295
86	0xbd889318	-0.06668681
87	0x3ae484b6	0.001743457
88	0x3c5980e7	0.013275362
89	0xbcb65057	-0.022255106
90	0xbdb0811b	-0.08618375
91	0xbda3fc3c	-0.08007094
92	0x3d7c2dc1	0.06156707
93	0xbd62b493	-0.05534799
94	0xbcab854c	-0.020937584
95	0x3cdc1c2b	0.0268689
96	0x3d7701f1	0.060304586
97	0xbda2e098	-0.07952994
98	0x3d404e9e	0.046949975
99	0x3d739f64	0.05947818
100	0xbd89564a	-0.067059115
101	0x3c5c8ce2	0.013461323
102	0x3d806a32	0.06270255
103	0xbdb20a40	-0.08693361
104	0xbd8fc4be	-0.070199475
105	0x3d4ddde5	0.050260443
106	0x3d10ffe1	0.035400275
107	0x3d67adeb	0.056562345
108	0xbda8cbdf	-0.0824201
109	0x3daa0f4b	0.08303698
110	0xbc935e88	-0.017989412
111	0x3d88b617	0.06675356
112	0x3bbb0e27	0.005708474
113	0x3c4433f6	0.011975279
114	0xbda6a306	-0.08136563
115	0xbd85ab10	-0.06526768
116	0x3da612db	0.08109065
117	0x3dab11db	0.08353015
118	0xbd0af4e5	-0.033924956
119	0x3c682ea5	0.014171277
120	0x3d5ff99c	0.054681405
121	0x3d520e30	0.05128306
122	0x3c660d4a	0.014041254
123	0x3d1a5096	0.03767451
124	0x3cb1f125	0.021721432
125	0x3d89b202	0.067234054
126	0xbca75c27	-0.020429684
127	0xbd6650ed	-0.05622952
128	0x3d5a2b75	0.0532641
129	0xbd14696c	-0.03623335
130	0xbd32486b	-0.043526094
131	0x3da4c2ad	0.08044944
132	0xbd0ef3cb	-0.034900468
133	0xbd6e0271	-0.058107797
134	0xbd9759ef	-0.073902
135	0xbd541f3f	-0.05178761
136	0x3cf01b61	0.02930993
137	0xbd15d74b	-0.036582272
138	0x3d9a6232	0.075382605
139	0x3d58977b	0.052878838
140	0x3d9c0baf	0.07619416
141	0xbce7e5a8	-0.02830775
142	0x3d2b6bdd	0.041850913
143	0xbc1ac129	-0.009445467
144	0xbd6e3965	-0.058160204
145	0x3d3ad8fd	0.045617092
146	0x3d55f1f6	0.052232705
147	0x3db2c8d0	0.08729708
148	0x3b84d902	0.0040541897
149	0x3d71fe85	0.05908062
150	0xbd0e1da6	-0.034696244
151	0x3d82bfea	0.06384261
152	0xbd74647a	-0.059666134
153	0xbc3a4118	-0.011368059
154	0xbd9d0238	-0.07666439
155	0x3d0b28f5	0.033974607
156	0x3d52c2a2	0.051455148
157	0x3d93a9bd	0.072101094
158	0x3af7059e	0.0018846279
159	0x3c2f9dce	0.010718776
160	0xbc346788	-0.011011012
161	0x3a2f7a7e	0.0006693973
162	0x3d8e3c82	0.06945135
163	0xbd8a1bc6	-0.067435786
164	0x3da587b1	0.08082522
165	0xbd683fa0	-0.056701303
166	0x3a3e4fa8	0.00072597945
167	0x3b69043c	0.0035555502
168	0xbc47207a	-0.012153739
169	0xbd1202ae	-0.035647087
170	0xbd82ea5d	-0.063923575
171	0x3c65c617	0.014024279
172	0xbd0f4220	-0.03497517
173	0x3d9f72c1	0.077855594
174	0xbd59b53a	-0.053151347
175	0xbd34ef43	-0.04417349
176	0x3d4fe8b6	0.05075904
177	0x3ccebe91	0.025237354
178	0xbc0ff2d3	-0.008785921
179	0xbd657477	-0.056019273
180	0xbd8c0494	-0.06836811
181	0x3b2c247c	0.0026266864
182	0xbd88444b	-0.06653651
183	0xba3a9c22	-0.00071186025
184	0xbcc72409	-0.024309175
185	0xbcf6a24b	-0.030106684
186	0x3cf2afdc	0.029624872
187	0xbce01dbd	-0.02735793
188	0x3d32ee4d	0.043684293
189	0xbd191767	-0.037375834
190	0xbd18132d	-0.037127662
191	0x3d44e5a7	0.048070576
192	0xbdac3ab6	-0.08409636
193	0xbca5e382	-0.020250086
194	0xbcdf5349	-0.027261393
195	0xbc84764d	-0.016169691
196	0x3cf7d9bb	0.03025519
197	0xbcdb0bc7	-0.026739014
198	0x3d9929ed	0.074787
199	0x3db18518	0.08667964
200	0x3da61fa1	0.081115015
201	0x3da5d30b	0.08096894
202	0xbc3d92f3	-0.01157068
203	0xbdaccb3c	-0.084372014
204	0xbd4c36ca	-0.04985694
205	0xbd407ed8	-0.046995968
206	0x3b5593cb	0.0032589312
207	0xbd0d889b	-0.034554105
208	0x3c61a6b1	0.0137726525
209	0xbd5e3d5c	-0.054257736
210	0x3c23edc5	0.010005419
211	0x3d344334	0.044009402
212	0xbda300f2	-0.07959165
213	0xbda2b4b7	-0.07944625
214	0x3d7efe6b	0.06225435
215	0xbb21f918	-0.0024715122
216	0xbd8fbd77	-0.070185594
217	0xbd887e3a	-0.06664701
218	0xbd4aa61d	-0.049474824
219	0xbd8143da	-0.0631177
220	0x3bdaf4f9	0.006682035
221	0xbd9739e6	-0.0738409
222	0x3d21dbf3	0.0395164
223	0xbd3209d9	-0.043466423
224	0x3c954577	0.0182216
225	0x3a503d7d	0.0007943733
226	0x3d9d32e5	0.07675723
227	0xbd3ae5c3	-0.045629274
228	0x3b771e8b	0.0037707414
229	0x3afe9060	0.0019421689
230	0x3d9e7504	0.07737163
231	0x3cfb773e	0.030696508
232	0xbd944477	-0.07239621
233	0xbd12a504	-0.035801902
234	0x3d8233a2	0.063575044
235	0xbd2d2e67	-0.04228058
236	0xbd44f37c	-0.048083767
237	0xbd94f14c	-0.07272586
238	0x3d9d904c	0.07693538
239	0xbcb577db	-0.022151878
240	0x3c769e1e	0.0150523465
241	0xbd345777	-0.044028725
242	0x3d877caa	0.06615575
243	0x3d16a37e	0.036777012
244	0x3d6be658	0.05759272
245	0x3c5de419	0.013543152
246	0x3c98681e	0.018604334
247	0x3d1c8695	0.038214285
248	0x3d824aae	0.063619
249	0xbd4ae0ed	-0.049530912
250	0xbd6bf7f7	-0.057609525
251	0xbb946331	-0.004528426
252	0xbd5c2b78	-0.053752393
253	0x3d89bc9c	0.067254275
254	0x3da193c3	0.078895114
255	0xbdaa7025	-0.08322171

layer2.bias f4 [128]
0	0xbd6bad85	-0.057538528
1	0x3d231960	0.03981912
2	0x3d18321d	0.037157167
3	0xbd244df5	-0.040113408
4	0x3c1c5eaf	0.009544059
5	0x3d90d209	0.07071311
6	0xbd516377	-0.051120248
7	0x3c4e6524	0.012597356
8	0xbd92e622	-0.071728006
9	0x3d801490	0.06253922
10	0xbd8d842b	-0.06909975
11	0xbd9473b1	-0.07248629
12	0xbcd173cc	-0.025567912
13	0xbc4b279d	-0.012399581
14	0xbb3abd31	-0.0028494115
15	0x3d0cfe03	0.034421932
16	0x3cb62688	0.02223517
17	0xbbf90563	-0.007599519
18	0xbd0b06df	-0.0339421
19	0x3c7331a8	0.014843382
20	0xbc6f86cc	-0.01461954
21	0xba28739d	-0.0006425919
22	0x3d7254aa	0.059162773
23	0x3d956084	0.072937995
24	0xbcd8daf9	-0.026471602
25	0x3d5208e8	0.051278025
26	0xbd7986e6	-0.060919665
27	0x3d590440	0.05298257
28	0x3bf82d03	0.007573725
29	0x3d98ba8f	0.07457458
30	0xbd4be3cb	-0.049777787
31	0xbc054a1a	-0.008135343
32	0xbd02c576	-0.031926595
33	0x3d8549cc	0.06508216
34	0xbd9ff39d	-0.078101374
35	0x3ca0b2f7	0.019616587
36	0x3bb84fa5	0.0056247287
37	0xbd6d92c0	-0.05800128
38	0xbd91f014	-0.071258694
39	0xbd095830	-0.033531368
40	0x3d2a5530	0.041585147
41	0x3d23f222	0.040025838
42	0x3d842a21	0.06453348
43	0x3aa22f8b	0.0012373788
44	0x3b9a390b	0.004706507
45	0xbd8c9ccd	-0.06865845
46	0xbd2fda62	-0.042932875
47	0x3d316e65	0.04331817
48	0xbc2e3589	-0.010632881
49	0xbd91ebe7	-0.07125073
50	0xbbc9062c	-0.006134769
51	0x3c551b8b	0.013007055
52	0x3d8072d9	0.062719055
53	0x3d4578cf	0.048210915
54	0xbbc8b87a	-0.006125507
55	0xbd1f2e41	-0.03886247
56	0x3d9e700e	0.077362165
57	0xbc892018	-0.016738936
58	0x3d724d62	0.05915583
59	0x3d4acbbf	0.049510714
60	0xbcefbfd4	-0.029266275
61	0xbd1df67f	-0.038565155
62	0xbd634412	-0.05548484
63	0xbd4fc681	-0.050726417
64	0xbd887386	-0.06662659
65	0x3c663b1e	0.014052181
66	0xbd8b8ca8	-0.068139374
67	0xbd9417b8	-0.072310865
68	0x3d9f29a6	0.07771616
69	0xba282f06	-0.00064156984
70	0x3cca49ea	0.024693448
71	0x3d83c8bb	0.06434771
72	0xbce2b895	-0.027675906
73	0x3aa5bc2d	0.0012644582
74	0xbd44c389	-0.04803804
75	0xbd9178b2	-0.07103099
76	0xbd630c33	-0.055431556
77	0xbce2d642	-0.027690057
78	0xbc886916	-0.016651671
79	0xbcf27c81	-0.029600384
80	0x3d29c4c8	0.04144743
81	0x3c3ec91a	0.011644626
82	0xbd9fb91f	-0.07798981
83	0x3ae06889	0.0017120998
84	0xbced7a20	-0.028988898
85	0x3d657e1f	0.05602848
86	0x3ce7677c	0.028247587
87	0xbd2cbf3b	-0.04217456
88	0x3d08e340	0.033419847
89	0xbd10f291	-0.03538758
90	0xbd3b1c73	-0.04568143
91	0x3c965860	0.018352687
92	0xbce2e8e3	-0.02769894
93	0x3d85d013	0.06533828
94	0x3d2defa1	0.042464856
95	0x3d78ce0c	0.060743377
96	0x3d644f01	0.055739406
97	0xbd6d3ec0	-0.05792117
98	0x3d854d9c	0.065089434
99	0x3dad2f57	0.08456295
100	0x3d610e79	0.054945443
101	0xbda60663	-0.08106687
102	0x3da27772	0.07932939
103	0xbdac2aa9	-0.08406574
104	0x3d767433	0.06016941
105	0xbd97cb8e	-0.07411872
106	0xbd58b4e1	-0.052906875
107	0xbbaec042	-0.0053329775
108	0xbd8455ac	-0.06461653
109	0xbd7bf102	-0.06150914
110	0xbbc05175	-0.0058690854
111	0x3c2ab349	0.0104187215
112	0x3d4f8bb7	0.05067035
113	0xbda453aa	-0.0802377
114	0x3c6ad731	0.014333532
115	0xbcfa040e	-0.030519512
116	0x3d646c95	0.055767614
117	0x3d47c1fc	0.048768982
118	0xbc21a93c	-0.009867009
119	0xbdb1bba1	-0.086783655
120	0x3c7bf7a6	0.015378868
121	0xbd6cf004	-0.057846084
122	0xbc83ee29	-0.016104775
123	0xbd84c78d	-0.06483374
124	0x3b5a271e	0.0033287476
125	0xbc7bf80c	-0.015378963
126	0xbb6cff5a	-0.0036162944
127	0x3cc947b6	0.024570327
