custom_maze/static/custom_maze/run/room248891/trained_model.pth (torch, 158674 bytes, 12 tensors)

layer1.weight f4 [128, 16]
0.15452906 -0.11317459 0.061179757 0.16688392 0.010682732 0.09016523 0.04779905 0.22740579
-0.14641747 -0.15539223 -0.2337439 -0.10414228 -0.210585 -0.20694208 0.14832824 -0.15746787
-0.11701098 -0.07375756 0.0924204 0.14378399 -0.14100698 -0.027034402 -0.22327021 -0.15068832
-0.10014379 0.12509122 -0.16544789 0.1177893 -0.06285468 -0.22016796 -0.012968093 0.027749747
0.2392393 0.16212311 -0.21681052 -0.01152578 -0.21852237 0.10273364 -0.004425913 -0.06902635
-0.20408022 -0.021410525 -0.14069441 -0.084508926 0.117777675 -0.05544597 -0.15297014 -0.056177527
0.031180918 -0.16989225 0.21805403 0.025682062 0.096191704 -0.0029775798 0.18661344 -0.04334864
-0.06030339 0.030194819 0.21312493 0.21138626 -0.1770617 0.11303544 0.079696 -0.01407367
-0.03228557 0.042940408 0.11990544 0.057724625 -0.19555587 0.14233291 0.049738854 0.18740645
-0.10208446 0.19012654 -0.14949489 0.11073458 0.11652887 -0.24572286 -0.17852646 -0.10584739
0.0791125 0.035935283 -0.20565552 0.1310342 0.048379213 -0.18435371 0.04086581 -0.22504982
-0.05050072 -0.0074709356 -0.04243794 -0.06908205 0.13662592 0.02131772 -0.016973346 0.12978637
-0.1411429 -0.09794575 0.10523239 0.18373525 -0.0017517507 -0.24327138 -0.12544665 0.030709505
-0.06552827 0.13706934 -0.1492044 -0.10101551 0.18670097 0.023681045 -0.018507749 -0.019124389
0.024723768 -0.06324577 -0.07952982 0.007310152 0.19055372 0.00089645386 0.2067894 -0.09822118
0.10449946 -0.10302186 0.050997436 0.11989322 0.09149501 -0.16782779 -0.165295 0.13957992
-0.007040024 -0.24956149 -0.11430907 0.034492135 0.20071122 -0.017504394 0.1939485 -0.0019405484
-0.082065344 -0.022822022 -0.021603823 -0.16029665 -0.21915045 -0.17817906 -0.23833227 -0.04154721
0.08617541 -0.034140825 0.050526112 0.113245696 -0.018734097 -0.16905683 0.18518904 -0.056641042
-0.19757792 -0.19184712 0.033638388 -0.067972034 0.061391234 -0.22245735 -0.17730376 0.1552935
-0.07158825 -0.17990771 -0.018071502 0.2017565 -0.13339442 -0.18917 0.13167086 0.04973033
0.10428327 0.23245773 -0.18855163 -0.10789862 -0.1553218 -0.15384075 -0.055120885 -0.2127594
-0.142191 -0.0058838725 0.24227658 -0.13894561 0.24975502 -0.13778818 0.23175725 0.14930937
-0.06833458 -0.112505645 0.16107109 -0.05187455 -0.1598421 0.17866352 -0.21117437 0.20994109
-0.24010912 -0.014135152 0.20722216 -0.0048550963 -0.094996005 -0.21637926 -0.081522524 0.017486542
0.16049504 -0.007766545 -0.1344752 0.14406213 0.09914908 0.057135135 0.10164994 -0.15254694
0.14951697 -0.009380698 0.0876683 0.09227005 -0.022624344 -0.21614662 0.06471017 -0.004309833
0.105974406 -0.1750476 -0.16488242 0.19142798 -0.14913237 -0.14845294 -0.17638433 -0.118769854
0.24360257 0.07818097 -0.041795284 -0.073905915 -0.026391327 -0.16790706 0.024126798 -0.23742005
0.22200647 0.22243881 -0.13068283 -0.22132277 -0.015398234 -0.09963298 0.22716346 0.047986
-0.2169885 -0.16700116 0.0036871135 -0.18869478 -0.06570271 -0.1356098 0.033296347 -0.10074097
0.093591034 0.076639414 -0.0847756 -0.013936847 0.066721916 -0.21839905 -0.21701136 0.14750543
00000000: de3c 1e3e 14c8 e7bd a097 7a3d 9ee3 2a3e
00000010: a006 2f3c 8ca8 b83d f0c8 433d 10dd 683e
00000020: 76ee 15be 241f 1fbe 905a 6fbe 8c48 d5bd
00000030: 98a3 57be a0e8 53be 5ce3 173e 423f 21be
00000040: 74a3 efbd 340e 97bd e846 bd3d 1c3c 133e
00000050: 2264 10be 4077 ddbc f2a0 64be 0a4e 1abe
00000060: 3018 cdbd ea17 003e 2c6b 29be 843b f13d
00000070: f4b9 80bd b673 61be 2078 54bc 7053 e33c
00000080: 26fb 743e 9a03 263e 9403 5ebe a0d6 3cbc
00000090: 54c4 5fbe 0466 d23d 4007 91bb b05d 8dbd
000000a0: 68fa 50be 2065 afbc 3212 10be 0413 adbd
000000b0: 6c35 f13d 501b 63bd 34a4 1cbe 681a 66bd
000000c0: 206f ff3c 3cf8 2dbe 8e49 5f3e 3063 d23c
000000d0: 2800 c53d 8023 43bb 9817 3f3e 588e 31bd
000000e0: b000 77bd 205b f73c 6c3d 5a3e a475 583e
000000f0: aa4f 35be 207f e73d a837 a33d 4095 66bc
00000100: e03d 04bd 48e2 2f3d fc90 f53d a870 6c3d
00000110: cc3f 48be b8bf 113e f8ba 4b3d 7ae7 3f3e
00000120: a811 d1bd 88b0 423e 3015 19be d0c8 e23d
00000130: b0a6 ee3d c69e 7bbe a4cf 36be 84c6 d8bd
00000140: bc05 a23d e030 133d 5c97 52be d42d 063e
00000150: 4829 463d 38c7 3cbe e862 273d 7673 66be
00000160: d8d9 4ebd c0ce f4bb 68d3 2dbd e47a 8dbd
00000170: aae7 0b3e 80a2 ae3c b00b 8bbc b8e6 043e
00000180: c487 10be c897 c8bd 1484 d73d 1825 3c3e
00000190: 009b e5ba 221c 79be 1675 00be 8092 fb3c
000001a0: b033 86bd e85b 0c3e 0ac9 18be 38e1 cebd
000001b0: 8a2e 3f3e c0fe c13c 909d 97bc c0aa 9cbc
000001c0: 8089 ca3c 0087 81bd 88e0 a2bd 008a ef3b
000001d0: 8420 433e 0000 6b3a 9ac0 533e 3028 c9bd
000001e0: d003 d63d 20fd d2bd b0e2 503d 948a f53d
000001f0: bc61 bb3d 0cdb 2bbe 1843 29be 0aee 0e3e
00000200: 00b0 e6bb 0c8d 7fbe e01a eabd a047 0d3d
00000210: 3e87 4d3e 6065 8fbc 709a 463e 005a feba
00000220: e011 a8bd 40f5 babc 80fa b0bc ce24 24be
00000230: fa68 60be 9274 36be 600d 74be 682d 2abd
00000240: bc7c b03d 40d7 0bbd 78f4 4e3d 5ced e73d
00000250: 4078 99bc 3c1d 2dbe 32a2 3d3e 7000 68bd
00000260: de51 4abe 9273 44be 68c8 093d ec34 8bbd
00000270: 6075 7b3d dccb 63be 1e8f 35be 4205 1f3e
00000280: dc9c 92bd ba39 38be b00a 94bc 4299 4e3e
00000290: 8c98 08be c8b5 41be bad4 063e 08b2 4b3d
000002a0: 7892 d53d 6609 6e3e ae13 41be f4f9 dcbd
000002b0: ae0c 1fbe 6e88 1dbe 70c6 61bd 9add 59be
000002c0: 849a 11be 80cd c0bb 5a17 783e c247 0ebe
000002d0: c8bf 7f3e 5818 0dbe c651 6d3e 8ee4 183e
000002e0: 00f3 8bbd 5c69 e6bd d2ef 243e 687a 54bd
000002f0: a6ad 23be 92f3 363e 183e 58be ccfa 563e
00000300: 2adf 75be 2097 67bc 0c32 543e 8017 9fbb
00000310: 448d c2bd 8692 5dbe 48f5 a6bd f03f 8f3c
00000320: d058 243e 807e febb deb3 09be 0685 133e
00000330: ac0e cb3d 8806 6a3d d82d d03d 4435 1cbe
00000340: fa1a 193e 80b1 19bc 708b b33d 14f8 bc3d
00000350: b056 b9bc 8a55 5dbe c486 843d 8039 8dbb
00000360: 1c09 d93d ae3f 33be f0d6 28be b205 443e
00000370: 28b6 18be 0c04 18be 189e 34be 9c3d f3bd
00000380: f472 793e 581d a03d 8831 2bbd fc5b 97bd
00000390: a032 d8bc d4ef 2bbe 90a5 c53c 3e1e 73be
000003a0: aa55 633e 00c7 633e b8d1 05be 70a2 62be
000003b0: e048 7cbc 600c ccbd 8a9d 683e f88c 443d
000003c0: 3c32 5ebe 5a02 2bbe 80a3 713b 3439 41be
000003d0: 248f 86bd 4cdd 0abe c061 083d 4851 cebd
000003e0: a8ac bf3d 20f5 9c3d d49e adbd 6057 64bc
000003f0: 80a5 883d 00a4 5fbe 3a38 5ebe aa0b 173e

layer1.bias f4 [128]
-0.213716 -0.18228868 0.24128726 0.032468587 0.124103725 -0.1863412 0.17907238 -0.22580421
-0.24274924 0.042915583 -0.17927039 0.18178883 -0.1696864 0.21785459 -0.067655414 -0.11404532
-0.16625625 -0.19854486 -0.07868093 -0.23428974 0.03617686 0.217917 -0.034201473 -0.03816855
-0.036857903 -0.028648257 0.17019245 0.14508224 -0.11439565 0.050344467 0.029268622 -0.09803036
-0.07138327 -0.1988745 0.13148841 0.0631645 -0.07975963 -0.1936535 0.13102159 0.074594736
-0.22453886 -0.22493908 0.18114442 -0.21972099 -0.017589718 -0.21821854 0.030737787 0.037731588
-0.07591352 0.15711582 -0.112075925 -0.18499333 0.056517273 -0.23773715 0.18558666 0.20890862
0.21881515 0.110554695 0.10331178 -0.14212012 0.16376173 0.19511977 0.22242609 -0.15708771
-0.2275959 -0.12891841 -0.040898383 0.23394424 0.036914647 -0.23648563 0.21920839 -0.11549771
0.24690062 0.08045608 -0.13460693 -0.20517331 -0.24665079 -0.03313604 0.17415762 0.24912015
0.11664632 0.046755522 0.033567935 -0.023845285 -0.21417868 -0.07111573 -0.028241515 -0.09937233
-0.046946526 0.24611264 -0.13594022 0.144243 -0.14931235 0.09277135 0.21684569 -0.0828785
0.013250262 -0.15614253 -0.19528148 0.22075355 0.12292358 -0.035568804 0.047057956 -0.05173275
-0.17758384 0.06442809 0.20755693 -0.002169609 0.06131193 -0.14316073 0.113788754 -0.23479503
-0.05463803 -0.015724301 -0.076410085 -0.11128849 0.08202061 -0.18440655 0.17198157 0.1229378
-0.025193572 0.020505607 -0.168931 0.018165082 0.1642141 -0.07131258 0.22714972 -0.23355472
00000000: 5ed8 5abe e2a9 3abe 0214 773e c8fd 043d
00000010: 182a fe3d 3ad0 3ebe c05e 373e 3839 67be
00000020: 4293 78be 40c8 2f3d a892 37be da26 3a3e
00000030: 46c2 2dbe 4615 5f3e ec8e 8abd 9890 e9bd
00000040: 143f 2abe 584f 4bbe 7823 a1bd a6e9 6fbe
00000050: 302e 143d a225 5f3e d816 0cbd a056 1cbd
00000060: 50f8 16bd c0af eabc ee46 2e3e 7090 143e
00000070: 4448 eabd 0036 4e3d c0c4 ef3c 24c4 c8bd
00000080: 6431 92bd c2a5 4bbe e6a4 063e 645c 813d
00000090: 0459 a3bd 1a4d 46be 862a 063e 20c5 983d
000000a0: 84ed 65be 6e56 66be ec7d 393e 8afe 60be
000000b0: 5018 90bc ae74 5fbe d0cd fb3c 708c 1a3d
000000c0: 8c78 9bbd f8e2 203e 1088 e5bd e46e 3dbe
000000d0: a87e 673d 5e71 73be 6e0a 3e3e 24ec 553e
000000e0: 1411 603e 806a e23d 2095 d33d f087 11be
000000f0: 28b1 273e 7acd 473e aac3 633e 9adb 20be
00000100: e60e 69be 3003 04be 1085 27bd 148f 6f3e
00000110: d033 173d 4a29 72be 2a78 603e 108a ecbd
00000120: 84d3 7c3e 28c6 a43d 66d6 09be f418 52be
00000130: 0692 7cbe a8b9 07bd 6056 323e 5a19 7f3e
00000140: 44e4 ee3d b882 3f3d 887e 093d 3057 c3bc
00000150: a851 5bbe 20a5 91bd c05a e7bc b883 cbbd
00000160: 004b 40bd f404 7c3e ea33 0bbe 70b4 133e
00000170: 56e5 18be e8fe bd3d cc0c 5e3e 34bc a9bd
00000180: a017 593c d4e3 1fbe def7 47be 380d 623e
00000190: 5cbf fb3d 98b0 11bd d8bf 403d b8e5 53bd
000001a0: 8ad8 35be e0f2 833d ce89 543e 0030 0ebb
000001b0: 3822 7b3d ba98 12be 140a e93d 1c6e 70be
000001c0: 20cc 5fbd 40d0 80bc e47c 9cbd 38eb e3bd
000001d0: 6cfa a73d 12d5 3cbe f01b 303e d0c6 fb3d
000001e0: c062 cebc 60fb a73c 40fc 2cbe f0ce 943c
000001f0: be27 283e 540c 92bd f099 683e f828 6fbe

layer2.weight f4 [128, 128]
0.039640702 0.03469025 0.07946583 -0.073078565 -0.05729379 0.046210993 -0.052948106 0.021886088
0.0531253 -0.056607116 0.06320433 0.02789312 0.04823024 -0.08393099 0.03728817 0.064779624
0.017931934 0.08560712 0.041454185 0.027605921 0.016899105 -0.07331429 0.043911938 -0.06937293
-0.046551645 -0.023004582 -0.031718146 -0.05611744 -0.06730356 0.038798366 0.07515559 -0.05508629
0.07334332 -0.06823168 -0.07066771 0.05442437 -0.08187562 0.03947634 0.03805206 0.037020832
0.08506277 -0.073957995 0.024563879 0.054804116 -0.047233235 0.044981465 -0.05510149 0.083035804
0.024300555 -0.0119176 -0.001397579 0.05414167 0.013296508 0.0824472 0.010165261 0.058770712
-0.07651609 -0.017994955 -0.04716799 -0.014664226 0.082208775 -0.07274448 -0.07476771 0.014908836
-0.057247072 -0.0017912621 0.06210847 -0.058682416 -0.0035158372 -0.029993035 -0.07418232 0.009816949
-0.024017107 0.06361345 0.07786095 -0.06607905 -0.069374494 0.07144657 -0.08568712 -0.05498675
0.019344034 0.033397794 0.044484954 0.056702282 0.06946633 -0.055939615 0.06438951 0.083362505
0.08001255 0.0798473 -0.04897389 0.04948141 0.059012637 -0.028308816 -0.0548392 0.07479111
-0.068707705 0.0432219 -0.019559383 -0.006858609 0.06428 -0.043838043 -0.059450764 -0.08669622
0.08067789 -0.08042789 0.03355455 0.04658115 0.008299715 -0.040711917 -0.057648595 -0.0019676571
0.025611859 0.024475666 -0.03429193 -0.009040741 0.08670065 -0.021009024 0.0853151 0.0066692224
-0.07350306 0.07361261 0.027539456 0.07040636 -0.012369752 0.047269564 -0.05526265 -0.04028052
-0.04202258 0.014320529 -0.08751829 -0.013178107 0.021861665 0.08584115 -0.015481296 0.0632089
-0.06968278 -0.03645348 0.053763837 -0.0041472604 -0.07267003 -0.06890492 -0.043322038 -0.050985307
0.04045044 -0.0044637728 -0.051845457 0.07597164 -0.028357578 -0.061449092 -0.017615244 -0.03257006
-0.02403032 0.017613504 0.032588996 -0.06575708 -0.015633687 -0.057058487 0.010760259 0.07705496
0.060507596 -0.06976454 -0.057340734 0.044189084 0.06755053 0.016470503 -0.04057909 0.08337787
0.034620695 -0.03367767 -0.0793634 -0.04852923 -0.059823964 -0.036240377 -0.045813475 0.027753415
-0.070837796 -0.03482655 0.022884948 -0.025844753 -0.05078852 -0.024399811 -0.07385174 -0.046914592
-0.013637772 0.02097793 0.08569432 0.02845361 -0.07617064 -0.021228239 -0.018473405 -0.028680656
0.044411175 -0.027928682 -0.05135019 -0.009629491 0.08546047 -0.030791264 -0.027958365 0.07360244
-0.011244916 -0.00023437862 -0.08551099 -0.082865484 -0.039475232 0.06683906 0.0061341156 0.024482662
-0.06257096 0.04263924 -0.011078847 -0.030792044 0.007761795 0.08608411 -0.04007667 -0.029304998
0.08592171 0.06368137 -0.05869233 -0.0140687125 0.046338487 0.08486101 0.01991546 -0.072682485
0.011058775 0.02396948 0.048524436 0.08209216 -0.054575436 -0.004994623 0.026324142 -0.039125655
0.07282302 0.024125077 0.012303518 -0.013278101 0.06692819 -0.013978255 0.054692764 0.046383932
0.031151894 -0.034671284 -0.048339337 0.08301334 0.023490725 0.04240626 0.059178166 -0.07908523
-0.034085505 -0.046112098 0.015504635 -0.0604553 0.0049112984 -0.07677708 0.03582327 0.05107725
00000000: 4a5e 223d 5d17 0e3d fbbe a23d 37aa 95bd
00000010: e5ac 6abd bd47 3d3d 1de0 58bd 744a b33c
00000020: ea99 593d dddc 67bd 4671 813d 1d80 e43c
00000030: 128d 453d 03e4 abbd 7bbb 183d 2eab 843d
00000040: fee5 923c c952 af3d ddcb 293d d025 e23c
00000050: fe6f 8a3c cd25 96bd 01dd 333d 6513 8ebd
00000060: f0ac 3ebd 1b74 bcbc e3ea 01bd 67db 65bd
00000070: 73d6 89bd 09eb 1e3d 2deb 993d 29a2 61bd
00000080: 0635 963d 0dbd 8bbd 3bba 90bd 17ec 5e3d
00000090: 68ae a7bd f1b1 213d 7adc 1b3d 28a3 173d
000000a0: 6435 ae3d 4a77 97bd 303a c93c 487a 603d
000000b0: a377 41bd 7c3e 383d 1ab2 61bd ad0e aa3d
000000c0: f511 c73c 0a42 43bc f82e b7ba a8c3 5d3d
000000d0: 99d9 593c 14da a83d 328c 263c 8fb9 703d
000000e0: 78b4 9cbd 286a 93bc 3933 41bd 3942 70bc
000000f0: 135d a83d 0ffb 94bd d01f 99bd 3144 743c
00000100: e87b 6abd c8c8 eaba 7365 7e3d f95c 70bd
00000110: f669 66bb f4b3 f5bc e6ec 97bd 45d7 203c
00000120: 86bf c4bc c547 823d 9075 9f3d 7454 87bd
00000130: 3714 8ebd 9452 923d bb7c afbd c939 61bd
00000140: 6177 9e3c 20cc 083d db35 363d a740 683d
00000150: 5d44 8e3d f020 65bd a6de 833d f6b9 aa3d
00000160: 9fdd a33d fb86 a33d d898 48bd 05ad 4a3d
00000170: 3cb7 713d e4e7 e7bc 129f 60bd 152c 993d
00000180: a0b6 8cbd 7209 313d 003b a0bc 2fbe e0bb
00000190: 3ca5 833d 858f 33bd a582 73bd ca8d b1bd
000001a0: 733a a53d 61b7 a4bd 7f70 093d e0cb 3e3d
000001b0: 87fb 073c 8ac1 26bd ef20 6cbd cff3 00bb
000001c0: f6cf d13c 3181 c83c b275 0cbd 9e1f 14bc
000001d0: 1c90 b13d 1e1b acbc afb9 ae3d 7e89 da3b
000001e0: c688 96bd 35c2 963d 6d9a e13c 3631 903d
000001f0: 80aa 4abc bb9d 413d 175b 62bd 30fd 24bd
00000200: de1f 2cbd a7a0 6a3c ca3c b3bd fde8 57bc
00000210: 3c17 b33c 7ccd af3d 43a5 7dbc ab73 813d
00000220: d8b5 8ebd 3f50 15bd 7837 5c3d bee5 87bb
00000230: 06d4 94bd 061e 8dbd 7372 31bd f8d5 50bd
00000240: 5caf 253d d744 92bb e75b 54bd 0597 9b3d
00000250: 274e e8bc 0bb2 7bbd d84d 90bc 2f68 05bd
00000260: 3cdb c4bc 324a 903c 0a7c 053d a6ab 86bd
00000270: 3812 80bc 29b6 69bd cc4b 303c fece 9d3d
00000280: d0d6 773d b6e0 8ebd 1ede 6abd 9dff 343d
00000290: ef57 8a3d 26ed 863c 4336 26bd 04c2 aa3d
000002a0: 6ece 0d3d 99f1 09bd 4789 a2bd 96c6 46bd
000002b0: f909 75bd ca70 14bd e9a6 3bbd 215b e33c
000002c0: 6813 91bd 49a6 0ebd 3779 bb3c 60b8 d3bc
000002d0: a007 50bd 1de2 c7bc 953f 97bd 8429 40bd
000002e0: f670 5fbc e8d9 ab3c 8180 af3d 8c17 e93c
000002f0: 5aff 9bbd d8e6 adbc 8a55 97bc b2f3 eabc
00000300: 7ee8 353d b1ca e4bc 9454 52bd 03c5 1dbc
00000310: e605 af3d f63d fcbc f108 e5bc e0bc 963d
00000320: 993c 38bc 88c3 75b9 6320 afbd 61b5 a9bd
00000330: c8b0 21bd ebe2 883d b100 c93b dd8f c83c
00000340: 3425 80bd 7ca6 2e3d 0d84 35bc 993f fcbc
00000350: a856 fe3b de4c b03d 6f27 24bd 0911 f0bc
00000360: b9f7 af3d 616b 823d 5e67 70bd 7580 66bc
00000370: 6dcd 3d3d 9ccb ad3d bf25 a33c 8eda 94bd
00000380: dd2f 353c a55b c43c 8fc1 463d ef1f a83d
00000390: 7e8a 5fbd efa9 a3bb baa5 d73c 3942 20bd
000003a0: 3c24 953d f4a1 c53c b294 493c 648c 59bc
000003b0: a611 893d 0d05 65bc 8505 603d 14fd 3d3d
000003c0: 4232 ff3c 7a03 0ebd 78ff 45bd e602 aa3d
000003d0: 9f6f c03c 30b2 2d3d ce64 723d 70f7 a1bd
000003e0: 3e9d 0bbd 0ae0 3cbd 2707 7e3c fa9f 77bd
000003f0: f5ee a03b 4d3d 9dbd 6cbb 123d 6136 513d

layer2.bias f4 [128]
-0.020979173 -0.03844454 0.08772223 -0.055507503 -0.039735783 0.07489796 0.044993486 -0.005658193
-0.037328158 0.08476938 0.07541216 0.08517954 0.014412505 0.073889345 0.052191086 0.052734684
0.047313903 0.032263476 0.07028302 0.06264759 0.0879032 -0.062995136 0.06464562 -0.06240199
-0.042670313 -0.06295058 0.033056088 -0.00028685146 0.06424898 -0.06820798 0.04337309 0.009325264
0.019665508 -0.010108384 0.012990122 0.038474668 0.053177185 -0.049513694 0.041737992 0.041281775
0.034021568 0.06112786 0.024847673 0.060910225 -0.07729818 -0.00040986756 0.085887544 -0.00047902
-0.04187537 -0.07044887 0.012405883 0.016119124 -0.0030215601 -0.06088231 -0.03777977 -0.06819526
0.08690209 -0.011162213 -0.004142719 -0.0025573547 0.08624681 0.05439133 0.07628193 0.03595776
0.07621447 0.009567408 -0.024539137 0.03217914 -0.012502104 -0.078508705 -0.011650622 0.08103466
-0.06327349 -0.084211774 -0.0041061356 -0.026800517 0.08777643 0.0763277 -0.06287228 0.029909931
-0.034755807 -0.07328774 -0.03441287 0.0035723562 0.07353018 0.035644833 -0.026165428 -0.045206815
-0.0045847655 0.049315754 0.018500907 -0.022899983 -0.085679665 0.018436559 -0.031416114 0.00030124458
-0.058823872 -0.019434713 0.058893096 0.036251314 0.0016420096 -0.037674446 -0.003253136 -0.07542671
0.006360054 0.045158725 0.06027352 0.008568475 0.008446713 -0.06890035 0.08662132 0.001861974
-0.06838342 -0.071485005 -0.04380561 -0.008841155 0.00663776 0.030066371 -0.030459115 0.080404535
-0.06271351 0.06308056 -0.030402554 -0.025555646 -0.059188988 -0.0333547 -0.017111989 0.008972442
00000000: 84dc abbc 0678 1dbd b6a7 b33d d65b 63bd
00000010: fdc1 22bd 1a64 993d 174b 383d 5d68 b9bb
00000020: 69e5 18bd 929b ad3d b171 9a3d 9c72 ae3d
00000030: 6d22 6c3c 4c53 973d 52c6 553d 5300 583d
00000040: 39cc 413d b526 043d 8bf0 8f3d 614d 803d
00000050: 9806 b43d 9803 81bd ec64 843d 3b99 7fbd
00000060: 11c7 2ebd 3cec 80bd d265 073d 8d64 96b9
00000070: f894 833d a0b0 8bbd fba7 313d fec8 183c
00000080: 8f19 a13c a39d 25bc 85d4 543c 9d97 1d3d
00000090: 52d0 593d dfce 4abd 75f5 2a3d 1417 293d
000000a0: 335a 0b3d 3561 7a3d 598d cb3c 007d 793d
000000b0: 824e 9ebd 7ee3 d6b9 cfe5 af3d fa24 fbb9
000000c0: 8285 2bbd 7f47 90bd 0b42 4b3c 410c 843c
000000d0: 5e05 46bb bb5f 79bd f6be 1abd f5a9 8bbd
000000e0: b9f9 b13d b7e1 36bc a5bf 87bb 4b99 27bb
000000f0: 2ba2 b03d 71c9 5e3d b339 9c3d 7248 133d
00000100: 5516 9c3d 9ec0 1c3c 4d06 c9bc 46ce 033d
00000110: a0d5 4cbc 2cc9 a0bd 40e2 3ebc 80f5 a53d
00000120: 8895 81bd 3977 acbd c38c 86bb c28c dbbc
00000130: 21c4 b33d b251 9c3d 2fc3 80bd ac05 f53c
00000140: 1b5c 0ebd e217 96bd 82f4 0cbd 311e 6a3b
00000150: fe96 963d 5100 123d e158 d6bc c82a 39bd
00000160: cd3b 96bb 51ff 493d 378f 973c bf98 bbbc
00000170: d278 afbd 4408 973c 2fae 00bd 5df0 9d39
00000180: 4df1 70bd 8c35 9fbc e339 713d 427c 143d
00000190: b338 d73a 8550 1abd 9132 55bb 5279 9abd
000001a0: 0068 d03b 5bf8 383d 5ee1 763d ca62 0c3c
000001b0: 1564 0a3c a01b 8dbd 8566 b13d 7b0d f43a
000001c0: 9b0c 8cbd bb66 92bd 836d 33bd 7eda 10bc
000001d0: 9181 d93b c04d f63c 6585 f9bc 22ab a43d
000001e0: f16f 80bd 6130 813d c70e f9bc 135a d1bc
000001f0: 2770 72bd f09e 08bd 712e 8cbc 2601 133c

layer3.weight f4 [4, 128]
0.036870442 -0.06605109 0.06994444 0.024110863 0.017326863 0.029979516 0.06727634 0.004692356
-0.079475984 0.0104165515 -0.030501073 0.08378529 -0.05393079 0.07675879 -0.06518031 -0.04975329
0.015820874 0.038776007 0.005113709 -0.03119989 -0.029336303 -0.013468025 -0.023782602 0.08127495
-0.07372936 -0.044592503 -0.014367871 -0.07649541 -0.020162009 0.006473229 -0.07651419 -0.058891475
0.037585463 -0.025827356 -0.017510856 -0.0064590885 -0.020477952 0.019051492 0.059012078 -0.032981172
0.07884396 -0.011167261 -0.020523408 0.078775674 -0.029514585 -0.06550573 0.04513153 -0.00092409074
0.030679144 0.033995625 0.059903126 0.04388751 0.05201529 0.054069452 0.0012678088 -0.013345768
-0.035107996 -0.0822933 -0.07952553 -0.07401565 0.033042867 0.073633574 0.035405397 -0.0041230996
0.040827673 -0.03771732 -0.0042992947 -0.024649162 0.022958726 -0.07831587 -0.016966825 -0.030712029
0.050596416 0.00086084934 0.004286145 0.036708377 0.048564717 0.04333051 -0.062109314 -0.0510989
-0.05846302 0.01382227 0.012238222 -0.04569421 0.010408101 0.0836204 0.018006409 0.05681826
-0.021208579 -0.06397478 -0.015361125 -0.050198413 -0.014655017 -0.051429953 0.028081918 -0.07085601
-0.02962954 -0.024493631 -0.06034556 -0.0031032935 -0.0036818539 -0.013011396 -0.03147572 0.027090581
0.0003648442 -0.04491931 -0.044832908 0.009535587 0.019498587 -0.07611073 -0.08493877 -0.029011909
0.07667891 -0.084707096 0.08568104 -0.081479244 -0.0060383473 0.07638076 -0.04489281 0.01949712
0.06481698 -0.01177898 -0.03673613 -0.04919237 -0.018320486 0.08408449 -0.010713803 -0.03344894
-0.08583423 0.028820878 -0.05032521 -0.04267848 -0.05265021 -0.042057235 0.03719339 -0.012882163
0.03960018 -0.019698732 -0.017471576 -0.003807662 0.045820136 0.059573643 -0.0044059576 -0.049744543
-0.024246123 0.025078787 0.07503356 0.05524787 -0.054300312 0.027812041 0.014106782 0.0678508
0.046337225 -0.06194068 -0.0044332477 0.022156198 0.072325274 -0.07396298 0.060396474 -0.07288703
-0.07004508 0.051357094 -0.06113104 0.07592676 0.06302842 -0.07967181 -0.066006094 0.04100882
-0.01613139 0.07481075 -0.038071405 -0.06739745 -0.024545798 0.069158286 0.023069257 -0.037584927
0.018236341 -0.03716074 0.067126274 -0.04207072 0.023244966 0.013513786 -0.007126031 0.010379631
0.03936467 0.04798446 0.065507285 -0.056457095 0.0014913662 0.04762986 -0.061229 0.03643749
0.032340657 -0.05782226 -0.015296398 -0.080452904 -0.059829284 0.059228953 0.03427447 0.038842134
0.059160076 -0.012181766 -0.0060319095 -0.02575046 0.086694025 0.05958262 0.050957 -0.08275439
-0.010430597 0.085194185 0.050315127 0.022461899 0.07992134 -0.05795787 -0.00758717 0.046222962
-0.0458049 -0.084265985 -0.0030110446 -0.023848668 -0.055735696 -0.02483484 -0.0038085682 0.014749353
0.065968186 -0.083049275 0.08638862 -0.051946085 0.02688305 0.027384957 0.07436814 -0.03623568
0.030288063 0.07931287 -0.02076043 0.018993225 0.06766773 0.012000935 -0.0136691285 -0.012251161
0.035953138 -0.05675655 -0.06708283 0.08455298 0.027436113 -0.03832633 -0.044950277 0.047909714
0.07917577 -0.022266096 0.019709067 0.057073396 0.040685184 0.060191114 -0.0732176 -0.048970863
00000000: 7605 173d cb45 87bd 083f 8f3d 2584 c53c
00000010: 11f1 8d3c 9a97 f53c 2ec8 893d 56c2 993b
00000020: 4ec4 a2bd 2faa 2a3c 63dd f9bc 9f97 ab3d
00000030: 88e6 5cbd b633 9d3d 417d 85bd 1bca 4bbd
00000040: c79a 813c 97d3 1e3d e690 a73b e996 ffbc
00000050: b052 f0bc fea8 5cbc bbd3 c2bc 7b73 a63d
00000060: 6bff 96bd a1a6 36bd 3867 6bbc a0a9 9cbd
00000070: cc2a a5bc 611d d43b 79b3 9cbd 3038 71bd
00000080: 37f3 193d e493 d3bc ed72 8fbc c3a6 d3bb
00000090: 61c1 a7bc e011 9c3c a6b6 713d 4417 07bd
000000a0: f178 a13d e3f6 36bc b520 a8bc 2455 a13d
000000b0: 92c8 f1bc de27 86bd d7db 383d ae3e 72ba
000000c0: d452 fb3c ff3e 0b3d fb5c 753d 64c3 333d
000000d0: fc0d 553d ee77 5d3d 9b2c a63a 35a8 5abc
000000e0: 67cd 0fbd 6489 a8bd 48de a2bd 8495 97bd
000000f0: f557 073d 33cd 963d 4005 113d 111b 87bb
00000100: eb3a 273d 7a7d 1abd 19e1 8cbb 0aed c9bc
00000110: f013 bc3c 1264 a0bd 03fe 8abc cb97 fbbc
00000120: 303e 4f3d 9faa 613a ca72 8c3b 865b 163d
00000130: cceb 463d 557b 313d 5666 7ebd 154d 51bd
00000140: eb76 6fbd cd76 623c d382 483c da29 3bbd
00000150: bd86 2a3c 2c41 ab3d 2d82 933c 44ba 683d
00000160: 9dbd adbc 3605 83bd 3aad 7bbc da9c 4dbd
00000170: 991b 70bc 37a8 52bd 0d0c e63c f51c 91bd
00000180: a6b9 f2bc dea6 c8bc e82c 77bd a060 4bbb
00000190: 424b 71bb c02d 55bc afec 00bd 11ed dd3c
000001a0: 8f48 bf39 4ffd 37bd b6a2 37bd 273b 1c3c
000001b0: 80bb 9f3c f1df 9bbd 61f4 adbd 62aa edbc
000001c0: d509 9d3d ea7a adbd 8b79 af3d 97de a6bd
000001d0: 54dd c5bb 846d 9c3d 86e1 37bd 6db8 9f3c
000001e0: c4be 843d 9ffc 40bc a078 16bd f07d 49bd
000001f0: d814 96bc 7d34 ac3d f288 2fbc c101 09bd
00000200: dbc9 afbd c319 ec3c cf21 4ebd a1cf 2ebd
00000210: bfa7 57bd 3544 2cbd 1958 183d b50f 53bc
00000220: cc33 223d 3c5f a1bc 8d20 8fbc f889 79bb
00000230: e5ad 3b3d 7e03 743d da5f 90bb efc0 4bbd
00000240: ce9f c6bc 0772 cd3c 32ab 993d 974b 623d
00000250: 016a 5ebd 14d6 e33c 2220 673c 5cf5 8a3d
00000260: 1acc 3d3d 83b5 7dbd c744 91bb ea80 b53c
00000270: 461f 943d e779 97bd 4b62 773d cc45 95bd
00000280: cb73 8fbd d15b 523d 8b64 7abd 7d7f 9b3d
00000290: 0b15 813d f92a a3bd 342e 87bd ddf8 273d
000002a0: fa25 84bc 6136 993d c3f0 1bbd ad07 8abd
000002b0: 4514 c9bc dca2 8d3d bdfb bc3c a7f2 19bd
000002c0: 6164 953c dc35 18bd 8079 893d 5952 2cbd
000002d0: 3a6c be3c ed68 5d3c 7b81 e9bb 540f 2a3c
000002e0: d93c 213d 5a8b 443d af28 863d 8e3f 67bd
000002f0: f279 c33a 8717 433d 43cb 7abd 7a3f 153d
00000300: a377 043d 09d7 6cbd be9d 7abc 7ec4 a4bd
00000310: 8d0f 75bd 0f9a 723d 6363 0c3d ee18 1f3d
00000320: d651 723d 0896 47bc 53a7 c5bb a1f2 d2bc
00000330: a38c b13d e80c 743d 4ab8 503d 227b a9bd
00000340: 18e5 2abc 4a7a ae3d 3c17 4e3d 0402 b83c
00000350: cdad a33d 3b65 6dbd cc9d f8bb 4a54 3d3d
00000360: eb9d 3bbd a593 acbd f254 45bb 485e c3bc
00000370: 1d4b 64bd 6f72 cbbc 2c99 79bb 45a7 713c
00000380: 541a 873d bd15 aabd 84ec b03d 6bc5 54bd
00000390: d839 dc3c 6b56 e03c 534e 983d dd6b 14bd
000003a0: ac1e f83c c96e a23d c711 aabc ae97 9b3c
000003b0: 6195 8a3d 929f 443c 7bf4 5fbc 18b9 48bc
000003c0: 9943 133d 8e79 68bd b962 89bd 1d2a ad3d
000003d0: b3c1 e03c 12fc 1cbd c81d 38bd fa3c 443d
000003e0: e826 a23d 6367 b6bc e974 a13c cbc5 693d
000003f0: 82a5 263d f58a 763d 1cf3 95bd ac95 48bd

layer3.bias f4 [4]
-0.058287416 -0.023761308 0.085213706 -0.015678385
00000000: c9be 6ebd 13a7 c2bc 8684 ae3d f56f 80bc

layer1.weight f4 [128, 16]
0.15452906 -0.11317459 0.061179757 0.16688392 0.010682732 0.09016523 0.04779905 0.22740579
-0.14641747 -0.15539223 -0.2337439 -0.10414228 -0.210585 -0.20694208 0.14832824 -0.15746787
-0.11701098 -0.07375756 0.0924204 0.14378399 -0.14100698 -0.027034402 -0.22327021 -0.15068832
-0.10014379 0.12509122 -0.16544789 0.1177893 -0.06285468 -0.22016796 -0.012968093 0.027749747
0.2392393 0.16212311 -0.21681052 -0.01152578 -0.21852237 0.10273364 -0.004425913 -0.06902635
-0.20408022 -0.021410525 -0.14069441 -0.084508926 0.117777675 -0.05544597 -0.15297014 -0.056177527
0.031180918 -0.16989225 0.21805403 0.025682062 0.096191704 -0.0029775798 0.18661344 -0.04334864
-0.06030339 0.030194819 0.21312493 0.21138626 -0.1770617 0.11303544 0.079696 -0.01407367
-0.03228557 0.042940408 0.11990544 0.057724625 -0.19555587 0.14233291 0.049738854 0.18740645
-0.10208446 0.19012654 -0.14949489 0.11073458 0.11652887 -0.24572286 -0.17852646 -0.10584739
0.0791125 0.035935283 -0.20565552 0.1310342 0.048379213 -0.18435371 0.04086581 -0.22504982
-0.05050072 -0.0074709356 -0.04243794 -0.06908205 0.13662592 0.02131772 -0.016973346 0.12978637
-0.1411429 -0.09794575 0.10523239 0.18373525 -0.0017517507 -0.24327138 -0.12544665 0.030709505
-0.06552827 0.13706934 -0.1492044 -0.10101551 0.18670097 0.023681045 -0.018507749 -0.019124389
0.024723768 -0.06324577 -0.07952982 0.007310152 0.19055372 0.00089645386 0.2067894 -0.09822118
0.10449946 -0.10302186 0.050997436 0.11989322 0.09149501 -0.16782779 -0.165295 0.13957992
-0.007040024 -0.24956149 -0.11430907 0.034492135 0.20071122 -0.017504394 0.1939485 -0.0019405484
-0.082065344 -0.022822022 -0.021603823 -0.16029665 -0.21915045 -0.17817906 -0.23833227 -0.04154721
0.08617541 -0.034140825 0.050526112 0.113245696 -0.018734097 -0.16905683 0.18518904 -0.056641042
-0.19757792 -0.19184712 0.033638388 -0.067972034 0.061391234 -0.22245735 -0.17730376 0.1552935
-0.07158825 -0.17990771 -0.018071502 0.2017565 -0.13339442 -0.18917 0.13167086 0.04973033
0.10428327 0.23245773 -0.18855163 -0.10789862 -0.1553218 -0.15384075 -0.055120885 -0.2127594
-0.142191 -0.0058838725 0.24227658 -0.13894561 0.24975502 -0.13778818 0.23175725 0.14930937
-0.06833458 -0.112505645 0.16107109 -0.05187455 -0.1598421 0.17866352 -0.21117437 0.20994109
-0.24010912 -0.014135152 0.20722216 -0.0048550963 -0.094996005 -0.21637926 -0.081522524 0.017486542
0.16049504 -0.007766545 -0.1344752 0.14406213 0.09914908 0.057135135 0.10164994 -0.15254694
0.14951697 -0.009380698 0.0876683 0.09227005 -0.022624344 -0.21614662 0.06471017 -0.004309833
0.105974406 -0.1750476 -0.16488242 0.19142798 -0.14913237 -0.14845294 -0.17638433 -0.118769854
0.24360257 0.07818097 -0.041795284 -0.073905915 -0.026391327 -0.16790706 0.024126798 -0.23742005
0.22200647 0.22243881 -0.13068283 -0.22132277 -0.015398234 -0.09963298 0.22716346 0.047986
-0.2169885 -0.16700116 0.0036871135 -0.18869478 -0.06570271 -0.1356098 0.033296347 -0.10074097
0.093591034 0.076639414 -0.0847756 -0.013936847 0.066721916 -0.21839905 -0.21701136 0.14750543
00000000: de3c 1e3e 14c8 e7bd a097 7a3d 9ee3 2a3e
00000010: a006 2f3c 8ca8 b83d f0c8 433d 10dd 683e
00000020: 76ee 15be 241f 1fbe 905a 6fbe 8c48 d5bd
00000030: 98a3 57be a0e8 53be 5ce3 173e 423f 21be
00000040: 74a3 efbd 340e 97bd e846 bd3d 1c3c 133e
00000050: 2264 10be 4077 ddbc f2a0 64be 0a4e 1abe
00000060: 3018 cdbd ea17 003e 2c6b 29be 843b f13d
00000070: f4b9 80bd b673 61be 2078 54bc 7053 e33c
00000080: 26fb 743e 9a03 263e 9403 5ebe a0d6 3cbc
00000090: 54c4 5fbe 0466 d23d 4007 91bb b05d 8dbd
000000a0: 68fa 50be 2065 afbc 3212 10be 0413 adbd
000000b0: 6c35 f13d 501b 63bd 34a4 1cbe 681a 66bd
000000c0: 206f ff3c 3cf8 2dbe 8e49 5f3e 3063 d23c
000000d0: 2800 c53d 8023 43bb 9817 3f3e 588e 31bd
000000e0: b000 77bd 205b f73c 6c3d 5a3e a475 583e
000000f0: aa4f 35be 207f e73d a837 a33d 4095 66bc
00000100: e03d 04bd 48e2 2f3d fc90 f53d a870 6c3d
00000110: cc3f 48be b8bf 113e f8ba 4b3d 7ae7 3f3e
00000120: a811 d1bd 88b0 423e 3015 19be d0c8 e23d
00000130: b0a6 ee3d c69e 7bbe a4cf 36be 84c6 d8bd
00000140: bc05 a23d e030 133d 5c97 52be d42d 063e
00000150: 4829 463d 38c7 3cbe e862 273d 7673 66be
00000160: d8d9 4ebd c0ce f4bb 68d3 2dbd e47a 8dbd
00000170: aae7 0b3e 80a2 ae3c b00b 8bbc b8e6 043e
00000180: c487 10be c897 c8bd 1484 d73d 1825 3c3e
00000190: 009b e5ba 221c 79be 1675 00be 8092 fb3c
000001a0: b033 86bd e85b 0c3e 0ac9 18be 38e1 cebd
000001b0: 8a2e 3f3e c0fe c13c 909d 97bc c0aa 9cbc
000001c0: 8089 ca3c 0087 81bd 88e0 a2bd 008a ef3b
000001d0: 8420 433e 0000 6b3a 9ac0 533e 3028 c9bd
000001e0: d003 d63d 20fd d2bd b0e2 503d 948a f53d
000001f0: bc61 bb3d 0cdb 2bbe 1843 29be 0aee 0e3e
00000200: 00b0 e6bb 0c8d 7fbe e01a eabd a047 0d3d
00000210: 3e87 4d3e 6065 8fbc 709a 463e 005a feba
00000220: e011 a8bd 40f5 babc 80fa b0bc ce24 24be
00000230: fa68 60be 9274 36be 600d 74be 682d 2abd
00000240: bc7c b03d 40d7 0bbd 78f4 4e3d 5ced e73d
00000250: 4078 99bc 3c1d 2dbe 32a2 3d3e 7000 68bd
00000260: de51 4abe 9273 44be 68c8 093d ec34 8bbd
00000270: 6075 7b3d dccb 63be 1e8f 35be 4205 1f3e
00000280: dc9c 92bd ba39 38be b00a 94bc 4299 4e3e
00000290: 8c98 08be c8b5 41be bad4 063e 08b2 4b3d
000002a0: 7892 d53d 6609 6e3e ae13 41be f4f9 dcbd
000002b0: ae0c 1fbe 6e88 1dbe 70c6 61bd 9add 59be
000002c0: 849a 11be 80cd c0bb 5a17 783e c247 0ebe
000002d0: c8bf 7f3e 5818 0dbe c651 6d3e 8ee4 183e
000002e0: 00f3 8bbd 5c69 e6bd d2ef 243e 687a 54bd
000002f0: a6ad 23be 92f3 363e 183e 58be ccfa 563e
00000300: 2adf 75be 2097 67bc 0c32 543e 8017 9fbb
00000310: 448d c2bd 8692 5dbe 48f5 a6bd f03f 8f3c
00000320: d058 243e 807e febb deb3 09be 0685 133e
00000330: ac0e cb3d 8806 6a3d d82d d03d 4435 1cbe
00000340: fa1a 193e 80b1 19bc 708b b33d 14f8 bc3d
00000350: b056 b9bc 8a55 5dbe c486 843d 8039 8dbb
00000360: 1c09 d93d ae3f 33be f0d6 28be b205 443e
00000370: 28b6 18be 0c04 18be 189e 34be 9c3d f3bd
00000380: f472 793e 581d a03d 8831 2bbd fc5b 97bd
00000390: a032 d8bc d4ef 2bbe 90a5 c53c 3e1e 73be
000003a0: aa55 633e 00c7 633e b8d1 05be 70a2 62be
000003b0: e048 7cbc 600c ccbd 8a9d 683e f88c 443d
000003c0: 3c32 5ebe 5a02 2bbe 80a3 713b 3439 41be
000003d0: 248f 86bd 4cdd 0abe c061 083d 4851 cebd
000003e0: a8ac bf3d 20f5 9c3d d49e adbd 6057 64bc
000003f0: 80a5 883d 00a4 5fbe 3a38 5ebe aa0b 173e

layer1.bias f4 [128]
-0.213716 -0.18228868 0.24128726 0.032468587 0.124103725 -0.1863412 0.17907238 -0.22580421
-0.24274924 0.042915583 -0.17927039 0.18178883 -0.1696864 0.21785459 -0.067655414 -0.11404532
-0.16625625 -0.19854486 -0.07868093 -0.23428974 0.03617686 0.217917 -0.034201473 -0.03816855
-0.036857903 -0.028648257 0.17019245 0.14508224 -0.11439565 0.050344467 0.029268622 -0.09803036
-0.07138327 -0.1988745 0.13148841 0.0631645 -0.07975963 -0.1936535 0.13102159 0.074594736
-0.22453886 -0.22493908 0.18114442 -0.21972099 -0.017589718 -0.21821854 0.030737787 0.037731588
-0.07591352 0.15711582 -0.112075925 -0.18499333 0.056517273 -0.23773715 0.18558666 0.20890862
0.21881515 0.110554695 0.10331178 -0.14212012 0.16376173 0.19511977 0.22242609 -0.15708771
-0.2275959 -0.12891841 -0.040898383 0.23394424 0.036914647 -0.23648563 0.21920839 -0.11549771
0.24690062 0.08045608 -0.13460693 -0.20517331 -0.24665079 -0.03313604 0.17415762 0.24912015
0.11664632 0.046755522 0.033567935 -0.023845285 -0.21417868 -0.07111573 -0.028241515 -0.09937233
-0.046946526 0.24611264 -0.13594022 0.144243 -0.14931235 0.09277135 0.21684569 -0.0828785
0.013250262 -0.15614253 -0.19528148 0.22075355 0.12292358 -0.035568804 0.047057956 -0.05173275
-0.17758384 0.06442809 0.20755693 -0.002169609 0.06131193 -0.14316073 0.113788754 -0.23479503
-0.05463803 -0.015724301 -0.076410085 -0.11128849 0.08202061 -0.18440655 0.17198157 0.1229378
-0.025193572 0.020505607 -0.168931 0.018165082 0.1642141 -0.07131258 0.22714972 -0.23355472
00000000: 5ed8 5abe e2a9 3abe 0214 773e c8fd 043d
00000010: 182a fe3d 3ad0 3ebe c05e 373e 3839 67be
00000020: 4293 78be 40c8 2f3d a892 37be da26 3a3e
00000030: 46c2 2dbe 4615 5f3e ec8e 8abd 9890 e9bd
00000040: 143f 2abe 584f 4bbe 7823 a1bd a6e9 6fbe
00000050: 302e 143d a225 5f3e d816 0cbd a056 1cbd
00000060: 50f8 16bd c0af eabc ee46 2e3e 7090 143e
00000070: 4448 eabd 0036 4e3d c0c4 ef3c 24c4 c8bd
00000080: 6431 92bd c2a5 4bbe e6a4 063e 645c 813d
00000090: 0459 a3bd 1a4d 46be 862a 063e 20c5 983d
000000a0: 84ed 65be 6e56 66be ec7d 393e 8afe 60be
000000b0: 5018 90bc ae74 5fbe d0cd fb3c 708c 1a3d
000000c0: 8c78 9bbd f8e2 203e 1088 e5bd e46e 3dbe
000000d0: a87e 673d 5e71 73be 6e0a 3e3e 24ec 553e
000000e0: 1411 603e 806a e23d 2095 d33d f087 11be
000000f0: 28b1 273e 7acd 473e aac3 633e 9adb 20be
00000100: e60e 69be 3003 04be 1085 27bd 148f 6f3e
00000110: d033 173d 4a29 72be 2a78 603e 108a ecbd
00000120: 84d3 7c3e 28c6 a43d 66d6 09be f418 52be
00000130: 0692 7cbe a8b9 07bd 6056 323e 5a19 7f3e
00000140: 44e4 ee3d b882 3f3d 887e 093d 3057 c3bc
00000150: a851 5bbe 20a5 91bd c05a e7bc b883 cbbd
00000160: 004b 40bd f404 7c3e ea33 0bbe 70b4 133e
00000170: 56e5 18be e8fe bd3d cc0c 5e3e 34bc a9bd
00000180: a017 593c d4e3 1fbe def7 47be 380d 623e
00000190: 5cbf fb3d 98b0 11bd d8bf 403d b8e5 53bd
000001a0: 8ad8 35be e0f2 833d ce89 543e 0030 0ebb
000001b0: 3822 7b3d ba98 12be 140a e93d 1c6e 70be
000001c0: 20cc 5fbd 40d0 80bc e47c 9cbd 38eb e3bd
000001d0: 6cfa a73d 12d5 3cbe f01b 303e d0c6 fb3d
000001e0: c062 cebc 60fb a73c 40fc 2cbe f0ce 943c
000001f0: be27 283e 540c 92bd f099 683e f828 6fbe

layer2.weight f4 [128, 128]
0.039640702 0.03469025 0.07946583 -0.073078565 -0.05729379 0.046210993 -0.052948106 0.021886088
0.0531253 -0.056607116 0.06320433 0.02789312 0.04823024 -0.08393099 0.03728817 0.064779624
0.017931934 0.08560712 0.041454185 0.027605921 0.016899105 -0.07331429 0.043911938 -0.06937293
-0.046551645 -0.023004582 -0.031718146 -0.05611744 -0.06730356 0.038798366 0.07515559 -0.05508629
0.07334332 -0.06823168 -0.07066771 0.05442437 -0.08187562 0.03947634 0.03805206 0.037020832
0.08506277 -0.073957995 0.024563879 0.054804116 -0.047233235 0.044981465 -0.05510149 0.083035804
0.024300555 -0.0119176 -0.001397579 0.05414167 0.013296508 0.0824472 0.010165261 0.058770712
-0.07651609 -0.017994955 -0.04716799 -0.014664226 0.082208775 -0.07274448 -0.07476771 0.014908836
-0.057247072 -0.0017912621 0.06210847 -0.058682416 -0.0035158372 -0.029993035 -0.07418232 0.009816949
-0.024017107 0.06361345 0.07786095 -0.06607905 -0.069374494 0.07144657 -0.08568712 -0.05498675
0.019344034 0.033397794 0.044484954 0.056702282 0.06946633 -0.055939615 0.06438951 0.083362505
0.08001255 0.0798473 -0.04897389 0.04948141 0.059012637 -0.028308816 -0.0548392 0.07479111
-0.068707705 0.0432219 -0.019559383 -0.006858609 0.06428 -0.043838043 -0.059450764 -0.08669622
0.08067789 -0.08042789 0.03355455 0.04658115 0.008299715 -0.040711917 -0.057648595 -0.0019676571
0.025611859 0.024475666 -0.03429193 -0.009040741 0.08670065 -0.021009024 0.0853151 0.0066692224
-0.07350306 0.07361261 0.027539456 0.07040636 -0.012369752 0.047269564 -0.05526265 -0.04028052
-0.04202258 0.014320529 -0.08751829 -0.013178107 0.021861665 0.08584115 -0.015481296 0.0632089
-0.06968278 -0.03645348 0.053763837 -0.0041472604 -0.07267003 -0.06890492 -0.043322038 -0.050985307
0.04045044 -0.0044637728 -0.051845457 0.07597164 -0.028357578 -0.061449092 -0.017615244 -0.03257006
-0.02403032 0.017613504 0.032588996 -0.06575708 -0.015633687 -0.057058487 0.010760259 0.07705496
0.060507596 -0.06976454 -0.057340734 0.044189084 0.06755053 0.016470503 -0.04057909 0.08337787
0.034620695 -0.03367767 -0.0793634 -0.04852923 -0.059823964 -0.036240377 -0.045813475 0.027753415
-0.070837796 -0.03482655 0.022884948 -0.025844753 -0.05078852 -0.024399811 -0.07385174 -0.046914592
-0.013637772 0.02097793 0.08569432 0.02845361 -0.07617064 -0.021228239 -0.018473405 -0.028680656
0.044411175 -0.027928682 -0.05135019 -0.009629491 0.08546047 -0.030791264 -0.027958365 0.07360244
-0.011244916 -0.00023437862 -0.08551099 -0.082865484 -0.039475232 0.06683906 0.0061341156 0.024482662
-0.06257096 0.04263924 -0.011078847 -0.030792044 0.007761795 0.08608411 -0.04007667 -0.029304998
0.08592171 0.06368137 -0.05869233 -0.0140687125 0.046338487 0.08486101 0.01991546 -0.072682485
0.011058775 0.02396948 0.048524436 0.08209216 -0.054575436 -0.004994623 0.026324142 -0.039125655
0.07282302 0.024125077 0.012303518 -0.013278101 0.06692819 -0.013978255 0.054692764 0.046383932
0.031151894 -0.034671284 -0.048339337 0.08301334 0.023490725 0.04240626 0.059178166 -0.07908523
-0.034085505 -0.046112098 0.015504635 -0.0604553 0.0049112984 -0.07677708 0.03582327 0.05107725
00000000: 4a5e 223d 5d17 0e3d fbbe a23d 37aa 95bd
00000010: e5ac 6abd bd47 3d3d 1de0 58bd 744a b33c
00000020: ea99 593d dddc 67bd 4671 813d 1d80 e43c
00000030: 128d 453d 03e4 abbd 7bbb 183d 2eab 843d
00000040: fee5 923c c952 af3d ddcb 293d d025 e23c
00000050: fe6f 8a3c cd25 96bd 01dd 333d 6513 8ebd
00000060: f0ac 3ebd 1b74 bcbc e3ea 01bd 67db 65bd
00000070: 73d6 89bd 09eb 1e3d 2deb 993d 29a2 61bd
00000080: 0635 963d 0dbd 8bbd 3bba 90bd 17ec 5e3d
00000090: 68ae a7bd f1b1 213d 7adc 1b3d 28a3 173d
000000a0: 6435 ae3d 4a77 97bd 303a c93c 487a 603d
000000b0: a377 41bd 7c3e 383d 1ab2 61bd ad0e aa3d
000000c0: f511 c73c 0a42 43bc f82e b7ba a8c3 5d3d
000000d0: 99d9 593c 14da a83d 328c 263c 8fb9 703d
000000e0: 78b4 9cbd 286a 93bc 3933 41bd 3942 70bc
000000f0: 135d a83d 0ffb 94bd d01f 99bd 3144 743c
00000100: e87b 6abd c8c8 eaba 7365 7e3d f95c 70bd
00000110: f669 66bb f4b3 f5bc e6ec 97bd 45d7 203c
00000120: 86bf c4bc c547 823d 9075 9f3d 7454 87bd
00000130: 3714 8ebd 9452 923d bb7c afbd c939 61bd
00000140: 6177 9e3c 20cc 083d db35 363d a740 683d
00000150: 5d44 8e3d f020 65bd a6de 833d f6b9 aa3d
00000160: 9fdd a33d fb86 a33d d898 48bd 05ad 4a3d
00000170: 3cb7 713d e4e7 e7bc 129f 60bd 152c 993d
00000180: a0b6 8cbd 7209 313d 003b a0bc 2fbe e0bb
00000190: 3ca5 833d 858f 33bd a582 73bd ca8d b1bd
000001a0: 733a a53d 61b7 a4bd 7f70 093d e0cb 3e3d
000001b0: 87fb 073c 8ac1 26bd ef20 6cbd cff3 00bb
000001c0: f6cf d13c 3181 c83c b275 0cbd 9e1f 14bc
000001d0: 1c90 b13d 1e1b acbc afb9 ae3d 7e89 da3b
000001e0: c688 96bd 35c2 963d 6d9a e13c 3631 903d
000001f0: 80aa 4abc bb9d 413d 175b 62bd 30fd 24bd
00000200: de1f 2cbd a7a0 6a3c ca3c b3bd fde8 57bc
00000210: 3c17 b33c 7ccd af3d 43a5 7dbc ab73 813d
00000220: d8b5 8ebd 3f50 15bd 7837 5c3d bee5 87bb
00000230: 06d4 94bd 061e 8dbd 7372 31bd f8d5 50bd
00000240: 5caf 253d d744 92bb e75b 54bd 0597 9b3d
00000250: 274e e8bc 0bb2 7bbd d84d 90bc 2f68 05bd
00000260: 3cdb c4bc 324a 903c 0a7c 053d a6ab 86bd
00000270: 3812 80bc 29b6 69bd cc4b 303c fece 9d3d
00000280: d0d6 773d b6e0 8ebd 1ede 6abd 9dff 343d
00000290: ef57 8a3d 26ed 863c 4336 26bd 04c2 aa3d
000002a0: 6ece 0d3d 99f1 09bd 4789 a2bd 96c6 46bd
000002b0: f909 75bd ca70 14bd e9a6 3bbd 215b e33c
000002c0: 6813 91bd 49a6 0ebd 3779 bb3c 60b8 d3bc
000002d0: a007 50bd 1de2 c7bc 953f 97bd 8429 40bd
000002e0: f670 5fbc e8d9 ab3c 8180 af3d 8c17 e93c
000002f0: 5aff 9bbd d8e6 adbc 8a55 97bc b2f3 eabc
00000300: 7ee8 353d b1ca e4bc 9454 52bd 03c5 1dbc
00000310: e605 af3d f63d fcbc f108 e5bc e0bc 963d
00000320: 993c 38bc 88c3 75b9 6320 afbd 61b5 a9bd
00000330: c8b0 21bd ebe2 883d b100 c93b dd8f c83c
00000340: 3425 80bd 7ca6 2e3d 0d84 35bc 993f fcbc
00000350: a856 fe3b de4c b03d 6f27 24bd 0911 f0bc
00000360: b9f7 af3d 616b 823d 5e67 70bd 7580 66bc
00000370: 6dcd 3d3d 9ccb ad3d bf25 a33c 8eda 94bd
00000380: dd2f 353c a55b c43c 8fc1 463d ef1f a83d
00000390: 7e8a 5fbd efa9 a3bb baa5 d73c 3942 20bd
000003a0: 3c24 953d f4a1 c53c b294 493c 648c 59bc
000003b0: a611 893d 0d05 65bc 8505 603d 14fd 3d3d
000003c0: 4232 ff3c 7a03 0ebd 78ff 45bd e602 aa3d
000003d0: 9f6f c03c 30b2 2d3d ce64 723d 70f7 a1bd
000003e0: 3e9d 0bbd 0ae0 3cbd 2707 7e3c fa9f 77bd
000003f0: f5ee a03b 4d3d 9dbd 6cbb 123d 6136 513d

layer2.bias f4 [128]
-0.020979173 -0.03844454 0.08772223 -0.055507503 -0.039735783 0.07489796 0.044993486 -0.005658193
-0.037328158 0.08476938 0.07541216 0.08517954 0.014412505 0.073889345 0.052191086 0.052734684
0.047313903 0.032263476 0.07028302 0.06264759 0.0879032 -0.062995136 0.06464562 -0.06240199
-0.042670313 -0.06295058 0.033056088 -0.00028685146 0.06424898 -0.06820798 0.04337309 0.009325264
0.019665508 -0.010108384 0.012990122 0.038474668 0.053177185 -0.049513694 0.041737992 0.041281775
0.034021568 0.06112786 0.024847673 0.060910225 -0.07729818 -0.00040986756 0.085887544 -0.00047902
-0.04187537 -0.07044887 0.012405883 0.016119124 -0.0030215601 -0.06088231 -0.03777977 -0.06819526
0.08690209 -0.011162213 -0.004142719 -0.0025573547 0.08624681 0.05439133 0.07628193 0.03595776
0.07621447 0.009567408 -0.024539137 0.03217914 -0.012502104 -0.078508705 -0.011650622 0.08103466
-0.06327349 -0.084211774 -0.0041061356 -0.026800517 0.08777643 0.0763277 -0.06287228 0.029909931
-0.034755807 -0.07328774 -0.03441287 0.0035723562 0.07353018 0.035644833 -0.026165428 -0.045206815
-0.0045847655 0.049315754 0.018500907 -0.022899983 -0.085679665 0.018436559 -0.031416114 0.00030124458
-0.058823872 -0.019434713 0.058893096 0.036251314 0.0016420096 -0.037674446 -0.003253136 -0.07542671
0.006360054 0.045158725 0.06027352 0.008568475 0.008446713 -0.06890035 0.08662132 0.001861974
-0.06838342 -0.071485005 -0.04380561 -0.008841155 0.00663776 0.030066371 -0.030459115 0.080404535
-0.06271351 0.06308056 -0.030402554 -0.025555646 -0.059188988 -0.0333547 -0.017111989 0.008972442
00000000: 84dc abbc 0678 1dbd b6a7 b33d d65b 63bd
00000010: fdc1 22bd 1a64 993d 174b 383d 5d68 b9bb
00000020: 69e5 18bd 929b ad3d b171 9a3d 9c72 ae3d
00000030: 6d22 6c3c 4c53 973d 52c6 553d 5300 583d
00000040: 39cc 413d b526 043d 8bf0 8f3d 614d 803d
00000050: 9806 b43d 9803 81bd ec64 843d 3b99 7fbd
00000060: 11c7 2ebd 3cec 80bd d265 073d 8d64 96b9
00000070: f894 833d a0b0 8bbd fba7 313d fec8 183c
00000080: 8f19 a13c a39d 25bc 85d4 543c 9d97 1d3d
00000090: 52d0 593d dfce 4abd 75f5 2a3d 1417 293d
000000a0: 335a 0b3d 3561 7a3d 598d cb3c 007d 793d
000000b0: 824e 9ebd 7ee3 d6b9 cfe5 af3d fa24 fbb9
000000c0: 8285 2bbd 7f47 90bd 0b42 4b3c 410c 843c
000000d0: 5e05 46bb bb5f 79bd f6be 1abd f5a9 8bbd
000000e0: b9f9 b13d b7e1 36bc a5bf 87bb 4b99 27bb
000000f0: 2ba2 b03d 71c9 5e3d b339 9c3d 7248 133d
00000100: 5516 9c3d 9ec0 1c3c 4d06 c9bc 46ce 033d
00000110: a0d5 4cbc 2cc9 a0bd 40e2 3ebc 80f5 a53d
00000120: 8895 81bd 3977 acbd c38c 86bb c28c dbbc
00000130: 21c4 b33d b251 9c3d 2fc3 80bd ac05 f53c
00000140: 1b5c 0ebd e217 96bd 82f4 0cbd 311e 6a3b
00000150: fe96 963d 5100 123d e158 d6bc c82a 39bd
00000160: cd3b 96bb 51ff 493d 378f 973c bf98 bbbc
00000170: d278 afbd 4408 973c 2fae 00bd 5df0 9d39
00000180: 4df1 70bd 8c35 9fbc e339 713d 427c 143d
00000190: b338 d73a 8550 1abd 9132 55bb 5279 9abd
000001a0: 0068 d03b 5bf8 383d 5ee1 763d ca62 0c3c
000001b0: 1564 0a3c a01b 8dbd 8566 b13d 7b0d f43a
000001c0: 9b0c 8cbd bb66 92bd 836d 33bd 7eda 10bc
000001d0: 9181 d93b c04d f63c 6585 f9bc 22ab a43d
000001e0: f16f 80bd 6130 813d c70e f9bc 135a d1bc
000001f0: 2770 72bd f09e 08bd 712e 8cbc 2601 133c
