custom_maze/static/custom_maze/run/room24816/trained_model.pth (torch, 158674 bytes, 12 tensors)

layer1.weight f4 [128, 16]
0.14569017 0.08542535 -0.02657181 0.07719728 -0.059271574 0.043038428 0.052199334 -0.19023994
-0.119403094 -0.18969673 -0.15589252 0.17567793 -0.08422649 0.07318616 -0.18039915 -0.22232383
0.18992683 -0.114233226 -0.13589326 0.09916979 -0.07197794 0.16464746 -0.0034106076 -0.17056584
0.012734532 0.17348883 0.1660552 0.2359587 -0.027016938 0.15473369 0.06415346 0.12939459
-0.053369343 -0.03080216 0.14632437 0.14974198 0.10327527 0.24669123 0.24614316 0.17154711
0.13190302 -0.0390099 0.009039491 0.066848576 0.12846261 -0.1034064 -0.12902546 -0.027772456
-0.19251531 0.06333992 -0.21226448 -0.15867996 -0.017792493 0.15570629 0.113689154 -0.04027334
-0.16642281 0.087560326 0.13614425 0.14103273 0.18717074 0.18966022 0.007761866 -0.09114385
-0.055864334 0.21880928 0.23710644 -0.10634938 0.18506753 -0.0019478798 -0.037064433 -0.15509635
0.00430128 0.24140155 0.042669922 0.19290343 0.23608392 0.022001505 -0.05583766 0.119359165
0.0041948855 -0.15788803 0.12521407 0.016504616 -0.08356425 0.07363203 0.044201553 -0.09733996
-0.013943553 -0.12372875 -0.107056946 -0.118091285 0.15508878 0.07752311 0.15541777 -0.1602903
0.17948332 -0.12530962 0.021752954 -0.11436319 0.10653797 -0.09241471 0.03717354 -0.2180892
-0.19701844 0.16268182 0.12342164 0.24413037 0.16971734 0.02532342 0.16496786 -0.08121133
0.1353217 0.19644108 0.057202607 -0.010535657 0.22090644 0.023182899 0.117663205 -0.042470396
-0.12259075 0.16504636 -0.14517513 0.033833593 0.11446062 0.22234303 -0.15584621 0.21764511
-0.20723519 -0.110405535 0.031270415 0.2237064 -0.19104406 0.24593526 -0.20281085 0.15495059
-0.15206262 -0.13387296 0.20915651 0.104340315 0.0018596351 -0.045122355 -0.1312553 -0.07989955
0.19794595 -0.15537974 -0.1424236 -0.029349655 -0.1602892 -0.15338 0.00996232 0.11666483
0.1864518 0.2276901 0.2343477 0.23908442 -0.14140311 -0.17111278 -0.018924206 -0.20654744
0.16554171 0.2179178 0.17495316 -0.16159892 -0.14627814 0.0050652325 0.18908837 0.03299263
-0.18143156 -0.06370291 -0.039660633 0.1234715 -0.114439934 -0.11785674 0.09380165 0.21828339
0.15031707 0.015223861 -0.06830108 -0.20716852 -0.22035646 -0.008234292 -0.08496612 0.19350085
-0.09341544 -0.16418698 0.0013681352 0.0154669285 0.048318624 -0.23759583 0.043726683 -0.18777919
0.1084013 -0.102044046 0.084195495 0.20164496 0.033302575 0.0890646 0.14444509 0.14485255
-0.07835239 0.17418364 0.20872733 -0.1465101 -0.05556956 0.06700009 -0.022239387 -0.24592224
0.13844442 -0.16851494 0.017779976 -0.085604966 -0.18018001 0.20949349 0.24438155 -0.0366562
0.11459732 -0.23045868 0.11936554 0.19083226 -0.12366423 0.06408191 0.04669085 0.17230397
0.13225281 -0.11014533 0.028819174 -0.0053842664 0.085217476 0.11086702 -0.03580585 0.040854543
0.07591665 0.17257988 0.11896762 0.18714184 0.0346663 0.03285238 -0.08482492 0.21324477
-0.1851874 -0.22079226 0.13141051 0.16523632 0.21161968 0.21596196 0.2377604 -0.13727209
-0.14277527 0.1511155 -0.014295191 0.2120319 -0.14498672 -0.18314281 0.027772397 -0.18903944
00000000: ce2f 153e 7cf3 ae3d 20ad d9bc 9c19 9e3d
00000010: c0c6 72bd 1049 303d f8ce 553d 42ce 42be
00000020: 9c89 f4bd dc3f 42be 4aa2 1fbe eae4 333e
00000030: f07e acbd a0e2 953d 8eba 38be dca8 63be
00000040: 2e7c 423e 1cf3 e9bd 9a27 0bbe 8819 cb3d
00000050: 2c69 93bd 5899 283e 8084 5fbb d0a8 2ebe
00000060: 80a4 503c 0ea7 313e 600a 2a3e 289f 713e
00000070: a052 ddbc 8272 1e3e e462 833d 0480 043e
00000080: d099 5abd d054 fcbc 0ed6 153e f655 193e
00000090: fc81 d33d a09c 7c3e f40c 7c3e 0caa 2f3e
000000a0: 9611 073e d8c8 1fbd 601a 143c e8e7 883d
000000b0: b48b 033e bcc6 d3bd 401f 04be 1083 e3bc
000000c0: bc22 45be 5cb8 813d dc5b 59be 007d 22be
000000d0: 90c1 91bc 7871 1f3e dcd5 e83d a8f5 24bd
000000e0: be6a 2abe d452 b33d 6669 0b3e e26a 103e
000000f0: b0a9 3f3e 4a36 423e 4057 fe3b a0a9 babd
00000100: 00d2 64bd 8a0f 603e 08cc 723e b4cd d9bd
00000110: 5882 3d3e 0050 ffba e0d0 17bd 94d1 1ebe
00000120: c0f1 8c3b f831 773e a8c6 2e3d 7a88 453e
00000130: fcbf 713e 803c b43c 08b6 64bd 9472 f43d
00000140: 4075 893b 66ad 21be 1e38 003e b034 873c
00000150: bc23 abbd 64cc 963d b00c 353d 2c5a c7bd
00000160: 8073 64bc 8065 fdbd ac40 dbbd d8d9 f1bd
00000170: 98cf 1e3e 70c4 9e3d d625 1f3e 2423 24be
00000180: 7aca 373e 2a51 00be 4033 b23c 4037 eabd
00000190: 9430 da3d ec43 bdbd 4843 183d c652 5fbe
000001a0: 34bf 49be 1096 263e 7cc4 fc3d 50fd 793e
000001b0: 62ca 2d3e 1073 cf3c 56ed 283e 2052 a6bd
000001c0: c691 0a3e da27 493e 484d 6a3d c09d 2cbc
000001d0: 4c35 623e 10ea bd3c 68f9 f03d 70f5 2dbd
000001e0: dc10 fbbd ea01 293e caa8 14be 1895 0a3d
000001f0: 546a ea3d e4ad 633e 2696 1fbe 5cde 5e3e
00000200: 7635 54be 4c1c e2bd 6815 003d 4a13 653e
00000210: 0ea1 43be 74d6 7b3e a6ad 4fbe 5eab 1e3e
00000220: 4eb6 1bbe fe15 09be 202d 563e 60b0 d53d
00000230: 00bf f33a 38d2 38bd ca67 06be 60a2 a3bd
00000240: 58b2 4a3e de1b 1fbe 7ed7 11be b06e f0bc
00000250: da22 24be a60f 1dbe 0039 233c f8ed ee3d
00000260: 38ed 3e3e 9827 693e d8f8 6f3e 8cd2 743e
00000270: facb 10be 3038 2fbe f006 9bbc 2c81 53be
00000280: c483 293e d825 5f3e ec26 333e 307a 25be
00000290: f0c9 15be 40fa a53b 62a0 413e 4823 073d
000002a0: 32c9 39be ac76 82bd 3073 22bd a0de fc3d
000002b0: 7c5f eabd e05e f1bd 141b c03d ae85 5f3e
000002c0: b8ec 193e 806d 793c 70e1 8bbd fc23 54be
000002d0: 20a5 61be 20e9 06bc b802 aebd 1625 463e
000002e0: 9850 bfbd a220 28be 0053 b33a 0069 7d3c
000002f0: c0e9 453d 524c 73be c01a 333d 3049 40be
00000300: 8001 de3d 78fc d0bd b06e ac3d 047c 4e3e
00000310: 4868 083d 8067 b63d 6ae9 133e 3a54 143e
00000320: 3877 a0bd 325d 323e 9ebc 553e be06 16be
00000330: e89c 63bd 5837 893d 602f b6bc 0ad3 7bbe
00000340: 60c4 0d3e 2e8f 2cbe 50a7 913c a851 afbd
00000350: 1c81 38be 7685 563e 283f 7a3e d024 16bd
00000360: 00b2 ea3d 5cfd 6bbe ec75 f43d 8869 433e
00000370: ac43 fdbd 603d 833d e83e 3f3d 7470 303e
00000380: 486d 073e e093 e1bd 3016 ec3c 806e b0bb
00000390: 8086 ae3d 400e e33d 28a9 12bd 1857 273d
000003a0: 307a 9b3d c8b8 303e 4ca5 f33d 1ca2 3f3e
000003b0: 40fe 0d3d 3890 063d b0b8 adbd d65c 5a3e
000003c0: c4a1 3dbe 5e17 62be 7a90 063e b633 293e
000003d0: d4b2 583e 2225 5d3e 7677 733e 0e91 0cbe
000003e0: ae33 12be 06be 1a3e 6036 6abc e41e 593e
000003f0: 6677 14be ca89 3bbe f082 e33c 8e93 41be

layer1.bias f4 [128]
0.18891138 -0.13633686 -0.22711065 -0.11498308 0.23600906 -0.05641228 -0.11498958 0.06467506
-0.22295457 -0.05027324 0.10641229 0.22465807 0.24846104 -0.13913536 0.03121692 -0.24539885
0.052586615 -0.2443946 -0.12854978 -0.07303733 0.09526062 -0.21796194 -0.1824699 0.0051468313
0.17355597 0.026924938 0.14619961 -0.24037966 -0.008367956 -0.15554377 0.09002599 -0.050863743
-0.03338766 0.17206186 -0.16572627 -0.16606894 -0.22409698 -0.076372355 0.24634176 -0.18094337
0.040128738 -0.18758538 -0.17323768 -0.0002990365 -0.187251 0.020560205 -0.108412474 -0.11902198
-0.02198425 -0.21779963 0.14617613 -0.1595572 0.12871185 -0.015598476 -0.07214752 -0.12211916
-0.03477049 -0.10483828 -0.15745673 0.21512884 -0.118254125 -0.15797243 -0.19576263 -0.076901555
0.129956 0.028614253 0.15606141 0.08993697 0.0051029027 0.19124109 -0.030479431 0.16756305
-0.19772261 0.15506196 -0.026118636 0.015576243 -0.041250706 0.087733686 0.15768361 -0.22644097
-0.1888628 -0.12940615 0.0925464 0.16149679 -0.010705411 -0.10171005 0.06727469 -0.13078043
-0.06347728 0.046616614 -0.026786 0.14353693 0.1451684 -0.023724139 0.09801334 -0.12007424
-0.2223101 -0.1481399 0.18446061 0.21607408 -0.046292633 0.21572855 0.11776936 -0.018575191
-0.23783934 -0.22454378 0.23553887 0.14964315 -0.20536205 0.23622078 0.14459613 -0.20270556
0.12990949 0.10533488 -0.11463323 -0.07028517 -0.18527174 -0.19420415 0.114857584 -0.13446969
-0.13438296 0.1227147 -0.036753505 0.1405541 0.22554749 0.074412405 0.11681381 0.05287665
00000000: fc71 413e e49b 0bbe b28f 68be 407c ebbd
00000010: 5cac 713e 9010 67bd a87f ebbd 5c74 843d
00000020: 344e 64be 50eb 4dbd b0ee d93d c40c 663e
00000030: 926c 7e3e 8079 0ebe a0ba ff3c d649 7bbe
00000040: 1065 573d 9442 7abe 8ea2 03be 9894 95bd
00000050: 0018 c33d 6a31 5fbe 64d9 3abe c0a6 a83b
00000060: a8b8 313e b091 dc3c 5ab5 153e 1626 76be
00000070: c019 09bc de46 1fbe 8c5f b83d 8056 50bd
00000080: 80c1 08bd fc30 303e 26b4 29be fa0d 2abe
00000090: ae79 65be 1c69 9cbd 0441 7c3e 3849 39be
000000a0: 085e 243d 6216 40be 3865 31be 00c8 9cb9
000000b0: babe 3fbe e06d a83c 5c07 debd ccc1 f3bd
000000c0: 5018 b4bc de06 5fbe 32af 153e f662 23be
000000d0: 0acd 033e c090 7fbc 14c2 93bd 9c19 fabd
000000e0: 806b 0ebd 74b5 d6bd 563c 21be bc4a 5c3e
000000f0: 382f f2bd 86c3 21be 0076 48be 907e 9dbd
00000100: 3013 053e 7068 ea3c 90ce 1f3e e030 b83d
00000110: 4036 a73b b4d4 433e 00b0 f9bc a695 2b3e
00000120: cc77 4abe 90c8 1e3e c0f6 d5bc 8033 7f3c
00000130: 80f6 28bd b8ad b33d d077 213e 24e0 67be
00000140: 4065 41be 0c83 04be f888 bd3d 6a5f 253e
00000150: c065 2fbc 5c4d d0bd 50c7 893d 4eeb 05be
00000160: 6000 82bd 10f1 3e3d 506e dbbc 58fb 123e
00000170: 06a7 143e 2059 c2bc 38bb c83d 7ce9 f5bd
00000180: 42a5 63be fcb1 17be 3ee3 3c3e 8642 5d3e
00000190: 589d 3dbd f2e7 5c3e 1031 f13d 002b 98bc
000001a0: 288c 73be ceee 65be 1a31 713e 0e3c 193e
000001b0: 6e4a 52be dce3 713e 0211 143e 0c92 4fbe
000001c0: fe06 053e d0b9 d73d d4c4 eabd acf1 8fbd
000001d0: e0b7 3dbe 74dd 46be 743a eb3d 6cb2 09be
000001e0: b09b 09be d851 fb3d d88a 16bd 6aed 0f3e
000001f0: ecf5 663e 8865 983d 143c ef3d 3095 583d

layer2.weight f4 [128, 128]
-0.024414815 -0.032299552 0.053365484 0.05946588 -0.018728267 0.024451852 -0.02400812 -0.0032170056
0.052076433 -0.07165318 0.07786373 0.016051743 0.08486429 -0.04465492 -0.0030359323 -0.07925072
-0.038489364 0.053922612 -0.040365543 -0.014438025 0.015233525 0.04067816 -0.063731335 0.07588337
0.07588522 -0.045278843 0.073008806 -0.020374555 -0.04199274 0.0007789264 0.026808567 0.0382816
-0.04552554 -0.06940116 0.074365176 -0.014564982 -0.047211602 -0.07349736 0.08374797 -0.045235127
-0.07909042 0.08087152 0.021732643 -0.00966169 0.022160664 0.00089184835 -0.041390616 -0.05939145
-0.014476768 -0.081016764 0.056845583 0.0062982985 0.082959 0.018230492 0.0478013 0.02508691
-0.08393964 0.030647438 -0.04886008 0.05837532 0.04993587 0.0127168 0.033092987 -0.046811208
-0.004545327 0.07814337 -0.018029388 0.0757876 -0.026781203 -0.045357723 -0.012579528 -0.015018871
-0.020125847 0.06892642 -0.022516036 0.07904746 0.059876595 -0.06465786 0.026067372 0.081043266
-0.031414215 -0.013929512 -0.07617324 -0.01546782 -0.06998789 0.07943988 -0.04343296 0.019944668
0.081148036 -0.0662996 -0.02483601 0.021063099 -0.024905922 -0.07549959 0.059383687 0.042131927
-0.07739553 0.03288494 0.004759043 0.026014572 -0.063673854 0.06640695 -0.058823355 0.02551584
0.007896591 -0.08199533 -0.04082094 -0.0070563094 0.07839571 0.014374246 0.0039455984 -0.06827171
0.0047186557 -0.025179243 -0.073968664 0.0064150454 -0.020334095 -0.086159326 0.06156643 -0.00959787
0.05126019 -0.0030595767 0.035150427 0.02974263 0.017999412 -0.031192102 0.0040314198 -0.086375706
0.02522021 -0.081888005 -0.057302233 -0.06100361 -0.038217444 0.0036316358 -0.08645366 -0.05398456
0.059380125 -0.02924122 -0.0080659585 -0.085778594 -0.009443444 0.033731535 0.06262715 0.03580226
0.049466174 0.083907716 -0.0009029541 -0.025634428 -0.004953951 0.054660868 0.011680977 0.019715263
-0.037500493 -0.009648541 -0.0637492 -0.05362174 0.007458949 -0.044678345 0.023480926 0.07929154
-0.03386285 0.033140518 -0.052403305 0.008816962 0.018271165 -0.03809664 -0.07424036 -0.027801715
0.043479487 -0.043679044 -0.043510772 0.060193274 -0.0037339895 0.038391005 -0.06757986 -0.03929984
0.084708706 -0.0017621702 -0.033233 -0.06630786 0.072389 -0.07333635 0.01918456 0.011874769
-0.00021563382 0.027985075 0.0646394 -0.007679883 -0.041864052 -0.050002914 0.06136695 -0.030001065
-0.079189904 0.008343327 0.056571376 -0.051727436 -0.011801423 0.034379195 -0.015679564 0.054673556
0.06968935 0.05542221 0.084077016 0.059726793 -0.049622793 0.022608865 0.058524545 0.048889365
0.0017786813 0.04954165 -0.071014985 0.060730733 0.018549459 0.037881143 -0.07667828 0.0147974
0.008649892 -0.01696694 -0.014251019 0.0663174 0.025168443 0.022714138 0.04915124 0.08823887
0.059042506 -0.024937974 0.030896105 0.072374105 -0.054812945 0.04071595 -0.012613551 -0.00013548104
0.027826846 -0.020190468 -0.019454384 0.06821737 -0.04155067 -0.04696147 -0.026623057 0.04345748
0.083826095 -0.07952335 -0.05962661 -0.0040086815 -0.019265398 -0.06290227 -0.018169917 -0.033579867
-0.037757043 -0.059787694 -0.009751822 -0.02165681 0.06874634 0.0137603665 -0.017834343 -0.030085253
00000000: 9401 c8bc 894c 04bd c495 5a3d 7f92 733d
00000010: 066c 99bc 404f c83c adac c4bc 66d4 52bb
00000020: 194e 553d e7be 92bd 0577 9f3d f27e 833c
00000030: 54cd ad3d 14e8 36bd 7ef6 46bb 344e a2bd
00000040: 06a7 1dbd f5dd 5c3d 5756 25bd 778d 6cbc
00000050: 0996 793c 249e 263d 9385 82bd be68 9b3d
00000060: b669 9b3d 4f76 39bd a485 953d 8ae8 a6bc
00000070: 9400 2cbd de30 4c3a a49d db3c 2bcd 1c3d
00000080: fd78 3abd 3222 8ebd c54c 983d f6a1 6ebc
00000090: f460 41bd c985 96bd 0e84 ab3d 7848 39bd
000000a0: 28fa a1bd f89f a53d a808 b23c 114c 1ebc
000000b0: 488a b53c eeca 693a 3589 29bd 7344 73bd
000000c0: f72f 6dbc 1eec a5bd ead6 683d f561 ce3b
000000d0: 68e6 a93d 1d58 953c 4ccb 433d 1083 cd3c
000000e0: 8ce8 abbd 5610 fb3c 8221 48bd f61a 6f3d
000000f0: 8e89 4c3d 205a 503c 838c 073d 1cbd 3fbd
00000100: f7f0 94bb a209 a03d 5eb2 93bc 8736 9b3d
00000110: 4164 dbbc 05c9 39bd 5d1a 4ebc b611 76bc
00000120: f6de a4bc 4b29 8d3d 8d73 b8bc a2e3 a13d
00000130: 2941 753d 576b 84bd 3e8b d53c 03fa a53d
00000140: 31ac 00bd 9c38 64bc b700 9cbd bd6c 7dbc
00000150: d055 8fbd 60b1 a23d c2e6 31bd 0063 a33c
00000160: f130 a63d 16c8 87bd e374 cbbc 858c ac3c
00000170: 8107 ccbc 879f 9abd 4f3c 733d 8792 2c3d
00000180: 8c81 9ebd 5cb2 063d bff1 9b3b 831c d53c
00000190: 7067 82bd 5e00 883d c2f0 70bd 9806 d13c
000001a0: b460 013c 2bed a7bd dc33 27bd 9d38 e7bb
000001b0: ee8d a03d f581 6b3c 144a 813b 0ad2 8bbd
000001c0: f49e 9a3b b344 cebc e27c 97bd 4d35 d23b
000001d0: b093 a6bc 4d74 b0bd 152d 7c3d 6240 1dbc
000001e0: 34f6 513d 2e83 48bb e5f9 0f3d d1a6 f33c
000001f0: 8173 933c 9486 ffbc 001a 843b bfe5 b0bd
00000200: 9d9a ce3c e6b4 a7bd bfb5 6abd ecde 79bd
00000210: e589 1cbd bd00 6e3b 9e0e b1bd ea1e 5dbd
00000220: 9338 733d 488b efbc 1527 04bc b0ac afbd
00000230: adb8 1abc 142a 0a3d aa42 803d 64a5 123d
00000240: 0b9d 4a3d cfd7 ab3d 39b4 6cba 4bff d1bc
00000250: c154 a2bb 13e4 5f3d 9261 3f3c e781 a13c
00000260: 1e9a 19bd ea14 1ebc f18e 82bd 78a2 5bbd
00000270: 336a f43b a400 37bd 125b c03c 9a63 a23d
00000280: c6b3 0abd 5abe 073d d9a4 56bd 0575 103c
00000290: 69ad 953c 390b 1cbd 540b 98bd 6cc0 e3bc
000002a0: 8c17 323d cce8 32bd 5a38 32bd 398d 763d
000002b0: f3b5 74bb e33f 1d3d 4f67 8abd def8 20bd
000002c0: c27b ad3d 9ff8 e6ba 541f 08bd 6acc 87bd
000002d0: af40 943d 5e31 96bd f028 9d3c 648e 423c
000002e0: c31b 62b9 f540 e53c a961 843d 87a7 fbbb
000002f0: a479 2bbd dbcf 4cbd e95b 7b3d cbc4 f5bc
00000300: 512e a2bd 73b2 083c 63b7 673d 26e0 53bd
00000310: c15a 41bc 33d1 0c3d 6e72 80bc 61f1 5f3d
00000320: 4ab9 8e3d 6602 633d 9230 ac3d 15a4 743d
00000330: 4541 4bbd 3a36 b93c 6fb7 6f3d 3740 483d
00000340: a422 e93a 2fec 4a3d 4e70 91bd cac0 783d
00000350: 09f5 973c 4229 1b3d 8109 9dbd cb70 723c
00000360: 47b8 0d3c 41fe 8abc 1b7d 69bc 6bd1 873d
00000370: 0d2e ce3c 0013 ba3c d052 493d 95b6 b43d
00000380: 8ed6 713d b94a ccbc d419 fd3c e038 943d
00000390: 8a83 60bd c5c5 263d 11a9 4ebc ea0f 0eb9
000003a0: 20f5 e33c 7b66 a5bc cd5e 9fbc 8cb5 8b3d
000003b0: 0931 2abd ac5a 40bd 9918 dabc 7800 323d
000003c0: 04ad ab3d 23dd a2bd 083b 74bd 425b 83bb
000003d0: 78d2 9dbc e8d2 80bd 14d9 94bc 0b8b 09bd
000003e0: 21a7 1abd f1e3 74bd 1bc6 1fbc 9f69 b1bc
000003f0: e2ca 8c3d 2973 613c 5419 92bc 5975 f6bc

layer2.bias f4 [128]
-0.07450995 -0.004813507 0.08338065 -0.058246765 0.0023560089 -0.022976913 -0.05265781 -0.069405556
-0.036497474 -0.08510844 -0.014294272 -0.06440385 -3.5171546e-05 -0.06789157 -0.019552955 -0.06686212
-0.0419023 -0.04966928 -0.08346973 -0.030826457 0.0030934522 -0.04097623 -0.06431923 -0.042358436
0.0049870573 0.080970645 0.06766643 -0.00087546377 0.077083774 0.0035720824 -0.07005362 0.03691044
0.07648746 0.0045366446 0.031117039 -0.032056376 0.0745856 0.081796154 0.077062055 -0.011487155
0.046545323 -0.042367425 0.026109645 -0.039154842 0.058608394 -0.07165178 0.0010395625 -0.0842875
-0.08327261 -0.06738992 0.012851469 -0.08762364 -0.060676876 -0.072854586 0.037026457 -0.071948454
0.04447344 -0.001176287 0.006448689 0.03894475 0.044684615 0.0015073293 0.07434195 -0.015148694
0.06425407 -0.023644866 0.044863097 -0.06855591 -0.062947705 0.041366406 -0.009529076 0.02436306
-0.03686295 -0.05772211 0.07797075 -0.017352216 -0.08164594 -0.03524592 -0.07020853 0.01468707
0.023092395 -0.053128608 -0.064431906 -0.08538123 0.07054225 0.03804106 0.019675033 0.031656012
-0.043923568 -0.0111707905 0.015321823 0.015234884 0.023705969 0.025076753 0.082765155 0.016344253
-0.042583216 -0.0823836 0.051399745 0.08789595 -0.067424305 0.04708243 0.036364913 -0.06819892
0.057817288 0.017798161 -0.015184888 0.06860641 0.03709187 0.07086305 0.029422471 -0.076301716
-0.085412234 0.027846359 -0.0037451794 0.075781874 -0.038698215 0.001740001 0.05400971 -0.05953942
-0.059964545 -0.054598555 -0.035319205 -0.04764055 0.05868921 -0.00030094956 0.020353207 -0.013966391
00000000: ac98 98bd a0ba 9dbb 79c3 aa3d 2994 6ebd
00000010: 4567 1a3b 143a bcbc b7af 57bd 8024 8ebd
00000020: 607e 15bd 554d aebd 8632 6abc 2ae6 83bd
00000030: 2985 13b8 bc0a 8bbd 852d a0bc 02ef 88bd
00000040: bfa1 2bbd 0472 4bbd 2ef2 aabd c487 fcbc
00000050: 84bb 4a3b b1d6 27bd cdb9 83bd 0a80 2dbd
00000060: 786a a33b f0d3 a53d b294 8a3d 617f 65ba
00000070: 19de 9d3d 9919 6a3b 4678 8fbd 672f 173d
00000080: 75a5 9c3d 22a8 943b 29e9 fe3c 8c4d 03bd
00000090: 56c0 983d be84 a73d b6d2 9d3d 9f34 3cbc
000000a0: 4fa6 3e3d 7789 2dbd e5e3 d53c d460 20bd
000000b0: 5b0f 703d 2bbe 92bd ee41 883a ed9e acbd
000000c0: d58a aabd ba03 8abd f88e 523c 0674 b3bd
000000d0: 5188 78bd c934 95bd 0ea9 173d b659 93bd
000000e0: c829 363d a42d 9aba 864f d33b 8884 1f3d
000000f0: 3707 373d 9491 c53a 9840 983d 3a32 78bc
00000100: a397 833d e1b2 c1bc 5ec2 373d 0a67 8cbd
00000110: baea 80bd d26f 293d d71f 1cbc 0a95 c73c
00000120: 9bfd 16bd 056e 6cbd 21af 9f3d 3c26 8ebc
00000130: fd35 a7bd 075e 10bd 7dc9 8fbd 09a2 703c
00000140: 432c bd3c 629d 59bd e0f4 83bd 5bdc aebd
00000150: 7578 903d f1d0 1b3d 892d a13c bca9 013d
00000160: 33e9 33bd b105 37bc 6208 7b3c bc9b 793c
00000170: 0533 c23c c36d cd3c c780 a93d 62e4 853c
00000180: bd6b 2ebd bcb8 a8bd 8a88 523d cb02 b43d
00000190: c115 8abd 82d9 403d 60f3 143d e0ab 8bbd
000001a0: d2d1 6c3d 73cd 913c 09ca 78bc 8481 8c3d
000001b0: a5ed 173d a620 913d 6507 f13c 1344 9cbd
000001c0: 9cec aebd 0c1e e43c af71 75bb 8733 9b3d
000001d0: 0582 1ebd bf10 e43a 4939 5d3d 9bdf 73bd
000001e0: 629d 75bd bca2 5fbd dfaa 10bd bd22 43bd
000001f0: 1964 703d c4c8 9db9 c5bb a63c 4ad3 64bc

layer3.weight f4 [4, 128]
-0.071425244 -0.06843394 -0.019069025 0.05130777 -0.04179335 -0.0364126 -0.029298792 0.04881899
-0.07274678 0.021071844 0.042331103 -0.035891235 0.01819118 -0.0772971 0.07667565 0.03515813
-0.079374634 0.033204414 -0.025654638 0.058410093 0.071488336 0.05287692 0.07517207 0.044941783
0.08693042 -0.0068770065 0.019606398 0.07333131 0.07187608 0.015398594 0.054598186 0.08213137
-0.08457862 0.059213 -0.06891123 7.220809e-05 0.00234347 -0.0036877543 0.057003874 0.043181404
-0.082286336 -0.015481992 -0.07897608 0.07076178 -0.07402088 -0.046201427 -0.035991363 0.0044924007
0.08126272 0.041217297 0.030707214 -0.073291734 -0.084269315 0.06001473 -0.005826633 0.06265041
-0.066883296 -0.05383479 -0.03724617 -0.054527275 0.083810896 -0.07635005 -0.07338779 0.028973924
-0.06515942 -0.076786265 -0.06124312 0.06463525 0.013638236 0.08676637 -0.049281675 -0.011131499
0.039930925 0.035182998 0.08500447 -0.07674975 -0.01282144 0.0567466 0.016275996 0.013697915
-0.07921168 -0.037028905 -0.0056730183 0.05956438 -0.022170506 0.0083143925 -0.028271347 0.01641548
0.016483137 -0.07045124 -0.023627028 -0.05729121 0.020476393 0.06791932 0.047626033 0.0157892
0.06220942 0.06016983 -0.026445925 0.02914366 -0.058155358 0.0035866862 0.07508017 0.08806895
-0.029081557 -0.019030072 0.057354484 -0.08289336 0.065132886 0.01926507 -0.055624187 0.022452079
0.01874442 0.027037846 0.07517202 -0.031794656 -0.041051302 0.07505718 -0.038814 0.012071774
-0.030152181 0.013546671 0.010296749 0.04784526 0.021001173 0.07383326 0.080596976 -0.0780564
0.087927304 -0.051456906 0.048477188 -0.032692563 0.07596011 0.047809668 -0.077426255 0.06742331
-0.06326345 -0.0009357338 0.052348323 -0.05514856 0.034123067 -0.0703272 0.06705609 0.0003954744
-0.078501076 0.035849065 -0.0016447807 0.0122803375 -0.014188336 0.011211778 0.077897586 0.05083211
0.031214388 0.004994981 -0.06927667 0.031616077 -0.06371019 -0.022736518 -0.020414975 0.016283719
0.08686925 0.00544944 0.0686761 0.029748203 -0.010878291 0.0549695 0.056079164 0.008076358
-0.018662635 -0.017614031 0.051184103 -0.053385727 -0.0852724 0.045957502 0.0200896 0.02082402
0.035828054 -0.054204892 -0.088003695 -0.06823644 0.082759276 0.073031165 -0.07923107 -0.01908264
-0.07193287 0.03656219 -0.0052849934 -0.029456327 -0.06444705 -0.049307607 -0.08749921 0.07919084
-0.012687128 0.007705571 0.055189054 0.043865323 -0.025094792 -0.008488312 0.036788657 0.0035027296
0.07785615 0.036248807 0.07066058 -0.016937133 -0.0773798 -0.026936661 -0.050074942 -0.058546364
-0.0110581005 -0.012965255 -0.024445487 0.07778337 -0.017268522 -0.0037650834 0.018571239 0.07391886
-0.051650424 0.011386962 -0.044728238 -0.05188825 0.017548589 -0.013530171 0.06901606 0.06251159
-0.05570554 -0.06849157 -0.053811736 0.009766847 -0.056116547 -0.08287935 0.026988039 -0.024564479
-0.08566387 0.033250637 0.020100664 0.06795209 -0.035450716 0.0063635735 0.06859648 -0.04411557
-0.048448276 -0.060670935 0.01948786 -0.035013832 0.02914584 0.057947036 0.013975947 -0.036715385
-0.058435235 -0.07711478 -0.051497728 0.035240717 0.030073272 -0.07253134 -0.08071819 0.027358426
00000000: 6647 92bd 1827 8cbd a536 9cbc 1928 523d
00000010: 812f 2bbd 6125 15bd 0504 f0bc 6cf6 473d
00000020: 44fc 94bd dc9e ac3c 6163 2d3d b002 13bd
00000030: ab05 953c f14d 9ebd 2008 9d3d f901 103d
00000040: 2b8f a2bd 5a01 083d ad29 d2bc 6c3f 6f3d
00000050: 7a68 923d 7895 583d d0f3 993d e014 383d
00000060: 9308 b23d 8358 e1bb 999d a03c ba2e 963d
00000070: c433 933d 624a 7c3c 59a2 5f3d 7e34 a83d
00000080: 8e37 adbd 5589 723d 5521 8dbd 6c6e 9738
00000090: e794 193b 40ae 71bb e57c 693d fcde 303d
000000a0: bd85 a8bd 2ea8 7dbc 36be a1bd 8deb 903d
000000b0: 4298 97bd b53d 3dbd ae6b 13bd fd34 933b
000000c0: 126d a63d 78d3 283d b28d fb3c fa19 96bd
000000d0: 6495 acbd 01d2 753d 57ed bebb dc4e 803d
000000e0: 1cfa 88bd de81 5cbd 718f 18bd fe57 5fbd
000000f0: 0ca5 ab3d 6a5d 9cbd 564c 96bd b95a ed3c
00000100: 4d72 85bd 1e42 9dbd 11da 7abd 7c5f 843d
00000110: e872 5f3c 91b2 b13d 95db 49bd e460 36bc
00000120: 9c8e 233d 0c1c 103d d316 ae3d f92e 9dbd
00000130: 0411 52bc 1f6f 683d 3d55 853c 386d 603c
00000140: bc39 a2bd 9fab 17bd bae4 b9bb c8f9 733d
00000150: ec9e b5bc 1739 083c 5099 e7bc c279 863c
00000160: a507 873c bd48 90bd 788d c1bc 30aa 6abd
00000170: 1cbe a73c 4919 8b3d 8413 433d 5a58 813c
00000180: 4ecf 7e3d a474 763d 20a5 d8bc afbe ee3c
00000190: 5034 6ebd 9c0e 6b3b a2c3 993d 7e5d b43d
000001a0: 723c eebc f4e4 9bbc 89ec 6a3d fec3 a9bd
000001b0: 6464 853d c8d1 9d3c 30d6 63bd 6ced b73c
000001c0: e68d 993c 797e dd3c caf3 993d 1d3b 02bd
000001d0: 6925 28bd 94b7 993d 6efb 1ebd b1c8 453c
000001e0: b501 f7bc dbf2 5d3c b2b3 283c 64f9 433d
000001f0: a70a ac3c e435 973d 0710 a53d 09dc 9fbd
00000200: 3b13 b43d 7ac4 52bd 0490 463d a3e8 05bd
00000210: f990 9b3d 12d4 433d a891 9ebd 3b15 8a3d
00000220: 4590 81bd 084c 75ba 326b 563d 75e3 61bd
00000230: a1c4 0b3d b507 90bd b454 893d ad57 cf39
00000240: 2cc5 a0bd 78d6 123d af95 d7ba 7833 493c
00000250: 3276 68bc 9bb1 373c c588 9f3d 5535 503d
00000260: 51b5 ff3c f0ac a33b ede0 8dbd dc7f 013d
00000270: 7d7a 82bd ef41 babc 4e3d a7bc 6f65 853c
00000280: 81e8 b13d 3791 b23b 0ea6 8c3d 81b2 f33c
00000290: dc3a 32bc b327 613d 44b3 653d b352 043c
000002a0: 62e2 98bc 4d4b 90bc 6ca6 513d feaa 5abd
000002b0: 4ca3 aebd ef3d 3c3d f292 a43c 2397 aa3c
000002c0: 70c0 123d f305 5ebd 483b b4bd 8cbf 8bbd
000002d0: b27d a93d 5d91 953d e643 a2bd 3253 9cbc
000002e0: 8a51 93bd 3cc2 153d bd2d adbb 654e f1bc
000002f0: d1fc 83bd c6f6 49bd c932 b3bd cf2e a23d
00000300: acdd 4fbc 047f fc3b eb0d 623d 20ac 333d
00000310: 9893 cdbc 9012 0bbc b4af 163d 0d8e 653b
00000320: 0c73 9f3d a179 143d 7fb6 903d bebf 8abc
00000330: 4d79 9ebd 46aa dcbc 621b 4dbd 50ce 6fbd
00000340: 092d 35bc 396c 54bc e741 c8bc e34c 9f3d
00000350: b776 8dbc 9ebf 76bb b622 983c c562 973d
00000360: 658f 53bd 6190 3a3c f534 37bd c688 54bd
00000370: 0fc2 8f3c a6ad 5dbc 4b58 8d3d 1406 803d
00000380: 7e2b 64bd 4f45 8cbd b269 5cbd 2005 203c
00000390: 77da 65bd a6bc a9bd 0516 dd3c 723b c9bc
000003a0: 8a70 afbd d231 083d 26aa a43c 772a 8b3d
000003b0: c534 11bd 8685 d03b 507c 8c3d 87b2 34bd
000003c0: b371 46bd 1682 78bd 01a5 9f3c aa6a 0fbd
000003d0: 42c3 ee3c df59 6d3d 5ffb 643c df62 16bd
000003e0: c959 6fbd 5bee 9dbd 48ef 52bd 9258 103d
000003f0: 395c f63c 508b 94bd 944f a5bd c71e e03c

layer3.bias f4 [4]
-0.053595893 0.08092886 -0.08813761 -0.047240727
00000000: 5e87 5bbd 08be a53d 7e81 b4bd 7e7f 41bd

layer1.weight f4 [128, 16]
0.14569017 0.08542535 -0.02657181 0.07719728 -0.059271574 0.043038428 0.052199334 -0.19023994
-0.119403094 -0.18969673 -0.15589252 0.17567793 -0.08422649 0.07318616 -0.18039915 -0.22232383
0.18992683 -0.114233226 -0.13589326 0.09916979 -0.07197794 0.16464746 -0.0034106076 -0.17056584
0.012734532 0.17348883 0.1660552 0.2359587 -0.027016938 0.15473369 0.06415346 0.12939459
-0.053369343 -0.03080216 0.14632437 0.14974198 0.10327527 0.24669123 0.24614316 0.17154711
0.13190302 -0.0390099 0.009039491 0.066848576 0.12846261 -0.1034064 -0.12902546 -0.027772456
-0.19251531 0.06333992 -0.21226448 -0.15867996 -0.017792493 0.15570629 0.113689154 -0.04027334
-0.16642281 0.087560326 0.13614425 0.14103273 0.18717074 0.18966022 0.007761866 -0.09114385
-0.055864334 0.21880928 0.23710644 -0.10634938 0.18506753 -0.0019478798 -0.037064433 -0.15509635
0.00430128 0.24140155 0.042669922 0.19290343 0.23608392 0.022001505 -0.05583766 0.119359165
0.0041948855 -0.15788803 0.12521407 0.016504616 -0.08356425 0.07363203 0.044201553 -0.09733996
-0.013943553 -0.12372875 -0.107056946 -0.118091285 0.15508878 0.07752311 0.15541777 -0.1602903
0.17948332 -0.12530962 0.021752954 -0.11436319 0.10653797 -0.09241471 0.03717354 -0.2180892
-0.19701844 0.16268182 0.12342164 0.24413037 0.16971734 0.02532342 0.16496786 -0.08121133
0.1353217 0.19644108 0.057202607 -0.010535657 0.22090644 0.023182899 0.117663205 -0.042470396
-0.12259075 0.16504636 -0.14517513 0.033833593 0.11446062 0.22234303 -0.15584621 0.21764511
-0.20723519 -0.110405535 0.031270415 0.2237064 -0.19104406 0.24593526 -0.20281085 0.15495059
-0.15206262 -0.13387296 0.20915651 0.104340315 0.0018596351 -0.045122355 -0.1312553 -0.07989955
0.19794595 -0.15537974 -0.1424236 -0.029349655 -0.1602892 -0.15338 0.00996232 0.11666483
0.1864518 0.2276901 0.2343477 0.23908442 -0.14140311 -0.17111278 -0.018924206 -0.20654744
0.16554171 0.2179178 0.17495316 -0.16159892 -0.14627814 0.0050652325 0.18908837 0.03299263
-0.18143156 -0.06370291 -0.039660633 0.1234715 -0.114439934 -0.11785674 0.09380165 0.21828339
0.15031707 0.015223861 -0.06830108 -0.20716852 -0.22035646 -0.008234292 -0.08496612 0.19350085
-0.09341544 -0.16418698 0.0013681352 0.0154669285 0.048318624 -0.23759583 0.043726683 -0.18777919
0.1084013 -0.102044046 0.084195495 0.20164496 0.033302575 0.0890646 0.14444509 0.14485255
-0.07835239 0.17418364 0.20872733 -0.1465101 -0.05556956 0.06700009 -0.022239387 -0.24592224
0.13844442 -0.16851494 0.017779976 -0.085604966 -0.18018001 0.20949349 0.24438155 -0.0366562
0.11459732 -0.23045868 0.11936554 0.19083226 -0.12366423 0.06408191 0.04669085 0.17230397
0.13225281 -0.11014533 0.028819174 -0.0053842664 0.085217476 0.11086702 -0.03580585 0.040854543
0.07591665 0.17257988 0.11896762 0.18714184 0.0346663 0.03285238 -0.08482492 0.21324477
-0.1851874 -0.22079226 0.13141051 0.16523632 0.21161968 0.21596196 0.2377604 -0.13727209
-0.14277527 0.1511155 -0.014295191 0.2120319 -0.14498672 -0.18314281 0.027772397 -0.18903944
00000000: ce2f 153e 7cf3 ae3d 20ad d9bc 9c19 9e3d
00000010: c0c6 72bd 1049 303d f8ce 553d 42ce 42be
00000020: 9c89 f4bd dc3f 42be 4aa2 1fbe eae4 333e
00000030: f07e acbd a0e2 953d 8eba 38be dca8 63be
00000040: 2e7c 423e 1cf3 e9bd 9a27 0bbe 8819 cb3d
00000050: 2c69 93bd 5899 283e 8084 5fbb d0a8 2ebe
00000060: 80a4 503c 0ea7 313e 600a 2a3e 289f 713e
00000070: a052 ddbc 8272 1e3e e462 833d 0480 043e
00000080: d099 5abd d054 fcbc 0ed6 153e f655 193e
00000090: fc81 d33d a09c 7c3e f40c 7c3e 0caa 2f3e
000000a0: 9611 073e d8c8 1fbd 601a 143c e8e7 883d
000000b0: b48b 033e bcc6 d3bd 401f 04be 1083 e3bc
000000c0: bc22 45be 5cb8 813d dc5b 59be 007d 22be
000000d0: 90c1 91bc 7871 1f3e dcd5 e83d a8f5 24bd
000000e0: be6a 2abe d452 b33d 6669 0b3e e26a 103e
000000f0: b0a9 3f3e 4a36 423e 4057 fe3b a0a9 babd
00000100: 00d2 64bd 8a0f 603e 08cc 723e b4cd d9bd
00000110: 5882 3d3e 0050 ffba e0d0 17bd 94d1 1ebe
00000120: c0f1 8c3b f831 773e a8c6 2e3d 7a88 453e
00000130: fcbf 713e 803c b43c 08b6 64bd 9472 f43d
00000140: 4075 893b 66ad 21be 1e38 003e b034 873c
00000150: bc23 abbd 64cc 963d b00c 353d 2c5a c7bd
00000160: 8073 64bc 8065 fdbd ac40 dbbd d8d9 f1bd
00000170: 98cf 1e3e 70c4 9e3d d625 1f3e 2423 24be
00000180: 7aca 373e 2a51 00be 4033 b23c 4037 eabd
00000190: 9430 da3d ec43 bdbd 4843 183d c652 5fbe
000001a0: 34bf 49be 1096 263e 7cc4 fc3d 50fd 793e
000001b0: 62ca 2d3e 1073 cf3c 56ed 283e 2052 a6bd
000001c0: c691 0a3e da27 493e 484d 6a3d c09d 2cbc
000001d0: 4c35 623e 10ea bd3c 68f9 f03d 70f5 2dbd
000001e0: dc10 fbbd ea01 293e caa8 14be 1895 0a3d
000001f0: 546a ea3d e4ad 633e 2696 1fbe 5cde 5e3e
00000200: 7635 54be 4c1c e2bd 6815 003d 4a13 653e
00000210: 0ea1 43be 74d6 7b3e a6ad 4fbe 5eab 1e3e
00000220: 4eb6 1bbe fe15 09be 202d 563e 60b0 d53d
00000230: 00bf f33a 38d2 38bd ca67 06be 60a2 a3bd
00000240: 58b2 4a3e de1b 1fbe 7ed7 11be b06e f0bc
00000250: da22 24be a60f 1dbe 0039 233c f8ed ee3d
00000260: 38ed 3e3e 9827 693e d8f8 6f3e 8cd2 743e
00000270: facb 10be 3038 2fbe f006 9bbc 2c81 53be
00000280: c483 293e d825 5f3e ec26 333e 307a 25be
00000290: f0c9 15be 40fa a53b 62a0 413e 4823 073d
000002a0: 32c9 39be ac76 82bd 3073 22bd a0de fc3d
000002b0: 7c5f eabd e05e f1bd 141b c03d ae85 5f3e
000002c0: b8ec 193e 806d 793c 70e1 8bbd fc23 54be
000002d0: 20a5 61be 20e9 06bc b802 aebd 1625 463e
000002e0: 9850 bfbd a220 28be 0053 b33a 0069 7d3c
000002f0: c0e9 453d 524c 73be c01a 333d 3049 40be
00000300: 8001 de3d 78fc d0bd b06e ac3d 047c 4e3e
00000310: 4868 083d 8067 b63d 6ae9 133e 3a54 143e
00000320: 3877 a0bd 325d 323e 9ebc 553e be06 16be
00000330: e89c 63bd 5837 893d 602f b6bc 0ad3 7bbe
00000340: 60c4 0d3e 2e8f 2cbe 50a7 913c a851 afbd
00000350: 1c81 38be 7685 563e 283f 7a3e d024 16bd
00000360: 00b2 ea3d 5cfd 6bbe ec75 f43d 8869 433e
00000370: ac43 fdbd 603d 833d e83e 3f3d 7470 303e
00000380: 486d 073e e093 e1bd 3016 ec3c 806e b0bb
00000390: 8086 ae3d 400e e33d 28a9 12bd 1857 273d
000003a0: 307a 9b3d c8b8 303e 4ca5 f33d 1ca2 3f3e
000003b0: 40fe 0d3d 3890 063d b0b8 adbd d65c 5a3e
000003c0: c4a1 3dbe 5e17 62be 7a90 063e b633 293e
000003d0: d4b2 583e 2225 5d3e 7677 733e 0e91 0cbe
000003e0: ae33 12be 06be 1a3e 6036 6abc e41e 593e
000003f0: 6677 14be ca89 3bbe f082 e33c 8e93 41be

layer1.bias f4 [128]
0.18891138 -0.13633686 -0.22711065 -0.11498308 0.23600906 -0.05641228 -0.11498958 0.06467506
-0.22295457 -0.05027324 0.10641229 0.22465807 0.24846104 -0.13913536 0.03121692 -0.24539885
0.052586615 -0.2443946 -0.12854978 -0.07303733 0.09526062 -0.21796194 -0.1824699 0.0051468313
0.17355597 0.026924938 0.14619961 -0.24037966 -0.008367956 -0.15554377 0.09002599 -0.050863743
-0.03338766 0.17206186 -0.16572627 -0.16606894 -0.22409698 -0.076372355 0.24634176 -0.18094337
0.040128738 -0.18758538 -0.17323768 -0.0002990365 -0.187251 0.020560205 -0.108412474 -0.11902198
-0.02198425 -0.21779963 0.14617613 -0.1595572 0.12871185 -0.015598476 -0.07214752 -0.12211916
-0.03477049 -0.10483828 -0.15745673 0.21512884 -0.118254125 -0.15797243 -0.19576263 -0.076901555
0.129956 0.028614253 0.15606141 0.08993697 0.0051029027 0.19124109 -0.030479431 0.16756305
-0.19772261 0.15506196 -0.026118636 0.015576243 -0.041250706 0.087733686 0.15768361 -0.22644097
-0.1888628 -0.12940615 0.0925464 0.16149679 -0.010705411 -0.10171005 0.06727469 -0.13078043
-0.06347728 0.046616614 -0.026786 0.14353693 0.1451684 -0.023724139 0.09801334 -0.12007424
-0.2223101 -0.1481399 0.18446061 0.21607408 -0.046292633 0.21572855 0.11776936 -0.018575191
-0.23783934 -0.22454378 0.23553887 0.14964315 -0.20536205 0.23622078 0.14459613 -0.20270556
0.12990949 0.10533488 -0.11463323 -0.07028517 -0.18527174 -0.19420415 0.114857584 -0.13446969
-0.13438296 0.1227147 -0.036753505 0.1405541 0.22554749 0.074412405 0.11681381 0.05287665
00000000: fc71 413e e49b 0bbe b28f 68be 407c ebbd
00000010: 5cac 713e 9010 67bd a87f ebbd 5c74 843d
00000020: 344e 64be 50eb 4dbd b0ee d93d c40c 663e
00000030: 926c 7e3e 8079 0ebe a0ba ff3c d649 7bbe
00000040: 1065 573d 9442 7abe 8ea2 03be 9894 95bd
00000050: 0018 c33d 6a31 5fbe 64d9 3abe c0a6 a83b
00000060: a8b8 313e b091 dc3c 5ab5 153e 1626 76be
00000070: c019 09bc de46 1fbe 8c5f b83d 8056 50bd
00000080: 80c1 08bd fc30 303e 26b4 29be fa0d 2abe
00000090: ae79 65be 1c69 9cbd 0441 7c3e 3849 39be
000000a0: 085e 243d 6216 40be 3865 31be 00c8 9cb9
000000b0: babe 3fbe e06d a83c 5c07 debd ccc1 f3bd
000000c0: 5018 b4bc de06 5fbe 32af 153e f662 23be
000000d0: 0acd 033e c090 7fbc 14c2 93bd 9c19 fabd
000000e0: 806b 0ebd 74b5 d6bd 563c 21be bc4a 5c3e
000000f0: 382f f2bd 86c3 21be 0076 48be 907e 9dbd
00000100: 3013 053e 7068 ea3c 90ce 1f3e e030 b83d
00000110: 4036 a73b b4d4 433e 00b0 f9bc a695 2b3e
00000120: cc77 4abe 90c8 1e3e c0f6 d5bc 8033 7f3c
00000130: 80f6 28bd b8ad b33d d077 213e 24e0 67be
00000140: 4065 41be 0c83 04be f888 bd3d 6a5f 253e
00000150: c065 2fbc 5c4d d0bd 50c7 893d 4eeb 05be
00000160: 6000 82bd 10f1 3e3d 506e dbbc 58fb 123e
00000170: 06a7 143e 2059 c2bc 38bb c83d 7ce9 f5bd
00000180: 42a5 63be fcb1 17be 3ee3 3c3e 8642 5d3e
00000190: 589d 3dbd f2e7 5c3e 1031 f13d 002b 98bc
000001a0: 288c 73be ceee 65be 1a31 713e 0e3c 193e
000001b0: 6e4a 52be dce3 713e 0211 143e 0c92 4fbe
000001c0: fe06 053e d0b9 d73d d4c4 eabd acf1 8fbd
000001d0: e0b7 3dbe 74dd 46be 743a eb3d 6cb2 09be
000001e0: b09b 09be d851 fb3d d88a 16bd 6aed 0f3e
000001f0: ecf5 663e 8865 983d 143c ef3d 3095 583d

layer2.weight f4 [128, 128]
-0.024414815 -0.032299552 0.053365484 0.05946588 -0.018728267 0.024451852 -0.02400812 -0.0032170056
0.052076433 -0.07165318 0.07786373 0.016051743 0.08486429 -0.04465492 -0.0030359323 -0.07925072
-0.038489364 0.053922612 -0.040365543 -0.014438025 0.015233525 0.04067816 -0.063731335 0.07588337
0.07588522 -0.045278843 0.073008806 -0.020374555 -0.04199274 0.0007789264 0.026808567 0.0382816
-0.04552554 -0.06940116 0.074365176 -0.014564982 -0.047211602 -0.07349736 0.08374797 -0.045235127
-0.07909042 0.08087152 0.021732643 -0.00966169 0.022160664 0.00089184835 -0.041390616 -0.05939145
-0.014476768 -0.081016764 0.056845583 0.0062982985 0.082959 0.018230492 0.0478013 0.02508691
-0.08393964 0.030647438 -0.04886008 0.05837532 0.04993587 0.0127168 0.033092987 -0.046811208
-0.004545327 0.07814337 -0.018029388 0.0757876 -0.026781203 -0.045357723 -0.012579528 -0.015018871
-0.020125847 0.06892642 -0.022516036 0.07904746 0.059876595 -0.06465786 0.026067372 0.081043266
-0.031414215 -0.013929512 -0.07617324 -0.01546782 -0.06998789 0.07943988 -0.04343296 0.019944668
0.081148036 -0.0662996 -0.02483601 0.021063099 -0.024905922 -0.07549959 0.059383687 0.042131927
-0.07739553 0.03288494 0.004759043 0.026014572 -0.063673854 0.06640695 -0.058823355 0.02551584
0.007896591 -0.08199533 -0.04082094 -0.0070563094 0.07839571 0.014374246 0.0039455984 -0.06827171
0.0047186557 -0.025179243 -0.073968664 0.0064150454 -0.020334095 -0.086159326 0.06156643 -0.00959787
0.05126019 -0.0030595767 0.035150427 0.02974263 0.017999412 -0.031192102 0.0040314198 -0.086375706
0.02522021 -0.081888005 -0.057302233 -0.06100361 -0.038217444 0.0036316358 -0.08645366 -0.05398456
0.059380125 -0.02924122 -0.0080659585 -0.085778594 -0.009443444 0.033731535 0.06262715 0.03580226
0.049466174 0.083907716 -0.0009029541 -0.025634428 -0.004953951 0.054660868 0.011680977 0.019715263
-0.037500493 -0.009648541 -0.0637492 -0.05362174 0.007458949 -0.044678345 0.023480926 0.07929154
-0.03386285 0.033140518 -0.052403305 0.008816962 0.018271165 -0.03809664 -0.07424036 -0.027801715
0.043479487 -0.043679044 -0.043510772 0.060193274 -0.0037339895 0.038391005 -0.06757986 -0.03929984
0.084708706 -0.0017621702 -0.033233 -0.06630786 0.072389 -0.07333635 0.01918456 0.011874769
-0.00021563382 0.027985075 0.0646394 -0.007679883 -0.041864052 -0.050002914 0.06136695 -0.030001065
-0.079189904 0.008343327 0.056571376 -0.051727436 -0.011801423 0.034379195 -0.015679564 0.054673556
0.06968935 0.05542221 0.084077016 0.059726793 -0.049622793 0.022608865 0.058524545 0.048889365
0.0017786813 0.04954165 -0.071014985 0.060730733 0.018549459 0.037881143 -0.07667828 0.0147974
0.008649892 -0.01696694 -0.014251019 0.0663174 0.025168443 0.022714138 0.04915124 0.08823887
0.059042506 -0.024937974 0.030896105 0.072374105 -0.054812945 0.04071595 -0.012613551 -0.00013548104
0.027826846 -0.020190468 -0.019454384 0.06821737 -0.04155067 -0.04696147 -0.026623057 0.04345748
0.083826095 -0.07952335 -0.05962661 -0.0040086815 -0.019265398 -0.06290227 -0.018169917 -0.033579867
-0.037757043 -0.059787694 -0.009751822 -0.02165681 0.06874634 0.0137603665 -0.017834343 -0.030085253
00000000: 9401 c8bc 894c 04bd c495 5a3d 7f92 733d
00000010: 066c 99bc 404f c83c adac c4bc 66d4 52bb
00000020: 194e 553d e7be 92bd 0577 9f3d f27e 833c
00000030: 54cd ad3d 14e8 36bd 7ef6 46bb 344e a2bd
00000040: 06a7 1dbd f5dd 5c3d 5756 25bd 778d 6cbc
00000050: 0996 793c 249e 263d 9385 82bd be68 9b3d
00000060: b669 9b3d 4f76 39bd a485 953d 8ae8 a6bc
00000070: 9400 2cbd de30 4c3a a49d db3c 2bcd 1c3d
00000080: fd78 3abd 3222 8ebd c54c 983d f6a1 6ebc
00000090: f460 41bd c985 96bd 0e84 ab3d 7848 39bd
000000a0: 28fa a1bd f89f a53d a808 b23c 114c 1ebc
000000b0: 488a b53c eeca 693a 3589 29bd 7344 73bd
000000c0: f72f 6dbc 1eec a5bd ead6 683d f561 ce3b
000000d0: 68e6 a93d 1d58 953c 4ccb 433d 1083 cd3c
000000e0: 8ce8 abbd 5610 fb3c 8221 48bd f61a 6f3d
000000f0: 8e89 4c3d 205a 503c 838c 073d 1cbd 3fbd
00000100: f7f0 94bb a209 a03d 5eb2 93bc 8736 9b3d
00000110: 4164 dbbc 05c9 39bd 5d1a 4ebc b611 76bc
00000120: f6de a4bc 4b29 8d3d 8d73 b8bc a2e3 a13d
00000130: 2941 753d 576b 84bd 3e8b d53c 03fa a53d
00000140: 31ac 00bd 9c38 64bc b700 9cbd bd6c 7dbc
00000150: d055 8fbd 60b1 a23d c2e6 31bd 0063 a33c
00000160: f130 a63d 16c8 87bd e374 cbbc 858c ac3c
00000170: 8107 ccbc 879f 9abd 4f3c 733d 8792 2c3d
00000180: 8c81 9ebd 5cb2 063d bff1 9b3b 831c d53c
00000190: 7067 82bd 5e00 883d c2f0 70bd 9806 d13c
000001a0: b460 013c 2bed a7bd dc33 27bd 9d38 e7bb
000001b0: ee8d a03d f581 6b3c 144a 813b 0ad2 8bbd
000001c0: f49e 9a3b b344 cebc e27c 97bd 4d35 d23b
000001d0: b093 a6bc 4d74 b0bd 152d 7c3d 6240 1dbc
000001e0: 34f6 513d 2e83 48bb e5f9 0f3d d1a6 f33c
000001f0: 8173 933c 9486 ffbc 001a 843b bfe5 b0bd
00000200: 9d9a ce3c e6b4 a7bd bfb5 6abd ecde 79bd
00000210: e589 1cbd bd00 6e3b 9e0e b1bd ea1e 5dbd
00000220: 9338 733d 488b efbc 1527 04bc b0ac afbd
00000230: adb8 1abc 142a 0a3d aa42 803d 64a5 123d
00000240: 0b9d 4a3d cfd7 ab3d 39b4 6cba 4bff d1bc
00000250: c154 a2bb 13e4 5f3d 9261 3f3c e781 a13c
00000260: 1e9a 19bd ea14 1ebc f18e 82bd 78a2 5bbd
00000270: 336a f43b a400 37bd 125b c03c 9a63 a23d
00000280: c6b3 0abd 5abe 073d d9a4 56bd 0575 103c
00000290: 69ad 953c 390b 1cbd 540b 98bd 6cc0 e3bc
000002a0: 8c17 323d cce8 32bd 5a38 32bd 398d 763d
000002b0: f3b5 74bb e33f 1d3d 4f67 8abd def8 20bd
000002c0: c27b ad3d 9ff8 e6ba 541f 08bd 6acc 87bd
000002d0: af40 943d 5e31 96bd f028 9d3c 648e 423c
000002e0: c31b 62b9 f540 e53c a961 843d 87a7 fbbb
000002f0: a479 2bbd dbcf 4cbd e95b 7b3d cbc4 f5bc
00000300: 512e a2bd 73b2 083c 63b7 673d 26e0 53bd
00000310: c15a 41bc 33d1 0c3d 6e72 80bc 61f1 5f3d
00000320: 4ab9 8e3d 6602 633d 9230 ac3d 15a4 743d
00000330: 4541 4bbd 3a36 b93c 6fb7 6f3d 3740 483d
00000340: a422 e93a 2fec 4a3d 4e70 91bd cac0 783d
00000350: 09f5 973c 4229 1b3d 8109 9dbd cb70 723c
00000360: 47b8 0d3c 41fe 8abc 1b7d 69bc 6bd1 873d
00000370: 0d2e ce3c 0013 ba3c d052 493d 95b6 b43d
00000380: 8ed6 713d b94a ccbc d419 fd3c e038 943d
00000390: 8a83 60bd c5c5 263d 11a9 4ebc ea0f 0eb9
000003a0: 20f5 e33c 7b66 a5bc cd5e 9fbc 8cb5 8b3d
000003b0: 0931 2abd ac5a 40bd 9918 dabc 7800 323d
000003c0: 04ad ab3d 23dd a2bd 083b 74bd 425b 83bb
000003d0: 78d2 9dbc e8d2 80bd 14d9 94bc 0b8b 09bd
000003e0: 21a7 1abd f1e3 74bd 1bc6 1fbc 9f69 b1bc
000003f0: e2ca 8c3d 2973 613c 5419 92bc 5975 f6bc

layer2.bias f4 [128]
-0.07450995 -0.004813507 0.08338065 -0.058246765 0.0023560089 -0.022976913 -0.05265781 -0.069405556
-0.036497474 -0.08510844 -0.014294272 -0.06440385 -3.5171546e-05 -0.06789157 -0.019552955 -0.06686212
-0.0419023 -0.04966928 -0.08346973 -0.030826457 0.0030934522 -0.04097623 -0.06431923 -0.042358436
0.0049870573 0.080970645 0.06766643 -0.00087546377 0.077083774 0.0035720824 -0.07005362 0.03691044
0.07648746 0.0045366446 0.031117039 -0.032056376 0.0745856 0.081796154 0.077062055 -0.011487155
0.046545323 -0.042367425 0.026109645 -0.039154842 0.058608394 -0.07165178 0.0010395625 -0.0842875
-0.08327261 -0.06738992 0.012851469 -0.08762364 -0.060676876 -0.072854586 0.037026457 -0.071948454
0.04447344 -0.001176287 0.006448689 0.03894475 0.044684615 0.0015073293 0.07434195 -0.015148694
0.06425407 -0.023644866 0.044863097 -0.06855591 -0.062947705 0.041366406 -0.009529076 0.02436306
-0.03686295 -0.05772211 0.07797075 -0.017352216 -0.08164594 -0.03524592 -0.07020853 0.01468707
0.023092395 -0.053128608 -0.064431906 -0.08538123 0.07054225 0.03804106 0.019675033 0.031656012
-0.043923568 -0.0111707905 0.015321823 0.015234884 0.023705969 0.025076753 0.082765155 0.016344253
-0.042583216 -0.0823836 0.051399745 0.08789595 -0.067424305 0.04708243 0.036364913 -0.06819892
0.057817288 0.017798161 -0.015184888 0.06860641 0.03709187 0.07086305 0.029422471 -0.076301716
-0.085412234 0.027846359 -0.0037451794 0.075781874 -0.038698215 0.001740001 0.05400971 -0.05953942
-0.059964545 -0.054598555 -0.035319205 -0.04764055 0.05868921 -0.00030094956 0.020353207 -0.013966391
00000000: ac98 98bd a0ba 9dbb 79c3 aa3d 2994 6ebd
00000010: 4567 1a3b 143a bcbc b7af 57bd 8024 8ebd
00000020: 607e 15bd 554d aebd 8632 6abc 2ae6 83bd
00000030: 2985 13b8 bc0a 8bbd 852d a0bc 02ef 88bd
00000040: bfa1 2bbd 0472 4bbd 2ef2 aabd c487 fcbc
00000050: 84bb 4a3b b1d6 27bd cdb9 83bd 0a80 2dbd
00000060: 786a a33b f0d3 a53d b294 8a3d 617f 65ba
00000070: 19de 9d3d 9919 6a3b 4678 8fbd 672f 173d
00000080: 75a5 9c3d 22a8 943b 29e9 fe3c 8c4d 03bd
00000090: 56c0 983d be84 a73d b6d2 9d3d 9f34 3cbc
000000a0: 4fa6 3e3d 7789 2dbd e5e3 d53c d460 20bd
000000b0: 5b0f 703d 2bbe 92bd ee41 883a ed9e acbd
000000c0: d58a aabd ba03 8abd f88e 523c 0674 b3bd
000000d0: 5188 78bd c934 95bd 0ea9 173d b659 93bd
000000e0: c829 363d a42d 9aba 864f d33b 8884 1f3d
000000f0: 3707 373d 9491 c53a 9840 983d 3a32 78bc
00000100: a397 833d e1b2 c1bc 5ec2 373d 0a67 8cbd
00000110: baea 80bd d26f 293d d71f 1cbc 0a95 c73c
00000120: 9bfd 16bd 056e 6cbd 21af 9f3d 3c26 8ebc
00000130: fd35 a7bd 075e 10bd 7dc9 8fbd 09a2 703c
00000140: 432c bd3c 629d 59bd e0f4 83bd 5bdc aebd
00000150: 7578 903d f1d0 1b3d 892d a13c bca9 013d
00000160: 33e9 33bd b105 37bc 6208 7b3c bc9b 793c
00000170: 0533 c23c c36d cd3c c780 a93d 62e4 853c
00000180: bd6b 2ebd bcb8 a8bd 8a88 523d cb02 b43d
00000190: c115 8abd 82d9 403d 60f3 143d e0ab 8bbd
000001a0: d2d1 6c3d 73cd 913c 09ca 78bc 8481 8c3d
000001b0: a5ed 173d a620 913d 6507 f13c 1344 9cbd
000001c0: 9cec aebd 0c1e e43c af71 75bb 8733 9b3d
000001d0: 0582 1ebd bf10 e43a 4939 5d3d 9bdf 73bd
000001e0: 629d 75bd bca2 5fbd dfaa 10bd bd22 43bd
000001f0: 1964 703d c4c8 9db9 c5bb a63c 4ad3 64bc
