custom_maze/static/custom_maze/run/jknjkjk/trained_model.pth (torch, 146066 bytes, 12 tensors)

layer1.weight f4 [128, 4]
00000000: 482b e23d 9488 c3be 4cc6 dc3e 2cd8 28be
00000010: c0af 553e 9ade 94be 803e e43b 78bb b83d
00000020: c49f 663e f4e0 4c3e c6be dabe 904e 683d
00000030: 465c e4be 384d 8bbd d007 d83e 805b 2cbe
00000040: 1a26 efbe d266 96be a08c a73e 9a90 93be
00000050: 4acf e53e e45d cebe 70e5 fcbe 90bb 99be
00000060: 3a69 b63e b80e a73d 549d f53e 1486 eb3e
00000070: d850 b2bd 48b4 823e 3a66 dbbe b0e1 a0be
00000080: 2c9d f8be e85b b63e c09f 68bd 041b 0d3e
00000090: 8024 873c 1e19 b9be b4ef 903e 107f 183d
000000a0: d0ec efbe a4cc 74be 42c0 f2be 10e7 f5be
000000b0: fa52 a33e 60b6 de3d 2a11 933e 449e d33e
000000c0: 80c3 d13e b0f1 55be 96e5 883e 0094 87be
000000d0: cc91 c53e 04cd a6be 007a 9d3c 4677 d73e
000000e0: 0068 d339 44aa f5be e868 c63e ca4c ba3e
000000f0: eedc a9be 6c74 e8be 2cd2 7ebe f8d0 943e
00000100: 3e0a fc3e c0fb 133d 7e8e 8f3e 6892 e2bd
00000110: d822 b83d 7208 b6be 54da 78be 444e d13e
00000120: 3cfe 433e a0e6 213d 6ca3 2dbe 4cdf dd3e
00000130: 2094 3cbd 48f6 bfbe 9abd e03e 86f0 dfbe
00000140: d859 a53d 5826 cfbe 76ee f4be 80ae 283d
00000150: 8028 4abe fc88 a53e fc8a 8abe b63d ad3e
00000160: f86d 82bd 40c1 ecbd 9ad1 be3e b8b9 3ebe
00000170: 40f3 c23c 6294 94be 58ec b83d 589f a4be
00000180: 38d1 cc3e f0e6 08be d46b 963e 1a52 cfbe
00000190: 38ba 00be 940c 4abe 7aad bb3e 4803 91be
000001a0: 3858 97be a894 b93d 1add b83e 163e e1be
000001b0: 7e9c d33e 3ed4 f23e de55 9d3e a0e6 073d
000001c0: 3cb4 d4be e0fa 073d 4830 8d3d f83a c2be
000001d0: a2d8 893e 7c28 c1be 8076 4a3e 72dc c73e
000001e0: 182c a03e 2e4e e2be 12ee ed3e 3882 3cbe
000001f0: f0ce 89be 8050 20bc f2b7 b2be 607a b53d
00000200: 428e e0be ecf7 b0be 3076 15be 7638 f8be
00000210: aa11 953e 7034 abbe 14a5 323e b496 a13e
00000220: d00a 7fbd c0ab ac3c 6813 9cbe 4822 e9bd
00000230: 4e23 81be 06d6 edbe 128b fcbe 5ee3 9bbe
00000240: d4b9 28be 0488 b43e 06f2 9abe 225e e33e
00000250: 5cf5 25be 866d f93e 76ac c53e 7a15 a83e
00000260: b4e8 bc3e 941f 3d3e fea7 80be 024e 9b3e
00000270: 8040 633d b0ed f63e 1a3d a03e 94f4 e33e
00000280: 40b0 b7bc ecca 833e ae50 b03e c8f6 b0bd
00000290: 1889 a23d 7295 d0be ae26 c6be e453 323e
000002a0: e667 8cbe 8478 bf3e 82a8 d93e c801 54be
000002b0: e0e2 a23c 8cbf 563e 7064 dbbe 66fb debe
000002c0: de6b cbbe 1855 89be 6865 3bbe 0454 70be
000002d0: 3a86 ba3e c468 0cbe 18a6 85bd d8db a43d
000002e0: 60d6 37bd 88cd a5be b0f4 c53e 6213 d83e
000002f0: c07a 19bd 760a c63e de44 cebe 208d 71bd
00000300: 284a 5cbe faac a7be 3007 f0be 9828 67be
00000310: 5ea9 8d3e c0ce a33d e04f d2be d6e6 803e
00000320: c030 b23c 7a89 bfbe 1897 30be b8ec eebd
00000330: e4ef 933e 001f 4bbc e2ea 9c3e 3098 6bbd
00000340: 90b1 16bd 409c 2e3d 1251 85be 3220 983e
00000350: 20b5 093e f005 60bd d264 e63e c030 85bd
00000360: 3c9b 07be 2cf1 863e 28db 76be 82fb e2be
00000370: c69f a7be 2004 f3bd 9002 eabd c0f8 79be
00000380: 0052 a1ba 0083 4f3d 28b1 d43d fcc6 1c3e
00000390: 3825 bdbd 8c03 583e ee91 fbbe b4bb 8bbe
000003a0: 6029 74bd 986c 51be 10c5 8d3d ac71 83be
000003b0: dac8 bd3e 3ca5 9f3e dc7d 16be 78bd ec3d
000003c0: 4849 003e 60f7 13bd 60d5 7ebe b20b e23e
000003d0: b0b1 2bbd b00f c03d dc87 79be e097 1f3e
000003e0: d4a7 453e b226 9dbe 10a9 c33d c871 783e
000003f0: 4892 98bd 02a1 abbe 1cb3 debe 4675 823e
0.110434115 -0.38190138 0.43120039 -0.16488713 0.20867825 -0.29076082 0.0069654584 0.09020132
0.22521883 0.20007688 -0.42723674 0.056715548 -0.4460165 -0.06801838 0.4219346 -0.1683178
-0.46708757 -0.2937532 0.32724476 -0.2882126 0.44884712 -0.40306008 -0.49393797 -0.3002591
0.35627156 0.08157104 0.47971594 0.4600073 -0.08706826 0.2552817 -0.4285143 -0.31422186
-0.48557413 0.35616994 -0.056792974 0.13779837 0.016496897 -0.36151975 0.2830788 0.03723055
-0.4686036 -0.23906189 -0.47412306 -0.4802785 0.31899244 0.10874629 0.28724033 0.41331685
0.40969467 -0.20892978 0.2673766 -0.26480103 0.38587797 -0.3257829 0.019223213 0.42083186
0.00040322542 -0.47981465 0.38751912 0.3638671 -0.33176368 -0.45401323 -0.24884862 0.2906568
0.49226564 0.03612876 0.280384 -0.11063081 0.08991021 -0.35553318 -0.24302036 0.40880024
0.19139951 0.03952658 -0.16956872 0.43334424 -0.0460397 -0.37492585 0.43894655 -0.43738192
0.08073777 -0.4045894 -0.4783818 0.04118204 -0.19742012 0.32331073 -0.27059162 0.33836144
-0.06368631 -0.11560297 0.37269288 -0.18625534 0.023797631 -0.29019457 0.09029454 -0.3215282
0.4000337 -0.13369346 0.2937914 -0.40492326 -0.12571037 -0.1973136 0.3665579 -0.28322816
-0.29559493 0.09061557 0.36106187 -0.4399268 0.41330332 0.47427553 0.30729574 0.033178926
-0.41543758 0.033198237 0.068939745 -0.37935615 0.2692309 -0.377262 0.19771767 0.39035374
0.3128364 -0.4420027 0.46470696 -0.1840905 -0.26915693 -0.009784818 -0.34905964 0.08861232
-0.43858534 -0.3456415 -0.14595866 -0.48480576 0.2911504 -0.33438444 0.17445785 0.3156029
-0.06226617 0.02107799 -0.30483556 -0.11383492 -0.25222248 -0.4645235 -0.49324852 -0.30446905
-0.16477138 0.35260022 -0.30262774 0.44407755 -0.16206878 0.48716372 0.3860814 0.32828885
0.36896288 0.18469077 -0.25128168 0.30332953 0.055481434 0.48228216 0.31296617 0.44522536
-0.02242291 0.25740755 0.34436554 -0.0864082 0.07936305 -0.40739018 -0.38701385 0.17414814
-0.27423018 0.37396634 0.42511374 -0.20703804 0.019883573 0.20971507 -0.42850065 -0.43551177
-0.39730734 -0.26822734 -0.18300402 -0.2346955 0.36430532 -0.1371184 -0.065258205 0.08049744
-0.04488218 -0.3238337 0.38663244 0.42202288 -0.03747058 0.38679856 -0.40286916 -0.058972478
-0.21512663 -0.32749158 -0.46880484 -0.22574079 0.2766828 0.07998419 -0.41076565 0.25176114
0.021751761 -0.37409574 -0.17245138 -0.11666244 0.2889396 -0.012397528 0.3064795 -0.057518184
-0.03679043 0.04262948 -0.26038414 0.29712063 0.13448 -0.054693162 0.44998795 -0.06503439
-0.13242811 0.26355875 -0.24107039 -0.4433251 -0.32739085 -0.11866021 -0.1142627 -0.24411297
-0.0012307763 0.05066204 0.103853524 0.15310282 -0.092356145 0.21095103 -0.49134773 -0.27291644
-0.05960977 -0.20451581 0.06922352 -0.25672662 0.370673 0.3118075 -0.14696449 0.11559576
0.12527955 -0.036124587 -0.24886084 0.44149548 -0.041917503 0.09377992 -0.24368232 0.1558528
0.19302303 -0.30693585 0.095537305 0.24262154 -0.07449776 -0.33521277 -0.43496025 0.25480098

layer1.bias f4 [128]
00000000: 7028 e5be 42f7 da3e 006e cb3c 5443 18be
00000010: e869 ae3e ee31 aa3e 8446 9e3e a0ae f53d
00000020: f019 dcbe 2090 20bd b477 40be 10e9 f1bd
00000030: d80a 8abe 08b1 703e d01e 793e 80f8 34bc
00000040: 2446 2a3e 5ab2 a63e c008 d53d 6e58 bc3e
00000050: ea0d d6be a6c5 bd3e 6026 8b3c 022c b03e
00000060: 7222 db3e 48ab f23d 909e af3e f811 523e
00000070: 7484 703e 8aab f23e d28d c73e 38af 783e
00000080: e451 743e 9ee3 8c3e 3409 d6be 9884 d4be
00000090: 0040 16bc d470 c63e e0d4 a7bd 08c1 a13e
000000a0: e4a0 e13e 24d4 283e 709e 89be a6c3 bbbe
000000b0: 78f8 dc3d d634 efbe c23e f63e 300f 5b3d
000000c0: 0080 f3bb fefe aebe 1c18 b63e 8859 0b3e
000000d0: 48f7 de3e 602c a33c 806f e6be 5826 8f3d
000000e0: 6c2c 61be 0029 00bc 9cf5 053e d857 e0bd
000000f0: 30ab 18bd 5649 f93e 84f6 413e 744c 7d3e
00000100: dad2 b8be e072 193e 203b a4be 2e87 94be
00000110: 7c78 ab3e 1067 9abe f075 1abd 5010 e0bd
00000120: ba50 9e3e 26f2 9bbe 5052 40bd 58d7 943d
00000130: 42ca a83e 8072 ff3d 88b8 4f3e 10e4 eb3d
00000140: a00d 643d 306e d83d 3490 2a3e a029 66be
00000150: 88b1 7ebe 80f6 323c 3832 cb3e 1069 c5be
00000160: 7a7e babe c4cf 13be d47e aabe 0037 543d
00000170: 64b2 0e3e a0bb 09be ee44 b4be f49c b7be
00000180: 3ca2 ffbe f00b b43d 76d5 a5be 5434 41be
00000190: c869 e73e 88aa b6be bc6e 1a3e b680 9b3e
000001a0: 9e5a fdbe 74ca a7be 6831 92be 882b 92bd
000001b0: 36c7 f5be 38c4 aabd 9082 d6bd 7878 773e
000001c0: 1087 89be d8e6 d5be b014 dd3e 84ed c9be
000001d0: b051 89bd 88d2 b73d 1c5a a73e 2896 f03d
000001e0: c0fb c43d cc7a 26be 0e64 c03e 3c06 cfbe
000001f0: de85 983e d0ef 17be 48fe b93e a85f a8be
-0.44757414 0.42766768 0.024832726 -0.14869434 0.34065175 0.33241218 0.30913174 0.11996198
-0.4298854 -0.03919995 -0.18795663 -0.11812031 -0.26961398 0.23505032 0.2432816 -0.011045575
0.16628319 0.32557946 0.104020596 0.36786216 -0.4180749 0.37064856 0.016986072 0.34408575
0.42799717 0.118490756 0.3430066 0.20514667 0.23488027 0.473965 0.38975388 0.2428559
0.23859364 0.27517408 -0.41803896 -0.4150741 -0.009170532 0.38757956 -0.081948996 0.31592584
0.44068062 0.16487175 -0.2687869 -0.36672705 0.10789579 -0.46719998 0.48094755 0.05348128
-0.0074310303 -0.3417892 0.3556527 0.13608372 0.43548036 0.01991862 -0.45006943 0.06989735
-0.21989602 -0.007822275 0.13081974 -0.10954255 -0.037272632 0.48688763 0.18941694 0.24736196
-0.36098367 0.14985228 -0.3207636 -0.29009384 0.3349036 -0.30156755 -0.03771013 -0.10940611
0.30920964 -0.30458182 -0.0469535 0.07267636 0.3296681 0.12473011 0.20285237 0.11518109
0.055677056 0.105678916 0.16656572 -0.22476816 -0.2487241 0.010923028 0.3968675 -0.3855672
-0.3642462 -0.14434725 -0.33299887 0.051810265 0.13935238 -0.1345048 -0.3520884 -0.35861933
-0.49928463 0.087913394 -0.3238942 -0.18867618 0.45197892 -0.3567698 0.15081304 0.30371636
-0.49483198 -0.32771647 -0.2855332 -0.07137209 -0.48003548 -0.08338207 -0.104741216 0.24167049
-0.26860857 -0.41777682 0.43179846 -0.39439023 -0.06705034 0.089757025 0.32685935 0.1174739
0.0961833 -0.16257781 0.37576336 -0.40434444 0.29789633 -0.14837575 0.36326814 -0.3288548

layer2.weight f4 [128, 128]
00000000: 6b27 4f3c 0cb3 6fbd e9fd 43bd b71f 62bd
00000010: d74a 3abd 038a 34bd 9fba 4ebd 45fe 8fbc
00000020: 1263 98bd 8e19 72bd 9cf2 713d d79b 243d
00000030: 9c4f 853d 9a4f c0b8 9578 873d c548 acbc
00000040: c612 023d fcc3 3cbc 9fbe 113c 2595 eebb
00000050: 88be 2dbd 1e5b b4bd 25fd b4bd d8b2 783d
00000060: 4deb 203d 66e1 423d 2193 10bd 3e80 4c3d
00000070: bb1d b13d 9439 c73b 4e29 8b3d b9fd 8b3d
00000080: 9c9b 653d 047a 94bd d451 9d3d 0c9c 18bd
00000090: 5782 e53c 4d08 543c dda8 ad3c 8c29 45bd
000000a0: 0166 8dbd d728 213d 9f66 903d 3170 49bc
000000b0: f44a 35bc b0cf 893d b39a ae3d 3334 81bd
000000c0: 52d9 8cbc 919c 963d 87ab 6e3d 7eea 2f3d
000000d0: e582 bb3c 5fae 803d 2365 20bd 0b80 8d3d
000000e0: 7901 47bd e23e a4bd a442 03bc 69a3 97bd
000000f0: 6b5b 9b3d c0d0 fdba 6446 8a3d b19c 2a3d
00000100: d475 183d 7cf6 ae3d ddb1 c13a 4844 74ba
00000110: 30b2 9a3d 7b09 a43c a5af 29bd 677c 793d
00000120: 85aa 40bd 7afe f7bc e527 1e3d 2496 edba
00000130: 6028 c9bc 64f8 7d3c 9907 6cbc 78f9 e0bc
00000140: e5e9 073a 6ed6 93bc c2dc 01bd 13f5 95bd
00000150: b7e9 8b3d e351 ba3b c99e 213d 5f13 583b
00000160: 2951 33bd 165d 92bd 28f6 713c fe91 94bc
00000170: a5ed 24bd 5075 44bd bbd9 81bd f18a 533d
00000180: ab66 303a 695c 8c3d 38b9 903d 0061 9d3d
00000190: 972f 473d 0c73 9ebc cb11 e23c 0f63 fd3b
000001a0: 41c1 343d 68e1 6bbd 2597 0dbd 291b b43d
000001b0: 99fd 26bc 02f6 8fbd 4ea6 c53c 3835 9ebd
000001c0: 6660 1ebc b255 9bbc c275 e3bc ec88 aebd
000001d0: 3e60 7b3c 3eff 073d f189 a83d 4ddd 873d
000001e0: f442 22bd f938 013c 9fa4 073d a951 a8bd
000001f0: 78f5 b43d 2f7a 9ebd 1e55 263d 2843 0cbd
00000200: 26b1 143b e103 11bd e8db 793d a5cb 94bd
00000210: 8ca5 49bd 7b90 acbd 4b76 7f3d c35a 9e3c
00000220: 26bc 2ebd c94c 5bbd c920 e0bc 431f 94bc
00000230: 37a7 8e3c ec3f 493d ce5d 083d e6ae 3dbd
00000240: baf5 55bd c9ce e73c 284b 98bd 1169 773d
00000250: 0050 553d 5f9c 043c e6a2 9dbd f26d 193d
00000260: 64e4 9e3d 9d25 83bd 0fe8 cb3c 42a1 34bd
00000270: 285c 8a3d 2f4c 6bbd 7be1 67bc 0f34 ec3c
00000280: 6915 53bd 4532 863d d973 5c3d 5a76 093d
00000290: c15f 443b 3416 4f3d 1fda 76bd 14b1 94bd
000002a0: d770 8dbc 538b 9abd bd68 9e3d 7a26 cdbc
000002b0: 7176 8dbd 45a3 8c3c bfaa f4bc e1de 96bb
000002c0: 5c5b d93c fe79 9bbd 625c 823d 48c3 9ebd
000002d0: 8ff5 733d 3d0d 86bd 8865 a93d dd4d 733d
000002e0: 30bb 713d 10a1 683b 8158 863c e447 0dbd
000002f0: f9d1 273d 6662 a6bd 1c1e 3bbd e837 8c3d
00000300: 0d79 8a3d 088c 43bd 719e 45bd fe0c 393d
00000310: 87cf 003c abe4 a33d 68cc 55bd 025b 93bd
00000320: 09a5 81bd 17ae c8bc a75f 88bc c895 7f3d
00000330: 1bb8 acbd 504d 603d 43d3 1bbd fadb 91bd
00000340: 9d5c 863d 3099 b3bc 9556 38bd af32 21bd
00000350: ed76 9fbd 3af1 603d 4246 613c fe01 5ebd
00000360: c007 323d 1a23 eebc ac08 d53c 8945 123d
00000370: 4f8d f03c 6118 96bd c72f b33d 0d9f 03b9
00000380: 0efd 39bd 4a2b 26bd 4e7d 2ebd a330 f43c
00000390: d256 8c3d 5e61 57bd fb66 77bc 3c00 943d
000003a0: 75f6 163d 1658 12bd 83ff b2bd a4df 82bd
000003b0: a00f 9bbd 99bb 49bd 8e28 75bd 873c 7ebd
000003c0: adf3 26bd 8818 983d b934 203b 8853 19bd
000003d0: 39af d438 b1e3 85bd cf57 c7bc 1b20 8c3d
000003e0: ee63 843d 515a 7bbc d289 97bb e1d0 f53b
000003f0: 2ace 03bc 2ed9 61bd 3843 ae3d 4416 8b3d
0.012643675 -0.05852036 -0.04784957 -0.055206027 -0.04548153 -0.04407693 -0.050470944 -0.0175773
-0.07440771 -0.059106402 0.05906926 0.040187683 0.06509325 -9.1701004e-05 0.06614796 -0.021030793
0.031756185 -0.011521336 0.008895545 -0.007280963 -0.042418033 -0.08806442 -0.08837346 0.060717434
0.0392869 0.047578238 -0.035296563 0.04992699 0.08648249 0.006079862 0.067949876 0.06835503
0.056056604 -0.07249835 0.07681623 -0.037258193 0.028016252 0.012941432 0.021198684 -0.048135325
-0.06904221 0.03934559 0.070508234 -0.012294815 -0.0110652335 0.06729066 0.085256 -0.06308784
-0.01719347 0.073540814 0.05826905 0.04294824 0.022889564 0.06283259 -0.03915895 0.06909188
-0.04858539 -0.080198064 -0.008011494 -0.07404215 0.07585796 -0.001936458 0.06751707 0.04165334
0.037221745 0.08543107 0.0014777739 -0.0009318036 0.07553518 0.020024052 -0.041427273 0.060909655
-0.04703762 -0.030272711 0.038612265 -0.001812641 -0.024555385 0.0155011155 -0.014406108 -0.027462706
0.00051846943 -0.018046584 -0.03170467 -0.07322135 0.06831687 0.005686031 0.03945807 0.003297053
-0.043778572 -0.07146661 0.014768161 -0.01813602 -0.040265698 -0.04796344 -0.06340357 0.051646177
0.0006729166 0.06853563 0.07066578 0.07684517 0.04862937 -0.019341968 0.027596375 0.007732756
0.044129614 -0.05758801 -0.03456797 0.08794243 -0.010192298 -0.07029344 0.024127152 -0.077249944
-0.009666538 -0.018961761 -0.027766112 -0.085222095 0.01534277 0.033202402 0.08229435 0.06634007
-0.039614633 0.0078871185 0.03311598 -0.082187004 0.08835882 -0.077381484 0.040608518 -0.034243733
0.0022688597 -0.03540409 0.061000735 -0.072654046 -0.049230143 -0.08425995 0.062368672 0.019330388
-0.0426599 -0.053540025 -0.027359383 -0.018081313 0.017413719 0.049133226 0.033292584 -0.046309374
-0.052236296 0.028296845 -0.0743621 0.060402934 0.052078247 0.008093922 -0.07697086 0.037458368
0.07758406 -0.064036585 0.024890928 -0.0440991 0.06755859 -0.0574457 -0.01415288 0.028833417
-0.05153409 0.06552557 0.05382142 0.033560134 0.00299643 0.050558284 -0.06026661 -0.072603375
-0.01726572 -0.07546105 0.07734821 -0.025042761 -0.069073565 0.017167697 -0.029866574 -0.004604206
0.026532821 -0.075916275 0.06365277 -0.07752091 0.059560355 -0.06545494 0.08271319 0.059400428
0.059016407 0.0035496391 0.016399624 -0.03449239 0.04097173 -0.08124237 -0.04568301 0.06846601
0.0676137 -0.047740966 -0.048246805 0.045178406 0.007861978 0.08002599 -0.05219689 -0.07195093
-0.06330306 -0.024497075 -0.016647173 0.062398702 -0.08433553 0.05476123 -0.03804327 -0.07122035
0.06560633 -0.021923631 -0.045004446 -0.039354976 -0.07786355 0.05491755 0.013749661 -0.05420112
0.043464422 -0.029069472 0.026005112 0.035710845 0.029364256 -0.07328869 0.08749347 -0.00012552385
-0.045407347 -0.040568627 -0.04259997 0.029808348 0.06852497 -0.05258309 -0.015100236 0.07226607
0.036856133 -0.035728537 -0.08740141 -0.06390312 -0.075713396 -0.049251173 -0.05985313 -0.062069442
-0.04075973 0.07426554 0.0024445488 -0.037433177 0.000101415855 -0.06537569 -0.024333863 0.06842061
0.064643726 -0.015341357 -0.0046245838 0.007501707 -0.008044759 -0.05513876 0.08508915 0.06791356

layer2.bias f4 [128]
00000000: bbf9 80bb 0819 18bd 0e2e de3c 6b20 4e3d
00000010: 8815 983d 05df 43bd fa71 2f3d 62c0 a33d
00000020: d948 493d d6b9 a13d 67c9 16bd a3b9 b03d
00000030: 1ec5 8c3d 2d3b ecbc f1ba 80bd af83 25bd
00000040: 6f51 f7bc b1e6 883d 692f 80bc 9d9a b4bd
00000050: e3ff c1bc 5330 a03c 7735 76bc 39a8 143c
00000060: 17b6 9bbd 4b74 75bd 429f a33c 40d9 883b
00000070: 15a5 d33c 57db b83c e319 3b3d 6889 acbd
00000080: 0caa 22bc b56c 20bd f6cd f9bc 8e23 e33c
00000090: cbc0 533d bfea 513c 282e a73d f410 8fbd
000000a0: 15ef b3bd 2764 933d e53b a53d 4531 8ebd
000000b0: 52c0 8abd efd5 bb3c c50a a73c 2f16 8e3d
000000c0: 43b9 353b 9359 233d 8ae4 50bc b4ec 8b3d
000000d0: 2d21 53bd 2ca7 fbbb 80f1 97bd ab19 02bd
000000e0: 9d10 963d 2429 a6bd 4406 963d 722f 023c
000000f0: 4e23 2e3d 428f 873d 6f6e 493d 3495 8eba
00000100: 8724 633d 07a0 a23d 52e8 9f3d 5f89 f1bc
00000110: 6771 673d e7a6 5a3d 4d59 95bd 9ba6 453d
00000120: d184 a4bd bb7d a039 5320 4fbd eba9 a73d
00000130: 3426 1c3d 09ff 43bd 0609 273d a3ce a4bd
00000140: b33f 91bd b996 b4bd 0730 763c 4f45 69bd
00000150: 11f1 0d3c 4018 8cbd 03fd f03c ceff 89bc
00000160: 1d42 a23d 78ba 04bc a591 9fbd ce96 563d
00000170: a8ee 7f3c 6a7d 9b3d 4ceb 83bd 00de f6bc
00000180: 5683 11bd 9c73 123d f69b a1bd fe3e 56bd
00000190: e9d1 1abd 80a8 1e3d 7b78 7f3c cea2 843d
000001a0: 3ca4 813c 23e4 123d 03f3 a63d 9e16 33bd
000001b0: e351 53bd b98d 45bd 63f5 9e3d b924 533d
000001c0: 2c26 7fbd eaac 5cbd bcde 4fbb 5f93 f73c
000001d0: ef97 9d3c 03a7 c5bc 8842 293d 6686 7c3d
000001e0: 4b33 6f3d 57af 87bd ae7e a7bd ca5d 0bbd
000001f0: 68f2 c1bc 45ec a33c ec54 063d 018a 83bd
-0.00393602 -0.037133247 0.02712157 0.050323885 0.07425982 -0.04782011 0.042833306 0.079956785
0.04914174 0.078967735 -0.036813166 0.086291574 0.068735346 -0.028836811 -0.06285656 -0.040408786
-0.030190198 0.06684626 -0.015647607 -0.08818553 -0.023681587 0.019554293 -0.015027395 0.0090733105
-0.0760309 -0.05992536 0.019973401 0.004176289 0.025835553 0.022565527 0.045678984 -0.08424646
-0.009928238 -0.03916617 -0.030493718 0.027726915 0.051697534 0.0128123155 0.081631005 -0.069856554
-0.08785836 0.07196837 0.080680646 -0.06942991 -0.067749634 0.02292916 0.020390878 0.06937825
0.0027728833 0.039880347 -0.0127498 0.06832257 -0.05154531 -0.0076798405 -0.07419109 -0.03176276
0.073273875 -0.08113316 0.07325414 0.007945882 0.042514138 0.06619121 0.049177583 -0.0010878206
0.055454757 0.07940679 0.078079835 -0.029484449 0.056504633 0.053381827 -0.072924234 0.04825459
-0.08033145 0.00030611255 -0.050567936 0.08186706 0.03812237 -0.047850642 0.04078009 -0.08047225
-0.07092228 -0.088178106 0.015026099 -0.056950863 0.008663432 -0.06840563 0.02941752 -0.01684561
0.07922766 -0.008101098 -0.07791451 0.052389912 0.015620865 0.0759228 -0.06441364 -0.030135155
-0.035525642 0.035754785 -0.07891075 -0.052306168 -0.037797842 0.038734913 0.01559269 0.06476365
0.015825383 0.0358621 0.081518196 -0.04372274 -0.051591765 -0.04823086 0.077616476 0.051548693
-0.062292263 -0.05387584 -0.0031718453 0.03022164 0.019237487 -0.024127489 0.041323215 0.06165161
0.058398526 -0.0662524 -0.08178459 -0.03402499 -0.023675159 0.020010123 0.03279583 -0.064228065

layer3.weight f4 [4, 128]
00000000: 10c6 3ebd 5849 1fbc 725e 9a3d 74d4 743d
00000010: b188 033c d3c8 ab3b 2143 223d 2d4d 813d
00000020: acf3 033d a770 8ebd cbdb 49bd 5047 45bd
00000030: d8e5 37bc 8b76 713d ab22 6c3d 8ea9 73bd
00000040: 72b1 91bd dc56 903d ed7f 513a bd04 72bc
00000050: 7279 6e3d 255f ed3c be48 6abd f373 1f3d
00000060: f3ec 283d 6777 a4bd b6c8 9a3d 6389 9c3d
00000070: 0ac2 9fbd 6498 953d 9c3d 833d 085d 5a38
00000080: 32d9 973a fdbf 01bc dc28 2cbd cedb 123c
00000090: 0f90 7b3c 3a09 953d 7fff 983d 3cd6 063d
000000a0: f35a 873c 0e59 1fbd 1e1a ec3c 2634 d7bc
000000b0: 5308 3abd a6a3 db3c aaa7 9b3d 7b11 223d
000000c0: bb33 41bc df41 df3c 638c 6bbd 003c 92ba
000000d0: e6dc 8fbd 91e9 4abd 7458 743d 6316 843d
000000e0: 475c 87bc d94b 443d c46a 733d 8ace f0bb
000000f0: 162b 643d 5336 afbd ab8f a0bd d2eb 633d
00000100: ffcf ba3c c857 a03d cd87 15bc b793 3c3d
00000110: 259c 8bbd fb9b 7fbd 7feb c43b 018c a83d
00000120: 23e1 b7bc 8c5a b1bd 2cb0 5cbd b28d 9b3d
00000130: ff70 88bc c681 293d 0743 4bbd 3583 38bd
00000140: ab1d a6bc 3039 8d3d 6527 14bc 98ff ecbc
00000150: 7e29 1fbd d312 18bc 1c00 8bbd 93c6 8c3d
00000160: 2865 573c 7239 b6bc 43d1 97bc f1d2 86bc
00000170: fbdf 73bd 5aa1 35bc 5adb 90bc 4ed5 dfbc
00000180: 2bda 6bbc e2a2 103d 2319 2c3d d928 22bd
00000190: c9c8 22bd ca4e 1bbd 6f9c 2dbd f48e a4bd
000001a0: 7d9c 903c e559 953d 2025 b9bc 2f7d c9bc
000001b0: 6c80 4f3d 7bad 273d 84fb 82bd f42b a4bd
000001c0: ebb4 5bbd 526f 16bd 2fcc f73c f719 33bd
000001d0: 1638 5a3c 4034 973d f55a 663d 5a89 90bc
000001e0: 4b89 343d c66e a33d b9ea a3bb 606b cdbc
000001f0: a5cb 6e3d 38c9 d6bc 5f0e 68bd c4b1 713d
00000200: 0a47 273d 305b 36bb 06f7 59bd 2baa 46bd
00000210: effb 233d 2197 943d 5d0d 8e3d 580a d2bc
00000220: 7444 abbd d9fa fcbc ec5a 3d3d e759 113c
00000230: 9123 7e3c 527c 133b b4fe a6bc a271 48bc
00000240: e53f a03d 1353 9d3d 1b1e 68bd b91c b03d
00000250: e5bd b2bc acc4 b2bd 5f5c a03d 633a 01bc
00000260: 7327 abbc 5797 e83c dc51 e93c 1b09 4abd
00000270: 11b4 ba3c f8d2 bc3c 2f9d 8fbd b81d 68bc
00000280: 74f3 84bd f071 a7bd da21 42bd fdea 85bd
00000290: 0a04 913d 3bca 72bd ba64 81bc afa2 45bc
000002a0: 1f11 a5bd d3bd 20bd f190 4dbd 11ca 9fbd
000002b0: daeb 9e3c b8b9 8a3d ff54 1e3d 9ce5 6ebd
000002c0: d98e 653d fb67 9cbd 91e5 78bb d3e1 2abd
000002d0: cfd7 68bd 6192 833d 343d c7bc 4f8e 08bd
000002e0: a315 19bd a894 5fbd c868 9cbc d6b5 ecbc
000002f0: 02bc 713d 9aa7 a0bd c162 bd3c e160 10bd
00000300: 630c 99bd 2d6b b83c ba4c 623c 0f49 62bc
00000310: c2e0 a7bc c4d7 e1bc 8c0b 803c c1ac 4c3d
00000320: c626 8b3d cc7e 8d3d 85b6 81bd 9f39 523d
00000330: 6bf7 16bd e97d 13bd cbc6 163c b6d8 afbd
00000340: b54d 9dbc 0642 ac3d f4b2 1c3d 4a2c 0e3d
00000350: 522b 593d 503a 9cbc 6139 0e3d 3946 a93c
00000360: 7b03 3d3d 72c0 1b3d 374d 75bd be64 2c3c
00000370: 6b13 dcbc ba3d eabc 9fe2 b3bd 743f 7cbd
00000380: e668 0e3d 4af3 e73b 6800 a7bc 831a 343d
00000390: 3f44 3b3b 4dba 393c 4147 d43c 6d30 bbbc
000003a0: 59de 963b 73ba 6f3d 4651 df3c 6cc7 b6bc
000003b0: edf7 103d fecc e8bc 5fb5 203d f7f3 45bd
000003c0: a04b b4bd d329 343d 5e19 653d dde1 40bd
000003d0: d66c 81bc a4c6 83bd 12d0 debc 713c a5bd
000003e0: be70 97bc 4d87 39bb 0a4c e7bc c0db 29bd
000003f0: bb57 b0bc ce5a 66bd 680e a43c 90bc 92bc
-0.046575606 -0.009722076 0.07537545 0.059772924 0.008028195 0.005242446 0.0396148 0.06313548
0.032214805 -0.069550805 -0.049281877 -0.048163712 -0.011224233 0.058950942 0.05765025 -0.05948787
-0.07113923 0.07047817 0.000799178 -0.0147716375 0.058221288 0.028976033 -0.05719828 0.038928937
0.041241597 -0.08030587 0.07557814 0.07643392 -0.07800682 0.07304457 0.064082354 5.2061892e-05
0.0011585115 -0.007919309 -0.042031154 0.008963538 0.01535417 0.072771505 0.07470607 0.032919154
0.01652286 -0.03890329 0.028821047 -0.026269984 -0.045418095 0.026811432 0.07600339 0.039567452
-0.011792119 0.02725309 -0.05750693 -0.0011156797 -0.07024555 -0.049539153 0.059654668 0.064495824
-0.016523493 0.047923896 0.05942799 -0.00734884 0.055705152 -0.085552834 -0.078399025 0.055644818
0.022804258 0.07829243 -0.009126616 0.04603931 -0.068168916 -0.062404614 0.0060095186 0.082298286
-0.02244622 -0.086598486 -0.053878948 0.075953856 -0.016655443 0.041383527 -0.04962447 -0.045047004
-0.020277819 0.06895673 -0.0090425955 -0.02893047 -0.03885793 -0.009281832 -0.0678713 0.068738125
0.013146676 -0.022244189 -0.018532401 -0.016458007 -0.059539776 -0.0110858325 -0.01768272 -0.027323391
-0.014395277 0.035311587 0.04201616 -0.039589737 -0.039742265 -0.037916936 -0.042385515 -0.08035079
0.017652744 0.07292537 -0.02260071 -0.024595825 0.050659582 0.04093693 -0.06395629 -0.08016196
-0.053639334 -0.036727257 0.03024873 -0.043725934 0.013319036 0.07383013 0.056239087 -0.01764362
0.044076245 0.07980113 -0.0050023464 -0.025075614 0.05829968 -0.026218995 -0.05665433 0.05900742
0.040839233 -0.0027825348 -0.053214096 -0.04850213 0.040035184 0.07255388 0.069361426 -0.025639698
-0.08362666 -0.030881332 0.046229288 0.008871532 0.015511409 0.002250452 -0.020385124 -0.012234123
0.07824687 0.07681861 -0.056669336 0.085992284 -0.021819064 -0.087289184 0.078301184 -0.007887456
-0.020892834 0.028392477 0.028481416 -0.04932509 0.02279094 0.023049816 -0.07012402 -0.014167242
-0.064917475 -0.08176029 -0.047395565 -0.06538961 0.070808485 -0.059274893 -0.0157951 -0.012062713
-0.08059906 -0.03924353 -0.050187055 -0.07802213 0.019399572 0.06773704 0.038655277 -0.05832444
0.056044433 -0.0763702 -0.003797863 -0.04171927 -0.056846436 0.06424404 -0.024321176 -0.03333884
-0.03737415 -0.05458513 -0.019092932 -0.0288953 0.05901719 -0.078444675 0.023118379 -0.03524864
-0.07473066 0.022512043 0.013812238 -0.013811364 -0.020492915 -0.027568705 0.015630506 0.04996944
0.06794505 0.0690895 -0.06333641 0.051324483 -0.03685705 -0.03600875 0.009202669 -0.08586256
-0.019202093 0.084110305 0.0382566 0.034710206 0.05301983 -0.019070774 0.03472269 0.020663368
0.046145897 0.038025327 -0.05988809 0.010522066 -0.026864728 -0.028593887 -0.08783459 -0.06158395
0.034768008 0.007078563 -0.020385936 0.043970596 0.0028574613 0.0113359215 0.025912883 -0.02285024
0.0046041426 0.05852742 0.027260434 -0.022311889 0.03539269 -0.02841806 0.03923547 -0.048328366
-0.08803487 0.0439852 0.055932395 -0.0470904 -0.015798967 -0.06434372 -0.027198825 -0.08068169
-0.018486377 -0.0028309405 -0.0282345 -0.041469336 -0.021526208 -0.05623894 0.0200264 -0.01791218

layer3.bias f4 [4]
00000000: 4a06 84b9 601d 933d 4a14 41bd b4e7 9fbd
-0.00025181688 0.07183337 -0.04713849 -0.07807866

layer1.weight f4 [128, 4]
00000000: 482b e23d 9488 c3be 4cc6 dc3e 2cd8 28be
00000010: c0af 553e 9ade 94be 803e e43b 78bb b83d
00000020: c49f 663e f4e0 4c3e c6be dabe 904e 683d
00000030: 465c e4be 384d 8bbd d007 d83e 805b 2cbe
00000040: 1a26 efbe d266 96be a08c a73e 9a90 93be
00000050: 4acf e53e e45d cebe 70e5 fcbe 90bb 99be
00000060: 3a69 b63e b80e a73d 549d f53e 1486 eb3e
00000070: d850 b2bd 48b4 823e 3a66 dbbe b0e1 a0be
00000080: 2c9d f8be e85b b63e c09f 68bd 041b 0d3e
00000090: 8024 873c 1e19 b9be b4ef 903e 107f 183d
000000a0: d0ec efbe a4cc 74be 42c0 f2be 10e7 f5be
000000b0: fa52 a33e 60b6 de3d 2a11 933e 449e d33e
000000c0: 80c3 d13e b0f1 55be 96e5 883e 0094 87be
000000d0: cc91 c53e 04cd a6be 007a 9d3c 4677 d73e
000000e0: 0068 d339 44aa f5be e868 c63e ca4c ba3e
000000f0: eedc a9be 6c74 e8be 2cd2 7ebe f8d0 943e
00000100: 3e0a fc3e c0fb 133d 7e8e 8f3e 6892 e2bd
00000110: d822 b83d 7208 b6be 54da 78be 444e d13e
00000120: 3cfe 433e a0e6 213d 6ca3 2dbe 4cdf dd3e
00000130: 2094 3cbd 48f6 bfbe 9abd e03e 86f0 dfbe
00000140: d859 a53d 5826 cfbe 76ee f4be 80ae 283d
00000150: 8028 4abe fc88 a53e fc8a 8abe b63d ad3e
00000160: f86d 82bd 40c1 ecbd 9ad1 be3e b8b9 3ebe
00000170: 40f3 c23c 6294 94be 58ec b83d 589f a4be
00000180: 38d1 cc3e f0e6 08be d46b 963e 1a52 cfbe
00000190: 38ba 00be 940c 4abe 7aad bb3e 4803 91be
000001a0: 3858 97be a894 b93d 1add b83e 163e e1be
000001b0: 7e9c d33e 3ed4 f23e de55 9d3e a0e6 073d
000001c0: 3cb4 d4be e0fa 073d 4830 8d3d f83a c2be
000001d0: a2d8 893e 7c28 c1be 8076 4a3e 72dc c73e
000001e0: 182c a03e 2e4e e2be 12ee ed3e 3882 3cbe
000001f0: f0ce 89be 8050 20bc f2b7 b2be 607a b53d
00000200: 428e e0be ecf7 b0be 3076 15be 7638 f8be
00000210: aa11 953e 7034 abbe 14a5 323e b496 a13e
00000220: d00a 7fbd c0ab ac3c 6813 9cbe 4822 e9bd
00000230: 4e23 81be 06d6 edbe 128b fcbe 5ee3 9bbe
00000240: d4b9 28be 0488 b43e 06f2 9abe 225e e33e
00000250: 5cf5 25be 866d f93e 76ac c53e 7a15 a83e
00000260: b4e8 bc3e 941f 3d3e fea7 80be 024e 9b3e
00000270: 8040 633d b0ed f63e 1a3d a03e 94f4 e33e
00000280: 40b0 b7bc ecca 833e ae50 b03e c8f6 b0bd
00000290: 1889 a23d 7295 d0be ae26 c6be e453 323e
000002a0: e667 8cbe 8478 bf3e 82a8 d93e c801 54be
000002b0: e0e2 a23c 8cbf 563e 7064 dbbe 66fb debe
000002c0: de6b cbbe 1855 89be 6865 3bbe 0454 70be
000002d0: 3a86 ba3e c468 0cbe 18a6 85bd d8db a43d
000002e0: 60d6 37bd 88cd a5be b0f4 c53e 6213 d83e
000002f0: c07a 19bd 760a c63e de44 cebe 208d 71bd
00000300: 284a 5cbe faac a7be 3007 f0be 9828 67be
00000310: 5ea9 8d3e c0ce a33d e04f d2be d6e6 803e
00000320: c030 b23c 7a89 bfbe 1897 30be b8ec eebd
00000330: e4ef 933e 001f 4bbc e2ea 9c3e 3098 6bbd
00000340: 90b1 16bd 409c 2e3d 1251 85be 3220 983e
00000350: 20b5 093e f005 60bd d264 e63e c030 85bd
00000360: 3c9b 07be 2cf1 863e 28db 76be 82fb e2be
00000370: c69f a7be 2004 f3bd 9002 eabd c0f8 79be
00000380: 0052 a1ba 0083 4f3d 28b1 d43d fcc6 1c3e
00000390: 3825 bdbd 8c03 583e ee91 fbbe b4bb 8bbe
000003a0: 6029 74bd 986c 51be 10c5 8d3d ac71 83be
000003b0: dac8 bd3e 3ca5 9f3e dc7d 16be 78bd ec3d
000003c0: 4849 003e 60f7 13bd 60d5 7ebe b20b e23e
000003d0: b0b1 2bbd b00f c03d dc87 79be e097 1f3e
000003e0: d4a7 453e b226 9dbe 10a9 c33d c871 783e
000003f0: 4892 98bd 02a1 abbe 1cb3 debe 4675 823e
0.110434115 -0.38190138 0.43120039 -0.16488713 0.20867825 -0.29076082 0.0069654584 0.09020132
0.22521883 0.20007688 -0.42723674 0.056715548 -0.4460165 -0.06801838 0.4219346 -0.1683178
-0.46708757 -0.2937532 0.32724476 -0.2882126 0.44884712 -0.40306008 -0.49393797 -0.3002591
0.35627156 0.08157104 0.47971594 0.4600073 -0.08706826 0.2552817 -0.4285143 -0.31422186
-0.48557413 0.35616994 -0.056792974 0.13779837 0.016496897 -0.36151975 0.2830788 0.03723055
-0.4686036 -0.23906189 -0.47412306 -0.4802785 0.31899244 0.10874629 0.28724033 0.41331685
0.40969467 -0.20892978 0.2673766 -0.26480103 0.38587797 -0.3257829 0.019223213 0.42083186
0.00040322542 -0.47981465 0.38751912 0.3638671 -0.33176368 -0.45401323 -0.24884862 0.2906568
0.49226564 0.03612876 0.280384 -0.11063081 0.08991021 -0.35553318 -0.24302036 0.40880024
0.19139951 0.03952658 -0.16956872 0.43334424 -0.0460397 -0.37492585 0.43894655 -0.43738192
0.08073777 -0.4045894 -0.4783818 0.04118204 -0.19742012 0.32331073 -0.27059162 0.33836144
-0.06368631 -0.11560297 0.37269288 -0.18625534 0.023797631 -0.29019457 0.09029454 -0.3215282
0.4000337 -0.13369346 0.2937914 -0.40492326 -0.12571037 -0.1973136 0.3665579 -0.28322816
-0.29559493 0.09061557 0.36106187 -0.4399268 0.41330332 0.47427553 0.30729574 0.033178926
-0.41543758 0.033198237 0.068939745 -0.37935615 0.2692309 -0.377262 0.19771767 0.39035374
0.3128364 -0.4420027 0.46470696 -0.1840905 -0.26915693 -0.009784818 -0.34905964 0.08861232
-0.43858534 -0.3456415 -0.14595866 -0.48480576 0.2911504 -0.33438444 0.17445785 0.3156029
-0.06226617 0.02107799 -0.30483556 -0.11383492 -0.25222248 -0.4645235 -0.49324852 -0.30446905
-0.16477138 0.35260022 -0.30262774 0.44407755 -0.16206878 0.48716372 0.3860814 0.32828885
0.36896288 0.18469077 -0.25128168 0.30332953 0.055481434 0.48228216 0.31296617 0.44522536
-0.02242291 0.25740755 0.34436554 -0.0864082 0.07936305 -0.40739018 -0.38701385 0.17414814
-0.27423018 0.37396634 0.42511374 -0.20703804 0.019883573 0.20971507 -0.42850065 -0.43551177
-0.39730734 -0.26822734 -0.18300402 -0.2346955 0.36430532 -0.1371184 -0.065258205 0.08049744
-0.04488218 -0.3238337 0.38663244 0.42202288 -0.03747058 0.38679856 -0.40286916 -0.058972478
-0.21512663 -0.32749158 -0.46880484 -0.22574079 0.2766828 0.07998419 -0.41076565 0.25176114
0.021751761 -0.37409574 -0.17245138 -0.11666244 0.2889396 -0.012397528 0.3064795 -0.057518184
-0.03679043 0.04262948 -0.26038414 0.29712063 0.13448 -0.054693162 0.44998795 -0.06503439
-0.13242811 0.26355875 -0.24107039 -0.4433251 -0.32739085 -0.11866021 -0.1142627 -0.24411297
-0.0012307763 0.05066204 0.103853524 0.15310282 -0.092356145 0.21095103 -0.49134773 -0.27291644
-0.05960977 -0.20451581 0.06922352 -0.25672662 0.370673 0.3118075 -0.14696449 0.11559576
0.12527955 -0.036124587 -0.24886084 0.44149548 -0.041917503 0.09377992 -0.24368232 0.1558528
0.19302303 -0.30693585 0.095537305 0.24262154 -0.07449776 -0.33521277 -0.43496025 0.25480098

layer1.bias f4 [128]
00000000: 7028 e5be 42f7 da3e 006e cb3c 5443 18be
00000010: e869 ae3e ee31 aa3e 8446 9e3e a0ae f53d
00000020: f019 dcbe 2090 20bd b477 40be 10e9 f1bd
00000030: d80a 8abe 08b1 703e d01e 793e 80f8 34bc
00000040: 2446 2a3e 5ab2 a63e c008 d53d 6e58 bc3e
00000050: ea0d d6be a6c5 bd3e 6026 8b3c 022c b03e
00000060: 7222 db3e 48ab f23d 909e af3e f811 523e
00000070: 7484 703e 8aab f23e d28d c73e 38af 783e
00000080: e451 743e 9ee3 8c3e 3409 d6be 9884 d4be
00000090: 0040 16bc d470 c63e e0d4 a7bd 08c1 a13e
000000a0: e4a0 e13e 24d4 283e 709e 89be a6c3 bbbe
000000b0: 78f8 dc3d d634 efbe c23e f63e 300f 5b3d
000000c0: 0080 f3bb fefe aebe 1c18 b63e 8859 0b3e
000000d0: 48f7 de3e 602c a33c 806f e6be 5826 8f3d
000000e0: 6c2c 61be 0029 00bc 9cf5 053e d857 e0bd
000000f0: 30ab 18bd 5649 f93e 84f6 413e 744c 7d3e
00000100: dad2 b8be e072 193e 203b a4be 2e87 94be
00000110: 7c78 ab3e 1067 9abe f075 1abd 5010 e0bd
00000120: ba50 9e3e 26f2 9bbe 5052 40bd 58d7 943d
00000130: 42ca a83e 8072 ff3d 88b8 4f3e 10e4 eb3d
00000140: a00d 643d 306e d83d 3490 2a3e a029 66be
00000150: 88b1 7ebe 80f6 323c 3832 cb3e 1069 c5be
00000160: 7a7e babe c4cf 13be d47e aabe 0037 543d
00000170: 64b2 0e3e a0bb 09be ee44 b4be f49c b7be
00000180: 3ca2 ffbe f00b b43d 76d5 a5be 5434 41be
00000190: c869 e73e 88aa b6be bc6e 1a3e b680 9b3e
000001a0: 9e5a fdbe 74ca a7be 6831 92be 882b 92bd
000001b0: 36c7 f5be 38c4 aabd 9082 d6bd 7878 773e
000001c0: 1087 89be d8e6 d5be b014 dd3e 84ed c9be
000001d0: b051 89bd 88d2 b73d 1c5a a73e 2896 f03d
000001e0: c0fb c43d cc7a 26be 0e64 c03e 3c06 cfbe
000001f0: de85 983e d0ef 17be 48fe b93e a85f a8be
-0.44757414 0.42766768 0.024832726 -0.14869434 0.34065175 0.33241218 0.30913174 0.11996198
-0.4298854 -0.03919995 -0.18795663 -0.11812031 -0.26961398 0.23505032 0.2432816 -0.011045575
0.16628319 0.32557946 0.104020596 0.36786216 -0.4180749 0.37064856 0.016986072 0.34408575
0.42799717 0.118490756 0.3430066 0.20514667 0.23488027 0.473965 0.38975388 0.2428559
0.23859364 0.27517408 -0.41803896 -0.4150741 -0.009170532 0.38757956 -0.081948996 0.31592584
0.44068062 0.16487175 -0.2687869 -0.36672705 0.10789579 -0.46719998 0.48094755 0.05348128
-0.0074310303 -0.3417892 0.3556527 0.13608372 0.43548036 0.01991862 -0.45006943 0.06989735
-0.21989602 -0.007822275 0.13081974 -0.10954255 -0.037272632 0.48688763 0.18941694 0.24736196
-0.36098367 0.14985228 -0.3207636 -0.29009384 0.3349036 -0.30156755 -0.03771013 -0.10940611
0.30920964 -0.30458182 -0.0469535 0.07267636 0.3296681 0.12473011 0.20285237 0.11518109
0.055677056 0.105678916 0.16656572 -0.22476816 -0.2487241 0.010923028 0.3968675 -0.3855672
-0.3642462 -0.14434725 -0.33299887 0.051810265 0.13935238 -0.1345048 -0.3520884 -0.35861933
-0.49928463 0.087913394 -0.3238942 -0.18867618 0.45197892 -0.3567698 0.15081304 0.30371636
-0.49483198 -0.32771647 -0.2855332 -0.07137209 -0.48003548 -0.08338207 -0.104741216 0.24167049
-0.26860857 -0.41777682 0.43179846 -0.39439023 -0.06705034 0.089757025 0.32685935 0.1174739
0.0961833 -0.16257781 0.37576336 -0.40434444 0.29789633 -0.14837575 0.36326814 -0.3288548

layer2.weight f4 [128, 128]
00000000: 6b27 4f3c 0cb3 6fbd e9fd 43bd b71f 62bd
00000010: d74a 3abd 038a 34bd 9fba 4ebd 45fe 8fbc
00000020: 1263 98bd 8e19 72bd 9cf2 713d d79b 243d
00000030: 9c4f 853d 9a4f c0b8 9578 873d c548 acbc
00000040: c612 023d fcc3 3cbc 9fbe 113c 2595 eebb
00000050: 88be 2dbd 1e5b b4bd 25fd b4bd d8b2 783d
00000060: 4deb 203d 66e1 423d 2193 10bd 3e80 4c3d
00000070: bb1d b13d 9439 c73b 4e29 8b3d b9fd 8b3d
00000080: 9c9b 653d 047a 94bd d451 9d3d 0c9c 18bd
00000090: 5782 e53c 4d08 543c dda8 ad3c 8c29 45bd
000000a0: 0166 8dbd d728 213d 9f66 903d 3170 49bc
000000b0: f44a 35bc b0cf 893d b39a ae3d 3334 81bd
000000c0: 52d9 8cbc 919c 963d 87ab 6e3d 7eea 2f3d
000000d0: e582 bb3c 5fae 803d 2365 20bd 0b80 8d3d
000000e0: 7901 47bd e23e a4bd a442 03bc 69a3 97bd
000000f0: 6b5b 9b3d c0d0 fdba 6446 8a3d b19c 2a3d
00000100: d475 183d 7cf6 ae3d ddb1 c13a 4844 74ba
00000110: 30b2 9a3d 7b09 a43c a5af 29bd 677c 793d
00000120: 85aa 40bd 7afe f7bc e527 1e3d 2496 edba
00000130: 6028 c9bc 64f8 7d3c 9907 6cbc 78f9 e0bc
00000140: e5e9 073a 6ed6 93bc c2dc 01bd 13f5 95bd
00000150: b7e9 8b3d e351 ba3b c99e 213d 5f13 583b
00000160: 2951 33bd 165d 92bd 28f6 713c fe91 94bc
00000170: a5ed 24bd 5075 44bd bbd9 81bd f18a 533d
00000180: ab66 303a 695c 8c3d 38b9 903d 0061 9d3d
00000190: 972f 473d 0c73 9ebc cb11 e23c 0f63 fd3b
000001a0: 41c1 343d 68e1 6bbd 2597 0dbd 291b b43d
000001b0: 99fd 26bc 02f6 8fbd 4ea6 c53c 3835 9ebd
000001c0: 6660 1ebc b255 9bbc c275 e3bc ec88 aebd
000001d0: 3e60 7b3c 3eff 073d f189 a83d 4ddd 873d
000001e0: f442 22bd f938 013c 9fa4 073d a951 a8bd
000001f0: 78f5 b43d 2f7a 9ebd 1e55 263d 2843 0cbd
00000200: 26b1 143b e103 11bd e8db 793d a5cb 94bd
00000210: 8ca5 49bd 7b90 acbd 4b76 7f3d c35a 9e3c
00000220: 26bc 2ebd c94c 5bbd c920 e0bc 431f 94bc
00000230: 37a7 8e3c ec3f 493d ce5d 083d e6ae 3dbd
00000240: baf5 55bd c9ce e73c 284b 98bd 1169 773d
00000250: 0050 553d 5f9c 043c e6a2 9dbd f26d 193d
00000260: 64e4 9e3d 9d25 83bd 0fe8 cb3c 42a1 34bd
00000270: 285c 8a3d 2f4c 6bbd 7be1 67bc 0f34 ec3c
00000280: 6915 53bd 4532 863d d973 5c3d 5a76 093d
00000290: c15f 443b 3416 4f3d 1fda 76bd 14b1 94bd
000002a0: d770 8dbc 538b 9abd bd68 9e3d 7a26 cdbc
000002b0: 7176 8dbd 45a3 8c3c bfaa f4bc e1de 96bb
000002c0: 5c5b d93c fe79 9bbd 625c 823d 48c3 9ebd
000002d0: 8ff5 733d 3d0d 86bd 8865 a93d dd4d 733d
000002e0: 30bb 713d 10a1 683b 8158 863c e447 0dbd
000002f0: f9d1 273d 6662 a6bd 1c1e 3bbd e837 8c3d
00000300: 0d79 8a3d 088c 43bd 719e 45bd fe0c 393d
00000310: 87cf 003c abe4 a33d 68cc 55bd 025b 93bd
00000320: 09a5 81bd 17ae c8bc a75f 88bc c895 7f3d
00000330: 1bb8 acbd 504d 603d 43d3 1bbd fadb 91bd
00000340: 9d5c 863d 3099 b3bc 9556 38bd af32 21bd
00000350: ed76 9fbd 3af1 603d 4246 613c fe01 5ebd
00000360: c007 323d 1a23 eebc ac08 d53c 8945 123d
00000370: 4f8d f03c 6118 96bd c72f b33d 0d9f 03b9
00000380: 0efd 39bd 4a2b 26bd 4e7d 2ebd a330 f43c
00000390: d256 8c3d 5e61 57bd fb66 77bc 3c00 943d
000003a0: 75f6 163d 1658 12bd 83ff b2bd a4df 82bd
000003b0: a00f 9bbd 99bb 49bd 8e28 75bd 873c 7ebd
000003c0: adf3 26bd 8818 983d b934 203b 8853 19bd
000003d0: 39af d438 b1e3 85bd cf57 c7bc 1b20 8c3d
000003e0: ee63 843d 515a 7bbc d289 97bb e1d0 f53b
000003f0: 2ace 03bc 2ed9 61bd 3843 ae3d 4416 8b3d
0.012643675 -0.05852036 -0.04784957 -0.055206027 -0.04548153 -0.04407693 -0.050470944 -0.0175773
-0.07440771 -0.059106402 0.05906926 0.040187683 0.06509325 -9.1701004e-05 0.06614796 -0.021030793
0.031756185 -0.011521336 0.008895545 -0.007280963 -0.042418033 -0.08806442 -0.08837346 0.060717434
0.0392869 0.047578238 -0.035296563 0.04992699 0.08648249 0.006079862 0.067949876 0.06835503
0.056056604 -0.07249835 0.07681623 -0.037258193 0.028016252 0.012941432 0.021198684 -0.048135325
-0.06904221 0.03934559 0.070508234 -0.012294815 -0.0110652335 0.06729066 0.085256 -0.06308784
-0.01719347 0.073540814 0.05826905 0.04294824 0.022889564 0.06283259 -0.03915895 0.06909188
-0.04858539 -0.080198064 -0.008011494 -0.07404215 0.07585796 -0.001936458 0.06751707 0.04165334
0.037221745 0.08543107 0.0014777739 -0.0009318036 0.07553518 0.020024052 -0.041427273 0.060909655
-0.04703762 -0.030272711 0.038612265 -0.001812641 -0.024555385 0.0155011155 -0.014406108 -0.027462706
0.00051846943 -0.018046584 -0.03170467 -0.07322135 0.06831687 0.005686031 0.03945807 0.003297053
-0.043778572 -0.07146661 0.014768161 -0.01813602 -0.040265698 -0.04796344 -0.06340357 0.051646177
0.0006729166 0.06853563 0.07066578 0.07684517 0.04862937 -0.019341968 0.027596375 0.007732756
0.044129614 -0.05758801 -0.03456797 0.08794243 -0.010192298 -0.07029344 0.024127152 -0.077249944
-0.009666538 -0.018961761 -0.027766112 -0.085222095 0.01534277 0.033202402 0.08229435 0.06634007
-0.039614633 0.0078871185 0.03311598 -0.082187004 0.08835882 -0.077381484 0.040608518 -0.034243733
0.0022688597 -0.03540409 0.061000735 -0.072654046 -0.049230143 -0.08425995 0.062368672 0.019330388
-0.0426599 -0.053540025 -0.027359383 -0.018081313 0.017413719 0.049133226 0.033292584 -0.046309374
-0.052236296 0.028296845 -0.0743621 0.060402934 0.052078247 0.008093922 -0.07697086 0.037458368
0.07758406 -0.064036585 0.024890928 -0.0440991 0.06755859 -0.0574457 -0.01415288 0.028833417
-0.05153409 0.06552557 0.05382142 0.033560134 0.00299643 0.050558284 -0.06026661 -0.072603375
-0.01726572 -0.07546105 0.07734821 -0.025042761 -0.069073565 0.017167697 -0.029866574 -0.004604206
0.026532821 -0.075916275 0.06365277 -0.07752091 0.059560355 -0.06545494 0.08271319 0.059400428
0.059016407 0.0035496391 0.016399624 -0.03449239 0.04097173 -0.08124237 -0.04568301 0.06846601
0.0676137 -0.047740966 -0.048246805 0.045178406 0.007861978 0.08002599 -0.05219689 -0.07195093
-0.06330306 -0.024497075 -0.016647173 0.062398702 -0.08433553 0.05476123 -0.03804327 -0.07122035
0.06560633 -0.021923631 -0.045004446 -0.039354976 -0.07786355 0.05491755 0.013749661 -0.05420112
0.043464422 -0.029069472 0.026005112 0.035710845 0.029364256 -0.07328869 0.08749347 -0.00012552385
-0.045407347 -0.040568627 -0.04259997 0.029808348 0.06852497 -0.05258309 -0.015100236 0.07226607
0.036856133 -0.035728537 -0.08740141 -0.06390312 -0.075713396 -0.049251173 -0.05985313 -0.062069442
-0.04075973 0.07426554 0.0024445488 -0.037433177 0.000101415855 -0.06537569 -0.024333863 0.06842061
0.064643726 -0.015341357 -0.0046245838 0.007501707 -0.008044759 -0.05513876 0.08508915 0.06791356

layer2.bias f4 [128]
00000000: bbf9 80bb 0819 18bd 0e2e de3c 6b20 4e3d
00000010: 8815 983d 05df 43bd fa71 2f3d 62c0 a33d
00000020: d948 493d d6b9 a13d 67c9 16bd a3b9 b03d
00000030: 1ec5 8c3d 2d3b ecbc f1ba 80bd af83 25bd
00000040: 6f51 f7bc b1e6 883d 692f 80bc 9d9a b4bd
00000050: e3ff c1bc 5330 a03c 7735 76bc 39a8 143c
00000060: 17b6 9bbd 4b74 75bd 429f a33c 40d9 883b
00000070: 15a5 d33c 57db b83c e319 3b3d 6889 acbd
00000080: 0caa 22bc b56c 20bd f6cd f9bc 8e23 e33c
00000090: cbc0 533d bfea 513c 282e a73d f410 8fbd
000000a0: 15ef b3bd 2764 933d e53b a53d 4531 8ebd
000000b0: 52c0 8abd efd5 bb3c c50a a73c 2f16 8e3d
000000c0: 43b9 353b 9359 233d 8ae4 50bc b4ec 8b3d
000000d0: 2d21 53bd 2ca7 fbbb 80f1 97bd ab19 02bd
000000e0: 9d10 963d 2429 a6bd 4406 963d 722f 023c
000000f0: 4e23 2e3d 428f 873d 6f6e 493d 3495 8eba
00000100: 8724 633d 07a0 a23d 52e8 9f3d 5f89 f1bc
00000110: 6771 673d e7a6 5a3d 4d59 95bd 9ba6 453d
00000120: d184 a4bd bb7d a039 5320 4fbd eba9 a73d
00000130: 3426 1c3d 09ff 43bd 0609 273d a3ce a4bd
00000140: b33f 91bd b996 b4bd 0730 763c 4f45 69bd
00000150: 11f1 0d3c 4018 8cbd 03fd f03c ceff 89bc
00000160: 1d42 a23d 78ba 04bc a591 9fbd ce96 563d
00000170: a8ee 7f3c 6a7d 9b3d 4ceb 83bd 00de f6bc
00000180: 5683 11bd 9c73 123d f69b a1bd fe3e 56bd
00000190: e9d1 1abd 80a8 1e3d 7b78 7f3c cea2 843d
000001a0: 3ca4 813c 23e4 123d 03f3 a63d 9e16 33bd
000001b0: e351 53bd b98d 45bd 63f5 9e3d b924 533d
000001c0: 2c26 7fbd eaac 5cbd bcde 4fbb 5f93 f73c
000001d0: ef97 9d3c 03a7 c5bc 8842 293d 6686 7c3d
000001e0: 4b33 6f3d 57af 87bd ae7e a7bd ca5d 0bbd
000001f0: 68f2 c1bc 45ec a33c ec54 063d 018a 83bd
-0.00393602 -0.037133247 0.02712157 0.050323885 0.07425982 -0.04782011 0.042833306 0.079956785
0.04914174 0.078967735 -0.036813166 0.086291574 0.068735346 -0.028836811 -0.06285656 -0.040408786
-0.030190198 0.06684626 -0.015647607 -0.08818553 -0.023681587 0.019554293 -0.015027395 0.0090733105
-0.0760309 -0.05992536 0.019973401 0.004176289 0.025835553 0.022565527 0.045678984 -0.08424646
-0.009928238 -0.03916617 -0.030493718 0.027726915 0.051697534 0.0128123155 0.081631005 -0.069856554
-0.08785836 0.07196837 0.080680646 -0.06942991 -0.067749634 0.02292916 0.020390878 0.06937825
0.0027728833 0.039880347 -0.0127498 0.06832257 -0.05154531 -0.0076798405 -0.07419109 -0.03176276
0.073273875 -0.08113316 0.07325414 0.007945882 0.042514138 0.06619121 0.049177583 -0.0010878206
0.055454757 0.07940679 0.078079835 -0.029484449 0.056504633 0.053381827 -0.072924234 0.04825459
-0.08033145 0.00030611255 -0.050567936 0.08186706 0.03812237 -0.047850642 0.04078009 -0.08047225
-0.07092228 -0.088178106 0.015026099 -0.056950863 0.008663432 -0.06840563 0.02941752 -0.01684561
0.07922766 -0.008101098 -0.07791451 0.052389912 0.015620865 0.0759228 -0.06441364 -0.030135155
-0.035525642 0.035754785 -0.07891075 -0.052306168 -0.037797842 0.038734913 0.01559269 0.06476365
0.015825383 0.0358621 0.081518196 -0.04372274 -0.051591765 -0.04823086 0.077616476 0.051548693
-0.062292263 -0.05387584 -0.0031718453 0.03022164 0.019237487 -0.024127489 0.041323215 0.06165161
0.058398526 -0.0662524 -0.08178459 -0.03402499 -0.023675159 0.020010123 0.03279583 -0.064228065

layer3.weight f4 [4, 128]
00000000: 10c6 3ebd 5849 1fbc 725e 9a3d 74d4 743d
00000010: b188 033c d3c8 ab3b 2143 223d 2d4d 813d
00000020: acf3 033d a770 8ebd cbdb 49bd 5047 45bd
00000030: d8e5 37bc 8b76 713d ab22 6c3d 8ea9 73bd
00000040: 72b1 91bd dc56 903d ed7f 513a bd04 72bc
00000050: 7279 6e3d 255f ed3c be48 6abd f373 1f3d
00000060: f3ec 283d 6777 a4bd b6c8 9a3d 6389 9c3d
00000070: 0ac2 9fbd 6498 953d 9c3d 833d 085d 5a38
00000080: 32d9 973a fdbf 01bc dc28 2cbd cedb 123c
00000090: 0f90 7b3c 3a09 953d 7fff 983d 3cd6 063d
000000a0: f35a 873c 0e59 1fbd 1e1a ec3c 2634 d7bc
000000b0: 5308 3abd a6a3 db3c aaa7 9b3d 7b11 223d
000000c0: bb33 41bc df41 df3c 638c 6bbd 003c 92ba
000000d0: e6dc 8fbd 91e9 4abd 7458 743d 6316 843d
000000e0: 475c 87bc d94b 443d c46a 733d 8ace f0bb
000000f0: 162b 643d 5336 afbd ab8f a0bd d2eb 633d
00000100: ffcf ba3c c857 a03d cd87 15bc b793 3c3d
00000110: 259c 8bbd fb9b 7fbd 7feb c43b 018c a83d
00000120: 23e1 b7bc 8c5a b1bd 2cb0 5cbd b28d 9b3d
00000130: ff70 88bc c681 293d 0743 4bbd 3583 38bd
00000140: ab1d a6bc 3039 8d3d 6527 14bc 98ff ecbc
00000150: 7e29 1fbd d312 18bc 1c00 8bbd 93c6 8c3d
00000160: 2865 573c 7239 b6bc 43d1 97bc f1d2 86bc
00000170: fbdf 73bd 5aa1 35bc 5adb 90bc 4ed5 dfbc
00000180: 2bda 6bbc e2a2 103d 2319 2c3d d928 22bd
00000190: c9c8 22bd ca4e 1bbd 6f9c 2dbd f48e a4bd
000001a0: 7d9c 903c e559 953d 2025 b9bc 2f7d c9bc
000001b0: 6c80 4f3d 7bad 273d 84fb 82bd f42b a4bd
000001c0: ebb4 5bbd 526f 16bd 2fcc f73c f719 33bd
000001d0: 1638 5a3c 4034 973d f55a 663d 5a89 90bc
000001e0: 4b89 343d c66e a33d b9ea a3bb 606b cdbc
000001f0: a5cb 6e3d 38c9 d6bc 5f0e 68bd c4b1 713d
00000200: 0a47 273d 305b 36bb 06f7 59bd 2baa 46bd
00000210: effb 233d 2197 943d 5d0d 8e3d 580a d2bc
00000220: 7444 abbd d9fa fcbc ec5a 3d3d e759 113c
00000230: 9123 7e3c 527c 133b b4fe a6bc a271 48bc
00000240: e53f a03d 1353 9d3d 1b1e 68bd b91c b03d
00000250: e5bd b2bc acc4 b2bd 5f5c a03d 633a 01bc
00000260: 7327 abbc 5797 e83c dc51 e93c 1b09 4abd
00000270: 11b4 ba3c f8d2 bc3c 2f9d 8fbd b81d 68bc
00000280: 74f3 84bd f071 a7bd da21 42bd fdea 85bd
00000290: 0a04 913d 3bca 72bd ba64 81bc afa2 45bc
000002a0: 1f11 a5bd d3bd 20bd f190 4dbd 11ca 9fbd
000002b0: daeb 9e3c b8b9 8a3d ff54 1e3d 9ce5 6ebd
000002c0: d98e 653d fb67 9cbd 91e5 78bb d3e1 2abd
000002d0: cfd7 68bd 6192 833d 343d c7bc 4f8e 08bd
000002e0: a315 19bd a894 5fbd c868 9cbc d6b5 ecbc
000002f0: 02bc 713d 9aa7 a0bd c162 bd3c e160 10bd
00000300: 630c 99bd 2d6b b83c ba4c 623c 0f49 62bc
00000310: c2e0 a7bc c4d7 e1bc 8c0b 803c c1ac 4c3d
00000320: c626 8b3d cc7e 8d3d 85b6 81bd 9f39 523d
00000330: 6bf7 16bd e97d 13bd cbc6 163c b6d8 afbd
00000340: b54d 9dbc 0642 ac3d f4b2 1c3d 4a2c 0e3d
00000350: 522b 593d 503a 9cbc 6139 0e3d 3946 a93c
00000360: 7b03 3d3d 72c0 1b3d 374d 75bd be64 2c3c
00000370: 6b13 dcbc ba3d eabc 9fe2 b3bd 743f 7cbd
00000380: e668 0e3d 4af3 e73b 6800 a7bc 831a 343d
00000390: 3f44 3b3b 4dba 393c 4147 d43c 6d30 bbbc
000003a0: 59de 963b 73ba 6f3d 4651 df3c 6cc7 b6bc
000003b0: edf7 103d fecc e8bc 5fb5 203d f7f3 45bd
000003c0: a04b b4bd d329 343d 5e19 653d dde1 40bd
000003d0: d66c 81bc a4c6 83bd 12d0 debc 713c a5bd
000003e0: be70 97bc 4d87 39bb 0a4c e7bc c0db 29bd
000003f0: bb57 b0bc ce5a 66bd 680e a43c 90bc 92bc
-0.046575606 -0.009722076 0.07537545 0.059772924 0.008028195 0.005242446 0.0396148 0.06313548
0.032214805 -0.069550805 -0.049281877 -0.048163712 -0.011224233 0.058950942 0.05765025 -0.05948787
-0.07113923 0.07047817 0.000799178 -0.0147716375 0.058221288 0.028976033 -0.05719828 0.038928937
0.041241597 -0.08030587 0.07557814 0.07643392 -0.07800682 0.07304457 0.064082354 5.2061892e-05
0.0011585115 -0.007919309 -0.042031154 0.008963538 0.01535417 0.072771505 0.07470607 0.032919154
0.01652286 -0.03890329 0.028821047 -0.026269984 -0.045418095 0.026811432 0.07600339 0.039567452
-0.011792119 0.02725309 -0.05750693 -0.0011156797 -0.07024555 -0.049539153 0.059654668 0.064495824
-0.016523493 0.047923896 0.05942799 -0.00734884 0.055705152 -0.085552834 -0.078399025 0.055644818
0.022804258 0.07829243 -0.009126616 0.04603931 -0.068168916 -0.062404614 0.0060095186 0.082298286
-0.02244622 -0.086598486 -0.053878948 0.075953856 -0.016655443 0.041383527 -0.04962447 -0.045047004
-0.020277819 0.06895673 -0.0090425955 -0.02893047 -0.03885793 -0.009281832 -0.0678713 0.068738125
0.013146676 -0.022244189 -0.018532401 -0.016458007 -0.059539776 -0.0110858325 -0.01768272 -0.027323391
-0.014395277 0.035311587 0.04201616 -0.039589737 -0.039742265 -0.037916936 -0.042385515 -0.08035079
0.017652744 0.07292537 -0.02260071 -0.024595825 0.050659582 0.04093693 -0.06395629 -0.08016196
-0.053639334 -0.036727257 0.03024873 -0.043725934 0.013319036 0.07383013 0.056239087 -0.01764362
0.044076245 0.07980113 -0.0050023464 -0.025075614 0.05829968 -0.026218995 -0.05665433 0.05900742
0.040839233 -0.0027825348 -0.053214096 -0.04850213 0.040035184 0.07255388 0.069361426 -0.025639698
-0.08362666 -0.030881332 0.046229288 0.008871532 0.015511409 0.002250452 -0.020385124 -0.012234123
0.07824687 0.07681861 -0.056669336 0.085992284 -0.021819064 -0.087289184 0.078301184 -0.007887456
-0.020892834 0.028392477 0.028481416 -0.04932509 0.02279094 0.023049816 -0.07012402 -0.014167242
-0.064917475 -0.08176029 -0.047395565 -0.06538961 0.070808485 -0.059274893 -0.0157951 -0.012062713
-0.08059906 -0.03924353 -0.050187055 -0.07802213 0.019399572 0.06773704 0.038655277 -0.05832444
0.056044433 -0.0763702 -0.003797863 -0.04171927 -0.056846436 0.06424404 -0.024321176 -0.03333884
-0.03737415 -0.05458513 -0.019092932 -0.0288953 0.05901719 -0.078444675 0.023118379 -0.03524864
-0.07473066 0.022512043 0.013812238 -0.013811364 -0.020492915 -0.027568705 0.015630506 0.04996944
0.06794505 0.0690895 -0.06333641 0.051324483 -0.03685705 -0.03600875 0.009202669 -0.08586256
-0.019202093 0.084110305 0.0382566 0.034710206 0.05301983 -0.019070774 0.03472269 0.020663368
0.046145897 0.038025327 -0.05988809 0.010522066 -0.026864728 -0.028593887 -0.08783459 -0.06158395
0.034768008 0.007078563 -0.020385936 0.043970596 0.0028574613 0.0113359215 0.025912883 -0.02285024
0.0046041426 0.05852742 0.027260434 -0.022311889 0.03539269 -0.02841806 0.03923547 -0.048328366
-0.08803487 0.0439852 0.055932395 -0.0470904 -0.015798967 -0.06434372 -0.027198825 -0.08068169
-0.018486377 -0.0028309405 -0.0282345 -0.041469336 -0.021526208 -0.05623894 0.0200264 -0.01791218
