custom_maze/static/custom_maze/run/room248880/trained_model.pth (torch, 146386 bytes, 12 tensors)

layer1.weight f4 [128, 4]
0	0x3e917eda	0.28417093
1	0xbeecb128	-0.4622891
2	0xbdca0018	-0.09863299
3	0xbebd927c	-0.3702582
4	0x3dcda3b8	0.100409925
5	0xbe803488	-0.25040078
6	0xbdb783f8	-0.08960718
7	0xbef6c5cc	-0.48197782
8	0x3e7730e0	0.24139738
9	0xbdf991a0	-0.12185979
10	0x3ee9b652	0.45646912
11	0xbeb1fb78	-0.34762168
12	0xbec0d4a2	-0.37662226
13	0xbea9bb10	-0.3315053
14	0xbe061a08	-0.13095868
15	0xbe52e3ec	-0.20594758
16	0xbebb5036	-0.36584634
17	0x3e257fc4	0.1616202
18	0x3ead557c	0.33854282
19	0x3d87e130	0.06634748
20	0xbeeecf80	-0.46642685
21	0xbeadab64	-0.33919823
22	0xbea7677e	-0.32696146
23	0x3db5eff8	0.08883661
24	0xbeabcd74	-0.33555186
25	0xbe1104a8	-0.14161932
26	0xbde726b8	-0.11286682
27	0xbe7842f0	-0.24244285
28	0x3e9360a4	0.28784668
29	0xbed8171e	-0.42205137
30	0xbe947c6e	-0.29001182
31	0xbbd3e000	-0.006465912
32	0xbe6f2fd4	-0.23358089
33	0x3d331450	0.043720543
34	0x3e0c75f0	0.13716865
35	0xbbc30280	-0.0059512258
36	0xbe44d470	-0.19221663
37	0xbe01e2f0	-0.12684226
38	0xbde32440	-0.110908985
39	0x3e58abc4	0.21159273
40	0xbeb1a57a	-0.3469656
41	0x3d193190	0.037400782
42	0x3e29de04	0.16588598
43	0xbdfe5280	-0.124180794
44	0x3eb9593a	0.36200887
45	0xbee5c716	-0.44878453
46	0x3ea15332	0.31508785
47	0xbeb428b4	-0.35187304
48	0x3e240974	0.16019231
49	0x3e25de74	0.1619814
50	0x3ebdd43e	0.3707599
51	0xbd863f28	-0.06555015
52	0x3ec863e4	0.3913871
53	0x3d82f678	0.063946664
54	0xbecf94c6	-0.40543193
55	0xbef65aaa	-0.48116046
56	0xbebbdf28	-0.36693692
57	0xbecb0dfa	-0.396591
58	0xbec53496	-0.38516682
59	0xbef8ee40	-0.4861927
60	0xbefc78c0	-0.49310875
61	0xbd913948	-0.07091004
62	0x3e16e8d4	0.14737254
63	0x3eccd694	0.4000746
64	0xbd8bd2d0	-0.06827319
65	0x3e5e9820	0.21737719
66	0xbea2c938	-0.31794143
67	0x3e8baf7c	0.2728232
68	0xbea649c2	-0.32478148
69	0xbe1af138	-0.1513108
70	0x3e207d20	0.15672731
71	0xbec18e56	-0.37803906
72	0x3de39498	0.111123264
73	0x3ecb60e8	0.3972237
74	0xbed46bb2	-0.41488415
75	0x3e044d78	0.12920177
76	0xbe772198	-0.24133909
77	0x3e935112	0.2877279
78	0xbe619fc0	-0.22033596
79	0xbed4456e	-0.4145922
80	0x3e947032	0.28991848
81	0x3ee52904	0.44757855
82	0xbd92d0c0	-0.07168722
83	0x3dfc98e0	0.12333846
84	0xbe04b088	-0.12957966
85	0xbafd0200	-0.0019302964
86	0xbeb32590	-0.34989595
87	0x3d971be0	0.073783636
88	0xbe7ef828	-0.24899352
89	0xbe904a84	-0.2818185
90	0xbee4c580	-0.4468193
91	0x3e0273b8	0.12739456
92	0x3e9c89da	0.30573922
93	0xbefddcfc	-0.4958266
94	0x3ec36bf2	0.38168293
95	0xbeebbbd2	-0.46041733
96	0x3e727c0c	0.23680133
97	0x3cb94b60	0.02261895
98	0x3edd92e0	0.4327612
99	0xbd6b9d20	-0.057522893
100	0x3ddea2a0	0.10870862
101	0xbeb7c84a	-0.35894996
102	0xba9f4800	-0.0012152195
103	0x3ed6be10	0.4194188
104	0x3e276f00	0.16350937
105	0x3d656890	0.05600792
106	0x3ea12920	0.31476688
107	0xbeab2c9e	-0.33432478
108	0xbeb73dee	-0.35789436
109	0x3e87718c	0.26453817
110	0x3ec277c4	0.37982
111	0xbe1bf63c	-0.1523065
112	0x3cb17e00	0.021666527
113	0x3e4e36c8	0.20138085
114	0x3e277854	0.16354495
115	0x3e4daba0	0.20085001
116	0xbeefe842	-0.46856886
117	0x3e09db6c	0.13462609
118	0xbe26ebc0	-0.16300869
119	0xbe96233a	-0.2932375
120	0xbe521798	-0.20516813
121	0x3cdf9ea0	0.027297318
122	0xbef6b7f0	-0.48187208
123	0xbe209614	-0.1568225
124	0xbeb4eff0	-0.35339308
125	0xbe60d400	-0.21955872
126	0xbea388ca	-0.319403
127	0xbe080b3c	-0.13285536
128	0x3e1bcce4	0.15214878
129	0x3ebbc156	0.3667094
130	0x3e8c9210	0.27455187
131	0xbe32e420	-0.17469835
132	0xbe8fdb04	-0.28096783
133	0xbd833bb0	-0.06407869
134	0x3e9f4a96	0.31111592
135	0x3dd26638	0.10273403
136	0xbef9f9a8	-0.48823285
137	0xbef3a150	-0.4758401
138	0xbe809436	-0.25113076
139	0xbefcddb8	-0.49387908
140	0xbefdf058	-0.4959743
141	0x3ed65a5c	0.41865814
142	0x3e987644	0.2977773
143	0xbee644ee	-0.44974464
144	0xbe5f3a38	-0.21799552
145	0xbec8c444	-0.3921224
146	0xbdb9c0e0	-0.09069991
147	0xbedda8fe	-0.43292993
148	0x3ef3ba24	0.47602952
149	0x3e84a470	0.25906706
150	0xbe8dce54	-0.27696478
151	0xbd33eb20	-0.043925405
152	0xbefb5e8a	-0.49095565
153	0x3dc58aa0	0.09645581
154	0x3e31cff8	0.1736449
155	0x3e98bf5c	0.29833496
156	0x3e174a70	0.1477449
157	0x3deafa58	0.114735305
158	0xbc0498c0	-0.008093059
159	0xbed0690c	-0.40705144
160	0x3e0ebfe0	0.13940382
161	0x3e23d4ec	0.15999192
162	0xbe3b0160	-0.18262243
163	0x3cfc9cc0	0.030836463
164	0x3e6ac098	0.22925031
165	0xbc0c00c0	-0.008545101
166	0xbd721940	-0.05910611
167	0xbebb0472	-0.3652683
168	0x3ea44750	0.32085657
169	0x3ef48c9a	0.4776352
170	0xbd4c6f30	-0.049910724
171	0xbe98d974	-0.29853404
172	0xbede0932	-0.4336639
173	0xbe04f9b8	-0.12985885
174	0xbef5d758	-0.48015857
175	0x3e642170	0.2227838
176	0xbea3d630	-0.3199935
177	0x3e0e8ce8	0.13920939
178	0xbed404be	-0.41409868
179	0xbdbac0b0	-0.091187835
180	0xbed2bae6	-0.41158217
181	0xbeaa5748	-0.33269715
182	0x3ef39bea	0.4757989
183	0xbd423390	-0.047412455
184	0xbedf0b18	-0.4356315
185	0x3db38bb0	0.08766878
186	0xbeec04f6	-0.46097535
187	0xbec6e078	-0.3884313
188	0xbe1ebfd0	-0.15502858
189	0x3e73c3ac	0.23805112
190	0xbe885d7c	-0.26633823
191	0xbd6c8e40	-0.057752848
192	0x3e256900	0.16153336
193	0x3d4e2e30	0.050337017
194	0xbe4f84d8	-0.2026552
195	0xbec8ed8a	-0.39243728
196	0xbe30bee0	-0.17260313
197	0x3e9ef42c	0.31045663
198	0xbe98b452	-0.29825073
199	0x3ef3647e	0.47537607
200	0x3eb160ce	0.3464417
201	0x3ec7eb0c	0.39046514
202	0x3e49e7a4	0.1971727
203	0xbe0d8508	-0.13820279
204	0x3ec9b1c8	0.3939345
205	0x3eea93c6	0.45815867
206	0x3e870480	0.2637062
207	0xbecc792a	-0.3993619
208	0xbe9f591c	-0.31122673
209	0x3ecf1512	0.40445763
210	0xbd000640	-0.03125596
211	0x3efc762e	0.49308914
212	0xbe36400c	-0.1779787
213	0x3cb1d480	0.021707773
214	0xbef28112	-0.47364098
215	0x3d7974a0	0.060902238
216	0xbeab0dea	-0.33409053
217	0xbe9ad1d2	-0.30238205
218	0x3ec8c8ec	0.3921579
219	0x3d971cb0	0.073785186
220	0x3e906556	0.28202313
221	0x3ef9f2c0	0.48818016
222	0x3d7d6740	0.061866045
223	0x3ec6a0a6	0.3879444
224	0x3eb435a8	0.35197186
225	0x3eb3ee1e	0.35142606
226	0x3d9fec20	0.07808709
227	0x3e3ea524	0.18617684
228	0xbe4a377c	-0.19747728
229	0xba8a4400	-0.001054883
230	0xbe88149c	-0.26578224
231	0xbd2ada30	-0.041711986
232	0xbe0ae5e0	-0.13564253
233	0x3e246b5c	0.1605658
234	0x3e1f59f4	0.15561658
235	0xbea2b004	-0.31774914
236	0xbddbadf0	-0.10726535
237	0xbda196d0	-0.07890093
238	0x3e954822	0.29156595
239	0x3eb0c7e4	0.34527504
240	0x3ec2bde6	0.38035506
241	0xbeb87bf8	-0.3603208
242	0x3efbc450	0.49173212
243	0xbeb7a246	-0.35865992
244	0x3d6ecdb0	0.058301628
245	0xbd8e6420	-0.06952691
246	0x3e6caf14	0.23113662
247	0xbdf0c440	-0.11756182
248	0x3d4f5d40	0.05062604
249	0x3eabb030	0.33532858
250	0x3ebfd8cc	0.3747009
251	0xbee072f6	-0.43837708
252	0xbecbdb00	-0.3981552
253	0x3e840680	0.2578621
254	0xbeff3f6e	-0.4985308
255	0x3e0f3998	0.13986814

layer1.bias f4 [128]
0	0x3ed39d04	0.4133073
1	0x3b85f480	0.0040879846
2	0x3e49bd18	0.1970104
3	0xbe0399ec	-0.12851685
4	0x3e3dab70	0.1852243
5	0x3ebbd6e4	0.36687386
6	0x3e6361e8	0.22205317
7	0x3d90c7c0	0.07069349
8	0x3e7eb570	0.248739
9	0x3d5f7670	0.05455631
10	0x3e835142	0.25647932
11	0xbea88fc4	-0.32922184
12	0xbea32018	-0.31860423
13	0xbdfdbff8	-0.12390131
14	0xbeb323be	-0.34988207
15	0xbec79f64	-0.38988793
16	0x3eec9930	0.46210623
17	0x3e0776d8	0.13228929
18	0x3ebabe8c	0.364735
19	0xbe5c5d60	-0.21519995
20	0x3e8f06e4	0.27934945
21	0x3e3d0614	0.1845935
22	0xbed18e6a	-0.40928966
23	0x3eda94c4	0.42691624
24	0x3e892026	0.2678234
25	0xbcb26fa0	-0.021781743
26	0x3eda1100	0.42591095
27	0x3d722da0	0.059125543
28	0x3eca2f2a	0.39489108
29	0xbd051d00	-0.03249836
30	0xbd2fb390	-0.042895854
31	0x3d56b2d0	0.052416623
32	0x3ef2c76e	0.47417778
33	0x3dc68928	0.09694129
34	0xbde30ed8	-0.110868156
35	0x3d8815b8	0.066447675
36	0x3edd5090	0.43225527
37	0x3d29d590	0.041463435
38	0xbef5513a	-0.47913533
39	0xbde076b8	-0.10960144
40	0x3e5c13b0	0.21491885
41	0x3ee647c0	0.44976616
42	0x3e83d84a	0.25750953
43	0x3ca44be0	0.020055711
44	0xbd825a78	-0.06364912
45	0x3dba1c78	0.09087461
46	0xbe80594c	-0.25068128
47	0x3e8a5d86	0.27024478
48	0xbe4c41b4	-0.19946939
49	0xbeda4c76	-0.4263646
50	0x3e6f2ddc	0.23357338
51	0x3ec6d9a2	0.38837916
52	0xbd4c6e00	-0.04990959
53	0x3e90298a	0.28156692
54	0xbead7144	-0.33875477
55	0x3eab5038	0.3345964
56	0xbdfe6aa0	-0.12422681
57	0xbe7ef7d8	-0.24899232
58	0x3e4dc690	0.20095277
59	0x3e83eb80	0.2576561
60	0xbec7a576	-0.38993424
61	0xbe9992c0	-0.29994774
62	0x3ef96d18	0.48716044
63	0xbeb65f5e	-0.35619634
64	0x3e066388	0.13123906
65	0xbefb8a0c	-0.4912876
66	0xbde50980	-0.111834526
67	0xbea1287a	-0.31476194
68	0xbe459ae4	-0.19297367
69	0xbd659fe0	-0.05606067
70	0xbe2126c8	-0.1573745
71	0x3e933e58	0.28758502
72	0xbeacf93e	-0.33783907
73	0x3ef4a0a2	0.47778803
74	0x3ec36cda	0.38168985
75	0x3d03d4b0	0.032185256
76	0x3ee05bca	0.4382003
77	0xbe2d307c	-0.16913027
78	0xbe92e754	-0.28692114
79	0x3cd3f3c0	0.025873065
80	0x3e65d8bc	0.22445959
81	0x3d73a640	0.05948472
82	0xbec4e196	-0.38453358
83	0xbee8fd7c	-0.45505893
84	0xbeeef92c	-0.46674478
85	0xbd6ea670	-0.058264196
86	0x3ec59f36	0.3859803
87	0xbe089b60	-0.13340521
88	0x3df4d160	0.119539976
89	0x3ee287ba	0.44244176
90	0x3e701038	0.23443687
91	0xbeaeae54	-0.34117377
92	0xbecce3f8	-0.40017676
93	0x3eac9dc6	0.33714122
94	0x3ef6a214	0.4817053
95	0x3e8f7c50	0.2802453
96	0x3e004b80	0.12528801
97	0xbecf9734	-0.40545046
98	0xbd651bb0	-0.055934608
99	0xbe211908	-0.15732205
100	0x3e9eda38	0.31025863
101	0xbe9c944c	-0.30581892
102	0xbe8f758c	-0.2801937
103	0x3eeae39e	0.45876783
104	0xbe3ae730	-0.18252254
105	0x3e2baa48	0.16764176
106	0x3d0e73b0	0.034778297
107	0xbebff786	-0.37493533
108	0x3e6f1fdc	0.23351997
109	0xbefc0e3a	-0.49229604
110	0x3e03d94c	0.12875861
111	0x3dfad468	0.122475445
112	0x3ec74ff2	0.3892818
113	0xbe7156a0	-0.23568201
114	0x3d5cadb0	0.05387658
115	0xbe2d5088	-0.16925251
116	0x3edeb5d4	0.434981
117	0x3eb020e6	0.344001
118	0xbdbe9290	-0.09305298
119	0x3eebd81c	0.46063316
120	0x3e2fed34	0.1718033
121	0x3ed97136	0.42469186
122	0xbe5ae538	-0.21376503
123	0x3bf84100	0.007576108
124	0xbdc605e8	-0.09669095
125	0x3eff655e	0.49882025
126	0xbc5e0ec0	-0.013553321
127	0xbe88b37e	-0.26699442

layer2.weight f4 [128, 128]
0	0xbd418033	-0.0472414
1	0x3d9ec419	0.077522464
2	0xbdaa09b0	-0.08302629
3	0xbcf0d23b	-0.02939712
4	0xbd5e0d98	-0.054212183
5	0xbda9b8d5	-0.08287207
6	0xbd58b541	-0.052907232
7	0x3c91e687	0.01781012
8	0x3d504d7c	0.050855145
9	0xbd0f7649	-0.035024915
10	0x3d13b3d1	0.03606016
11	0x3daa1be3	0.083061
12	0x3d9e215c	0.077212065
13	0xbcc95fd1	-0.024581822
14	0xbd9d3e78	-0.076779306
15	0x3d5494af	0.05189961
16	0xbd249b88	-0.04018739
17	0x3d6dbea8	0.058043152
18	0x3d9874bf	0.074441426
19	0x3d59b90d	0.053154994
20	0xbdadb817	-0.08482378
21	0xbd9c437e	-0.076300606
22	0x3ccd1d87	0.025038494
23	0xbda3c1cb	-0.079959475
24	0x3d2e1600	0.04250145
25	0x3d908246	0.07056098
26	0x3d2e2175	0.042512376
27	0x3d6ddca5	0.05807175
28	0x3d98ccdc	0.07460949
29	0xbcbfb612	-0.023402248
30	0x3b2b9387	0.0026180462
31	0x3d7a784a	0.061149873
32	0x3c071c2c	0.008246463
33	0x3d63df6a	0.055632986
34	0xbcd57ecd	-0.02606144
35	0x3d9262cc	0.0714775
36	0xbdb33e6e	-0.08752142
37	0x3d356f1d	0.04429542
38	0xbcf1695a	-0.02946918
39	0x3d8813a0	0.06644368
40	0x3d97b3b2	0.07407321
41	0xbd283ff9	-0.041076634
42	0xbcc634ec	-0.024195157
43	0xbbd4c1c8	-0.006492827
44	0xbda1d4e8	-0.07901937
45	0x3d95b1e1	0.07309318
46	0x3c0dd9de	0.008657901
47	0xbd894335	-0.06702272
48	0xbd1a8911	-0.037728373
49	0xbd2ddc43	-0.042446386
50	0x3d9d6db3	0.07686939
51	0x3cce4c2b	0.025182804
52	0x3cfca6d0	0.030841261
53	0xbce25f39	-0.027633296
54	0x3d60ee94	0.054915026
55	0x3b9ad5c1	0.0047251885
56	0x3cf02acd	0.029317284
57	0x3c14bb67	0.009077883
58	0x3d7cd600	0.061727524
59	0x3d99e458	0.07514256
60	0x3c2ab136	0.010418227
61	0xbd23d42f	-0.039997276
62	0x3d83136a	0.06400187
63	0xbda42c7b	-0.080162965
64	0x3c1611bb	0.009159501
65	0x3c0511cc	0.008121919
66	0x3c6d50fa	0.014484638
67	0x3d56b9ac	0.052423164
68	0x3daa638b	0.083197676
69	0x3da42a9d	0.0801594
70	0xbd4e25d5	-0.05032905
71	0xbd5a60ab	-0.053314846
72	0xbda2d99f	-0.07951664
73	0x3dafcdf3	0.085842036
74	0x3bb04e18	0.0053804033
75	0x3d2d0865	0.042244334
76	0xbd8c7bc4	-0.06859544
77	0xbd86d21a	-0.065830424
78	0xbd7cb850	-0.06169921
79	0xbc788046	-0.0151673015
80	0x3d28d04d	0.041214276
81	0xbd33d5ef	-0.043905195
82	0x3d076520	0.033055425
83	0x3babbb20	0.005240813
84	0x3c943a28	0.018094137
85	0xbd86543d	-0.06559036
86	0xbcaa1b48	-0.020764962
87	0x3d98ce0b	0.074611746
88	0x3cc857de	0.02445596
89	0xbd1b4d47	-0.037915494
90	0xbdad88b3	-0.08473339
91	0xb9effada	-0.0004577253
92	0xbc857a46	-0.016293656
93	0x3d41b6ec	0.04729359
94	0x3d7af33c	0.061267123
95	0xbc73d74c	-0.014882874
96	0xbd0b1a8a	-0.033960856
97	0xbd09ef55	-0.03367551
98	0x3da838c2	0.08213951
99	0x3dadf245	0.08493475
100	0xbd6cd1fa	-0.057817437
101	0x3d1df353	0.03856213
102	0xbda0df75	-0.07855121
103	0xbda20f95	-0.07913128
104	0xbd90c611	-0.07069028
105	0xbd96b069	-0.07357866
106	0xbcb8feb8	-0.022582397
107	0xbdb134d2	-0.08652653
108	0x3d011670	0.03151554
109	0x3d944e59	0.07241506
110	0xbd124772	-0.035712667
111	0x3d90fa7b	0.07079025
112	0xbd473f94	-0.048644617
113	0x3d832823	0.0640414
114	0x3d27f932	0.041009136
115	0xbc0c9a36	-0.008581689
116	0x3b815564	0.003946947
117	0xbd97ead4	-0.07417837
118	0xbd78632f	-0.060641464
119	0x3db0da55	0.086353935
120	0xbda98872	-0.08277978
121	0xbd205d86	-0.03915169
122	0xbbce03bc	-0.0062870663
123	0x3d6f3a08	0.058404952
124	0xbd64b161	-0.055833224
125	0xbda5dcbf	-0.080987446
126	0xbc9b8c74	-0.018987872
127	0xbc296f58	-0.010341488
128	0x3d73bbad	0.059505153
129	0x3c0b3508	0.00849653
130	0xbd483fb4	-0.048888877
131	0xbd836925	-0.06416539
132	0xbd120486	-0.035648845
133	0x3d912c4d	0.07088528
134	0x3d6a77e5	0.057243247
135	0x3b88ea66	0.004178333
136	0x3d1cbcd7	0.03826603
137	0xbc90bc05	-0.01766778
138	0x3d0583be	0.032596342
139	0xbce79517	-0.028269334
140	0x3d228fda	0.03968797
141	0xbd708ad9	-0.058726165
142	0x3d81af7f	0.06332301
143	0xbd526e28	-0.051374584
144	0xbc97c582	-0.018526796
145	0xbdace473	-0.08442011
146	0x3d9af2fa	0.07565875
147	0xbd5d9e45	-0.054106016
148	0xbb885084	-0.004159989
149	0x3d2eaf00	0.04264736
150	0x3ccf2b70	0.025289267
151	0xbdb3c55d	-0.087778784
152	0x3d54a0ae	0.05191105
153	0xbd37da96	-0.044886194
154	0xbdafb939	-0.0858025
155	0x3c865d68	0.016401961
156	0x3d81e417	0.06342333
157	0x3bd2284f	0.0064134966
158	0x3d6555a1	0.055989865
159	0x3db322e8	0.08746892
160	0xbd9a1944	-0.0752435
161	0x3d808dcc	0.062770456
162	0x3d1acce2	0.037793048
163	0x3d00210c	0.031281516
164	0xbbb92657	-0.0056503224
165	0xbc73dbb7	-0.014883927
166	0x3d707fb6	0.058715545
167	0x3d88cbc0	0.06679487
168	0x3d48a88b	0.04898886
169	0x3d08a4cb	0.033360284
170	0x3ce30d81	0.0277164
171	0x3daf83c6	0.08570056
172	0xbd96ac1a	-0.073570445
173	0x3d96ebf6	0.07369225
174	0x3cdd5c71	0.027021619
175	0xbcfe5111	-0.031044515
176	0x3c8cb73f	0.017177222
177	0xbd835071	-0.06411827
178	0x3cbf6ebe	0.023368236
179	0x3ca734e3	0.02041096
180	0xbd0cf050	-0.034408867
181	0x3dac8b05	0.08424953
182	0x3d699473	0.057026338
183	0xb9e30959	-0.00043303779
184	0x3db4748d	0.08811293
185	0x3afe8f50	0.0019421373
186	0xbc5d168d	-0.013494146
187	0x3daf229b	0.08551522
188	0x3d9ce99d	0.07661746
189	0x3d82605d	0.06366036
190	0x3ba26dae	0.0049569225
191	0xbcc62dfc	-0.024191849
192	0x3cf9057a	0.03039812
193	0xbd1ff46c	-0.03905146
194	0x39da915c	0.000416885
195	0xbd42418f	-0.047425803
196	0xbb308abb	-0.0026938159
197	0x3be424fc	0.0069624167
198	0xbdad1cbb	-0.084527455
199	0xbd0e5391	-0.034747664
200	0xbcbd25b3	-0.023089265
201	0x3d21522f	0.039385017
202	0x3d35eab4	0.044413283
203	0xbd863c21	-0.065544374
204	0xbdaff0fc	-0.08590886
205	0xbd5234b4	-0.051319793
206	0xbd905712	-0.07047857
207	0x3d049c95	0.03237589
208	0xbb5b00e8	-0.0033417288
209	0x3db36390	0.087592244
210	0xbd8659ec	-0.0656012
211	0x3cea005d	0.028564626
212	0x3da72435	0.08161203
213	0xbdb116a7	-0.08646899
214	0xbccd5038	-0.025062665
215	0xbd91276d	-0.07087598
216	0xbd7468dd	-0.059670318
217	0xbdab42bf	-0.0836234
218	0xbcc2cb56	-0.023778599
219	0x3d3bc061	0.045837764
220	0xbc90e322	-0.01768643
221	0x3d39b55a	0.045338966
222	0x3d975ef8	0.07391161
223	0xbc329ebd	-0.010902104
224	0x3d866b01	0.06563378
225	0xbc3bf797	-0.011472604
226	0xbd899bdf	-0.06719183
227	0x3da2895a	0.07936354
228	0x3d0cbed3	0.03436167
229	0x3ca8144f	0.020517496
230	0x3d77bed9	0.06048474
231	0x3c891e21	0.016738
232	0xba90f49c	-0.0011059227
233	0xbce7c899	-0.028293895
234	0x3d4d577d	0.050132263
235	0xbd729d7f	-0.05923223
236	0x3c882dcd	0.016623402
237	0x3cca5907	0.024700655
238	0x3db4294a	0.08796938
239	0x3c823f44	0.015899308
240	0xbd49d179	-0.049272034
241	0x3d896bdf	0.06710028
242	0xbc931c82	-0.01795793
243	0xbca986d5	-0.020694176
244	0x3c5e50a3	0.01356903
245	0x3c7ad321	0.015309126
246	0xbdb4ad4d	-0.08822117
247	0x3c2a7855	0.010404666
248	0x3d41eda5	0.047345776
249	0xbd5b74a1	-0.053578023
250	0xbcbe85a4	-0.023257084
251	0x3d48841b	0.04895411
252	0xbd8bbcbf	-0.0682311
253	0xbd3f60db	-0.046723228
254	0xbc599289	-0.013279566
255	0x3c063997	0.008192441

layer2.bias f4 [128]
0	0xbd1cb140	-0.038254976
1	0xb7531245	-1.2580834e-05
2	0xbd4010c5	-0.046890993
3	0x3d732625	0.05936255
4	0xbda83d81	-0.08214856
5	0xbc4aa7fb	-0.012369151
6	0xbd30b62c	-0.043142483
7	0xbd1060ba	-0.035248496
8	0xbd83d89b	-0.064377986
9	0xbdae236a	-0.085028484
10	0x3a1f6503	0.00060804206
11	0xbc22b792	-0.009931462
12	0x3c60a16a	0.013710359
13	0x3d5ed4c7	0.05440214
14	0x3c2b34f4	0.010449637
15	0xbc9bb790	-0.019008428
16	0xbd3f41cc	-0.04669361
17	0xbdae0ef6	-0.08498947
18	0x3c461f17	0.012092373
19	0x3b476f95	0.0030431498
20	0x3dac5b93	0.08415904
21	0x3c9f6f9e	0.019462403
22	0x3cf665e1	0.030077877
23	0xbd4c141f	-0.049823876
24	0xbd7f1a4b	-0.062280934
25	0xbd3c4c90	-0.045971453
26	0xbd4ef0f5	-0.050522763
27	0xbd944c0a	-0.07241066
28	0x3cf1d0c4	0.029518493
29	0xbcbc2f5c	-0.022971801
30	0x3c6d01b2	0.014465736
31	0xbcae2c08	-0.02126123
32	0xbc95fb64	-0.018308349
33	0x3db38840	0.08766222
34	0xbd86cd90	-0.06582177
35	0x3c991091	0.018684657
36	0xbdac24b9	-0.08405442
37	0x3c90e650	0.017687947
38	0x3d9ad97c	0.07561013
39	0x3bb44a73	0.005502039
40	0x3c852933	0.016254997
41	0xbd6bb90e	-0.05754953
42	0x3d9754c3	0.07389214
43	0xbd68916b	-0.056779306
44	0x3c0cc8bf	0.0085927835
45	0x3d021e57	0.031767216
46	0x3d5b3e9a	0.0535265
47	0xbd720d56	-0.05909475
48	0x3cb7407e	0.02236962
49	0x3d0480dd	0.032349456
50	0x3d1ee04c	0.038788125
51	0x3d68da70	0.056848943
52	0x3cc9b6a9	0.024623232
53	0x3d0c3ef0	0.03423971
54	0xbc91c6dd	-0.01779502
55	0x3db3b882	0.087754264
56	0x3c57224b	0.013130735
57	0x3d9c0a2a	0.07619126
58	0x3d3426b0	0.043982208
59	0xbc04a05a	-0.008094871
60	0xbce0bcd6	-0.027433794
61	0xbdaea27a	-0.08527084
62	0x3d0d3010	0.034469664
63	0x3d27c3bb	0.040958147
64	0xbc769dfc	-0.015052315
65	0x3b23f965	0.0025020477
66	0xbd6b7168	-0.0574812
67	0x3d7a6595	0.061132032
68	0x3d75be73	0.05999608
69	0x3d10fcc3	0.035397302
70	0x3db333d5	0.087501206
71	0x3d9c16d2	0.0762154
72	0xbd4de11f	-0.05026352
73	0xbd4da9de	-0.050210826
74	0x3d0915ad	0.033467937
75	0x3cd7db22	0.026349608
76	0x3d1f543d	0.038898695
77	0xbdafe56c	-0.085886806
78	0xbcac9172	-0.021065447
79	0x3d3b8c49	0.045788083
80	0xbccb4bb9	-0.02481638
81	0x3da8ac20	0.08235955
82	0xbc7c8c8a	-0.0154143665
83	0x3d3b1d0c	0.045681998
84	0x3dac0301	0.083990104
85	0xbd4974c7	-0.049183633
86	0xbd64f390	-0.05589634
87	0xbd804631	-0.06263388
88	0xbce1022d	-0.027466858
89	0xbcec1dcf	-0.028822808
90	0x3d6e3fa3	0.058166157
91	0xbd9d2bd0	-0.07674372
92	0xbda92bbe	-0.08260296
93	0xbda73edd	-0.08166287
94	0xbd9d244e	-0.0767294
95	0xbd5f1e1b	-0.05447207
96	0xbd803bee	-0.06261431
97	0x3cc1a44b	0.023637911
98	0x3d97eb3b	0.074179135
99	0x3cb8a4c9	0.022539513
100	0xbd8ed627	-0.0697444
101	0x3cd25201	0.025673868
102	0xbd5d9076	-0.054092847
103	0xbcf8df45	-0.0303799
104	0xbd162754	-0.0366586
105	0xbdb269f3	-0.087116145
106	0x3b9ab5c2	0.0047213743
107	0xbd6c720d	-0.057725955
108	0xbd19e288	-0.037569553
109	0x3d8823ad	0.066474296
110	0xbd812c9f	-0.06307339
111	0xbc255358	-0.0100906715
112	0x3cd89c1c	0.026441626
113	0x3c77fc17	0.0151357865
114	0xbda8c7af	-0.082412116
115	0x3d534bf7	0.051586118
116	0xbca35c87	-0.019941581
117	0xbdb012e4	-0.08597353
118	0x3d775a13	0.060388636
119	0xbda37112	-0.07980551
120	0x3bcbaed9	0.006215912
121	0x3d2d8538	0.042363375
122	0xbd09b721	-0.03362191
123	0x3d5c5ed6	0.05380138
124	0xbc82f52b	-0.015986046
125	0xbd75d2bc	-0.060015425
126	0x3da597ec	0.080856174
127	0x3d83c105	0.064333

layer3.weight f4 [4, 128]
0	0x3da5fa03	0.081043266
1	0xbcdfaf7f	-0.027305363
2	0xbd12e83a	-0.035866
3	0xbd3d91be	-0.04628157
4	0xbc6780df	-0.014129846
5	0x3d9ce51e	0.07660888
6	0xbd7f8147	-0.062379148
7	0x3cd2a65f	0.025714098
8	0x3d63d7d6	0.05562576
9	0x3c670094	0.014099259
10	0xbdb4216d	-0.08795438
11	0xbd8ac26d	-0.06775365
12	0xbccfa3ab	-0.025346598
13	0xbd0de1e9	-0.034639273
14	0xbd1722e5	-0.036898512
15	0x3cf01613	0.0293074
16	0x3d03d024	0.03218092
17	0xbd2190b5	-0.039444644
18	0xbd877617	-0.06614321
19	0x3cf93e06	0.030425083
20	0xba980a57	-0.0011599761
21	0xb958e7ae	-0.00020685673
22	0x3d250efd	0.040297497
23	0x3bddb15d	0.006765528
24	0xbd4a77f7	-0.049430814
25	0xbc8fb872	-0.017544005
26	0x3c8033d5	0.015649715
27	0xbc06ce7a	-0.008227939
28	0xbda74837	-0.08168071
29	0x3db3b688	0.087750494
30	0x3d96aaab	0.07356771
31	0x3cb71c24	0.022352286
32	0xbd362e17	-0.04447755
33	0xbd9fc260	-0.07800746
34	0x3d8db627	0.069195084
35	0xbcf1c95d	-0.029514963
36	0xbd412f1d	-0.04716407
37	0x3da48f24	0.080351144
38	0x3b94f617	0.0045459378
39	0xbd9b6a5e	-0.07588647
40	0xbd053fe7	-0.032531645
41	0x3cc587b4	0.02411256
42	0xbc679b9c	-0.014136221
43	0xbd9c2cc1	-0.07625724
44	0x3d49efd0	0.04930097
45	0x3d96d0ad	0.073640205
46	0xbc19f30a	-0.009396324
47	0x3daad3a4	0.083411485
48	0x3ca804d7	0.02051012
49	0xbcd09dcf	-0.025465874
50	0x3a07a110	0.00051738415
51	0x3c871788	0.016490713
52	0xbd30ec03	-0.04319383
53	0x3c255fda	0.010093654
54	0xbd31dcdf	-0.04342353
55	0x3d92386c	0.07139668
56	0x3d0f86a3	0.03504051
57	0x3d8609a9	0.06544811
58	0xbcd088ed	-0.025455916
59	0xbd9dc9da	-0.07704516
60	0x3d8f7057	0.07003849
61	0xbdb14705	-0.08656124
62	0xbd83bf1d	-0.06432936
63	0x3d8b31f9	0.06796641
64	0xbd88726e	-0.06662451
65	0x3ca6ac59	0.020345854
66	0xbd741c68	-0.059597403
67	0x3d7bc545	0.061467428
68	0x3d1077dc	0.035270557
69	0xbd0edcd2	-0.03487856
70	0x3ce5a97f	0.028034924
71	0x3d8c8d87	0.06862932
72	0xbd484a0f	-0.048898753
73	0xbdb077c4	-0.086165935
74	0x3c2d2d4c	0.010569882
75	0xbd770d85	-0.060315628
76	0x3baaf0b7	0.0052166837
77	0xbd3cc0a9	-0.046082173
78	0xbd2716c7	-0.040793207
79	0xbd431737	-0.04762956
80	0x3d9d78d8	0.07689065
81	0xbd089dd5	-0.033353645
82	0x3d279428	0.040912777
83	0x3d66c462	0.05633963
84	0xbc8125a9	-0.015765028
85	0xbd2fad59	-0.042889927
86	0xbd1ab47f	-0.03776979
87	0x3b076fbe	0.0020665969
88	0xbd94bd5e	-0.072626814
89	0x3d0cac8a	0.034344234
90	0xbd09ef85	-0.03367569
91	0x3dac7b28	0.08421928
92	0xbd5524de	-0.052037112
93	0x3cd8fa00	0.026486397
94	0x3dafcdf4	0.08584204
95	0x3ccba230	0.02485761
96	0xbca7605f	-0.020431696
97	0x3d4eff71	0.050536577
98	0x3d88a01c	0.066711634
99	0x3cddaf6b	0.027061185
100	0xbca8344e	-0.020532753
101	0x3d9c47fb	0.07630917
102	0x3ce5c8cf	0.028049855
103	0xbdb07303	-0.08615687
104	0xbcb2930d	-0.021798635
105	0xbd8cf599	-0.068827815
106	0x3d1e3eca	0.0386341
107	0xbbe0978f	-0.0068540047
108	0x3da80702	0.08204462
109	0x3d63c8be	0.055611365
110	0xbce07eca	-0.027404208
111	0xbd81f653	-0.06345811
112	0xbd0addd1	-0.033902947
113	0xbd38fb32	-0.045161434
114	0xbc1b62e9	-0.009484031
115	0xbc8007ec	-0.015628777
116	0xbd779bca	-0.060451306
117	0x3d8d84b6	0.06910078
118	0x3c7e63d4	0.015526731
119	0x3ce8856b	0.028383931
120	0x3da6f468	0.081520855
121	0x3cb4bdd2	0.02206317
122	0xbcb4191b	-0.021984627
123	0xbc135995	-0.008993526
124	0x3d980d5c	0.07424423
125	0xbaeb9d9f	-0.0017976052
126	0x3d52347b	0.05131958
127	0x3cdb14a3	0.026743239
128	0xbca83843	-0.02053464
129	0x3db238d2	0.08702244
130	0xbcd87844	-0.026424535
131	0x3d8984d6	0.067147896
132	0xbd396e93	-0.045271467
133	0x3c9cd317	0.019143624
134	0x3cd90e10	0.026495963
135	0x3d8e6a6d	0.06953893
136	0x3cb2f715	0.021846334
137	0xbd71d623	-0.059042107
138	0x3d1679b2	0.03673715
139	0x3cadf20c	0.021233581
140	0x3cd13b35	0.025540927
141	0x3a9a32f1	0.0011764449
142	0x3d8af555	0.067850746
143	0x3d28bf2f	0.041197952
144	0x3d9a7900	0.0754261
145	0x3a074e55	0.00051615137
146	0xbd3d5223	-0.04622091
147	0xbda61fba	-0.0811152
148	0xbd2ffd96	-0.042966448
149	0x3da82219	0.082096286
150	0xbc1ebecc	-0.009689044
151	0xbbacc160	-0.0052720755
152	0x3d9cb69d	0.07652018
153	0x3c8fb7ea	0.017543752
154	0x3ce7bfdf	0.028289733
155	0x3c979c46	0.018507134
156	0x3d531e6a	0.051542677
157	0xbd791a7b	-0.06081627
158	0xbc5b5113	-0.013386029
159	0xbd72dae2	-0.059290774
160	0xbd2fe933	-0.042947005
161	0x3d768baa	0.060191788
162	0x3d8335ed	0.0640677
163	0xbd37e528	-0.044896275
164	0x3db0165c	0.08598015
165	0x3cb514af	0.02210459
166	0x3c73c77a	0.014879102
167	0xbc0ea923	-0.0087073175
168	0x3c786129	0.015159884
169	0xbdb07d91	-0.086177
170	0xbd453298	-0.048143953
171	0xbdaa65dc	-0.083202094
172	0xbd9390fb	-0.07205387
173	0xbd1e870e	-0.038703017
174	0xbd2e5092	-0.042557307
175	0xbd8a3037	-0.067474775
176	0xbcd57306	-0.026055824
177	0xbd6cc942	-0.057809122
178	0xbd29947d	-0.041401375
179	0xbc068a49	-0.008211681
180	0xbd6755af	-0.0564782
181	0xbd81fc3f	-0.0634694
182	0xbcf682fb	-0.030091753
183	0xbd86a6d6	-0.0657479
184	0x3c9721e1	0.018448772
185	0x3b0fd696	0.0021947972
186	0xbb827a39	-0.003981855
187	0xbc849fc1	-0.016189458
188	0xbc14d8e1	-0.009084911
189	0xbd552103	-0.052033436
190	0xbd54e4f9	-0.051976178
191	0x3d857ae3	0.065175794
192	0xbc14fef9	-0.009093993
193	0xbd0d055c	-0.03442894
194	0xbdac4826	-0.08412199
195	0x39445da2	0.00018726898
196	0x3d8c8508	0.06861311
197	0xbd635e31	-0.05550975
198	0x3daaad9c	0.083338946
199	0xbd1643ab	-0.036685627
200	0xbd639e92	-0.055571146
201	0xbd650260	-0.055910468
202	0x3da8310f	0.08212482
203	0x3d24cf73	0.0402369
204	0x3d8cf048	0.068817675
205	0x3d9f20ea	0.0776995
206	0x3d2304e4	0.039799586
207	0xbd4a9e94	-0.049467638
208	0xbc4fc5c4	-0.012681428
209	0xbd3f447e	-0.04669618
210	0x3c80a17a	0.015701998
211	0x3cc79a30	0.024365515
212	0xbc100645	-0.008790557
213	0xbcfab930	-0.030605882
214	0x3d1f7f8f	0.03894001
215	0x3c65b17f	0.014019369
216	0x3c1674a3	0.009183082
217	0xbbc44077	-0.00598913
218	0x3c9ed2a4	0.01938755
219	0x3da98f61	0.082793005
220	0x3c1f2943	0.009714427
221	0xbd93099c	-0.07179567
222	0x3d4169fe	0.047220223
223	0x3c7fb359	0.015606725
224	0x3d7f5fc4	0.06234719
225	0x3bb06064	0.0053825844
226	0x3c7ac93b	0.015306766
227	0xbd045982	-0.032311924
228	0xbcb79d90	-0.022413999
229	0xbcee05bc	-0.029055469
230	0xbd71f162	-0.05906809
231	0xbcaa5c72	-0.020796034
232	0xbd94fce6	-0.07274799
233	0xbd0f290c	-0.034951255
234	0x3cde6ebc	0.027152412
235	0xbc7af3ec	-0.015316945
236	0x3daa40d9	0.0831315
237	0x3cadd3b0	0.021219105
238	0xbd79f7af	-0.061027225
239	0xbd8d040b	-0.06885537
240	0x3da6e30f	0.08148777
241	0xbcabbdcd	-0.020964528
242	0x3cd1b12e	0.025597181
243	0xbcd7ecca	-0.026358027
244	0xbd7db044	-0.061935678
245	0xbd5c37e1	-0.053764228
246	0x3c0f455d	0.008744565
247	0x3d15e8af	0.036598857
248	0xbcad6013	-0.021163976
249	0x3db1f175	0.086886324
250	0x3ce8ee89	0.028434055
251	0xbd6c7399	-0.05772743
252	0x3d2a7055	0.041611034
253	0x3d849f1b	0.064756595
254	0xbc5da837	-0.013528875
255	0xbd3d49b8	-0.04621288

layer3.bias f4 [4]
0	0x3d805229	0.06265671
1	0x3d358ea3	0.044325482
2	0x3d906470	0.07050407
3	0xbc7d116e	-0.01544605

layer1.weight f4 [128, 4]
0	0x3e917eda	0.28417093
1	0xbeecb128	-0.4622891
2	0xbdca0018	-0.09863299
3	0xbebd927c	-0.3702582
4	0x3dcda3b8	0.100409925
5	0xbe803488	-0.25040078
6	0xbdb783f8	-0.08960718
7	0xbef6c5cc	-0.48197782
8	0x3e7730e0	0.24139738
9	0xbdf991a0	-0.12185979
10	0x3ee9b652	0.45646912
11	0xbeb1fb78	-0.34762168
12	0xbec0d4a2	-0.37662226
13	0xbea9bb10	-0.3315053
14	0xbe061a08	-0.13095868
15	0xbe52e3ec	-0.20594758
16	0xbebb5036	-0.36584634
17	0x3e257fc4	0.1616202
18	0x3ead557c	0.33854282
19	0x3d87e130	0.06634748
20	0xbeeecf80	-0.46642685
21	0xbeadab64	-0.33919823
22	0xbea7677e	-0.32696146
23	0x3db5eff8	0.08883661
24	0xbeabcd74	-0.33555186
25	0xbe1104a8	-0.14161932
26	0xbde726b8	-0.11286682
27	0xbe7842f0	-0.24244285
28	0x3e9360a4	0.28784668
29	0xbed8171e	-0.42205137
30	0xbe947c6e	-0.29001182
31	0xbbd3e000	-0.006465912
32	0xbe6f2fd4	-0.23358089
33	0x3d331450	0.043720543
34	0x3e0c75f0	0.13716865
35	0xbbc30280	-0.0059512258
36	0xbe44d470	-0.19221663
37	0xbe01e2f0	-0.12684226
38	0xbde32440	-0.110908985
39	0x3e58abc4	0.21159273
40	0xbeb1a57a	-0.3469656
41	0x3d193190	0.037400782
42	0x3e29de04	0.16588598
43	0xbdfe5280	-0.124180794
44	0x3eb9593a	0.36200887
45	0xbee5c716	-0.44878453
46	0x3ea15332	0.31508785
47	0xbeb428b4	-0.35187304
48	0x3e240974	0.16019231
49	0x3e25de74	0.1619814
50	0x3ebdd43e	0.3707599
51	0xbd863f28	-0.06555015
52	0x3ec863e4	0.3913871
53	0x3d82f678	0.063946664
54	0xbecf94c6	-0.40543193
55	0xbef65aaa	-0.48116046
56	0xbebbdf28	-0.36693692
57	0xbecb0dfa	-0.396591
58	0xbec53496	-0.38516682
59	0xbef8ee40	-0.4861927
60	0xbefc78c0	-0.49310875
61	0xbd913948	-0.07091004
62	0x3e16e8d4	0.14737254
63	0x3eccd694	0.4000746
64	0xbd8bd2d0	-0.06827319
65	0x3e5e9820	0.21737719
66	0xbea2c938	-0.31794143
67	0x3e8baf7c	0.2728232
68	0xbea649c2	-0.32478148
69	0xbe1af138	-0.1513108
70	0x3e207d20	0.15672731
71	0xbec18e56	-0.37803906
72	0x3de39498	0.111123264
73	0x3ecb60e8	0.3972237
74	0xbed46bb2	-0.41488415
75	0x3e044d78	0.12920177
76	0xbe772198	-0.24133909
77	0x3e935112	0.2877279
78	0xbe619fc0	-0.22033596
79	0xbed4456e	-0.4145922
80	0x3e947032	0.28991848
81	0x3ee52904	0.44757855
82	0xbd92d0c0	-0.07168722
83	0x3dfc98e0	0.12333846
84	0xbe04b088	-0.12957966
85	0xbafd0200	-0.0019302964
86	0xbeb32590	-0.34989595
87	0x3d971be0	0.073783636
88	0xbe7ef828	-0.24899352
89	0xbe904a84	-0.2818185
90	0xbee4c580	-0.4468193
91	0x3e0273b8	0.12739456
92	0x3e9c89da	0.30573922
93	0xbefddcfc	-0.4958266
94	0x3ec36bf2	0.38168293
95	0xbeebbbd2	-0.46041733
96	0x3e727c0c	0.23680133
97	0x3cb94b60	0.02261895
98	0x3edd92e0	0.4327612
99	0xbd6b9d20	-0.057522893
100	0x3ddea2a0	0.10870862
101	0xbeb7c84a	-0.35894996
102	0xba9f4800	-0.0012152195
103	0x3ed6be10	0.4194188
104	0x3e276f00	0.16350937
105	0x3d656890	0.05600792
106	0x3ea12920	0.31476688
107	0xbeab2c9e	-0.33432478
108	0xbeb73dee	-0.35789436
109	0x3e87718c	0.26453817
110	0x3ec277c4	0.37982
111	0xbe1bf63c	-0.1523065
112	0x3cb17e00	0.021666527
113	0x3e4e36c8	0.20138085
114	0x3e277854	0.16354495
115	0x3e4daba0	0.20085001
116	0xbeefe842	-0.46856886
117	0x3e09db6c	0.13462609
118	0xbe26ebc0	-0.16300869
119	0xbe96233a	-0.2932375
120	0xbe521798	-0.20516813
121	0x3cdf9ea0	0.027297318
122	0xbef6b7f0	-0.48187208
123	0xbe209614	-0.1568225
124	0xbeb4eff0	-0.35339308
125	0xbe60d400	-0.21955872
126	0xbea388ca	-0.319403
127	0xbe080b3c	-0.13285536
128	0x3e1bcce4	0.15214878
129	0x3ebbc156	0.3667094
130	0x3e8c9210	0.27455187
131	0xbe32e420	-0.17469835
132	0xbe8fdb04	-0.28096783
133	0xbd833bb0	-0.06407869
134	0x3e9f4a96	0.31111592
135	0x3dd26638	0.10273403
136	0xbef9f9a8	-0.48823285
137	0xbef3a150	-0.4758401
138	0xbe809436	-0.25113076
139	0xbefcddb8	-0.49387908
140	0xbefdf058	-0.4959743
141	0x3ed65a5c	0.41865814
142	0x3e987644	0.2977773
143	0xbee644ee	-0.44974464
144	0xbe5f3a38	-0.21799552
145	0xbec8c444	-0.3921224
146	0xbdb9c0e0	-0.09069991
147	0xbedda8fe	-0.43292993
148	0x3ef3ba24	0.47602952
149	0x3e84a470	0.25906706
150	0xbe8dce54	-0.27696478
151	0xbd33eb20	-0.043925405
152	0xbefb5e8a	-0.49095565
153	0x3dc58aa0	0.09645581
154	0x3e31cff8	0.1736449
155	0x3e98bf5c	0.29833496
156	0x3e174a70	0.1477449
157	0x3deafa58	0.114735305
158	0xbc0498c0	-0.008093059
159	0xbed0690c	-0.40705144
160	0x3e0ebfe0	0.13940382
161	0x3e23d4ec	0.15999192
162	0xbe3b0160	-0.18262243
163	0x3cfc9cc0	0.030836463
164	0x3e6ac098	0.22925031
165	0xbc0c00c0	-0.008545101
166	0xbd721940	-0.05910611
167	0xbebb0472	-0.3652683
168	0x3ea44750	0.32085657
169	0x3ef48c9a	0.4776352
170	0xbd4c6f30	-0.049910724
171	0xbe98d974	-0.29853404
172	0xbede0932	-0.4336639
173	0xbe04f9b8	-0.12985885
174	0xbef5d758	-0.48015857
175	0x3e642170	0.2227838
176	0xbea3d630	-0.3199935
177	0x3e0e8ce8	0.13920939
178	0xbed404be	-0.41409868
179	0xbdbac0b0	-0.091187835
180	0xbed2bae6	-0.41158217
181	0xbeaa5748	-0.33269715
182	0x3ef39bea	0.4757989
183	0xbd423390	-0.047412455
184	0xbedf0b18	-0.4356315
185	0x3db38bb0	0.08766878
186	0xbeec04f6	-0.46097535
187	0xbec6e078	-0.3884313
188	0xbe1ebfd0	-0.15502858
189	0x3e73c3ac	0.23805112
190	0xbe885d7c	-0.26633823
191	0xbd6c8e40	-0.057752848
192	0x3e256900	0.16153336
193	0x3d4e2e30	0.050337017
194	0xbe4f84d8	-0.2026552
195	0xbec8ed8a	-0.39243728
196	0xbe30bee0	-0.17260313
197	0x3e9ef42c	0.31045663
198	0xbe98b452	-0.29825073
199	0x3ef3647e	0.47537607
200	0x3eb160ce	0.3464417
201	0x3ec7eb0c	0.39046514
202	0x3e49e7a4	0.1971727
203	0xbe0d8508	-0.13820279
204	0x3ec9b1c8	0.3939345
205	0x3eea93c6	0.45815867
206	0x3e870480	0.2637062
207	0xbecc792a	-0.3993619
208	0xbe9f591c	-0.31122673
209	0x3ecf1512	0.40445763
210	0xbd000640	-0.03125596
211	0x3efc762e	0.49308914
212	0xbe36400c	-0.1779787
213	0x3cb1d480	0.021707773
214	0xbef28112	-0.47364098
215	0x3d7974a0	0.060902238
216	0xbeab0dea	-0.33409053
217	0xbe9ad1d2	-0.30238205
218	0x3ec8c8ec	0.3921579
219	0x3d971cb0	0.073785186
220	0x3e906556	0.28202313
221	0x3ef9f2c0	0.48818016
222	0x3d7d6740	0.061866045
223	0x3ec6a0a6	0.3879444
224	0x3eb435a8	0.35197186
225	0x3eb3ee1e	0.35142606
226	0x3d9fec20	0.07808709
227	0x3e3ea524	0.18617684
228	0xbe4a377c	-0.19747728
229	0xba8a4400	-0.001054883
230	0xbe88149c	-0.26578224
231	0xbd2ada30	-0.041711986
232	0xbe0ae5e0	-0.13564253
233	0x3e246b5c	0.1605658
234	0x3e1f59f4	0.15561658
235	0xbea2b004	-0.31774914
236	0xbddbadf0	-0.10726535
237	0xbda196d0	-0.07890093
238	0x3e954822	0.29156595
239	0x3eb0c7e4	0.34527504
240	0x3ec2bde6	0.38035506
241	0xbeb87bf8	-0.3603208
242	0x3efbc450	0.49173212
243	0xbeb7a246	-0.35865992
244	0x3d6ecdb0	0.058301628
245	0xbd8e6420	-0.06952691
246	0x3e6caf14	0.23113662
247	0xbdf0c440	-0.11756182
248	0x3d4f5d40	0.05062604
249	0x3eabb030	0.33532858
250	0x3ebfd8cc	0.3747009
251	0xbee072f6	-0.43837708
252	0xbecbdb00	-0.3981552
253	0x3e840680	0.2578621
254	0xbeff3f6e	-0.4985308
255	0x3e0f3998	0.13986814

layer1.bias f4 [128]
0	0x3ed39d04	0.4133073
1	0x3b85f480	0.0040879846
2	0x3e49bd18	0.1970104
3	0xbe0399ec	-0.12851685
4	0x3e3dab70	0.1852243
5	0x3ebbd6e4	0.36687386
6	0x3e6361e8	0.22205317
7	0x3d90c7c0	0.07069349
8	0x3e7eb570	0.248739
9	0x3d5f7670	0.05455631
10	0x3e835142	0.25647932
11	0xbea88fc4	-0.32922184
12	0xbea32018	-0.31860423
13	0xbdfdbff8	-0.12390131
14	0xbeb323be	-0.34988207
15	0xbec79f64	-0.38988793
16	0x3eec9930	0.46210623
17	0x3e0776d8	0.13228929
18	0x3ebabe8c	0.364735
19	0xbe5c5d60	-0.21519995
20	0x3e8f06e4	0.27934945
21	0x3e3d0614	0.1845935
22	0xbed18e6a	-0.40928966
23	0x3eda94c4	0.42691624
24	0x3e892026	0.2678234
25	0xbcb26fa0	-0.021781743
26	0x3eda1100	0.42591095
27	0x3d722da0	0.059125543
28	0x3eca2f2a	0.39489108
29	0xbd051d00	-0.03249836
30	0xbd2fb390	-0.042895854
31	0x3d56b2d0	0.052416623
32	0x3ef2c76e	0.47417778
33	0x3dc68928	0.09694129
34	0xbde30ed8	-0.110868156
35	0x3d8815b8	0.066447675
36	0x3edd5090	0.43225527
37	0x3d29d590	0.041463435
38	0xbef5513a	-0.47913533
39	0xbde076b8	-0.10960144
40	0x3e5c13b0	0.21491885
41	0x3ee647c0	0.44976616
42	0x3e83d84a	0.25750953
43	0x3ca44be0	0.020055711
44	0xbd825a78	-0.06364912
45	0x3dba1c78	0.09087461
46	0xbe80594c	-0.25068128
47	0x3e8a5d86	0.27024478
48	0xbe4c41b4	-0.19946939
49	0xbeda4c76	-0.4263646
50	0x3e6f2ddc	0.23357338
51	0x3ec6d9a2	0.38837916
52	0xbd4c6e00	-0.04990959
53	0x3e90298a	0.28156692
54	0xbead7144	-0.33875477
55	0x3eab5038	0.3345964
56	0xbdfe6aa0	-0.12422681
57	0xbe7ef7d8	-0.24899232
58	0x3e4dc690	0.20095277
59	0x3e83eb80	0.2576561
60	0xbec7a576	-0.38993424
61	0xbe9992c0	-0.29994774
62	0x3ef96d18	0.48716044
63	0xbeb65f5e	-0.35619634
64	0x3e066388	0.13123906
65	0xbefb8a0c	-0.4912876
66	0xbde50980	-0.111834526
67	0xbea1287a	-0.31476194
68	0xbe459ae4	-0.19297367
69	0xbd659fe0	-0.05606067
70	0xbe2126c8	-0.1573745
71	0x3e933e58	0.28758502
72	0xbeacf93e	-0.33783907
73	0x3ef4a0a2	0.47778803
74	0x3ec36cda	0.38168985
75	0x3d03d4b0	0.032185256
76	0x3ee05bca	0.4382003
77	0xbe2d307c	-0.16913027
78	0xbe92e754	-0.28692114
79	0x3cd3f3c0	0.025873065
80	0x3e65d8bc	0.22445959
81	0x3d73a640	0.05948472
82	0xbec4e196	-0.38453358
83	0xbee8fd7c	-0.45505893
84	0xbeeef92c	-0.46674478
85	0xbd6ea670	-0.058264196
86	0x3ec59f36	0.3859803
87	0xbe089b60	-0.13340521
88	0x3df4d160	0.119539976
89	0x3ee287ba	0.44244176
90	0x3e701038	0.23443687
91	0xbeaeae54	-0.34117377
92	0xbecce3f8	-0.40017676
93	0x3eac9dc6	0.33714122
94	0x3ef6a214	0.4817053
95	0x3e8f7c50	0.2802453
96	0x3e004b80	0.12528801
97	0xbecf9734	-0.40545046
98	0xbd651bb0	-0.055934608
99	0xbe211908	-0.15732205
100	0x3e9eda38	0.31025863
101	0xbe9c944c	-0.30581892
102	0xbe8f758c	-0.2801937
103	0x3eeae39e	0.45876783
104	0xbe3ae730	-0.18252254
105	0x3e2baa48	0.16764176
106	0x3d0e73b0	0.034778297
107	0xbebff786	-0.37493533
108	0x3e6f1fdc	0.23351997
109	0xbefc0e3a	-0.49229604
110	0x3e03d94c	0.12875861
111	0x3dfad468	0.122475445
112	0x3ec74ff2	0.3892818
113	0xbe7156a0	-0.23568201
114	0x3d5cadb0	0.05387658
115	0xbe2d5088	-0.16925251
116	0x3edeb5d4	0.434981
117	0x3eb020e6	0.344001
118	0xbdbe9290	-0.09305298
119	0x3eebd81c	0.46063316
120	0x3e2fed34	0.1718033
121	0x3ed97136	0.42469186
122	0xbe5ae538	-0.21376503
123	0x3bf84100	0.007576108
124	0xbdc605e8	-0.09669095
125	0x3eff655e	0.49882025
126	0xbc5e0ec0	-0.013553321
127	0xbe88b37e	-0.26699442

layer2.weight f4 [128, 128]
0	0xbd418033	-0.0472414
1	0x3d9ec419	0.077522464
2	0xbdaa09b0	-0.08302629
3	0xbcf0d23b	-0.02939712
4	0xbd5e0d98	-0.054212183
5	0xbda9b8d5	-0.08287207
6	0xbd58b541	-0.052907232
7	0x3c91e687	0.01781012
8	0x3d504d7c	0.050855145
9	0xbd0f7649	-0.035024915
10	0x3d13b3d1	0.03606016
11	0x3daa1be3	0.083061
12	0x3d9e215c	0.077212065
13	0xbcc95fd1	-0.024581822
14	0xbd9d3e78	-0.076779306
15	0x3d5494af	0.05189961
16	0xbd249b88	-0.04018739
17	0x3d6dbea8	0.058043152
18	0x3d9874bf	0.074441426
19	0x3d59b90d	0.053154994
20	0xbdadb817	-0.08482378
21	0xbd9c437e	-0.076300606
22	0x3ccd1d87	0.025038494
23	0xbda3c1cb	-0.079959475
24	0x3d2e1600	0.04250145
25	0x3d908246	0.07056098
26	0x3d2e2175	0.042512376
27	0x3d6ddca5	0.05807175
28	0x3d98ccdc	0.07460949
29	0xbcbfb612	-0.023402248
30	0x3b2b9387	0.0026180462
31	0x3d7a784a	0.061149873
32	0x3c071c2c	0.008246463
33	0x3d63df6a	0.055632986
34	0xbcd57ecd	-0.02606144
35	0x3d9262cc	0.0714775
36	0xbdb33e6e	-0.08752142
37	0x3d356f1d	0.04429542
38	0xbcf1695a	-0.02946918
39	0x3d8813a0	0.06644368
40	0x3d97b3b2	0.07407321
41	0xbd283ff9	-0.041076634
42	0xbcc634ec	-0.024195157
43	0xbbd4c1c8	-0.006492827
44	0xbda1d4e8	-0.07901937
45	0x3d95b1e1	0.07309318
46	0x3c0dd9de	0.008657901
47	0xbd894335	-0.06702272
48	0xbd1a8911	-0.037728373
49	0xbd2ddc43	-0.042446386
50	0x3d9d6db3	0.07686939
51	0x3cce4c2b	0.025182804
52	0x3cfca6d0	0.030841261
53	0xbce25f39	-0.027633296
54	0x3d60ee94	0.054915026
55	0x3b9ad5c1	0.0047251885
56	0x3cf02acd	0.029317284
57	0x3c14bb67	0.009077883
58	0x3d7cd600	0.061727524
59	0x3d99e458	0.07514256
60	0x3c2ab136	0.010418227
61	0xbd23d42f	-0.039997276
62	0x3d83136a	0.06400187
63	0xbda42c7b	-0.080162965
64	0x3c1611bb	0.009159501
65	0x3c0511cc	0.008121919
66	0x3c6d50fa	0.014484638
67	0x3d56b9ac	0.052423164
68	0x3daa638b	0.083197676
69	0x3da42a9d	0.0801594
70	0xbd4e25d5	-0.05032905
71	0xbd5a60ab	-0.053314846
72	0xbda2d99f	-0.07951664
73	0x3dafcdf3	0.085842036
74	0x3bb04e18	0.0053804033
75	0x3d2d0865	0.042244334
76	0xbd8c7bc4	-0.06859544
77	0xbd86d21a	-0.065830424
78	0xbd7cb850	-0.06169921
79	0xbc788046	-0.0151673015
80	0x3d28d04d	0.041214276
81	0xbd33d5ef	-0.043905195
82	0x3d076520	0.033055425
83	0x3babbb20	0.005240813
84	0x3c943a28	0.018094137
85	0xbd86543d	-0.06559036
86	0xbcaa1b48	-0.020764962
87	0x3d98ce0b	0.074611746
88	0x3cc857de	0.02445596
89	0xbd1b4d47	-0.037915494
90	0xbdad88b3	-0.08473339
91	0xb9effada	-0.0004577253
92	0xbc857a46	-0.016293656
93	0x3d41b6ec	0.04729359
94	0x3d7af33c	0.061267123
95	0xbc73d74c	-0.014882874
96	0xbd0b1a8a	-0.033960856
97	0xbd09ef55	-0.03367551
98	0x3da838c2	0.08213951
99	0x3dadf245	0.08493475
100	0xbd6cd1fa	-0.057817437
101	0x3d1df353	0.03856213
102	0xbda0df75	-0.07855121
103	0xbda20f95	-0.07913128
104	0xbd90c611	-0.07069028
105	0xbd96b069	-0.07357866
106	0xbcb8feb8	-0.022582397
107	0xbdb134d2	-0.08652653
108	0x3d011670	0.03151554
109	0x3d944e59	0.07241506
110	0xbd124772	-0.035712667
111	0x3d90fa7b	0.07079025
112	0xbd473f94	-0.048644617
113	0x3d832823	0.0640414
114	0x3d27f932	0.041009136
115	0xbc0c9a36	-0.008581689
116	0x3b815564	0.003946947
117	0xbd97ead4	-0.07417837
118	0xbd78632f	-0.060641464
119	0x3db0da55	0.086353935
120	0xbda98872	-0.08277978
121	0xbd205d86	-0.03915169
122	0xbbce03bc	-0.0062870663
123	0x3d6f3a08	0.058404952
124	0xbd64b161	-0.055833224
125	0xbda5dcbf	-0.080987446
126	0xbc9b8c74	-0.018987872
127	0xbc296f58	-0.010341488
128	0x3d73bbad	0.059505153
129	0x3c0b3508	0.00849653
130	0xbd483fb4	-0.048888877
131	0xbd836925	-0.06416539
132	0xbd120486	-0.035648845
133	0x3d912c4d	0.07088528
134	0x3d6a77e5	0.057243247
135	0x3b88ea66	0.004178333
136	0x3d1cbcd7	0.03826603
137	0xbc90bc05	-0.01766778
138	0x3d0583be	0.032596342
139	0xbce79517	-0.028269334
140	0x3d228fda	0.03968797
141	0xbd708ad9	-0.058726165
142	0x3d81af7f	0.06332301
143	0xbd526e28	-0.051374584
144	0xbc97c582	-0.018526796
145	0xbdace473	-0.08442011
146	0x3d9af2fa	0.07565875
147	0xbd5d9e45	-0.054106016
148	0xbb885084	-0.004159989
149	0x3d2eaf00	0.04264736
150	0x3ccf2b70	0.025289267
151	0xbdb3c55d	-0.087778784
152	0x3d54a0ae	0.05191105
153	0xbd37da96	-0.044886194
154	0xbdafb939	-0.0858025
155	0x3c865d68	0.016401961
156	0x3d81e417	0.06342333
157	0x3bd2284f	0.0064134966
158	0x3d6555a1	0.055989865
159	0x3db322e8	0.08746892
160	0xbd9a1944	-0.0752435
161	0x3d808dcc	0.062770456
162	0x3d1acce2	0.037793048
163	0x3d00210c	0.031281516
164	0xbbb92657	-0.0056503224
165	0xbc73dbb7	-0.014883927
166	0x3d707fb6	0.058715545
167	0x3d88cbc0	0.06679487
168	0x3d48a88b	0.04898886
169	0x3d08a4cb	0.033360284
170	0x3ce30d81	0.0277164
171	0x3daf83c6	0.08570056
172	0xbd96ac1a	-0.073570445
173	0x3d96ebf6	0.07369225
174	0x3cdd5c71	0.027021619
175	0xbcfe5111	-0.031044515
176	0x3c8cb73f	0.017177222
177	0xbd835071	-0.06411827
178	0x3cbf6ebe	0.023368236
179	0x3ca734e3	0.02041096
180	0xbd0cf050	-0.034408867
181	0x3dac8b05	0.08424953
182	0x3d699473	0.057026338
183	0xb9e30959	-0.00043303779
184	0x3db4748d	0.08811293
185	0x3afe8f50	0.0019421373
186	0xbc5d168d	-0.013494146
187	0x3daf229b	0.08551522
188	0x3d9ce99d	0.07661746
189	0x3d82605d	0.06366036
190	0x3ba26dae	0.0049569225
191	0xbcc62dfc	-0.024191849
192	0x3cf9057a	0.03039812
193	0xbd1ff46c	-0.03905146
194	0x39da915c	0.000416885
195	0xbd42418f	-0.047425803
196	0xbb308abb	-0.0026938159
197	0x3be424fc	0.0069624167
198	0xbdad1cbb	-0.084527455
199	0xbd0e5391	-0.034747664
200	0xbcbd25b3	-0.023089265
201	0x3d21522f	0.039385017
202	0x3d35eab4	0.044413283
203	0xbd863c21	-0.065544374
204	0xbdaff0fc	-0.08590886
205	0xbd5234b4	-0.051319793
206	0xbd905712	-0.07047857
207	0x3d049c95	0.03237589
208	0xbb5b00e8	-0.0033417288
209	0x3db36390	0.087592244
210	0xbd8659ec	-0.0656012
211	0x3cea005d	0.028564626
212	0x3da72435	0.08161203
213	0xbdb116a7	-0.08646899
214	0xbccd5038	-0.025062665
215	0xbd91276d	-0.07087598
216	0xbd7468dd	-0.059670318
217	0xbdab42bf	-0.0836234
218	0xbcc2cb56	-0.023778599
219	0x3d3bc061	0.045837764
220	0xbc90e322	-0.01768643
221	0x3d39b55a	0.045338966
222	0x3d975ef8	0.07391161
223	0xbc329ebd	-0.010902104
224	0x3d866b01	0.06563378
225	0xbc3bf797	-0.011472604
226	0xbd899bdf	-0.06719183
227	0x3da2895a	0.07936354
228	0x3d0cbed3	0.03436167
229	0x3ca8144f	0.020517496
230	0x3d77bed9	0.06048474
231	0x3c891e21	0.016738
232	0xba90f49c	-0.0011059227
233	0xbce7c899	-0.028293895
234	0x3d4d577d	0.050132263
235	0xbd729d7f	-0.05923223
236	0x3c882dcd	0.016623402
237	0x3cca5907	0.024700655
238	0x3db4294a	0.08796938
239	0x3c823f44	0.015899308
240	0xbd49d179	-0.049272034
241	0x3d896bdf	0.06710028
242	0xbc931c82	-0.01795793
243	0xbca986d5	-0.020694176
244	0x3c5e50a3	0.01356903
245	0x3c7ad321	0.015309126
246	0xbdb4ad4d	-0.08822117
247	0x3c2a7855	0.010404666
248	0x3d41eda5	0.047345776
249	0xbd5b74a1	-0.053578023
250	0xbcbe85a4	-0.023257084
251	0x3d48841b	0.04895411
252	0xbd8bbcbf	-0.0682311
253	0xbd3f60db	-0.046723228
254	0xbc599289	-0.013279566
255	0x3c063997	0.008192441

layer2.bias f4 [128]
0	0xbd1cb140	-0.038254976
1	0xb7531245	-1.2580834e-05
2	0xbd4010c5	-0.046890993
3	0x3d732625	0.05936255
4	0xbda83d81	-0.08214856
5	0xbc4aa7fb	-0.012369151
6	0xbd30b62c	-0.043142483
7	0xbd1060ba	-0.035248496
8	0xbd83d89b	-0.064377986
9	0xbdae236a	-0.085028484
10	0x3a1f6503	0.00060804206
11	0xbc22b792	-0.009931462
12	0x3c60a16a	0.013710359
13	0x3d5ed4c7	0.05440214
14	0x3c2b34f4	0.010449637
15	0xbc9bb790	-0.019008428
16	0xbd3f41cc	-0.04669361
17	0xbdae0ef6	-0.08498947
18	0x3c461f17	0.012092373
19	0x3b476f95	0.0030431498
20	0x3dac5b93	0.08415904
21	0x3c9f6f9e	0.019462403
22	0x3cf665e1	0.030077877
23	0xbd4c141f	-0.049823876
24	0xbd7f1a4b	-0.062280934
25	0xbd3c4c90	-0.045971453
26	0xbd4ef0f5	-0.050522763
27	0xbd944c0a	-0.07241066
28	0x3cf1d0c4	0.029518493
29	0xbcbc2f5c	-0.022971801
30	0x3c6d01b2	0.014465736
31	0xbcae2c08	-0.02126123
32	0xbc95fb64	-0.018308349
33	0x3db38840	0.08766222
34	0xbd86cd90	-0.06582177
35	0x3c991091	0.018684657
36	0xbdac24b9	-0.08405442
37	0x3c90e650	0.017687947
38	0x3d9ad97c	0.07561013
39	0x3bb44a73	0.005502039
40	0x3c852933	0.016254997
41	0xbd6bb90e	-0.05754953
42	0x3d9754c3	0.07389214
43	0xbd68916b	-0.056779306
44	0x3c0cc8bf	0.0085927835
45	0x3d021e57	0.031767216
46	0x3d5b3e9a	0.0535265
47	0xbd720d56	-0.05909475
48	0x3cb7407e	0.02236962
49	0x3d0480dd	0.032349456
50	0x3d1ee04c	0.038788125
51	0x3d68da70	0.056848943
52	0x3cc9b6a9	0.024623232
53	0x3d0c3ef0	0.03423971
54	0xbc91c6dd	-0.01779502
55	0x3db3b882	0.087754264
56	0x3c57224b	0.013130735
57	0x3d9c0a2a	0.07619126
58	0x3d3426b0	0.043982208
59	0xbc04a05a	-0.008094871
60	0xbce0bcd6	-0.027433794
61	0xbdaea27a	-0.08527084
62	0x3d0d3010	0.034469664
63	0x3d27c3bb	0.040958147
64	0xbc769dfc	-0.015052315
65	0x3b23f965	0.0025020477
66	0xbd6b7168	-0.0574812
67	0x3d7a6595	0.061132032
68	0x3d75be73	0.05999608
69	0x3d10fcc3	0.035397302
70	0x3db333d5	0.087501206
71	0x3d9c16d2	0.0762154
72	0xbd4de11f	-0.05026352
73	0xbd4da9de	-0.050210826
74	0x3d0915ad	0.033467937
75	0x3cd7db22	0.026349608
76	0x3d1f543d	0.038898695
77	0xbdafe56c	-0.085886806
78	0xbcac9172	-0.021065447
79	0x3d3b8c49	0.045788083
80	0xbccb4bb9	-0.02481638
81	0x3da8ac20	0.08235955
82	0xbc7c8c8a	-0.0154143665
83	0x3d3b1d0c	0.045681998
84	0x3dac0301	0.083990104
85	0xbd4974c7	-0.049183633
86	0xbd64f390	-0.05589634
87	0xbd804631	-0.06263388
88	0xbce1022d	-0.027466858
89	0xbcec1dcf	-0.028822808
90	0x3d6e3fa3	0.058166157
91	0xbd9d2bd0	-0.07674372
92	0xbda92bbe	-0.08260296
93	0xbda73edd	-0.08166287
94	0xbd9d244e	-0.0767294
95	0xbd5f1e1b	-0.05447207
96	0xbd803bee	-0.06261431
97	0x3cc1a44b	0.023637911
98	0x3d97eb3b	0.074179135
99	0x3cb8a4c9	0.022539513
100	0xbd8ed627	-0.0697444
101	0x3cd25201	0.025673868
102	0xbd5d9076	-0.054092847
103	0xbcf8df45	-0.0303799
104	0xbd162754	-0.0366586
105	0xbdb269f3	-0.087116145
106	0x3b9ab5c2	0.0047213743
107	0xbd6c720d	-0.057725955
108	0xbd19e288	-0.037569553
109	0x3d8823ad	0.066474296
110	0xbd812c9f	-0.06307339
111	0xbc255358	-0.0100906715
112	0x3cd89c1c	0.026441626
113	0x3c77fc17	0.0151357865
114	0xbda8c7af	-0.082412116
115	0x3d534bf7	0.051586118
116	0xbca35c87	-0.019941581
117	0xbdb012e4	-0.08597353
118	0x3d775a13	0.060388636
119	0xbda37112	-0.07980551
120	0x3bcbaed9	0.006215912
121	0x3d2d8538	0.042363375
122	0xbd09b721	-0.03362191
123	0x3d5c5ed6	0.05380138
124	0xbc82f52b	-0.015986046
125	0xbd75d2bc	-0.060015425
126	0x3da597ec	0.080856174
127	0x3d83c105	0.064333
