custom_maze/static/custom_maze/run/room248868/trained_model.pth (torch, 146386 bytes, 12 tensors)

layer1.weight f4 [128, 4]
0	0xbda30ac0	-0.07961035
1	0x3e5d6798	0.21621549
2	0xbbf30300	-0.007416129
3	0x3eabfb76	0.33590287
4	0x3e935ffc	0.28784168
5	0xbcfba900	-0.030720234
6	0x3d86f800	0.06590271
7	0xbecea514	-0.4036032
8	0x3d4078f0	0.046990335
9	0xbedf3790	-0.43597078
10	0x3eba48d4	0.36383688
11	0x3d262930	0.040566623
12	0x3dbdc198	0.09265441
13	0x3ecbfd5a	0.3984173
14	0xbefe82ae	-0.49709076
15	0xbe304d68	-0.17217028
16	0x3ed4b468	0.4154389
17	0xbdde1ea8	-0.10845691
18	0xbd09af50	-0.033614457
19	0xbee5d604	-0.44889843
20	0xbea34576	-0.31888932
21	0x3e71d278	0.23615444
22	0x3ef7a5ca	0.48368675
23	0xbe0e3968	-0.13889086
24	0xbd5ac7b0	-0.053413093
25	0xbe35e970	-0.1776483
26	0xbe79e750	-0.24404645
27	0x3ec5e2ea	0.38649684
28	0xbeb0cde6	-0.34532088
29	0x3d158700	0.0365057
30	0x3e7bd97c	0.24594682
31	0x3e670e84	0.22564131
32	0x3eb5029c	0.35353553
33	0xbe699b1c	-0.22813076
34	0x3ed90d16	0.42392796
35	0x3e8f3dc0	0.279768
36	0x3cd7a5c0	0.026324153
37	0x3de27f38	0.11059421
38	0x3eb66598	0.35624385
39	0x3d99ce10	0.075100064
40	0xbd7306c0	-0.05933261
41	0xbe77eb58	-0.2421087
42	0x3e0fb6f0	0.14034629
43	0xbef7553a	-0.4830721
44	0xbe37feb4	-0.17968255
45	0xbd8fb6f8	-0.070173204
46	0xbea9faea	-0.33199245
47	0x3da1f568	0.07908136
48	0xbee91312	-0.45522362
49	0x3e600408	0.21876538
50	0xbe2d7d60	-0.16942358
51	0xbe640ed4	-0.22271281
52	0xbe8cf358	-0.27529407
53	0xbedcbe3c	-0.43113887
54	0xbec513d2	-0.38491684
55	0x3e41fe28	0.18944609
56	0xbeba1bdc	-0.3634938
57	0x3e6893d0	0.22712636
58	0x3eb9ef2a	0.3631528
59	0xbe3780b4	-0.1792019
60	0x3edb1790	0.42791414
61	0x3ef401a6	0.47657508
62	0x3e8cf338	0.2752931
63	0x3d204750	0.03913051
64	0x3e9248aa	0.28571063
65	0x3e6fd694	0.23421699
66	0x3b472a00	0.0030390024
67	0xbe0fd108	-0.14044583
68	0xbea385d6	-0.31938046
69	0x3eab6f16	0.3348319
70	0xbe314334	-0.17310792
71	0x3e0a902c	0.1353156
72	0x3ef99a5c	0.4875058
73	0x3c8558e0	0.01627773
74	0x3e5ff9ec	0.21872681
75	0xbe92dfc8	-0.28686357
76	0xbef0bb46	-0.47017878
77	0x3e9b0290	0.30275393
78	0xbefc0d3e	-0.49228853
79	0xbee79396	-0.45229787
80	0x3e289f84	0.164671
81	0x3d9130f0	0.07089412
82	0x3ef89bf4	0.48556483
83	0xbd955f30	-0.07293546
84	0x3e4601d0	0.19336629
85	0xbe625be4	-0.22105366
86	0x3efd040e	0.49417156
87	0x3d33cfc0	0.043899298
88	0x3eb88c1a	0.3604439
89	0xbec39b5c	-0.38204467
90	0x3e3f0564	0.186544
91	0x3d2236b0	0.039602935
92	0xbe26cd14	-0.16289169
93	0x3e092774	0.13393956
94	0x3de49748	0.11161667
95	0x3e098010	0.13427758
96	0xbefbee62	-0.4920531
97	0x3e3e49e4	0.18582875
98	0x3ee5bfde	0.44872946
99	0x3ef67568	0.4813645
100	0x3d35c760	0.044379592
101	0xbd2f3360	-0.042773604
102	0x3eb86612	0.36015373
103	0xbe8105ae	-0.25199646
104	0x3e89dcf4	0.26926386
105	0xbe2c84b4	-0.16847497
106	0x3eaf9ef4	0.3430096
107	0xbe92ec98	-0.28696132
108	0x3b845a80	0.0040391088
109	0x3e3ce784	0.18447691
110	0x3eb39ee0	0.3508215
111	0x3df4f090	0.11959946
112	0x3dd1f488	0.10251719
113	0x3eda1db8	0.426008
114	0x3eedc5bc	0.46439922
115	0xbe02e01c	-0.12780803
116	0x3d5ef190	0.05442959
117	0x3ea6aa2c	0.32551706
118	0xbdc6afb8	-0.097014844
119	0xbd92fb58	-0.07176846
120	0xbeacb4ea	-0.33731776
121	0x3e904b08	0.28182244
122	0x3c5ec4c0	0.013596714
123	0x3e872938	0.26398635
124	0x3ea77976	0.32709855
125	0xbd951f70	-0.07281387
126	0x3d5350f0	0.05159086
127	0x3e9cbcbc	0.30612743
128	0x3eabefd8	0.33581424
129	0x3c3d4c40	0.011553824
130	0x3e5e4964	0.21707684
131	0xbe53d9b8	-0.20688522
132	0xbd63cde0	-0.05561626
133	0xbd9eda90	-0.07756531
134	0xbbfcad80	-0.0077111125
135	0x3e76b958	0.2409414
136	0xbe7b9444	-0.24568278
137	0x3ca2b7c0	0.01986301
138	0xbeab6236	-0.33473366
139	0xbe2b9130	-0.16754603
140	0xbe84fd7a	-0.25974637
141	0x3dc79a60	0.097462416
142	0x3ef90fc4	0.4864484
143	0x3e5eccd8	0.21757829
144	0x3e8a5488	0.27017617
145	0xbea94bec	-0.33065736
146	0xbecafbb2	-0.39645153
147	0x3cf22380	0.029557943
148	0xbe90a4d6	-0.2825076
149	0x3d9cfea8	0.07665759
150	0x3eabc014	0.3354498
151	0x3ead50f2	0.3385082
152	0x3eeca5b8	0.46220183
153	0x3eb708a4	0.3574878
154	0x3eb05780	0.34441757
155	0x3dbd7eb0	0.09252679
156	0xbeeb665a	-0.45976526
157	0xbe32cdc8	-0.17461312
158	0x3ee1532c	0.44008768
159	0x3ec78f92	0.38976723
160	0xbe520078	-0.20507991
161	0x3ecda2ec	0.40163362
162	0xbdb3a2d8	-0.08771294
163	0x3e195ca8	0.14976752
164	0x3e077034	0.13226396
165	0xbefe8f30	-0.49718618
166	0x3e0b7ca4	0.13621765
167	0xbeff7c5a	-0.4989956
168	0xbddc3da0	-0.107539415
169	0x3e533308	0.20624936
170	0xbe0d4710	-0.1379664
171	0x3c5e8480	0.013581395
172	0xbda84e30	-0.08218038
173	0x3e07ee88	0.13274586
174	0x3e885b48	0.26632142
175	0x3e7a87c0	0.24465847
176	0xbe918484	-0.28421414
177	0x3edb5812	0.4284063
178	0xbe9bdcc6	-0.30441874
179	0x3e76e9e8	0.24112666
180	0x3e2ebf48	0.17065156
181	0x3dec0188	0.115237296
182	0xbeb87c30	-0.36032248
183	0x3eb518fe	0.3537063
184	0xbeca655e	-0.39530462
185	0xbe399680	-0.18123817
186	0x3e167e1c	0.14696544
187	0x3e9e7a80	0.30952835
188	0xbeac6d96	-0.33677357
189	0x3ceb2d80	0.02870822
190	0x3d902888	0.07038981
191	0x3e4ba874	0.19888479
192	0xbebde4f2	-0.37088734
193	0x3e32bcb8	0.17454803
194	0x3ee95ad6	0.45577115
195	0x3eb57f9e	0.35448927
196	0x3ec24e5c	0.37950408
197	0x3eb95b9e	0.3620271
198	0x3d746720	0.05966866
199	0xbe9c3002	-0.30505377
200	0xbd139830	-0.03603381
201	0x3e78c198	0.242926
202	0xbefcf316	-0.4940421
203	0x3dce9b68	0.10088235
204	0xbd985c80	-0.07439518
205	0x3db395f0	0.08768833
206	0xbef14aea	-0.47127467
207	0xbefb743e	-0.49112123
208	0x3e68bb80	0.22727776
209	0x3dcdfad0	0.10057604
210	0xbec3ed44	-0.38266957
211	0xbe45b4d4	-0.19307262
212	0xbe6d28a0	-0.23160028
213	0x3efc6fa8	0.49303937
214	0xbe876ce6	-0.2645027
215	0xbe6d0cdc	-0.23149437
216	0x3d1cc200	0.03827095
217	0x3e863ba6	0.26217383
218	0x3e047cc4	0.1293822
219	0xbe870a42	-0.26375014
220	0x3e78bdd8	0.2429117
221	0x3ec0fe00	0.37693787
222	0x3d701a00	0.058618546
223	0xbe021310	-0.12702584
224	0x3e9d22ba	0.30690557
225	0x3e1641ac	0.1467349
226	0xbef231be	-0.47303575
227	0x3e709c9c	0.23497242
228	0x3e675f00	0.22594833
229	0x3bdb0f00	0.0066851377
230	0x3ea675da	0.3251179
231	0x3daac4c0	0.08338308
232	0xbecce446	-0.4001791
233	0xbed0f666	-0.40812987
234	0x3e9f00b0	0.31055212
235	0xbea6130a	-0.324364
236	0x3e1bee44	0.1522761
237	0x3ec75ff6	0.389404
238	0x3e04f274	0.12983114
239	0xbed8b630	-0.42326498
240	0x3c224bc0	0.0099057555
241	0x3cb7bfc0	0.0224303
242	0xbecc4c42	-0.3990193
243	0x3d930ff8	0.0718078
244	0x3eed2bde	0.4632253
245	0x3ec80c66	0.3907196
246	0xbdba4040	-0.09094286
247	0x3ed5cc6e	0.4175753
248	0x3e0f4264	0.1399017
249	0xbeb45be8	-0.3522637
250	0xbe53702c	-0.20648259
251	0x3dac0b40	0.08400583
252	0xbdfff190	-0.12497246
253	0x3ee883d2	0.4541307
254	0xbda67968	-0.08128625
255	0xbc8beae0	-0.01707977

layer1.bias f4 [128]
0	0x3d3251f0	0.043535173
1	0x3ee2306c	0.44177568
2	0x3e289790	0.16464067
3	0x3ee369fc	0.44416797
4	0x3ea98052	0.33105713
5	0x3edfd7d6	0.43719357
6	0x3de2b8f8	0.11070436
7	0xbcd97440	-0.02654469
8	0x3e91e478	0.2849462
9	0xbd813308	-0.063085616
10	0xbed26d52	-0.4109903
11	0x3ee96d0e	0.45591015
12	0x3e045698	0.12923658
13	0xbea1f102	-0.31629187
14	0x3e9d624c	0.30739057
15	0x3df6e3a0	0.12055135
16	0x3eae0468	0.33987737
17	0xbe946a04	-0.28987134
18	0xbe76c664	-0.24099118
19	0xbec61e28	-0.38694882
20	0x3e82b4aa	0.2552846
21	0xbe0e9568	-0.13924181
22	0xbeb8ba3c	-0.36079586
23	0x3da93f88	0.08264071
24	0xbc574e00	-0.013141155
25	0xbe01bf94	-0.12670738
26	0x3eba20e8	0.3635323
27	0x3e520a5c	0.20511764
28	0xbef993c4	-0.4874555
29	0x3de3ffd0	0.11132777
30	0xbe0612ac	-0.1309306
31	0x3ed1c912	0.40973717
32	0x3eccb3ec	0.3998102
33	0x3e905fba	0.28198034
34	0xbd5b9990	-0.053613245
35	0x3e2f68e4	0.17129856
36	0x3e5e145c	0.21687454
37	0xbe54bc24	-0.20774895
38	0xbdd45a70	-0.10368812
39	0x3ef59a38	0.47969222
40	0xbdaca7f8	-0.08430475
41	0xbe8ceede	-0.2752599
42	0x3e072ef8	0.13201511
43	0x3efb9bb4	0.4914223
44	0x3e009e4c	0.12560385
45	0x3e1ffc88	0.15623677
46	0x3e06534c	0.13117713
47	0x3e4b8154	0.19873554
48	0xbdb3f080	-0.08786106
49	0xbec100b0	-0.37695837
50	0x3eac62dc	0.33669174
51	0xbed16ad8	-0.40901828
52	0xbe9dce0a	-0.30821258
53	0x3effe4ac	0.4997915
54	0x3c52e400	0.012871742
55	0x3de4eb98	0.111777484
56	0xbea8bb04	-0.32955182
57	0xbedee944	-0.43537343
58	0x3e74a224	0.23889977
59	0x3e4bc904	0.199009
60	0x3c98d9a0	0.01865846
61	0xbee78de8	-0.45225453
62	0x3e756d08	0.23967373
63	0x3e206208	0.15662396
64	0x3e8253d2	0.25454575
65	0x3c2ddd40	0.010611832
66	0x3ed8314c	0.4222511
67	0x3eec797a	0.4618643
68	0x3d3dba90	0.046320498
69	0xbe96d8c2	-0.29462248
70	0xbeed2e94	-0.463246
71	0x3ee62274	0.4494816
72	0x3ea3f588	0.32023263
73	0x3ea3c84a	0.31988746
74	0x3ca93980	0.020657301
75	0x3ee93fac	0.4555639
76	0x3ebdc714	0.37065947
77	0x3d09dab0	0.033655822
78	0x3ebcf94e	0.36908954
79	0xbe0afcec	-0.13573045
80	0xbe40f4e4	-0.18843418
81	0x3e2271cc	0.15863723
82	0xbee3c2c6	-0.44484538
83	0xbc849f20	-0.016189158
84	0x3ec93384	0.39297116
85	0xbe2f9e10	-0.1715014
86	0x3d925168	0.07144433
87	0xbdc1c630	-0.094616294
88	0x3cd2a580	0.025713682
89	0x3ea80b5e	0.32821172
90	0x3d7001b0	0.05859536
91	0xbe6670a4	-0.22503906
92	0x3e5a2ae8	0.2130543
93	0xbb81b400	-0.0039582253
94	0x3e9a2b46	0.3011114
95	0xbe8b8e18	-0.27256846
96	0x3efd377c	0.49456394
97	0xbee867de	-0.45391744
98	0x3ef270f2	0.47351795
99	0x3dd19b30	0.10234678
100	0x3edba44e	0.42898792
101	0x3b0c5700	0.002141416
102	0xbea25fec	-0.31713808
103	0x3e07b4b8	0.13252532
104	0x3ecacbb6	0.39608544
105	0xbeee6fd4	-0.46569693
106	0x3e3e72e0	0.18598509
107	0x3ed4288c	0.41437185
108	0xbebf751e	-0.3739404
109	0x3eb9bdcc	0.36277616
110	0xbc992a80	-0.018697023
111	0xbd801f40	-0.062559605
112	0xbe0cd494	-0.13752967
113	0xbed0b0c4	-0.4075986
114	0xbe1b1098	-0.15143049
115	0xbd044900	-0.03229618
116	0x3ea88482	0.32913595
117	0xbea95134	-0.33069766
118	0xbe996fdc	-0.29968154
119	0xbe7854a0	-0.24251032
120	0xbe926fe8	-0.28601003
121	0xbdeba198	-0.11505431
122	0xbef1d2f8	-0.4723127
123	0x3e66d5e4	0.2254253
124	0x3ed9166c	0.4239992
125	0x3ec0b18e	0.37635463
126	0x3cba2060	0.022720516
127	0xbefa104c	-0.4884056

layer2.weight f4 [128, 128]
0	0x3da7c2d2	0.08191456
1	0x3bce7605	0.00630069
2	0x3d88b654	0.06675401
3	0x3d0f4861	0.034981135
4	0x3ce939f9	0.028470026
5	0x3d9fdeee	0.07806192
6	0x3d66e9c6	0.056375287
7	0xbd90a918	-0.07063502
8	0x3bf4a97c	0.007466493
9	0x3bf6714e	0.007520831
10	0xbd2125e7	-0.039342787
11	0x3da9455c	0.082651824
12	0x3b8275cd	0.003981328
13	0x3c631ace	0.013861371
14	0xbd21cc89	-0.0395017
15	0x3d6e996e	0.05825179
16	0xbd3b5ec9	-0.04574469
17	0xbd6f41b3	-0.058412265
18	0xbd837840	-0.0641942
19	0x3d281b9d	0.04104196
20	0xbd68f8c1	-0.056877855
21	0x3d8a9675	0.06766979
22	0xbbdb5869	-0.006693889
23	0xbca6aff9	-0.020347582
24	0xbce0a5a8	-0.027422741
25	0x3d269265	0.040666956
26	0x3c3eed79	0.011653298
27	0x3d1d6e50	0.03843528
28	0x3d5e7226	0.05430808
29	0x3d378a68	0.04480973
30	0xbd4300b3	-0.04760809
31	0x3c2aca2e	0.01042418
32	0xbd1ddc39	-0.0385401
33	0xbcba4d67	-0.022741986
34	0x3bb2dcb3	0.0054584383
35	0xbd658bdb	-0.05604158
36	0xbd82df39	-0.063902326
37	0xbb870a8a	-0.0041211294
38	0xbd11dcc0	-0.035610914
39	0xbd1f9331	-0.038958732
40	0x3da44d86	0.08022599
41	0x3da9ecb2	0.08297099
42	0x3d1ba83d	0.03800224
43	0x39180180	0.00014496408
44	0xbd24b96b	-0.04021589
45	0xbd70c3fd	-0.05878066
46	0x3d0795b5	0.033101756
47	0xbc52e400	-0.012871742
48	0x3d7f85d4	0.062383488
49	0xbd6e089e	-0.058113687
50	0xbd24549f	-0.040119763
51	0xbb889027	-0.004167575
52	0xbc9190dc	-0.01776927
53	0xbc931323	-0.017953461
54	0xbd396b40	-0.045268297
55	0xbda8a662	-0.0823486
56	0xbbfabdd4	-0.007652024
57	0x3bda1d65	0.006656336
58	0x3c98f34f	0.018670706
59	0x3da73e01	0.08166123
60	0x3b9cfb2d	0.0047906847
61	0xbd02e76a	-0.031958975
62	0xbd6a0a05	-0.05713846
63	0xbd3c8ac1	-0.046030764
64	0xbc9a8b7c	-0.01886534
65	0xba1af4b1	-0.00059110956
66	0x3d298979	0.04139087
67	0x3d804a2a	0.06264146
68	0x3cd5481c	0.026035361
69	0xbd8d4cb3	-0.06899395
70	0xbc8b04ed	-0.016970122
71	0x3da49c33	0.08037605
72	0xbd35715e	-0.04429757
73	0xbce9034e	-0.028443959
74	0xbd8e799f	-0.06956791
75	0xbad06a63	-0.0015900846
76	0x3d85133e	0.06497811
77	0xbc1dfda0	-0.009642988
78	0xbda1326b	-0.078709446
79	0xbc12ccb1	-0.008959935
80	0x3d9841a9	0.07434399
81	0x3d5f5077	0.054520097
82	0xbb90c97a	-0.004418549
83	0x3d5ee8cc	0.05442123
84	0x3da29bd7	0.0793988
85	0x3d30fc2d	0.043209244
86	0xbd25202e	-0.040313892
87	0xbc87c47c	-0.016573183
88	0x3c1a4c44	0.009417597
89	0x3d5f3c3d	0.054500807
90	0x3cd711f1	0.026253672
91	0x3d4ce9a5	0.05002751
92	0x3d99736d	0.07492719
93	0xbc25edf0	-0.0101275295
94	0xbd9a78b4	-0.075425535
95	0x3d0e435e	0.034732215
96	0x3d6a333b	0.057177763
97	0xbaad0969	-0.0013201657
98	0x3d9edcb0	0.077569366
99	0x3caa2835	0.020771125
100	0x3d772be1	0.06034458
101	0x3d01e760	0.031714797
102	0xbd81f412	-0.06345381
103	0xbcef446b	-0.029207429
104	0x3d979408	0.074012816
105	0x3b90849f	0.004410341
106	0xbd8d06f9	-0.068860956
107	0x3da95584	0.08268264
108	0xbd26fcef	-0.04076856
109	0xbca2e5b6	-0.019884925
110	0x3c52d73a	0.012868697
111	0x3dad210a	0.08453567
112	0xbc1b24c6	-0.009469217
113	0x3cd52d6b	0.026022634
114	0xbd94cac9	-0.07265241
115	0x3b72bac6	0.0037037595
116	0x3c803062	0.01564807
117	0xbd662ce3	-0.05619515
118	0x3d6d1d56	0.057889305
119	0xbd542b17	-0.051798906
120	0x3daf06b4	0.085462004
121	0x3db1efa7	0.08688288
122	0x3bbb746b	0.005720665
123	0xbb9a7c92	-0.004714557
124	0xba907e86	-0.0011024035
125	0xbdaf86ab	-0.08570608
126	0x3c8f2087	0.017471565
127	0xbcfca3ad	-0.030839765
128	0xbd3a343e	-0.04545998
129	0x3d5ea0e5	0.05435266
130	0x3c659e24	0.014014754
131	0xbd12f2dd	-0.035876144
132	0xbda1d2cd	-0.07901535
133	0xbcd6a1d8	-0.02620022
134	0x3d419eea	0.047270693
135	0x3d8c82d9	0.06860895
136	0xbd9c1b69	-0.076224156
137	0xbd0c3bc7	-0.034236696
138	0xbc83ddcf	-0.016096978
139	0xbd224776	-0.03961893
140	0xbc7c80d4	-0.015411574
141	0x3cd6f75c	0.026240997
142	0xbd3b89c7	-0.04578569
143	0xbd9954df	-0.07486891
144	0xbd9b0ed9	-0.07571191
145	0xbd07cace	-0.033152394
146	0xbdaef5d2	-0.0854298
147	0xbd8fce1c	-0.07021734
148	0x3c8c79c5	0.017147908
149	0xbdb0f6a4	-0.08640793
150	0xbc680377	-0.014160982
151	0xbd858755	-0.06519953
152	0xbcd002c6	-0.025391947
153	0xbc8d4c23	-0.017248219
154	0x3c6ae2fd	0.014336345
155	0xbd5e8592	-0.0543266
156	0x3cd4ac5f	0.0259611
157	0xbd2eb213	-0.042650294
158	0x3c519787	0.012792475
159	0xbc1098a4	-0.008825455
160	0x3c6aaca1	0.0143233845
161	0xbd95f95f	-0.073229544
162	0xbcf6c2d7	-0.030122204
163	0xbdb167d9	-0.086623855
164	0x3c2886e2	0.010286065
165	0xbd24f1a2	-0.0402695
166	0xbda31327	-0.079626374
167	0x3d6ceb3e	0.057841532
168	0xbd5879ae	-0.052850418
169	0x39c4c4df	0.00037530714
170	0xbb68ecb9	-0.0035541488
171	0x3b845a59	0.0040390906
172	0x3cc8acb3	0.024496412
173	0xbcfc4bc6	-0.03079785
174	0x3c7d291f	0.015451699
175	0x3a17d0b6	0.0005791293
176	0x3d8fa5b8	0.0701403
177	0xbcbd4d74	-0.023108222
178	0xbdaf54ef	-0.08561122
179	0xbc501a44	-0.012701575
180	0x3d6a051a	0.05713377
181	0x3d6815b5	0.056661326
182	0xbd83ecd4	-0.06441656
183	0xbc4cefc9	-0.012508341
184	0x3c451477	0.012028805
185	0xbd7fea92	-0.062479563
186	0x3dae1be7	0.08501416
187	0xbca64aa8	-0.02029927
188	0xbbcfc9f6	-0.0063412143
189	0xbc8ebba7	-0.017423464
190	0xbd0fa5bd	-0.03507017
191	0xbd92245e	-0.07135843
192	0xbd6093b7	-0.05482837
193	0x3d3a4b94	0.045482233
194	0xbd8c8db4	-0.06862965
195	0xbc576008	-0.013145454
196	0x3c0209bf	0.007936894
197	0x3c3c0c51	0.011477546
198	0x3d22d197	0.03975066
199	0xbd281be0	-0.04104221
200	0x3b1670ec	0.002295549
201	0xbd01afcd	-0.031661797
202	0x3cf83d30	0.030302614
203	0x3c0671f0	0.008205876
204	0x3d3912d1	0.04518396
205	0x3bbf143b	0.005831269
206	0xbd35d520	-0.044392705
207	0x3cce610d	0.025192762
208	0xbd18cbf7	-0.03730389
209	0x3dacd31e	0.08438705
210	0x3b219f78	0.0024661701
211	0xbb9a612b	-0.0047112904
212	0xbd6336e4	-0.05547227
213	0xbd6beb48	-0.05759743
214	0x3bbf1726	0.005831617
215	0x3d041173	0.032243203
216	0xbda88ef5	-0.08230392
217	0x3b105c95	0.002202784
218	0xbcd79204	-0.026314743
219	0xbbdc6ffb	-0.0067272163
220	0xbd047fe9	-0.032348547
221	0x3d9d605d	0.076843955
222	0xbd38de94	-0.045134142
223	0xbc24f1a2	-0.010067375
224	0x3d35d4f0	0.044392526
225	0x3ca43ee4	0.02004952
226	0xbd92b331	-0.07163084
227	0x3db2aaaa	0.08723958
228	0x3ccfbd26	0.025358748
229	0x3c4518c1	0.012029828
230	0xbcf401ae	-0.029785957
231	0x3daba268	0.08380586
232	0x3d371b6f	0.044703897
233	0x3bf38ee8	0.0074328072
234	0xbd010577	-0.031499352
235	0xbd1eb247	-0.038744237
236	0xbb81c260	-0.003959939
237	0x3db43c00	0.088005066
238	0xbd714640	-0.058904886
239	0x3c6c1d90	0.014411345
240	0xbdaf8eb6	-0.08572142
241	0xbd3b2ce4	-0.045697108
242	0x3c8448b7	0.016147954
243	0x3cae00d5	0.021240631
244	0xbd8b6a72	-0.06807412
245	0x3d18a554	0.037267044
246	0xbda7e942	-0.08198787
247	0xbc00ba89	-0.007856973
248	0xbbee1172	-0.0072652632
249	0xbd34d1a1	-0.04414523
250	0xbd8583e7	-0.06519299
251	0x3d1d8e69	0.03846589
252	0xbd92137c	-0.071326226
253	0x3cc3d940	0.023907304
254	0x3bb4bbad	0.0055155368
255	0xbcd5e412	-0.026109729

layer2.bias f4 [128]
0	0x3d647a3f	0.055780645
1	0x3d453600	0.0481472
2	0x3d1c3f8f	0.03814655
3	0x3d197146	0.03746154
4	0xbd905d70	-0.07049072
5	0xbcd2b2ae	-0.025719967
6	0x3b175afa	0.0023094998
7	0xbb8a37cd	-0.0042180778
8	0xbd6897a3	-0.056785237
9	0x3d7cffe0	0.06176746
10	0x3d93ad94	0.07210842
11	0x3ca2eafe	0.019887444
12	0x3d2e3339	0.04252932
13	0xbda6c838	-0.081436574
14	0xbd50a7af	-0.050941166
15	0xbd591ca6	-0.053005837
16	0x3c974e94	0.018470086
17	0x3d60c23a	0.05487273
18	0xbd7e6a66	-0.06211319
19	0xbdac7e0d	-0.0842248
20	0xbcb27297	-0.021783156
21	0x3c2bbf31	0.010482595
22	0x3cd58d30	0.0260683
23	0x3d134efd	0.035964
24	0xbc1d3419	-0.009594941
25	0x3cb346f7	0.021884425
26	0xbda79eef	-0.08184611
27	0xbda9178a	-0.08256443
28	0x3d6a804e	0.057251267
29	0x3d9a3345	0.0752931
30	0xbd9c2fe8	-0.07626325
31	0xbb2a7d75	-0.002601472
32	0xbd661fdc	-0.056182727
33	0xbca43689	-0.020045536
34	0xbd3e76a0	-0.04649985
35	0x3d37682a	0.044777073
36	0x3d918417	0.07105272
37	0xbd793e9c	-0.060850725
38	0x3d8b24c8	0.06794125
39	0x3b4dc692	0.0031398875
40	0x3cfe4cef	0.031042544
41	0x3d269e26	0.040678166
42	0x3c3aa750	0.0113924295
43	0x3d0dfdf3	0.034666013
44	0x3d4b71c9	0.04966906
45	0x3c0fb9dc	0.00877234
46	0x3d0a4e6d	0.0337662
47	0x3d21698d	0.0394073
48	0xbd814b0d	-0.06313143
49	0x3d2ebe89	0.042662177
50	0x3d418db6	0.047254287
51	0x3d401185	0.046891708
52	0x3d97fa2b	0.07420763
53	0x3c58bdeb	0.013228874
54	0x3d8e4a5b	0.06947776
55	0x3d05fe9f	0.03271353
56	0xbc8eb912	-0.017422233
57	0xbd493ed4	-0.049132183
58	0xbcc9c533	-0.024630165
59	0x3cc7b1d5	0.02437679
60	0xbd80052b	-0.06250986
61	0x3d67bcfd	0.056576718
62	0xbdb07b61	-0.08617283
63	0x3c3e268e	0.011605872
64	0x3d88ec7d	0.066857316
65	0xbcf5be79	-0.029998051
66	0xbc9e0dbb	-0.019293657
67	0x3c4b208b	0.012397896
68	0x3b1f9490	0.0024350025
69	0x3d99041c	0.07471487
70	0x3d6596f8	0.05605218
71	0xbd6b586a	-0.057457365
72	0xbd922be0	-0.07137275
73	0xbda42fe7	-0.08016949
74	0xbd1058bd	-0.035240877
75	0xbcdbd6fb	-0.02683591
76	0xbcefac2f	-0.029256908
77	0xbdaa4ccd	-0.0831543
78	0x3d83e685	0.064404525
79	0xbc2c7a00	-0.010527134
80	0xbd530f71	-0.051528398
81	0xbd4aa280	-0.04947138
82	0xbb138337	-0.002250863
83	0xbcfea788	-0.031085745
84	0xbd585c42	-0.05282236
85	0xbd231bf5	-0.039821584
86	0x3cc043b7	0.023469789
87	0x3d638353	0.055545162
88	0x3b9cc4fe	0.0047842255
89	0x3d3578a3	0.0443045
90	0x3d622b49	0.05521706
91	0xbc5ec16c	-0.01359592
92	0xbda2cfbc	-0.079497784
93	0xbd9540b7	-0.07287734
94	0x3d459471	0.048237268
95	0xbdae7c58	-0.085198104
96	0x3d875159	0.06607313
97	0xbd7d9878	-0.061912984
98	0xbd9e7891	-0.0773784
99	0x3d67616b	0.05648939
100	0x3d8bc5c3	0.068248294
101	0x3ced20e0	0.02894634
102	0xbb4e479e	-0.0031475793
103	0xbca90070	-0.020630091
104	0x3d41e693	0.047339033
105	0xbd1b65d4	-0.037938908
106	0x3bc7997b	0.0060912943
107	0x3c984726	0.018588614
108	0xbd9b61a7	-0.07586985
109	0xbc11b6b6	-0.008893659
110	0x3da702b4	0.081548125
111	0x3d3a9b8f	0.04555851
112	0xbd518c39	-0.051159117
113	0x3d5f7bf7	0.05456158
114	0xbd15d4ff	-0.036580082
115	0x3d2d03d2	0.04223997
116	0x3d8a83d3	0.06763425
117	0xbd85a595	-0.06525723
118	0xbd3ac5fc	-0.04559897
119	0xbca6f9e8	-0.020382836
120	0xbd3f3e70	-0.046690404
121	0x3cb8ec12	0.022573505
122	0x3d58d784	0.052939907
123	0x3d9cad4b	0.076502405
124	0xbcaa9d58	-0.02082698
125	0xbd2b601e	-0.04183971
126	0x3d789d58	0.06069693
127	0xbd5c2aff	-0.05375194

layer3.weight f4 [4, 128]
0	0xbd285bed	-0.041103292
1	0xbba71d60	-0.0050999373
2	0x3c95433b	0.018220535
3	0x3d81edd5	0.06344191
4	0xbd21241d	-0.03934108
5	0x3cfc41fc	0.030793183
6	0xbd618f9f	-0.05506861
7	0x3d0365fc	0.03207968
8	0x3d1959d4	0.037439182
9	0xbda4807a	-0.080323175
10	0xbcd716a0	-0.026255906
11	0x3d7b52b5	0.061358172
12	0xbda650a1	-0.081208475
13	0xbcb1c082	-0.02169824
14	0x3d992442	0.07477619
15	0xbd10d3f3	-0.03535838
16	0x3da61894	0.08110157
17	0xbdb1a0d5	-0.086732544
18	0x3d1b93bf	0.0379827
19	0xbd0a3895	-0.033745367
20	0xbd7a72aa	-0.06114451
21	0x3d9f9ac0	0.07793188
22	0xbd645550	-0.055745423
23	0xbcaeda66	-0.021344375
24	0xbd57ddf4	-0.052701905
25	0xbd115ff8	-0.035491914
26	0x3da96094	0.08270374
27	0x3c7aca55	0.015307029
28	0xbd8c0074	-0.06836024
29	0x3d0c4f01	0.03425503
30	0x3d9b99b7	0.07597678
31	0xbd9b6431	-0.07587469
32	0xbd64e6e1	-0.055884246
33	0xbd96d1d6	-0.07364242
34	0x3d98fdab	0.07470258
35	0x3ccd4a6e	0.025059905
36	0x3b716c50	0.003683824
37	0x3c2a4d60	0.010394424
38	0xbc90ba35	-0.017666915
39	0xbc5096ce	-0.012731267
40	0x3d1d2c36	0.03837224
41	0xbd7a807c	-0.06115769
42	0x3c56ae6a	0.013103107
43	0xbd15c132	-0.0365612
44	0xbc54ea00	-0.012995243
45	0x3d81ffbb	0.06347605
46	0xb9a5c44e	-0.0003161751
47	0x3a8d827e	0.0010796336
48	0xbd29a463	-0.041416537
49	0xbd70af13	-0.058760714
50	0xbd80b377	-0.0628423
51	0xbb6d5c83	-0.0036218471
52	0xbce2cf9c	-0.027686886
53	0x3c9f3e90	0.019439012
54	0xbd69ab22	-0.05704797
55	0xbd9b64c1	-0.07587577
56	0xbd7a6f2f	-0.06114119
57	0x3d42a335	0.047518928
58	0x3d4740e4	0.04864587
59	0x3d84e1c1	0.06488372
60	0x3ce8f048	0.028434888
61	0x3d59b666	0.053152464
62	0xbc93c592	-0.018038545
63	0x3db1dc06	0.08684544
64	0xbd2e4174	-0.04254289
65	0x3d40e769	0.04709569
66	0xbd4b5a73	-0.049646806
67	0xbd56819d	-0.052369703
68	0xbd2cdffb	-0.042205792
69	0x3d9faeaa	0.077969864
70	0xbd1861dd	-0.037202705
71	0xbb88f9c7	-0.0041801664
72	0xbd35c87f	-0.04438066
73	0xbd62a063	-0.055328738
74	0xbccbfe44	-0.024901517
75	0xbd60545a	-0.054767944
76	0xbd615e06	-0.05502131
77	0x3d3bd721	0.04585946
78	0xbd980e9c	-0.074246615
79	0x3c0cd585	0.008595829
80	0xbce1fedb	-0.027587345
81	0xbd92dbaf	-0.071708076
82	0xbcb58e6a	-0.022162635
83	0x3d419a5a	0.04726634
84	0xbd220b31	-0.039561454
85	0xbbda2efb	-0.0066584325
86	0xbcf1d1fb	-0.029519072
87	0x3c86b7c3	0.016445046
88	0x3ceef155	0.02916781
89	0x3ccb5385	0.024820099
90	0xbda6cd6c	-0.0814465
91	0x3d8908e9	0.066911526
92	0x3b31768d	0.0027078718
93	0xbc74d471	-0.014943228
94	0xbd13133d	-0.03590702
95	0x3d309375	0.043109376
96	0x3b7d418f	0.0038643812
97	0x3d33d5e0	0.04390514
98	0xbb120506	-0.0022280826
99	0xbcb6d13b	-0.022316566
100	0x3d060812	0.03272254
101	0x3d5b766b	0.05357973
102	0x3d021a2d	0.031763244
103	0xbccaf728	-0.024776056
104	0xbbe8f5ea	-0.0071093934
105	0xbcb92169	-0.022598939
106	0x3c95651b	0.018236687
107	0xbc87a07d	-0.016556019
108	0xbba15a2c	-0.0049240794
109	0xbd257a34	-0.040399745
110	0xbd8b5735	-0.06803743
111	0xbd8a65ba	-0.06757684
112	0xbcbd84c8	-0.023134604
113	0xbd880045	-0.066406764
114	0xbd87d2a3	-0.06631973
115	0x3d3fe3a3	0.04684795
116	0x3d03eec7	0.032210138
117	0x3d0e9fa5	0.034820218
118	0xbb5cbc9d	-0.0033681758
119	0x3c4f232d	0.012642664
120	0xbd9dd2e0	-0.07706237
121	0x3d8bdb91	0.06828988
122	0x3d67f79a	0.056632616
123	0x3d9fdc3c	0.07805678
124	0xbd5acadb	-0.053416114
125	0xbd253ffa	-0.040344216
126	0xbd8c6bfb	-0.06856533
127	0x3d99e4dd	0.07514355
128	0x3bf60710	0.007508166
129	0x3cfb5ee4	0.030684896
130	0x3ccc5412	0.024942432
131	0x3d1da12e	0.03848379
132	0xbccf47f2	-0.02530286
133	0x3dac96d2	0.08427204
134	0xbd9a5706	-0.0753613
135	0xbda76740	-0.0817399
136	0xbd88435b	-0.06653472
137	0xbd3b2bf9	-0.045696232
138	0x3dae8ddc	0.08523151
139	0x3d60a2f6	0.05484291
140	0x3d48f66d	0.049063135
141	0xbd575e98	-0.052580446
142	0x3b90ee3f	0.0044229324
143	0x3ca14c08	0.019689575
144	0x3d15dd1e	0.036587827
145	0x3d188de5	0.037244696
146	0xbd08e3e1	-0.033420447
147	0xbcaf4c9f	-0.02139884
148	0x3c39d603	0.011342528
149	0xbc3b9257	-0.011448464
150	0x3d5da7fe	0.054115288
151	0x3cef312c	0.029198252
152	0x3d8eb895	0.069688
153	0xbcfda346	-0.030961644
154	0xbcae572a	-0.021281797
155	0xbd481356	-0.048846565
156	0xbd231253	-0.039812397
157	0x3d1783e9	0.036991034
158	0x3da0dd16	0.07854669
159	0x3b81cb91	0.0039610346
160	0x3d85f982	0.065417305
161	0xbbe5bcb9	-0.007011023
162	0xbd18155d	-0.03712975
163	0xbd920fb1	-0.07131899
164	0x3c11d47f	0.008900761
165	0x3c8c96df	0.017161785
166	0x3d37e118	0.0448924
167	0xbd403239	-0.046922896
168	0x3d9886cb	0.07447585
169	0xbd7717fb	-0.060325604
170	0xbd2da3f5	-0.04239269
171	0x3d908df2	0.07058324
172	0xbc6356ff	-0.013875722
173	0x3d8587d7	0.0652005
174	0x3da7861a	0.08179875
175	0x3c466868	0.012109853
176	0x3d8ffb89	0.070303984
177	0x3bca8309	0.0061801714
178	0xbd8eb957	-0.069689445
179	0x3cc4e840	0.024036527
180	0x3b57341a	0.0032837451
181	0xbd6ed0a9	-0.058304463
182	0xbd16a165	-0.03677501
183	0x3db33ed9	0.087522216
184	0xbd2145d5	-0.039373238
185	0xbd872559	-0.065989204
186	0x3ce65695	0.028117457
187	0x3d0cfacc	0.034418866
188	0xbd09e977	-0.033669915
189	0x3d7bb3e1	0.061450843
190	0x3cffd0bd	0.031227464
191	0xbd0bd873	-0.03414197
192	0x3d901375	0.07034961
193	0x3d371e35	0.044706542
194	0x3daa199e	0.08305667
195	0xbcd8fda5	-0.026488135
196	0x3ccebbb2	0.025235984
197	0xbbae235f	-0.005314275
198	0xbc89e20a	-0.016831417
199	0xbcaf52f6	-0.021401864
200	0x3d926436	0.0714802
201	0xbcfdb80b	-0.030971548
202	0xbc230a4e	-0.009951187
203	0x3ccb9c93	0.024854934
204	0x3bbbe507	0.0057340893
205	0xbcd8c9f0	-0.026463479
206	0xbd8fe879	-0.070267625
207	0xbd121149	-0.035661016
208	0xbd8c31fe	-0.06845473
209	0x3da9d89d	0.08293269
210	0x3dadebe9	0.08492262
211	0xbc8dbed2	-0.017302904
212	0xbd9b5ee6	-0.0758646
213	0xbd17d4f1	-0.03706831
214	0x399dd9bd	0.000301076
215	0xbd83c960	-0.064348936
216	0x3c84f594	0.016230382
217	0x3d925dbb	0.07146784
218	0xbc88d8a2	-0.016704861
219	0xbd4f04b7	-0.050541606
220	0xbd512f6d	-0.05107062
221	0xbd70e9b3	-0.058816623
222	0xbd7437c3	-0.05962349
223	0x3b4c7959	0.0031200259
224	0xbab9af9b	-0.0014166714
225	0xbd496a78	-0.049173802
226	0x3d74d9a0	0.059777856
227	0xbc55b6e2	-0.013044091
228	0x3c1d994d	0.009619069
229	0xbcb6dfed	-0.022323573
230	0xbcd27a93	-0.025693214
231	0xbd00245d	-0.03128468
232	0xbd53f987	-0.05175164
233	0xbdb0234e	-0.08600484
234	0x3daf0c92	0.085473195
235	0xbd98f077	-0.0746774
236	0xbc375203	-0.011188987
237	0xbd558e80	-0.05213785
238	0x3c217932	0.009855555
239	0xbcdc4572	-0.026888583
240	0x3d036268	0.03207627
241	0xbd8c7d94	-0.068598896
242	0x3d3b0d59	0.045667026
243	0x3da3b4dd	0.07993481
244	0xbd9c420f	-0.07629787
245	0xbda73cda	-0.081659034
246	0xbda1fcaf	-0.07909524
247	0xbd8c3fa9	-0.0684808
248	0xbdadacde	-0.084802374
249	0x3c9d120c	0.019173644
250	0xbb18a1d6	-0.002328982
251	0xbd0360cb	-0.03207473
252	0xbdaee74f	-0.08540212
253	0xbc83ee0d	-0.016104722
254	0x3d9aad63	0.07552602
255	0xbc44d539	-0.012013727

layer3.bias f4 [4]
0	0xbd27a62d	-0.040929962
1	0x3da1f046	0.07907157
2	0x3d91fbda	0.07128115
3	0xbd690c60	-0.056896567

layer1.weight f4 [128, 4]
0	0xbda30ac0	-0.07961035
1	0x3e5d6798	0.21621549
2	0xbbf30300	-0.007416129
3	0x3eabfb76	0.33590287
4	0x3e935ffc	0.28784168
5	0xbcfba900	-0.030720234
6	0x3d86f800	0.06590271
7	0xbecea514	-0.4036032
8	0x3d4078f0	0.046990335
9	0xbedf3790	-0.43597078
10	0x3eba48d4	0.36383688
11	0x3d262930	0.040566623
12	0x3dbdc198	0.09265441
13	0x3ecbfd5a	0.3984173
14	0xbefe82ae	-0.49709076
15	0xbe304d68	-0.17217028
16	0x3ed4b468	0.4154389
17	0xbdde1ea8	-0.10845691
18	0xbd09af50	-0.033614457
19	0xbee5d604	-0.44889843
20	0xbea34576	-0.31888932
21	0x3e71d278	0.23615444
22	0x3ef7a5ca	0.48368675
23	0xbe0e3968	-0.13889086
24	0xbd5ac7b0	-0.053413093
25	0xbe35e970	-0.1776483
26	0xbe79e750	-0.24404645
27	0x3ec5e2ea	0.38649684
28	0xbeb0cde6	-0.34532088
29	0x3d158700	0.0365057
30	0x3e7bd97c	0.24594682
31	0x3e670e84	0.22564131
32	0x3eb5029c	0.35353553
33	0xbe699b1c	-0.22813076
34	0x3ed90d16	0.42392796
35	0x3e8f3dc0	0.279768
36	0x3cd7a5c0	0.026324153
37	0x3de27f38	0.11059421
38	0x3eb66598	0.35624385
39	0x3d99ce10	0.075100064
40	0xbd7306c0	-0.05933261
41	0xbe77eb58	-0.2421087
42	0x3e0fb6f0	0.14034629
43	0xbef7553a	-0.4830721
44	0xbe37feb4	-0.17968255
45	0xbd8fb6f8	-0.070173204
46	0xbea9faea	-0.33199245
47	0x3da1f568	0.07908136
48	0xbee91312	-0.45522362
49	0x3e600408	0.21876538
50	0xbe2d7d60	-0.16942358
51	0xbe640ed4	-0.22271281
52	0xbe8cf358	-0.27529407
53	0xbedcbe3c	-0.43113887
54	0xbec513d2	-0.38491684
55	0x3e41fe28	0.18944609
56	0xbeba1bdc	-0.3634938
57	0x3e6893d0	0.22712636
58	0x3eb9ef2a	0.3631528
59	0xbe3780b4	-0.1792019
60	0x3edb1790	0.42791414
61	0x3ef401a6	0.47657508
62	0x3e8cf338	0.2752931
63	0x3d204750	0.03913051
64	0x3e9248aa	0.28571063
65	0x3e6fd694	0.23421699
66	0x3b472a00	0.0030390024
67	0xbe0fd108	-0.14044583
68	0xbea385d6	-0.31938046
69	0x3eab6f16	0.3348319
70	0xbe314334	-0.17310792
71	0x3e0a902c	0.1353156
72	0x3ef99a5c	0.4875058
73	0x3c8558e0	0.01627773
74	0x3e5ff9ec	0.21872681
75	0xbe92dfc8	-0.28686357
76	0xbef0bb46	-0.47017878
77	0x3e9b0290	0.30275393
78	0xbefc0d3e	-0.49228853
79	0xbee79396	-0.45229787
80	0x3e289f84	0.164671
81	0x3d9130f0	0.07089412
82	0x3ef89bf4	0.48556483
83	0xbd955f30	-0.07293546
84	0x3e4601d0	0.19336629
85	0xbe625be4	-0.22105366
86	0x3efd040e	0.49417156
87	0x3d33cfc0	0.043899298
88	0x3eb88c1a	0.3604439
89	0xbec39b5c	-0.38204467
90	0x3e3f0564	0.186544
91	0x3d2236b0	0.039602935
92	0xbe26cd14	-0.16289169
93	0x3e092774	0.13393956
94	0x3de49748	0.11161667
95	0x3e098010	0.13427758
96	0xbefbee62	-0.4920531
97	0x3e3e49e4	0.18582875
98	0x3ee5bfde	0.44872946
99	0x3ef67568	0.4813645
100	0x3d35c760	0.044379592
101	0xbd2f3360	-0.042773604
102	0x3eb86612	0.36015373
103	0xbe8105ae	-0.25199646
104	0x3e89dcf4	0.26926386
105	0xbe2c84b4	-0.16847497
106	0x3eaf9ef4	0.3430096
107	0xbe92ec98	-0.28696132
108	0x3b845a80	0.0040391088
109	0x3e3ce784	0.18447691
110	0x3eb39ee0	0.3508215
111	0x3df4f090	0.11959946
112	0x3dd1f488	0.10251719
113	0x3eda1db8	0.426008
114	0x3eedc5bc	0.46439922
115	0xbe02e01c	-0.12780803
116	0x3d5ef190	0.05442959
117	0x3ea6aa2c	0.32551706
118	0xbdc6afb8	-0.097014844
119	0xbd92fb58	-0.07176846
120	0xbeacb4ea	-0.33731776
121	0x3e904b08	0.28182244
122	0x3c5ec4c0	0.013596714
123	0x3e872938	0.26398635
124	0x3ea77976	0.32709855
125	0xbd951f70	-0.07281387
126	0x3d5350f0	0.05159086
127	0x3e9cbcbc	0.30612743
128	0x3eabefd8	0.33581424
129	0x3c3d4c40	0.011553824
130	0x3e5e4964	0.21707684
131	0xbe53d9b8	-0.20688522
132	0xbd63cde0	-0.05561626
133	0xbd9eda90	-0.07756531
134	0xbbfcad80	-0.0077111125
135	0x3e76b958	0.2409414
136	0xbe7b9444	-0.24568278
137	0x3ca2b7c0	0.01986301
138	0xbeab6236	-0.33473366
139	0xbe2b9130	-0.16754603
140	0xbe84fd7a	-0.25974637
141	0x3dc79a60	0.097462416
142	0x3ef90fc4	0.4864484
143	0x3e5eccd8	0.21757829
144	0x3e8a5488	0.27017617
145	0xbea94bec	-0.33065736
146	0xbecafbb2	-0.39645153
147	0x3cf22380	0.029557943
148	0xbe90a4d6	-0.2825076
149	0x3d9cfea8	0.07665759
150	0x3eabc014	0.3354498
151	0x3ead50f2	0.3385082
152	0x3eeca5b8	0.46220183
153	0x3eb708a4	0.3574878
154	0x3eb05780	0.34441757
155	0x3dbd7eb0	0.09252679
156	0xbeeb665a	-0.45976526
157	0xbe32cdc8	-0.17461312
158	0x3ee1532c	0.44008768
159	0x3ec78f92	0.38976723
160	0xbe520078	-0.20507991
161	0x3ecda2ec	0.40163362
162	0xbdb3a2d8	-0.08771294
163	0x3e195ca8	0.14976752
164	0x3e077034	0.13226396
165	0xbefe8f30	-0.49718618
166	0x3e0b7ca4	0.13621765
167	0xbeff7c5a	-0.4989956
168	0xbddc3da0	-0.107539415
169	0x3e533308	0.20624936
170	0xbe0d4710	-0.1379664
171	0x3c5e8480	0.013581395
172	0xbda84e30	-0.08218038
173	0x3e07ee88	0.13274586
174	0x3e885b48	0.26632142
175	0x3e7a87c0	0.24465847
176	0xbe918484	-0.28421414
177	0x3edb5812	0.4284063
178	0xbe9bdcc6	-0.30441874
179	0x3e76e9e8	0.24112666
180	0x3e2ebf48	0.17065156
181	0x3dec0188	0.115237296
182	0xbeb87c30	-0.36032248
183	0x3eb518fe	0.3537063
184	0xbeca655e	-0.39530462
185	0xbe399680	-0.18123817
186	0x3e167e1c	0.14696544
187	0x3e9e7a80	0.30952835
188	0xbeac6d96	-0.33677357
189	0x3ceb2d80	0.02870822
190	0x3d902888	0.07038981
191	0x3e4ba874	0.19888479
192	0xbebde4f2	-0.37088734
193	0x3e32bcb8	0.17454803
194	0x3ee95ad6	0.45577115
195	0x3eb57f9e	0.35448927
196	0x3ec24e5c	0.37950408
197	0x3eb95b9e	0.3620271
198	0x3d746720	0.05966866
199	0xbe9c3002	-0.30505377
200	0xbd139830	-0.03603381
201	0x3e78c198	0.242926
202	0xbefcf316	-0.4940421
203	0x3dce9b68	0.10088235
204	0xbd985c80	-0.07439518
205	0x3db395f0	0.08768833
206	0xbef14aea	-0.47127467
207	0xbefb743e	-0.49112123
208	0x3e68bb80	0.22727776
209	0x3dcdfad0	0.10057604
210	0xbec3ed44	-0.38266957
211	0xbe45b4d4	-0.19307262
212	0xbe6d28a0	-0.23160028
213	0x3efc6fa8	0.49303937
214	0xbe876ce6	-0.2645027
215	0xbe6d0cdc	-0.23149437
216	0x3d1cc200	0.03827095
217	0x3e863ba6	0.26217383
218	0x3e047cc4	0.1293822
219	0xbe870a42	-0.26375014
220	0x3e78bdd8	0.2429117
221	0x3ec0fe00	0.37693787
222	0x3d701a00	0.058618546
223	0xbe021310	-0.12702584
224	0x3e9d22ba	0.30690557
225	0x3e1641ac	0.1467349
226	0xbef231be	-0.47303575
227	0x3e709c9c	0.23497242
228	0x3e675f00	0.22594833
229	0x3bdb0f00	0.0066851377
230	0x3ea675da	0.3251179
231	0x3daac4c0	0.08338308
232	0xbecce446	-0.4001791
233	0xbed0f666	-0.40812987
234	0x3e9f00b0	0.31055212
235	0xbea6130a	-0.324364
236	0x3e1bee44	0.1522761
237	0x3ec75ff6	0.389404
238	0x3e04f274	0.12983114
239	0xbed8b630	-0.42326498
240	0x3c224bc0	0.0099057555
241	0x3cb7bfc0	0.0224303
242	0xbecc4c42	-0.3990193
243	0x3d930ff8	0.0718078
244	0x3eed2bde	0.4632253
245	0x3ec80c66	0.3907196
246	0xbdba4040	-0.09094286
247	0x3ed5cc6e	0.4175753
248	0x3e0f4264	0.1399017
249	0xbeb45be8	-0.3522637
250	0xbe53702c	-0.20648259
251	0x3dac0b40	0.08400583
252	0xbdfff190	-0.12497246
253	0x3ee883d2	0.4541307
254	0xbda67968	-0.08128625
255	0xbc8beae0	-0.01707977

layer1.bias f4 [128]
0	0x3d3251f0	0.043535173
1	0x3ee2306c	0.44177568
2	0x3e289790	0.16464067
3	0x3ee369fc	0.44416797
4	0x3ea98052	0.33105713
5	0x3edfd7d6	0.43719357
6	0x3de2b8f8	0.11070436
7	0xbcd97440	-0.02654469
8	0x3e91e478	0.2849462
9	0xbd813308	-0.063085616
10	0xbed26d52	-0.4109903
11	0x3ee96d0e	0.45591015
12	0x3e045698	0.12923658
13	0xbea1f102	-0.31629187
14	0x3e9d624c	0.30739057
15	0x3df6e3a0	0.12055135
16	0x3eae0468	0.33987737
17	0xbe946a04	-0.28987134
18	0xbe76c664	-0.24099118
19	0xbec61e28	-0.38694882
20	0x3e82b4aa	0.2552846
21	0xbe0e9568	-0.13924181
22	0xbeb8ba3c	-0.36079586
23	0x3da93f88	0.08264071
24	0xbc574e00	-0.013141155
25	0xbe01bf94	-0.12670738
26	0x3eba20e8	0.3635323
27	0x3e520a5c	0.20511764
28	0xbef993c4	-0.4874555
29	0x3de3ffd0	0.11132777
30	0xbe0612ac	-0.1309306
31	0x3ed1c912	0.40973717
32	0x3eccb3ec	0.3998102
33	0x3e905fba	0.28198034
34	0xbd5b9990	-0.053613245
35	0x3e2f68e4	0.17129856
36	0x3e5e145c	0.21687454
37	0xbe54bc24	-0.20774895
38	0xbdd45a70	-0.10368812
39	0x3ef59a38	0.47969222
40	0xbdaca7f8	-0.08430475
41	0xbe8ceede	-0.2752599
42	0x3e072ef8	0.13201511
43	0x3efb9bb4	0.4914223
44	0x3e009e4c	0.12560385
45	0x3e1ffc88	0.15623677
46	0x3e06534c	0.13117713
47	0x3e4b8154	0.19873554
48	0xbdb3f080	-0.08786106
49	0xbec100b0	-0.37695837
50	0x3eac62dc	0.33669174
51	0xbed16ad8	-0.40901828
52	0xbe9dce0a	-0.30821258
53	0x3effe4ac	0.4997915
54	0x3c52e400	0.012871742
55	0x3de4eb98	0.111777484
56	0xbea8bb04	-0.32955182
57	0xbedee944	-0.43537343
58	0x3e74a224	0.23889977
59	0x3e4bc904	0.199009
60	0x3c98d9a0	0.01865846
61	0xbee78de8	-0.45225453
62	0x3e756d08	0.23967373
63	0x3e206208	0.15662396
64	0x3e8253d2	0.25454575
65	0x3c2ddd40	0.010611832
66	0x3ed8314c	0.4222511
67	0x3eec797a	0.4618643
68	0x3d3dba90	0.046320498
69	0xbe96d8c2	-0.29462248
70	0xbeed2e94	-0.463246
71	0x3ee62274	0.4494816
72	0x3ea3f588	0.32023263
73	0x3ea3c84a	0.31988746
74	0x3ca93980	0.020657301
75	0x3ee93fac	0.4555639
76	0x3ebdc714	0.37065947
77	0x3d09dab0	0.033655822
78	0x3ebcf94e	0.36908954
79	0xbe0afcec	-0.13573045
80	0xbe40f4e4	-0.18843418
81	0x3e2271cc	0.15863723
82	0xbee3c2c6	-0.44484538
83	0xbc849f20	-0.016189158
84	0x3ec93384	0.39297116
85	0xbe2f9e10	-0.1715014
86	0x3d925168	0.07144433
87	0xbdc1c630	-0.094616294
88	0x3cd2a580	0.025713682
89	0x3ea80b5e	0.32821172
90	0x3d7001b0	0.05859536
91	0xbe6670a4	-0.22503906
92	0x3e5a2ae8	0.2130543
93	0xbb81b400	-0.0039582253
94	0x3e9a2b46	0.3011114
95	0xbe8b8e18	-0.27256846
96	0x3efd377c	0.49456394
97	0xbee867de	-0.45391744
98	0x3ef270f2	0.47351795
99	0x3dd19b30	0.10234678
100	0x3edba44e	0.42898792
101	0x3b0c5700	0.002141416
102	0xbea25fec	-0.31713808
103	0x3e07b4b8	0.13252532
104	0x3ecacbb6	0.39608544
105	0xbeee6fd4	-0.46569693
106	0x3e3e72e0	0.18598509
107	0x3ed4288c	0.41437185
108	0xbebf751e	-0.3739404
109	0x3eb9bdcc	0.36277616
110	0xbc992a80	-0.018697023
111	0xbd801f40	-0.062559605
112	0xbe0cd494	-0.13752967
113	0xbed0b0c4	-0.4075986
114	0xbe1b1098	-0.15143049
115	0xbd044900	-0.03229618
116	0x3ea88482	0.32913595
117	0xbea95134	-0.33069766
118	0xbe996fdc	-0.29968154
119	0xbe7854a0	-0.24251032
120	0xbe926fe8	-0.28601003
121	0xbdeba198	-0.11505431
122	0xbef1d2f8	-0.4723127
123	0x3e66d5e4	0.2254253
124	0x3ed9166c	0.4239992
125	0x3ec0b18e	0.37635463
126	0x3cba2060	0.022720516
127	0xbefa104c	-0.4884056

layer2.weight f4 [128, 128]
0	0x3da7c2d2	0.08191456
1	0x3bce7605	0.00630069
2	0x3d88b654	0.06675401
3	0x3d0f4861	0.034981135
4	0x3ce939f9	0.028470026
5	0x3d9fdeee	0.07806192
6	0x3d66e9c6	0.056375287
7	0xbd90a918	-0.07063502
8	0x3bf4a97c	0.007466493
9	0x3bf6714e	0.007520831
10	0xbd2125e7	-0.039342787
11	0x3da9455c	0.082651824
12	0x3b8275cd	0.003981328
13	0x3c631ace	0.013861371
14	0xbd21cc89	-0.0395017
15	0x3d6e996e	0.05825179
16	0xbd3b5ec9	-0.04574469
17	0xbd6f41b3	-0.058412265
18	0xbd837840	-0.0641942
19	0x3d281b9d	0.04104196
20	0xbd68f8c1	-0.056877855
21	0x3d8a9675	0.06766979
22	0xbbdb5869	-0.006693889
23	0xbca6aff9	-0.020347582
24	0xbce0a5a8	-0.027422741
25	0x3d269265	0.040666956
26	0x3c3eed79	0.011653298
27	0x3d1d6e50	0.03843528
28	0x3d5e7226	0.05430808
29	0x3d378a68	0.04480973
30	0xbd4300b3	-0.04760809
31	0x3c2aca2e	0.01042418
32	0xbd1ddc39	-0.0385401
33	0xbcba4d67	-0.022741986
34	0x3bb2dcb3	0.0054584383
35	0xbd658bdb	-0.05604158
36	0xbd82df39	-0.063902326
37	0xbb870a8a	-0.0041211294
38	0xbd11dcc0	-0.035610914
39	0xbd1f9331	-0.038958732
40	0x3da44d86	0.08022599
41	0x3da9ecb2	0.08297099
42	0x3d1ba83d	0.03800224
43	0x39180180	0.00014496408
44	0xbd24b96b	-0.04021589
45	0xbd70c3fd	-0.05878066
46	0x3d0795b5	0.033101756
47	0xbc52e400	-0.012871742
48	0x3d7f85d4	0.062383488
49	0xbd6e089e	-0.058113687
50	0xbd24549f	-0.040119763
51	0xbb889027	-0.004167575
52	0xbc9190dc	-0.01776927
53	0xbc931323	-0.017953461
54	0xbd396b40	-0.045268297
55	0xbda8a662	-0.0823486
56	0xbbfabdd4	-0.007652024
57	0x3bda1d65	0.006656336
58	0x3c98f34f	0.018670706
59	0x3da73e01	0.08166123
60	0x3b9cfb2d	0.0047906847
61	0xbd02e76a	-0.031958975
62	0xbd6a0a05	-0.05713846
63	0xbd3c8ac1	-0.046030764
64	0xbc9a8b7c	-0.01886534
65	0xba1af4b1	-0.00059110956
66	0x3d298979	0.04139087
67	0x3d804a2a	0.06264146
68	0x3cd5481c	0.026035361
69	0xbd8d4cb3	-0.06899395
70	0xbc8b04ed	-0.016970122
71	0x3da49c33	0.08037605
72	0xbd35715e	-0.04429757
73	0xbce9034e	-0.028443959
74	0xbd8e799f	-0.06956791
75	0xbad06a63	-0.0015900846
76	0x3d85133e	0.06497811
77	0xbc1dfda0	-0.009642988
78	0xbda1326b	-0.078709446
79	0xbc12ccb1	-0.008959935
80	0x3d9841a9	0.07434399
81	0x3d5f5077	0.054520097
82	0xbb90c97a	-0.004418549
83	0x3d5ee8cc	0.05442123
84	0x3da29bd7	0.0793988
85	0x3d30fc2d	0.043209244
86	0xbd25202e	-0.040313892
87	0xbc87c47c	-0.016573183
88	0x3c1a4c44	0.009417597
89	0x3d5f3c3d	0.054500807
90	0x3cd711f1	0.026253672
91	0x3d4ce9a5	0.05002751
92	0x3d99736d	0.07492719
93	0xbc25edf0	-0.0101275295
94	0xbd9a78b4	-0.075425535
95	0x3d0e435e	0.034732215
96	0x3d6a333b	0.057177763
97	0xbaad0969	-0.0013201657
98	0x3d9edcb0	0.077569366
99	0x3caa2835	0.020771125
100	0x3d772be1	0.06034458
101	0x3d01e760	0.031714797
102	0xbd81f412	-0.06345381
103	0xbcef446b	-0.029207429
104	0x3d979408	0.074012816
105	0x3b90849f	0.004410341
106	0xbd8d06f9	-0.068860956
107	0x3da95584	0.08268264
108	0xbd26fcef	-0.04076856
109	0xbca2e5b6	-0.019884925
110	0x3c52d73a	0.012868697
111	0x3dad210a	0.08453567
112	0xbc1b24c6	-0.009469217
113	0x3cd52d6b	0.026022634
114	0xbd94cac9	-0.07265241
115	0x3b72bac6	0.0037037595
116	0x3c803062	0.01564807
117	0xbd662ce3	-0.05619515
118	0x3d6d1d56	0.057889305
119	0xbd542b17	-0.051798906
120	0x3daf06b4	0.085462004
121	0x3db1efa7	0.08688288
122	0x3bbb746b	0.005720665
123	0xbb9a7c92	-0.004714557
124	0xba907e86	-0.0011024035
125	0xbdaf86ab	-0.08570608
126	0x3c8f2087	0.017471565
127	0xbcfca3ad	-0.030839765
128	0xbd3a343e	-0.04545998
129	0x3d5ea0e5	0.05435266
130	0x3c659e24	0.014014754
131	0xbd12f2dd	-0.035876144
132	0xbda1d2cd	-0.07901535
133	0xbcd6a1d8	-0.02620022
134	0x3d419eea	0.047270693
135	0x3d8c82d9	0.06860895
136	0xbd9c1b69	-0.076224156
137	0xbd0c3bc7	-0.034236696
138	0xbc83ddcf	-0.016096978
139	0xbd224776	-0.03961893
140	0xbc7c80d4	-0.015411574
141	0x3cd6f75c	0.026240997
142	0xbd3b89c7	-0.04578569
143	0xbd9954df	-0.07486891
144	0xbd9b0ed9	-0.07571191
145	0xbd07cace	-0.033152394
146	0xbdaef5d2	-0.0854298
147	0xbd8fce1c	-0.07021734
148	0x3c8c79c5	0.017147908
149	0xbdb0f6a4	-0.08640793
150	0xbc680377	-0.014160982
151	0xbd858755	-0.06519953
152	0xbcd002c6	-0.025391947
153	0xbc8d4c23	-0.017248219
154	0x3c6ae2fd	0.014336345
155	0xbd5e8592	-0.0543266
156	0x3cd4ac5f	0.0259611
157	0xbd2eb213	-0.042650294
158	0x3c519787	0.012792475
159	0xbc1098a4	-0.008825455
160	0x3c6aaca1	0.0143233845
161	0xbd95f95f	-0.073229544
162	0xbcf6c2d7	-0.030122204
163	0xbdb167d9	-0.086623855
164	0x3c2886e2	0.010286065
165	0xbd24f1a2	-0.0402695
166	0xbda31327	-0.079626374
167	0x3d6ceb3e	0.057841532
168	0xbd5879ae	-0.052850418
169	0x39c4c4df	0.00037530714
170	0xbb68ecb9	-0.0035541488
171	0x3b845a59	0.0040390906
172	0x3cc8acb3	0.024496412
173	0xbcfc4bc6	-0.03079785
174	0x3c7d291f	0.015451699
175	0x3a17d0b6	0.0005791293
176	0x3d8fa5b8	0.0701403
177	0xbcbd4d74	-0.023108222
178	0xbdaf54ef	-0.08561122
179	0xbc501a44	-0.012701575
180	0x3d6a051a	0.05713377
181	0x3d6815b5	0.056661326
182	0xbd83ecd4	-0.06441656
183	0xbc4cefc9	-0.012508341
184	0x3c451477	0.012028805
185	0xbd7fea92	-0.062479563
186	0x3dae1be7	0.08501416
187	0xbca64aa8	-0.02029927
188	0xbbcfc9f6	-0.0063412143
189	0xbc8ebba7	-0.017423464
190	0xbd0fa5bd	-0.03507017
191	0xbd92245e	-0.07135843
192	0xbd6093b7	-0.05482837
193	0x3d3a4b94	0.045482233
194	0xbd8c8db4	-0.06862965
195	0xbc576008	-0.013145454
196	0x3c0209bf	0.007936894
197	0x3c3c0c51	0.011477546
198	0x3d22d197	0.03975066
199	0xbd281be0	-0.04104221
200	0x3b1670ec	0.002295549
201	0xbd01afcd	-0.031661797
202	0x3cf83d30	0.030302614
203	0x3c0671f0	0.008205876
204	0x3d3912d1	0.04518396
205	0x3bbf143b	0.005831269
206	0xbd35d520	-0.044392705
207	0x3cce610d	0.025192762
208	0xbd18cbf7	-0.03730389
209	0x3dacd31e	0.08438705
210	0x3b219f78	0.0024661701
211	0xbb9a612b	-0.0047112904
212	0xbd6336e4	-0.05547227
213	0xbd6beb48	-0.05759743
214	0x3bbf1726	0.005831617
215	0x3d041173	0.032243203
216	0xbda88ef5	-0.08230392
217	0x3b105c95	0.002202784
218	0xbcd79204	-0.026314743
219	0xbbdc6ffb	-0.0067272163
220	0xbd047fe9	-0.032348547
221	0x3d9d605d	0.076843955
222	0xbd38de94	-0.045134142
223	0xbc24f1a2	-0.010067375
224	0x3d35d4f0	0.044392526
225	0x3ca43ee4	0.02004952
226	0xbd92b331	-0.07163084
227	0x3db2aaaa	0.08723958
228	0x3ccfbd26	0.025358748
229	0x3c4518c1	0.012029828
230	0xbcf401ae	-0.029785957
231	0x3daba268	0.08380586
232	0x3d371b6f	0.044703897
233	0x3bf38ee8	0.0074328072
234	0xbd010577	-0.031499352
235	0xbd1eb247	-0.038744237
236	0xbb81c260	-0.003959939
237	0x3db43c00	0.088005066
238	0xbd714640	-0.058904886
239	0x3c6c1d90	0.014411345
240	0xbdaf8eb6	-0.08572142
241	0xbd3b2ce4	-0.045697108
242	0x3c8448b7	0.016147954
243	0x3cae00d5	0.021240631
244	0xbd8b6a72	-0.06807412
245	0x3d18a554	0.037267044
246	0xbda7e942	-0.08198787
247	0xbc00ba89	-0.007856973
248	0xbbee1172	-0.0072652632
249	0xbd34d1a1	-0.04414523
250	0xbd8583e7	-0.06519299
251	0x3d1d8e69	0.03846589
252	0xbd92137c	-0.071326226
253	0x3cc3d940	0.023907304
254	0x3bb4bbad	0.0055155368
255	0xbcd5e412	-0.026109729

layer2.bias f4 [128]
0	0x3d647a3f	0.055780645
1	0x3d453600	0.0481472
2	0x3d1c3f8f	0.03814655
3	0x3d197146	0.03746154
4	0xbd905d70	-0.07049072
5	0xbcd2b2ae	-0.025719967
6	0x3b175afa	0.0023094998
7	0xbb8a37cd	-0.0042180778
8	0xbd6897a3	-0.056785237
9	0x3d7cffe0	0.06176746
10	0x3d93ad94	0.07210842
11	0x3ca2eafe	0.019887444
12	0x3d2e3339	0.04252932
13	0xbda6c838	-0.081436574
14	0xbd50a7af	-0.050941166
15	0xbd591ca6	-0.053005837
16	0x3c974e94	0.018470086
17	0x3d60c23a	0.05487273
18	0xbd7e6a66	-0.06211319
19	0xbdac7e0d	-0.0842248
20	0xbcb27297	-0.021783156
21	0x3c2bbf31	0.010482595
22	0x3cd58d30	0.0260683
23	0x3d134efd	0.035964
24	0xbc1d3419	-0.009594941
25	0x3cb346f7	0.021884425
26	0xbda79eef	-0.08184611
27	0xbda9178a	-0.08256443
28	0x3d6a804e	0.057251267
29	0x3d9a3345	0.0752931
30	0xbd9c2fe8	-0.07626325
31	0xbb2a7d75	-0.002601472
32	0xbd661fdc	-0.056182727
33	0xbca43689	-0.020045536
34	0xbd3e76a0	-0.04649985
35	0x3d37682a	0.044777073
36	0x3d918417	0.07105272
37	0xbd793e9c	-0.060850725
38	0x3d8b24c8	0.06794125
39	0x3b4dc692	0.0031398875
40	0x3cfe4cef	0.031042544
41	0x3d269e26	0.040678166
42	0x3c3aa750	0.0113924295
43	0x3d0dfdf3	0.034666013
44	0x3d4b71c9	0.04966906
45	0x3c0fb9dc	0.00877234
46	0x3d0a4e6d	0.0337662
47	0x3d21698d	0.0394073
48	0xbd814b0d	-0.06313143
49	0x3d2ebe89	0.042662177
50	0x3d418db6	0.047254287
51	0x3d401185	0.046891708
52	0x3d97fa2b	0.07420763
53	0x3c58bdeb	0.013228874
54	0x3d8e4a5b	0.06947776
55	0x3d05fe9f	0.03271353
56	0xbc8eb912	-0.017422233
57	0xbd493ed4	-0.049132183
58	0xbcc9c533	-0.024630165
59	0x3cc7b1d5	0.02437679
60	0xbd80052b	-0.06250986
61	0x3d67bcfd	0.056576718
62	0xbdb07b61	-0.08617283
63	0x3c3e268e	0.011605872
64	0x3d88ec7d	0.066857316
65	0xbcf5be79	-0.029998051
66	0xbc9e0dbb	-0.019293657
67	0x3c4b208b	0.012397896
68	0x3b1f9490	0.0024350025
69	0x3d99041c	0.07471487
70	0x3d6596f8	0.05605218
71	0xbd6b586a	-0.057457365
72	0xbd922be0	-0.07137275
73	0xbda42fe7	-0.08016949
74	0xbd1058bd	-0.035240877
75	0xbcdbd6fb	-0.02683591
76	0xbcefac2f	-0.029256908
77	0xbdaa4ccd	-0.0831543
78	0x3d83e685	0.064404525
79	0xbc2c7a00	-0.010527134
80	0xbd530f71	-0.051528398
81	0xbd4aa280	-0.04947138
82	0xbb138337	-0.002250863
83	0xbcfea788	-0.031085745
84	0xbd585c42	-0.05282236
85	0xbd231bf5	-0.039821584
86	0x3cc043b7	0.023469789
87	0x3d638353	0.055545162
88	0x3b9cc4fe	0.0047842255
89	0x3d3578a3	0.0443045
90	0x3d622b49	0.05521706
91	0xbc5ec16c	-0.01359592
92	0xbda2cfbc	-0.079497784
93	0xbd9540b7	-0.07287734
94	0x3d459471	0.048237268
95	0xbdae7c58	-0.085198104
96	0x3d875159	0.06607313
97	0xbd7d9878	-0.061912984
98	0xbd9e7891	-0.0773784
99	0x3d67616b	0.05648939
100	0x3d8bc5c3	0.068248294
101	0x3ced20e0	0.02894634
102	0xbb4e479e	-0.0031475793
103	0xbca90070	-0.020630091
104	0x3d41e693	0.047339033
105	0xbd1b65d4	-0.037938908
106	0x3bc7997b	0.0060912943
107	0x3c984726	0.018588614
108	0xbd9b61a7	-0.07586985
109	0xbc11b6b6	-0.008893659
110	0x3da702b4	0.081548125
111	0x3d3a9b8f	0.04555851
112	0xbd518c39	-0.051159117
113	0x3d5f7bf7	0.05456158
114	0xbd15d4ff	-0.036580082
115	0x3d2d03d2	0.04223997
116	0x3d8a83d3	0.06763425
117	0xbd85a595	-0.06525723
118	0xbd3ac5fc	-0.04559897
119	0xbca6f9e8	-0.020382836
120	0xbd3f3e70	-0.046690404
121	0x3cb8ec12	0.022573505
122	0x3d58d784	0.052939907
123	0x3d9cad4b	0.076502405
124	0xbcaa9d58	-0.02082698
125	0xbd2b601e	-0.04183971
126	0x3d789d58	0.06069693
127	0xbd5c2aff	-0.05375194
