custom_maze/static/custom_maze/run/room24874/trained_model.pth (torch, 146386 bytes, 12 tensors)

layer1.weight f4 [128, 4]
0.26751685 0.3849237 -0.4762351 0.40595 0.49821866 -0.118545294 0.21062309 0.40992343
0.069773555 0.39796388 0.4935534 -0.14298683 0.16430569 -0.011690259 0.36234695 0.10242915
0.3590576 0.19429928 -0.271742 -0.44392842 -0.12229711 0.21726042 0.3444959 0.42452145
-0.048906624 -0.19879097 -0.20671183 -0.3681695 -0.40604705 -0.24877185 -0.3924498 -0.45050967
0.08014667 -0.055580854 0.21854293 -0.047079623 -0.28650886 0.07922894 -0.21416384 -0.05992943
-0.14771074 0.066263676 -0.35171038 0.43972182 0.06193447 -0.43420047 -0.004362941 -0.44678974
-0.4609012 -0.2507565 -0.13621199 -0.17898023 0.085413516 0.02625668 0.09523064 0.05634749
0.2687229 -0.32938385 0.49052215 0.001336813 0.4203812 0.2505201 -0.20038944 0.41325057
-0.46306998 0.39816314 0.1676647 -0.21406192 0.37096012 0.18209332 0.40375173 0.4656117
-0.4779446 0.40527397 -0.48034984 0.3094728 0.1390183 -0.29214305 0.36234528 0.3453281
0.4175853 0.45943344 0.16093099 0.24356884 0.23532248 -0.119960964 0.17855632 0.03878385
-0.22265416 0.24644494 0.09091014 -0.21355397 0.34946388 -0.31392032 -0.2168153 -0.1514402
0.22743136 -0.0149745345 -0.44817668 -0.41115677 0.20142317 -0.14617479 -0.35886544 0.3640138
0.34975374 -0.3457167 -0.36856514 0.47673923 -0.18908739 -0.08031809 -0.32868183 -0.44400877
0.2931192 -0.16798025 0.10564071 0.33810407 0.47830987 -0.33502793 -0.3482473 -0.4472807
0.3182361 -0.2916913 0.079212904 0.25713563 0.32585645 0.01201725 0.3191138 0.045325637
0.4541077 -0.04802257 0.399764 -0.25561303 -0.35675132 0.37622356 0.37515366 -0.3081808
-0.19399399 0.023622215 0.47367513 0.30860877 0.4681741 0.28002244 -0.41920388 0.11247957
-0.41500825 0.3688888 0.31559414 0.27882415 0.24496812 0.48839378 0.17369407 0.4435292
-0.20843577 -0.1871745 0.04826075 -0.29867285 -0.23825204 -0.33839846 0.32145327 -0.22331941
-0.2711125 0.10633403 0.2514102 -0.16712606 0.13567173 -0.008636117 0.07538611 -0.008928597
-0.16048276 0.39960647 -0.37431496 -0.08700168 0.02755946 0.092871785 0.12229842 -0.4667967
0.46190637 0.32940942 -0.42137837 0.09423202 0.47490424 -0.09238309 0.39731026 0.14106381
-0.048363984 -0.0056780577 0.23212028 -0.23757178 -0.1909157 -0.0014158487 -0.09169811 0.29711658
0.17627198 -0.25792342 -0.30153912 0.23464167 0.22267067 -0.2661996 0.3676833 0.099662185
-0.29183167 0.27505487 -0.113244295 0.38731867 0.14392227 0.29591876 -0.44606757 -0.13724548
-0.009958684 -0.034231126 0.16456151 -0.36653465 -0.041651487 -0.48140115 0.0613122 -0.2509536
0.3545046 -0.243595 0.3992545 -0.46606565 0.03257358 0.038669467 -0.31397438 0.46526212
0.37934852 -0.45042014 0.16564101 0.23842996 -0.018336892 -0.15323585 -0.09200078 0.43223554
-0.13687271 0.10163307 -0.034663737 -0.33724457 0.38918966 -0.082167566 -0.1886167 0.07920158
-0.06324774 -0.24700469 0.028378367 0.05595219 0.3918354 0.43976325 -0.21127802 0.045175195
0.36252517 -0.29527086 -0.13898331 0.09173548 -0.39732707 -0.23544592 0.0781939 0.1665147
00000000: f8f7 883e b814 c53e 16d5 f3be aed8 cf3e
00000010: 8416 ff3e e0c7 f2bd 94ad 573e 7ce1 d13e
00000020: 70e5 8e3d ecc1 cb3e 08b3 fc3e 246b 12be
00000030: c03f 283e 8088 3fbc 8a85 b93e 60c6 d13d
00000040: 66d6 b73e 64f6 463e c421 8bbe 964a e3be
00000050: e876 fabd 8479 5e3e c461 b03e e05a d93e
00000060: 5052 48bd dc8f 4bbe 44ac 53be b680 bcbe
00000070: 66e5 cfbe 0cbe 7ebe 2eef c8be 34a9 e6be
00000080: f023 a43d c0a8 63bd b8c9 5f3e 90d6 40bd
00000090: 4ab1 92be c842 a23d c44d 5bbe 9078 75bd
000000a0: 7c41 17be 40b5 873d 6213 b4be 3823 e13e
000000b0: 00af 7d3d 864f debe 00f7 8ebb a0c1 e4be
000000c0: 3efb ebbe 2863 80be 287b 0bbe 9846 37be
000000d0: 48ed ae3d 4018 d73c 4808 c33d a0cc 663d
000000e0: 0c96 893e 00a5 a8be b825 fb3e 0038 af3a
000000f0: 343c d73e 2c44 803e e432 4dbe 9495 d33e
00000100: 8217 edbe 0adc cb3e 4cb0 2b3e 0c33 5bbe
00000110: 7cee bd3e ac76 3a3e 8cb8 ce3e a864 ee3e
00000120: 28b5 f4be 1280 cf3e 6af0 f5be 3873 9e3e
00000130: d05a 0e3e c693 95be 5285 b93e d8ce b03e
00000140: becd d53e dc3a eb3e 18cb 243e 1c6a 793e
00000150: 60f8 703e 18ae f5bd 78d7 363e d0db 1e3d
00000160: 74ff 63be 105c 7c3e 182f ba3d e4ad 5abe
00000170: eeec b23e 2aba a0be d404 5ebe 2413 1bbe
00000180: c4e3 683e c057 75bc 6a77 e5be 2483 d2be
00000190: e041 4e3e d8ae 15be 36bd b7be 0460 ba3e
000001a0: ec12 b33e c801 b1be 92b4 bcbe 2a17 f43e
000001b0: 20a0 41be d07d a4bd fc48 a8be 1e55 e3be
000001c0: b813 963e 0403 2cbe 285a d83d fa1b ad3e
000001d0: 08e5 f43e c888 abbe 784d b2be fa01 e5be
000001e0: d8ef a23e 9058 95be 603a a23d 48a7 833e
000001f0: a8d6 a63e 00e4 443c e262 a33e 60a7 393d
00000200: ce80 e83e 50b3 44bd dead cc3e b6df 82be
00000210: 1ca8 b6be 60a0 c03e 2414 c03e e0c9 9dbe
00000220: 5ca6 46be 6083 c13c 8c85 f23e f801 9e3e
00000230: 84b4 ef3e 1a5f 8f3e e4a1 d6be b05b e63d
00000240: f67b d4be fede bc3e 8e95 a13e 0ac2 8e3e
00000250: ecd8 7a3e c00e fa3e dcdc 313e 4216 e33e
00000260: 3070 55be acaa 3fbe 10ad 453d a6eb 98be
00000270: 58f8 73be 9042 adbe 8695 a43e d8ad 64be
00000280: 42cf 8abe a8c5 d93d d6b8 803e 1823 2bbe
00000290: 88ed 0a3e 807e 0dbc 0864 9a3d 4049 12bc
000002a0: 9855 24be 3899 cc3e 36a6 bfbe f02d b2bd
000002b0: 60c4 e13c 9033 be3d 9877 fa3d faff eebe
000002c0: fe7e ec3e 5aa8 a83e e8be d7be b8fc c03d
000002d0: a626 f33e 5833 bdbd 406c cb3e 0873 103e
000002e0: 5019 46bd 000f babb f0b0 6d3e 0446 73be
000002f0: 687f 43be 0094 b9ba 38cc bbbd aa1f 983e
00000300: a480 343e 8a0e 84be 5663 9abe e845 703e
00000310: c803 643e 504b 88be fc40 bc3e b01b cc3d
00000320: f66a 95be fed3 8c3e a0ec e7bd a24e c63e
00000330: 5c60 133e aa82 973e f862 e4be 148a 0cbe
00000340: c029 23bc f035 0cbd d082 283e 6eaa bbbe
00000350: c09a 2abd 367a f6be 8022 7b3d fe7c 80be
00000360: a081 b53e f870 79be 166b cc3e 28a0 eebe
00000370: e06b 053d e063 1e3d 40c1 a0be d636 ee3e
00000380: f839 c23e 789d e6be cc9d 293e fc26 743e
00000390: 4037 96bc dce9 1cbe e86a bcbd fa4d dd3e
000003a0: 5c28 0cbe 0025 d03d 90fb 0dbd 52ab acbe
000003b0: de43 c73e 7847 a8bd bc24 41be 7034 a23d
000003c0: 0888 81bd ccee 7cbe c079 e83c 202e 653d
000003d0: a69e c83e a628 e13e 4459 58be a009 393d
000003e0: e69c b93e be2d 97be a451 0ebe d0df bb3d
000003f0: 746e cbbe bc18 71be 2024 a03d d482 2a3e

layer1.bias f4 [128]
-0.40814316 -0.34479868 0.12135434 0.07756287 -0.21952587 0.3251956 0.24042803 -0.22917181
0.41331 -0.1422447 -0.3744582 0.14232785 0.40027064 -0.0013363957 -0.18212122 -0.41537762
-0.32421255 -0.0019360185 0.18006355 -0.18965584 0.23494834 0.33989102 -0.42065465 -0.18905997
0.11476606 0.12988526 -0.14626259 -0.012231946 0.23495847 0.4521184 0.2740711 -0.16205847
-0.44233435 -0.38300455 0.10936618 0.17179894 0.4975174 0.2642768 0.4890061 0.255655
-0.11706704 -0.44288963 0.22793269 0.019715488 0.049343705 -0.19275117 -0.48015773 -0.33111978
0.49031466 -0.33894342 0.06339294 -0.00029551983 0.17800128 0.24349922 -0.020930052 0.16842854
0.030499756 0.4657734 -0.14287597 -0.30541068 0.30925184 -0.39146382 -0.0701161 0.2894206
-0.0061501265 -0.33858943 0.14455801 0.0010344386 0.23537737 -0.18466777 0.18620127 -0.41858262
0.4895954 -0.47299105 0.22090274 -0.096324086 -0.30693042 -0.33833116 0.434803 0.4735452
0.008962095 0.27018577 -0.27843368 0.10603851 -0.12486911 0.06836456 -0.21765018 -0.11500335
0.010554314 0.2979173 0.01621157 -0.4933849 -0.020365775 -0.02961874 -0.05229312 -0.04287207
-0.1176098 -0.107073605 0.19563717 0.4663087 -0.26414365 -0.26623756 0.16398245 -0.18013388
0.20563668 0.48593128 -0.12800342 0.20457566 0.34090316 -0.35504282 0.38321847 -0.2560159
0.08738172 0.10092902 0.041887105 -0.3352536 0.30843788 0.16668862 -0.018417835 -0.113514006
-0.15350676 -0.07008535 -0.13521868 -0.1963659 0.40187782 0.1696341 -0.46925116 -0.4522668
00000000: 24f8 d0be 7489 b0be a088 f83d 48d9 9e3d
00000010: 64cb 60be 0a80 a63e c432 763e 04ac 6abe
00000020: 5e9d d33e 98a8 11be fcb8 bfbe 64be 113e
00000030: 46f0 cc3e 002a afba fc7d 3abe 60ac d4be
00000040: 30ff a5be 00c2 fdba 9462 383e 2435 42be
00000050: 4c96 703e 3206 ae3e 0c60 d7be f098 41be
00000060: 780a eb3d a400 053e dcc5 15be 8068 48bc
00000070: f498 703e 107c e73e 0c53 8c3e a8f2 25be
00000080: a679 e2be 2c19 c4be 60fb df3d 10ec 2f3e
00000090: 9aba fe3e 4a4f 873e 025f fa3e 36e5 823e
000000a0: d8c0 efbd 6ec2 e2be 3067 693e 6082 a13c
000000b0: a01c 4a3d 9060 45be 3cd7 f5be 8888 a9be
000000c0: 860a fb3e fe89 adbe 28d4 813d 00f0 9ab9
000000d0: f845 363e dc57 793e 8075 abbc 8878 2c3e
000000e0: a0da f93c da79 ee3e 144e 12be ca5e 9cbe
000000f0: 4256 9e3e f26d c8be 0899 8fbd f02e 943e
00000100: 0087 c9bb 985b adbe 0407 143e 0096 873a
00000110: c406 713e 8c19 3dbe 8cab 3e3e 7650 d6be
00000120: 40ac fa3e e22b f2be 5434 623e 9045 c5bd
00000130: fc25 9dbe be39 adbe 809e de3e 8474 f23e
00000140: c0d5 123c ca55 8a3e dc8e 8ebe b82a d93d
00000150: 60bb ffbd b802 8c3d b0df 5ebe e086 ebbd
00000160: 00ec 2c3c 9e88 983e 20ce 843c f29c fcbe
00000170: 20d6 a6bc 00a3 f2bc 5031 56bd a09a 2fbd
00000180: 68dd f0bd 6849 dbbd 1c55 483e 04c0 ee3e
00000190: d63d 87be 4a50 88be 04eb 273e 0475 38be
000001a0: 6c92 523e fccb f83e 5413 03be 487c 513e
000001b0: dc8a ae3e 2cc8 b5be 3635 c43e 8414 83be
000001c0: 30f5 b23d e0b3 ce3d d091 2b3d 5ca6 abbe
000001d0: 92eb 9d3e 6cb0 2a3e 00e1 96bc 087a e8bd
000001e0: e030 1dbe e888 8fbd c476 0abe 2414 49be
000001f0: eec2 cd3e 90b4 2d3e b041 f0be 848f e7be

layer2.weight f4 [128, 128]
0.0004806216 -0.0120960185 -0.056289688 0.00757618 -0.015971126 -0.055948034 0.014530652 0.07159757
-0.0744936 0.0077179517 -0.04562407 0.03808991 -0.08764007 -0.050705723 -0.06162296 -0.038345423
0.03304828 0.07010793 -0.012368867 -0.03322105 0.01701642 0.047183998 0.050756983 0.0026803499
-0.010121607 -0.036647663 -0.03880932 -0.00075184705 0.05243858 0.03270073 -0.027708191 4.059795e-05
-0.025397986 -0.062248357 0.087817654 -0.048115697 -0.016067358 0.067524634 -0.073599435 -0.02624655
-0.026734842 -0.06073683 -0.009597891 -0.026906 0.06945479 -0.062835895 -0.05160026 -0.07505713
-0.016494822 -0.06976434 0.083677374 0.026599655 -0.04457808 -0.056805436 -0.043797623 -0.01869532
0.015556644 -0.0054025096 0.050902035 -0.07324174 0.083081424 -0.025445506 0.05037975 0.03141827
-0.052463785 -0.06032456 0.077860445 0.057630092 0.07085191 -0.08754099 0.011204982 0.043618195
-0.050937217 -0.0426365 0.048399217 0.07831615 0.008378667 -0.009985747 0.017438153 0.08187415
0.015342685 -0.05099442 0.045392178 -0.004683769 0.058377303 0.024881054 -0.06684003 0.014643849
0.059036333 0.055808093 -0.054214153 -0.025410146 0.052983265 -0.011893862 -0.006733507 -0.009702205
-0.06665746 0.054647233 0.029584905 -0.05973872 0.048048638 -0.053463276 0.043543108 -0.08615193
-0.030961517 0.0495144 -0.046141673 0.018027756 0.034388635 0.07468112 0.05618317 0.07013276
0.00073031004 -0.025649212 -0.0059671085 0.064077035 7.0606504e-05 0.03590471 0.057209097 0.047848642
0.067902714 0.06858323 -0.004661631 0.008224589 -0.042544987 -0.079356275 0.00632542 -0.04633122
0.010321121 -0.027936764 -0.064828075 -0.025392685 -0.07069901 -0.035183873 -0.037417013 0.03416336
0.079911195 0.05019011 -0.0059449077 -0.044279322 0.06321129 -0.06336442 -0.037127864 0.027365863
-0.02957104 -0.06551502 0.05325704 0.05602669 -0.056535054 0.066786684 -0.027282739 -0.0039587165
-0.01933905 -0.019026646 0.030541692 -0.058014736 -0.02096853 -0.06885032 0.042761434 0.074236445
0.077188306 0.08156558 -0.044341646 -0.081637844 -0.012104216 0.068758324 0.014884434 -0.036700223
0.057010893 0.02632197 -0.023190882 0.056961548 -0.056235105 0.067206636 0.04582395 4.0039507e-07
-0.054852974 0.08268304 0.0013863574 0.063442625 -0.06645521 0.055060085 -0.043031164 -0.0061838278
0.041775808 0.08200429 0.030873852 0.016258337 -0.0036392855 -0.015301234 0.026743945 -0.08659497
-0.0141674625 0.047725406 0.047102917 0.057375632 0.07019474 0.022294154 0.017824387 -0.0787522
0.05701222 -0.08760177 0.018668557 -0.03711246 0.04413854 -0.082191296 -0.053481735 -0.048920035
0.07339041 0.021383973 0.078258395 -0.04589994 -0.0326611 0.035195135 0.0028224268 0.016274415
0.026708236 0.01865255 -0.00876902 0.08007395 -0.06840548 0.011666553 0.05549505 0.073281966
0.0010760196 0.03683351 -0.04339662 -0.083481245 0.050282147 0.040381886 -0.035449304 -0.07573143
0.021984797 -0.07523605 -0.0143029755 -0.08190265 -0.07542528 0.08314138 -0.082505465 0.01997494
-0.08272758 0.039190203 -0.04178528 -0.060236424 0.033471774 -0.08810156 -0.05030554 -0.023744754
0.042561583 -0.021006685 -0.036834817 0.08299336 0.074149646 0.0006195903 -0.0083591845 -0.002656758
00000000: f0fb fb39 612e 46bc 0490 66bd 9b41 f83b
00000010: e1d5 82bc c429 65bd f911 6e3c bfa1 923d
00000020: 1a90 98bd dfe6 fc3b 4ee0 3abd 2a04 1c3d
00000030: a37c b3bd ceb0 4fbd 5b68 7cbd 1710 1dbd
00000040: a25d 073d bf94 8f3d caa6 4abc cc12 08bd
00000050: 0566 8b3c 0244 413d 8ee6 4f3d cfa8 2f3b
00000060: 19d5 25bc dc1b 16bd 86f6 1ebd 9a17 45ba
00000070: d6c9 563d 33f1 053d 4afc e2bc b847 2a38
00000080: 700f d0bc 22f8 7ebd bed9 b33d f714 45bd
00000090: b19f 83bc 5b4a 8a3d 4dbb 96bd 0103 d7bc
000000a0: 0703 dbbc 2fc7 78bd 7940 1dbc f969 dcbc
000000b0: 503e 8e3d 1bb0 80bd cb5a 53bd 8db7 99bd
000000c0: 2620 87bc 9be0 8ebd 0b5f ab3d 85e7 d93c
000000d0: 8197 36bd d1ac 68bd 2365 33bd ed26 99bc
000000e0: 4be1 7e3c 8907 b1bb a77e 503d c4ff 95bd
000000f0: 9826 aa3d 1873 d0bc ff5a 4e3d 72b0 003d
00000100: 44e4 56bd e316 77bd 4c75 9f3d 880d 6c3d
00000110: ce1a 913d b148 b3bd 1a95 373c fea8 323d
00000120: 8ba3 50bd 9ca3 2ebd 423e 463d 3864 a03d
00000130: ad46 093c 429b 23bc 75da 8e3c a2ad a73d
00000140: e35f 7b3c 86df 50bd 26ed 393d 4d7a 99bb
00000150: 0a1d 6f3d 5ad3 cb3c 6de3 88bd c1ec 6f3c
00000160: 15d0 713d 0797 643d a90f 5ebd f028 d0bc
00000170: fb04 593d 79de 42bc c0a4 dcbb fff5 1ebc
00000180: b583 88bd c7d5 5f3d 0b5c f23c 97b0 74bd
00000190: a6ce 443d 4ffc 5abd 425a 323d 6c70 b0bd
000001a0: 02a3 fdbc 9dcf 4a3d 0dff 3cbd f2ae 933c
000001b0: 19db 0c3d 6af2 983d 5320 663d c4a1 8f3d
000001c0: 4772 3f3a 4c1e d2bc bc87 c3bb d23a 833d
000001d0: 9412 9438 d110 133d 1654 6a3d f0fc 433d
000001e0: 9410 8b3d 5d75 8c3d 98c0 98bb 6dc0 063c
000001f0: a743 2ebd 8b85 a2bd 7845 cf3b cec5 3dbd
00000200: eb19 293c a4db e4bc 95c4 84bd 5204 d0bc
00000210: a4ca 90bd f71c 10bd 9542 19bd e1ee 0b3d
00000220: 7ba8 a33d 2594 4d3d 80cd c2bb 3c5e 35bd
00000230: ec74 813d 34c5 81bd 6313 18bd 602e e03c
00000240: f73e f2bc bd2c 86bd 0e24 5a3d 3e7c 653d
00000250: 4d91 67bd 75c7 883d 0d80 dfbc 1fb8 81bb
00000260: ed6c 9ebc c5dd 9bbc 9232 fa3c dca0 6dbd
00000270: 32c6 abbc 6601 8dbd 9d26 2f3d 4709 983d
00000280: e714 9e3d db0b a73d 969f 35bd be31 a7bd
00000290: c350 46bc 2ad1 8c3d d7dd 733c f952 16bd
000002a0: 4184 693d 2ca1 d73c cefa bdbc 8350 693d
000002b0: c856 66bd a2a3 893d e5b1 3b3d e1f5 d634
000002c0: 83ad 60bd ba55 a93d 6fb6 b53a 35ee 813d
000002d0: ab19 88bd af86 613d 7241 30bd b5a1 cabb
000002e0: 1c1d 2b3d ddf1 a73d 29eb fc3c 3430 853c
000002f0: 1481 6ebb 07b2 7abc 1e16 db3c b458 b1bd
00000300: a51e 68bc b77b 433d fdee 403d b602 6b3d
00000310: 43c2 8f3d 3ba2 b63c 7304 923c d548 a1bd
00000320: a585 693d 8f68 b3bd cdee 983c 3c03 18bd
00000330: 9dca 343d e953 a8bd aa0f 5bbd 6060 48bd
00000340: b64d 963d 712d af3c f045 a03d 9301 3cbd
00000350: a5c7 05bd c628 103d 77f8 383b ec51 853c
00000360: 3bcb da3c 3ccd 983c f0ab 0fbc d0fd a33d
00000370: 2c18 8cbd 1225 3f3c c74e 633d db14 963d
00000380: 3a09 8d3a bcde 163d a7c0 31bd 37f8 aabd
00000390: a7f4 4d3d 7a67 253d 4a33 11bd 1419 9bbd
000003a0: 7619 b43c 5c15 9abd 0757 6abc 94bc a7bd
000003b0: 9278 9abd 0746 aa3d a0f8 a8bd 7ca2 a33c
000003c0: 146d a9bd e885 203d 0b27 2bbd 78ba 76bd
000003d0: b319 093d 976e b4bd 2f0d 4ebd 5c84 c2bc
000003e0: 0e55 2e3d 3616 acbc 1be0 16bd 6cf8 a93d
000003f0: c5db 973d 006c 223a f6f4 08bc 011d 2ebb

layer2.bias f4 [128]
0.06064454 0.041253164 0.026298907 -0.02092707 0.081388146 -0.07405452 -0.0040517766 -0.087163925
0.021689631 0.055767033 0.08759098 -0.0069288365 0.06271662 0.0027186086 0.07506283 0.02058509
-0.02755894 -0.019218268 -0.0065149544 0.022374434 0.05622656 -0.07740295 -0.03423171 -0.068600886
-0.014179612 -0.015835982 0.08577272 0.0010998852 -0.060182 -0.032488983 0.03730244 0.059849344
-0.07873305 -0.07221854 -0.06030801 0.085727185 -0.017857745 0.0040319255 0.07074703 0.057318605
-0.052727308 -0.06904171 -0.04756628 0.0119913155 0.03794233 0.014280058 0.023253523 -0.018502118
0.07933992 -0.0204292 -0.0801347 0.01707667 0.038358014 0.05060298 -0.08611863 -0.02078359
-0.008787228 -0.006296286 -0.011360609 0.05018755 -0.011565085 -0.07143298 -0.075211495 -0.016990533
-0.08316687 0.047721412 0.0016702901 0.05020131 0.04324493 -0.053175423 -0.045428254 0.07872252
-0.07220704 -0.05116998 0.0002688653 -0.07580795 -0.06480469 0.046976045 -0.06906843 0.022970242
0.060089897 0.048692495 0.052071955 0.04512367 0.050358266 0.0022213918 -0.014181476 0.07349144
-0.00686294 0.0538595 0.04608306 0.0011774249 -0.06887916 0.060866877 -0.032429006 0.026029082
0.081063814 -0.0011118022 -0.03067949 -0.083864555 0.049870912 0.0009461651 -0.069549136 -0.07686641
0.0017801564 -0.07760324 -0.0059676883 -0.021174861 -0.029417109 -0.039699737 -0.08095784 -0.038028143
0.07726505 -0.01334385 -0.050556988 -0.07191116 -0.08801599 -0.016118377 0.028453631 0.02415773
0.055439595 0.02679903 -0.041357417 0.02806507 0.07819449 -0.005576829 -0.018768793 -0.06870574
00000000: 6966 783d 14f9 283d ce70 d73c 3f6f abbc
00000010: d4ae a63d e5a9 97bd c4c4 84bb 0083 b2bd
00000020: 74ae b13c f96b 643d e662 b33d 4b0b e3bb
00000030: 9271 803d af2a 323b 8aba 993d 10a2 a83c
00000040: 49c3 e1bc a16f 9dbc 667b d5bb 974a b73c
00000050: d24d 663d 7085 9ebd 8d36 0cbd 9f7e 8cbd
00000060: 9a51 68bc 76ba 81bc 9ca9 af3d 062a 903a
00000070: 6781 76bd 2b13 05bd 71ca 183d 9624 753d
00000080: cb3e a1bd 50e7 93bd 8805 77bd bc91 af3d
00000090: 684a 92bc 3e1e 843b d2e3 903d eac6 6a3d
000000a0: 97f8 57bd bd65 8dbd dcd4 42bd 3977 443c
000000b0: 6b69 1b3d e8f6 693c 2c7e be3c c191 97bc
000000c0: f87c a23d 235b a7bc a91d a4bd 5fe4 8b3c
000000d0: 4b1d 1d3d 1245 4f3d f75e b0bd 5942 aabc
000000e0: 4ef8 0fbc 1351 cebb d921 3abc 7691 4d3d
000000f0: 7b7b 3dbc 744b 92bd 7c08 9abd bb2f 8bbc
00000100: 6453 aabd 8777 433d a3ed da3a e49f 4d3d
00000110: 9921 313d 79ce 59bd fa12 3abd 4639 a13d
00000120: 49e1 93bd 9d97 51bd 7df6 8c39 3341 9bbd
00000130: 52b8 84bd f469 403d c073 8dbd 172c bc3c
00000140: d320 763d c871 473d 6749 553d 99d3 383d
00000150: 7844 4e3d c594 113b 6c59 68bc ae82 963d
00000160: 83e2 e0bb c79b 5c3d 97c1 3c3d d353 9a3a
00000170: 8410 8dbd 8c4f 793d 47d4 04bd f13a d53c
00000180: c904 a63d e4b9 91ba 8e53 fbbc 2ec1 abbd
00000190: 7145 4c3d 1108 783a c76f 8ebd 236c 9dbd
000001a0: 2354 e93a 73ee 9ebd 998c c3bb e776 adbc
000001b0: 26fc f0bc 319c 22bd 39cd a5bd 66c3 1bbd
000001c0: 233d 9e3d 2aa0 5abc d814 4fbd 2946 93bd
000001d0: ba41 b4bd b00a 84bc 9717 e93c 6fe6 c53c
000001e0: a114 633d a489 db3c 6566 29bd b8e8 e53c
000001f0: 6f24 a03d d5bd b6bb 03c1 99bc 98b5 8cbd

layer3.weight f4 [4, 128]
-0.046503566 -0.047540937 -0.003992202 -0.050727893 -0.012894944 -0.035585806 -0.036380768 0.08221472
-0.050511543 0.07904583 0.07116896 -0.04828387 0.028664883 -0.08457163 0.013109882 -0.005572561
0.00865848 -0.03965716 -0.07748532 0.006676619 0.053769507 0.07132052 -0.08336456 0.0068267356
-0.018178273 0.04815625 0.004467471 -0.063850306 0.00030477438 0.015948642 0.057793032 -0.04394875
0.02688461 0.06582123 -0.06842285 -0.025839273 0.08138475 0.01996393 0.049618747 -0.06538551
0.06649433 0.02800245 -0.01667815 -0.03463359 -0.07645982 0.06920191 0.054934453 -0.08519435
0.08815276 -0.060329534 -0.005192818 0.0052466714 0.053604256 -0.02317358 0.058901157 -0.08703469
0.04229179 -0.083132036 0.0030434134 -0.0050963443 0.05068382 -0.03565339 0.00094536436 0.07485041
0.08111403 -0.07457894 -0.014958865 0.08514482 -0.06567647 0.0043584267 -0.017440354 0.033586074
0.060507067 -0.06386435 0.044047114 -0.009952799 -0.052790835 -0.054455403 -0.053543683 0.0003602818
0.05520024 0.03290692 0.036399692 0.032199908 0.039709378 0.016773919 0.043781027 -0.03087048
-0.077691466 0.03919272 0.0820999 0.01244687 0.03483572 -0.07110913 0.06267991 0.012738896
0.013410705 -0.059804756 -0.060454186 -0.009109515 -0.04558699 -0.054732498 -0.04001448 0.00494529
0.013885395 -0.00017041025 0.012974696 0.039307162 0.050954305 0.012883059 -0.031254373 -0.060751393
-0.011015542 -0.006938467 -0.0037721428 0.048523907 -0.058876734 0.07320127 0.036597624 -0.07596332
0.039691173 0.051645253 0.06396386 0.0008595744 0.023590129 -0.028369792 -0.048162203 -0.009903255
0.050246388 0.05159022 0.07069114 -0.03526944 -0.01987362 -0.067818165 -0.041742038 -0.0818401
-0.0012211101 0.04000876 -0.02822941 0.0022648557 -0.054192647 0.045705423 0.026019083 0.042700287
0.031898893 -0.061689686 0.0820654 -0.051632542 0.00588723 -0.083926246 0.08738022 -0.075318
-0.023118557 -0.07640062 0.0009470081 0.028667558 -0.0071405927 0.081605434 0.00907547 -0.024403952
0.013608469 0.077290125 -0.013622999 0.0007532906 0.0048786346 0.058541074 -0.037877772 -0.07209597
0.037328146 -0.0064840605 -0.044698767 0.0084387055 -0.00813666 0.057880044 0.023544567 -0.029470867
0.08435037 0.003523803 0.06553778 -0.0602603 0.020765414 -0.07693021 0.0018014195 -0.039857283
-0.00572566 0.053382408 -0.0059593534 -0.06463449 0.02978286 0.028459996 0.08726648 0.07110507
0.08750003 -0.048711535 -0.010722221 -0.013247186 0.038413826 0.08224382 -0.08157525 0.018288223
0.026802972 0.041318495 -0.013086396 0.056323245 -0.03569565 -0.07655437 0.07420449 -0.041674897
-0.08745471 -0.07589616 -0.017937941 0.049074758 -0.016257841 -0.087665044 0.0046345727 0.043599945
-0.087140955 -0.01539302 0.046885334 0.046765596 0.06378491 0.034244757 -0.02075806 -0.00058943423
-0.052950878 -0.0066696964 -0.017156497 0.052975446 0.008219278 -0.052872904 0.0065064617 0.02868899
0.069172636 -0.044310108 -0.057019576 0.044166144 0.04992484 -0.018333826 -0.0789589 -0.061086357
0.058709852 0.06322181 0.012799165 -0.010422926 0.087805845 0.068350166 -0.0854477 0.075090766
-0.0017913042 -0.01108891 -0.060823802 -0.019275608 0.039291095 -0.051569533 -0.05377456 0.057655443
00000000: 867a 3ebd 49ba 42bd 05d1 82bb 0dc8 4fbd
00000010: 5145 53bc 6cc2 11bd 0004 15bd 3160 a83d
00000020: 31e5 4ebd c8e2 a13d 08c1 913d 4fc5 45bd
00000030: 9ed2 ea3c e433 adbd d5ca 563c 089a b6bb
00000040: 4cdc 0d3c 8c6f 22bd a0b0 9ebd 8ac7 da3b
00000050: 6a3d 5c3d 7e10 923d 0abb aabd cfb2 df3b
00000060: 9aea 94bc 7d3f 453d dd63 923b f3c3 82bd
00000070: 20ca 9f39 baa6 823c 63b8 6c3d 9b03 34bd
00000080: 1d3d dc3c 48cd 863d 4721 8cbd e2ac d3bc
00000090: 0cad a63d 658b a33c 073d 4b3d d7e8 85bd
000000a0: 2e2e 883d 6565 e53c 9ea0 88bc f4db 0dbd
000000b0: f796 9cbd bbb9 8d3d f302 613d 607a aebd
000000c0: 6f89 b43d 1a1c 77bd 8428 aabb 45ec ab3b
000000d0: 2390 5b3d 85d6 bdbc 5742 713d 3e3f b2bd
000000e0: 283a 2d3d 2141 aabd 0174 473b 3cff a6bb
000000f0: d699 4f3d 4a09 12bd 54d2 773a 2c4b 993d
00000100: 1d1f a63d d8bc 98bd 0716 75bc 6860 ae3d
00000110: 6381 86bd 22d1 8e3b 13df 8ebc 8d91 093d
00000120: 42d6 773d 50cb 82bd bf6a 343d 1111 23bc
00000130: 343b 58bd a10c 5fbd 9f50 5bbd 34e4 bc39
00000140: a619 623d 68c9 063d d817 153d 0de4 033d
00000150: 4da6 223d 7569 893c bc53 333d 17e4 fcbc
00000160: b41c 9fbd 8c88 203d fe23 a83d f5ed 4b3c
00000170: e6af 0e3d aaa1 91bd 535e 803d cdb6 503c
00000180: 93b8 5b3c d5f5 74bd cf9e 77bd 1340 15bc
00000190: 6cb9 3abd 2f2f 60bd 39e6 23bd 190c a23b
000001a0: 917f 633c 27b0 32b9 d293 543c 8c00 213d
000001b0: 76b5 503d 7713 533c 9604 00bd 74d6 78bd
000001c0: 887a 34bc 145c e3bb 0e36 77bb 01c1 463d
000001d0: bb28 71bd 8cea 953d 64e7 153d a892 9bbd
000001e0: 3693 223d f989 533d 7cff 823d 1055 613a
000001f0: 1640 c13c c467 e8bc bb45 45bd 4341 22bc
00000200: 28cf 4d3d 4450 533d 84c6 903d b076 10bd
00000210: 00ce a2bc 40e4 8abd b3f9 2abd c89b a7bd
00000220: a80d a0ba 3ae0 233d 5d41 e7bc f96d 143b
00000230: 1cf9 5dbd 9c35 3b3d f925 d53c 7fe6 2e3d
00000240: 6aa8 023d 53ae 7cbd e811 a83d a57c 53bd
00000250: aae9 c03b 86e1 abbd 67f4 b23d 5340 9abd
00000260: 2163 bdbc ee77 9cbd a340 783a 3ad8 ea3c
00000270: a2fb e9bb c020 a73d 48b1 143c ccea c7bc
00000280: 0ef6 5e3c 494a 9e3d 0033 5fbc 7a78 453a
00000290: f4dc 9f3b c4c8 6f3d b925 1bbd 0da7 93bd
000002a0: 66e5 183d 3e78 d4bb 0e16 37bd 7f42 0a3c
000002b0: a04f 05bc a013 6d3d 89e0 c03c e36c f1bc
000002c0: e3bf ac3d 9bef 663b ac38 863d 81d3 76bd
000002d0: 3b1c aa3c 968d 9dbd 9c1d ec3a 6441 23bd
000002e0: 519e bbbb 83a7 5a3d ae46 c3bb 165f 84bd
000002f0: 2ffb f33c f024 e93c c5b8 b23d 899f 913d
00000300: 3733 b33d bf85 47bd 41ac 2fbc ba0a 59bc
00000310: d157 1d3d 736f a83d ed10 a7bd 2fd1 953c
00000320: e891 db3c 953d 293d 5368 56bc 34b3 663d
00000330: 9a35 12bd 8ac8 9cbd 86f8 973d 4cb3 2abd
00000340: 741b b3bd 726f 9bbd 97f2 92bc 9d02 493d
00000350: 2a2f 85bc bb89 b3bd 9ddd 973b db95 323d
00000360: f576 b2bd 0133 7cbc d60a 403d 488d 3f3d
00000370: aaa1 823d 3b44 0c3d cf0c aabc 4384 1aba
00000380: 05e3 58bd 788d dabb c88b 8cbc c8fc 583d
00000390: 27aa 063c 4291 58bd 2834 d53b 2c05 eb3c
000003a0: 62aa 8d3d 847e 35bd 5c8d 69bd 8fe7 343d
000003b0: fd7d 4c3d d230 96bc 34b5 a1bd b035 7abd
000003c0: be79 703d 707a 813d 97b3 513c ecc4 2abc
000003d0: 8dd3 b33d 2cfb 8b3d 34ff aebd 30c9 993d
000003e0: 32ca eaba 42ae 35bc 6122 79bd e1e7 9dbc
000003f0: b3ef 203d 933a 53bd b742 5cbd 1d28 6c3d

layer3.bias f4 [4]
0.015218847 0.05161796 -0.07134606 -0.014310878
00000000: 7958 793c 5b6d 533d e21d 92bd 2c78 6abc

layer1.weight f4 [128, 4]
0.26751685 0.3849237 -0.4762351 0.40595 0.49821866 -0.118545294 0.21062309 0.40992343
0.069773555 0.39796388 0.4935534 -0.14298683 0.16430569 -0.011690259 0.36234695 0.10242915
0.3590576 0.19429928 -0.271742 -0.44392842 -0.12229711 0.21726042 0.3444959 0.42452145
-0.048906624 -0.19879097 -0.20671183 -0.3681695 -0.40604705 -0.24877185 -0.3924498 -0.45050967
0.08014667 -0.055580854 0.21854293 -0.047079623 -0.28650886 0.07922894 -0.21416384 -0.05992943
-0.14771074 0.066263676 -0.35171038 0.43972182 0.06193447 -0.43420047 -0.004362941 -0.44678974
-0.4609012 -0.2507565 -0.13621199 -0.17898023 0.085413516 0.02625668 0.09523064 0.05634749
0.2687229 -0.32938385 0.49052215 0.001336813 0.4203812 0.2505201 -0.20038944 0.41325057
-0.46306998 0.39816314 0.1676647 -0.21406192 0.37096012 0.18209332 0.40375173 0.4656117
-0.4779446 0.40527397 -0.48034984 0.3094728 0.1390183 -0.29214305 0.36234528 0.3453281
0.4175853 0.45943344 0.16093099 0.24356884 0.23532248 -0.119960964 0.17855632 0.03878385
-0.22265416 0.24644494 0.09091014 -0.21355397 0.34946388 -0.31392032 -0.2168153 -0.1514402
0.22743136 -0.0149745345 -0.44817668 -0.41115677 0.20142317 -0.14617479 -0.35886544 0.3640138
0.34975374 -0.3457167 -0.36856514 0.47673923 -0.18908739 -0.08031809 -0.32868183 -0.44400877
0.2931192 -0.16798025 0.10564071 0.33810407 0.47830987 -0.33502793 -0.3482473 -0.4472807
0.3182361 -0.2916913 0.079212904 0.25713563 0.32585645 0.01201725 0.3191138 0.045325637
0.4541077 -0.04802257 0.399764 -0.25561303 -0.35675132 0.37622356 0.37515366 -0.3081808
-0.19399399 0.023622215 0.47367513 0.30860877 0.4681741 0.28002244 -0.41920388 0.11247957
-0.41500825 0.3688888 0.31559414 0.27882415 0.24496812 0.48839378 0.17369407 0.4435292
-0.20843577 -0.1871745 0.04826075 -0.29867285 -0.23825204 -0.33839846 0.32145327 -0.22331941
-0.2711125 0.10633403 0.2514102 -0.16712606 0.13567173 -0.008636117 0.07538611 -0.008928597
-0.16048276 0.39960647 -0.37431496 -0.08700168 0.02755946 0.092871785 0.12229842 -0.4667967
0.46190637 0.32940942 -0.42137837 0.09423202 0.47490424 -0.09238309 0.39731026 0.14106381
-0.048363984 -0.0056780577 0.23212028 -0.23757178 -0.1909157 -0.0014158487 -0.09169811 0.29711658
0.17627198 -0.25792342 -0.30153912 0.23464167 0.22267067 -0.2661996 0.3676833 0.099662185
-0.29183167 0.27505487 -0.113244295 0.38731867 0.14392227 0.29591876 -0.44606757 -0.13724548
-0.009958684 -0.034231126 0.16456151 -0.36653465 -0.041651487 -0.48140115 0.0613122 -0.2509536
0.3545046 -0.243595 0.3992545 -0.46606565 0.03257358 0.038669467 -0.31397438 0.46526212
0.37934852 -0.45042014 0.16564101 0.23842996 -0.018336892 -0.15323585 -0.09200078 0.43223554
-0.13687271 0.10163307 -0.034663737 -0.33724457 0.38918966 -0.082167566 -0.1886167 0.07920158
-0.06324774 -0.24700469 0.028378367 0.05595219 0.3918354 0.43976325 -0.21127802 0.045175195
0.36252517 -0.29527086 -0.13898331 0.09173548 -0.39732707 -0.23544592 0.0781939 0.1665147
00000000: f8f7 883e b814 c53e 16d5 f3be aed8 cf3e
00000010: 8416 ff3e e0c7 f2bd 94ad 573e 7ce1 d13e
00000020: 70e5 8e3d ecc1 cb3e 08b3 fc3e 246b 12be
00000030: c03f 283e 8088 3fbc 8a85 b93e 60c6 d13d
00000040: 66d6 b73e 64f6 463e c421 8bbe 964a e3be
00000050: e876 fabd 8479 5e3e c461 b03e e05a d93e
00000060: 5052 48bd dc8f 4bbe 44ac 53be b680 bcbe
00000070: 66e5 cfbe 0cbe 7ebe 2eef c8be 34a9 e6be
00000080: f023 a43d c0a8 63bd b8c9 5f3e 90d6 40bd
00000090: 4ab1 92be c842 a23d c44d 5bbe 9078 75bd
000000a0: 7c41 17be 40b5 873d 6213 b4be 3823 e13e
000000b0: 00af 7d3d 864f debe 00f7 8ebb a0c1 e4be
000000c0: 3efb ebbe 2863 80be 287b 0bbe 9846 37be
000000d0: 48ed ae3d 4018 d73c 4808 c33d a0cc 663d
000000e0: 0c96 893e 00a5 a8be b825 fb3e 0038 af3a
000000f0: 343c d73e 2c44 803e e432 4dbe 9495 d33e
00000100: 8217 edbe 0adc cb3e 4cb0 2b3e 0c33 5bbe
00000110: 7cee bd3e ac76 3a3e 8cb8 ce3e a864 ee3e
00000120: 28b5 f4be 1280 cf3e 6af0 f5be 3873 9e3e
00000130: d05a 0e3e c693 95be 5285 b93e d8ce b03e
00000140: becd d53e dc3a eb3e 18cb 243e 1c6a 793e
00000150: 60f8 703e 18ae f5bd 78d7 363e d0db 1e3d
00000160: 74ff 63be 105c 7c3e 182f ba3d e4ad 5abe
00000170: eeec b23e 2aba a0be d404 5ebe 2413 1bbe
00000180: c4e3 683e c057 75bc 6a77 e5be 2483 d2be
00000190: e041 4e3e d8ae 15be 36bd b7be 0460 ba3e
000001a0: ec12 b33e c801 b1be 92b4 bcbe 2a17 f43e
000001b0: 20a0 41be d07d a4bd fc48 a8be 1e55 e3be
000001c0: b813 963e 0403 2cbe 285a d83d fa1b ad3e
000001d0: 08e5 f43e c888 abbe 784d b2be fa01 e5be
000001e0: d8ef a23e 9058 95be 603a a23d 48a7 833e
000001f0: a8d6 a63e 00e4 443c e262 a33e 60a7 393d
00000200: ce80 e83e 50b3 44bd dead cc3e b6df 82be
00000210: 1ca8 b6be 60a0 c03e 2414 c03e e0c9 9dbe
00000220: 5ca6 46be 6083 c13c 8c85 f23e f801 9e3e
00000230: 84b4 ef3e 1a5f 8f3e e4a1 d6be b05b e63d
00000240: f67b d4be fede bc3e 8e95 a13e 0ac2 8e3e
00000250: ecd8 7a3e c00e fa3e dcdc 313e 4216 e33e
00000260: 3070 55be acaa 3fbe 10ad 453d a6eb 98be
00000270: 58f8 73be 9042 adbe 8695 a43e d8ad 64be
00000280: 42cf 8abe a8c5 d93d d6b8 803e 1823 2bbe
00000290: 88ed 0a3e 807e 0dbc 0864 9a3d 4049 12bc
000002a0: 9855 24be 3899 cc3e 36a6 bfbe f02d b2bd
000002b0: 60c4 e13c 9033 be3d 9877 fa3d faff eebe
000002c0: fe7e ec3e 5aa8 a83e e8be d7be b8fc c03d
000002d0: a626 f33e 5833 bdbd 406c cb3e 0873 103e
000002e0: 5019 46bd 000f babb f0b0 6d3e 0446 73be
000002f0: 687f 43be 0094 b9ba 38cc bbbd aa1f 983e
00000300: a480 343e 8a0e 84be 5663 9abe e845 703e
00000310: c803 643e 504b 88be fc40 bc3e b01b cc3d
00000320: f66a 95be fed3 8c3e a0ec e7bd a24e c63e
00000330: 5c60 133e aa82 973e f862 e4be 148a 0cbe
00000340: c029 23bc f035 0cbd d082 283e 6eaa bbbe
00000350: c09a 2abd 367a f6be 8022 7b3d fe7c 80be
00000360: a081 b53e f870 79be 166b cc3e 28a0 eebe
00000370: e06b 053d e063 1e3d 40c1 a0be d636 ee3e
00000380: f839 c23e 789d e6be cc9d 293e fc26 743e
00000390: 4037 96bc dce9 1cbe e86a bcbd fa4d dd3e
000003a0: 5c28 0cbe 0025 d03d 90fb 0dbd 52ab acbe
000003b0: de43 c73e 7847 a8bd bc24 41be 7034 a23d
000003c0: 0888 81bd ccee 7cbe c079 e83c 202e 653d
000003d0: a69e c83e a628 e13e 4459 58be a009 393d
000003e0: e69c b93e be2d 97be a451 0ebe d0df bb3d
000003f0: 746e cbbe bc18 71be 2024 a03d d482 2a3e

layer1.bias f4 [128]
-0.40814316 -0.34479868 0.12135434 0.07756287 -0.21952587 0.3251956 0.24042803 -0.22917181
0.41331 -0.1422447 -0.3744582 0.14232785 0.40027064 -0.0013363957 -0.18212122 -0.41537762
-0.32421255 -0.0019360185 0.18006355 -0.18965584 0.23494834 0.33989102 -0.42065465 -0.18905997
0.11476606 0.12988526 -0.14626259 -0.012231946 0.23495847 0.4521184 0.2740711 -0.16205847
-0.44233435 -0.38300455 0.10936618 0.17179894 0.4975174 0.2642768 0.4890061 0.255655
-0.11706704 -0.44288963 0.22793269 0.019715488 0.049343705 -0.19275117 -0.48015773 -0.33111978
0.49031466 -0.33894342 0.06339294 -0.00029551983 0.17800128 0.24349922 -0.020930052 0.16842854
0.030499756 0.4657734 -0.14287597 -0.30541068 0.30925184 -0.39146382 -0.0701161 0.2894206
-0.0061501265 -0.33858943 0.14455801 0.0010344386 0.23537737 -0.18466777 0.18620127 -0.41858262
0.4895954 -0.47299105 0.22090274 -0.096324086 -0.30693042 -0.33833116 0.434803 0.4735452
0.008962095 0.27018577 -0.27843368 0.10603851 -0.12486911 0.06836456 -0.21765018 -0.11500335
0.010554314 0.2979173 0.01621157 -0.4933849 -0.020365775 -0.02961874 -0.05229312 -0.04287207
-0.1176098 -0.107073605 0.19563717 0.4663087 -0.26414365 -0.26623756 0.16398245 -0.18013388
0.20563668 0.48593128 -0.12800342 0.20457566 0.34090316 -0.35504282 0.38321847 -0.2560159
0.08738172 0.10092902 0.041887105 -0.3352536 0.30843788 0.16668862 -0.018417835 -0.113514006
-0.15350676 -0.07008535 -0.13521868 -0.1963659 0.40187782 0.1696341 -0.46925116 -0.4522668
00000000: 24f8 d0be 7489 b0be a088 f83d 48d9 9e3d
00000010: 64cb 60be 0a80 a63e c432 763e 04ac 6abe
00000020: 5e9d d33e 98a8 11be fcb8 bfbe 64be 113e
00000030: 46f0 cc3e 002a afba fc7d 3abe 60ac d4be
00000040: 30ff a5be 00c2 fdba 9462 383e 2435 42be
00000050: 4c96 703e 3206 ae3e 0c60 d7be f098 41be
00000060: 780a eb3d a400 053e dcc5 15be 8068 48bc
00000070: f498 703e 107c e73e 0c53 8c3e a8f2 25be
00000080: a679 e2be 2c19 c4be 60fb df3d 10ec 2f3e
00000090: 9aba fe3e 4a4f 873e 025f fa3e 36e5 823e
000000a0: d8c0 efbd 6ec2 e2be 3067 693e 6082 a13c
000000b0: a01c 4a3d 9060 45be 3cd7 f5be 8888 a9be
000000c0: 860a fb3e fe89 adbe 28d4 813d 00f0 9ab9
000000d0: f845 363e dc57 793e 8075 abbc 8878 2c3e
000000e0: a0da f93c da79 ee3e 144e 12be ca5e 9cbe
000000f0: 4256 9e3e f26d c8be 0899 8fbd f02e 943e
00000100: 0087 c9bb 985b adbe 0407 143e 0096 873a
00000110: c406 713e 8c19 3dbe 8cab 3e3e 7650 d6be
00000120: 40ac fa3e e22b f2be 5434 623e 9045 c5bd
00000130: fc25 9dbe be39 adbe 809e de3e 8474 f23e
00000140: c0d5 123c ca55 8a3e dc8e 8ebe b82a d93d
00000150: 60bb ffbd b802 8c3d b0df 5ebe e086 ebbd
00000160: 00ec 2c3c 9e88 983e 20ce 843c f29c fcbe
00000170: 20d6 a6bc 00a3 f2bc 5031 56bd a09a 2fbd
00000180: 68dd f0bd 6849 dbbd 1c55 483e 04c0 ee3e
00000190: d63d 87be 4a50 88be 04eb 273e 0475 38be
000001a0: 6c92 523e fccb f83e 5413 03be 487c 513e
000001b0: dc8a ae3e 2cc8 b5be 3635 c43e 8414 83be
000001c0: 30f5 b23d e0b3 ce3d d091 2b3d 5ca6 abbe
000001d0: 92eb 9d3e 6cb0 2a3e 00e1 96bc 087a e8bd
000001e0: e030 1dbe e888 8fbd c476 0abe 2414 49be
000001f0: eec2 cd3e 90b4 2d3e b041 f0be 848f e7be

layer2.weight f4 [128, 128]
0.0004806216 -0.0120960185 -0.056289688 0.00757618 -0.015971126 -0.055948034 0.014530652 0.07159757
-0.0744936 0.0077179517 -0.04562407 0.03808991 -0.08764007 -0.050705723 -0.06162296 -0.038345423
0.03304828 0.07010793 -0.012368867 -0.03322105 0.01701642 0.047183998 0.050756983 0.0026803499
-0.010121607 -0.036647663 -0.03880932 -0.00075184705 0.05243858 0.03270073 -0.027708191 4.059795e-05
-0.025397986 -0.062248357 0.087817654 -0.048115697 -0.016067358 0.067524634 -0.073599435 -0.02624655
-0.026734842 -0.06073683 -0.009597891 -0.026906 0.06945479 -0.062835895 -0.05160026 -0.07505713
-0.016494822 -0.06976434 0.083677374 0.026599655 -0.04457808 -0.056805436 -0.043797623 -0.01869532
0.015556644 -0.0054025096 0.050902035 -0.07324174 0.083081424 -0.025445506 0.05037975 0.03141827
-0.052463785 -0.06032456 0.077860445 0.057630092 0.07085191 -0.08754099 0.011204982 0.043618195
-0.050937217 -0.0426365 0.048399217 0.07831615 0.008378667 -0.009985747 0.017438153 0.08187415
0.015342685 -0.05099442 0.045392178 -0.004683769 0.058377303 0.024881054 -0.06684003 0.014643849
0.059036333 0.055808093 -0.054214153 -0.025410146 0.052983265 -0.011893862 -0.006733507 -0.009702205
-0.06665746 0.054647233 0.029584905 -0.05973872 0.048048638 -0.053463276 0.043543108 -0.08615193
-0.030961517 0.0495144 -0.046141673 0.018027756 0.034388635 0.07468112 0.05618317 0.07013276
0.00073031004 -0.025649212 -0.0059671085 0.064077035 7.0606504e-05 0.03590471 0.057209097 0.047848642
0.067902714 0.06858323 -0.004661631 0.008224589 -0.042544987 -0.079356275 0.00632542 -0.04633122
0.010321121 -0.027936764 -0.064828075 -0.025392685 -0.07069901 -0.035183873 -0.037417013 0.03416336
0.079911195 0.05019011 -0.0059449077 -0.044279322 0.06321129 -0.06336442 -0.037127864 0.027365863
-0.02957104 -0.06551502 0.05325704 0.05602669 -0.056535054 0.066786684 -0.027282739 -0.0039587165
-0.01933905 -0.019026646 0.030541692 -0.058014736 -0.02096853 -0.06885032 0.042761434 0.074236445
0.077188306 0.08156558 -0.044341646 -0.081637844 -0.012104216 0.068758324 0.014884434 -0.036700223
0.057010893 0.02632197 -0.023190882 0.056961548 -0.056235105 0.067206636 0.04582395 4.0039507e-07
-0.054852974 0.08268304 0.0013863574 0.063442625 -0.06645521 0.055060085 -0.043031164 -0.0061838278
0.041775808 0.08200429 0.030873852 0.016258337 -0.0036392855 -0.015301234 0.026743945 -0.08659497
-0.0141674625 0.047725406 0.047102917 0.057375632 0.07019474 0.022294154 0.017824387 -0.0787522
0.05701222 -0.08760177 0.018668557 -0.03711246 0.04413854 -0.082191296 -0.053481735 -0.048920035
0.07339041 0.021383973 0.078258395 -0.04589994 -0.0326611 0.035195135 0.0028224268 0.016274415
0.026708236 0.01865255 -0.00876902 0.08007395 -0.06840548 0.011666553 0.05549505 0.073281966
0.0010760196 0.03683351 -0.04339662 -0.083481245 0.050282147 0.040381886 -0.035449304 -0.07573143
0.021984797 -0.07523605 -0.0143029755 -0.08190265 -0.07542528 0.08314138 -0.082505465 0.01997494
-0.08272758 0.039190203 -0.04178528 -0.060236424 0.033471774 -0.08810156 -0.05030554 -0.023744754
0.042561583 -0.021006685 -0.036834817 0.08299336 0.074149646 0.0006195903 -0.0083591845 -0.002656758
00000000: f0fb fb39 612e 46bc 0490 66bd 9b41 f83b
00000010: e1d5 82bc c429 65bd f911 6e3c bfa1 923d
00000020: 1a90 98bd dfe6 fc3b 4ee0 3abd 2a04 1c3d
00000030: a37c b3bd ceb0 4fbd 5b68 7cbd 1710 1dbd
00000040: a25d 073d bf94 8f3d caa6 4abc cc12 08bd
00000050: 0566 8b3c 0244 413d 8ee6 4f3d cfa8 2f3b
00000060: 19d5 25bc dc1b 16bd 86f6 1ebd 9a17 45ba
00000070: d6c9 563d 33f1 053d 4afc e2bc b847 2a38
00000080: 700f d0bc 22f8 7ebd bed9 b33d f714 45bd
00000090: b19f 83bc 5b4a 8a3d 4dbb 96bd 0103 d7bc
000000a0: 0703 dbbc 2fc7 78bd 7940 1dbc f969 dcbc
000000b0: 503e 8e3d 1bb0 80bd cb5a 53bd 8db7 99bd
000000c0: 2620 87bc 9be0 8ebd 0b5f ab3d 85e7 d93c
000000d0: 8197 36bd d1ac 68bd 2365 33bd ed26 99bc
000000e0: 4be1 7e3c 8907 b1bb a77e 503d c4ff 95bd
000000f0: 9826 aa3d 1873 d0bc ff5a 4e3d 72b0 003d
00000100: 44e4 56bd e316 77bd 4c75 9f3d 880d 6c3d
00000110: ce1a 913d b148 b3bd 1a95 373c fea8 323d
00000120: 8ba3 50bd 9ca3 2ebd 423e 463d 3864 a03d
00000130: ad46 093c 429b 23bc 75da 8e3c a2ad a73d
00000140: e35f 7b3c 86df 50bd 26ed 393d 4d7a 99bb
00000150: 0a1d 6f3d 5ad3 cb3c 6de3 88bd c1ec 6f3c
00000160: 15d0 713d 0797 643d a90f 5ebd f028 d0bc
00000170: fb04 593d 79de 42bc c0a4 dcbb fff5 1ebc
00000180: b583 88bd c7d5 5f3d 0b5c f23c 97b0 74bd
00000190: a6ce 443d 4ffc 5abd 425a 323d 6c70 b0bd
000001a0: 02a3 fdbc 9dcf 4a3d 0dff 3cbd f2ae 933c
000001b0: 19db 0c3d 6af2 983d 5320 663d c4a1 8f3d
000001c0: 4772 3f3a 4c1e d2bc bc87 c3bb d23a 833d
000001d0: 9412 9438 d110 133d 1654 6a3d f0fc 433d
000001e0: 9410 8b3d 5d75 8c3d 98c0 98bb 6dc0 063c
000001f0: a743 2ebd 8b85 a2bd 7845 cf3b cec5 3dbd
00000200: eb19 293c a4db e4bc 95c4 84bd 5204 d0bc
00000210: a4ca 90bd f71c 10bd 9542 19bd e1ee 0b3d
00000220: 7ba8 a33d 2594 4d3d 80cd c2bb 3c5e 35bd
00000230: ec74 813d 34c5 81bd 6313 18bd 602e e03c
00000240: f73e f2bc bd2c 86bd 0e24 5a3d 3e7c 653d
00000250: 4d91 67bd 75c7 883d 0d80 dfbc 1fb8 81bb
00000260: ed6c 9ebc c5dd 9bbc 9232 fa3c dca0 6dbd
00000270: 32c6 abbc 6601 8dbd 9d26 2f3d 4709 983d
00000280: e714 9e3d db0b a73d 969f 35bd be31 a7bd
00000290: c350 46bc 2ad1 8c3d d7dd 733c f952 16bd
000002a0: 4184 693d 2ca1 d73c cefa bdbc 8350 693d
000002b0: c856 66bd a2a3 893d e5b1 3b3d e1f5 d634
000002c0: 83ad 60bd ba55 a93d 6fb6 b53a 35ee 813d
000002d0: ab19 88bd af86 613d 7241 30bd b5a1 cabb
000002e0: 1c1d 2b3d ddf1 a73d 29eb fc3c 3430 853c
000002f0: 1481 6ebb 07b2 7abc 1e16 db3c b458 b1bd
00000300: a51e 68bc b77b 433d fdee 403d b602 6b3d
00000310: 43c2 8f3d 3ba2 b63c 7304 923c d548 a1bd
00000320: a585 693d 8f68 b3bd cdee 983c 3c03 18bd
00000330: 9dca 343d e953 a8bd aa0f 5bbd 6060 48bd
00000340: b64d 963d 712d af3c f045 a03d 9301 3cbd
00000350: a5c7 05bd c628 103d 77f8 383b ec51 853c
00000360: 3bcb da3c 3ccd 983c f0ab 0fbc d0fd a33d
00000370: 2c18 8cbd 1225 3f3c c74e 633d db14 963d
00000380: 3a09 8d3a bcde 163d a7c0 31bd 37f8 aabd
00000390: a7f4 4d3d 7a67 253d 4a33 11bd 1419 9bbd
000003a0: 7619 b43c 5c15 9abd 0757 6abc 94bc a7bd
000003b0: 9278 9abd 0746 aa3d a0f8 a8bd 7ca2 a33c
000003c0: 146d a9bd e885 203d 0b27 2bbd 78ba 76bd
000003d0: b319 093d 976e b4bd 2f0d 4ebd 5c84 c2bc
000003e0: 0e55 2e3d 3616 acbc 1be0 16bd 6cf8 a93d
000003f0: c5db 973d 006c 223a f6f4 08bc 011d 2ebb

layer2.bias f4 [128]
0.06064454 0.041253164 0.026298907 -0.02092707 0.081388146 -0.07405452 -0.0040517766 -0.087163925
0.021689631 0.055767033 0.08759098 -0.0069288365 0.06271662 0.0027186086 0.07506283 0.02058509
-0.02755894 -0.019218268 -0.0065149544 0.022374434 0.05622656 -0.07740295 -0.03423171 -0.068600886
-0.014179612 -0.015835982 0.08577272 0.0010998852 -0.060182 -0.032488983 0.03730244 0.059849344
-0.07873305 -0.07221854 -0.06030801 0.085727185 -0.017857745 0.0040319255 0.07074703 0.057318605
-0.052727308 -0.06904171 -0.04756628 0.0119913155 0.03794233 0.014280058 0.023253523 -0.018502118
0.07933992 -0.0204292 -0.0801347 0.01707667 0.038358014 0.05060298 -0.08611863 -0.02078359
-0.008787228 -0.006296286 -0.011360609 0.05018755 -0.011565085 -0.07143298 -0.075211495 -0.016990533
-0.08316687 0.047721412 0.0016702901 0.05020131 0.04324493 -0.053175423 -0.045428254 0.07872252
-0.07220704 -0.05116998 0.0002688653 -0.07580795 -0.06480469 0.046976045 -0.06906843 0.022970242
0.060089897 0.048692495 0.052071955 0.04512367 0.050358266 0.0022213918 -0.014181476 0.07349144
-0.00686294 0.0538595 0.04608306 0.0011774249 -0.06887916 0.060866877 -0.032429006 0.026029082
0.081063814 -0.0011118022 -0.03067949 -0.083864555 0.049870912 0.0009461651 -0.069549136 -0.07686641
0.0017801564 -0.07760324 -0.0059676883 -0.021174861 -0.029417109 -0.039699737 -0.08095784 -0.038028143
0.07726505 -0.01334385 -0.050556988 -0.07191116 -0.08801599 -0.016118377 0.028453631 0.02415773
0.055439595 0.02679903 -0.041357417 0.02806507 0.07819449 -0.005576829 -0.018768793 -0.06870574
00000000: 6966 783d 14f9 283d ce70 d73c 3f6f abbc
00000010: d4ae a63d e5a9 97bd c4c4 84bb 0083 b2bd
00000020: 74ae b13c f96b 643d e662 b33d 4b0b e3bb
00000030: 9271 803d af2a 323b 8aba 993d 10a2 a83c
00000040: 49c3 e1bc a16f 9dbc 667b d5bb 974a b73c
00000050: d24d 663d 7085 9ebd 8d36 0cbd 9f7e 8cbd
00000060: 9a51 68bc 76ba 81bc 9ca9 af3d 062a 903a
00000070: 6781 76bd 2b13 05bd 71ca 183d 9624 753d
00000080: cb3e a1bd 50e7 93bd 8805 77bd bc91 af3d
00000090: 684a 92bc 3e1e 843b d2e3 903d eac6 6a3d
000000a0: 97f8 57bd bd65 8dbd dcd4 42bd 3977 443c
000000b0: 6b69 1b3d e8f6 693c 2c7e be3c c191 97bc
000000c0: f87c a23d 235b a7bc a91d a4bd 5fe4 8b3c
000000d0: 4b1d 1d3d 1245 4f3d f75e b0bd 5942 aabc
000000e0: 4ef8 0fbc 1351 cebb d921 3abc 7691 4d3d
000000f0: 7b7b 3dbc 744b 92bd 7c08 9abd bb2f 8bbc
00000100: 6453 aabd 8777 433d a3ed da3a e49f 4d3d
00000110: 9921 313d 79ce 59bd fa12 3abd 4639 a13d
00000120: 49e1 93bd 9d97 51bd 7df6 8c39 3341 9bbd
00000130: 52b8 84bd f469 403d c073 8dbd 172c bc3c
00000140: d320 763d c871 473d 6749 553d 99d3 383d
00000150: 7844 4e3d c594 113b 6c59 68bc ae82 963d
00000160: 83e2 e0bb c79b 5c3d 97c1 3c3d d353 9a3a
00000170: 8410 8dbd 8c4f 793d 47d4 04bd f13a d53c
00000180: c904 a63d e4b9 91ba 8e53 fbbc 2ec1 abbd
00000190: 7145 4c3d 1108 783a c76f 8ebd 236c 9dbd
000001a0: 2354 e93a 73ee 9ebd 998c c3bb e776 adbc
000001b0: 26fc f0bc 319c 22bd 39cd a5bd 66c3 1bbd
000001c0: 233d 9e3d 2aa0 5abc d814 4fbd 2946 93bd
000001d0: ba41 b4bd b00a 84bc 9717 e93c 6fe6 c53c
000001e0: a114 633d a489 db3c 6566 29bd b8e8 e53c
000001f0: 6f24 a03d d5bd b6bb 03c1 99bc 98b5 8cbd
