custom_maze/static/custom_maze/run/room24817/trained_model.pth (torch, 158674 bytes, 12 tensors)

layer1.weight f4 [128, 16]
000000 20 33 32 3c 72 f6 04 be d6 11 28 be 24 72 d3 bd
       0.010876447 -0.12984636 -0.16413054 -0.10324505
000010 54 a1 1f 3e 64 13 ee bd 78 6a 17 3e 00 b5 7a bd
       0.15588886 -0.11624792 0.14786708 -0.06120777
000020 4e 93 5c be 00 42 8c bd 74 3e 20 3e 8e c6 5d be
       -0.21540567 -0.06848526 0.15648824 -0.21657774
000030 d8 a8 06 be 00 28 20 3d 20 95 b7 3d 34 48 0d 3e
       -0.13150346 0.039100647 0.0896399 0.13797075
000040 e4 5c 16 3e 10 28 11 3d 64 cb 29 3e 7a b7 37 be
       0.14683872 0.035438597 0.16581494 -0.17941085
000050 90 f8 81 3c 52 f4 02 3e c8 e9 4b 3d c0 56 3f bd
       0.015865594 0.12788513 0.049783498 -0.04671359
000060 ac 31 7d 3e 8c 12 42 3e 84 b1 b6 3d 16 00 27 3e
       0.2472598 0.18952388 0.08920577 0.16308627
000070 38 8f 26 3e be 9e 05 be 54 5c 91 bd 2a 53 20 3e
       0.16265571 -0.13048837 -0.07097688 0.15656725
000080 10 61 4f 3e d4 9d 56 3e e0 e1 8c bd 70 33 95 3d
       0.2025187 0.20958644 -0.0687902 0.072852015
000090 a0 73 f2 3c e0 73 0e bc 16 e6 42 be 62 4b 78 3e
       0.02959615 -0.008694619 -0.19033083 0.24247506
0000a0 94 24 5f be f8 3c b2 3d b0 4d 64 be 90 11 e9 3d
       -0.21791297 0.08703035 -0.2229526 0.11380303
0000b0 f4 db 49 3e 4a 2a 34 be b6 18 3d be 62 1d 13 3e
       0.19712812 -0.17594257 -0.18466458 0.14366677
0000c0 34 5a 6d be e8 f2 69 bd ce 5e 04 3e d8 a1 11 3e
       -0.23178941 -0.05711642 0.1292679 0.14221895
0000d0 80 f9 b3 3d 94 d1 e4 3d 60 db c0 3d 84 54 45 3e
       0.08787823 0.11172786 0.094168425 0.19270521
0000e0 d8 21 43 3e 9a 5f 3b 3e 78 4f 42 3e 58 04 03 3e
       0.19055879 0.18298188 0.18975627 0.12794626
0000f0 90 94 a4 bc d0 34 cd 3c bc 89 35 be c0 a4 3b 3c
       -0.020090371 0.025049597 -0.17728323 0.011452854
000100 94 3f 12 be 80 2f 34 3b d0 86 4b 3d b4 6b cc 3d
       -0.14282066 0.0027494133 0.049689114 0.0998148
000110 2c d0 34 be 42 2f 63 be fe 80 6f 3e 00 68 62 bb
       -0.17657536 -0.22185996 0.2338905 -0.0034546852
000120 f8 cd 37 3d 6c 55 35 be 30 7f 81 bd a0 57 96 bd
       0.04487416 -0.17708367 -0.06323087 -0.07340932
000130 6a e4 2a 3e 60 da ca bc c4 51 64 3e dc 0c 79 be
       0.16688696 -0.024762332 0.22296816 -0.24321312
000140 2c 97 8b 3d 3a 65 1b 3e c0 2b 5b 3c 16 4f 0a be
       0.06815943 0.15175334 0.01337713 -0.13506731
000150 ac cf 7f 3e 88 67 ee 3d 80 5d 5c 3d 7e 01 14 3e
       0.24981564 0.11640841 0.053800106 0.14453694
000160 88 b3 26 3e 4e 83 03 be 38 37 0e bd 4e 1c 35 3e
       0.16279423 -0.12843058 -0.03472063 0.17686579
000170 e8 9d 57 be 22 62 67 be 10 43 92 bd c2 20 54 3e
       -0.2105633 -0.22596028 -0.071416974 0.20715621
000180 3e 51 3c be ac 33 28 be a0 8d d7 bd 0c 1c ef 3d
       -0.18390366 -0.16425961 -0.1052506 0.116752714
000190 a8 41 35 be 88 4b 35 bd 74 e0 f2 bd 78 9d e8 bd
       -0.17700827 -0.044261485 -0.11859217 -0.1135816
0001a0 88 b3 42 bd f0 3f 33 bd 42 b0 18 3e 00 ed f5 bd
       -0.047534496 -0.043762147 0.14910987 -0.12008095
0001b0 5c 85 31 be 0a bb 28 3e 10 6b 53 bd de ca 3c be
       -0.17336029 0.164776 -0.051615775 -0.18436763
0001c0 4a af 59 3e 0a 7a 5f be b6 32 05 3e b8 35 1f bd
       0.21258274 -0.21823898 0.13007626 -0.03886959
0001d0 fc fb 22 be 60 19 41 bc 64 15 0f 3e 98 e0 2e bd
       -0.15916437 -0.011785835 0.13973004 -0.042694658
0001e0 30 c5 fb bc f0 15 28 bd f0 5a f6 3d 20 10 9c bc
       -0.030733675 -0.041036546 0.12029064 -0.019050658
0001f0 b6 f5 1d be d8 5c c9 bd 9a 49 05 be 54 ce 7e be
       -0.15425763 -0.09832162 -0.13016358 -0.24883395
000200 2c 57 4b be a8 b5 bd 3d 98 09 ea 3d e8 81 6a 3e
       -0.19857472 0.09263164 0.11427611 0.22901118
000210 00 a5 4e 3e 50 5d 50 3e fc 65 09 3e 00 2f 5b bb
       0.2018013 0.20348096 0.1341781 -0.0033444762
000220 94 80 3b 3e c0 bd 74 3c ec 26 d6 bd 0e 49 73 3e
       0.18310767 0.014937818 -0.104566425 0.23758337
000230 d8 db 02 3d aa 69 29 3e b2 86 05 be c0 e2 45 bd
       0.03194794 0.16544214 -0.13039663 -0.04831195
000240 1c 57 66 be 64 c2 6b be ce 2c 57 3e dc 05 2d 3e
       -0.22494167 -0.23023373 0.21013185 0.16896766
000250 36 41 4e 3e ac 34 5b be ec 0c ff 3d 08 20 5a bd
       0.20142063 -0.21406811 0.124536365 -0.053253204
000260 3a 26 3a be cc 6e a6 3d 3c 58 52 3e 2e 65 1f 3e
       -0.18178645 0.081266016 0.20541471 0.1556594
000270 a0 18 b0 3d 6e 0b 1b be ac 97 0b be a0 d2 e6 bd
       0.08598447 -0.15141079 -0.13632077 -0.11270642
000280 28 62 34 be a4 8a 26 3e 34 9f 3d 3e 50 ec e2 bd
       -0.17615569 0.16263825 0.18517762 -0.11080229
000290 2c 72 5c be f0 44 33 bd e0 4d c8 bd 34 2a 82 bd
       -0.21527928 -0.043766916 -0.097804785 -0.06355706
0002a0 98 b2 0e 3e c0 c3 07 3e 20 9d 65 bd 20 bc 38 bd
       0.13935316 0.13258266 -0.05605805 -0.045101285
0002b0 80 ac 4c be 1c c1 0d 3e 70 07 eb bd 04 52 96 bd
       -0.19987679 0.13843197 -0.11476028 -0.07339862
0002c0 8c ac 10 3e 8a 8c 4d 3e 00 c7 2d be 60 c9 d2 bd
       0.14128321 0.20073143 -0.16970444 -0.102923155
0002d0 00 96 a1 ba 70 d6 02 3e b4 b9 ab 3d 4e fc 4a 3e
       -0.0012328029 0.12777114 0.083850294 0.19822809
0002e0 1a d7 04 3e e0 df 58 bd e0 c0 72 bd 56 a3 06 3e
       0.1297268 -0.05294788 -0.05926597 0.13148245
0002f0 fe 2d 4f be 1c 8b f2 bd 80 bf 03 3b b4 f4 4d 3e
       -0.20232388 -0.11842939 0.0020103157 0.20112878
000300 86 9a 75 be 58 e2 da bd 0e ee 14 be 06 67 65 be
       -0.23984727 -0.10687703 -0.14543936 -0.22402582
000310 76 f9 6d be b0 b0 a4 bc 78 d7 88 3d 60 0e 1c 3d
       -0.23239693 -0.020103782 0.066817224 0.038099647
000320 1a 66 4d be 80 70 54 3c ee 47 0d 3e be 18 79 3e
       -0.2005848 0.012966275 0.1379697 0.24325845
000330 18 69 e3 bd 20 0a 8f bc 9a 8c 11 3e c4 fe 4e 3e
       -0.111040294 -0.017460883 0.14213791 0.20214373
000340 18 81 f9 bd 48 66 70 bd 20 30 f5 bd 6e ba 44 3e
       -0.12182826 -0.058691293 -0.1197207 0.19211742
000350 68 3d 3f be 60 1c 18 3d 98 d1 15 bd 38 db 6d 3e
       -0.18675768 0.037136436 -0.036576837 0.23228157
000360 38 bf 14 bd ce 5f 0f be 30 ba 45 be b2 b9 6d 3e
       -0.036315173 -0.1400139 -0.19309306 0.23215368
000370 78 d4 68 3d 62 c5 3d 3e b0 bd 05 3e 68 a5 4a be
       0.05684325 0.18532327 0.13060641 -0.1978966
000380 c2 ec 2e 3e 7a da 5a 3e 48 1f 1a 3e 42 97 36 3e
       0.17082503 0.21372405 0.15050995 0.17831138
000390 4a de 7d be 26 dc 38 3e 88 3c 81 3d 54 a4 b5 bd
       -0.24791828 0.1805273 0.063103735 -0.08869234
0003a0 0a 71 4a be 48 55 09 3d d0 fb 5e bd 68 bb f8 3d
       -0.19769683 0.033528596 -0.054439366 0.1214512
0003b0 00 04 86 3a 1c 73 43 be 08 92 3d be d0 4c 9c bd
       0.0010224581 -0.1908688 -0.18512738 -0.07631838
0003c0 5e 54 14 3e b0 1a 2e 3d d0 6a 7a 3e 48 51 13 3e
       0.14485309 0.04250592 0.24454808 0.14386475
0003d0 e0 cc eb bc 14 63 88 3d fc 34 9f 3d 40 61 c1 bd
       -0.028784215 0.06659523 0.07773778 -0.09442377
0003e0 aa b0 2a 3e 6e 75 50 3e 52 ff 4e be 40 c1 26 bd
       0.16668954 0.20357296 -0.20214584 -0.04071164
0003f0 20 c0 8c bd fc 59 b5 bd e8 03 17 bd b8 6d 36 be
       -0.068725824 -0.08855054 -0.03686896 -0.17815292

layer1.bias f4 [128]
000000 68 48 cf bd 44 95 8a 3d 3e cc 72 3e 10 1e c0 3c
       -0.10121232 0.067667514 0.23710725 0.023451835
000010 bc c7 94 3d b8 60 b1 3d b8 2c 64 bd fa c5 52 3e
       0.07264659 0.08661026 -0.05570671 0.20583335
000020 c0 f8 a1 bb b8 9c ca bd 50 3b e7 bd 8c 61 0e 3e
       -0.0049429834 -0.09893173 -0.1129061 0.13904399
000030 28 ea 3b 3e 4e c8 7c 3e 06 8d 4d be 60 89 d2 3d
       0.18351042 0.24685785 -0.20073327 0.102801085
000040 10 f7 a5 3c d4 d5 d5 bd 16 11 37 be 60 a1 75 bc
       0.02025941 -0.10441175 -0.17877612 -0.014992088
000050 dc 5d 08 3e e4 ef da bd 14 65 26 be 78 71 e0 3d
       0.13317055 -0.10690287 -0.16249496 0.109591424
000060 00 37 26 3c 88 d2 17 3d f4 96 e9 bd 50 76 25 be
       0.010144949 0.037066013 -0.11405745 -0.16158414
000070 58 84 17 3e 10 74 f4 bd 98 16 a9 bd 58 26 22 3e
       0.14796579 -0.119362 -0.082562625 0.1583494
000080 c0 0c b0 3b 30 22 10 bd 04 cf 08 3e f0 37 f1 3c
       0.0053726137 -0.035188854 0.1336022 0.029445618
000090 88 0f 96 3d b8 73 47 bd d0 6c fd bd ec 8d 0f 3e
       0.07327181 -0.048694342 -0.1237427 0.14018983
0000a0 58 ae 4d 3d 5c e2 05 3e 6c e2 c5 3d a0 af bf 3c
       0.050215095 0.1307463 0.09662327 0.023399174
0000b0 20 ae 38 3e ba f9 66 be 4c c2 91 bd 66 f3 3e be
       0.18035173 -0.225562 -0.07117137 -0.18647537
0000c0 ec 91 c0 bd 4c 47 a0 3d 20 5c 83 bd 88 41 36 bd
       -0.094028324 0.07826099 -0.06414056 -0.04449609
0000d0 44 d1 9e 3d 70 77 07 3d 40 97 48 3c f0 4c 93 3c
       0.07754758 0.03307289 0.012243092 0.017981023
0000e0 74 ff 4d be b8 be 30 be 50 10 8f bc 44 62 50 be
       -0.20116979 -0.17260253 -0.017463833 -0.20349985
0000f0 40 bb 74 3e 30 6b 2d bd 00 bc 1d 3b 4c 13 36 be
       0.23899555 -0.04233855 0.0024068356 -0.17780799
000100 e0 e8 2b 3e cc 89 92 3d a0 a9 58 bd 7a 09 0c be
       0.16788054 0.07155189 -0.052896142 -0.1367549
000110 98 35 3c 3e ca 4f 5f 3e e0 38 47 3d e4 c6 32 be
       0.1837982 0.21807781 0.048638225 -0.17458683
000120 fe f1 7e be e6 14 69 3e 68 18 dc 3d 20 a0 02 bc
       -0.24897 0.22761878 0.107468426 -0.007972747
000130 a4 9a f0 bd 80 63 dd bc 58 8f e4 bd 90 dc 99 bd
       -0.11748245 -0.027024984 -0.11160153 -0.07512772
000140 bc a2 f4 bd 98 67 92 bd fc d5 19 3e 6a f5 02 3e
       -0.119451016 -0.07148665 0.15023035 0.1278893
000150 d8 3e 4c 3e 38 32 65 3d c0 c0 59 3e 30 6d c7 bc
       0.19945848 0.055956095 0.21264935 -0.024344057
000160 1e 8e 06 3e 28 6a 2f be dc d3 3e 3e 5e 37 21 3e
       0.13140151 -0.17130339 0.18635505 0.15743777
000170 96 c7 60 be 04 1e d1 bd a0 aa 7e bd 10 c4 7a be
       -0.21951136 -0.10210803 -0.06217444 -0.24488854
000180 60 09 b2 3d 38 07 e5 3d 80 ec d0 3b f0 c3 6d bd
       0.086931944 0.111830175 0.0063758492 -0.05804819
000190 36 1f 2b be e8 35 3a 3e 30 47 84 3c 06 be 67 be
       -0.16711125 0.18184626 0.016147226 -0.22631082
0001a0 90 8b 1a 3d 88 1c 4c 3d 9c 72 50 be 6e aa 24 be
       0.037730753 0.049831897 -0.2035622 -0.16080639
0001b0 dc de f2 3d 62 55 74 be ea 52 20 be 80 0f 52 3d
       0.11858913 -0.23860696 -0.15656629 0.051284313
0001c0 22 a1 22 be 64 fa 5d 3e 52 e4 4d 3e 06 4f 61 be
       -0.1588178 0.21677548 0.20106629 -0.22002801
0001d0 e4 b4 c3 bd 44 d2 95 3d 32 5b 6b be c8 f7 8c 3d
       -0.095559865 0.073154956 -0.22984007 0.06883198
0001e0 fc b0 85 3d fa 9f 1f be fc 0b 47 3e e0 a3 27 3d
       0.06527898 -0.1558837 0.19438165 0.040927768
0001f0 5a 2a 11 3e d4 61 d7 bd 8a db 44 3e 36 63 0c 3e
       0.14176312 -0.10516706 0.19224373 0.13709721

layer2.weight f4 [128, 128]
000000 40 c7 11 bd 15 bc 47 bc ad 95 e5 3c 6c af c3 3b
       -0.03559041 -0.012190838 0.028025473 0.0059718397
000010 50 ca 80 3d 8c a3 1f 3c 8b b2 b5 3a 3e 98 d4 bc
       0.06288588 0.009743582 0.0013862414 -0.025951501
000020 b0 c7 cf 3c 89 8b 47 bd e0 82 43 3d a9 1e e5 3c
       0.025363773 -0.048717055 0.047732234 0.027968721
000030 5d ef 2d bd bb fa 8c 38 ec bd d3 3b c5 ff 90 bd
       -0.042464603 6.7224224e-05 0.0064618494 -0.07080034
000040 66 3c 57 bd 42 49 3e bd e5 f7 b4 3d 42 74 6b bc
       -0.052547835 -0.046456583 0.08836345 -0.01437098
000050 92 f1 93 3d de eb 28 bc 85 4c f0 ba f9 2b a2 3d
       0.0722381 -0.010310141 -0.0018333351 0.07918543
000060 b0 11 09 bc c9 8a 8f 3d 87 93 80 bd 8a 34 0c 3d
       -0.008366033 0.07008893 -0.062781386 0.034229793
000070 a9 f7 7b bd de d3 61 3d ae 49 83 3d e2 66 1c 3d
       -0.061515484 0.055133693 0.06410538 0.038184054
000080 0a 9d 01 3d ef a7 94 bc 64 6e 34 3d c1 5e a3 bd
       0.031643905 -0.018146483 0.04405059 -0.07977057
000090 93 99 1c 3d 28 3b 3b 3d 07 db 52 bd 8f 9a 26 3c
       0.038232397 0.045710713 -0.051478412 0.010168686
0000a0 fb 3f 9f 3d b5 d0 db 3c ec 61 af bc 08 28 1d bc
       0.07775875 0.026832918 -0.021408997 -0.009592064
0000b0 90 4c 68 bc ee 66 11 3d c3 94 8e bc af 73 80 3d
       -0.01417841 0.035498552 -0.01740492 0.06272065
0000c0 e6 19 8b 39 b5 d6 aa 3c 9d 42 8f 3d 44 98 5a 3d
       0.00026531442 0.020854333 0.06995127 0.053367868
0000d0 e6 4e a2 bc 05 9c 45 3d de 4d aa 3d 8f a4 c1 bc
       -0.019813012 0.048244495 0.08315633 -0.023638038
0000e0 dc bb 35 3d bf a0 65 bd 8b 17 9e 3c 6c f8 cd bb
       0.04436861 -0.056061503 0.019298336 -0.0062857177
0000f0 5b 2c 8e 3d e3 2d d8 3c aa 90 b2 3d 42 18 f1 3b
       0.06942054 0.026389068 0.08718999 0.007357628
000100 19 3a c9 3c c7 98 ac bd d3 e4 59 3d 1f ac a6 3d
       0.024563836 -0.084275775 0.05319674 0.08138298
000110 fb cf 97 3d d8 c1 ad 3d b6 7f 33 3d 5c 8d 6b bc
       0.07412716 0.084842384 0.043822967 -0.014376964
000120 0d 74 27 3d 9e c8 b2 bd ac d6 ad bd 2d 6c a2 3c
       0.04088216 -0.08729671 -0.08488211 0.019826973
000130 68 81 a3 3d 84 79 ab 3d bc 99 a7 bb 3f 75 ad bb
       0.07983667 0.08372787 -0.005114762 -0.005293518
000140 42 b4 61 bc 0a c9 22 3d 2f b5 20 bd d7 fe 43 bc
       -0.013775887 0.039742507 -0.03923529 -0.011962614
000150 34 71 c6 bb 58 de 45 3c 0d a7 fd bc 56 c6 85 bd
       -0.0060559753 0.012076937 -0.030963445 -0.0653197
000160 0a 3d 9a bc 49 f1 2b 3d 36 37 99 bc d0 0c 93 bd
       -0.018827934 0.041978154 -0.018703084 -0.07180178
000170 40 80 86 3d bd 81 49 3d 3e 14 4a bc e1 73 d2 b8
       0.065674305 0.049195994 -0.012333928 -0.000100351645
000180 28 3c f7 3b 6a cd 33 3d 7a e3 87 bd 2f a3 ac bd
       0.007545013 0.04389707 -0.066351846 -0.08429562
000190 9e e0 89 bd 1a 0d 87 bb 4c 73 10 bd 2f 88 39 3c
       -0.067322955 -0.004121435 -0.035266206 0.011323973
0001a0 04 b0 4a 3d 69 bc 78 bd 84 06 91 bd 36 23 af 3c
       0.049484268 -0.060726557 -0.07081321 0.021379095
0001b0 61 0d 2f bc 93 95 37 bd 81 d1 a1 bd 7b 02 1d bd
       -0.010684342 -0.04482038 -0.07901288 -0.038332444
0001c0 36 c2 46 3c 1e 16 29 bc a9 34 32 bd 76 df 84 3d
       0.012131264 -0.010320215 -0.043507252 0.06487934
0001d0 66 0a f6 3c 9f 75 44 3d a7 c4 26 3d 8e 82 34 3d
       0.030034255 0.047963735 0.040714886 0.04406982
0001e0 27 a0 43 bd 2e 18 e6 3c ac f5 05 3d a2 e8 73 bd
       -0.047760155 0.028087702 0.032704994 -0.059548028
0001f0 03 1b 96 38 c7 db a7 bd 65 47 0f bc 69 e6 a0 3d
       7.157589e-05 -0.08196216 -0.008745049 0.07856447
000200 67 16 be 3c c6 eb f0 3c de a8 83 bd 90 64 33 bd
       0.023204042 0.0294093 -0.06428693 -0.043797076
000210 71 b8 27 3d 96 28 41 bd dc 97 33 bc 8c 23 30 bd
       0.04094738 -0.047157846 -0.010961499 -0.04300265
000220 1f 2d 6a 3d 69 84 1b 3c 23 7d a7 bd 79 35 1a 3d
       0.057171937 0.009492018 -0.08178165 0.03764865
000230 f4 f5 4a bd 04 8d 1f 3d fd fc 87 bb 0c d0 9b bd
       -0.049550965 0.038952842 -0.0041500316 -0.07608041
000240 2e 06 5c 3d d4 9f 4c bd 64 3b 58 3d 3c 6d 2b 3d
       0.05371683 -0.04995711 0.052791014 0.04185222
000250 91 97 69 3d 85 78 8f bc 68 ee a8 bd 43 14 39 3d
       0.05702931 -0.017513523 -0.082485974 0.04518534
000260 5c aa 2e 3d ce 56 60 3d c1 fa 75 bd 4b 32 f4 3c
       0.042642936 0.054770283 -0.06005359 0.029809138
000270 3a 57 0d bc e2 97 05 3c b4 2c b9 3b 22 e3 7d bb
       -0.008626753 0.008153887 0.005651081 -0.0038740118
000280 2c e6 b3 3d 5b fa 62 3d bd 58 6c bd f7 aa f4 3c
       0.08784136 0.05541454 -0.057701815 0.029866679
000290 06 9e d5 3c 84 ac 98 3d 84 be 51 bd 52 ca e3 3c
       0.026076328 0.0745478 -0.05120708 0.027806435
0002a0 67 df 8d 3d c7 74 92 bd 2b 35 17 3d 8b 69 16 bd
       0.06927376 -0.0715118 0.03691594 -0.036721747
0002b0 ed 99 46 bd 82 42 99 bd b1 0b 24 3d 4a 6e 02 bc
       -0.04848664 -0.074833885 0.040050212 -0.007960865
0002c0 4e 61 b3 3c f5 0e 40 bd 45 3b 8e bd b1 96 0b bd
       0.021896984 -0.046889264 -0.069448985 -0.034079257
0002d0 5a e0 f8 bc 39 70 94 3d fa d6 9c bd 7c 17 a9 bd
       -0.030380417 0.07247967 -0.07658191 -0.082564324
0002e0 88 5e a2 bd af cb 9e 3d b5 52 db bc 63 bd 9e 3d
       -0.07928187 0.07753693 -0.026772836 0.077509664
0002f0 89 8f a9 bd 04 78 66 3c 03 36 98 3d 72 b7 5c 3d
       -0.0827933 0.0140667 0.07432177 0.053885885
000300 ca 99 8c bd a1 09 47 3d 0f 94 62 3d 6f a1 67 3d
       -0.068652704 0.048593167 0.05531698 0.05655044
000310 df 79 3c 3c f3 84 13 3d c5 45 80 3d b5 ce 7a bc
       0.011503666 0.036015462 0.062633075 -0.015308072
000320 ae fe 28 3d eb bf 86 3c c0 fc 9f bd 97 0b 4e bd
       0.041258506 0.016448935 -0.0781188 -0.05030402
000330 3b c9 88 bc 24 cc ab bd a3 c8 8a bd 57 49 a8 3c
       -0.016697517 -0.08388546 -0.0677655 0.020542784
000340 4e 35 0c bd b7 39 b1 3d f4 2c 59 bd 26 64 da 3c
       -0.034230523 0.08653586 -0.053021386 0.026659083
000350 ad 8d 0d 3c af 18 00 3d 9b 14 f2 ba 54 0b 83 bd
       0.008639735 0.03127354 -0.0018469276 -0.06398645
000360 2c d1 63 3d 93 b7 bf 3a bf f9 b8 3c b7 42 2a 3d
       0.055619404 0.0014626853 0.022580026 0.04156753
000370 5d 1f 2f 3d ca 1b 61 3a 1a f4 16 3d 33 33 d2 3c
       0.04275452 0.000858721 0.036853887 0.02565918
000380 77 91 f8 bc b9 e7 ad 3d c9 85 ee 3c 0b 53 08 3d
       -0.0303428 0.08491463 0.029116528 0.03328232
000390 83 72 6d 3d 34 b8 ac bc be 4f 58 3c 19 87 10 3c
       0.057970535 -0.021083929 0.013202606 0.008821272
0003a0 13 b0 9c 3d 26 74 23 3d 2d b4 99 3d 95 92 aa bb
       0.07650771 0.03990569 0.07505069 -0.005205462
0003b0 7b b5 db bb 22 50 c4 3c 6b 99 14 bc b3 0f 39 3d
       -0.0067049838 0.023963992 -0.009069781 0.045180988
0003c0 19 ee 26 3d 52 8e 98 bd 6b a7 4c 3d d4 08 72 3d
       0.04075441 -0.074490204 0.04996435 0.05909045
0003d0 a4 84 54 bd f3 88 fa bc cf 58 aa 3d 4c 8a fe 3c
       -0.05188431 -0.03058288 0.0831772 0.031071804
0003e0 82 64 e1 bc da 06 bd ba 15 75 a6 b9 02 1c 5b 3d
       -0.027513746 -0.0014421598 -0.0003174922 0.053493507
0003f0 df 13 f3 3b a4 b0 fd bc 38 02 7d 3d 70 31 7b bd
       0.0074181403 -0.030968018 0.061769694 -0.061326444

layer2.bias f4 [128]
000000 42 0f 0f 3d 5f a3 cd bc d9 aa 71 bc d1 0e d0 bb
       0.03492666 -0.025102315 -0.014750206 -0.0063494225
000010 9b 29 4d 3d 77 d1 8b bd 7d 04 9b 3c 62 a4 82 bb
       0.050088506 -0.068270616 0.018923039 -0.003986881
000020 22 9e e2 3c ae d7 ad 3d f7 15 5b bd 6e 18 63 bd
       0.027663294 0.08488403 -0.053487744 -0.05544322
000030 ad 1c 9f bd 98 be 03 bd 90 b2 18 bd 18 82 fb 3c
       -0.07769141 -0.032164186 -0.037279665 0.030701682
000040 ab fd 08 3c 7f d7 a9 3d b2 bc 05 ba aa a7 76 bd
       0.00836126 0.08293056 -0.0005101665 -0.06021849
000050 7f 79 bc bc 57 d6 97 bd 91 db 59 bd 13 18 57 bd
       -0.023007153 -0.07413929 -0.05318791 -0.052513193
000060 82 11 40 bc 20 17 48 bc 39 fb 7e bd 05 26 fa 3c
       -0.011722924 -0.012212545 -0.062251303 0.030535707
000070 a2 a5 a3 bd a1 20 b2 bd 77 9c 5e 3d 7e ae 2e 3c
       -0.07990576 -0.0869763 0.054348435 0.010661719
000080 ba f4 69 bd 4c 7e 8b bd 94 a2 46 bd e6 6a 86 bd
       -0.057118155 -0.068111986 -0.04849489 -0.06563358
000090 0c a3 21 bc b9 6c 9f 3d a7 45 87 3d ee 1e 08 3a
       -0.009865534 0.07784409 0.06605082 0.0005192597
0000a0 79 9d 3c 3d 48 2f b3 bd cf 7b 89 3d 6e db 47 bd
       0.046048615 -0.087492526 0.06713068 -0.04879325
0000b0 90 80 3f bd 58 8a 58 bb de 1a 03 3c 55 da 26 3d
       -0.046753466 -0.0033041444 0.008002011 0.04073556
0000c0 82 87 c8 bb 7e 9f 14 3d 20 cf 8d bd c3 b8 83 bd
       -0.0061196694 0.036284916 -0.069242716 -0.06431725
0000d0 d5 48 00 3d 50 67 66 3a cd 42 74 3d 7f d2 af bd
       0.031319458 0.00087891985 0.05963402 -0.08585071
0000e0 64 f2 96 bc 09 98 92 bc 70 af 96 3c 0c 0c 32 3d
       -0.018426128 -0.017894762 0.018394202 0.04346852
0000f0 37 c3 3e 3d c6 e5 82 bd 51 ce 29 bc 34 dd 70 bd
       0.04657289 -0.06391482 -0.010364131 -0.058804706
000100 f2 7a 46 bd c9 21 1e bd 5e 7d 8a bd a0 6d 3f bd
       -0.048457094 -0.03860644 -0.06762193 -0.046735406
000110 a8 38 78 3d 66 de 83 3d fc a2 29 bd 23 b8 63 bd
       0.060600907 0.064389035 -0.0414152 -0.05559553
000120 8c 39 ab 39 30 ae 68 bd 33 dd 8e 3c 2e 4e b4 3d
       0.00032658537 -0.056806743 0.01743946 0.08803974
000130 dd ca 26 3c f5 56 2e bd 2b c7 7d 3d fd 5f 57 3c
       0.010180202 -0.042563397 0.06195752 0.013145444
000140 d2 3a 6a bd eb 9e fd 3c 96 11 ad bc 7d 40 9d bd
       -0.057185 0.030959567 -0.02112655 -0.07678316
000150 75 a3 45 bd 30 2a da 3c 89 98 af bd 0b d6 89 b9
       -0.048251588 0.026631445 -0.08574016 -0.0002629015
000160 ed d6 9d bd 7e 92 5b 3d 21 14 97 bd ca 21 9b bc
       -0.077070095 0.053606503 -0.07376886 -0.01893701
000170 a3 f8 7a 3d c0 a1 8a bd 06 4c 57 bd a5 57 95 3d
       0.061272275 -0.067691326 -0.052562736 0.072921075
000180 d9 ec 0f bd 87 49 91 bd 90 5e 96 3c 2b 49 71 bd
       -0.035137985 -0.07094102 0.018355638 -0.05890767
000190 fd 87 b2 3d e3 97 83 bd f8 e4 f4 3b 95 ae dc bc
       0.08717344 -0.064254545 0.0074735843 -0.026938716
0001a0 30 66 72 bc ff f6 ab bd 4c 68 8e 3d b1 6f 58 3c
       -0.014794871 -0.0839672 0.06953487 0.013210223
0001b0 fe 27 b1 3d 2b 8e 10 3d e0 ee 5e bd 89 17 c1 3b
       0.08650206 0.035291832 -0.054427028 0.005892698
0001c0 d7 7e 52 3c 2d c9 6f bd 06 e2 e5 3a 46 0c ab 3c
       0.012847624 -0.058541466 0.0017538674 0.020879876
0001d0 13 86 b1 3d 0d 71 54 bd 2b a8 3e 3d 22 7d 09 3d
       0.08668151 -0.051865626 0.046547096 0.0335666
0001e0 bd 5a b1 bd 5d 3c c3 3c ed 3e b2 bb 56 5a 28 bb
       -0.08659885 0.023832494 -0.0054396302 -0.002568861
0001f0 41 63 06 bd 46 61 1b bc 83 44 9e bd bc c3 f0 bc
       -0.0328095 -0.009483641 -0.07727911 -0.029390208

layer3.weight f4 [4, 128]
000000 b2 d5 12 3d 4a e9 9e bd 05 cd 2a 3d eb 84 1b 3d
       0.035848327 -0.0775934 0.041699428 0.037968557
000010 e8 c5 86 3c 45 cb f4 3c 11 4f 86 bb 45 f2 a7 3d
       0.01645179 0.029882083 -0.004098781 0.08200506
000020 a3 98 3f bd 3f 60 95 3c ac 0b a4 3d d8 68 4b bc
       -0.046776425 0.01823437 0.08010039 -0.012415133
000030 bd 17 a2 3d ca b7 7f bd 5a f4 2c bd 90 59 7c bd
       0.07914684 -0.062431134 -0.04222522 -0.06160885
000040 4d 73 97 bd 64 4b e8 bc c7 83 97 3d 90 9d 76 bd
       -0.07395039 -0.028356262 0.073981814 -0.060208857
000050 0f 84 a3 bc c9 20 3f bb 1d 4a 9b 3d 31 b8 74 bd
       -0.019960431 -0.0029163829 0.07582495 -0.05974597
000060 e8 32 64 3d 8c 6d 74 3d a6 73 65 3d 91 a1 8c 3c
       0.05571261 0.059674785 0.056018494 0.017166885
000070 84 18 ee 3b 42 8c 12 b7 4a 69 9c 3c 2d dd 0c 3d
       0.007266106 -8.734934e-06 0.019093174 0.034390617
000080 fb 1d 91 3d 3c 46 33 3b 81 4e d4 3c 15 a4 c8 3c
       0.070857964 0.0027355095 0.02591634 0.024492303
000090 25 13 e6 bc 17 63 ad 3d fd 38 a0 3d 0f d6 71 bd
       -0.0280853 0.084661655 0.0782337 -0.059042033
0000a0 b3 56 82 bd 6c 67 4d bd bf b6 b2 3d 0c 00 4e 3d
       -0.06364193 -0.05014746 0.08726262 0.050293013
0000b0 45 b5 a5 3d 92 79 ac bd 75 46 80 bd 84 6d b0 3c
       0.08091215 -0.08421625 -0.062634386 0.021536596
0000c0 00 58 48 3c 65 41 6c 3d 0b 07 62 3d c5 b9 39 3d
       0.012228012 0.057679553 0.055182498 0.04534318
0000d0 b0 7a 87 3d 2b 3f 6f 3d d2 aa 8e bd d8 ab 4d bd
       0.06615198 0.05840985 -0.06966175 -0.05021271
0000e0 1b e1 06 bd 06 fe 80 3d 9d 91 0c bd 5a 01 73 3d
       -0.03292952 0.06298451 -0.034318555 0.05932746
0000f0 e8 4f c9 bc 82 4f 3b bd 61 37 0a bd 90 9a 84 bd
       -0.024574235 -0.04573012 -0.03374422 -0.06474793
000100 46 b1 0d 3d 89 f9 ab bd 8f 83 c7 3c da c1 b6 3c
       0.03459289 -0.083972044 0.024354724 0.022309233
000110 11 69 21 3c ea 80 a7 bd 54 c1 ab bd ae 50 65 3d
       0.00985171 -0.08178885 -0.08386484 0.055985145
000120 7d 99 c1 bc 32 b9 b2 3d 67 03 ca 3b 45 8c 40 3d
       -0.02363276 0.087267295 0.0061649564 0.04700877
000130 48 b9 16 3d 60 ae 80 bd ec c4 54 bd a5 99 73 bd
       0.03679779 -0.062832594 -0.05194561 -0.0594727
000140 4e 4a ed bb e6 12 64 bd b0 e2 6b 3d fa 3c ee 3c
       -0.007241524 -0.055682085 0.057589233 0.02908181
000150 a8 63 9d bd 66 ab 32 bd 3e 65 c7 3b 8d 1c a3 bd
       -0.076850235 -0.04362049 0.006085067 -0.0796443
000160 2f 29 a5 3b 40 4c 98 3d 39 2b 13 3c 88 eb 70 bc
       0.00504031 0.074364185 0.008982473 -0.0147045925
000170 28 4f 47 bd 9a b3 6a bd 28 4b 86 3d d7 68 a6 bc
       -0.048659474 -0.057300188 0.06557304 -0.020313663
000180 ad 0c 99 bd fb f7 f7 bb f4 64 06 3d ac 38 7e bd
       -0.07473121 -0.0075674034 0.03281112 -0.062065765
000190 f0 b6 7d 3d 75 63 6c 3d d9 6a 64 3d fe eb aa bd
       0.06194204 0.057712037 0.05576596 -0.08345793
0001a0 dd 2b a7 3d ac 21 aa bd 00 e2 2a bc e3 ac 70 bd
       0.08162663 -0.08307204 -0.010429859 -0.058758628
0001b0 94 e6 40 bd 13 68 68 bd 3a cb 9f 3d e7 c6 1f bd
       -0.047094896 -0.056739878 0.07802434 -0.039008047
0001c0 26 cd 57 3c f2 b7 d9 bc 5f ae 9f bc 48 a8 15 3b
       0.01317147 -0.02657697 -0.019492326 0.00228359
0001d0 74 ed ad bc 06 5e e7 3c 94 aa 35 3d 63 e3 94 3d
       -0.02123139 0.028243076 0.04435213 0.07269933
0001e0 e9 5b 92 3b 10 37 4d 3d 6e a6 a3 3d 66 df 4f bc
       0.004466523 0.05010134 0.07990728 -0.01268754
0001f0 9a ef af 3d 8a d8 2f bd f8 ee 24 bd 56 5b 72 bd
       0.08590622 -0.042931117 -0.04026696 -0.059169136
000200 a0 12 77 bd 84 18 b3 3d c3 a8 8a bc 9d 1b 1d bd
       -0.060320497 0.0874491 -0.016926175 -0.038356412
000210 f9 ac 44 bd 82 e2 a6 3c e1 f9 32 3d ad 8d 48 3d
       -0.048016522 0.02037168 0.043695334 0.048963238
000220 94 02 d8 b9 fb 50 0c 3c 36 af 65 bd 72 9d 8e 3c
       -0.0004120065 0.008564229 -0.056075297 0.01740906
000230 99 ca 9e bd 08 a4 af bd 1d b6 9e bc 77 61 21 bd
       -0.07753486 -0.08576208 -0.019373948 -0.03939959
000240 90 1f 09 bd c4 9f 5a bc cb 34 b0 bc fb 98 93 3c
       -0.033477366 -0.013343755 -0.021509549 0.018017283
000250 58 7c 82 3b ed 43 1e 3d 51 40 ed 3c 6e 02 b5 3c
       0.003982108 0.038638998 0.028961333 0.022095885
000260 b3 78 8e 3c 01 39 8b bd c5 52 9d 3b ef 4d 6a bd
       0.017391538 -0.06797982 0.0048011267 -0.05720323
000270 0c 49 9a 3d f1 a9 dc 3c f2 53 70 bb d0 17 c7 bc
       0.07533464 0.026936503 -0.003667113 -0.024303347
000280 bb e1 a0 3d 7f b9 a7 3d ab 6c 77 3d a3 34 f4 3c
       0.07855555 0.081896774 0.06040637 0.029810255
000290 ef 8c 98 3d 18 37 92 3d 7c 9c 08 bd 2d 5b ac bc
       0.07448756 0.071394145 -0.03335236 -0.02103957
0002a0 ea 14 4e bd 88 1d ad bd 6b 28 06 3d 19 b5 84 bd
       -0.050312914 -0.08452898 0.03275339 -0.06479854
0002b0 fc a6 9c bc e4 33 b8 bb 90 da 8b bc c3 ff 5b bd
       -0.019122593 -0.00562142 -0.017071992 -0.05371071
0002c0 9f 5d d7 3c 87 1a 5b 3d f9 db a8 3d 5a 49 9f 3d
       0.02628976 0.053492095 0.082450815 0.077776626
0002d0 13 3f 31 bd cc 01 73 bc da 88 a4 bd b4 2a 91 bb
       -0.043273043 -0.014831971 -0.08033915 -0.0044301394
0002e0 a3 f0 a0 3c f8 2e 92 3d a4 12 5f 3d bf 64 91 3d
       0.019645995 0.07137865 0.054461136 0.07099294
0002f0 d3 eb 88 bd 8b 26 51 3d af 8a ac bd 7c 5c 9a bb
       -0.06685605 0.051062148 -0.08424889 -0.004710732
000300 3d e6 ab bc f3 3b 07 38 f3 61 f1 3c 53 5f ac bd
       -0.02098381 3.224234e-05 0.029465651 -0.08416619
000310 40 ab 7d bd 5c 15 7a 3d 6f bd a9 bd 03 fe bc 3a
       -0.061930895 0.061055526 -0.08288085 0.0014418963
000320 7d ed 9b 3d e1 80 31 bd a2 3d 04 bd 78 b0 67 bd
       0.07613657 -0.0433358 -0.03228534 -0.056564778
000330 2c f5 0a 3c d9 b0 73 bc e2 be 96 3d b7 0d 81 3d
       0.008481305 -0.014873707 0.07360627 0.06301444
000340 26 87 63 bd 01 cc 9b 3d 92 13 47 bd bc 70 8e 3d
       -0.05554881 0.0760727 -0.048602648 0.06955096
000350 34 d4 a4 3d ae 11 7a bd ab d0 b1 bd 33 2d b1 bd
       0.08048287 -0.061052017 -0.086823784 -0.08651199
000360 53 6c 30 39 c1 92 3c bc 34 c3 64 bd 0e 82 7e bc
       0.00016825022 -0.011509598 -0.055850223 -0.015533937
000370 fc d8 69 bc 5a 99 c6 bc ae 06 62 bd c5 8b a7 3b
       -0.0142729245 -0.024243046 -0.05518215 0.0051130974
000380 1b 75 83 bd ab 43 aa 3d a8 be 54 3d a3 37 83 bc
       -0.064188205 0.08313688 0.051939636 -0.01601774
000390 5b 51 23 3d 42 71 a1 3d 1c 56 3a bd 20 6e b2 bd
       0.03987251 0.0788293 -0.045492277 -0.08712411
0003a0 e1 9b 97 3d ea 16 1a bd 29 37 36 bd 93 75 71 bd
       0.074027784 -0.03761951 -0.0444862 -0.05895002
0003b0 b1 f2 20 bd fa 35 a5 bd 81 97 ab bc 99 f4 86 3c
       -0.03929395 -0.08066936 -0.020946266 0.016474055
0003c0 4a a0 ad bd 7e b2 9d 3d 22 fb 88 3d 76 a7 9c bd
       -0.08477838 0.0770006 0.06688525 -0.07649128
0003d0 5f 15 08 bd f4 4a 0f bd fd 87 a7 3d 09 1b 37 3d
       -0.033223506 -0.03498359 0.081802346 0.044703517
0003e0 61 5d 8f 3d 2c 97 34 3d 36 6e 54 3d ca 3a 8a bd
       0.070002325 0.04408948 0.051862918 -0.067494944
0003f0 98 90 3f bc da bb 36 3d f1 79 33 3d c2 54 e9 3c
       -0.011692189 0.044612743 0.043817464 0.028482798

layer3.bias f4 [4]
000000 13 c4 66 3d 80 50 35 bd f3 7c 0f 3d 69 77 f9 3a
       0.056339335 -0.044266224 0.03503127 0.0019032779

layer1.weight f4 [128, 16]
000000 20 33 32 3c 72 f6 04 be d6 11 28 be 24 72 d3 bd
       0.010876447 -0.12984636 -0.16413054 -0.10324505
000010 54 a1 1f 3e 64 13 ee bd 78 6a 17 3e 00 b5 7a bd
       0.15588886 -0.11624792 0.14786708 -0.06120777
000020 4e 93 5c be 00 42 8c bd 74 3e 20 3e 8e c6 5d be
       -0.21540567 -0.06848526 0.15648824 -0.21657774
000030 d8 a8 06 be 00 28 20 3d 20 95 b7 3d 34 48 0d 3e
       -0.13150346 0.039100647 0.0896399 0.13797075
000040 e4 5c 16 3e 10 28 11 3d 64 cb 29 3e 7a b7 37 be
       0.14683872 0.035438597 0.16581494 -0.17941085
000050 90 f8 81 3c 52 f4 02 3e c8 e9 4b 3d c0 56 3f bd
       0.015865594 0.12788513 0.049783498 -0.04671359
000060 ac 31 7d 3e 8c 12 42 3e 84 b1 b6 3d 16 00 27 3e
       0.2472598 0.18952388 0.08920577 0.16308627
000070 38 8f 26 3e be 9e 05 be 54 5c 91 bd 2a 53 20 3e
       0.16265571 -0.13048837 -0.07097688 0.15656725
000080 10 61 4f 3e d4 9d 56 3e e0 e1 8c bd 70 33 95 3d
       0.2025187 0.20958644 -0.0687902 0.072852015
000090 a0 73 f2 3c e0 73 0e bc 16 e6 42 be 62 4b 78 3e
       0.02959615 -0.008694619 -0.19033083 0.24247506
0000a0 94 24 5f be f8 3c b2 3d b0 4d 64 be 90 11 e9 3d
       -0.21791297 0.08703035 -0.2229526 0.11380303
0000b0 f4 db 49 3e 4a 2a 34 be b6 18 3d be 62 1d 13 3e
       0.19712812 -0.17594257 -0.18466458 0.14366677
0000c0 34 5a 6d be e8 f2 69 bd ce 5e 04 3e d8 a1 11 3e
       -0.23178941 -0.05711642 0.1292679 0.14221895
0000d0 80 f9 b3 3d 94 d1 e4 3d 60 db c0 3d 84 54 45 3e
       0.08787823 0.11172786 0.094168425 0.19270521
0000e0 d8 21 43 3e 9a 5f 3b 3e 78 4f 42 3e 58 04 03 3e
       0.19055879 0.18298188 0.18975627 0.12794626
0000f0 90 94 a4 bc d0 34 cd 3c bc 89 35 be c0 a4 3b 3c
       -0.020090371 0.025049597 -0.17728323 0.011452854
000100 94 3f 12 be 80 2f 34 3b d0 86 4b 3d b4 6b cc 3d
       -0.14282066 0.0027494133 0.049689114 0.0998148
000110 2c d0 34 be 42 2f 63 be fe 80 6f 3e 00 68 62 bb
       -0.17657536 -0.22185996 0.2338905 -0.0034546852
000120 f8 cd 37 3d 6c 55 35 be 30 7f 81 bd a0 57 96 bd
       0.04487416 -0.17708367 -0.06323087 -0.07340932
000130 6a e4 2a 3e 60 da ca bc c4 51 64 3e dc 0c 79 be
       0.16688696 -0.024762332 0.22296816 -0.24321312
000140 2c 97 8b 3d 3a 65 1b 3e c0 2b 5b 3c 16 4f 0a be
       0.06815943 0.15175334 0.01337713 -0.13506731
000150 ac cf 7f 3e 88 67 ee 3d 80 5d 5c 3d 7e 01 14 3e
       0.24981564 0.11640841 0.053800106 0.14453694
000160 88 b3 26 3e 4e 83 03 be 38 37 0e bd 4e 1c 35 3e
       0.16279423 -0.12843058 -0.03472063 0.17686579
000170 e8 9d 57 be 22 62 67 be 10 43 92 bd c2 20 54 3e
       -0.2105633 -0.22596028 -0.071416974 0.20715621
000180 3e 51 3c be ac 33 28 be a0 8d d7 bd 0c 1c ef 3d
       -0.18390366 -0.16425961 -0.1052506 0.116752714
000190 a8 41 35 be 88 4b 35 bd 74 e0 f2 bd 78 9d e8 bd
       -0.17700827 -0.044261485 -0.11859217 -0.1135816
0001a0 88 b3 42 bd f0 3f 33 bd 42 b0 18 3e 00 ed f5 bd
       -0.047534496 -0.043762147 0.14910987 -0.12008095
0001b0 5c 85 31 be 0a bb 28 3e 10 6b 53 bd de ca 3c be
       -0.17336029 0.164776 -0.051615775 -0.18436763
0001c0 4a af 59 3e 0a 7a 5f be b6 32 05 3e b8 35 1f bd
       0.21258274 -0.21823898 0.13007626 -0.03886959
0001d0 fc fb 22 be 60 19 41 bc 64 15 0f 3e 98 e0 2e bd
       -0.15916437 -0.011785835 0.13973004 -0.042694658
0001e0 30 c5 fb bc f0 15 28 bd f0 5a f6 3d 20 10 9c bc
       -0.030733675 -0.041036546 0.12029064 -0.019050658
0001f0 b6 f5 1d be d8 5c c9 bd 9a 49 05 be 54 ce 7e be
       -0.15425763 -0.09832162 -0.13016358 -0.24883395
000200 2c 57 4b be a8 b5 bd 3d 98 09 ea 3d e8 81 6a 3e
       -0.19857472 0.09263164 0.11427611 0.22901118
000210 00 a5 4e 3e 50 5d 50 3e fc 65 09 3e 00 2f 5b bb
       0.2018013 0.20348096 0.1341781 -0.0033444762
000220 94 80 3b 3e c0 bd 74 3c ec 26 d6 bd 0e 49 73 3e
       0.18310767 0.014937818 -0.104566425 0.23758337
000230 d8 db 02 3d aa 69 29 3e b2 86 05 be c0 e2 45 bd
       0.03194794 0.16544214 -0.13039663 -0.04831195
000240 1c 57 66 be 64 c2 6b be ce 2c 57 3e dc 05 2d 3e
       -0.22494167 -0.23023373 0.21013185 0.16896766
000250 36 41 4e 3e ac 34 5b be ec 0c ff 3d 08 20 5a bd
       0.20142063 -0.21406811 0.124536365 -0.053253204
000260 3a 26 3a be cc 6e a6 3d 3c 58 52 3e 2e 65 1f 3e
       -0.18178645 0.081266016 0.20541471 0.1556594
000270 a0 18 b0 3d 6e 0b 1b be ac 97 0b be a0 d2 e6 bd
       0.08598447 -0.15141079 -0.13632077 -0.11270642
000280 28 62 34 be a4 8a 26 3e 34 9f 3d 3e 50 ec e2 bd
       -0.17615569 0.16263825 0.18517762 -0.11080229
000290 2c 72 5c be f0 44 33 bd e0 4d c8 bd 34 2a 82 bd
       -0.21527928 -0.043766916 -0.097804785 -0.06355706
0002a0 98 b2 0e 3e c0 c3 07 3e 20 9d 65 bd 20 bc 38 bd
       0.13935316 0.13258266 -0.05605805 -0.045101285
0002b0 80 ac 4c be 1c c1 0d 3e 70 07 eb bd 04 52 96 bd
       -0.19987679 0.13843197 -0.11476028 -0.07339862
0002c0 8c ac 10 3e 8a 8c 4d 3e 00 c7 2d be 60 c9 d2 bd
       0.14128321 0.20073143 -0.16970444 -0.102923155
0002d0 00 96 a1 ba 70 d6 02 3e b4 b9 ab 3d 4e fc 4a 3e
       -0.0012328029 0.12777114 0.083850294 0.19822809
0002e0 1a d7 04 3e e0 df 58 bd e0 c0 72 bd 56 a3 06 3e
       0.1297268 -0.05294788 -0.05926597 0.13148245
0002f0 fe 2d 4f be 1c 8b f2 bd 80 bf 03 3b b4 f4 4d 3e
       -0.20232388 -0.11842939 0.0020103157 0.20112878
000300 86 9a 75 be 58 e2 da bd 0e ee 14 be 06 67 65 be
       -0.23984727 -0.10687703 -0.14543936 -0.22402582
000310 76 f9 6d be b0 b0 a4 bc 78 d7 88 3d 60 0e 1c 3d
       -0.23239693 -0.020103782 0.066817224 0.038099647
000320 1a 66 4d be 80 70 54 3c ee 47 0d 3e be 18 79 3e
       -0.2005848 0.012966275 0.1379697 0.24325845
000330 18 69 e3 bd 20 0a 8f bc 9a 8c 11 3e c4 fe 4e 3e
       -0.111040294 -0.017460883 0.14213791 0.20214373
000340 18 81 f9 bd 48 66 70 bd 20 30 f5 bd 6e ba 44 3e
       -0.12182826 -0.058691293 -0.1197207 0.19211742
000350 68 3d 3f be 60 1c 18 3d 98 d1 15 bd 38 db 6d 3e
       -0.18675768 0.037136436 -0.036576837 0.23228157
000360 38 bf 14 bd ce 5f 0f be 30 ba 45 be b2 b9 6d 3e
       -0.036315173 -0.1400139 -0.19309306 0.23215368
000370 78 d4 68 3d 62 c5 3d 3e b0 bd 05 3e 68 a5 4a be
       0.05684325 0.18532327 0.13060641 -0.1978966
000380 c2 ec 2e 3e 7a da 5a 3e 48 1f 1a 3e 42 97 36 3e
       0.17082503 0.21372405 0.15050995 0.17831138
000390 4a de 7d be 26 dc 38 3e 88 3c 81 3d 54 a4 b5 bd
       -0.24791828 0.1805273 0.063103735 -0.08869234
0003a0 0a 71 4a be 48 55 09 3d d0 fb 5e bd 68 bb f8 3d
       -0.19769683 0.033528596 -0.054439366 0.1214512
0003b0 00 04 86 3a 1c 73 43 be 08 92 3d be d0 4c 9c bd
       0.0010224581 -0.1908688 -0.18512738 -0.07631838
0003c0 5e 54 14 3e b0 1a 2e 3d d0 6a 7a 3e 48 51 13 3e
       0.14485309 0.04250592 0.24454808 0.14386475
0003d0 e0 cc eb bc 14 63 88 3d fc 34 9f 3d 40 61 c1 bd
       -0.028784215 0.06659523 0.07773778 -0.09442377
0003e0 aa b0 2a 3e 6e 75 50 3e 52 ff 4e be 40 c1 26 bd
       0.16668954 0.20357296 -0.20214584 -0.04071164
0003f0 20 c0 8c bd fc 59 b5 bd e8 03 17 bd b8 6d 36 be
       -0.068725824 -0.08855054 -0.03686896 -0.17815292

layer1.bias f4 [128]
000000 68 48 cf bd 44 95 8a 3d 3e cc 72 3e 10 1e c0 3c
       -0.10121232 0.067667514 0.23710725 0.023451835
000010 bc c7 94 3d b8 60 b1 3d b8 2c 64 bd fa c5 52 3e
       0.07264659 0.08661026 -0.05570671 0.20583335
000020 c0 f8 a1 bb b8 9c ca bd 50 3b e7 bd 8c 61 0e 3e
       -0.0049429834 -0.09893173 -0.1129061 0.13904399
000030 28 ea 3b 3e 4e c8 7c 3e 06 8d 4d be 60 89 d2 3d
       0.18351042 0.24685785 -0.20073327 0.102801085
000040 10 f7 a5 3c d4 d5 d5 bd 16 11 37 be 60 a1 75 bc
       0.02025941 -0.10441175 -0.17877612 -0.014992088
000050 dc 5d 08 3e e4 ef da bd 14 65 26 be 78 71 e0 3d
       0.13317055 -0.10690287 -0.16249496 0.109591424
000060 00 37 26 3c 88 d2 17 3d f4 96 e9 bd 50 76 25 be
       0.010144949 0.037066013 -0.11405745 -0.16158414
000070 58 84 17 3e 10 74 f4 bd 98 16 a9 bd 58 26 22 3e
       0.14796579 -0.119362 -0.082562625 0.1583494
000080 c0 0c b0 3b 30 22 10 bd 04 cf 08 3e f0 37 f1 3c
       0.0053726137 -0.035188854 0.1336022 0.029445618
000090 88 0f 96 3d b8 73 47 bd d0 6c fd bd ec 8d 0f 3e
       0.07327181 -0.048694342 -0.1237427 0.14018983
0000a0 58 ae 4d 3d 5c e2 05 3e 6c e2 c5 3d a0 af bf 3c
       0.050215095 0.1307463 0.09662327 0.023399174
0000b0 20 ae 38 3e ba f9 66 be 4c c2 91 bd 66 f3 3e be
       0.18035173 -0.225562 -0.07117137 -0.18647537
0000c0 ec 91 c0 bd 4c 47 a0 3d 20 5c 83 bd 88 41 36 bd
       -0.094028324 0.07826099 -0.06414056 -0.04449609
0000d0 44 d1 9e 3d 70 77 07 3d 40 97 48 3c f0 4c 93 3c
       0.07754758 0.03307289 0.012243092 0.017981023
0000e0 74 ff 4d be b8 be 30 be 50 10 8f bc 44 62 50 be
       -0.20116979 -0.17260253 -0.017463833 -0.20349985
0000f0 40 bb 74 3e 30 6b 2d bd 00 bc 1d 3b 4c 13 36 be
       0.23899555 -0.04233855 0.0024068356 -0.17780799
000100 e0 e8 2b 3e cc 89 92 3d a0 a9 58 bd 7a 09 0c be
       0.16788054 0.07155189 -0.052896142 -0.1367549
000110 98 35 3c 3e ca 4f 5f 3e e0 38 47 3d e4 c6 32 be
       0.1837982 0.21807781 0.048638225 -0.17458683
000120 fe f1 7e be e6 14 69 3e 68 18 dc 3d 20 a0 02 bc
       -0.24897 0.22761878 0.107468426 -0.007972747
000130 a4 9a f0 bd 80 63 dd bc 58 8f e4 bd 90 dc 99 bd
       -0.11748245 -0.027024984 -0.11160153 -0.07512772
000140 bc a2 f4 bd 98 67 92 bd fc d5 19 3e 6a f5 02 3e
       -0.119451016 -0.07148665 0.15023035 0.1278893
000150 d8 3e 4c 3e 38 32 65 3d c0 c0 59 3e 30 6d c7 bc
       0.19945848 0.055956095 0.21264935 -0.024344057
000160 1e 8e 06 3e 28 6a 2f be dc d3 3e 3e 5e 37 21 3e
       0.13140151 -0.17130339 0.18635505 0.15743777
000170 96 c7 60 be 04 1e d1 bd a0 aa 7e bd 10 c4 7a be
       -0.21951136 -0.10210803 -0.06217444 -0.24488854
000180 60 09 b2 3d 38 07 e5 3d 80 ec d0 3b f0 c3 6d bd
       0.086931944 0.111830175 0.0063758492 -0.05804819
000190 36 1f 2b be e8 35 3a 3e 30 47 84 3c 06 be 67 be
       -0.16711125 0.18184626 0.016147226 -0.22631082
0001a0 90 8b 1a 3d 88 1c 4c 3d 9c 72 50 be 6e aa 24 be
       0.037730753 0.049831897 -0.2035622 -0.16080639
0001b0 dc de f2 3d 62 55 74 be ea 52 20 be 80 0f 52 3d
       0.11858913 -0.23860696 -0.15656629 0.051284313
0001c0 22 a1 22 be 64 fa 5d 3e 52 e4 4d 3e 06 4f 61 be
       -0.1588178 0.21677548 0.20106629 -0.22002801
0001d0 e4 b4 c3 bd 44 d2 95 3d 32 5b 6b be c8 f7 8c 3d
       -0.095559865 0.073154956 -0.22984007 0.06883198
0001e0 fc b0 85 3d fa 9f 1f be fc 0b 47 3e e0 a3 27 3d
       0.06527898 -0.1558837 0.19438165 0.040927768
0001f0 5a 2a 11 3e d4 61 d7 bd 8a db 44 3e 36 63 0c 3e
       0.14176312 -0.10516706 0.19224373 0.13709721

layer2.weight f4 [128, 128]
000000 40 c7 11 bd 15 bc 47 bc ad 95 e5 3c 6c af c3 3b
       -0.03559041 -0.012190838 0.028025473 0.0059718397
000010 50 ca 80 3d 8c a3 1f 3c 8b b2 b5 3a 3e 98 d4 bc
       0.06288588 0.009743582 0.0013862414 -0.025951501
000020 b0 c7 cf 3c 89 8b 47 bd e0 82 43 3d a9 1e e5 3c
       0.025363773 -0.048717055 0.047732234 0.027968721
000030 5d ef 2d bd bb fa 8c 38 ec bd d3 3b c5 ff 90 bd
       -0.042464603 6.7224224e-05 0.0064618494 -0.07080034
000040 66 3c 57 bd 42 49 3e bd e5 f7 b4 3d 42 74 6b bc
       -0.052547835 -0.046456583 0.08836345 -0.01437098
000050 92 f1 93 3d de eb 28 bc 85 4c f0 ba f9 2b a2 3d
       0.0722381 -0.010310141 -0.0018333351 0.07918543
000060 b0 11 09 bc c9 8a 8f 3d 87 93 80 bd 8a 34 0c 3d
       -0.008366033 0.07008893 -0.062781386 0.034229793
000070 a9 f7 7b bd de d3 61 3d ae 49 83 3d e2 66 1c 3d
       -0.061515484 0.055133693 0.06410538 0.038184054
000080 0a 9d 01 3d ef a7 94 bc 64 6e 34 3d c1 5e a3 bd
       0.031643905 -0.018146483 0.04405059 -0.07977057
000090 93 99 1c 3d 28 3b 3b 3d 07 db 52 bd 8f 9a 26 3c
       0.038232397 0.045710713 -0.051478412 0.010168686
0000a0 fb 3f 9f 3d b5 d0 db 3c ec 61 af bc 08 28 1d bc
       0.07775875 0.026832918 -0.021408997 -0.009592064
0000b0 90 4c 68 bc ee 66 11 3d c3 94 8e bc af 73 80 3d
       -0.01417841 0.035498552 -0.01740492 0.06272065
0000c0 e6 19 8b 39 b5 d6 aa 3c 9d 42 8f 3d 44 98 5a 3d
       0.00026531442 0.020854333 0.06995127 0.053367868
0000d0 e6 4e a2 bc 05 9c 45 3d de 4d aa 3d 8f a4 c1 bc
       -0.019813012 0.048244495 0.08315633 -0.023638038
0000e0 dc bb 35 3d bf a0 65 bd 8b 17 9e 3c 6c f8 cd bb
       0.04436861 -0.056061503 0.019298336 -0.0062857177
0000f0 5b 2c 8e 3d e3 2d d8 3c aa 90 b2 3d 42 18 f1 3b
       0.06942054 0.026389068 0.08718999 0.007357628
000100 19 3a c9 3c c7 98 ac bd d3 e4 59 3d 1f ac a6 3d
       0.024563836 -0.084275775 0.05319674 0.08138298
000110 fb cf 97 3d d8 c1 ad 3d b6 7f 33 3d 5c 8d 6b bc
       0.07412716 0.084842384 0.043822967 -0.014376964
000120 0d 74 27 3d 9e c8 b2 bd ac d6 ad bd 2d 6c a2 3c
       0.04088216 -0.08729671 -0.08488211 0.019826973
000130 68 81 a3 3d 84 79 ab 3d bc 99 a7 bb 3f 75 ad bb
       0.07983667 0.08372787 -0.005114762 -0.005293518
000140 42 b4 61 bc 0a c9 22 3d 2f b5 20 bd d7 fe 43 bc
       -0.013775887 0.039742507 -0.03923529 -0.011962614
000150 34 71 c6 bb 58 de 45 3c 0d a7 fd bc 56 c6 85 bd
       -0.0060559753 0.012076937 -0.030963445 -0.0653197
000160 0a 3d 9a bc 49 f1 2b 3d 36 37 99 bc d0 0c 93 bd
       -0.018827934 0.041978154 -0.018703084 -0.07180178
000170 40 80 86 3d bd 81 49 3d 3e 14 4a bc e1 73 d2 b8
       0.065674305 0.049195994 -0.012333928 -0.000100351645
000180 28 3c f7 3b 6a cd 33 3d 7a e3 87 bd 2f a3 ac bd
       0.007545013 0.04389707 -0.066351846 -0.08429562
000190 9e e0 89 bd 1a 0d 87 bb 4c 73 10 bd 2f 88 39 3c
       -0.067322955 -0.004121435 -0.035266206 0.011323973
0001a0 04 b0 4a 3d 69 bc 78 bd 84 06 91 bd 36 23 af 3c
       0.049484268 -0.060726557 -0.07081321 0.021379095
0001b0 61 0d 2f bc 93 95 37 bd 81 d1 a1 bd 7b 02 1d bd
       -0.010684342 -0.04482038 -0.07901288 -0.038332444
0001c0 36 c2 46 3c 1e 16 29 bc a9 34 32 bd 76 df 84 3d
       0.012131264 -0.010320215 -0.043507252 0.06487934
0001d0 66 0a f6 3c 9f 75 44 3d a7 c4 26 3d 8e 82 34 3d
       0.030034255 0.047963735 0.040714886 0.04406982
0001e0 27 a0 43 bd 2e 18 e6 3c ac f5 05 3d a2 e8 73 bd
       -0.047760155 0.028087702 0.032704994 -0.059548028
0001f0 03 1b 96 38 c7 db a7 bd 65 47 0f bc 69 e6 a0 3d
       7.157589e-05 -0.08196216 -0.008745049 0.07856447
000200 67 16 be 3c c6 eb f0 3c de a8 83 bd 90 64 33 bd
       0.023204042 0.0294093 -0.06428693 -0.043797076
000210 71 b8 27 3d 96 28 41 bd dc 97 33 bc 8c 23 30 bd
       0.04094738 -0.047157846 -0.010961499 -0.04300265
000220 1f 2d 6a 3d 69 84 1b 3c 23 7d a7 bd 79 35 1a 3d
       0.057171937 0.009492018 -0.08178165 0.03764865
000230 f4 f5 4a bd 04 8d 1f 3d fd fc 87 bb 0c d0 9b bd
       -0.049550965 0.038952842 -0.0041500316 -0.07608041
000240 2e 06 5c 3d d4 9f 4c bd 64 3b 58 3d 3c 6d 2b 3d
       0.05371683 -0.04995711 0.052791014 0.04185222
000250 91 97 69 3d 85 78 8f bc 68 ee a8 bd 43 14 39 3d
       0.05702931 -0.017513523 -0.082485974 0.04518534
000260 5c aa 2e 3d ce 56 60 3d c1 fa 75 bd 4b 32 f4 3c
       0.042642936 0.054770283 -0.06005359 0.029809138
000270 3a 57 0d bc e2 97 05 3c b4 2c b9 3b 22 e3 7d bb
       -0.008626753 0.008153887 0.005651081 -0.0038740118
000280 2c e6 b3 3d 5b fa 62 3d bd 58 6c bd f7 aa f4 3c
       0.08784136 0.05541454 -0.057701815 0.029866679
000290 06 9e d5 3c 84 ac 98 3d 84 be 51 bd 52 ca e3 3c
       0.026076328 0.0745478 -0.05120708 0.027806435
0002a0 67 df 8d 3d c7 74 92 bd 2b 35 17 3d 8b 69 16 bd
       0.06927376 -0.0715118 0.03691594 -0.036721747
0002b0 ed 99 46 bd 82 42 99 bd b1 0b 24 3d 4a 6e 02 bc
       -0.04848664 -0.074833885 0.040050212 -0.007960865
0002c0 4e 61 b3 3c f5 0e 40 bd 45 3b 8e bd b1 96 0b bd
       0.021896984 -0.046889264 -0.069448985 -0.034079257
0002d0 5a e0 f8 bc 39 70 94 3d fa d6 9c bd 7c 17 a9 bd
       -0.030380417 0.07247967 -0.07658191 -0.082564324
0002e0 88 5e a2 bd af cb 9e 3d b5 52 db bc 63 bd 9e 3d
       -0.07928187 0.07753693 -0.026772836 0.077509664
0002f0 89 8f a9 bd 04 78 66 3c 03 36 98 3d 72 b7 5c 3d
       -0.0827933 0.0140667 0.07432177 0.053885885
000300 ca 99 8c bd a1 09 47 3d 0f 94 62 3d 6f a1 67 3d
       -0.068652704 0.048593167 0.05531698 0.05655044
000310 df 79 3c 3c f3 84 13 3d c5 45 80 3d b5 ce 7a bc
       0.011503666 0.036015462 0.062633075 -0.015308072
000320 ae fe 28 3d eb bf 86 3c c0 fc 9f bd 97 0b 4e bd
       0.041258506 0.016448935 -0.0781188 -0.05030402
000330 3b c9 88 bc 24 cc ab bd a3 c8 8a bd 57 49 a8 3c
       -0.016697517 -0.08388546 -0.0677655 0.020542784
000340 4e 35 0c bd b7 39 b1 3d f4 2c 59 bd 26 64 da 3c
       -0.034230523 0.08653586 -0.053021386 0.026659083
000350 ad 8d 0d 3c af 18 00 3d 9b 14 f2 ba 54 0b 83 bd
       0.008639735 0.03127354 -0.0018469276 -0.06398645
000360 2c d1 63 3d 93 b7 bf 3a bf f9 b8 3c b7 42 2a 3d
       0.055619404 0.0014626853 0.022580026 0.04156753
000370 5d 1f 2f 3d ca 1b 61 3a 1a f4 16 3d 33 33 d2 3c
       0.04275452 0.000858721 0.036853887 0.02565918
000380 77 91 f8 bc b9 e7 ad 3d c9 85 ee 3c 0b 53 08 3d
       -0.0303428 0.08491463 0.029116528 0.03328232
000390 83 72 6d 3d 34 b8 ac bc be 4f 58 3c 19 87 10 3c
       0.057970535 -0.021083929 0.013202606 0.008821272
0003a0 13 b0 9c 3d 26 74 23 3d 2d b4 99 3d 95 92 aa bb
       0.07650771 0.03990569 0.07505069 -0.005205462
0003b0 7b b5 db bb 22 50 c4 3c 6b 99 14 bc b3 0f 39 3d
       -0.0067049838 0.023963992 -0.009069781 0.045180988
0003c0 19 ee 26 3d 52 8e 98 bd 6b a7 4c 3d d4 08 72 3d
       0.04075441 -0.074490204 0.04996435 0.05909045
0003d0 a4 84 54 bd f3 88 fa bc cf 58 aa 3d 4c 8a fe 3c
       -0.05188431 -0.03058288 0.0831772 0.031071804
0003e0 82 64 e1 bc da 06 bd ba 15 75 a6 b9 02 1c 5b 3d
       -0.027513746 -0.0014421598 -0.0003174922 0.053493507
0003f0 df 13 f3 3b a4 b0 fd bc 38 02 7d 3d 70 31 7b bd
       0.0074181403 -0.030968018 0.061769694 -0.061326444

layer2.bias f4 [128]
000000 42 0f 0f 3d 5f a3 cd bc d9 aa 71 bc d1 0e d0 bb
       0.03492666 -0.025102315 -0.014750206 -0.0063494225
000010 9b 29 4d 3d 77 d1 8b bd 7d 04 9b 3c 62 a4 82 bb
       0.050088506 -0.068270616 0.018923039 -0.003986881
000020 22 9e e2 3c ae d7 ad 3d f7 15 5b bd 6e 18 63 bd
       0.027663294 0.08488403 -0.053487744 -0.05544322
000030 ad 1c 9f bd 98 be 03 bd 90 b2 18 bd 18 82 fb 3c
       -0.07769141 -0.032164186 -0.037279665 0.030701682
000040 ab fd 08 3c 7f d7 a9 3d b2 bc 05 ba aa a7 76 bd
       0.00836126 0.08293056 -0.0005101665 -0.06021849
000050 7f 79 bc bc 57 d6 97 bd 91 db 59 bd 13 18 57 bd
       -0.023007153 -0.07413929 -0.05318791 -0.052513193
000060 82 11 40 bc 20 17 48 bc 39 fb 7e bd 05 26 fa 3c
       -0.011722924 -0.012212545 -0.062251303 0.030535707
000070 a2 a5 a3 bd a1 20 b2 bd 77 9c 5e 3d 7e ae 2e 3c
       -0.07990576 -0.0869763 0.054348435 0.010661719
000080 ba f4 69 bd 4c 7e 8b bd 94 a2 46 bd e6 6a 86 bd
       -0.057118155 -0.068111986 -0.04849489 -0.06563358
000090 0c a3 21 bc b9 6c 9f 3d a7 45 87 3d ee 1e 08 3a
       -0.009865534 0.07784409 0.06605082 0.0005192597
0000a0 79 9d 3c 3d 48 2f b3 bd cf 7b 89 3d 6e db 47 bd
       0.046048615 -0.087492526 0.06713068 -0.04879325
0000b0 90 80 3f bd 58 8a 58 bb de 1a 03 3c 55 da 26 3d
       -0.046753466 -0.0033041444 0.008002011 0.04073556
0000c0 82 87 c8 bb 7e 9f 14 3d 20 cf 8d bd c3 b8 83 bd
       -0.0061196694 0.036284916 -0.069242716 -0.06431725
0000d0 d5 48 00 3d 50 67 66 3a cd 42 74 3d 7f d2 af bd
       0.031319458 0.00087891985 0.05963402 -0.08585071
0000e0 64 f2 96 bc 09 98 92 bc 70 af 96 3c 0c 0c 32 3d
       -0.018426128 -0.017894762 0.018394202 0.04346852
0000f0 37 c3 3e 3d c6 e5 82 bd 51 ce 29 bc 34 dd 70 bd
       0.04657289 -0.06391482 -0.010364131 -0.058804706
000100 f2 7a 46 bd c9 21 1e bd 5e 7d 8a bd a0 6d 3f bd
       -0.048457094 -0.03860644 -0.06762193 -0.046735406
000110 a8 38 78 3d 66 de 83 3d fc a2 29 bd 23 b8 63 bd
       0.060600907 0.064389035 -0.0414152 -0.05559553
000120 8c 39 ab 39 30 ae 68 bd 33 dd 8e 3c 2e 4e b4 3d
       0.00032658537 -0.056806743 0.01743946 0.08803974
000130 dd ca 26 3c f5 56 2e bd 2b c7 7d 3d fd 5f 57 3c
       0.010180202 -0.042563397 0.06195752 0.013145444
000140 d2 3a 6a bd eb 9e fd 3c 96 11 ad bc 7d 40 9d bd
       -0.057185 0.030959567 -0.02112655 -0.07678316
000150 75 a3 45 bd 30 2a da 3c 89 98 af bd 0b d6 89 b9
       -0.048251588 0.026631445 -0.08574016 -0.0002629015
000160 ed d6 9d bd 7e 92 5b 3d 21 14 97 bd ca 21 9b bc
       -0.077070095 0.053606503 -0.07376886 -0.01893701
000170 a3 f8 7a 3d c0 a1 8a bd 06 4c 57 bd a5 57 95 3d
       0.061272275 -0.067691326 -0.052562736 0.072921075
000180 d9 ec 0f bd 87 49 91 bd 90 5e 96 3c 2b 49 71 bd
       -0.035137985 -0.07094102 0.018355638 -0.05890767
000190 fd 87 b2 3d e3 97 83 bd f8 e4 f4 3b 95 ae dc bc
       0.08717344 -0.064254545 0.0074735843 -0.026938716
0001a0 30 66 72 bc ff f6 ab bd 4c 68 8e 3d b1 6f 58 3c
       -0.014794871 -0.0839672 0.06953487 0.013210223
0001b0 fe 27 b1 3d 2b 8e 10 3d e0 ee 5e bd 89 17 c1 3b
       0.08650206 0.035291832 -0.054427028 0.005892698
0001c0 d7 7e 52 3c 2d c9 6f bd 06 e2 e5 3a 46 0c ab 3c
       0.012847624 -0.058541466 0.0017538674 0.020879876
0001d0 13 86 b1 3d 0d 71 54 bd 2b a8 3e 3d 22 7d 09 3d
       0.08668151 -0.051865626 0.046547096 0.0335666
0001e0 bd 5a b1 bd 5d 3c c3 3c ed 3e b2 bb 56 5a 28 bb
       -0.08659885 0.023832494 -0.0054396302 -0.002568861
0001f0 41 63 06 bd 46 61 1b bc 83 44 9e bd bc c3 f0 bc
       -0.0328095 -0.009483641 -0.07727911 -0.029390208
