tamer_maze/static/tamer_maze/run/room28/trained_model.pth (torch, 292296 bytes, 24 tensors)

layer1.weight f4 [128, 4]
000000 54 ba 66 be 9e 0a 95 be 96 bf bb be 58 5d 9c 3e
       -0.22532016 -0.29109663 -0.36669606 0.30539966
000010 d7 93 95 3e 23 5a a6 3e 6f 1d b9 3e 73 93 f6 be
       0.29214355 0.32490644 0.3615527 -0.4815937
000020 b0 07 50 3e b7 a5 dc be 77 49 78 3e fe d6 6f 3c
       0.20315433 -0.4309518 0.24246775 0.0146386605
000030 d8 06 ad bd bc 32 87 be 00 b8 f0 3a 08 7e 02 be
       -0.08448571 -0.26405895 0.0018365383 -0.1274339
000040 fd 0d 0b 3e ad 7f 9e 3d a3 f2 e1 bd 03 f7 87 bd
       0.13579555 0.07739196 -0.110326074 -0.066389106
000050 37 d9 88 be 11 e6 ec be 46 5e cf 3e ee 61 e6 3d
       -0.26728222 -0.46269277 0.40501612 0.11249147
000060 e0 58 50 bd a0 b6 8a 3d d8 37 9c 3e b2 1b d6 be
       -0.050866008 0.06773114 0.30511355 -0.41818005
000070 36 b6 92 bd 08 5f a9 3e 0d b1 7c be 30 ff 8d 3d
       -0.0716366 0.33080316 -0.24676915 0.06933439
000080 88 21 b3 bd 22 fe 88 be f0 84 42 be 7c 7d c6 be
       -0.0874663 -0.26756388 -0.18996024 -0.38767612
000090 e2 39 c3 3e 54 4e 78 be 70 5e e7 be 70 44 8c 3e
       0.381301 -0.2424863 -0.45189238 0.27395964
0000a0 50 c2 72 3d 40 bf b3 3e 6c 24 c3 be 2a b9 ad be
       0.059267342 0.3510685 -0.38113725 -0.3393033
0000b0 e0 c7 6e be 5c 71 8e be 20 5e 64 3d 37 9e d3 3e
       -0.23318434 -0.2782086 0.055753827 0.41331646
0000c0 80 1a ad bb 90 b4 3e 3d 30 08 3e 3e 6a 1d de be
       -0.0052827 0.046558917 0.18557811 -0.43381816
0000d0 1c dd 2e 3e 68 61 81 be fa 8c cb be 9e e4 db be
       0.17076534 -0.25269628 -0.39755994 -0.4294786
0000e0 c0 da ea 3e 1a 10 ed bd 59 9f 42 3e 86 73 bd 3e
       0.45870018 -0.11575337 0.19006099 0.370022
0000f0 57 9f 0e 3e 54 fc 37 3e 82 48 8c be 44 7d df 3e
       0.13927971 0.1796735 -0.2739907 0.43650258
000100 f7 06 8b 3e 4e ca be bd 0e 16 f5 bd 82 7b b7 3d
       0.2715375 -0.0931593 -0.11967097 0.08959104
000110 7d f5 2f be aa 1b 87 be 12 56 38 3e cb 78 ae 3d
       -0.1718349 -0.26388294 0.18001583 0.08519133
000120 5d aa cc 3e af 5e d3 3e e0 d0 dd 3e 3e 71 04 3e
       0.39973727 0.41283175 0.4332342 0.12933823
000130 97 49 4c be fb 92 f7 be 92 33 e1 3e ce e8 d4 be
       -0.19949947 -0.48354325 0.43984658 -0.41583866
000140 b6 0f 8b be 9a a5 93 be 6e 0d 9e 3e 40 e5 ae be
       -0.27160424 -0.2883728 0.3086962 -0.3415928
000150 0c 7c 2b 3e 6e 6c 8b 3e 0a 03 15 3e 12 3d 98 be
       0.16746539 0.27231163 0.1455194 -0.29734093
000160 81 93 83 3e 85 3b c2 3e eb 02 12 be 27 ac 18 be
       0.25698474 0.37936035 -0.14258926 -0.14909421
000170 5c 56 af 3e 40 02 d5 bd 37 60 63 be 7d e5 b8 3e
       0.34245574 -0.1040082 -0.22204672 0.36112586
000180 3e 9c e1 be 56 99 94 3e 77 36 b2 3e f9 b9 94 3c
       -0.44064516 0.29023236 0.34807178 0.018155085
000190 60 a9 61 3e 58 15 06 be 68 f8 b7 be 38 ba f8 3d
       0.22037268 -0.1309408 -0.35931706 0.121448934
0001a0 24 ae bb 3e 3a 89 3f 3e ed 49 f2 be d8 b5 61 3d
       0.36656296 0.18704692 -0.47322026 0.05510506
0001b0 90 9f f3 3e 21 55 f4 be 94 6a 89 bd 9d d0 f2 3e
       0.47582674 -0.47721198 -0.06709781 0.47424784
0001c0 aa 9a 83 be 44 8d c0 be 40 00 1f be 00 d8 5e be
       -0.25703937 -0.37607777 -0.15527439 -0.21762085
0001d0 ae 71 94 bd f4 b8 eb 3e 85 6f 99 be 93 8e 93 3e
       -0.07248245 0.46039546 -0.29967895 0.28819713
0001e0 10 ef c1 bd 40 28 4d 3d 40 a9 66 3d 50 06 bf bd
       -0.09469426 0.050087214 0.056313753 -0.09327376
0001f0 3b 85 bf 3e 61 63 83 3e 34 df 08 bd a9 b0 d9 be
       0.37406334 0.25661758 -0.033415988 -0.42517594
000200 93 11 2b 3d 2a 02 4a 3e 5a c5 5d 3d 95 4d ce bd
       0.041764807 0.19727388 0.054143287 -0.10073391
000210 5c 2c e6 3e 02 d0 df be 94 d9 5d be ac ae cb be
       0.4495572 -0.43713385 -0.2166503 -0.39781702
000220 d4 e8 dc be a2 fb 97 3e ca d7 f0 3e 55 0b ff bb
       -0.43146384 0.29684168 0.47039634 -0.0077833333
000230 80 9b 78 bc e0 57 c0 bd f8 c0 eb be 8c d1 e2 be
       -0.015173793 -0.09391761 -0.4604566 -0.44300497
000240 c4 aa 16 be 30 a8 e3 bd 0e e0 aa 3e 0c 25 d7 be
       -0.1471358 -0.111160636 0.33374065 -0.42020452
000250 20 66 82 be 00 b3 32 bc 94 18 98 be 08 c9 0c be
       -0.2546854 -0.010906935 -0.29706252 -0.13748562
000260 74 5b 04 be 26 16 8a be a0 7c 06 be 48 83 aa be
       -0.12925512 -0.26970023 -0.13133478 -0.33303285
000270 75 c7 d6 be 5d 6b 81 3e 69 21 f2 3d 27 6e d2 3e
       -0.4194905 0.25277224 0.11822779 0.41099665
000280 86 1d d9 3e 29 ad da 3e 52 ba 96 3d 0f 8e 7e 3e
       0.42405337 0.42710236 0.073597565 0.24858879
000290 4c 16 ed be 98 e8 92 3e 78 04 f8 be a0 8a 58 bd
       -0.46306074 0.2869308 -0.4844091 -0.052866578
0002a0 cf 43 01 3d 9f 75 42 3d dc 32 9d 3e 9b 83 26 3e
       0.031558808 0.047475453 0.30702865 0.16261141
0002b0 72 d3 3b 3e 03 01 c3 3e 37 01 60 be c1 c0 4b 3e
       0.18342379 0.3808671 -0.21875463 0.19897749
0002c0 46 29 c0 bd d4 1f 71 3e ae 9d c3 3e 24 4b 99 be
       -0.09382872 0.23547298 0.38206238 -0.2994014
0002d0 c9 f3 00 3f 2c 6b 07 3e f1 c3 f4 3d a8 fe 34 3d
       0.50371987 0.13224477 0.11951435 0.04418817
0002e0 13 4a 39 3e b5 e6 f1 be e4 93 b6 be 1e ba ef 3e
       0.18094663 -0.47246328 -0.35659707 0.46821684
0002f0 64 92 c3 bd e7 c3 bd 3c f8 40 bc 3e bb 9e 65 3e
       -0.09549406 0.023164703 0.36768317 0.22423832
000300 31 b5 13 be a6 9d 58 be 57 74 a8 3e 5f 53 99 be
       -0.14424588 -0.21153888 0.3290126 -0.2994642
000310 b6 95 e2 3e 84 00 8d be 42 c5 cb be b8 3d a1 be
       0.44254845 -0.27539456 -0.39798933 -0.314924
000320 8e d2 c2 be 3a 7f e5 be 60 2b 88 bd 74 77 e7 be
       -0.38051265 -0.4482363 -0.06648898 -0.45208323
000330 02 b7 b9 be 81 31 e5 3e d7 f1 83 3e 01 48 e6 bc
       -0.36272436 0.4476433 0.25770447 -0.028110506
000340 ab a4 aa bd 4c 87 34 be 10 fb 49 3d 61 02 74 3e
       -0.08332189 -0.17629737 0.049311697 0.23829032
000350 6f c2 05 3e 51 57 94 3e 15 5f 1f 3e 29 d8 13 3e
       0.13062452 0.28972867 0.15563615 0.14437927
000360 54 6d 49 be 5c 49 3b 3e 58 42 c3 3e b3 b0 2a be
       -0.19670612 0.18289703 0.38136554 -0.16668968
000370 a4 58 90 3e de 67 c7 bd 9a f3 a2 3e c0 86 20 3e
       0.28192627 -0.09736608 0.31826478 0.15676403
000380 e8 34 91 be 54 38 0d 3e b5 f7 c2 be 7b 8a c3 3e
       -0.28360677 0.13791019 -0.3807961 0.3819159
000390 d0 0d bd 3e fc 60 80 be 50 22 2d bd a8 be 8e be
       0.369246 -0.25073993 -0.04226905 -0.27879834
0003a0 1e 46 ba be ec 09 1f be e6 f6 44 be 1a 44 58 3e
       -0.3638162 -0.15531129 -0.1923481 0.21119729
0003b0 b1 7e 85 be 10 86 aa 3e 89 62 81 3e 5d 8d 4c 3e
       -0.2607322 0.33305407 0.2527049 0.19975801
0003c0 62 86 7c 3e eb 2b 29 3d 7a 3c 70 be 5b 2f 1c 3d
       0.24660638 0.04130165 -0.2346057 0.0381311
0003d0 36 f0 a1 be d1 e7 73 3e c1 79 c6 3a b4 5c 88 3e
       -0.3162858 0.238189 0.0015142487 0.26633227
0003e0 2b 5e e6 3e 6a 3d b1 3e 87 94 23 bd d3 f9 ad 3e
       0.4499372 0.34617168 -0.03993657 0.33979663
0003f0 a8 46 44 be bc 27 14 be 08 de cd be c2 dd 91 3e
       -0.19167578 -0.14468282 -0.4020846 0.284895

layer1.bias f4 [128]
000000 4e 2c ba be 0d 98 d4 be 33 50 13 bd 40 8d 6a be
       -0.36361927 -0.41522256 -0.035965156 -0.22905445
000010 55 34 b6 be d6 25 a1 3e 64 46 36 be 6f 03 10 be
       -0.355868 0.3147418 -0.1780029 -0.1406381
000020 40 d4 21 3d 80 00 f5 3b 36 bd bf be 00 42 d1 3e
       0.039509058 0.0074768662 -0.37449044 0.40870667
000030 cc 04 67 be 96 2b f6 be 8d 86 cd 3e 0f 53 33 be
       -0.22560424 -0.48080128 0.40141717 -0.17512153
000040 ce 0e 1a bd fe fc 00 3f 1b 9a e8 be 9e b8 f2 3e
       -0.037611775 0.50386035 -0.45430073 0.47406477
000050 20 eb 40 be 77 16 2d 3e c8 72 a4 3e 2a 21 05 3e
       -0.18839693 0.16903101 0.3211882 0.13000932
000060 4e 96 73 3e f4 06 d6 be f0 37 7b 3e 8b b3 a7 3d
       0.23787805 -0.4180218 0.24533057 0.08188542
000070 9c 53 c0 3e 73 e6 61 be 0a c5 e8 be 2a 3c 28 bd
       0.3756379 -0.22060566 -0.4546283 -0.041073002
000080 c6 1a d0 3e c0 31 7b 3c 4a e2 d7 3e 20 b2 18 3e
       0.40645427 0.015331686 0.42164832 0.149117
000090 fe 7e a0 be ba f7 af be 00 7c a2 3a cf 04 ee be
       -0.31346887 -0.34368688 0.0012396574 -0.46488044
0000a0 ab d6 d6 3e a0 63 8d 3c 42 96 02 be f1 c0 b7 3e
       0.41960654 0.017259419 -0.12752631 0.3588939
0000b0 1b af f3 be b7 5f 08 3d 25 b0 f4 be 37 2e ab 3e
       -0.47594532 0.033294406 -0.47790638 0.33433697
0000c0 64 75 f5 3e 08 e0 dc bd 08 07 bb bd ca 3e a4 be
       0.47941124 -0.10784918 -0.091322005 -0.32079154
0000d0 82 c2 95 be 81 13 01 3e 01 ba ab 3e e0 d6 8e bd
       -0.2924996 0.12605096 0.33540347 -0.06974578
0000e0 a3 41 7e 3e 0c 87 08 be 58 f9 62 bd 01 2f c3 3e
       0.24829726 -0.13332766 -0.055413574 0.381218
0000f0 58 05 1c be e9 ed 99 3e ac d2 ee 3e a0 df 7c be
       -0.15236413 0.30064324 0.46645105 -0.24694681
000100 94 cf 44 be b4 6c a4 3e 69 39 5d be c0 eb 1b 3c
       -0.1921981 0.32114184 -0.21603931 0.009516656
000110 77 9e 8d be 8a 8b b6 be 7e 09 79 bd 8c 61 e6 be
       -0.27659962 -0.35653335 -0.060800068 -0.44996297
000120 e4 f7 87 3e 03 bb f8 3e 8a 55 a2 3e 40 3d 23 3d
       0.26556313 0.4858018 0.31705886 0.039853334
000130 60 37 7c be a0 98 9f bd 56 d3 f6 3e 3c 52 fd 3d
       -0.24630499 -0.07792783 0.48208112 0.123692006
000140 80 55 b9 bb 9a ba f7 bd 4e 2f ac be ff c0 f9 be
       -0.0056559443 -0.12096138 -0.3362984 -0.48780057
000150 0b 59 49 be 08 ec 9f 3e 80 f7 d9 bd 8d 87 d3 3e
       -0.19662873 0.31234765 -0.1064291 0.41314355
000160 25 db bc 3e f0 4c 69 3d 23 e3 a1 be e0 0d c1 3c
       0.36885944 0.05695814 -0.31618604 0.023566186
000170 dc 7f 81 3e 80 df c9 3d 2e d6 3b 3e bc e6 61 3e
       0.2529286 0.09857082 0.18343422 0.22060674
000180 53 2b 29 3e 62 8a 96 3e 40 61 9f 3d d8 36 cd bd
       0.16520433 0.29402453 0.07782221 -0.10020226
000190 7f c7 82 3e 30 dc c2 3e fe d3 5e be a0 37 85 3c
       0.25542828 0.38058615 -0.21760556 0.016261876
0001a0 ec fa db 3e b1 dc 92 be b8 33 a6 be dc 33 78 be
       0.42964876 -0.28684 -0.32461333 -0.24238533
0001b0 93 8d 7d be 99 cc d8 be d0 11 87 be e8 3a 19 3e
       -0.24761038 -0.42343596 -0.26380777 0.14963877
0001c0 7c c2 b1 3e ef 1f 07 3d 54 81 56 3e 5d 59 80 be
       0.34718692 0.03298944 0.20947772 -0.2506818
0001d0 b8 c3 9c be 41 42 85 3e 6a 1d de 3e 40 f9 cd bc
       -0.30618072 0.2602711 0.43381816 -0.025143266
0001e0 4d 25 00 bf 65 e9 ef be 85 9f 00 3f 96 58 8c be
       -0.50056916 -0.46857753 0.5024341 -0.27411336
0001f0 90 bd 37 3d f0 52 03 be 65 52 81 be 26 a6 80 bd
       0.044858515 -0.12824607 -0.25258175 -0.0628169

layer2.weight f4 [128, 128]
000000 e8 50 c4 3c 60 c9 87 3d 4a fd 7c 3d be 5a 39 3d
       0.02396436 0.06630206 0.061764993 0.045252554
000010 12 22 95 bd 97 b5 ad bd e5 e9 b2 bd 1f d9 e8 bc
       -0.07281889 -0.08481901 -0.08736018 -0.028423844
000020 d8 f0 99 3d 40 5d 74 bc 3b 67 3f 3c 1e 09 11 bb
       0.075166404 -0.014914811 0.011682327 -0.0022130678
000030 41 57 95 bd 6d d6 66 3d e5 91 42 bd f6 5a 2b bb
       -0.07292033 0.056356836 -0.047502417 -0.0026146746
000040 cc 87 f6 3c d0 09 a7 3d 42 2e 97 3d 9b 25 7d 3d
       0.03009405 0.081561685 0.0738187 0.06180344
000050 69 4a b1 bd e6 c2 3f 3d 87 65 99 bb 60 3b 70 bd
       -0.08656771 0.04681673 -0.0046812925 -0.058650374
000060 8b 84 0c bd 31 83 83 3d 03 49 a8 3b f9 34 de 3c
       -0.03430609 0.06421507 0.005135657 0.027124869
000070 f2 a6 ac 3c 5b 6a 80 3d d8 da e0 3c c7 69 89 3d
       0.0210757 0.06270286 0.027448103 0.067096286
000080 79 64 a9 bd cf 76 ae 3d dd bd 4d bc c4 f3 83 3d
       -0.08271117 0.08518755 -0.012557474 0.06442979
000090 07 d1 3d bd c1 53 77 bd 42 21 52 bd 34 3b 8b 3d
       -0.046341922 -0.06038261 -0.05130125 0.067984015
0000a0 af b8 94 bd 9c 69 ab 3c bb e5 40 bc 2c bb b0 bd
       -0.07261788 0.020924382 -0.011773522 -0.0862945
0000b0 0e f8 49 3d c6 bb 2c bd 81 c4 b6 3c f4 a6 ab bc
       0.04930883 -0.042171262 0.022310497 -0.020953633
0000c0 b2 a1 8d 3b c3 3f a0 bd 62 12 6c bd 42 6c 56 3c
       0.004322254 -0.078246616 -0.05763472 0.013087334
0000d0 8e 23 0d bd 22 04 0d 3d a8 69 a6 3c a5 b3 cb bc
       -0.034457736 0.03442777 0.020314053 -0.024865935
0000e0 73 33 c4 bc c7 93 9d bc 51 70 d3 bc a0 e1 7a bd
       -0.023950314 -0.019235505 -0.025810393 -0.06125033
0000f0 2f f5 cb bc cc 45 08 bd 27 b5 1e bd 85 64 a6 3d
       -0.024897186 -0.03326969 -0.03874698 0.08124641
000100 f4 71 68 bc dc f4 7a 3d 33 6d 4f 3c 19 2a 3b bd
       -0.014187325 0.061268672 0.0126603125 -0.045694444
000110 39 6b 7f bc d7 2b 11 3d 17 d6 99 3d c9 f1 98 3c
       -0.015589529 0.0354422 0.075115375 0.01866998
000120 84 bd a0 bd 8a 6d 04 bd 69 be 87 3a b4 d9 96 3d
       -0.07848647 -0.032331027 0.0010356429 0.07365742
000130 97 bc 88 bc ad 44 0b 3c 87 e8 b9 bb ca d7 22 3c
       -0.01669149 0.00850026 -0.0056734714 0.009939143
000140 8d 4f 69 3d 74 c9 b0 3d fd 64 23 3c 5a b4 8c 3d
       0.05696063 0.08632174 0.009972808 0.06870337
000150 7f 95 4c bd ba 4b 26 3d 7c 23 51 3d 3e 8a 94 bd
       -0.049947258 0.040599562 0.05105923 -0.0725293
000160 63 48 ad 3d 8c 71 3b 3c 55 5a 89 bd 0a b5 d7 bc
       0.08461072 0.011440646 -0.067066826 -0.026331443
000170 27 4e e4 bc cf 1c 08 bd d6 da c0 bc a1 5d 87 3d
       -0.027869297 -0.0332306 -0.02354185 0.06609655
000180 9c a8 ee bc e3 b0 ce bb 89 95 75 bd da 6e 7e bd
       -0.029133134 -0.0063077076 -0.05995706 -0.062117435
000190 cc 58 8a bd bc 42 8d 3d 33 84 1b bd 0b 2d b0 3d
       -0.06755218 0.06897494 -0.037967872 0.08602341
0001a0 9f ea 9d bb 57 d4 85 bc bb 03 4f 3d 33 e0 93 3c
       -0.004819229 -0.016336603 0.050540667 0.018051242
0001b0 ad 44 b5 3b 46 28 28 bd 68 4a 79 3d be fb 8f bd
       0.0055318684 -0.041054033 0.060861975 -0.07030438
0001c0 eb cb 9e bd 96 9f 82 3c 19 88 2a 3d a4 1c 93 bc
       -0.07753738 0.015945237 0.0416337 -0.017957993
0001d0 9e 12 a0 bd 74 95 a0 bd 7f 03 06 bd 31 a0 b2 3d
       -0.07816051 -0.07841006 -0.032718178 0.0872196
0001e0 75 81 7a bb 56 e5 74 bd ee b6 a3 bd fc e8 1d 3d
       -0.0038224135 -0.059789024 -0.079938754 0.03855227
0001f0 fc ee 7e bd 6f 83 72 3d 70 4e 0e 3d 2c a4 0d bc
       -0.062239632 0.059207376 0.034742773 -0.008645099
000200 d7 ab 15 3d 00 80 6c 3c f6 78 30 bd 4d 83 b5 3c
       0.036540832 0.014434814 -0.043084107 0.022157336
000210 05 6d e1 bb 10 c4 49 3c 98 cb 78 bd 1c b3 3a 3b
       -0.006879451 0.012314811 -0.060741037 0.0028488105
000220 1a 2d a4 bb 99 65 90 3d bb 36 f9 bc ff 92 3f 3c
       -0.0050102593 0.07050628 -0.030421605 0.011692761
000230 30 f7 86 bd 27 ce 81 3d 14 06 05 3d 67 e6 a0 3d
       -0.06590116 0.063381486 0.0324765 0.07856446
000240 63 80 76 bd b7 be b7 3d 59 0d 46 3d fd 0b f8 bb
       -0.060181033 0.08971923 0.048352573 -0.0075697885
000250 e0 d3 77 3d 1c 9d 43 bd dd 0a 72 3d 2c f7 a2 bd
       0.060504794 -0.047757253 0.05909239 -0.079573005
000260 c7 0f 38 bd 5e 8e 4b bc 88 27 be 3c c1 3b b2 bd
       -0.04493692 -0.01242408 0.02321221 -0.087028034
000270 d7 26 5c 3c 17 2d a5 3d cb f7 27 3d 4a 1d 00 3d
       0.0134369945 0.08065241 0.0410078 0.031277932
000280 81 b9 13 bd 87 7a 33 bd 0e d3 41 3d cd b8 5a bd
       -0.036065582 -0.043818023 0.047320418 -0.053398896
000290 12 90 1e 3d d1 9e 8c 3d ef 1a 5b bd 25 c5 88 bc
       0.038711615 0.06866229 -0.053492483 -0.016695568
0002a0 47 3c 39 bd e9 3b bc 3b 24 a9 59 bd 04 ec 91 3d
       -0.0452235 0.0057444465 -0.05313982 0.071250945
0002b0 16 70 8e 3c 61 ba 55 3c de b5 02 bd 85 85 a8 bd
       0.017387431 0.0130449245 -0.031911723 -0.08228592
0002c0 e3 3a 11 3c 86 38 b0 bd e4 b6 0c bc ec 27 2b bb
       0.008864137 -0.08604531 -0.008588526 -0.0026116325
0002d0 b5 13 7f 3d df b4 18 3d 3f e0 85 3d e6 e7 a6 bd
       0.062274653 0.037281867 0.06536912 -0.081497
0002e0 ff e9 a6 3d 66 97 7a bd 66 24 98 3d 31 60 72 3d
       0.081501 -0.06117954 0.074288175 0.059173767
0002f0 10 ad bb bc 10 99 8f 3d 90 39 bc bc 65 1b 30 3d
       -0.022909671 0.07011616 -0.022976667 0.042994875
000300 59 c8 9b 3d 58 1e 62 bd 8b 75 9e bd c9 0d 87 3d
       0.07606573 -0.05520472 -0.07737263 0.06594426
000310 2b 58 55 3c d0 c5 0b bc f6 88 7d bd eb 7d 09 bc
       0.013021509 -0.008531049 -0.061898194 -0.008391838
000320 ba 8b b4 3b 19 78 ca bc 7a cf 61 3d dc 39 55 bc
       0.0055098208 -0.02471547 0.055129506 -0.013014283
000330 6e d7 34 3d 79 98 99 bd 21 7a 61 bc 96 de 1a 3c
       0.044150762 -0.07499785 -0.013762028 0.009452483
000340 34 54 e5 3c a8 db 8e 3c 7f bc ad bc 79 cd 86 bb
       0.027994253 0.017438725 -0.021208046 -0.0041138497
000350 7e d5 d1 3c db 29 41 3d 89 fb 5e 3c 2f 00 13 bd
       0.025614496 0.047159057 0.013609775 -0.035888847
000360 2c 36 17 3d 6f f3 a3 bd 87 6a 4f 3d a6 3b 2b 3d
       0.036916897 -0.08005416 0.0506387 0.041804932
000370 9f e0 97 3c 74 bc 0d bd 09 c7 65 bd 2c f4 8f 3c
       0.018539725 -0.03460355 -0.056098018 0.017572485
000380 1b c1 33 bd 01 0c 75 3d 5c c6 8a bd d6 0b db 3c
       -0.04388533 0.0598259 -0.06776115 0.026739042
000390 03 f2 b9 bb 66 c9 6d bd 35 ab 5f 3d fb 97 4f 3c
       -0.005674602 -0.058053397 0.054606635 0.012670512
0003a0 6c 81 f4 3c c4 35 4d bd 8e 74 91 3d 50 c9 96 3d
       0.02984687 -0.050100103 0.07102309 0.07362616
0003b0 3f 96 6e 3c 94 40 0b bd 49 b2 21 bd bf 75 92 3d
       0.014562189 -0.033997133 -0.039476667 0.071513645
0003c0 9d 74 aa bd db c3 a5 3d 2b 40 18 3c 67 7b a6 3d
       -0.083230235 0.08093997 0.009292643 0.08129006
0003d0 87 0f 87 bd 7d ba e4 3c 57 74 89 bd cd 89 17 bd
       -0.065947585 0.027920956 -0.06711643 -0.03699665
0003e0 3f ee 84 bd 22 b6 96 3c b3 44 66 3d 8d e9 ab 3c
       -0.06490754 0.018397395 0.05621786 0.02098539
0003f0 48 27 9b bd 8f 0c ac 3d cf 86 48 bd e6 15 96 3c
       -0.07575852 0.08400833 -0.04895669 0.018320989

layer2.bias f4 [128]
000000 19 ec 04 3d 78 da 8a 3d 6e 85 a8 bc d5 a3 76 3d
       0.032451723 0.06779951 -0.020571437 0.060214836
000010 fc 54 9c 3d 1d ff 0e bd b8 45 8e bc 69 68 f4 3c
       0.07633397 -0.034911264 -0.017367229 0.029834943
000020 b7 0c 86 bc 57 70 9f 3d 9e f1 82 bd 06 37 89 bd
       -0.016363485 0.07785099 -0.06393741 -0.06699948
000030 1e 94 bd 3c 3c 40 22 bd 95 5d 00 3d 1d 08 5f 3d
       0.023141917 -0.03961204 0.031339247 0.054451097
000040 52 9a ef 3b 35 e3 9c 3c 17 2d af 3c 1e e9 1e 3d
       0.0073120976 0.01915131 0.021383805 0.038796537
000050 0f 9d 75 bd 3a b9 96 3d 2e 1f 8b bd e0 23 9a bd
       -0.059964236 0.07359548 -0.067930564 -0.07526374
000060 f1 ce ae bd f2 d7 26 3d 4f c1 0b 3d b5 9d 15 3d
       -0.08535565 0.040733285 0.0341199 0.036527354
000070 4b 12 99 bc b6 f7 90 3c 07 c1 93 bd f8 ea 84 bd
       -0.01868548 0.017696243 -0.072145514 -0.06490129
000080 35 b1 a5 bd 15 e6 14 bd 9e 86 df 3c 30 a9 0c bd
       -0.0809044 -0.036352236 0.02728587 -0.034341037
000090 df ef f8 bc b7 5b d4 bc 55 f8 80 3d 42 dc 8f bc
       -0.030387817 -0.02592264 0.062973656 -0.017561082
0000a0 a2 7e 93 bc 96 d7 4a 3d 67 bd 94 bd 81 5c 2a bc
       -0.01800472 0.049522005 -0.07262688 -0.010398031
0000b0 9a e0 94 bd 2b 9f 33 bd 15 aa 60 3d ed 49 43 bd
       -0.07269402 -0.043852966 0.054849703 -0.047677923
0000c0 1c c6 44 3d 2c 20 8c 3d 8e d4 7c bb b1 bf 98 3d
       0.048040494 0.06842074 -0.003857884 0.07458437
0000d0 b9 da ab 3c c7 f9 87 3d 55 d4 a4 bd ab 37 f7 bb
       0.020978319 0.06639438 -0.080483116 -0.007544478
0000e0 35 c7 3d 3c 86 6b 0c 3d 98 fe 2e 3c 54 5d 82 bd
       0.011583139 0.03428223 0.010680817 -0.06365457
0000f0 1a f2 9e bb af ec d2 3c c8 4f 69 bd 8f df a3 bc
       -0.004850638 0.025747625 -0.05696085 -0.020004062
000100 bd 43 7f 3d eb 40 3a ba fc 47 19 3d 90 ee ac bd
       0.06232046 -0.00071050104 0.037422165 -0.0844394
000110 e5 92 5e bd ec 9b da 3b 22 a7 4a 3c f8 fb cf 3b
       -0.05433931 0.0066714194 0.012368949 0.0063471757
000120 71 9c a7 3d 58 a2 57 bd cb 98 85 3c e8 4b 96 bd
       0.08184136 -0.052645057 0.016308209 -0.07338697
000130 bf 4c 80 3d 92 5b 4f bd ed f5 9d bd 88 4c 8c 3d
       0.06264638 -0.050624438 -0.07712922 0.06850535
000140 7c fe cd 3c 9e ae 84 3d ee 85 a7 3b 59 38 66 bc
       0.025145762 0.06478618 0.005112401 -0.01405152
000150 79 fa 3a 3d e9 dc 84 3d 3c 4c 79 bb d8 24 99 3d
       0.045649026 0.06487448 -0.0038039824 0.074777305
000160 2c d3 a1 3d 77 5e 23 3d bb 0a 9a 3d ad 2d 7c 3c
       0.07901606 0.03988501 0.07521578 0.015391749
000170 17 b4 af bd 65 89 a9 bd 2b 3d a2 bb d8 6f 8a 3d
       -0.08579271 -0.08278159 -0.0049511394 0.06759614
000180 8f 8c 68 bd 04 b3 f0 bc 6e 72 f3 bb 63 f5 06 bd
       -0.056774672 -0.029382236 -0.0074294126 -0.032948863
000190 46 ca 5a 3c 6e cf e7 bc fb 23 11 bd 2e ec 44 3d
       0.01335389 -0.028297152 -0.035434704 0.0480768
0001a0 0c 9a 9c 3d e7 45 a5 bd ce dc eb 3c 39 cf 96 3c
       0.076465696 -0.080699734 0.028791811 0.018409358
0001b0 53 34 6b bd 4b fc 33 3d 8e 7e e2 3c 23 e4 82 3d
       -0.057422947 0.043941777 0.027648237 0.0639117
0001c0 f9 f6 03 bd 50 e1 ad bd 3c cd 38 3c 0d c7 37 bc
       -0.032217953 -0.084902406 0.0112794 -0.011216891
0001d0 57 08 83 3c 3c c9 83 bd 4e 8d 58 bd 5b 2f 85 bd
       0.015995188 -0.06434867 -0.052869134 -0.06503173
0001e0 dc 6e 91 bd 36 39 b9 3c 70 6d 2b bd c1 fd 9f 3d
       -0.07101223 0.022610288 -0.041852415 0.078120716
0001f0 7d f0 ea 3b 35 49 85 bd ba e2 1e 3b 3a af fd 3c
       0.0071697817 -0.06508104 0.0024244026 0.030967344

layer3.weight f4 [4, 128]
000000 4d 77 87 3c 5e 76 58 3b 0e 6b 8c 3c 77 df 01 bd
       0.01653638 0.0033029537 0.017140891 -0.031707253
000010 28 2a 75 bd 98 12 33 bd ba 08 b2 3d 54 e3 0a 3d
       -0.059854656 -0.043718904 0.08693071 0.033908203
000020 a8 67 39 bd 99 b0 35 3c 3f 33 78 3c a1 d9 b1 3d
       -0.04526487 0.011089467 0.015148937 0.086840875
000030 6e 51 63 bd 28 a3 6d 3d 03 62 a2 3b 04 fa 2d bd
       -0.05549758 0.058016926 0.0049555316 -0.04247476
000040 98 a0 71 3c dc 67 0c bd a8 88 cd bc 68 e1 b6 3c
       0.014747761 -0.034278736 -0.025089577 0.022324279
000050 a6 93 99 bd fe b0 b4 3d 6e 73 3e 3d 8b 8a 4f bd
       -0.07498865 0.08822821 0.0464968 -0.050669234
000060 4f f3 af bd 9c d2 76 bd 78 74 3e 3d 9c d8 b2 3d
       -0.08591329 -0.060259447 0.046497792 0.08732721
000070 20 a1 5a 3d 79 d6 40 bd 85 d3 29 3d 57 00 07 3d
       0.053376317 -0.047079537 0.041461486 0.03295931
000080 fa 5c 5c ba e9 6f a4 bd dd 07 40 bd 7f 54 12 bd
       -0.00084061886 -0.08029158 -0.0468825 -0.035725113
000090 c7 d2 97 3d f8 53 24 bd d8 aa 0b 3d 34 eb 76 3d
       0.074132495 -0.04011914 0.034098476 0.0602829
0000a0 83 36 fd 3c 76 66 7d 3c f5 3f 89 3d 98 9e c1 3b
       0.030909782 0.015466323 0.06701652 0.0059087984
0000b0 ca fc a2 bd e3 a4 ec 3c 77 31 4a 3d 4f 3f 02 3d
       -0.07958372 0.028887218 0.04936358 0.031798657
0000c0 31 36 42 3d 2b d4 7a bd c0 3e 71 bc 77 16 06 bd
       0.047414962 -0.061237495 -0.014724433 -0.032736268
0000d0 5b 9c 98 3a e7 7c ab 3d 71 14 69 bd 40 15 b3 bd
       0.0011643277 0.083734326 -0.05690426 -0.087442875
0000e0 1f 0b 82 bd a9 40 8b bd 30 14 e9 3c 9f 7b 33 3c
       -0.063497774 -0.06799442 0.028452009 0.0109547665
0000f0 a9 d8 40 bd 87 94 37 3d 1a f5 65 3d b0 14 6f bb
       -0.047081623 0.04481938 0.05614195 -0.0036480837
000100 c4 04 2c 3d ce 0a 31 bd aa ed ff bc 86 5b 98 bd
       0.041996732 -0.043223195 -0.031241257 -0.07439332
000110 d0 00 51 3d f8 aa 86 3d 35 e1 36 3d 49 b5 b9 bc
       0.051026165 0.065755785 0.044648368 -0.022669451
000120 4c b8 99 bd e2 b1 ca 3b b7 48 0c 3d d0 6e 7d 3b
       -0.07505855 0.006185756 0.034249034 0.0038670786
000130 26 f5 eb 3c bc e5 00 bd 45 2f 86 3d d7 81 3e 3d
       0.02880342 -0.03146909 0.06551985 0.046510544
000140 e8 9e 12 bc ae c6 1d bd 47 c3 4b bd 5f 36 82 bd
       -0.008949019 -0.038519554 -0.049746778 -0.06358027
000150 57 39 81 3d a8 de 6f 3c 2d 8e 2c bd ce f3 7b bc
       0.06309765 0.014640488 -0.042127777 -0.015377952
000160 e1 c0 cb 3c 62 fd a9 3d 14 bc 83 bd 36 f2 9b bd
       0.024872245 0.08300282 -0.064323574 -0.076145574
000170 c4 ea 16 3c fb ea 3d bd b3 32 c0 3c 83 cc 81 3d
       0.009211246 -0.046366673 0.023461675 0.06337836
000180 8c d7 4c 3d b1 87 ae bb d1 d0 b3 3d f0 12 90 bd
       0.05001025 -0.0053262343 0.08780063 -0.07034862
000190 b0 28 8c 3d 62 86 5d 3d 01 a9 38 bc dd 8e b4 bc
       0.06843698 0.054083236 -0.011270762 -0.022040779
0001a0 f0 e2 89 bd c2 e2 b1 bc bf 59 2d 3d 9a fa af bd
       -0.06732738 -0.021714572 0.042321917 -0.0859272
0001b0 e9 d9 b7 3c 1d b7 14 bd cf c7 23 3d ba 3d ff bc
       0.022442775 -0.036307443 0.039985474 -0.031157363
0001c0 7c fa 65 3d b7 0b 6f 3d d8 96 c0 3c 2c dc 3e bd
       0.056147084 0.05836078 0.023509428 -0.04659669
0001d0 e9 a2 91 3d 67 b1 55 3c 96 d7 16 bd 9d 56 cb bc
       0.07111151 0.013042784 -0.036826693 -0.024821574
0001e0 ac 1f ac 3d 23 45 8c 3d 92 a8 b1 3d 94 59 25 bd
       0.084044784 0.06849124 0.0867473 -0.04036863
0001f0 53 80 8b bd 4e 70 57 bd e5 13 96 3d fc 94 36 bd
       -0.06811585 -0.052597336 0.07328013 -0.044575676
000200 87 a3 05 bd 99 73 8b 3d d7 e6 9e bd 60 c8 75 3d
       -0.032626655 0.06809158 -0.07758873 0.060005546
000210 61 e9 2f 3c 38 64 21 3d 10 3c 65 3d fe 18 a5 3d
       0.010736794 0.039402217 0.055965483 0.080614075
000220 b0 e6 17 3d e3 45 a5 3c 70 a0 fc 3c 3c 90 ad bc
       0.037085235 0.020174926 0.030838221 -0.02118694
000230 01 6c 90 bd 9c 00 f8 bc f7 2f 78 3d 68 86 44 bd
       -0.0705185 -0.030273728 0.060592618 -0.047979742
000240 de f2 1e 3d b9 f8 5f 3d a2 33 83 3d 72 f1 96 3d
       0.038805835 0.05468056 0.064063326 0.07370271
000250 96 27 ab 3d a1 7f f9 3c aa 4d 5e bc 1e ff 44 3d
       0.0835716 0.030456366 -0.013568321 0.04809486
000260 04 46 5d bd 9e 43 77 3d 60 dd ab bc 99 ad 81 3d
       -0.05402185 0.06036722 -0.020979583 0.06331939
000270 5c e0 25 bd 2e 98 40 3d 70 4c 82 3c 28 d9 af 3d
       -0.04049717 0.04702013 0.015905589 0.08586341
000280 de 64 2e bd 2f d7 4f bd 61 b9 8d 3c 33 b9 15 bc
       -0.042576663 -0.050742324 0.01730031 -0.009138393
000290 0c 1f 9f 3d bf 07 16 3d e2 d0 ce bc 62 76 88 bd
       0.077695936 0.03662848 -0.025246087 -0.06663205
0002a0 ea 27 37 3d f2 b7 7e bd 7e 3b 97 3d a7 7a 62 bd
       0.0447158 -0.062187143 0.07384394 -0.05529275
0002b0 1b 02 da bc c0 d9 d1 bc 73 c3 cb 3b ca 58 a8 3c
       -0.026612332 -0.025616527 0.0062183677 0.02055015
0002c0 21 dc 5b bd 5e ed ae bc 28 f2 77 bd cb 43 92 bc
       -0.05367673 -0.02135342 -0.060533673 -0.017854592
0002d0 2a 2d 82 3c e1 9a a4 bd 11 6f 2d 3d a5 e4 f2 bc
       0.015890677 -0.08037353 0.04234225 -0.029650042
0002e0 29 d5 86 3d f6 7a 88 3c 79 6d 2d 3d 1f 58 8c bd
       0.06583626 0.016660195 0.04234073 -0.06852745
0002f0 ac e1 94 bd 83 b1 9f bc 1b a4 62 bd e0 81 33 bd
       -0.07269606 -0.019493824 -0.055332284 -0.04382503
000300 9d f8 d0 3c da 12 d2 bc 9a d7 30 3d ed 7e 64 bb
       0.025509173 -0.025643755 0.043174364 -0.0034865693
000310 ca e3 97 bd 64 70 94 bd b9 2d ac 3c 15 d7 14 3d
       -0.07416494 -0.07247999 0.021017896 0.03633793
000320 12 2a 96 bd 5d 2a 9a 3c 41 a0 43 3d 51 fd 64 3d
       -0.07332243 0.018819029 0.047760252 0.055905644
000330 a9 a8 7e bd 31 c1 86 bd f5 1c b3 3c 31 d4 09 bd
       -0.062172566 -0.06579817 0.021864394 -0.033649627
000340 9c 95 24 ba 82 36 47 3d ff 5b a6 3d fe 23 51 3d
       -0.0006278397 0.048635967 0.081230156 0.051059715
000350 62 2d 27 bd fc 28 a3 bd 4d 5f 46 ba 8b be 9c bb
       -0.040814765 -0.079668015 -0.00075673015 -0.0047834567
000360 30 6f 80 3d ff 48 59 3d 99 08 1a 3d f1 50 99 bb
       0.06271207 0.05304813 0.037605856 -0.0046788384
000370 e2 65 80 3d 49 27 50 bb 89 dc 27 3c 29 cc 13 3d
       0.062694326 -0.0031761697 0.010245451 0.036083374
000380 15 55 b6 3c 1c 73 bf 3c 94 2c a4 3d f1 8f 68 3d
       0.022257367 0.023370318 0.08016315 0.0567779
000390 35 bd 75 3d ab 78 95 3c 80 b6 61 3d 16 6b 4a 3d
       0.059994895 0.018246016 0.055105686 0.04941853
0003a0 97 62 80 bd b9 f2 d4 bc 19 8d 43 3c 31 a6 0f bd
       -0.062688045 -0.025994645 0.011935496 -0.0350706
0003b0 fb d0 22 3d 1b e3 ad bc 34 96 1b 3d 06 69 d6 3c
       0.03975008 -0.021226456 0.03798504 0.026173126
0003c0 4c c4 c3 3c 9e 1c b6 3c c4 a2 4f bc 9b 1b e5 3b
       0.023897313 0.022230443 -0.012673084 0.006991816
0003d0 d6 b3 df 3a f8 ac 4b 3d 15 03 89 bd 3c 14 0b bd
       0.0017067145 0.049725503 -0.06690041 -0.033954844
0003e0 d9 c2 2a bd 5c ff 8e 3b b8 7e 05 3d 08 0e 68 bd
       -0.041689727 0.0043639373 0.03259155 -0.056654006
0003f0 72 46 2c bd 9a 44 11 bd 5d 91 96 bd 8d 62 32 3d
       -0.04205937 -0.035465814 -0.073519446 0.043551017

layer3.bias f4 [4]
000000 c4 d4 32 3d 34 fc 73 bd e7 8a a5 bd cf ed e2 bc
       0.04365994 -0.05956669 -0.08083134 -0.027701287

layer1.weight f4 [128, 4]
000000 54 ba 66 be 9e 0a 95 be 96 bf bb be 58 5d 9c 3e
       -0.22532016 -0.29109663 -0.36669606 0.30539966
000010 c6 15 97 3e 2e df a8 3e b8 ef bb 3e 2a c1 f3 be
       0.295088 0.32982773 0.36706328 -0.4760831
000020 f8 4f 51 3e 42 89 db be fc b8 7e 3e a0 67 ab 3c
       0.20440662 -0.42878157 0.24875253 0.020923436
000030 d8 06 ad bd bc 32 87 be 00 b8 f0 3a 08 7e 02 be
       -0.08448571 -0.26405895 0.0018365383 -0.1274339
000040 a8 be 10 3e 08 e1 a9 3d 48 91 d6 bd 50 2b 79 bd
       0.1413523 0.082948744 -0.10476929 -0.06083232
000050 2a 59 82 be 6e 6e e5 be 6c df d6 3e 48 33 02 3e
       -0.25458652 -0.44810814 0.41967332 0.12714875
000060 e0 58 50 bd a0 b6 8a 3d d8 37 9c 3e b2 1b d6 be
       -0.050866008 0.06773114 0.30511355 -0.41818005
000070 58 f0 a7 bd 78 8f a4 3e 7e 0b 83 be a0 66 76 3d
       -0.08200139 0.32140708 -0.25594705 0.060156465
000080 88 21 b3 bd 22 fe 88 be f0 84 42 be 7c 7d c6 be
       -0.0874663 -0.26756388 -0.18996024 -0.38767612
000090 e2 39 c3 3e 54 4e 78 be 70 5e e7 be 70 44 8c 3e
       0.381301 -0.2424863 -0.45189238 0.27395964
0000a0 50 c2 72 3d 40 bf b3 3e 6c 24 c3 be 2a b9 ad be
       0.059267342 0.3510685 -0.38113725 -0.3393033
0000b0 14 16 67 be ac 22 8c be e0 99 81 3d ec 78 d7 3e
       -0.22567016 -0.27370203 0.063281775 0.42084444
0000c0 80 1a ad bb 90 b4 3e 3d 30 08 3e 3e 6a 1d de be
       -0.0052827 0.046558917 0.18557811 -0.43381816
0000d0 1c dd 2e 3e 68 61 81 be fa 8c cb be 9e e4 db be
       0.17076534 -0.25269628 -0.39755994 -0.4294786
0000e0 74 2b ee 3e 50 7f e6 bd a0 1f 47 3e aa b3 bf 3e
       0.46517527 -0.11254752 0.19445658 0.3744176
0000f0 6c ae 12 3e a8 23 3c 3e c8 8d 8b be fe 37 e0 3e
       0.14324349 0.18372977 -0.27256608 0.4379272
000100 4e 63 89 3e e8 d5 c1 bd d8 f6 f9 bd b8 9a b2 3d
       0.26833576 -0.094646275 -0.12205285 0.087209165
000110 10 ac 36 be 24 9c 8c be f0 5f 32 3e 90 8c a2 3d
       -0.17839074 -0.27462876 0.1741941 0.079369664
000120 44 6e d3 3e 20 d0 da 3e ae fc e5 3e dc c8 14 3e
       0.41295063 0.42736912 0.44919342 0.14529747
000130 a4 61 43 be 0c 0b f8 be 60 e5 e4 3e 00 37 d1 be
       -0.19080216 -0.48445928 0.4470625 -0.40862274
000140 b6 0f 8b be 9a a5 93 be 6e 0d 9e 3e 40 e5 ae be
       -0.27160424 -0.2883728 0.3086962 -0.3415928
000150 f8 04 26 3e 4a dc 88 3e 58 a9 0f 3e e6 e9 9a be
       0.16212833 0.26730567 0.14029443 -0.30256575
000160 7c 60 88 3e fc 9b c6 3e e0 6d 0a be 1c 17 11 be
       0.26636112 0.38790882 -0.13518476 -0.14168972
000170 02 53 ae 3e 60 05 d8 bd 88 6a 63 be 56 e0 b8 3e
       0.34047705 -0.105479 -0.22208607 0.36108655
000180 ec 1a de be 26 3c 98 3e 64 6c b6 3e c0 18 d8 3c
       -0.43379915 0.2973339 0.3562957 0.02637899
000190 60 a9 61 3e 58 15 06 be 68 f8 b7 be 38 ba f8 3d
       0.22037268 -0.1309408 -0.35931706 0.121448934
0001a0 48 56 ba 3e b8 ce 3d 3e 2c 27 f3 be d0 cb 5a 3d
       0.36393952 0.18535888 -0.47490823 0.053417027
0001b0 a0 e5 f6 3e 50 b2 f0 be c0 7b 73 bd ca bb f6 3e
       0.48222065 -0.47011042 -0.05944419 0.48190147
0001c0 aa 9a 83 be 44 8d c0 be 40 00 1f be 00 d8 5e be
       -0.25703937 -0.37607777 -0.15527439 -0.21762085
0001d0 10 09 85 bd ae c3 ed 3e 98 7e 96 be 80 7f 96 3e
       -0.06495869 0.46438354 -0.29393458 0.2939415
0001e0 10 ef c1 bd 40 28 4d 3d 40 a9 66 3d 50 06 bf bd
       -0.09469426 0.050087214 0.056313753 -0.09327376
0001f0 2a 33 bf 3e 0c 73 84 3e e0 61 00 bd fe a0 d8 be
       0.37343723 0.25869024 -0.03134334 -0.42310327
000200 20 b6 41 3d 48 9f 4f 3e 88 76 81 3d b8 b9 bb bd
       0.04729283 0.20275605 0.06321436 -0.091662824
000210 5c 2c e6 3e 02 d0 df be 94 d9 5d be ac ae cb be
       0.4495572 -0.43713385 -0.2166503 -0.39781702
000220 e0 e3 da be 4c 47 9b 3e 0c 23 f3 3e 00 75 58 bb
       -0.4275198 0.30327833 0.47487676 -0.0033028722
000230 80 9b 78 bc e0 57 c0 bd f8 c0 eb be 8c d1 e2 be
       -0.015173793 -0.09391761 -0.4604566 -0.44300497
000240 c4 aa 16 be 30 a8 e3 bd 0e e0 aa 3e 0c 25 d7 be
       -0.1471358 -0.111160636 0.33374065 -0.42020452
000250 20 66 82 be 00 b3 32 bc 94 18 98 be 08 c9 0c be
       -0.2546854 -0.010906935 -0.29706252 -0.13748562
000260 74 5b 04 be 26 16 8a be a0 7c 06 be 48 83 aa be
       -0.12925512 -0.26970023 -0.13133478 -0.33303285
000270 3c 33 d0 be cc ec 87 3e 08 95 05 3e 4c b0 d8 3e
       -0.4066409 0.2654785 0.13045132 0.42322004
000280 f6 d6 df 3e c6 eb e0 3e 40 61 b5 3d c6 f0 86 3e
       0.4371869 0.4392988 0.088564396 0.2635557
000290 4c 16 ed be 98 e8 92 3e 78 04 f8 be a0 8a 58 bd
       -0.46306074 0.2869308 -0.4844091 -0.052866578
0002a0 c0 04 15 3d 80 d8 67 3d fe 94 a0 3e dc 47 2d 3e
       0.036381483 0.056602955 0.31363672 0.16921943
0002b0 54 b7 41 3e 30 3c c5 3e 38 2c 5b be c0 95 50 3e
       0.1891759 0.38522482 -0.21403587 0.20369625
0002c0 10 e8 c1 bd 50 9f 6d 3e d4 41 c3 3e fe a6 99 be
       -0.094680905 0.23205304 0.3813616 -0.30010217
0002d0 2c 4a ff 3e 50 bc 05 3e 80 05 f9 3d c0 81 3d 3d
       0.49861276 0.13060117 0.12159252 0.046266317
0002e0 64 60 43 3e d2 50 ec be 7a f9 b4 be 88 54 f1 3e
       0.19079739 -0.4615541 -0.35346586 0.47134805
0002f0 08 50 b0 bd f0 7f 00 3d 52 9b c1 3e 6c 53 70 3e
       -0.08609015 0.03137201 0.37813812 0.23469323
000300 c0 54 07 be 40 68 4d be 52 74 a9 3e 64 53 98 be
       -0.13215923 -0.200593 0.33096558 -0.29751122
000310 b6 95 e2 3e 84 00 8d be 42 c5 cb be b8 3d a1 be
       0.44254845 -0.27539456 -0.39798933 -0.314924
000320 8e d2 c2 be 3a 7f e5 be 60 2b 88 bd 74 77 e7 be
       -0.38051265 -0.4482363 -0.06648898 -0.45208323
000330 8e f2 b8 be c2 98 e7 3e 72 e4 85 3e 60 1e c7 bc
       -0.36122555 0.45233732 0.26150852 -0.024306476
000340 a0 0c 9e bd 98 48 2e be 10 b0 67 3d a0 6f 7b 3e
       -0.07717252 -0.1701988 0.05656439 0.245543
000350 44 bc 0c 3e 6c d0 98 3e 5c 6e 29 3e 70 e7 1d 3e
       0.13743693 0.29846513 0.16546005 0.15420318
000360 9c 6a 34 be 70 32 52 3e 7e d4 ce 3e 6c 8c 13 be
       -0.17618793 0.20527053 0.40396494 -0.14409035
000370 40 cd 92 3e e8 f5 b8 bd 5e 32 a8 3e 44 04 2b 3e
       0.28672218 -0.09031278 0.32850927 0.16700846
000380 36 4f 88 be 5c 1c 1f 3e ae 6e ba be 82 13 cc 3e
       -0.26622933 0.15538162 -0.36412567 0.39858633
000390 d0 0d bd 3e fc 60 80 be 50 22 2d bd a8 be 8e be
       0.369246 -0.25073993 -0.04226905 -0.27879834
0003a0 1e 46 ba be ec 09 1f be e0 b8 49 be 20 82 53 3e
       -0.3638162 -0.15531129 -0.1969943 0.20655107
0003b0 c4 fe 80 be 6c 63 ad 3e de 51 85 3e 08 6c 54 3e
       -0.2519437 0.33864915 0.26039022 0.20744336
0003c0 de 78 82 3e 80 a6 48 3d d4 5d 68 be f0 a9 3b 3d
       0.2548284 0.04898691 -0.22692043 0.045816362
0003d0 0a a1 a1 be 54 f1 7a 3e 80 f0 c7 3b fc b5 8a 3e
       -0.31568176 0.24506122 0.006101668 0.27091968
0003e0 5c b8 ea 3e 58 95 b6 3e 20 8c fd bc a2 93 b2 3e
       0.4584378 0.35660815 -0.030950606 0.3487826
0003f0 a8 46 44 be bc 27 14 be 08 de cd be c2 dd 91 3e
       -0.19167578 -0.14468282 -0.4020846 0.284895

layer1.bias f4 [128]
000000 4e 2c ba be c8 c5 d1 be e0 24 f3 bc 40 8d 6a be
       -0.36361927 -0.40971208 -0.02968067 -0.22905445
000010 18 5c b3 be f2 a6 a8 3e 64 46 36 be 5c 69 19 be
       -0.350312 0.3293987 -0.1780029 -0.14981598
000020 40 d4 21 3d 80 00 f5 3b 36 bd bf be b2 1c d5 3e
       0.039509058 0.0074768662 -0.37449044 0.41623455
000030 cc 04 67 be 96 2b f6 be b0 c6 cf 3e a0 dd 31 be
       -0.22560424 -0.48080128 0.40581274 -0.173697
000040 20 d0 23 bd ec fe fe 3e 52 6e e0 be 5a 6a f6 3e
       -0.039993405 0.49803865 -0.43834168 0.48128015
000050 20 eb 40 be cc bc 27 3e 4a 3d a8 3e dc 16 05 3e
       -0.18839693 0.16380614 0.3285926 0.12997001
000060 24 02 7c 3e f4 06 d6 be 7c 7d 79 3e 38 60 b7 3d
       0.24610192 -0.4180218 0.24364275 0.08953899
000070 9c 53 c0 3e ac 04 5c be 0a c5 e8 be 20 bf 1f bd
       0.3756379 -0.21486157 -0.4546283 -0.03900063
000080 b6 bf d4 3e c0 31 7b 3c 8e 2d da 3e 20 b2 18 3e
       0.41552514 0.015331686 0.4261288 0.149117
000090 fe 7e a0 be ba f7 af be 00 7c a2 3a ac c2 e7 be
       -0.31346887 -0.34368688 0.0012396574 -0.4526571
0000a0 68 80 de 3e a0 63 8d 3c 08 a4 f7 bd 70 2b ba 3e
       0.4345734 0.017259419 -0.12091833 0.36361265
0000b0 f6 0a f4 be c0 e2 10 3d b2 15 f3 be 8e 88 b0 3e
       -0.47664613 0.035372496 -0.4747749 0.34479183
0000c0 5e 75 f6 3e 08 e0 dc bd 08 07 bb bd 44 4c a2 be
       0.4813642 -0.10784918 -0.091322005 -0.3169881
0000d0 e6 0b 92 be c4 22 0b 3e 18 4c b7 3e e0 b7 73 bd
       -0.28524703 0.13587481 0.35800242 -0.05950153
0000e0 c6 a9 87 3e 0c 87 08 be a0 00 76 bd 50 1e c7 3e
       0.26496714 -0.13332766 -0.06005919 0.38890314
0000f0 d0 26 14 be 2e 47 9c 3e 7a 6c f3 3e a0 df 7c be
       -0.14467931 0.30523056 0.475437 -0.24694681
000100 6c 79 42 be b4 6c a4 3e 74 a4 59 be c0 eb 1b 3c
       -0.18991631 0.32114184 -0.2125414 0.009516656
000110 22 67 85 be 8a 8b b6 be 50 de 56 bd 8c 61 e6 be
       -0.26055247 -0.35653335 -0.052458107 -0.44996297
000120 92 28 8a 3e 00 2e fb 3e ee 70 a4 3e 40 3d 23 3d
       0.26984078 0.49058533 0.3211741 0.039853334
000130 60 37 7c be a0 98 9f bd 60 1b f8 3e a8 dc 01 3e
       -0.24630499 -0.07792783 0.48458385 0.1268183
000140 80 55 b9 bb 88 cb f6 bd 58 6b ab be a6 1b f6 be
       -0.0056559443 -0.12050539 -0.33480334 -0.4806797
000150 dc 71 42 be 08 ec 9f 3e 80 f7 d9 bd b6 74 d2 3e
       -0.18988746 0.31234765 -0.1064291 0.41104668
000160 2a 90 c0 3e f0 4c 69 3d 34 d5 a3 be e0 0d c1 3c
       0.37609988 0.05695814 -0.319986 0.023566186
000170 dc 7f 81 3e 80 df c9 3d 80 3f 3c 3e bc e6 61 3e
       0.2529286 0.09857082 0.18383598 0.22060674
000180 f4 2f 2a 3e 1c c6 93 3e 40 61 9f 3d 88 85 b4 bd
       0.16619855 0.28862083 0.07782221 -0.088145316
000190 40 39 83 3e 30 dc c2 3e 64 d2 5a be a0 37 85 3c
       0.25629616 0.38058615 -0.2136932 0.016261876
0001a0 ec fa db 3e 28 8e 8b be 60 df aa be dc 33 78 be
       0.42964876 -0.27256894 -0.33373547 -0.24238533
0001b0 84 aa 74 be b4 58 d8 be d0 11 87 be 9c bb 1d 3e
       -0.23893172 -0.42255175 -0.26380777 0.15403599
0001c0 7c c2 b1 3e 50 3d 24 3d 54 81 56 3e 5c bf 7f be
       0.34718692 0.040097535 0.20947772 -0.24975342
0001d0 b8 c3 9c be 54 f1 87 3e d8 4e e2 3e 40 f9 cd bc
       -0.30618072 0.26551306 0.44200778 -0.025143266
0001e0 a0 b3 fe be 56 06 ec be 50 f0 fc 3e 96 58 8c be
       -0.49746418 -0.46098584 0.49402094 -0.27411336
0001f0 90 bd 37 3d f0 52 03 be 94 03 80 be 80 5e 85 bd
       0.044858515 -0.12824607 -0.2500273 -0.06512165

layer2.weight f4 [128, 128]
000000 e8 50 c4 3c 60 c9 87 3d 4a fd 7c 3d be 5a 39 3d
       0.02396436 0.06630206 0.061764993 0.045252554
000010 12 22 95 bd 97 b5 ad bd e5 e9 b2 bd 1f d9 e8 bc
       -0.07281889 -0.08481901 -0.08736018 -0.028423844
000020 d8 f0 99 3d 40 5d 74 bc 3b 67 3f 3c 1e 09 11 bb
       0.075166404 -0.014914811 0.011682327 -0.0022130678
000030 41 57 95 bd 6d d6 66 3d e5 91 42 bd f6 5a 2b bb
       -0.07292033 0.056356836 -0.047502417 -0.0026146746
000040 cc 87 f6 3c d0 09 a7 3d 42 2e 97 3d 9b 25 7d 3d
       0.03009405 0.081561685 0.0738187 0.06180344
000050 69 4a b1 bd e6 c2 3f 3d 87 65 99 bb 60 3b 70 bd
       -0.08656771 0.04681673 -0.0046812925 -0.058650374
000060 8b 84 0c bd 31 83 83 3d 03 49 a8 3b f9 34 de 3c
       -0.03430609 0.06421507 0.005135657 0.027124869
000070 f2 a6 ac 3c 5b 6a 80 3d d8 da e0 3c c7 69 89 3d
       0.0210757 0.06270286 0.027448103 0.067096286
000080 79 64 a9 bd cf 76 ae 3d dd bd 4d bc c4 f3 83 3d
       -0.08271117 0.08518755 -0.012557474 0.06442979
000090 07 d1 3d bd c1 53 77 bd 42 21 52 bd 34 3b 8b 3d
       -0.046341922 -0.06038261 -0.05130125 0.067984015
0000a0 af b8 94 bd 9c 69 ab 3c bb e5 40 bc 2c bb b0 bd
       -0.07261788 0.020924382 -0.011773522 -0.0862945
0000b0 0e f8 49 3d c6 bb 2c bd 81 c4 b6 3c f4 a6 ab bc
       0.04930883 -0.042171262 0.022310497 -0.020953633
0000c0 b2 a1 8d 3b c3 3f a0 bd 62 12 6c bd 42 6c 56 3c
       0.004322254 -0.078246616 -0.05763472 0.013087334
0000d0 8e 23 0d bd 22 04 0d 3d a8 69 a6 3c a5 b3 cb bc
       -0.034457736 0.03442777 0.020314053 -0.024865935
0000e0 73 33 c4 bc c7 93 9d bc 51 70 d3 bc a0 e1 7a bd
       -0.023950314 -0.019235505 -0.025810393 -0.06125033
0000f0 2f f5 cb bc cc 45 08 bd 27 b5 1e bd 85 64 a6 3d
       -0.024897186 -0.03326969 -0.03874698 0.08124641
000100 f4 71 68 bc dc f4 7a 3d 33 6d 4f 3c 19 2a 3b bd
       -0.014187325 0.061268672 0.0126603125 -0.045694444
000110 39 6b 7f bc d7 2b 11 3d 17 d6 99 3d c9 f1 98 3c
       -0.015589529 0.0354422 0.075115375 0.01866998
000120 84 bd a0 bd 8a 6d 04 bd 69 be 87 3a b4 d9 96 3d
       -0.07848647 -0.032331027 0.0010356429 0.07365742
000130 97 bc 88 bc ad 44 0b 3c 87 e8 b9 bb ca d7 22 3c
       -0.01669149 0.00850026 -0.0056734714 0.009939143
000140 8d 4f 69 3d 74 c9 b0 3d fd 64 23 3c 5a b4 8c 3d
       0.05696063 0.08632174 0.009972808 0.06870337
000150 7f 95 4c bd ba 4b 26 3d 7c 23 51 3d 3e 8a 94 bd
       -0.049947258 0.040599562 0.05105923 -0.0725293
000160 63 48 ad 3d 8c 71 3b 3c 55 5a 89 bd 0a b5 d7 bc
       0.08461072 0.011440646 -0.067066826 -0.026331443
000170 27 4e e4 bc cf 1c 08 bd d6 da c0 bc a1 5d 87 3d
       -0.027869297 -0.0332306 -0.02354185 0.06609655
000180 9c a8 ee bc e3 b0 ce bb 89 95 75 bd da 6e 7e bd
       -0.029133134 -0.0063077076 -0.05995706 -0.062117435
000190 cc 58 8a bd bc 42 8d 3d 33 84 1b bd 0b 2d b0 3d
       -0.06755218 0.06897494 -0.037967872 0.08602341
0001a0 9f ea 9d bb 57 d4 85 bc bb 03 4f 3d 33 e0 93 3c
       -0.004819229 -0.016336603 0.050540667 0.018051242
0001b0 ad 44 b5 3b 46 28 28 bd 68 4a 79 3d be fb 8f bd
       0.0055318684 -0.041054033 0.060861975 -0.07030438
0001c0 eb cb 9e bd 96 9f 82 3c 19 88 2a 3d a4 1c 93 bc
       -0.07753738 0.015945237 0.0416337 -0.017957993
0001d0 9e 12 a0 bd 74 95 a0 bd 7f 03 06 bd 31 a0 b2 3d
       -0.07816051 -0.07841006 -0.032718178 0.0872196
0001e0 75 81 7a bb 56 e5 74 bd ee b6 a3 bd fc e8 1d 3d
       -0.0038224135 -0.059789024 -0.079938754 0.03855227
0001f0 fc ee 7e bd 6f 83 72 3d 70 4e 0e 3d 2c a4 0d bc
       -0.062239632 0.059207376 0.034742773 -0.008645099
000200 d7 ab 15 3d 7c 47 8b 3c 7a 81 59 bd 4d 83 b5 3c
       0.036540832 0.01700186 -0.053101994 0.022157336
000210 35 91 51 bc ff 7c 21 3a 98 cb 78 bd f0 c3 82 3b
       -0.012790968 0.00061602885 -0.060741037 0.0039906427
000220 1a 2d a4 bb 99 65 90 3d bb 36 f9 bc 14 d2 4e 3c
       -0.0050102593 0.07050628 -0.030421605 0.012623329
000230 30 f7 86 bd 27 ce 81 3d 68 c8 12 3d 91 ad a1 3d
       -0.06590116 0.063381486 0.035835654 0.07894433
000240 15 8c 85 bd ac 8e a7 3d e5 3a 4b 3d f7 77 a0 bc
       -0.06520859 0.081815094 0.049616713 -0.019588454
000250 e0 d3 77 3d 03 f3 24 bd a5 27 7a 3d bc d8 a2 bd
       0.060504794 -0.040270817 0.061072964 -0.07951495
000260 e8 c7 45 bd 5e 8e 4b bc 13 bd 89 3c 07 9b b4 bd
       -0.04828635 -0.01242408 0.01681379 -0.088186316
000270 d7 26 5c 3c 74 e8 ab 3d cb f7 27 3d c7 4c e1 3c
       0.0134369945 0.08393946 0.0410078 0.02750243
000280 5b 11 09 bd 87 7a 33 bd 9f b5 51 3d cd b8 5a bd
       -0.033463817 -0.043818023 0.051198598 -0.053398896
000290 12 90 1e 3d d1 9e 8c 3d ef 1a 5b bd 36 67 94 bc
       0.038711615 0.06866229 -0.053492483 -0.018115621
0002a0 3c 34 3c bd e9 3b bc 3b 53 3b 5e bd 3b ac 96 3d
       -0.045948252 0.0057444465 -0.054255795 0.07357069
0002b0 71 65 a1 3c 61 50 61 3c cd 3f 27 bd b2 b1 a2 bd
       0.019701691 0.013752074 -0.04083233 -0.07944049
0002c0 8b 6c a8 38 86 38 b0 bd e4 b6 0c bc 19 f3 ee ba
       8.031082e-05 -0.08604531 -0.008588526 -0.0018230408
0002d0 f8 41 6c 3d bb 50 22 3d f3 c8 8a 3d 84 26 a6 bd
       0.0576801 0.03962777 0.06776609 -0.08112815
0002e0 c2 45 a8 3d 66 97 7a bd 16 2d 85 3d 18 29 69 3d
       0.0821643 -0.06117954 0.0650274 0.056923956
0002f0 d6 f5 01 bd 5c 2f 92 3d 5b 2d 99 bc 65 1b 30 3d
       -0.031728588 0.07137939 -0.018698385 0.042994875
000300 89 9c a1 3d 58 1e 62 bd 3d 40 9c bd c9 0d 87 3d
       0.07891185 -0.05520472 -0.0762944 0.06594426
000310 7d 29 69 3c d0 c5 0b bc 92 bf 87 bd eb 7d 09 bc
       0.014231083 -0.008531049 -0.06628336 -0.008391838
000320 7b bd 14 3c b9 65 0d bd ae 3b 68 3d dc 39 55 bc
       0.009078379 -0.03452084 0.05669754 -0.013014283
000330 6e d7 34 3d 79 98 99 bd 0f f7 3b bc 38 84 2a 3c
       0.044150762 -0.07499785 -0.011472478 0.0104075
000340 34 54 e5 3c 84 2d 98 3c 0b 78 b3 bc 1f 44 a9 bb
       0.027994253 0.018576391 -0.021907827 -0.0051655914
000350 c9 b2 c6 3c db 29 41 3d 89 fb 5e 3c fa b6 3d bd
       0.024255173 0.047159057 0.013609775 -0.04631708
000360 7e 86 d9 3c 6f f3 a3 bd 1f 72 26 3d a6 3b 2b 3d
       0.026553389 -0.08005416 0.040636178 0.041804932
000370 9f e0 97 3c 74 bc 0d bd aa f6 60 bd 2c f4 8f 3c
       0.018539725 -0.03460355 -0.054922737 0.017572485
000380 48 ea 27 bd 4e 81 58 3d 5c c6 8a bd 42 dc cf 3c
       -0.040994912 0.05285769 -0.06776115 0.025373582
000390 10 03 fa bb 66 c9 6d bd 17 9d 63 3d fb 97 4f 3c
       -0.0076297596 -0.058053397 0.055569734 0.012670512
0003a0 6c 81 f4 3c 33 fd 48 bd 47 d9 82 3d 50 c9 96 3d
       0.02984687 -0.049069595 0.063890986 0.07362616
0003b0 ad e9 a0 3c 53 5e 06 bd 49 b2 21 bd 80 88 98 3d
       0.019642675 -0.0328048 -0.039476667 0.0744791
0003c0 9d 74 aa bd 27 66 aa 3d 2b 40 18 3c c8 83 a8 3d
       -0.083230235 0.08320265 0.009292643 0.0822826
0003d0 87 0f 87 bd d2 cb 09 3d 7e ba 84 bd cd 89 17 bd
       -0.065947585 0.033641644 -0.06480883 -0.03699665
0003e0 ad 16 89 bd 58 c1 a5 3c 41 5e 31 3d 8d e9 ab 3c
       -0.06693778 0.020233795 0.04330278 0.02098539
0003f0 48 27 9b bd 8f 0c ac 3d 1f 02 50 bd 84 57 aa 3c
       -0.07575852 0.08400833 -0.050783273 0.020793684

layer2.bias f4 [128]
000000 19 ec 04 3d c9 5e 8c 3d a7 48 57 bc 95 98 82 3d
       0.032451723 0.06854016 -0.01313988 0.06376759
000010 36 27 92 3d 9b e6 00 bd 76 40 5e bc 09 96 f5 3c
       0.07136385 -0.031469923 -0.013565173 0.029978769
000020 6d 8d cd bc 57 70 9f 3d f0 06 87 bd e5 a0 79 bd
       -0.025091851 0.07785099 -0.0659312 -0.060944457
000030 1e 94 bd 3c 1d aa 03 bd 33 92 12 3d e0 4e 6c 3d
       0.023141917 -0.032144655 0.035783958 0.05769241
000040 3f 77 09 3c 0b 62 ad 3c 0d 4c aa 3c 7f 66 1e 3d
       0.008390247 0.021164915 0.020788217 0.038671967
000050 d7 5a 85 bd 3a b9 96 3d f8 e1 8a bd 24 9a 96 bd
       -0.06511467 0.07359548 -0.06781381 -0.07353619
000060 f1 ce ae bd 6c 0a 2e 3d 82 72 0f 3d 30 2d 1c 3d
       -0.08535565 0.042490408 0.035021313 0.03812903
000070 da 6b 60 bc eb 4b 9d 3c 51 d5 94 bd 3d d8 82 bd
       -0.013697589 0.01920124 -0.072672494 -0.063889004
000080 d8 90 97 bd 2c d3 04 bd 4d 8a 03 3d 84 b7 0d bd
       -0.07400674 -0.03242795 0.032114316 -0.034598842
000090 21 0f 08 bd db 17 aa bc 1c 77 92 3d 12 b6 4c bc
       -0.033217553 -0.020763328 0.071516246 -0.012494581
0000a0 2f 20 72 bc f6 3b 67 3d 7d 1a 92 bd 0a 8c 9a 3a
       -0.014778181 0.056453668 -0.071339585 0.0011791002
0000b0 c3 55 82 bd 9f 7d 20 bd ac 36 71 3d 52 17 55 bd
       -0.06364014 -0.0391823 0.05889003 -0.052024193
0000c0 57 81 5a 3d b3 51 83 3d 66 7c 1d b9 be e5 9c 3d
       0.053346004 0.06412067 -0.00015019029 0.07661007
0000d0 ae a0 bb 3c 9d d6 91 3d 5e e3 9c bd c1 94 57 bc
       0.022903766 0.07121012 -0.07660554 -0.013158024
0000e0 db 03 65 3c 3b c8 01 3d 9c e5 5b 3c 8d 7a 70 bd
       0.01397797 0.031685095 0.013421442 -0.058710624
0000f0 27 95 83 3b af ec d2 3c 99 b3 5e bd 02 96 84 bc
       0.004015583 0.025747625 -0.054370496 -0.01618481
000100 fa 9a 87 3d eb 40 3a ba 71 31 22 3d d2 bf 98 bd
       0.06621356 -0.00071050104 0.039597932 -0.07458462
000110 e5 92 5e bd 0a 47 31 3c e1 9c 37 3c 98 ad 42 3c
       -0.05433931 0.01082016 0.011206836 0.011882208
000120 fe 1f b4 3d f7 35 6b bd 1c 4a ad 3c 09 61 a8 bd
       0.087951645 -0.05742451 0.021153502 -0.08221633
000130 86 16 84 3d c4 1e 60 bd 32 1b a1 bd ee 7f 9d 3d
       0.064496085 -0.05471684 -0.07866515 0.07690416
000140 7a f6 de 3c 7a 2e 81 3d d8 dd f6 3b d3 4b 05 bc
       0.027217139 0.06307693 0.00753377 -0.008135754
000150 db a2 20 3d cb ba 8f 3d 2a 37 48 bb d8 24 99 3d
       0.03921781 0.0701805 -0.0030550458 0.074777305
000160 2c d3 a1 3d 34 27 1f 3d 6d 98 a8 3d 82 b7 ae 3c
       0.07901606 0.038855746 0.08232198 0.021327738
000170 1a 03 ab bd 86 d9 94 bd ac 00 dd ba 6a fd 8a 3d
       -0.08350201 -0.07268052 -0.0016861162 0.06786616
000180 1a 48 6c bd 8c ff cb bc 47 53 84 bb d0 6f f8 bc
       -0.05768595 -0.024902128 -0.0040382477 -0.030326754
000190 70 52 90 3c ba 79 f1 bc 47 37 24 bd b8 33 54 3d
       0.017617434 -0.029476989 -0.04009178 0.051807135
0001a0 49 c7 96 3d 1a a1 92 bd d8 5c dc 3c af 7b f7 3c
       0.073622294 -0.07159634 0.02689974 0.030210344
0001b0 53 10 81 bd 9c 88 43 3d 3d b1 be 3c 1f e5 7d 3d
       -0.06301942 0.047737703 0.023277873 0.061986085
0001c0 f0 00 d5 bc f3 03 a3 bd 07 46 78 3c 98 41 8d bc
       -0.026001424 -0.07959738 0.015153415 -0.017243192
0001d0 8f 94 4e 3c 16 35 86 bd 4e 8d 58 bd 83 2b 84 bd
       0.012608661 -0.06553094 -0.052869134 -0.06453612
0001e0 3e 91 86 bd 36 39 b9 3c 90 f3 1a bd 78 e9 92 3d
       -0.065706715 0.022610288 -0.037829936 0.07173437
0001f0 e7 da ea 3b 59 3b 75 bd ba e2 1e 3b 22 a6 23 3d
       0.0071672085 -0.05987105 0.0024244026 0.03995336
