custom_maze/static/custom_maze/run/room248881/trained_model.pth (torch, 146386 bytes, 12 tensors)

layer1.weight f4 [128, 4]
0	0x3eedc528	0.4643948
1	0x3dc74a58	0.09730977
2	0xbeee2f56	-0.4652049
3	0x3e1c230c	0.15247744
4	0x3d02a830	0.031898677
5	0x3e9e355a	0.3090008
6	0x3e39218c	0.18079203
7	0xbeaa4c0c	-0.33261144
8	0xbda87190	-0.08224785
9	0x3efe699c	0.4968995
10	0x3e97e046	0.29663295
11	0xbeb0fd6a	-0.3456834
12	0x3e7795f4	0.24178296
13	0x3ed25ff2	0.41088825
14	0x3e42ffd0	0.19042897
15	0xbe9dd044	-0.30822957
16	0xbed1a480	-0.40945816
17	0x3daed970	0.08537567
18	0xbdce2428	-0.1006549
19	0x3efaaf16	0.48961705
20	0x3e798a68	0.24369204
21	0xbe9ac076	-0.3022496
22	0xbe3205a8	-0.1738497
23	0x3e721ea4	0.23644501
24	0xbe412a40	-0.18863773
25	0x3d44a330	0.04800719
26	0xbeb3d470	-0.35123014
27	0x3ecc8f5e	0.3995313
28	0x3ef94b5c	0.48690307
29	0xbec4a332	-0.38405758
30	0x3d88cbf0	0.06679523
31	0x3eca3c44	0.39499104
32	0xbe9373a0	-0.28799152
33	0x3ba60600	0.005066633
34	0xbe5b62a8	-0.21424353
35	0xbebd77b8	-0.370054
36	0xbd9cab68	-0.07649881
37	0xbde69398	-0.1125862
38	0xbe5d4444	-0.21608073
39	0xbdde3f48	-0.10851914
40	0x3cde9d00	0.027174473
41	0x3ec03e56	0.3754756
42	0x3d823968	0.063586056
43	0xbe7cc7b0	-0.2468555
44	0x3ef8603c	0.4851092
45	0x3ef46afc	0.47737873
46	0xbe359af4	-0.17734891
47	0xbe55aea8	-0.20867407
48	0x3e66e2b4	0.22547418
49	0x3ea65bc8	0.324919
50	0x3efa0f08	0.48839593
51	0x3e578264	0.21045834
52	0x3e8ce03e	0.27514833
53	0x3c9cc3c0	0.01913631
54	0x3ea9c732	0.33159786
55	0x3e9bd190	0.3043332
56	0xbcdcc200	-0.026947975
57	0xbd4ddd20	-0.05025971
58	0xbe8850b6	-0.26624078
59	0xbdee5808	-0.116378844
60	0x3ed9fcf4	0.425758
61	0xbdd62488	-0.104561865
62	0xbe486e74	-0.19573385
63	0xbec2ea92	-0.38069588
64	0xbe78d7e8	-0.24301112
65	0x3df872f0	0.121312976
66	0xbd111000	-0.03541565
67	0x3ec9a6dc	0.39385116
68	0x3e902e76	0.28160447
69	0xbd0b8c70	-0.03406948
70	0xbe2c5f7c	-0.168333
71	0x3e0c4b58	0.13700616
72	0xbebdd266	-0.37074584
73	0x3e535720	0.20638704
74	0xbe0841e0	-0.1330638
75	0xbefad462	-0.4899016
76	0x3ee236c2	0.44182402
77	0x3eac1802	0.33612067
78	0xbea1339e	-0.31484693
79	0xbeea74e4	-0.45792305
80	0xbdc64e80	-0.096829414
81	0x3e5d7ee0	0.2163043
82	0x3e82c32e	0.25539535
83	0x3d3d5c60	0.046230674
84	0x3c5c3c00	0.0134420395
85	0xbe8e63ea	-0.27810603
86	0x3e3dc28c	0.18531245
87	0x3abdca00	0.0014479756
88	0xbe5fc5dc	-0.21852821
89	0x3e57d080	0.2107563
90	0xbe0678cc	-0.13132018
91	0x3e93092a	0.2871793
92	0xbe98ded6	-0.2985751
93	0x3e868fb4	0.26281512
94	0x3e48e6b4	0.19619256
95	0x3e27f004	0.16400152
96	0xbeedbaf8	-0.46431708
97	0xbe91d9d2	-0.28486496
98	0x3eb6cf08	0.35704827
99	0x3da61fa0	0.08111501
100	0xbcd07d00	-0.02545023
101	0xbeba8ff6	-0.36437958
102	0xbe90e5c6	-0.28300303
103	0x3e47123c	0.1944055
104	0xbdcd0118	-0.10009974
105	0x3e4d018c	0.20020121
106	0xbefc28b4	-0.49249804
107	0xbee74bee	-0.45175117
108	0xbe67db9c	-0.22642368
109	0xbeb5838e	-0.3545193
110	0x3de06610	0.10956967
111	0x3ef36f48	0.47545838
112	0x3e7f963c	0.24959654
113	0xbe1bff98	-0.1523422
114	0x3e87ef9e	0.2655
115	0x3e6e7a44	0.23288828
116	0xbe0c7934	-0.1371811
117	0x3e802aba	0.25032598
118	0x3ebc2234	0.36744845
119	0xbd8af4d8	-0.067849815
120	0xbdd1d1c8	-0.10245091
121	0xbee95e86	-0.45579928
122	0x3d84d280	0.06485462
123	0x3e187f70	0.14892364
124	0x3e294e4c	0.16533774
125	0xbeb80cf2	-0.35947376
126	0xbed75c20	-0.42062473
127	0xbe4bf128	-0.19916213
128	0xbe3ad8b4	-0.18246728
129	0x3e24bcc0	0.16087627
130	0xbdb08f20	-0.08621049
131	0x3edef1ea	0.4354394
132	0xbedef3ee	-0.4354548
133	0xbdcd1088	-0.10012919
134	0xbccb8300	-0.02484274
135	0x3eedc260	0.4643736
136	0x3e9791e0	0.2960348
137	0x3df3db88	0.11907107
138	0x3ec2c58a	0.38041335
139	0xbd1b24c0	-0.037876844
140	0xbe909098	-0.28235316
141	0xbee7aa6a	-0.45247203
142	0xbe4f2258	-0.20227945
143	0x3d156860	0.036476493
144	0x3ed0b3f2	0.40762287
145	0x3eb94b18	0.36190104
146	0x3e1e1d78	0.15440929
147	0xbeb86a36	-0.36018533
148	0xbd8ec5b0	-0.069713
149	0xbd4de5f0	-0.050268114
150	0x3b9ccd00	0.00478518
151	0xbe7cd510	-0.24690652
152	0xbd2932e0	-0.041308284
153	0xbc2adc40	-0.010428488
154	0x3cdc4f60	0.026893318
155	0xbe679f08	-0.2261926
156	0xbdbf1948	-0.09330994
157	0xbef21f2e	-0.47289413
158	0xbe843968	-0.25825047
159	0xbedb365e	-0.42814916
160	0x3e80ab38	0.2513063
161	0x3dd3a820	0.10334802
162	0x3edeb8d2	0.43500382
163	0x3ebf690e	0.37384838
164	0x3e8d217a	0.27564603
165	0xbe99c9fa	-0.30036908
166	0x3ef53202	0.47889715
167	0x3eb12194	0.3459593
168	0x3ecdfafc	0.40230548
169	0x3e9513a6	0.29116553
170	0xbde45eb0	-0.11150873
171	0xbec309e8	-0.38093495
172	0xbee7bfa0	-0.45263386
173	0x3e2df040	0.1698618
174	0xbee7b5e2	-0.45255953
175	0xbd1efed0	-0.038817227
176	0xbe4c64e0	-0.19960356
177	0xbe8b3048	-0.27185273
178	0xbe03faf8	-0.12888706
179	0x3e3741d8	0.17896211
180	0xbcbe7cc0	-0.023252845
181	0xbeec0ffa	-0.4610594
182	0x3c23fe00	0.010009289
183	0x3bf7e800	0.0075654984
184	0xbebff526	-0.3749172
185	0x3efac230	0.48976278
186	0xbe88f496	-0.26749104
187	0x3e965424	0.2936107
188	0x3eb20406	0.34768695
189	0xbdbe9d18	-0.09307307
190	0xbef0d55e	-0.47037786
191	0x3da7b1d0	0.08188212
192	0xbea59c64	-0.3234588
193	0xbe3ff62c	-0.18746251
194	0x3cca00e0	0.02465862
195	0x3ea47a7e	0.32124704
196	0x3d0a8a00	0.033823013
197	0xbec26c10	-0.3797307
198	0x3e982a82	0.2971993
199	0x3e8da3c0	0.27663994
200	0x3ee0d980	0.4391594
201	0xbe8c05d8	-0.27348208
202	0xbedd076c	-0.43169725
203	0x3ddd2138	0.107973516
204	0x3efce212	0.49391228
205	0xbcfb4f60	-0.030677497
206	0x3eac2188	0.33619332
207	0xbe169a7c	-0.14707369
208	0x3e984f16	0.29747838
209	0xbef087b8	-0.46978545
210	0xbdc08f18	-0.09402293
211	0x3ddd3a60	0.1080215
212	0x3eadc1a4	0.339368
213	0x3db61e40	0.088924885
214	0xbe5dbc88	-0.2165395
215	0xbee63e94	-0.44969618
216	0xbe8d22fe	-0.2756576
217	0x3c200040	0.009765685
218	0x3ef3f5d4	0.4764849
219	0x3eb29450	0.34878778
220	0xbe97f3e0	-0.2967825
221	0x3e8f2390	0.2795682
222	0xbce3a1c0	-0.02778709
223	0xbe48f194	-0.19623405
224	0x3e5d13c4	0.21589571
225	0x3daca9d0	0.08430827
226	0xbd3e48a0	-0.04645598
227	0xbe7b3a70	-0.24534011
228	0x3e96b74a	0.29436713
229	0x3c533c80	0.012892842
230	0x3d2803d0	0.04101926
231	0x3d74ff90	0.059814036
232	0xbe8ad734	-0.27117312
233	0xbd963770	-0.073347926
234	0x3e82fbb4	0.2558266
235	0xbd9e7eb8	-0.077390134
236	0x3db08178	0.08618444
237	0x3db41da8	0.08794719
238	0x3efa027c	0.4883002
239	0x3e1f775c	0.15572876
240	0xbea09584	-0.3136407
241	0x3d9ea9e0	0.07747245
242	0xbe760458	-0.24025095
243	0xbedc76e0	-0.43059444
244	0xbed6c84e	-0.41949695
245	0x3e863128	0.26209378
246	0x3ec3a7b6	0.3821389
247	0x3e1a9104	0.15094382
248	0xbd0234c0	-0.031788588
249	0x3d826490	0.06366837
250	0x3e1c335c	0.15253967
251	0x3ecf3ca4	0.40475953
252	0xbe05bbc4	-0.13059908
253	0x3e0e6388	0.13905156
254	0xbec38860	-0.38189983
255	0xbd05f8e0	-0.03270805

layer1.bias f4 [128]
0	0x3c5afd00	0.013365984
1	0x3b9c2f80	0.0047664046
2	0x3eaec068	0.3413117
3	0x3e2a5f30	0.16637874
4	0xbeece07c	-0.46265018
5	0x3d7ad700	0.061240196
6	0xbd8eaee8	-0.069669545
7	0x3d3554a0	0.044270158
8	0x3e884414	0.2661444
9	0xbe88b460	-0.26700115
10	0xbed645c0	-0.4185009
11	0x3ed07ae4	0.40718758
12	0x3e88fa48	0.2675345
13	0x3ea03586	0.31290835
14	0xbee65b62	-0.44991595
15	0x3d98e570	0.07465637
16	0xbda44f00	-0.080228806
17	0x3e4b7f24	0.19872719
18	0xbe8e626c	-0.27809465
19	0x3ed03cb4	0.40671313
20	0x3ef7ac3e	0.48373598
21	0x3e92f656	0.28703564
22	0x3dca7b78	0.09886831
23	0xbe9cdcb6	-0.3063714
24	0xbe8d5f7e	-0.27611917
25	0xbedd3542	-0.43204695
26	0x3e4b8d30	0.19878078
27	0xbd999178	-0.07498449
28	0xbe2ba440	-0.16761875
29	0x3ec846e6	0.3911659
30	0x3e50cbcc	0.20390242
31	0xbee1f380	-0.44131088
32	0xbdb3a5b0	-0.08771837
33	0xbe363dd4	-0.17797023
34	0x3e1b4f24	0.15166909
35	0x3e96e544	0.2947179
36	0xbca6fd20	-0.020384371
37	0xbdd11b80	-0.10210323
38	0xbccb6e80	-0.024832964
39	0x3e9a710c	0.30164373
40	0x3d8fdff0	0.070251346
41	0x3e70d7e0	0.2351985
42	0x3deddfe0	0.116149664
43	0xbe34e5bc	-0.17665762
44	0xbefa6aa8	-0.48909497
45	0xbe884c50	-0.26620722
46	0xbebaaa08	-0.3645785
47	0xbe814a6c	-0.25252092
48	0xbe7cad7c	-0.24675554
49	0x3ebc4a20	0.36775303
50	0x3d319850	0.043358147
51	0xbe782d08	-0.24235928
52	0xbe9e1388	-0.30874276
53	0xbd96cab8	-0.07362884
54	0xbd0292a0	-0.031878114
55	0x3d325c90	0.043545306
56	0xbe3b4ed8	-0.18291795
57	0x3e5e8a64	0.2173248
58	0x3ea22a16	0.31672734
59	0x3e8140f2	0.25244862
60	0x3e3965d4	0.1810525
61	0xbea63530	-0.32462454
62	0x3e98832c	0.29787576
63	0x3ef6f450	0.4823327
64	0x3ed3980a	0.41326934
65	0xbe3e66d4	-0.18593913
66	0x3d570d40	0.05250287
67	0xbdaeab30	-0.08528745
68	0xbea2eb36	-0.31820077
69	0xbed0c754	-0.40777075
70	0xbd2195e0	-0.039449573
71	0xbece0b3c	-0.40242946
72	0x3d7e9a00	0.062158585
73	0x3ef0acc0	0.47006798
74	0x3ec72458	0.38894916
75	0xbef6da50	-0.48213434
76	0xbe7d25a0	-0.24721384
77	0x3eb2fa3e	0.34956545
78	0xbe25e6a4	-0.16201264
79	0xbeb35db2	-0.3503242
80	0xbebc4588	-0.36771798
81	0x3e14cdb4	0.14531595
82	0xbe39d96c	-0.18149346
83	0x3ee20e24	0.44151413
84	0xbdb1f948	-0.08690125
85	0xbe5be098	-0.21472394
86	0x3e28f3f4	0.1649931
87	0x3e4a6ce4	0.19768101
88	0xbd5b4910	-0.053536475
89	0xbea54114	-0.32276213
90	0xbe9a5cf4	-0.30149043
91	0xbee0940c	-0.4386295
92	0x3ee60668	0.44926763
93	0xbe8e7426	-0.2782299
94	0xbeb50566	-0.3535568
95	0x3ec9d52a	0.39420444
96	0x3d6a66e0	0.057227015
97	0xbdf74538	-0.12073749
98	0xbb31bc00	-0.0027120113
99	0x3da14ee8	0.07876378
100	0xbe2ec8d8	-0.17068803
101	0x3e39eb78	0.1815623
102	0x3ec583ae	0.38577026
103	0x3d7a6770	0.061133802
104	0x3e0ab9b0	0.13547397
105	0x3d573f30	0.052550495
106	0xbecb8be2	-0.3975516
107	0xbeab6898	-0.33478236
108	0x3ef176b8	0.47160888
109	0x3ea1e9a8	0.31623578
110	0x3e759f00	0.23986435
111	0xbd23a280	-0.039949894
112	0x3eb4caac	0.35310876
113	0xbec6db12	-0.38839012
114	0x3e1afb04	0.15134817
115	0xbe09b0c8	-0.13446343
116	0x3dc460e0	0.0958879
117	0x3e9feed0	0.31236887
118	0xbec13970	-0.37739134
119	0xbe3d4f68	-0.18487322
120	0xbe4c9518	-0.1997875
121	0xbe8887a4	-0.26665986
122	0xbe37a7c0	-0.17935085
123	0x3e95fdfa	0.2929533
124	0xbe9c30aa	-0.30505878
125	0xbefa6e8c	-0.48912466
126	0x3e81a454	0.25320685
127	0xbe00c29c	-0.12574238

layer2.weight f4 [128, 128]
0	0xbdab7c17	-0.08373278
1	0xbc33bf04	-0.010970835
2	0xbdafbac2	-0.08580543
3	0xbd3c7122	-0.04600633
4	0x3d7863d3	0.060642075
5	0x3d6f5ad0	0.058436215
6	0xbd47ae5d	-0.04875027
7	0x3cb036c3	0.021510487
8	0xbd437e5b	-0.047727924
9	0x3d74bf43	0.059752714
10	0xbd8113b2	-0.06302585
11	0xbb9feb18	-0.0048803203
12	0xbdb45b22	-0.08806445
13	0x3c355eee	0.011069996
14	0x3da57b05	0.08080105
15	0xbbb5b06c	-0.0055447128
16	0xbd828c24	-0.06374386
17	0xbcf9aa69	-0.030476766
18	0x3d339af7	0.043848958
19	0xbdaa7b55	-0.08324305
20	0xbd854c82	-0.06508733
21	0x3d0e99d8	0.034814686
22	0xbd752a28	-0.059854656
23	0x3d99b37e	0.075049385
24	0x3cd30bc1	0.02576244
25	0xbb788fa7	-0.003792742
26	0x3cdbcb50	0.026830345
27	0xbd0646f8	-0.032782525
28	0xbda3e549	-0.08002717
29	0x3d901bc5	0.070365466
30	0xbb1c0e79	-0.0023812337
31	0xbd576646	-0.05258777
32	0x3a200093	0.0006103601
33	0x3d911c89	0.07085521
34	0x3ce6df74	0.028182723
35	0x3d0edc6a	0.034878172
36	0xbdb27732	-0.08714141
37	0x3cf6c896	0.030124944
38	0x3d7d98d5	0.06191333
39	0xbd0c005f	-0.03418004
40	0x3d6c2385	0.05765106
41	0xbd9cdf44	-0.07659772
42	0xbd9c72af	-0.07639062
43	0xbd2c02c1	-0.041994814
44	0xbd60b58e	-0.054860644
45	0xbd2f8ed8	-0.042860836
46	0xbd3d85bf	-0.04627013
47	0x3d11d6ad	0.03560512
48	0x3d25306c	0.04032938
49	0x3c97b0bc	0.01851689
50	0x3d494b5e	0.04914414
51	0x3caf14ab	0.02137216
52	0x3ca0fd25	0.019651959
53	0x3c80fd1d	0.015745694
54	0xbd53a230	-0.051668346
55	0x3d4ceeed	0.050032545
56	0xbcefd53e	-0.029276486
57	0x3d89af81	0.06722928
58	0xbdb23493	-0.08701434
59	0xbd13c006	-0.0360718
60	0xbc8c5725	-0.017131398
61	0x3d341809	0.043968234
62	0x3cb1a478	0.02168487
63	0xbce27efa	-0.027648438
64	0x3d06efa5	0.032943387
65	0x3d36deb6	0.044645987
66	0xbc953d5b	-0.018217733
67	0x3d15239f	0.036410924
68	0x3d953b8c	0.07286748
69	0x3d4f6aab	0.050638836
70	0xbca67ea6	-0.020324063
71	0xbd50c0eb	-0.05096523
72	0xbda174e9	-0.07883627
73	0xbda58ecc	-0.08083877
74	0x3d153536	0.0364277
75	0xbb8a5e29	-0.0042226505
76	0x3cf2c56d	0.029635156
77	0xbda420df	-0.08014082
78	0x3d467ba7	0.048457768
79	0x3cfd38da	0.030910898
80	0x3d0742c7	0.03302267
81	0xbd2a21e3	-0.041536223
82	0xbd297e97	-0.04138049
83	0x3bda8693	0.0066688745
84	0x3d555eaf	0.05209225
85	0xbd48c132	-0.04901237
86	0x3da8afd3	0.08236661
87	0xbd912758	-0.07087582
88	0xbd57d1dd	-0.052690376
89	0xbd45f3cd	-0.04832821
90	0x3be51156	0.006990592
91	0xbcbe6c7e	-0.023245092
92	0xbba87671	-0.0051410724
93	0x3b3fdbfd	0.002927541
94	0x3d9a2766	0.07527046
95	0xbd667484	-0.05626346
96	0xbd0fe640	-0.035131693
97	0xbce4bf72	-0.02792332
98	0x3db172d8	0.08664483
99	0x3ca9c92b	0.020725807
100	0xbd186f28	-0.03721538
101	0xbd7522b3	-0.059847545
102	0x3dadbfe2	0.08483864
103	0xbd0328c4	-0.0320213
104	0x3da8ea80	0.08247852
105	0x3bf91f60	0.007602617
106	0x3d943de5	0.07238368
107	0xbd947bc0	-0.07250166
108	0x3d835752	0.064131394
109	0xbd9bf8c2	-0.07615806
110	0x3d517afd	0.05114268
111	0xbdb1e483	-0.08686163
112	0xbcc48a18	-0.02399163
113	0xbb93c1e2	-0.0045091966
114	0xbd927982	-0.07152082
115	0x3d8ac6a8	0.06776172
116	0x3d74bb32	0.059748836
117	0xbd27218a	-0.04080347
118	0x3bbbaed8	0.00572763
119	0x3d8db4d6	0.06919257
120	0x3db09c6e	0.086235866
121	0xbd2c2e68	-0.042036444
122	0xbd4993bc	-0.049213156
123	0xbd8c1bb4	-0.068412215
124	0x3c836d6c	0.016043387
125	0xbd8b8ba4	-0.06813744
126	0xbd5eea20	-0.054422498
127	0xbb0a2921	-0.0021081644
128	0x3d40eb96	0.047099672
129	0x3d338670	0.04382938
130	0xbd77b29e	-0.060473077
131	0x3d3c2e91	0.045942847
132	0xbc68e39e	-0.014214424
133	0xbda1dabd	-0.07903049
134	0x3d6393c9	0.05556086
135	0x3cdbd148	0.026833192
136	0xbd0f55b1	-0.03499383
137	0xbd21b4b4	-0.039478973
138	0xbd91e3e5	-0.071235456
139	0xbd3da728	-0.04630199
140	0xbd9f592b	-0.07780679
141	0xbd223fc8	-0.039611608
142	0xbc0ecdaf	-0.008716031
143	0x3d8dd4ed	0.06925378
144	0x3cdbe021	0.026840271
145	0x3cfc8a0b	0.030827543
146	0xbd26f8d3	-0.04076464
147	0xbd64c2b4	-0.055849746
148	0xbdb35f1c	-0.08758375
149	0xbd5ee4d2	-0.05441744
150	0x3c834fc4	0.016029246
151	0xbd9d6ce5	-0.076867856
152	0x3d0806b0	0.033209503
153	0x3d34b6ae	0.04411953
154	0xbcfa62cf	-0.030564694
155	0x3c6817d7	0.01416584
156	0xbd9b98b7	-0.075974874
157	0xbd146e21	-0.03623784
158	0x3d2081f9	0.03918645
159	0x3da1296a	0.07869227
160	0x3daa5af8	0.08318132
161	0x3db2f4d4	0.087381035
162	0x3cd3b350	0.025842339
163	0x3d9e952a	0.077432945
164	0x3d66576c	0.056235716
165	0xbcb50378	-0.02209638
166	0x3caccf68	0.021094993
167	0x3cb310ea	0.021858651
168	0x3c318eae	0.01083724
169	0xbdb0036f	-0.08594405
170	0xbca5700d	-0.020195032
171	0xbc66d5e3	-0.0140890805
172	0x3ca5f935	0.020260433
173	0xbd28ac64	-0.04118003
174	0xbdabd57a	-0.08390327
175	0xbd0feeb4	-0.035139754
176	0x3db0b20e	0.08627711
177	0x3d8c85b4	0.06861439
178	0x3cfea9d4	0.03108684
179	0xbd9e27be	-0.07722424
180	0xbbc26b4d	-0.0059332014
181	0x3d56a917	0.05240735
182	0xbd3a768f	-0.045523223
183	0xbd864f52	-0.06558098
184	0x3d134a20	0.035959363
185	0x3d3a7100	0.04551792
186	0x3db44aaf	0.08803307
187	0x3db1fd98	0.08690947
188	0x3d64e1d7	0.05587944
189	0x3d8afd19	0.06786556
190	0xbd34a69b	-0.0441042
191	0x3cea26d0	0.02858296
192	0x3d0d7f47	0.03454521
193	0x3cd56109	0.026047247
194	0xbb58a290	-0.003305588
195	0x3c0f05db	0.008729423
196	0xbd58e817	-0.052955713
197	0xbc337783	-0.010953787
198	0x3c535de3	0.012900802
199	0x3c791ed8	0.015205108
200	0xbcf27eac	-0.029601417
201	0xbd8ec1ea	-0.0697058
202	0xbd3f75f2	-0.04674334
203	0xbd44e8ca	-0.048073567
204	0xbaedba8f	-0.0018137264
205	0xbd63f4f2	-0.05565352
206	0xbd4fc28d	-0.050722647
207	0xbd9bedc3	-0.07613709
208	0x3d9aaf26	0.07552938
209	0xbd2d9b0b	-0.04238419
210	0x3d4b2eda	0.049605228
211	0xbd1c9ae9	-0.03823367
212	0x3c6cb526	0.014447486
213	0x3d27b9a5	0.04094853
214	0xbcf9a910	-0.030476123
215	0x3be3ca1f	0.006951585
216	0xbd214e40	-0.039381266
217	0x3d07ea3d	0.03318237
218	0x3c2a22fe	0.010384319
219	0xbd0816cf	-0.033224877
220	0xbb4c16e2	-0.003114157
221	0xbd3e5dad	-0.046476055
222	0x3d3f6cb8	0.04673454
223	0x3cf5b312	0.029992614
224	0x3d436be2	0.047710307
225	0x3b82084a	0.0039682733
226	0xbc762db0	-0.015025541
227	0x3d2a61d1	0.04159719
228	0x3c567294	0.013088841
229	0xbd760a60	-0.060068488
230	0x3d9573d1	0.07297481
231	0x3d675e97	0.056486692
232	0xbcca9571	-0.024729462
233	0xbda9b42d	-0.08286319
234	0xbdb31f3d	-0.087461926
235	0x3bd981eb	0.006637802
236	0xbc3d1c11	-0.011542336
237	0x3d8165b4	0.063182265
238	0xbd5c3f4d	-0.053771306
239	0x3d0875df	0.033315536
240	0x3c693ddd	0.014235941
241	0xbc44b55c	-0.01200613
242	0xbd0a6853	-0.033790898
243	0xbda3f835	-0.08006326
244	0xbd27183f	-0.040794607
245	0x3c55978d	0.013036621
246	0x3d933fa7	0.07189875
247	0x3cdb7d2e	0.026793089
248	0xbce1e002	-0.027572636
249	0x3cd82550	0.02638498
250	0x3d9b1e10	0.07574093
251	0xbd782309	-0.060580287
252	0xbd49eeb3	-0.049299907
253	0xbd21adf4	-0.039472535
254	0xbb20dca9	-0.0024545586
255	0x3d78c806	0.060737632

layer2.bias f4 [128]
0	0x3966ded0	0.00022017513
1	0xbb7e2a8d	-0.0038782686
2	0x3d92ef9a	0.071746066
3	0xbcc48087	-0.023987068
4	0xbd8d34a0	-0.06894803
5	0x3c8190ca	0.015816111
6	0xbd89a7d5	-0.067214645
7	0xbbd0063e	-0.0063484004
8	0xbd18eac5	-0.03733327
9	0x3c989a69	0.018628316
10	0xbdb4aa1d	-0.08821509
11	0x3d395436	0.045246325
12	0x3cae5ddc	0.02128499
13	0x3d332c8c	0.043743655
14	0x3d0ed9f3	0.03487582
15	0xbd96f660	-0.07371211
16	0x3db2d17b	0.087313615
17	0xbd5ee5d3	-0.054418396
18	0xbd807f56	-0.062742874
19	0xbd9034d6	-0.07041328
20	0x3cf51743	0.029918319
21	0xbd9e989b	-0.07743951
22	0x3d676190	0.056489527
23	0x3cae49aa	0.02127536
24	0x3d970040	0.073730946
25	0x3b1d82f1	0.0024034346
26	0x3d405cf0	0.046963632
27	0xbc3e8d7c	-0.011630412
28	0xbd160752	-0.036628075
29	0xbbb392de	-0.0054801544
30	0x3db4ffdd	0.088378645
31	0xbd7f8941	-0.062386755
32	0xbd77e3f0	-0.060520113
33	0x3d671899	0.056419943
34	0x3d8e930d	0.069616415
35	0x3caa5f84	0.020797499
36	0x3db087c2	0.08619644
37	0xbc383f6d	-0.011245591
38	0x3da17743	0.078840755
39	0xbd8ee071	-0.069764026
40	0x3b478aa1	0.003044762
41	0x3cc3c612	0.023898158
42	0xbd92cdc2	-0.071681514
43	0x3d4431ea	0.047899164
44	0xbdb1e47d	-0.08686159
45	0x3cdb7d77	0.026793225
46	0xbc8a65b8	-0.016894206
47	0xbd2b8cd2	-0.041882344
48	0xbd6d44b4	-0.05792685
49	0xbc2cf8f8	-0.010557406
50	0xbd016fd4	-0.03160079
51	0x3d1e965f	0.038717624
52	0x3d7a2ea3	0.061079632
53	0xbd4aecdf	-0.049542304
54	0x3d128089	0.035767112
55	0xbcddf94f	-0.027096419
56	0xbd96c130	-0.07361066
57	0xbd5b62f0	-0.05356115
58	0x3d1e7fe8	0.0386962
59	0x3cb4f76d	0.022090638
60	0xbc019a61	-0.007910342
61	0x3aabbe22	0.0013102929
62	0xbd854ea0	-0.06509137
63	0xbd77dea8	-0.060515076
64	0xbc9a83dd	-0.018861705
65	0x3b68bfa5	0.003551462
66	0xbd0c7143	-0.034287702
67	0xbd6ed5ec	-0.05830948
68	0xbd8e708c	-0.0695506
69	0xbd8088bc	-0.0627608
70	0x3d850f84	0.064971
71	0x3d67ff6c	0.056640074
72	0x3d42a877	0.04752394
73	0x3c9e89c3	0.0193528
74	0xbc8937fb	-0.016750326
75	0xbbee8b99	-0.007279825
76	0x3d4c34ef	0.04985517
77	0x3d27c88c	0.04096274
78	0xbd16d435	-0.03682347
79	0x3d7868e8	0.06064692
80	0x3d962020	0.07330346
81	0xbc2a8d48	-0.010409661
82	0x3daa05c8	0.08301884
83	0xbda6b4ef	-0.08139979
84	0x3daa97dc	0.08329746
85	0xbd7db42a	-0.061939396
86	0xbc7bd347	-0.015370197
87	0x3cfe49c6	0.031041037
88	0x3d27fd54	0.041013077
89	0xb8dcfe33	-0.00010537766
90	0x3d571b5d	0.05251633
91	0xbc657fa5	-0.014007484
92	0x3d23e127	0.040009644
93	0x3d179b1d	0.037013162
94	0x3d935fad	0.07195983
95	0x3c90602f	0.017623989
96	0xbd1cf5b5	-0.038320262
97	0xbd63be45	-0.055601377
98	0xbc19d508	-0.0093891695
99	0x3da578df	0.08079695
100	0x3da6d3e4	0.08145884
101	0xbc8101dd	-0.015747959
102	0x3c30e505	0.01079679
103	0x3d08f65d	0.033438075
104	0xbda1c6c0	-0.07899237
105	0xbd86e76e	-0.065871105
106	0xbd185915	-0.03719433
107	0x3ccd2a63	0.025044626
108	0xbd350d50	-0.04420215
109	0x3cc7b68f	0.024379043
110	0xbd14dd1c	-0.03634368
111	0xbda459d2	-0.08024944
112	0x3d1e0830	0.038582027
113	0x3d801b27	0.06255179
114	0x3d848867	0.06471329
115	0xbd3d43bb	-0.04620717
116	0x3d86d812	0.06584181
117	0xbd878c8a	-0.066186026
118	0x3b49f9c5	0.003081904
119	0xb90e0a42	-0.00013545997
120	0x396e78c5	0.00022742439
121	0xbd718773	-0.058967065
122	0x3d4e5798	0.050376505
123	0xbd9972ba	-0.074925855
124	0xbd488208	-0.048952132
125	0x3b8ae319	0.004238498
126	0xbda6772e	-0.081282005
127	0x3daf27f3	0.085525416

layer3.weight f4 [4, 128]
0	0x3d8db724	0.06919697
1	0xbdb012d7	-0.085973434
2	0x3d956eb4	0.072965056
3	0xbc249763	-0.010045859
4	0x3d9f2e93	0.07772555
5	0xbc801bae	-0.015638199
6	0x3da45288	0.08023554
7	0xbd37864c	-0.04480581
8	0xbcb4acdf	-0.022055088
9	0xbda88c42	-0.08229877
10	0x3db3c422	0.08777644
11	0xbccb1f6b	-0.024795255
12	0x3cf2aa28	0.029622152
13	0x3b5a54e7	0.0033314766
14	0xbda83080	-0.08212376
15	0xbd81d5ee	-0.06339632
16	0x3d749415	0.059711535
17	0x3d815361	0.063147314
18	0xbdaa4f2d	-0.08315883
19	0x3d58be0d	0.05291562
20	0xbd9f8266	-0.077885434
21	0xbc1ad736	-0.009450724
22	0xbdabe81e	-0.08393882
23	0x3d577b14	0.05260761
24	0x3d51c186	0.05120995
25	0xbd496bf6	-0.049175225
26	0x3af5c8d6	0.001875187
27	0x3cbbcdb7	0.02292524
28	0xbd406aaf	-0.04697674
29	0xbcb77f89	-0.02239968
30	0xbce9f62d	-0.028559769
31	0xbd4dbcbd	-0.050228823
32	0xbd9fe0d5	-0.07806555
33	0x3b489864	0.003060841
34	0xbc29b318	-0.010357641
35	0xbd50c0cc	-0.050965115
36	0x3db29503	0.08719828
37	0xbc8c8cd7	-0.017157001
38	0xbd0ab32b	-0.033862274
39	0xbd1db180	-0.038499355
40	0x3c85136f	0.016244618
41	0x3c60d8ca	0.013723562
42	0xbdb2248e	-0.086983785
43	0xbb978b0f	-0.0046247314
44	0x3dadb055	0.08480898
45	0xbc40cac5	-0.011767094
46	0xbd436a37	-0.047708716
47	0xbc527343	-0.012844863
48	0xbd90a011	-0.0706178
49	0x3da775f9	0.081767984
50	0x3d04a216	0.03238114
51	0x3d161645	0.03664233
52	0xbdac3c4e	-0.0840994
53	0xbcc45285	-0.02396513
54	0xbd4445f8	-0.04791829
55	0xbc9c8e3d	-0.019110793
56	0xbcfc1531	-0.030771824
57	0xbd535adc	-0.051600322
58	0xbd1074a5	-0.03526749
59	0x3d2e17ef	0.042503294
60	0xbcb456a6	-0.022013973
61	0xbd9df1ad	-0.077121116
62	0xbd06ac87	-0.03287938
63	0x3ba60ea4	0.0050676633
64	0xbd2e765b	-0.04259334
65	0x3cc2b8e8	0.02376981
66	0x3d66cf20	0.056349874
67	0x3c2f36d5	0.010694225
68	0x3ce30871	0.027713986
69	0x3d18bc60	0.037289023
70	0x3d67fc3e	0.05663704
71	0x3c00c75a	0.007860029
72	0x3d0fbd38	0.035092562
73	0xb8a499e8	-7.848797e-05
74	0x3d0f144f	0.034931477
75	0xbd83df1c	-0.06439039
76	0x3d8a1633	0.067425154
77	0xbdb13898	-0.086533725
78	0xbc4a77ad	-0.0123576345
79	0xbcf4e515	-0.029894391
80	0xbda598db	-0.080857955
81	0xbd8b7740	-0.068098545
82	0x3c54e353	0.012993651
83	0xbd46c21c	-0.04852496
84	0xbcd172c2	-0.025567416
85	0xbd725cc6	-0.059170507
86	0x3d8639dd	0.06554005
87	0xbd86a53d	-0.065744855
88	0xbbe655e6	-0.007029283
89	0x3a354d13	0.0006916087
90	0xbd8c96ae	-0.06864677
91	0x3c03ec15	0.008051892
92	0x3c521ad4	0.012823779
93	0x3da156cb	0.078778826
94	0xbdab82b6	-0.083745405
95	0x3d988af2	0.07448377
96	0x3cafe4cd	0.021471405
97	0xbda13f20	-0.07873368
98	0xbce930b2	-0.028465603
99	0xbd7ca5fc	-0.061681733
100	0x3da64fe0	0.08120704
101	0xbd8acf61	-0.06777836
102	0x3d899929	0.06718666
103	0x3d01d846	0.031700395
104	0x3d5044e9	0.050846968
105	0xbc7bd7f6	-0.015371313
106	0x3d9ffe1f	0.078121416
107	0x3d30ef64	0.04319705
108	0x3ba5109d	0.005037381
109	0x3d89174d	0.066938974
110	0xbd2f8e4b	-0.04286031
111	0x3d57db42	0.052699335
112	0xbd864e52	-0.06557907
113	0xbd7a75ec	-0.061147615
114	0x3d110a14	0.035410002
115	0x3daf572c	0.085615486
116	0xbbc8dcce	-0.0061298376
117	0x3d47d1c8	0.048784047
118	0x3a7b375c	0.00095831393
119	0x3d124d31	0.035718147
120	0xbd8a0238	-0.067387044
121	0x3d8630b0	0.06552255
122	0xbcaed4d5	-0.02134172
123	0x3da86344	0.082220584
124	0xbd4ea9dc	-0.05045496
125	0x3d638649	0.055547986
126	0x3d87e81b	0.066360675
127	0xbd8bb79b	-0.06822129
128	0x39c6acc7	0.00037894232
129	0x3dac2014	0.08404556
130	0x3d268e32	0.04066295
131	0xbd41df89	-0.04733232
132	0xbda82332	-0.08209838
133	0xbd86b81f	-0.06578087
134	0x3d8d31aa	0.06894238
135	0x3d6b0896	0.057381235
136	0x3d9d1827	0.07670622
137	0xbd501c90	-0.05080849
138	0x3dac34a2	0.084084764
139	0x3da64296	0.08118169
140	0x3d2afc2d	0.0417444
141	0xbce704e3	-0.028200572
142	0x3c5ba5cb	0.013406227
143	0xbc59010c	-0.0132448785
144	0xbbd161c9	-0.0063898307
145	0xbc08332b	-0.008312981
146	0xbd2fc9db	-0.042917114
147	0xbd0284e5	-0.03186502
148	0x3d418dfd	0.04725455
149	0xbd0a895f	-0.033822414
150	0xbcf268d1	-0.029590996
151	0xbba5bb06	-0.0050576953
152	0x3c9e7c92	0.01934651
153	0xbd1f1573	-0.038838815
154	0x3d7149b0	0.058908165
155	0xbd5cf8be	-0.053948157
156	0x3d13e468	0.036106497
157	0xbd8e3e45	-0.06945471
158	0xbd87dc9b	-0.06633874
159	0x3d0ebfd2	0.034850903
160	0x3bc18112	0.005905279
161	0x3d2426fb	0.040076237
162	0x3d80ccc4	0.06289056
163	0xbd340df3	-0.043958616
164	0xbc7182a2	-0.014740618
165	0x3c284404	0.010270122
166	0xbd853cf5	-0.06505767
167	0xbc181706	-0.009282833
168	0x3d25e2ec	0.040499613
169	0x3d88b6cf	0.06675493
170	0xbc3d107c	-0.011539575
171	0x3d5ed020	0.054397702
172	0xbd2e66be	-0.04257845
173	0x3d8021d5	0.06256453
174	0xbd8d5fe4	-0.06903055
175	0x3d9cfe86	0.07665734
176	0xbd269084	-0.040665165
177	0x3d2fdb09	0.042933498
178	0xbd975dbc	-0.07390925
179	0xbd9f9d64	-0.07793692
180	0xbd02f7c4	-0.03197457
181	0x3cfe353f	0.03103125
182	0x3da8935a	0.0823123
183	0x3d41544b	0.04719953
184	0x3c1c2bdc	0.009531941
185	0x3d17ae0d	0.037031222
186	0xbdacf146	-0.08444457
187	0x3b86f745	0.0041188323
188	0x3c154489	0.009110578
189	0xbca2c30a	-0.019868392
190	0x3cd47b56	0.025937717
191	0xbc191d67	-0.009345389
192	0xbcfbdd33	-0.030745124
193	0xbb125f5b	-0.0022334668
194	0x3d963bcb	0.07335623
195	0xbd5abfb5	-0.053405482
196	0xbbcee76c	-0.0063142087
197	0xbd3fde93	-0.046843123
198	0xbc0dde32	-0.0086589325
199	0xbd8cbffc	-0.068725556
200	0xbcac78a1	-0.021053614
201	0xbd6fe5e4	-0.05856885
202	0x3cda8305	0.026673803
203	0x3c965422	0.018350665
204	0xbd9f1bfe	-0.07769011
205	0xbd27b022	-0.040939458
206	0xbd948d7f	-0.07253551
207	0xbd0ff541	-0.035146
208	0x3d93f6dd	0.0722482
209	0x3da063d8	0.07831544
210	0x3d72f6f2	0.059317537
211	0xbd6b8d61	-0.057507876
212	0x3d5bd07f	0.053665634
213	0x3d904ff4	0.070465
214	0xbcc950c5	-0.024574647
215	0x3d9f2114	0.07769981
216	0x3c173186	0.009228116
217	0x3c425f0f	0.011863484
218	0xbb6690ad	-0.0035181448
219	0x3d256baa	0.04038588
220	0xbd49d790	-0.049277842
221	0xbd3eac39	-0.046550963
222	0xbc88ecc3	-0.01671446
223	0xbc848aac	-0.016179405
224	0x3cb1c5e1	0.021700801
225	0x3cab66d3	0.020923054
226	0x3c0651a1	0.008198173
227	0xbcdafb29	-0.02673109
228	0xbc90d03d	-0.01767742
229	0x3ccf978a	0.025340814
230	0xbc6fc01e	-0.014633207
231	0xbd4504e3	-0.048100363
232	0xbc973c3d	-0.018461341
233	0xbd733531	-0.0593769
234	0xbd8fa4e8	-0.07013875
235	0xbd179b1a	-0.03701315
236	0xbc69f3a2	-0.014279278
237	0xbc8a804d	-0.016906882
238	0xbd8e8aa6	-0.06960039
239	0x3ca76262	0.020432655
240	0xbcc95a78	-0.024579272
241	0x3d2c7a39	0.042108748
242	0x3d7f0161	0.062257174
243	0xbda69fdb	-0.08135959
244	0xbcf83d41	-0.030302646
245	0x3cca169b	0.024668982
246	0x3d41ddef	0.047330793
247	0x3c93859f	0.018008051
248	0x3ba64177	0.005073722
249	0x3cb4bba2	0.022062127
250	0x3d8d5b9d	0.069022395
251	0xb8a24d98	-7.739215e-05
252	0xbd6be406	-0.057590507
253	0x3d67b0e9	0.0565652
254	0xbd8ab7cf	-0.0677334
255	0x3d2aed26	0.04173007

layer3.bias f4 [4]
0	0x3d9be347	0.07611709
1	0x3d81356f	0.0630902
2	0xbd338aef	-0.04383367
3	0xba632bff	-0.0008665919

layer1.weight f4 [128, 4]
0	0x3eedc528	0.4643948
1	0x3dc74a58	0.09730977
2	0xbeee2f56	-0.4652049
3	0x3e1c230c	0.15247744
4	0x3d02a830	0.031898677
5	0x3e9e355a	0.3090008
6	0x3e39218c	0.18079203
7	0xbeaa4c0c	-0.33261144
8	0xbda87190	-0.08224785
9	0x3efe699c	0.4968995
10	0x3e97e046	0.29663295
11	0xbeb0fd6a	-0.3456834
12	0x3e7795f4	0.24178296
13	0x3ed25ff2	0.41088825
14	0x3e42ffd0	0.19042897
15	0xbe9dd044	-0.30822957
16	0xbed1a480	-0.40945816
17	0x3daed970	0.08537567
18	0xbdce2428	-0.1006549
19	0x3efaaf16	0.48961705
20	0x3e798a68	0.24369204
21	0xbe9ac076	-0.3022496
22	0xbe3205a8	-0.1738497
23	0x3e721ea4	0.23644501
24	0xbe412a40	-0.18863773
25	0x3d44a330	0.04800719
26	0xbeb3d470	-0.35123014
27	0x3ecc8f5e	0.3995313
28	0x3ef94b5c	0.48690307
29	0xbec4a332	-0.38405758
30	0x3d88cbf0	0.06679523
31	0x3eca3c44	0.39499104
32	0xbe9373a0	-0.28799152
33	0x3ba60600	0.005066633
34	0xbe5b62a8	-0.21424353
35	0xbebd77b8	-0.370054
36	0xbd9cab68	-0.07649881
37	0xbde69398	-0.1125862
38	0xbe5d4444	-0.21608073
39	0xbdde3f48	-0.10851914
40	0x3cde9d00	0.027174473
41	0x3ec03e56	0.3754756
42	0x3d823968	0.063586056
43	0xbe7cc7b0	-0.2468555
44	0x3ef8603c	0.4851092
45	0x3ef46afc	0.47737873
46	0xbe359af4	-0.17734891
47	0xbe55aea8	-0.20867407
48	0x3e66e2b4	0.22547418
49	0x3ea65bc8	0.324919
50	0x3efa0f08	0.48839593
51	0x3e578264	0.21045834
52	0x3e8ce03e	0.27514833
53	0x3c9cc3c0	0.01913631
54	0x3ea9c732	0.33159786
55	0x3e9bd190	0.3043332
56	0xbcdcc200	-0.026947975
57	0xbd4ddd20	-0.05025971
58	0xbe8850b6	-0.26624078
59	0xbdee5808	-0.116378844
60	0x3ed9fcf4	0.425758
61	0xbdd62488	-0.104561865
62	0xbe486e74	-0.19573385
63	0xbec2ea92	-0.38069588
64	0xbe78d7e8	-0.24301112
65	0x3df872f0	0.121312976
66	0xbd111000	-0.03541565
67	0x3ec9a6dc	0.39385116
68	0x3e902e76	0.28160447
69	0xbd0b8c70	-0.03406948
70	0xbe2c5f7c	-0.168333
71	0x3e0c4b58	0.13700616
72	0xbebdd266	-0.37074584
73	0x3e535720	0.20638704
74	0xbe0841e0	-0.1330638
75	0xbefad462	-0.4899016
76	0x3ee236c2	0.44182402
77	0x3eac1802	0.33612067
78	0xbea1339e	-0.31484693
79	0xbeea74e4	-0.45792305
80	0xbdc64e80	-0.096829414
81	0x3e5d7ee0	0.2163043
82	0x3e82c32e	0.25539535
83	0x3d3d5c60	0.046230674
84	0x3c5c3c00	0.0134420395
85	0xbe8e63ea	-0.27810603
86	0x3e3dc28c	0.18531245
87	0x3abdca00	0.0014479756
88	0xbe5fc5dc	-0.21852821
89	0x3e57d080	0.2107563
90	0xbe0678cc	-0.13132018
91	0x3e93092a	0.2871793
92	0xbe98ded6	-0.2985751
93	0x3e868fb4	0.26281512
94	0x3e48e6b4	0.19619256
95	0x3e27f004	0.16400152
96	0xbeedbaf8	-0.46431708
97	0xbe91d9d2	-0.28486496
98	0x3eb6cf08	0.35704827
99	0x3da61fa0	0.08111501
100	0xbcd07d00	-0.02545023
101	0xbeba8ff6	-0.36437958
102	0xbe90e5c6	-0.28300303
103	0x3e47123c	0.1944055
104	0xbdcd0118	-0.10009974
105	0x3e4d018c	0.20020121
106	0xbefc28b4	-0.49249804
107	0xbee74bee	-0.45175117
108	0xbe67db9c	-0.22642368
109	0xbeb5838e	-0.3545193
110	0x3de06610	0.10956967
111	0x3ef36f48	0.47545838
112	0x3e7f963c	0.24959654
113	0xbe1bff98	-0.1523422
114	0x3e87ef9e	0.2655
115	0x3e6e7a44	0.23288828
116	0xbe0c7934	-0.1371811
117	0x3e802aba	0.25032598
118	0x3ebc2234	0.36744845
119	0xbd8af4d8	-0.067849815
120	0xbdd1d1c8	-0.10245091
121	0xbee95e86	-0.45579928
122	0x3d84d280	0.06485462
123	0x3e187f70	0.14892364
124	0x3e294e4c	0.16533774
125	0xbeb80cf2	-0.35947376
126	0xbed75c20	-0.42062473
127	0xbe4bf128	-0.19916213
128	0xbe3ad8b4	-0.18246728
129	0x3e24bcc0	0.16087627
130	0xbdb08f20	-0.08621049
131	0x3edef1ea	0.4354394
132	0xbedef3ee	-0.4354548
133	0xbdcd1088	-0.10012919
134	0xbccb8300	-0.02484274
135	0x3eedc260	0.4643736
136	0x3e9791e0	0.2960348
137	0x3df3db88	0.11907107
138	0x3ec2c58a	0.38041335
139	0xbd1b24c0	-0.037876844
140	0xbe909098	-0.28235316
141	0xbee7aa6a	-0.45247203
142	0xbe4f2258	-0.20227945
143	0x3d156860	0.036476493
144	0x3ed0b3f2	0.40762287
145	0x3eb94b18	0.36190104
146	0x3e1e1d78	0.15440929
147	0xbeb86a36	-0.36018533
148	0xbd8ec5b0	-0.069713
149	0xbd4de5f0	-0.050268114
150	0x3b9ccd00	0.00478518
151	0xbe7cd510	-0.24690652
152	0xbd2932e0	-0.041308284
153	0xbc2adc40	-0.010428488
154	0x3cdc4f60	0.026893318
155	0xbe679f08	-0.2261926
156	0xbdbf1948	-0.09330994
157	0xbef21f2e	-0.47289413
158	0xbe843968	-0.25825047
159	0xbedb365e	-0.42814916
160	0x3e80ab38	0.2513063
161	0x3dd3a820	0.10334802
162	0x3edeb8d2	0.43500382
163	0x3ebf690e	0.37384838
164	0x3e8d217a	0.27564603
165	0xbe99c9fa	-0.30036908
166	0x3ef53202	0.47889715
167	0x3eb12194	0.3459593
168	0x3ecdfafc	0.40230548
169	0x3e9513a6	0.29116553
170	0xbde45eb0	-0.11150873
171	0xbec309e8	-0.38093495
172	0xbee7bfa0	-0.45263386
173	0x3e2df040	0.1698618
174	0xbee7b5e2	-0.45255953
175	0xbd1efed0	-0.038817227
176	0xbe4c64e0	-0.19960356
177	0xbe8b3048	-0.27185273
178	0xbe03faf8	-0.12888706
179	0x3e3741d8	0.17896211
180	0xbcbe7cc0	-0.023252845
181	0xbeec0ffa	-0.4610594
182	0x3c23fe00	0.010009289
183	0x3bf7e800	0.0075654984
184	0xbebff526	-0.3749172
185	0x3efac230	0.48976278
186	0xbe88f496	-0.26749104
187	0x3e965424	0.2936107
188	0x3eb20406	0.34768695
189	0xbdbe9d18	-0.09307307
190	0xbef0d55e	-0.47037786
191	0x3da7b1d0	0.08188212
192	0xbea59c64	-0.3234588
193	0xbe3ff62c	-0.18746251
194	0x3cca00e0	0.02465862
195	0x3ea47a7e	0.32124704
196	0x3d0a8a00	0.033823013
197	0xbec26c10	-0.3797307
198	0x3e982a82	0.2971993
199	0x3e8da3c0	0.27663994
200	0x3ee0d980	0.4391594
201	0xbe8c05d8	-0.27348208
202	0xbedd076c	-0.43169725
203	0x3ddd2138	0.107973516
204	0x3efce212	0.49391228
205	0xbcfb4f60	-0.030677497
206	0x3eac2188	0.33619332
207	0xbe169a7c	-0.14707369
208	0x3e984f16	0.29747838
209	0xbef087b8	-0.46978545
210	0xbdc08f18	-0.09402293
211	0x3ddd3a60	0.1080215
212	0x3eadc1a4	0.339368
213	0x3db61e40	0.088924885
214	0xbe5dbc88	-0.2165395
215	0xbee63e94	-0.44969618
216	0xbe8d22fe	-0.2756576
217	0x3c200040	0.009765685
218	0x3ef3f5d4	0.4764849
219	0x3eb29450	0.34878778
220	0xbe97f3e0	-0.2967825
221	0x3e8f2390	0.2795682
222	0xbce3a1c0	-0.02778709
223	0xbe48f194	-0.19623405
224	0x3e5d13c4	0.21589571
225	0x3daca9d0	0.08430827
226	0xbd3e48a0	-0.04645598
227	0xbe7b3a70	-0.24534011
228	0x3e96b74a	0.29436713
229	0x3c533c80	0.012892842
230	0x3d2803d0	0.04101926
231	0x3d74ff90	0.059814036
232	0xbe8ad734	-0.27117312
233	0xbd963770	-0.073347926
234	0x3e82fbb4	0.2558266
235	0xbd9e7eb8	-0.077390134
236	0x3db08178	0.08618444
237	0x3db41da8	0.08794719
238	0x3efa027c	0.4883002
239	0x3e1f775c	0.15572876
240	0xbea09584	-0.3136407
241	0x3d9ea9e0	0.07747245
242	0xbe760458	-0.24025095
243	0xbedc76e0	-0.43059444
244	0xbed6c84e	-0.41949695
245	0x3e863128	0.26209378
246	0x3ec3a7b6	0.3821389
247	0x3e1a9104	0.15094382
248	0xbd0234c0	-0.031788588
249	0x3d826490	0.06366837
250	0x3e1c335c	0.15253967
251	0x3ecf3ca4	0.40475953
252	0xbe05bbc4	-0.13059908
253	0x3e0e6388	0.13905156
254	0xbec38860	-0.38189983
255	0xbd05f8e0	-0.03270805

layer1.bias f4 [128]
0	0x3c5afd00	0.013365984
1	0x3b9c2f80	0.0047664046
2	0x3eaec068	0.3413117
3	0x3e2a5f30	0.16637874
4	0xbeece07c	-0.46265018
5	0x3d7ad700	0.061240196
6	0xbd8eaee8	-0.069669545
7	0x3d3554a0	0.044270158
8	0x3e884414	0.2661444
9	0xbe88b460	-0.26700115
10	0xbed645c0	-0.4185009
11	0x3ed07ae4	0.40718758
12	0x3e88fa48	0.2675345
13	0x3ea03586	0.31290835
14	0xbee65b62	-0.44991595
15	0x3d98e570	0.07465637
16	0xbda44f00	-0.080228806
17	0x3e4b7f24	0.19872719
18	0xbe8e626c	-0.27809465
19	0x3ed03cb4	0.40671313
20	0x3ef7ac3e	0.48373598
21	0x3e92f656	0.28703564
22	0x3dca7b78	0.09886831
23	0xbe9cdcb6	-0.3063714
24	0xbe8d5f7e	-0.27611917
25	0xbedd3542	-0.43204695
26	0x3e4b8d30	0.19878078
27	0xbd999178	-0.07498449
28	0xbe2ba440	-0.16761875
29	0x3ec846e6	0.3911659
30	0x3e50cbcc	0.20390242
31	0xbee1f380	-0.44131088
32	0xbdb3a5b0	-0.08771837
33	0xbe363dd4	-0.17797023
34	0x3e1b4f24	0.15166909
35	0x3e96e544	0.2947179
36	0xbca6fd20	-0.020384371
37	0xbdd11b80	-0.10210323
38	0xbccb6e80	-0.024832964
39	0x3e9a710c	0.30164373
40	0x3d8fdff0	0.070251346
41	0x3e70d7e0	0.2351985
42	0x3deddfe0	0.116149664
43	0xbe34e5bc	-0.17665762
44	0xbefa6aa8	-0.48909497
45	0xbe884c50	-0.26620722
46	0xbebaaa08	-0.3645785
47	0xbe814a6c	-0.25252092
48	0xbe7cad7c	-0.24675554
49	0x3ebc4a20	0.36775303
50	0x3d319850	0.043358147
51	0xbe782d08	-0.24235928
52	0xbe9e1388	-0.30874276
53	0xbd96cab8	-0.07362884
54	0xbd0292a0	-0.031878114
55	0x3d325c90	0.043545306
56	0xbe3b4ed8	-0.18291795
57	0x3e5e8a64	0.2173248
58	0x3ea22a16	0.31672734
59	0x3e8140f2	0.25244862
60	0x3e3965d4	0.1810525
61	0xbea63530	-0.32462454
62	0x3e98832c	0.29787576
63	0x3ef6f450	0.4823327
64	0x3ed3980a	0.41326934
65	0xbe3e66d4	-0.18593913
66	0x3d570d40	0.05250287
67	0xbdaeab30	-0.08528745
68	0xbea2eb36	-0.31820077
69	0xbed0c754	-0.40777075
70	0xbd2195e0	-0.039449573
71	0xbece0b3c	-0.40242946
72	0x3d7e9a00	0.062158585
73	0x3ef0acc0	0.47006798
74	0x3ec72458	0.38894916
75	0xbef6da50	-0.48213434
76	0xbe7d25a0	-0.24721384
77	0x3eb2fa3e	0.34956545
78	0xbe25e6a4	-0.16201264
79	0xbeb35db2	-0.3503242
80	0xbebc4588	-0.36771798
81	0x3e14cdb4	0.14531595
82	0xbe39d96c	-0.18149346
83	0x3ee20e24	0.44151413
84	0xbdb1f948	-0.08690125
85	0xbe5be098	-0.21472394
86	0x3e28f3f4	0.1649931
87	0x3e4a6ce4	0.19768101
88	0xbd5b4910	-0.053536475
89	0xbea54114	-0.32276213
90	0xbe9a5cf4	-0.30149043
91	0xbee0940c	-0.4386295
92	0x3ee60668	0.44926763
93	0xbe8e7426	-0.2782299
94	0xbeb50566	-0.3535568
95	0x3ec9d52a	0.39420444
96	0x3d6a66e0	0.057227015
97	0xbdf74538	-0.12073749
98	0xbb31bc00	-0.0027120113
99	0x3da14ee8	0.07876378
100	0xbe2ec8d8	-0.17068803
101	0x3e39eb78	0.1815623
102	0x3ec583ae	0.38577026
103	0x3d7a6770	0.061133802
104	0x3e0ab9b0	0.13547397
105	0x3d573f30	0.052550495
106	0xbecb8be2	-0.3975516
107	0xbeab6898	-0.33478236
108	0x3ef176b8	0.47160888
109	0x3ea1e9a8	0.31623578
110	0x3e759f00	0.23986435
111	0xbd23a280	-0.039949894
112	0x3eb4caac	0.35310876
113	0xbec6db12	-0.38839012
114	0x3e1afb04	0.15134817
115	0xbe09b0c8	-0.13446343
116	0x3dc460e0	0.0958879
117	0x3e9feed0	0.31236887
118	0xbec13970	-0.37739134
119	0xbe3d4f68	-0.18487322
120	0xbe4c9518	-0.1997875
121	0xbe8887a4	-0.26665986
122	0xbe37a7c0	-0.17935085
123	0x3e95fdfa	0.2929533
124	0xbe9c30aa	-0.30505878
125	0xbefa6e8c	-0.48912466
126	0x3e81a454	0.25320685
127	0xbe00c29c	-0.12574238

layer2.weight f4 [128, 128]
0	0xbdab7c17	-0.08373278
1	0xbc33bf04	-0.010970835
2	0xbdafbac2	-0.08580543
3	0xbd3c7122	-0.04600633
4	0x3d7863d3	0.060642075
5	0x3d6f5ad0	0.058436215
6	0xbd47ae5d	-0.04875027
7	0x3cb036c3	0.021510487
8	0xbd437e5b	-0.047727924
9	0x3d74bf43	0.059752714
10	0xbd8113b2	-0.06302585
11	0xbb9feb18	-0.0048803203
12	0xbdb45b22	-0.08806445
13	0x3c355eee	0.011069996
14	0x3da57b05	0.08080105
15	0xbbb5b06c	-0.0055447128
16	0xbd828c24	-0.06374386
17	0xbcf9aa69	-0.030476766
18	0x3d339af7	0.043848958
19	0xbdaa7b55	-0.08324305
20	0xbd854c82	-0.06508733
21	0x3d0e99d8	0.034814686
22	0xbd752a28	-0.059854656
23	0x3d99b37e	0.075049385
24	0x3cd30bc1	0.02576244
25	0xbb788fa7	-0.003792742
26	0x3cdbcb50	0.026830345
27	0xbd0646f8	-0.032782525
28	0xbda3e549	-0.08002717
29	0x3d901bc5	0.070365466
30	0xbb1c0e79	-0.0023812337
31	0xbd576646	-0.05258777
32	0x3a200093	0.0006103601
33	0x3d911c89	0.07085521
34	0x3ce6df74	0.028182723
35	0x3d0edc6a	0.034878172
36	0xbdb27732	-0.08714141
37	0x3cf6c896	0.030124944
38	0x3d7d98d5	0.06191333
39	0xbd0c005f	-0.03418004
40	0x3d6c2385	0.05765106
41	0xbd9cdf44	-0.07659772
42	0xbd9c72af	-0.07639062
43	0xbd2c02c1	-0.041994814
44	0xbd60b58e	-0.054860644
45	0xbd2f8ed8	-0.042860836
46	0xbd3d85bf	-0.04627013
47	0x3d11d6ad	0.03560512
48	0x3d25306c	0.04032938
49	0x3c97b0bc	0.01851689
50	0x3d494b5e	0.04914414
51	0x3caf14ab	0.02137216
52	0x3ca0fd25	0.019651959
53	0x3c80fd1d	0.015745694
54	0xbd53a230	-0.051668346
55	0x3d4ceeed	0.050032545
56	0xbcefd53e	-0.029276486
57	0x3d89af81	0.06722928
58	0xbdb23493	-0.08701434
59	0xbd13c006	-0.0360718
60	0xbc8c5725	-0.017131398
61	0x3d341809	0.043968234
62	0x3cb1a478	0.02168487
63	0xbce27efa	-0.027648438
64	0x3d06efa5	0.032943387
65	0x3d36deb6	0.044645987
66	0xbc953d5b	-0.018217733
67	0x3d15239f	0.036410924
68	0x3d953b8c	0.07286748
69	0x3d4f6aab	0.050638836
70	0xbca67ea6	-0.020324063
71	0xbd50c0eb	-0.05096523
72	0xbda174e9	-0.07883627
73	0xbda58ecc	-0.08083877
74	0x3d153536	0.0364277
75	0xbb8a5e29	-0.0042226505
76	0x3cf2c56d	0.029635156
77	0xbda420df	-0.08014082
78	0x3d467ba7	0.048457768
79	0x3cfd38da	0.030910898
80	0x3d0742c7	0.03302267
81	0xbd2a21e3	-0.041536223
82	0xbd297e97	-0.04138049
83	0x3bda8693	0.0066688745
84	0x3d555eaf	0.05209225
85	0xbd48c132	-0.04901237
86	0x3da8afd3	0.08236661
87	0xbd912758	-0.07087582
88	0xbd57d1dd	-0.052690376
89	0xbd45f3cd	-0.04832821
90	0x3be51156	0.006990592
91	0xbcbe6c7e	-0.023245092
92	0xbba87671	-0.0051410724
93	0x3b3fdbfd	0.002927541
94	0x3d9a2766	0.07527046
95	0xbd667484	-0.05626346
96	0xbd0fe640	-0.035131693
97	0xbce4bf72	-0.02792332
98	0x3db172d8	0.08664483
99	0x3ca9c92b	0.020725807
100	0xbd186f28	-0.03721538
101	0xbd7522b3	-0.059847545
102	0x3dadbfe2	0.08483864
103	0xbd0328c4	-0.0320213
104	0x3da8ea80	0.08247852
105	0x3bf91f60	0.007602617
106	0x3d943de5	0.07238368
107	0xbd947bc0	-0.07250166
108	0x3d835752	0.064131394
109	0xbd9bf8c2	-0.07615806
110	0x3d517afd	0.05114268
111	0xbdb1e483	-0.08686163
112	0xbcc48a18	-0.02399163
113	0xbb93c1e2	-0.0045091966
114	0xbd927982	-0.07152082
115	0x3d8ac6a8	0.06776172
116	0x3d74bb32	0.059748836
117	0xbd27218a	-0.04080347
118	0x3bbbaed8	0.00572763
119	0x3d8db4d6	0.06919257
120	0x3db09c6e	0.086235866
121	0xbd2c2e68	-0.042036444
122	0xbd4993bc	-0.049213156
123	0xbd8c1bb4	-0.068412215
124	0x3c836d6c	0.016043387
125	0xbd8b8ba4	-0.06813744
126	0xbd5eea20	-0.054422498
127	0xbb0a2921	-0.0021081644
128	0x3d40eb96	0.047099672
129	0x3d338670	0.04382938
130	0xbd77b29e	-0.060473077
131	0x3d3c2e91	0.045942847
132	0xbc68e39e	-0.014214424
133	0xbda1dabd	-0.07903049
134	0x3d6393c9	0.05556086
135	0x3cdbd148	0.026833192
136	0xbd0f55b1	-0.03499383
137	0xbd21b4b4	-0.039478973
138	0xbd91e3e5	-0.071235456
139	0xbd3da728	-0.04630199
140	0xbd9f592b	-0.07780679
141	0xbd223fc8	-0.039611608
142	0xbc0ecdaf	-0.008716031
143	0x3d8dd4ed	0.06925378
144	0x3cdbe021	0.026840271
145	0x3cfc8a0b	0.030827543
146	0xbd26f8d3	-0.04076464
147	0xbd64c2b4	-0.055849746
148	0xbdb35f1c	-0.08758375
149	0xbd5ee4d2	-0.05441744
150	0x3c834fc4	0.016029246
151	0xbd9d6ce5	-0.076867856
152	0x3d0806b0	0.033209503
153	0x3d34b6ae	0.04411953
154	0xbcfa62cf	-0.030564694
155	0x3c6817d7	0.01416584
156	0xbd9b98b7	-0.075974874
157	0xbd146e21	-0.03623784
158	0x3d2081f9	0.03918645
159	0x3da1296a	0.07869227
160	0x3daa5af8	0.08318132
161	0x3db2f4d4	0.087381035
162	0x3cd3b350	0.025842339
163	0x3d9e952a	0.077432945
164	0x3d66576c	0.056235716
165	0xbcb50378	-0.02209638
166	0x3caccf68	0.021094993
167	0x3cb310ea	0.021858651
168	0x3c318eae	0.01083724
169	0xbdb0036f	-0.08594405
170	0xbca5700d	-0.020195032
171	0xbc66d5e3	-0.0140890805
172	0x3ca5f935	0.020260433
173	0xbd28ac64	-0.04118003
174	0xbdabd57a	-0.08390327
175	0xbd0feeb4	-0.035139754
176	0x3db0b20e	0.08627711
177	0x3d8c85b4	0.06861439
178	0x3cfea9d4	0.03108684
179	0xbd9e27be	-0.07722424
180	0xbbc26b4d	-0.0059332014
181	0x3d56a917	0.05240735
182	0xbd3a768f	-0.045523223
183	0xbd864f52	-0.06558098
184	0x3d134a20	0.035959363
185	0x3d3a7100	0.04551792
186	0x3db44aaf	0.08803307
187	0x3db1fd98	0.08690947
188	0x3d64e1d7	0.05587944
189	0x3d8afd19	0.06786556
190	0xbd34a69b	-0.0441042
191	0x3cea26d0	0.02858296
192	0x3d0d7f47	0.03454521
193	0x3cd56109	0.026047247
194	0xbb58a290	-0.003305588
195	0x3c0f05db	0.008729423
196	0xbd58e817	-0.052955713
197	0xbc337783	-0.010953787
198	0x3c535de3	0.012900802
199	0x3c791ed8	0.015205108
200	0xbcf27eac	-0.029601417
201	0xbd8ec1ea	-0.0697058
202	0xbd3f75f2	-0.04674334
203	0xbd44e8ca	-0.048073567
204	0xbaedba8f	-0.0018137264
205	0xbd63f4f2	-0.05565352
206	0xbd4fc28d	-0.050722647
207	0xbd9bedc3	-0.07613709
208	0x3d9aaf26	0.07552938
209	0xbd2d9b0b	-0.04238419
210	0x3d4b2eda	0.049605228
211	0xbd1c9ae9	-0.03823367
212	0x3c6cb526	0.014447486
213	0x3d27b9a5	0.04094853
214	0xbcf9a910	-0.030476123
215	0x3be3ca1f	0.006951585
216	0xbd214e40	-0.039381266
217	0x3d07ea3d	0.03318237
218	0x3c2a22fe	0.010384319
219	0xbd0816cf	-0.033224877
220	0xbb4c16e2	-0.003114157
221	0xbd3e5dad	-0.046476055
222	0x3d3f6cb8	0.04673454
223	0x3cf5b312	0.029992614
224	0x3d436be2	0.047710307
225	0x3b82084a	0.0039682733
226	0xbc762db0	-0.015025541
227	0x3d2a61d1	0.04159719
228	0x3c567294	0.013088841
229	0xbd760a60	-0.060068488
230	0x3d9573d1	0.07297481
231	0x3d675e97	0.056486692
232	0xbcca9571	-0.024729462
233	0xbda9b42d	-0.08286319
234	0xbdb31f3d	-0.087461926
235	0x3bd981eb	0.006637802
236	0xbc3d1c11	-0.011542336
237	0x3d8165b4	0.063182265
238	0xbd5c3f4d	-0.053771306
239	0x3d0875df	0.033315536
240	0x3c693ddd	0.014235941
241	0xbc44b55c	-0.01200613
242	0xbd0a6853	-0.033790898
243	0xbda3f835	-0.08006326
244	0xbd27183f	-0.040794607
245	0x3c55978d	0.013036621
246	0x3d933fa7	0.07189875
247	0x3cdb7d2e	0.026793089
248	0xbce1e002	-0.027572636
249	0x3cd82550	0.02638498
250	0x3d9b1e10	0.07574093
251	0xbd782309	-0.060580287
252	0xbd49eeb3	-0.049299907
253	0xbd21adf4	-0.039472535
254	0xbb20dca9	-0.0024545586
255	0x3d78c806	0.060737632

layer2.bias f4 [128]
0	0x3966ded0	0.00022017513
1	0xbb7e2a8d	-0.0038782686
2	0x3d92ef9a	0.071746066
3	0xbcc48087	-0.023987068
4	0xbd8d34a0	-0.06894803
5	0x3c8190ca	0.015816111
6	0xbd89a7d5	-0.067214645
7	0xbbd0063e	-0.0063484004
8	0xbd18eac5	-0.03733327
9	0x3c989a69	0.018628316
10	0xbdb4aa1d	-0.08821509
11	0x3d395436	0.045246325
12	0x3cae5ddc	0.02128499
13	0x3d332c8c	0.043743655
14	0x3d0ed9f3	0.03487582
15	0xbd96f660	-0.07371211
16	0x3db2d17b	0.087313615
17	0xbd5ee5d3	-0.054418396
18	0xbd807f56	-0.062742874
19	0xbd9034d6	-0.07041328
20	0x3cf51743	0.029918319
21	0xbd9e989b	-0.07743951
22	0x3d676190	0.056489527
23	0x3cae49aa	0.02127536
24	0x3d970040	0.073730946
25	0x3b1d82f1	0.0024034346
26	0x3d405cf0	0.046963632
27	0xbc3e8d7c	-0.011630412
28	0xbd160752	-0.036628075
29	0xbbb392de	-0.0054801544
30	0x3db4ffdd	0.088378645
31	0xbd7f8941	-0.062386755
32	0xbd77e3f0	-0.060520113
33	0x3d671899	0.056419943
34	0x3d8e930d	0.069616415
35	0x3caa5f84	0.020797499
36	0x3db087c2	0.08619644
37	0xbc383f6d	-0.011245591
38	0x3da17743	0.078840755
39	0xbd8ee071	-0.069764026
40	0x3b478aa1	0.003044762
41	0x3cc3c612	0.023898158
42	0xbd92cdc2	-0.071681514
43	0x3d4431ea	0.047899164
44	0xbdb1e47d	-0.08686159
45	0x3cdb7d77	0.026793225
46	0xbc8a65b8	-0.016894206
47	0xbd2b8cd2	-0.041882344
48	0xbd6d44b4	-0.05792685
49	0xbc2cf8f8	-0.010557406
50	0xbd016fd4	-0.03160079
51	0x3d1e965f	0.038717624
52	0x3d7a2ea3	0.061079632
53	0xbd4aecdf	-0.049542304
54	0x3d128089	0.035767112
55	0xbcddf94f	-0.027096419
56	0xbd96c130	-0.07361066
57	0xbd5b62f0	-0.05356115
58	0x3d1e7fe8	0.0386962
59	0x3cb4f76d	0.022090638
60	0xbc019a61	-0.007910342
61	0x3aabbe22	0.0013102929
62	0xbd854ea0	-0.06509137
63	0xbd77dea8	-0.060515076
64	0xbc9a83dd	-0.018861705
65	0x3b68bfa5	0.003551462
66	0xbd0c7143	-0.034287702
67	0xbd6ed5ec	-0.05830948
68	0xbd8e708c	-0.0695506
69	0xbd8088bc	-0.0627608
70	0x3d850f84	0.064971
71	0x3d67ff6c	0.056640074
72	0x3d42a877	0.04752394
73	0x3c9e89c3	0.0193528
74	0xbc8937fb	-0.016750326
75	0xbbee8b99	-0.007279825
76	0x3d4c34ef	0.04985517
77	0x3d27c88c	0.04096274
78	0xbd16d435	-0.03682347
79	0x3d7868e8	0.06064692
80	0x3d962020	0.07330346
81	0xbc2a8d48	-0.010409661
82	0x3daa05c8	0.08301884
83	0xbda6b4ef	-0.08139979
84	0x3daa97dc	0.08329746
85	0xbd7db42a	-0.061939396
86	0xbc7bd347	-0.015370197
87	0x3cfe49c6	0.031041037
88	0x3d27fd54	0.041013077
89	0xb8dcfe33	-0.00010537766
90	0x3d571b5d	0.05251633
91	0xbc657fa5	-0.014007484
92	0x3d23e127	0.040009644
93	0x3d179b1d	0.037013162
94	0x3d935fad	0.07195983
95	0x3c90602f	0.017623989
96	0xbd1cf5b5	-0.038320262
97	0xbd63be45	-0.055601377
98	0xbc19d508	-0.0093891695
99	0x3da578df	0.08079695
100	0x3da6d3e4	0.08145884
101	0xbc8101dd	-0.015747959
102	0x3c30e505	0.01079679
103	0x3d08f65d	0.033438075
104	0xbda1c6c0	-0.07899237
105	0xbd86e76e	-0.065871105
106	0xbd185915	-0.03719433
107	0x3ccd2a63	0.025044626
108	0xbd350d50	-0.04420215
109	0x3cc7b68f	0.024379043
110	0xbd14dd1c	-0.03634368
111	0xbda459d2	-0.08024944
112	0x3d1e0830	0.038582027
113	0x3d801b27	0.06255179
114	0x3d848867	0.06471329
115	0xbd3d43bb	-0.04620717
116	0x3d86d812	0.06584181
117	0xbd878c8a	-0.066186026
118	0x3b49f9c5	0.003081904
119	0xb90e0a42	-0.00013545997
120	0x396e78c5	0.00022742439
121	0xbd718773	-0.058967065
122	0x3d4e5798	0.050376505
123	0xbd9972ba	-0.074925855
124	0xbd488208	-0.048952132
125	0x3b8ae319	0.004238498
126	0xbda6772e	-0.081282005
127	0x3daf27f3	0.085525416
