custom_maze/static/custom_maze/run/room24814/trained_model.pth (torch, 158738 bytes, 12 tensors)

layer1.weight f4 [128, 16]
0.23021588 -0.015625209 -0.041970998 0.103054106 -0.23573822 -0.016779661 -0.08532193 0.10841355
-0.13278869 -0.17682308 -0.23884314 0.13511899 0.22080982 -0.16568291 -0.07265708 0.21676046
0.13002303 0.14746225 -0.04956153 -0.21292356 0.17981371 0.24168742 -0.20657322 0.10926354
-0.12846103 -0.19961065 0.10083282 0.24281076 0.21381587 0.1676892 -0.07342371 -0.18491146
0.2194488 0.13486257 0.21572527 0.06324822 0.06839472 0.18447682 -0.21385708 0.023832709
0.20148745 -0.13347813 -0.042096347 -0.07000339 -0.088662416 -0.08373174 -0.0003041327 -0.04638076
-0.13558236 -0.10119367 0.07777524 -0.10268524 -0.024205685 -0.03170839 -0.16632235 -0.22428927
0.22489232 0.15375918 0.19589788 0.044353485 0.078428596 -0.056672752 -0.04395446 0.17483506
0.090164155 -0.22559637 -0.2426025 -0.14340732 0.24054769 0.23138219 -0.1186986 -0.20378637
-0.15290123 0.01716888 -0.1666249 -0.14832747 0.1540004 -0.19411436 -0.086502284 -0.19338754
0.17364296 -0.10607648 -0.12683004 -0.093152076 -0.13800475 0.12018472 -0.12160969 0.03350371
-0.083120465 0.074299544 -0.232396 -0.22810885 0.06356472 -0.09517211 -0.1332506 -0.23402044
0.2486332 -0.24281591 0.07887074 -0.2367312 -0.19354221 0.037852675 -0.10364115 0.18424267
0.08054185 0.23418236 -0.0065697134 0.12628907 0.1651771 -0.18557033 0.072410196 0.10893074
-0.04013759 -0.15960404 0.011593878 0.044102997 0.12667644 0.008167505 -0.011829793 0.19575381
0.21563697 -0.20298469 0.1852642 0.19794896 0.06453565 -0.033816725 0.22778541 -0.13208383
0.008784741 0.19652593 0.091703296 0.021156758 -0.02720064 -0.037952572 -0.11848584 -0.23855469
-0.011511117 0.08741596 -0.027767152 -0.04238847 -0.14149818 -0.10547274 0.13293391 0.23512906
0.18958896 -0.17806065 0.16238812 -0.20773083 -0.028623462 0.15098915 -0.019550413 0.24741313
-0.2259027 0.011017114 0.10818744 0.041379184 0.14262205 -0.09016591 -0.21659034 -0.14636788
0.048570395 -0.060971618 -0.11324453 -0.22817603 -0.17627364 -0.18256557 -0.039845407 -0.13421193
0.22386172 -0.1466237 -0.13330787 0.017615676 0.012885779 -0.09970304 0.16013765 0.07708165
-0.21460322 -0.1759893 -0.008683234 -0.08960754 -0.111337006 -0.056135774 -0.07374981 -0.028530657
0.10236931 0.21065572 -0.1917305 -0.19790038 0.12659636 -0.16276044 0.14547491 -0.19350207
-0.050256073 -0.2021268 0.17017958 -0.0898093 0.14793578 -0.16006115 -0.10872269 0.24523667
-0.12695628 -0.24528942 -0.11397514 -0.049712867 -0.16735518 -0.111590266 0.07994908 0.042223483
0.15321532 0.17578354 0.16299146 -0.04815209 0.23810375 -0.05207303 0.2448732 0.1171895
-0.003997147 -0.22093746 -0.19515848 -0.008087844 0.23170498 -0.23420891 0.07111561 -0.039260894
0.09751347 -0.019460052 0.087641805 0.076969534 0.090889305 0.011571348 0.1773532 0.09332499
-0.061717242 -0.10234898 -0.09767184 -0.23289171 -0.18363056 0.16900268 0.2100501 -0.08677107
0.11930013 0.18278325 0.23928404 -0.114881486 0.016443282 -0.14742324 0.115142286 -0.09168711
-0.054677844 -0.10637683 0.12227428 -0.091257006 0.18947163 -0.09620848 0.15927622 0.19594288
00000000: b6bd 6b3e 7000 80bc c8e9 2bbd 080e d33d
00000010: 5c65 71be 8075 89bc 44bd aebd ec07 de3d
00000020: c2f9 07be 1c11 35be 4c93 74be a25c 0a3e
00000030: f81b 623e c8a8 29be 3ccd 94bd 74f6 5d3e
00000040: c224 053e 5800 173e 0801 4bbd a208 5abe
00000050: 1621 383e e87c 773e ee87 53be 90c5 df3d
00000060: 4a8b 03be bc66 4cbe 7081 ce3d 62a3 783e
00000070: 8cf2 5a3e b8b6 2b3e 2c5f 96bd 6e59 3dbe
00000080: 30b7 603e 6a19 0a3e 16e7 5c3e 4888 813d
00000090: 8812 8c3d 7ee7 3c3e 5afd 5abe d03c c33c
000000a0: ba52 4e3e 7eae 08be 386d 2cbd f05d 8fbd
000000b0: a494 b5bd 8c7b abbd 0074 9fb9 c0f9 3dbd
000000c0: 1ad6 0abe a03e cfbd a048 9f3d a44c d2bd
000000d0: 004b c6bc a8e0 01bd 6850 2abe 16ac 65be
000000e0: 2c4a 663e 0c73 1d3e 7499 483e 00ac 353d
000000f0: 2c9f a03d b021 68bd 9809 34bd f607 333e
00000100: fca7 b83d bc02 67be ca6c 78be 5ed9 12be
00000110: 2252 763e 74ef 6c3e 4018 f3bd 60ad 50be
00000120: 2492 1cbe c0a5 8c3c b89f 2abe 28e3 17be
00000130: 48b2 1d3e eac5 46be 1c28 b1bd 6207 46be
00000140: 76cf 313e a03e d9bd bcdf 01be 84c6 bebd
00000150: 1e51 0dbe 6823 f63d 800e f9bd 303b 093d
00000160: 103b aabd 5c2a 983d 38f9 6dbe 5e95 69be
00000170: 382e 823d 98e9 c2bd d872 08be 0ea3 6fbe
00000180: b499 7e3e bca4 78be fc86 a13d aa69 72be
00000190: ee2f 46be 680b 1b3d d041 d4bd 1caa 3c3e
000001a0: 20f3 a43d 80cd 6f3e c046 d7bb ec51 013e
000001b0: 3024 293e 2606 3ebe cc4b 943d 1417 df3d
000001c0: 5067 24bd 3e6f 23be 40f4 3d3c 58a5 343d
000001d0: 78b7 013e 00d1 053c c0d1 41bc b073 483e
000001e0: f0cf 5c3e 38db 4fbe e6b5 3d3e 22b3 4a3e
000001f0: 442b 843d 6883 0abd 9440 693e fc40 07be
00000200: e0ed 0f3c 183e 493e f0ce bb3d f050 ad3c
00000210: e0d3 debc 2874 1bbd b4a8 f2bd ae47 74be
00000220: 2099 3cbc 2407 b33d f077 e3bc 889f 2dbd
00000230: e6e4 10be 1802 d8bd d41f 083e acc5 703e
00000240: 9c23 423e 8855 36be 1249 263e 64b7 54be
00000250: c07b eabc e69c 1a3e 3028 a0bc de59 7d3e
00000260: 0a53 67be 2081 343c 6091 dd3d 387d 293d
00000270: 840b 123e e8a8 b8bd dcc9 5dbe 76e1 15be
00000280: c0f1 463d 60bd 79bd c0ec e7bd faa6 69be
00000290: 1481 34be 78f2 3abe f034 23bd da6e 09be
000002a0: 023c 653e 8624 16be dc81 08be c04e 903c
000002b0: e01e 533c 1c31 ccbd 20fb 233e fcdc 9d3d
000002c0: f2c0 5bbe 8a36 34be 2044 0ebc 2884 b7bd
000002d0: a804 e4bd a0ee 65bd 240a 97bd 20b9 e9bc
000002e0: 00a7 d13d 22b6 573e 0055 44be 66a6 4abe
000002f0: 7aa2 013e acaa 26be 60f7 143e 6825 46be
00000300: 50d9 4dbd 54fa 4ebe 8e43 2e3e f0ed b7bd
00000310: 7a7c 173e 12e7 23be 00aa debd 521f 7b3e
00000320: d400 02be 262d 7bbe cc6b e9bd b89f 4bbd
00000330: 285f 2bbe 7089 e4bd 58bc a33d 88f2 2c3d
00000340: 7ae4 1c3e 9a00 343e 3ce7 263e 203b 45bd
00000350: 78d1 733e 884a 55bd 0ac0 7a3e 0c01 f03d
00000360: 80fa 82bb 6e3d 62be a0d7 47be e082 04bc
00000370: 1244 6d3e 76d4 6fbe 10a5 913d 08d0 20bd
00000380: 24b5 c73d b06a 9fbc 8c7d b33d 34a2 9d3d
00000390: 2c24 ba3d c095 3d3c 149c 353e 2c21 bf3d
000003a0: 38cb 7cbd 589c d1bd 2c08 c8bd 2a7b 6ebe
000003b0: a609 3cbe 0a0f 2d3e 6017 573e 08b5 b1bd
000003c0: a053 f43d 882b 3b3e e006 753e fc46 ebbd
000003d0: 10b4 863c 1ef6 16be b8cf eb3d 74c6 bbbd
000003e0: e0f5 5fbd 18dc d9bd f06a fa3d f4e4 babd
000003f0: da04 423e f408 c5bd 4e19 233e 40a5 483e

layer1.bias f4 [128]
0.22400984 0.14860666 0.050254792 0.14108357 -0.0056916773 0.08639103 0.23264721 -0.15175614
0.03459981 0.043965638 0.19651896 0.20650765 -0.20215574 -0.18932807 0.056334972 0.21074143
0.0912272 -0.17656085 -0.17294943 0.23510626 0.16209048 -0.09693807 0.087984085 -0.015659064
0.14931694 -0.079431504 0.025119543 -0.20980507 -0.07179499 -0.06121555 0.21284503 -0.16612157
-0.0070333183 -0.14955875 -0.00530833 0.051809102 -0.0338476 0.104560465 -0.11585209 -0.111617
0.11521393 0.0103957355 0.12031299 -0.22977701 0.09673399 -0.09358868 -0.10454926 -0.04583317
0.20921072 0.10420549 -0.20961574 0.24515644 -0.036557823 -0.038810074 -0.047453403 -0.08787629
0.0166789 0.20623314 -0.07588732 -0.117118776 -0.023371905 -0.17303255 0.06730214 0.21948135
-0.16737536 -0.17119989 0.15362558 0.105617166 -0.0068686306 -0.12580815 0.032568276 0.19770727
0.23898807 0.039653957 0.092455745 -0.04832512 0.09289187 -0.17891163 0.017169386 -0.2059387
-0.058498055 -0.2376337 -0.0022326708 -0.0052446425 0.15588284 0.04703459 0.05318463 0.21725652
-0.02293399 -0.09268588 0.05762258 0.06598222 -0.08288014 -0.008554637 -0.1415942 0.13286304
0.24022695 -0.20485252 0.14823055 0.16039011 0.007943124 0.1942184 0.02165538 0.0028200448
-0.15003788 0.12427288 -0.2305274 -0.027964711 -0.23626146 -0.100322545 0.05620736 -0.009618968
0.13342384 -0.14572093 -0.024059772 -0.15183201 0.12272453 0.14236012 -0.19212389 0.23091993
0.13338682 0.21268806 0.17950895 -0.12698513 0.08017558 -0.16683927 -0.06747231 0.20274463
00000000: d662 653e 582c 183e f8d7 4d3d 3678 103e
00000010: 4081 babb c8ed b03d 123b 6e3e f665 1bbe
00000020: 88b8 0d3d 5015 343d 443c 493e be76 533e
00000030: ea01 4fbe 38df 41be 80bf 663d 9acc 573e
00000040: 54d5 ba3d 5ecc 34be a819 31be b2bf 703e
00000050: 0cfb 253e 7887 c6bd 0031 b43d 7047 80bc
00000060: 8ae6 183e fcac a2bd 80c7 cd3c 24d7 56be
00000070: 4009 93bd 28bd 7abd 0cf4 593e c61b 2abe
00000080: c077 e6bb ee25 19be 80f1 adbb c835 543d
00000090: c8a3 0abd cc23 d63d dc43 edbd 7497 e4bd
000000a0: 48f5 eb3d e052 2a3c a866 f63d aa4a 6bbe
000000b0: 781c c63d 6cab bfbd ec1d d6bd 90bb 3bbd
000000c0: 563b 563e b069 d53d 82a5 56be 4a0a 7b3e
000000d0: a8bd 15bd 50f7 1ebd 805e 42bd 7cf8 b3bd
000000e0: 30a2 883c c82e 533e d06a 9bbd f8db efbd
000000f0: 7076 bfbc 722f 31be b4d5 893d b8bf 603e
00000100: 7264 2bbe 064f 2fbe 0650 1d3e d04d d83d
00000110: 4012 e1bb dad3 00be 5066 053d c673 4a3e
00000120: 4ab9 743e 306c 223d 7059 bd3d 90f0 45bd
00000130: 183e be3d 9c34 37be d0a6 8c3c 98e1 52be
00000140: a89b 6fbd 4056 73be 0052 12bb 40db abbb
00000150: c09f 1f3e 58a7 403d 20d8 593d 7e78 5e3e
00000160: 10e0 bbbc 18d2 bdbd a805 6c3d b021 873d
00000170: 10bd a9bd c028 0cbc 12fe 10be 400d 083e
00000180: 0efe 753e dcc4 51be c0c9 173e 4e3d 243e
00000190: e023 023c 30e1 463e a066 b13c 80d0 383b
000001a0: 88a3 19be c882 fe3d 600f 6cbe 4016 e5bc
000001b0: 86ee 71be e875 cdbd b039 663d e098 1dbc
000001c0: 42a0 083e de37 15be 0019 c5bc da79 1bbe
000001d0: 0057 fb3d dac6 113e 20bc 44be 4676 6c3e
000001e0: 8e96 083e e6ca 593e 32d1 373e 6408 02be
000001f0: 1833 a43d ead7 2abe ec2e 8abd 4a9c 4f3e

layer2.weight f4 [128, 128]
-0.0031403722 -0.07602833 0.036532752 0.047003366 -0.04960272 0.037322097 -0.032597743 0.028071286
0.08229704 0.012507804 -0.055589806 -0.07465846 -0.018999798 0.019679375 -0.04320698 0.02009392
-0.02140609 -0.019948661 -0.004774163 -0.030886296 0.07242764 0.04347265 -0.02447184 -0.08465918
0.046462454 0.08460591 -0.029513204 0.08734977 0.003243853 -0.026814668 0.06572837 -0.021598922
-0.023350175 0.010454462 -0.052734524 -0.042127546 0.046295267 0.02790746 0.039061297 -0.009495169
0.00075990765 0.07975717 0.03906077 0.0056899507 0.01996414 0.0013842711 -0.022918317 0.040307876
-0.038156006 0.033799738 0.01602418 0.08826726 0.013337212 -0.048279077 -0.056613185 0.051310606
-0.010573138 -0.064629324 -0.06404682 0.06972096 0.07679603 -0.003971603 0.00893922 -0.029187746
-0.04921387 -0.08699946 -0.08656743 -0.0009391055 -0.059164785 -0.050431106 -0.0073582814 0.0723433
-0.0384076 0.02079145 -0.0636213 0.01829818 0.024803536 -0.063798375 0.03601503 0.07823658
0.06754898 0.074564666 -0.0055912323 -0.00415864 0.06533303 0.03877806 0.035154738 0.04223132
0.07576544 -0.059518166 0.07874983 0.0305774 0.023987383 0.06077608 0.041273408 -0.03811512
0.068499535 0.039120905 0.020132221 0.0546426 0.029446896 0.05337091 0.06490566 0.06078291
-0.06848466 -0.01731932 0.039957266 0.011034056 -0.018166956 0.033817545 -0.06618567 -0.042226736
-0.025926992 -0.007846121 0.049870268 0.08011636 -0.031582024 0.034880467 -0.07260682 0.04979164
0.0063162637 0.061963957 0.061516013 0.05440192 0.036592536 0.0029105244 0.088347256 -0.072745204
-0.07222539 -0.078992404 -0.070324704 0.07260769 -0.043996073 -0.018534066 -0.00526903 0.009459659
-0.046716418 -0.008242543 0.0034022622 0.07203882 0.082121454 0.08180014 0.034721773 0.0005779597
0.055789635 0.024444856 -0.08259652 0.00945338 0.03278755 0.063440606 0.077265866 -0.026956482
-0.067159474 -0.06547658 -0.040086817 0.042535063 0.057058267 0.039644748 0.07721578 0.03586916
0.032846365 -0.018262481 -0.059854507 0.04898627 0.03818492 0.02524435 -0.07334347 -0.014478043
0.06268444 0.019004993 -0.0037829115 0.010730545 -0.08544594 -0.038081206 -0.062580146 -0.00299427
0.022462163 -0.071502514 -0.043633 -0.012096219 -0.04764211 0.0056177005 0.037657954 0.059758328
-0.086975545 -0.051421642 0.035232205 0.0577539 -0.048611563 0.0022274188 -0.020575048 -0.021146411
0.078768305 0.013869916 -0.08747027 -0.008655898 0.05835854 0.02318439 0.020687707 0.040455107
0.03691733 -0.06765867 -0.079588704 -0.080056675 0.08720918 0.01051017 -0.039459765 0.048655912
0.013825357 -0.031879548 0.004195529 -0.07061131 -0.020781504 0.04180767 0.088276744 0.043845892
0.032134317 -0.039247483 0.04639721 0.07019973 0.07082461 0.0048199664 0.036572263 0.07764225
-0.008176025 0.04841755 -0.026221188 -0.06555673 0.08230669 -0.06549208 0.057245303 0.043860707
0.06289316 0.024477487 -0.03974174 0.008775037 0.018658957 -0.062538154 0.047266826 0.008237391
-0.013906005 0.031484917 -0.087125175 0.014131101 0.0063382117 -0.08402615 -0.0091595845 0.064221874
-0.029723201 -0.02658521 0.06591573 0.064540975 0.020499952 0.066830896 -0.077682465 -0.024831722
00000000: b4ce 4dbb beb4 9bbd 5ea3 153d 9a86 403d
00000010: 392c 4bbd 0edf 183d 3685 05bd c1f5 e53c
00000020: 5a8b a83d 88ed 4c3c 23b2 63bd 89e6 98bd
00000030: 77a5 9bbc a436 a13c cdf9 30bd 019c a43c
00000040: d35b afbc 606b a3bc 9570 9cbb 4205 fdbc
00000050: f154 943d 6110 323d 2b79 c8bc cb61 adbd
00000060: 6a4f 3e3d dd45 ad3d adc5 f1bc 70e4 b23d
00000070: d396 543b 6faa dbbc 989c 863d 39f0 b0bc
00000080: de48 bfbc 3149 2b3c 2800 58bd ef8d 2cbd
00000090: 1ba0 3d3d 309e e43c bdfe 1f3d a091 1bbc
000000a0: 8a34 473a ba57 a33d 30fe 1f3d c472 ba3b
000000b0: d68b a33c 6e70 b53a 32bf bbbc df19 253d
000000c0: 7949 1cbd 9871 0a3d 2445 833c 77c5 b43d
000000d0: 5284 5a3c 48c0 45bd 3ae3 67bd 122b 523d
000000e0: f43a 2dbc 615c 84bd fb2a 83bd ddc9 8e3d
000000f0: 3d47 9d3d 3824 82bb ce75 123c 241b efbc
00000100: 7c94 49bd c62c b2bd 444a b1bd 4e2e 76ba
00000110: c656 72bd d990 4ebd bd1d f1bb b928 943d
00000120: 4a51 1dbd d552 aa3c e24b 82bd 11e6 953c
00000130: c930 cb3c b9a8 82bd 7f84 133d 803a a03d
00000140: 1f57 8a3d 5cb5 983d a836 b7bb 3345 88bb
00000150: 53cd 853d bed5 1e3d 6afe 0f3d c0fa 2c3d
00000160: e92a 9b3d 52c9 73bd 9747 a13d 757d fa3c
00000170: 3081 c43c 57f0 783d 4e0e 293d 9a1e 1cbd
00000180: 7c49 8c3d 3e3d 203d 54ec a43c ebd0 5f3d
00000190: 9e3a f13c 759b 5a3d 42ed 843d 80f7 783d
000001a0: af41 8cbd 3fe1 8dbc 3baa 233d 2fc8 343c
000001b0: ded2 94bc 4484 0a3d 5a8c 87bd f1f5 2cbd
000001c0: d864 d4bc 048d 00bc c444 4c3d 0c14 a43d
000001d0: 275c 01bd d2de 0e3d e2b2 94bd 52f2 4b3d
000001e0: a9f8 ce3b ebcd 7d3d 37f8 7b3d 8cd4 5e3d
000001f0: 0ee2 153d 7fbe 3e3b 68ef b43d 70fb 94bd
00000200: e8ea 93bd c5c6 a1bd 6606 90bd 57b3 943d
00000210: 3a35 34bd c1d4 97bc d4a7 acbb b0fc 1a3c
00000220: b759 3fbd bb0b 07bc 7df8 5e3b 1789 933d
00000230: 4b2f a83d d586 a73d 6b38 0e3d 3882 173a
00000240: ac83 643d 9440 c83c 5d28 a9bd 59e2 1a3c
00000250: 3d4c 063d 26ed 813d 913d 9e3d d7d3 dcbc
00000260: e88a 89bd 9618 86bd 1332 24bd 3f39 2e3d
00000270: eeb5 693d 8862 223d 4f23 9e3d 8aeb 123d
00000280: e989 063d 339b 95bc 002a 75bd d4a5 483d
00000290: ca67 1c3d 3dcd ce3c 1a35 96bd 5035 6dbc
000002a0: b360 803d 5cb0 9b3c b9ea 77bb 2bcf 2f3c
000002b0: 48fe aebd 0afb 1bbd 052a 80bd 843b 44bb
000002c0: 9202 b83c e96f 92bd 84b8 32bd 382f 46bc
000002d0: 6024 43bd b014 b83b 3a3f 1a3d 26c5 743d
000002e0: 3c20 b2bd 809f 52bd a54f 103d 5a8f 6c3d
000002f0: eb1c 47bd e3f9 113b 018d a8bc 3d3b adbc
00000300: 4751 a13d a53e 633c 9d23 b3bd 78d1 0dbc
00000310: 5d09 6f3d 31ed bd3c 4479 a93c 41b4 253d
00000320: a036 173d a190 8abd 67ff a2bd c1f4 a3bd
00000330: ba9a b23d d932 2c3c 90a0 21bd 6c4b 473d
00000340: c083 623c 2194 02bd a67a 893b aa9c 90bd
00000350: f93d aabc 853e 2b3d 70ca b43d c097 333d
00000360: 469f 033d f8c1 20bd 000b 3e3d e0c4 8f3d
00000370: 7e0c 913d cff0 9d3b cccc 153d e602 9f3d
00000380: bcf4 05bc 7b51 463d d1cd d6bc 9b42 86bd
00000390: 6990 a83d b620 86bd 0d7a 6a3d 49a7 333d
000003a0: 21ce 803d 0385 c83c 3cc8 22bd 2cc5 0f3c
000003b0: abda 983c 0114 80bd dc9a 413d 1ff6 063c
000003c0: 03d6 63bc 54f6 003d af6e b2bd 2286 673c
000003d0: c6b0 cf3b e715 acbd 1512 16bc c286 833d
000003e0: 127e f3bc 3ac9 d9bc d4fe 863d 0f2e 843d
000003f0: 84ef a73c a3de 883d fc17 9fbd e56b cbbc

layer2.bias f4 [128]
0.0034459156 -0.07615547 -0.06961029 -0.00959728 -0.018083042 -0.028380992 -0.019982906 -0.025433958
0.042049225 0.08593212 -0.05774277 0.053995803 -0.05289835 0.00080335053 0.043762274 0.04231921
0.024387283 -0.06385682 0.04210705 0.06363406 0.004533821 -0.041458957 -0.026627336 0.07688977
-8.055316e-05 0.05570161 -0.068535686 -0.01097642 0.0136069935 0.025771659 0.084776066 0.06950325
0.03627221 -0.020139871 0.0069858297 -0.04228632 -0.0757839 -0.049606334 0.015541861 -0.07658293
0.01674801 0.052573916 -0.0056079333 0.08657261 0.08217059 0.06053752 0.015206403 -0.08797381
-0.07448996 0.05873138 -0.048019737 -0.056070175 -0.0047689793 0.026052715 -0.011565021 0.006450101
0.0008251931 -0.02950507 -0.020636845 0.07145746 0.038390175 -0.00041555738 -0.011041905 0.023002412
0.06652291 -0.011592923 0.05012612 -0.023888359 0.018176291 -0.022931067 -0.068870455 -0.011696287
-0.024499815 -0.057614468 -0.021584138 -0.05836293 0.05422135 0.043116603 -0.06741778 -0.057032913
-0.03384906 -0.06063229 -0.0059143724 0.059563525 -0.07728912 -0.0413426 -0.03608869 0.03635178
-0.016363924 -0.054391246 0.04666756 -0.046938185 -0.04523907 -0.03900206 0.0067057954 -0.007949053
-0.040521212 0.015581026 0.019956848 0.010444094 -0.02034736 -0.026776599 -0.034641232 -0.057624772
-0.04895823 0.022476714 0.023573576 -0.006934305 -0.082188495 0.012499164 -0.043476906 -0.08197709
-0.08797389 0.0693657 0.07092713 -0.084336296 0.079503715 0.05467736 -0.05827657 0.04996061
0.0009505484 0.017564656 0.07466346 -0.061489914 -0.008325509 0.020132337 -0.06432892 -0.032627847
00000000: dfd4 613b 66f7 9bbd d78f 8ebd e93d 1dbc
00000010: e322 94bc 417f e8bc 31b3 a3bc e05a d0bc
00000020: cf3b 2c3d 2efd af3d af83 6cbd b42a 5d3d
00000030: f1ab 58bd f197 523a 1240 333d e856 2d3d
00000040: d7c7 c73c 5dc7 82bd 7178 2c3d 9352 823d
00000050: 7290 943b ded0 29bd 9221 dabc 6278 9d3d
00000060: a6ee a8b8 5f27 643d 705c 8cbd 71d6 33bc
00000070: deef 5e3c 161f d33c 139f ad3d b857 8e3d
00000080: 2b92 143d 5ffc a4bc 63e9 e43b 6c34 2dbd
00000090: 9734 9bbd 0330 4bbd 4aa3 7e3c 83d7 9cbd
000000a0: 1f33 893c bf57 573d c1c2 b7bb fb4c b13d
000000b0: 0e49 a83d 31f6 773d 4724 793c 9d2b b4bd
000000c0: 318e 98bd 5190 703d 58b0 44bd d7a9 65bd
000000d0: 1945 9cbb 816c d53c 377b 3dbc 5e5b d33b
000000e0: c651 583a 9eb4 f1bc 9a0e a9bc 4a58 923d
000000f0: 043f 1d3d 2bdf d9b9 1be9 34bc 8e6f bc3c
00000100: 2a3d 883d 3ef0 3dbc 0c51 4d3d 85b1 c3bc
00000110: 72e6 943c efd9 bbbc f40b 8dbd c9a1 3fbc
00000120: d6b3 c8bc 26fd 6bbd 38d1 b0bc f80d 6fbd
00000130: 3517 5e3d 099b 303d 5512 8abd 589b 69bd
00000140: 50a5 0abd 9059 78bd 5acd c1bb e2f8 733d
00000150: c249 9ebd dc56 29bd bcd1 13bd 9be5 143d
00000160: a30d 86bc 5bc9 5ebd 7c26 3f3d 4142 40bd
00000170: 9a4c 39bd a0c0 1fbd 4abc db3b bf3c 02bc
00000180: 92f9 25bd 8f47 7f3c 8b7c a33c b51d 2b3c
00000190: 82af a6bc 995a dbbc f7e3 0dbd f407 6cbd
000001a0: 6d88 48bd 1621 b83c 5f1d c13c 2b39 e3bb
000001b0: 7152 a8bd 4bc9 4c3c d714 32bd 9be3 a7bd
000001c0: a82b b4bd 9b0f 8e3d 3e42 913d 82b8 acbd
000001d0: d8d2 a23d 5ef5 5f3d 6ab3 6ebd 7fa3 4c3d
000001e0: 392e 793a c1e3 8f3c 28e9 983d d9dc 7bbd
000001f0: b767 08bc 92ec a43c e1be 83bd c7a4 05bd

layer3.weight f4 [4, 128]
0.031750686 -0.06070952 0.06896501 0.011954943 -0.012774805 -0.056680154 -0.069344915 -0.0841059
-0.031137543 -0.05399574 -0.070039324 0.025221094 0.0067717866 -0.037789192 0.07597288 0.05957305
-0.0624854 -0.050663576 0.011698901 -0.03370441 0.06721638 -0.08619791 -0.012288809 0.014293092
0.004284396 0.08612669 0.08816706 0.04574235 0.044691075 0.017274475 -0.067522034 -0.007257097
-0.044187915 0.08069506 0.08619242 0.05256933 0.0055360305 -0.016371194 -0.08199214 -0.08452762
0.055846196 0.062286455 0.050413877 -0.07872277 -0.0690564 -0.0038081259 0.040301796 0.0053498046
-0.02604061 -0.08556606 -0.07650169 -0.08563326 -0.026251206 -0.011146397 -0.0630416 -0.076770924
0.0346895 0.057152886 -0.02817344 -0.010866711 0.08277152 -0.008264912 -0.008357457 -0.037665237
0.023085041 0.035933938 -0.059716046 -0.06675819 0.0062815556 0.0123761585 0.05995309 -0.0529992
-0.051284105 -0.05540673 -0.085316844 0.04198455 -0.08707837 0.08092022 -0.029165883 0.055048693
-0.083975695 0.07476229 0.03349352 0.03255219 0.02988416 -0.069717474 0.06769148 -0.029354995
0.057513177 -0.08288653 -0.06510588 -0.029756706 -0.07992657 0.009658593 0.048655387 0.057111148
-0.07206343 -0.029247278 0.067015834 -0.006974292 0.05321874 -0.083206795 -0.045706507 0.0009285899
0.054200444 0.021934273 0.07589886 0.06075072 -0.020590516 0.005929682 0.018911058 -0.024698349
0.007858005 -0.023907145 0.082572885 0.015472476 -0.001719918 0.044444114 -0.044406224 0.08437265
-0.045036614 0.087837495 0.023029448 0.032665376 -0.0882421 0.050825547 -0.0017311818 0.032782882
0.021701412 -0.012070309 -0.019348912 -0.012593341 -0.009953736 -0.04496583 -0.037108183 -0.063793935
-0.035811756 -0.009142442 -0.0025690822 -0.08579035 0.070160195 0.07287662 -0.03405618 -0.009028592
0.038394976 -0.01738628 -0.009051352 -0.03797312 -0.041850165 0.015289791 0.025816524 0.050385576
-0.050778333 0.03559672 -0.0024238862 -0.0043202206 -0.03124782 0.035379507 0.007150118 0.0698801
0.06543708 0.03785686 0.07987681 0.07797181 -0.06849141 -0.028785307 -0.07434344 -0.012098443
-0.041168083 -0.07201261 0.00310185 -0.05009252 -0.01533551 -0.019154394 -0.0054724836 0.03729169
0.05029363 0.004380385 0.016488237 -0.075736865 0.024555976 0.06749516 0.006338896 -0.011931583
0.07384196 -0.03062744 -0.012523768 -0.08775369 -0.04202436 -1.4403685e-05 0.015904514 0.026001675
-0.058304306 0.02776315 -0.023110876 -0.05020205 0.026459506 0.020608176 -0.07098454 0.040415592
0.080009036 0.04766918 -0.03104818 0.053517036 0.05374466 0.02691994 0.044037778 -0.07810437
-0.059822846 0.013138585 0.003505996 -0.06228344 -0.08586727 -0.015893735 0.06127338 -0.072034314
0.079580285 -0.08453465 -0.016820692 0.0815963 -0.086088404 0.061242394 0.02989046 0.029482838
-0.034805533 -0.058138773 -0.03531478 0.059975818 0.03778212 0.033479884 -0.081208125 -0.07384686
-0.006069694 0.010725782 -0.08831205 0.03403261 -0.030802192 0.02715202 -0.06366843 0.04638484
-0.052486196 0.009906596 0.058792125 0.054511048 -0.05658663 0.063663416 0.006237133 -0.032777466
-0.030998586 -0.019629695 -0.009899062 0.01825554 -0.05700829 0.028394785 -0.048312616 -0.061012674
00000000: 020d 023d 8caa 78bd 873d 8d3d aade 433c
00000010: 6a4d 51bc 7329 68bd b504 8ebd b73f acbd
00000020: 2914 ffbc a32a 5dbd c770 8fbd 789c ce3c
00000030: dde5 dd3b d7c8 1abd ab97 9b3d df02 743d
00000040: b1f0 7fbd 9c84 4fbd bfac 3f3c a30d 0abd
00000050: bea8 893d 8888 b0bd 0057 49bc 932d 6a3c
00000060: 1e64 8c3b 3163 b03d ee90 b43d 555c 3b3d
00000070: fd0d 373d 3383 8d3c fe48 8abd f1cc edbb
00000080: 63fe 34bd 7443 a53d a785 b03d f052 573d
00000090: 9767 b53b e21c 86bc 7feb a7bd d11c adbd
000000a0: fbbe 643d 1520 7f3d c87e 4e3d 6739 a1bd
000000b0: 716d 8dbd c091 79bb 7f13 253d 6a4d af3b
000000c0: 1e53 d5bc 423d afbd ebac 9cbd 7e60 afbd
000000d0: c50c d7bc 619f 36bc f41b 81bd 133a 9dbd
000000e0: 9416 0e3d 2519 6a3d fccb e6bc 4a0a 32bc
000000f0: 1d84 a93d 8e69 07bc b7ed 08bc dd46 1abd
00000100: d71c bd3c 772f 133d d098 74bd 85b8 88bd
00000110: 82d5 cd3b 5fc5 4a3c 5f91 753d b015 59bd
00000120: 480f 52bd 2bf2 62bd 99ba aebd fef7 2b3d
00000130: 2556 b2bd 80b9 a53d 4aed eebc bd7a 613d
00000140: 73fb abbd f91c 993d 8030 093d 7255 053d
00000150: a0cf f43c 09c8 8ebd d5a1 8a3d e379 f0bc
00000160: f092 6b3d 6ac0 a9bd 3b56 85bd 56c4 f3bc
00000170: 8bb0 a3bd 133f 1e3c df4a 473d 61ed 693d
00000180: fe95 93bd fd97 efbc 993f 893d 9a88 e4bb
00000190: e5fb 593d 5368 aabd bf36 3bbd 9d6c 733a
000001a0: 4901 5e3d 81af b33c dd70 9b3d bfd5 783d
000001b0: 71ad a8bc c74d c23b 5deb 9a3c 3154 cabc
000001c0: ddbe 003c ebd8 c3bc f91b a93d 4580 7d3c
000001d0: df6e e1ba 080b 363d 4de3 35bd 91cb ac3d
000001e0: 5078 38bd 25e4 b33d 41a8 bc3c 21cc 053d
000001f0: 46b8 b4bd 732e 503d d2e8 e2ba 5847 063d
00000200: 29c7 b13c 8cc2 45bc 9c81 9ebc 4d54 4ebc
00000210: ff14 23bc 172e 38bd c0fe 17bd 65a6 82bd
00000220: 59af 12bd 2eca 15bc 0c5e 28bb dab2 afbd
00000230: 26b0 8f3d 5640 953d 7e7e 0bbd a9ec 13bc
00000240: 0d44 1d3d ac6d 8ebc 1f4c 14bc b489 1bbd
00000250: 146b 2bbd 0882 7a3c 2d7d d33c 1b61 4e3d
00000260: f1fc 4fbd decd 113d 10da 1ebb a390 8dbb
00000270: 6efb ffbc 1aea 103d 894b ea3b 4c1d 8f3d
00000280: e003 863d cb0f 1b3d 7496 a33d afaf 9f3d
00000290: 3945 8cbd 2acf ebbc 6041 98bd 8c38 46bc
000002a0: dd9f 28bd 597b 93bd 6848 4b3b d02d 4dbd
000002b0: ca41 7bbc ade9 9cbc 8552 b3bb 2cbf 183d
000002c0: b200 4e3d 5589 8f3b 5712 873c ee1b 9bbd
000002d0: 9d29 c93c e73a 8a3d 84b6 cf3b b07c 43bc
000002e0: 743a 973d 66e6 fabc 7d30 4dbc 35b8 b3bd
000002f0: bc21 2cbd 5ba7 71b7 2f4a 823c 7701 d53c
00000300: 7fd0 6ebd 8c6f e33c 0553 bdbc aaa0 4dbd
00000310: 9bc1 d83c 7ad2 a83c 5860 91bd d28a 253d
00000320: c7db a33d c240 433d c158 febc ae34 5b3d
00000330: 5c23 5c3d 3587 dc3c f560 343d 2ff5 9fbd
00000340: cd08 75bd 3843 573c dac4 653b ec1c 7fbd
00000350: 2edb afbd 9433 82bc ccf9 7a3d ba86 93bd
00000360: fdfa a23d 8120 adbd 8ccb 89bc f61b a73d
00000370: 1e4f b0bd 4ed9 7a3d d7dc f43c fe85 f13c
00000380: 3f90 0ebd ec22 6ebd 3ba6 10bd 34a9 753d
00000390: 6dc1 1a3d 3422 093d 7250 a6bd 063d 97bd
000003a0: 49e4 c6bb 31bb 2f3c f3dc b4bd c765 0b3d
000003b0: e154 fcbc ea6d de3c 9864 82bd 08fe 3d3d
000003c0: c4fb 56bd 464f 223c 03d0 703d fa46 5f3d
000003d0: 62c7 67bd f761 823d dd60 cc3b aa41 06bd
000003e0: bff0 fdbc 74ce a0bc ad2f 22bc a48c 953c
000003f0: 8681 69bd 2e9c e83c 73e3 45bd 6de8 79bd

layer3.bias f4 [4]
0.013993059 0.026501222 0.08599116 -0.04680966
00000000: 2543 653c 1719 d93c 221c b03d 7cbb 3fbd

layer1.weight f4 [128, 16]
0.23021588 -0.015625209 -0.041970998 0.103054106 -0.23573822 -0.016779661 -0.08532193 0.10841355
-0.13278869 -0.17682308 -0.23884314 0.13511899 0.22080982 -0.16568291 -0.07265708 0.21676046
0.13002303 0.14746225 -0.04956153 -0.21292356 0.17981371 0.24168742 -0.20657322 0.10926354
-0.12846103 -0.19961065 0.10083282 0.24281076 0.21381587 0.1676892 -0.07342371 -0.18491146
0.2194488 0.13486257 0.21572527 0.06324822 0.06839472 0.18447682 -0.21385708 0.023832709
0.20148745 -0.13347813 -0.042096347 -0.07000339 -0.088662416 -0.08373174 -0.0003041327 -0.04638076
-0.13558236 -0.10119367 0.07777524 -0.10268524 -0.024205685 -0.03170839 -0.16632235 -0.22428927
0.22489232 0.15375918 0.19589788 0.044353485 0.078428596 -0.056672752 -0.04395446 0.17483506
0.090164155 -0.22559637 -0.2426025 -0.14340732 0.24054769 0.23138219 -0.1186986 -0.20378637
-0.15290123 0.01716888 -0.1666249 -0.14832747 0.1540004 -0.19411436 -0.086502284 -0.19338754
0.17364296 -0.10607648 -0.12683004 -0.093152076 -0.13800475 0.12018472 -0.12160969 0.03350371
-0.083120465 0.074299544 -0.232396 -0.22810885 0.06356472 -0.09517211 -0.1332506 -0.23402044
0.2486332 -0.24281591 0.07887074 -0.2367312 -0.19354221 0.037852675 -0.10364115 0.18424267
0.08054185 0.23418236 -0.0065697134 0.12628907 0.1651771 -0.18557033 0.072410196 0.10893074
-0.04013759 -0.15960404 0.011593878 0.044102997 0.12667644 0.008167505 -0.011829793 0.19575381
0.21563697 -0.20298469 0.1852642 0.19794896 0.06453565 -0.033816725 0.22778541 -0.13208383
0.008784741 0.19652593 0.091703296 0.021156758 -0.02720064 -0.037952572 -0.11848584 -0.23855469
-0.011511117 0.08741596 -0.027767152 -0.04238847 -0.14149818 -0.10547274 0.13293391 0.23512906
0.18958896 -0.17806065 0.16238812 -0.20773083 -0.028623462 0.15098915 -0.019550413 0.24741313
-0.2259027 0.011017114 0.10818744 0.041379184 0.14262205 -0.09016591 -0.21659034 -0.14636788
0.048570395 -0.060971618 -0.11324453 -0.22817603 -0.17627364 -0.18256557 -0.039845407 -0.13421193
0.22386172 -0.1466237 -0.13330787 0.017615676 0.012885779 -0.09970304 0.16013765 0.07708165
-0.21460322 -0.1759893 -0.008683234 -0.08960754 -0.111337006 -0.056135774 -0.07374981 -0.028530657
0.10236931 0.21065572 -0.1917305 -0.19790038 0.12659636 -0.16276044 0.14547491 -0.19350207
-0.050256073 -0.2021268 0.17017958 -0.0898093 0.14793578 -0.16006115 -0.10872269 0.24523667
-0.12695628 -0.24528942 -0.11397514 -0.049712867 -0.16735518 -0.111590266 0.07994908 0.042223483
0.15321532 0.17578354 0.16299146 -0.04815209 0.23810375 -0.05207303 0.2448732 0.1171895
-0.003997147 -0.22093746 -0.19515848 -0.008087844 0.23170498 -0.23420891 0.07111561 -0.039260894
0.09751347 -0.019460052 0.087641805 0.076969534 0.090889305 0.011571348 0.1773532 0.09332499
-0.061717242 -0.10234898 -0.09767184 -0.23289171 -0.18363056 0.16900268 0.2100501 -0.08677107
0.11930013 0.18278325 0.23928404 -0.114881486 0.016443282 -0.14742324 0.115142286 -0.09168711
-0.054677844 -0.10637683 0.12227428 -0.091257006 0.18947163 -0.09620848 0.15927622 0.19594288
00000000: b6bd 6b3e 7000 80bc c8e9 2bbd 080e d33d
00000010: 5c65 71be 8075 89bc 44bd aebd ec07 de3d
00000020: c2f9 07be 1c11 35be 4c93 74be a25c 0a3e
00000030: f81b 623e c8a8 29be 3ccd 94bd 74f6 5d3e
00000040: c224 053e 5800 173e 0801 4bbd a208 5abe
00000050: 1621 383e e87c 773e ee87 53be 90c5 df3d
00000060: 4a8b 03be bc66 4cbe 7081 ce3d 62a3 783e
00000070: 8cf2 5a3e b8b6 2b3e 2c5f 96bd 6e59 3dbe
00000080: 30b7 603e 6a19 0a3e 16e7 5c3e 4888 813d
00000090: 8812 8c3d 7ee7 3c3e 5afd 5abe d03c c33c
000000a0: ba52 4e3e 7eae 08be 386d 2cbd f05d 8fbd
000000b0: a494 b5bd 8c7b abbd 0074 9fb9 c0f9 3dbd
000000c0: 1ad6 0abe a03e cfbd a048 9f3d a44c d2bd
000000d0: 004b c6bc a8e0 01bd 6850 2abe 16ac 65be
000000e0: 2c4a 663e 0c73 1d3e 7499 483e 00ac 353d
000000f0: 2c9f a03d b021 68bd 9809 34bd f607 333e
00000100: fca7 b83d bc02 67be ca6c 78be 5ed9 12be
00000110: 2252 763e 74ef 6c3e 4018 f3bd 60ad 50be
00000120: 2492 1cbe c0a5 8c3c b89f 2abe 28e3 17be
00000130: 48b2 1d3e eac5 46be 1c28 b1bd 6207 46be
00000140: 76cf 313e a03e d9bd bcdf 01be 84c6 bebd
00000150: 1e51 0dbe 6823 f63d 800e f9bd 303b 093d
00000160: 103b aabd 5c2a 983d 38f9 6dbe 5e95 69be
00000170: 382e 823d 98e9 c2bd d872 08be 0ea3 6fbe
00000180: b499 7e3e bca4 78be fc86 a13d aa69 72be
00000190: ee2f 46be 680b 1b3d d041 d4bd 1caa 3c3e
000001a0: 20f3 a43d 80cd 6f3e c046 d7bb ec51 013e
000001b0: 3024 293e 2606 3ebe cc4b 943d 1417 df3d
000001c0: 5067 24bd 3e6f 23be 40f4 3d3c 58a5 343d
000001d0: 78b7 013e 00d1 053c c0d1 41bc b073 483e
000001e0: f0cf 5c3e 38db 4fbe e6b5 3d3e 22b3 4a3e
000001f0: 442b 843d 6883 0abd 9440 693e fc40 07be
00000200: e0ed 0f3c 183e 493e f0ce bb3d f050 ad3c
00000210: e0d3 debc 2874 1bbd b4a8 f2bd ae47 74be
00000220: 2099 3cbc 2407 b33d f077 e3bc 889f 2dbd
00000230: e6e4 10be 1802 d8bd d41f 083e acc5 703e
00000240: 9c23 423e 8855 36be 1249 263e 64b7 54be
00000250: c07b eabc e69c 1a3e 3028 a0bc de59 7d3e
00000260: 0a53 67be 2081 343c 6091 dd3d 387d 293d
00000270: 840b 123e e8a8 b8bd dcc9 5dbe 76e1 15be
00000280: c0f1 463d 60bd 79bd c0ec e7bd faa6 69be
00000290: 1481 34be 78f2 3abe f034 23bd da6e 09be
000002a0: 023c 653e 8624 16be dc81 08be c04e 903c
000002b0: e01e 533c 1c31 ccbd 20fb 233e fcdc 9d3d
000002c0: f2c0 5bbe 8a36 34be 2044 0ebc 2884 b7bd
000002d0: a804 e4bd a0ee 65bd 240a 97bd 20b9 e9bc
000002e0: 00a7 d13d 22b6 573e 0055 44be 66a6 4abe
000002f0: 7aa2 013e acaa 26be 60f7 143e 6825 46be
00000300: 50d9 4dbd 54fa 4ebe 8e43 2e3e f0ed b7bd
00000310: 7a7c 173e 12e7 23be 00aa debd 521f 7b3e
00000320: d400 02be 262d 7bbe cc6b e9bd b89f 4bbd
00000330: 285f 2bbe 7089 e4bd 58bc a33d 88f2 2c3d
00000340: 7ae4 1c3e 9a00 343e 3ce7 263e 203b 45bd
00000350: 78d1 733e 884a 55bd 0ac0 7a3e 0c01 f03d
00000360: 80fa 82bb 6e3d 62be a0d7 47be e082 04bc
00000370: 1244 6d3e 76d4 6fbe 10a5 913d 08d0 20bd
00000380: 24b5 c73d b06a 9fbc 8c7d b33d 34a2 9d3d
00000390: 2c24 ba3d c095 3d3c 149c 353e 2c21 bf3d
000003a0: 38cb 7cbd 589c d1bd 2c08 c8bd 2a7b 6ebe
000003b0: a609 3cbe 0a0f 2d3e 6017 573e 08b5 b1bd
000003c0: a053 f43d 882b 3b3e e006 753e fc46 ebbd
000003d0: 10b4 863c 1ef6 16be b8cf eb3d 74c6 bbbd
000003e0: e0f5 5fbd 18dc d9bd f06a fa3d f4e4 babd
000003f0: da04 423e f408 c5bd 4e19 233e 40a5 483e

layer1.bias f4 [128]
0.22400984 0.14860666 0.050254792 0.14108357 -0.0056916773 0.08639103 0.23264721 -0.15175614
0.03459981 0.043965638 0.19651896 0.20650765 -0.20215574 -0.18932807 0.056334972 0.21074143
0.0912272 -0.17656085 -0.17294943 0.23510626 0.16209048 -0.09693807 0.087984085 -0.015659064
0.14931694 -0.079431504 0.025119543 -0.20980507 -0.07179499 -0.06121555 0.21284503 -0.16612157
-0.0070333183 -0.14955875 -0.00530833 0.051809102 -0.0338476 0.104560465 -0.11585209 -0.111617
0.11521393 0.0103957355 0.12031299 -0.22977701 0.09673399 -0.09358868 -0.10454926 -0.04583317
0.20921072 0.10420549 -0.20961574 0.24515644 -0.036557823 -0.038810074 -0.047453403 -0.08787629
0.0166789 0.20623314 -0.07588732 -0.117118776 -0.023371905 -0.17303255 0.06730214 0.21948135
-0.16737536 -0.17119989 0.15362558 0.105617166 -0.0068686306 -0.12580815 0.032568276 0.19770727
0.23898807 0.039653957 0.092455745 -0.04832512 0.09289187 -0.17891163 0.017169386 -0.2059387
-0.058498055 -0.2376337 -0.0022326708 -0.0052446425 0.15588284 0.04703459 0.05318463 0.21725652
-0.02293399 -0.09268588 0.05762258 0.06598222 -0.08288014 -0.008554637 -0.1415942 0.13286304
0.24022695 -0.20485252 0.14823055 0.16039011 0.007943124 0.1942184 0.02165538 0.0028200448
-0.15003788 0.12427288 -0.2305274 -0.027964711 -0.23626146 -0.100322545 0.05620736 -0.009618968
0.13342384 -0.14572093 -0.024059772 -0.15183201 0.12272453 0.14236012 -0.19212389 0.23091993
0.13338682 0.21268806 0.17950895 -0.12698513 0.08017558 -0.16683927 -0.06747231 0.20274463
00000000: d662 653e 582c 183e f8d7 4d3d 3678 103e
00000010: 4081 babb c8ed b03d 123b 6e3e f665 1bbe
00000020: 88b8 0d3d 5015 343d 443c 493e be76 533e
00000030: ea01 4fbe 38df 41be 80bf 663d 9acc 573e
00000040: 54d5 ba3d 5ecc 34be a819 31be b2bf 703e
00000050: 0cfb 253e 7887 c6bd 0031 b43d 7047 80bc
00000060: 8ae6 183e fcac a2bd 80c7 cd3c 24d7 56be
00000070: 4009 93bd 28bd 7abd 0cf4 593e c61b 2abe
00000080: c077 e6bb ee25 19be 80f1 adbb c835 543d
00000090: c8a3 0abd cc23 d63d dc43 edbd 7497 e4bd
000000a0: 48f5 eb3d e052 2a3c a866 f63d aa4a 6bbe
000000b0: 781c c63d 6cab bfbd ec1d d6bd 90bb 3bbd
000000c0: 563b 563e b069 d53d 82a5 56be 4a0a 7b3e
000000d0: a8bd 15bd 50f7 1ebd 805e 42bd 7cf8 b3bd
000000e0: 30a2 883c c82e 533e d06a 9bbd f8db efbd
000000f0: 7076 bfbc 722f 31be b4d5 893d b8bf 603e
00000100: 7264 2bbe 064f 2fbe 0650 1d3e d04d d83d
00000110: 4012 e1bb dad3 00be 5066 053d c673 4a3e
00000120: 4ab9 743e 306c 223d 7059 bd3d 90f0 45bd
00000130: 183e be3d 9c34 37be d0a6 8c3c 98e1 52be
00000140: a89b 6fbd 4056 73be 0052 12bb 40db abbb
00000150: c09f 1f3e 58a7 403d 20d8 593d 7e78 5e3e
00000160: 10e0 bbbc 18d2 bdbd a805 6c3d b021 873d
00000170: 10bd a9bd c028 0cbc 12fe 10be 400d 083e
00000180: 0efe 753e dcc4 51be c0c9 173e 4e3d 243e
00000190: e023 023c 30e1 463e a066 b13c 80d0 383b
000001a0: 88a3 19be c882 fe3d 600f 6cbe 4016 e5bc
000001b0: 86ee 71be e875 cdbd b039 663d e098 1dbc
000001c0: 42a0 083e de37 15be 0019 c5bc da79 1bbe
000001d0: 0057 fb3d dac6 113e 20bc 44be 4676 6c3e
000001e0: 8e96 083e e6ca 593e 32d1 373e 6408 02be
000001f0: 1833 a43d ead7 2abe ec2e 8abd 4a9c 4f3e

layer2.weight f4 [128, 128]
-0.0031403722 -0.07602833 0.036532752 0.047003366 -0.04960272 0.037322097 -0.032597743 0.028071286
0.08229704 0.012507804 -0.055589806 -0.07465846 -0.018999798 0.019679375 -0.04320698 0.02009392
-0.02140609 -0.019948661 -0.004774163 -0.030886296 0.07242764 0.04347265 -0.02447184 -0.08465918
0.046462454 0.08460591 -0.029513204 0.08734977 0.003243853 -0.026814668 0.06572837 -0.021598922
-0.023350175 0.010454462 -0.052734524 -0.042127546 0.046295267 0.02790746 0.039061297 -0.009495169
0.00075990765 0.07975717 0.03906077 0.0056899507 0.01996414 0.0013842711 -0.022918317 0.040307876
-0.038156006 0.033799738 0.01602418 0.08826726 0.013337212 -0.048279077 -0.056613185 0.051310606
-0.010573138 -0.064629324 -0.06404682 0.06972096 0.07679603 -0.003971603 0.00893922 -0.029187746
-0.04921387 -0.08699946 -0.08656743 -0.0009391055 -0.059164785 -0.050431106 -0.0073582814 0.0723433
-0.0384076 0.02079145 -0.0636213 0.01829818 0.024803536 -0.063798375 0.03601503 0.07823658
0.06754898 0.074564666 -0.0055912323 -0.00415864 0.06533303 0.03877806 0.035154738 0.04223132
0.07576544 -0.059518166 0.07874983 0.0305774 0.023987383 0.06077608 0.041273408 -0.03811512
0.068499535 0.039120905 0.020132221 0.0546426 0.029446896 0.05337091 0.06490566 0.06078291
-0.06848466 -0.01731932 0.039957266 0.011034056 -0.018166956 0.033817545 -0.06618567 -0.042226736
-0.025926992 -0.007846121 0.049870268 0.08011636 -0.031582024 0.034880467 -0.07260682 0.04979164
0.0063162637 0.061963957 0.061516013 0.05440192 0.036592536 0.0029105244 0.088347256 -0.072745204
-0.07222539 -0.078992404 -0.070324704 0.07260769 -0.043996073 -0.018534066 -0.00526903 0.009459659
-0.046716418 -0.008242543 0.0034022622 0.07203882 0.082121454 0.08180014 0.034721773 0.0005779597
0.055789635 0.024444856 -0.08259652 0.00945338 0.03278755 0.063440606 0.077265866 -0.026956482
-0.067159474 -0.06547658 -0.040086817 0.042535063 0.057058267 0.039644748 0.07721578 0.03586916
0.032846365 -0.018262481 -0.059854507 0.04898627 0.03818492 0.02524435 -0.07334347 -0.014478043
0.06268444 0.019004993 -0.0037829115 0.010730545 -0.08544594 -0.038081206 -0.062580146 -0.00299427
0.022462163 -0.071502514 -0.043633 -0.012096219 -0.04764211 0.0056177005 0.037657954 0.059758328
-0.086975545 -0.051421642 0.035232205 0.0577539 -0.048611563 0.0022274188 -0.020575048 -0.021146411
0.078768305 0.013869916 -0.08747027 -0.008655898 0.05835854 0.02318439 0.020687707 0.040455107
0.03691733 -0.06765867 -0.079588704 -0.080056675 0.08720918 0.01051017 -0.039459765 0.048655912
0.013825357 -0.031879548 0.004195529 -0.07061131 -0.020781504 0.04180767 0.088276744 0.043845892
0.032134317 -0.039247483 0.04639721 0.07019973 0.07082461 0.0048199664 0.036572263 0.07764225
-0.008176025 0.04841755 -0.026221188 -0.06555673 0.08230669 -0.06549208 0.057245303 0.043860707
0.06289316 0.024477487 -0.03974174 0.008775037 0.018658957 -0.062538154 0.047266826 0.008237391
-0.013906005 0.031484917 -0.087125175 0.014131101 0.0063382117 -0.08402615 -0.0091595845 0.064221874
-0.029723201 -0.02658521 0.06591573 0.064540975 0.020499952 0.066830896 -0.077682465 -0.024831722
00000000: b4ce 4dbb beb4 9bbd 5ea3 153d 9a86 403d
00000010: 392c 4bbd 0edf 183d 3685 05bd c1f5 e53c
00000020: 5a8b a83d 88ed 4c3c 23b2 63bd 89e6 98bd
00000030: 77a5 9bbc a436 a13c cdf9 30bd 019c a43c
00000040: d35b afbc 606b a3bc 9570 9cbb 4205 fdbc
00000050: f154 943d 6110 323d 2b79 c8bc cb61 adbd
00000060: 6a4f 3e3d dd45 ad3d adc5 f1bc 70e4 b23d
00000070: d396 543b 6faa dbbc 989c 863d 39f0 b0bc
00000080: de48 bfbc 3149 2b3c 2800 58bd ef8d 2cbd
00000090: 1ba0 3d3d 309e e43c bdfe 1f3d a091 1bbc
000000a0: 8a34 473a ba57 a33d 30fe 1f3d c472 ba3b
000000b0: d68b a33c 6e70 b53a 32bf bbbc df19 253d
000000c0: 7949 1cbd 9871 0a3d 2445 833c 77c5 b43d
000000d0: 5284 5a3c 48c0 45bd 3ae3 67bd 122b 523d
000000e0: f43a 2dbc 615c 84bd fb2a 83bd ddc9 8e3d
000000f0: 3d47 9d3d 3824 82bb ce75 123c 241b efbc
00000100: 7c94 49bd c62c b2bd 444a b1bd 4e2e 76ba
00000110: c656 72bd d990 4ebd bd1d f1bb b928 943d
00000120: 4a51 1dbd d552 aa3c e24b 82bd 11e6 953c
00000130: c930 cb3c b9a8 82bd 7f84 133d 803a a03d
00000140: 1f57 8a3d 5cb5 983d a836 b7bb 3345 88bb
00000150: 53cd 853d bed5 1e3d 6afe 0f3d c0fa 2c3d
00000160: e92a 9b3d 52c9 73bd 9747 a13d 757d fa3c
00000170: 3081 c43c 57f0 783d 4e0e 293d 9a1e 1cbd
00000180: 7c49 8c3d 3e3d 203d 54ec a43c ebd0 5f3d
00000190: 9e3a f13c 759b 5a3d 42ed 843d 80f7 783d
000001a0: af41 8cbd 3fe1 8dbc 3baa 233d 2fc8 343c
000001b0: ded2 94bc 4484 0a3d 5a8c 87bd f1f5 2cbd
000001c0: d864 d4bc 048d 00bc c444 4c3d 0c14 a43d
000001d0: 275c 01bd d2de 0e3d e2b2 94bd 52f2 4b3d
000001e0: a9f8 ce3b ebcd 7d3d 37f8 7b3d 8cd4 5e3d
000001f0: 0ee2 153d 7fbe 3e3b 68ef b43d 70fb 94bd
00000200: e8ea 93bd c5c6 a1bd 6606 90bd 57b3 943d
00000210: 3a35 34bd c1d4 97bc d4a7 acbb b0fc 1a3c
00000220: b759 3fbd bb0b 07bc 7df8 5e3b 1789 933d
00000230: 4b2f a83d d586 a73d 6b38 0e3d 3882 173a
00000240: ac83 643d 9440 c83c 5d28 a9bd 59e2 1a3c
00000250: 3d4c 063d 26ed 813d 913d 9e3d d7d3 dcbc
00000260: e88a 89bd 9618 86bd 1332 24bd 3f39 2e3d
00000270: eeb5 693d 8862 223d 4f23 9e3d 8aeb 123d
00000280: e989 063d 339b 95bc 002a 75bd d4a5 483d
00000290: ca67 1c3d 3dcd ce3c 1a35 96bd 5035 6dbc
000002a0: b360 803d 5cb0 9b3c b9ea 77bb 2bcf 2f3c
000002b0: 48fe aebd 0afb 1bbd 052a 80bd 843b 44bb
000002c0: 9202 b83c e96f 92bd 84b8 32bd 382f 46bc
000002d0: 6024 43bd b014 b83b 3a3f 1a3d 26c5 743d
000002e0: 3c20 b2bd 809f 52bd a54f 103d 5a8f 6c3d
000002f0: eb1c 47bd e3f9 113b 018d a8bc 3d3b adbc
00000300: 4751 a13d a53e 633c 9d23 b3bd 78d1 0dbc
00000310: 5d09 6f3d 31ed bd3c 4479 a93c 41b4 253d
00000320: a036 173d a190 8abd 67ff a2bd c1f4 a3bd
00000330: ba9a b23d d932 2c3c 90a0 21bd 6c4b 473d
00000340: c083 623c 2194 02bd a67a 893b aa9c 90bd
00000350: f93d aabc 853e 2b3d 70ca b43d c097 333d
00000360: 469f 033d f8c1 20bd 000b 3e3d e0c4 8f3d
00000370: 7e0c 913d cff0 9d3b cccc 153d e602 9f3d
00000380: bcf4 05bc 7b51 463d d1cd d6bc 9b42 86bd
00000390: 6990 a83d b620 86bd 0d7a 6a3d 49a7 333d
000003a0: 21ce 803d 0385 c83c 3cc8 22bd 2cc5 0f3c
000003b0: abda 983c 0114 80bd dc9a 413d 1ff6 063c
000003c0: 03d6 63bc 54f6 003d af6e b2bd 2286 673c
000003d0: c6b0 cf3b e715 acbd 1512 16bc c286 833d
000003e0: 127e f3bc 3ac9 d9bc d4fe 863d 0f2e 843d
000003f0: 84ef a73c a3de 883d fc17 9fbd e56b cbbc

layer2.bias f4 [128]
0.0034459156 -0.07615547 -0.06961029 -0.00959728 -0.018083042 -0.028380992 -0.019982906 -0.025433958
0.042049225 0.08593212 -0.05774277 0.053995803 -0.05289835 0.00080335053 0.043762274 0.04231921
0.024387283 -0.06385682 0.04210705 0.06363406 0.004533821 -0.041458957 -0.026627336 0.07688977
-8.055316e-05 0.05570161 -0.068535686 -0.01097642 0.0136069935 0.025771659 0.084776066 0.06950325
0.03627221 -0.020139871 0.0069858297 -0.04228632 -0.0757839 -0.049606334 0.015541861 -0.07658293
0.01674801 0.052573916 -0.0056079333 0.08657261 0.08217059 0.06053752 0.015206403 -0.08797381
-0.07448996 0.05873138 -0.048019737 -0.056070175 -0.0047689793 0.026052715 -0.011565021 0.006450101
0.0008251931 -0.02950507 -0.020636845 0.07145746 0.038390175 -0.00041555738 -0.011041905 0.023002412
0.06652291 -0.011592923 0.05012612 -0.023888359 0.018176291 -0.022931067 -0.068870455 -0.011696287
-0.024499815 -0.057614468 -0.021584138 -0.05836293 0.05422135 0.043116603 -0.06741778 -0.057032913
-0.03384906 -0.06063229 -0.0059143724 0.059563525 -0.07728912 -0.0413426 -0.03608869 0.03635178
-0.016363924 -0.054391246 0.04666756 -0.046938185 -0.04523907 -0.03900206 0.0067057954 -0.007949053
-0.040521212 0.015581026 0.019956848 0.010444094 -0.02034736 -0.026776599 -0.034641232 -0.057624772
-0.04895823 0.022476714 0.023573576 -0.006934305 -0.082188495 0.012499164 -0.043476906 -0.08197709
-0.08797389 0.0693657 0.07092713 -0.084336296 0.079503715 0.05467736 -0.05827657 0.04996061
0.0009505484 0.017564656 0.07466346 -0.061489914 -0.008325509 0.020132337 -0.06432892 -0.032627847
00000000: dfd4 613b 66f7 9bbd d78f 8ebd e93d 1dbc
00000010: e322 94bc 417f e8bc 31b3 a3bc e05a d0bc
00000020: cf3b 2c3d 2efd af3d af83 6cbd b42a 5d3d
00000030: f1ab 58bd f197 523a 1240 333d e856 2d3d
00000040: d7c7 c73c 5dc7 82bd 7178 2c3d 9352 823d
00000050: 7290 943b ded0 29bd 9221 dabc 6278 9d3d
00000060: a6ee a8b8 5f27 643d 705c 8cbd 71d6 33bc
00000070: deef 5e3c 161f d33c 139f ad3d b857 8e3d
00000080: 2b92 143d 5ffc a4bc 63e9 e43b 6c34 2dbd
00000090: 9734 9bbd 0330 4bbd 4aa3 7e3c 83d7 9cbd
000000a0: 1f33 893c bf57 573d c1c2 b7bb fb4c b13d
000000b0: 0e49 a83d 31f6 773d 4724 793c 9d2b b4bd
000000c0: 318e 98bd 5190 703d 58b0 44bd d7a9 65bd
000000d0: 1945 9cbb 816c d53c 377b 3dbc 5e5b d33b
000000e0: c651 583a 9eb4 f1bc 9a0e a9bc 4a58 923d
000000f0: 043f 1d3d 2bdf d9b9 1be9 34bc 8e6f bc3c
00000100: 2a3d 883d 3ef0 3dbc 0c51 4d3d 85b1 c3bc
00000110: 72e6 943c efd9 bbbc f40b 8dbd c9a1 3fbc
00000120: d6b3 c8bc 26fd 6bbd 38d1 b0bc f80d 6fbd
00000130: 3517 5e3d 099b 303d 5512 8abd 589b 69bd
00000140: 50a5 0abd 9059 78bd 5acd c1bb e2f8 733d
00000150: c249 9ebd dc56 29bd bcd1 13bd 9be5 143d
00000160: a30d 86bc 5bc9 5ebd 7c26 3f3d 4142 40bd
00000170: 9a4c 39bd a0c0 1fbd 4abc db3b bf3c 02bc
00000180: 92f9 25bd 8f47 7f3c 8b7c a33c b51d 2b3c
00000190: 82af a6bc 995a dbbc f7e3 0dbd f407 6cbd
000001a0: 6d88 48bd 1621 b83c 5f1d c13c 2b39 e3bb
000001b0: 7152 a8bd 4bc9 4c3c d714 32bd 9be3 a7bd
000001c0: a82b b4bd 9b0f 8e3d 3e42 913d 82b8 acbd
000001d0: d8d2 a23d 5ef5 5f3d 6ab3 6ebd 7fa3 4c3d
000001e0: 392e 793a c1e3 8f3c 28e9 983d d9dc 7bbd
000001f0: b767 08bc 92ec a43c e1be 83bd c7a4 05bd
