custom_maze/static/custom_maze/run/jkskthfhya/trained_model.pth (torch, 292296 bytes, 24 tensors)

layer1.weight f4 [128, 4]
00000000: c281 a1be 09e8 303e 9242 973e 62f9 a6bd
00000010: 34b5 993e bca5 57be e023 07bd f6f3 c7be
00000020: 76af a73e 126a c03e 20fc 763d 3b52 f4be
00000030: a606 c03e 26db d2be 1404 9cbe 74af a03e
00000040: fcd0 ee3e 7330 ee3e 9e98 f1be a033 e03e
00000050: e8e3 dcbe ca00 ac3e e4a1 f1be 307d 063e
00000060: a927 eb3e 8e66 c2be 3c7f c03e b27e b43e
00000070: 2fbc f7be c2d5 953d c48f 8e3b 23bd e33e
00000080: 44f3 543e 1ba4 a63e fe1f 04bc 1af7 733e
00000090: 58ae 17be 4454 3cbe 18f0 1a3e 2cb1 ffbe
000000a0: 1d90 91be 4a88 dc3e c92f f03d 9839 033e
000000b0: 5ae8 45be 0d76 c13e f13c 12be 0fcc eb3e
000000c0: 40ec 92bd d88c 15be c86f c5be 5036 8b3e
000000d0: 577e f83e f61a 87bd 524f 8fbe 20fd f83e
000000e0: 99a8 483e 3b58 563e c858 42be 02c4 26bd
000000f0: 7308 e3be c850 8e3d 0c4a 343d c0d1 e13d
00000100: 38f0 f93e 10d8 55be 90d1 d0be bc57 a5be
00000110: 0418 ca3e 0a1e 91be 5378 d63e b0bc 7e3e
00000120: 9dc3 4c3d 3373 db3c f61c b23e 8e73 b03e
00000130: 380b 81bd fefe 8f3e 48e5 4bbe fea6 90be
00000140: 9840 8b3e 09a1 e43c 0d4f bb3e ef05 fabe
00000150: 77ab 283e e0bf 11be bb1a 463e 72dd ce3d
00000160: ac67 c2bc 88d8 df3e 98ca d63d eb0a e83e
00000170: 9301 823e febd c33e ac32 5d3d c9a2 e43e
00000180: c17b 06be 0732 8d3e f6a9 a73e 2c5e 513e
00000190: b682 753d 1b1e 15be 7772 0dbe 7fd1 803e
000001a0: 00eb 1a3e 78f3 dbbd d02e 503e 3247 f9be
000001b0: 4870 b53d a328 24be c06e 123e 6e52 8b3d
000001c0: c052 033d f2fe abbe 64b4 293e c48b 18be
000001d0: bc41 ab3e 9a7b fb3b a957 aa3e 5327 233e
000001e0: b088 bd3d 0042 92bc 027a abbe e814 49be
000001f0: 40cc 62be 9ed4 b03e 0050 673b dc7d b3be
00000200: 7097 393e 30be 74be 6ed0 cbbe e29a eebe
00000210: 40ce 783c 50d3 a63e 6e5f d6be 1654 b9be
00000220: 60d1 2d3e e0b6 dabc 10d2 10bd e8af 9ebe
00000230: 5351 6a3d 1aef 973d 7afc 52be 48ce f83e
00000240: 0d94 bc3e 6ea6 88be 6c0f f83e 1f94 23be
00000250: a464 f73d 6afb 76be b5bd f73e f813 52be
00000260: f8a0 e2be c0a7 083e a888 efbd 1096 b7bd
00000270: e06a 493e 4890 a2bd f678 b4be 7066 3bbe
00000280: eb2a dbbe caf1 56be 72bb d03e d7bb 40be
00000290: 5fd1 b13e 5cd6 b2be 0ea3 593e 9c60 993d
000002a0: eae1 8fbe 285d 573e a8e4 bfbe 3ca2 053e
000002b0: 3ea3 e63e 8a1d dfbc d893 ae3e 72a1 9d3d
000002c0: 6e95 c7be 50aa 313d 70e4 f23d 1c4d 6ebe
000002d0: 4bcc ed3e 8a16 bf3e 30e3 a6be e92c a13c
000002e0: a793 5abd ec99 8d3c 6def 37be ebe4 f13e
000002f0: da85 4b3c 2205 95be c7a8 ef3e 0b0f 953e
00000300: 5817 1e3e 897d ccbe 0bc3 edbd 3fa8 9b3e
00000310: a8fb e8bd 487f c6bd f0d3 80be 6a18 97be
00000320: 9c0c 65be 68c2 efbe 88f8 e0bd d4a6 35be
00000330: 6d21 19be d4a8 e6be 3836 803e fee5 eebd
00000340: 44d9 8b3e 16c4 eebe 90b9 f8be aabf 813e
00000350: 2d2f b2be 9de2 263e 0a50 913d 1853 f03e
00000360: 70ad 7cbe 2878 24be 76f1 bf3e e0a7 f8be
00000370: 00e5 b1bc 8843 1ebe 90e1 103e 5211 d3be
00000380: 43e2 543c 5db6 8e3e 6cdf 883e 3af1 ac3e
00000390: c536 77be 42da c2be 130c b03e 0b13 fa3e
000003a0: 242b 3b3e 3c77 e0be 6b38 913e d3ea 90be
000003b0: 3bd7 31bc 3d8c 153e 6dc8 c03e df38 c6be
000003c0: b854 b8bd 6464 823e 0e17 f9be 3011 7c3e
000003d0: e917 93bd 6919 d03d 5bbd 383d d540 943e
000003e0: d6d6 81be f0b8 df3e 94ae 62be 08d6 8dbe
000003f0: e890 3ebe 009a f93a f050 1a3d 3cec b4be
-0.3154431 0.17276014 0.29542977 -0.08153035 0.3002106 -0.21059316 -0.032993197 -0.39053315
0.32751054 0.37580925 0.06029904 -0.47718987 0.37505072 -0.41182822 -0.3047186 0.3138386
0.46643817 0.4652134 -0.4718675 0.43789387 -0.4314263 0.33594352 -0.47193825 0.13133693
0.45928696 -0.37968868 0.37597072 0.3525291 -0.4838576 0.07316162 0.0043506343 0.44480237
0.20795923 0.32547078 -0.008064268 0.2382473 -0.148126 -0.1839152 0.15130651 -0.4993986
-0.28430262 0.4307273 0.11727864 0.12814939 -0.19326916 0.37785378 -0.1428106 0.46054122
-0.07173967 -0.14604509 -0.38561845 0.27189875 0.4853389 -0.06596939 -0.27990204 0.4863062
0.19595565 0.20932095 -0.1897918 -0.04071427 -0.44342384 0.069490016 0.04401593 0.11026335
0.48816085 -0.20883203 -0.40784883 -0.322935 0.39471447 -0.2834323 0.41888675 0.24876666
0.04999124 0.02678833 0.3478772 0.3446316 -0.06300968 0.2812423 -0.19911683 -0.28252405
0.2719772 0.027908819 0.36583748 -0.48832652 0.16471659 -0.14233351 0.19346134 0.10100831
-0.023731075 0.43719888 0.104878604 0.4532083 0.25391826 0.3823089 0.054003403 0.44655445
-0.13133146 0.2757723 0.32746857 0.2044608 0.05993911 -0.14562266 -0.13813196 0.25159833
0.15128708 -0.10739797 0.20330358 -0.4868713 0.088593066 -0.16031127 0.1430006 0.068028316
0.03206134 -0.33592945 0.1657272 -0.14897066 0.3344859 0.0076746466 0.33270004 0.1593297
0.09254587 -0.017853737 -0.33491522 -0.19636881 -0.22148228 0.34537214 0.0035295486 -0.3505696
0.18124175 -0.23900676 -0.39807457 -0.4660254 0.015185893 0.32583094 -0.41869682 -0.36196965
0.16974401 -0.02669853 -0.03535658 -0.3099358 0.057206463 0.07418652 -0.20604125 0.4859488
0.36831704 -0.26689476 0.48449266 -0.15974472 0.120797426 -0.24119344 0.48386922 -0.2051543
-0.44263434 0.13345242 -0.11695987 -0.08964169 0.19669676 -0.07937676 -0.35248536 -0.18300796
-0.4280618 -0.20990673 0.4076801 -0.18821655 0.3473005 -0.34929168 0.21253607 0.0748913
-0.28102046 0.2103163 -0.37479138 0.13050169 0.4504642 -0.027235765 0.3409717 0.07696809
-0.38981193 0.043375313 0.11859977 -0.23271602 0.46444926 0.37321883 -0.32595205 0.019674735
-0.05336347 0.01728531 -0.17962427 0.47244963 0.012422049 -0.2910548 0.46808454 0.2911304
0.15438592 -0.39939526 -0.11609467 0.304018 -0.113761246 -0.09692246 -0.25161695 -0.29510814
-0.22368091 -0.46828008 -0.109849036 -0.17739421 -0.14954157 -0.4505068 0.25041366 -0.11664961
0.27314198 -0.46633977 -0.48579073 0.2534154 -0.34801617 0.16297384 0.07095344 0.46938396
-0.24675536 -0.16061461 0.37488908 -0.48565578 -0.021715641 -0.15455449 0.14148545 -0.41224152
0.012993398 0.27873507 0.26732957 0.3377779 -0.24141987 -0.38057142 0.34384212 0.48842654
0.18278176 -0.4384097 0.28363356 -0.28304157 -0.010854538 0.14604278 0.37652913 -0.38715264
-0.09000534 0.25467217 -0.48650402 0.24615932 -0.07182295 0.101610966 0.04510246 0.28955713
-0.2535922 0.43695784 -0.22136909 -0.27702355 -0.18609965 0.0019043088 0.037674844 -0.35336483

layer1.bias f4 [128]
00000000: 3133 63be 3ad9 9cbe 3c6c db3e 3bbe f83e
00000010: c083 87be 3827 f43e e7d0 f93e e4e2 a93e
00000020: 14c1 cdbe 98dd 0cbe d8f7 41bc f240 acbe
00000030: 0e94 b83e 60c8 bfbe b21b 50be fecc 4abe
00000040: 0846 b63e eb36 00bf 840a a2be 201d 763d
00000050: cac2 663d d8cb 3fbe 6bce d1be 7bfa b43e
00000060: afdc 3a3e 5a89 d7be 024d 97be 82cc 0a3e
00000070: a0e9 d8be 0666 52bd 0431 253e 7421 93be
00000080: 94ce 7ebe 3e8f e4be aa6a c83e 12bc a4be
00000090: 7982 c7bb ef74 f53e 1607 f63e e20e c8be
000000a0: 7b5b a8bd fa8b 5e3e 56bd d6be dd26 7dbe
000000b0: b85d b4be 3472 003e f455 a63e 0c9d 32bc
000000c0: 2467 a1be c02d 943c e006 c43e 8802 68be
000000d0: c866 52be 79e2 c93d f004 5b3d 6cf4 10be
000000e0: 718d 993d 2362 c7be c4db aa3e 6dca cb3e
000000f0: dabb 93be e5d1 5c3e f0c8 e9bd bcad cabe
00000100: 5b5d 923e ad01 0a3d fa55 e4be c18e 903e
00000110: 38bb 0a3e dc51 c2be 6cd4 02be e0ea a4bc
00000120: e7f9 cf3e 86bd e63e 1778 763e 9024 763e
00000130: 5948 bd3e b544 c4bd 70a5 943d f318 833e
00000140: d574 a5bd e273 ec3e f5de 4b3e bf09 bf3e
00000150: 23ec d6be 027d e13e 5416 cabe 48d4 d93d
00000160: 324d dabe 406e 94be 412d 76be a7da e2bd
00000170: 40b4 ccbc 4a7f 8f3e a47c f63e 9c6b 563e
00000180: 3800 4dbe 3515 743e 5488 bebe 3082 edbe
00000190: cae2 f23e 4adb 4a3e 9575 c63e b882 703e
000001a0: 1481 ea3e e0c5 8cbd e884 493e 36de c43e
000001b0: 8b8e 883e 03f0 c9be 54d3 b6be 95b6 f63d
000001c0: 27f4 da3e 188a d1bd 13ea 0e3e 6aa8 ef3e
000001d0: a911 043e 5742 89be 85b0 24be f6e1 10bd
000001e0: 3a5d 933e 961e 433e ab31 43bd 7845 8d3e
000001f0: 3372 cd3e 85bf df3d 5975 c7be 84c0 e2be
-0.22187497 -0.3063448 0.42856014 0.48582634 -0.26467705 0.47686172 0.48792192 0.33180916
-0.4018637 -0.13756406 -0.011838876 -0.336433 0.36050457 -0.37457561 -0.20323065 -0.19804761
0.35600305 -0.500838 -0.31648648 0.06008637 0.05633811 -0.18730104 -0.40977797 0.3534735
0.18248247 -0.42096978 -0.2955094 0.13554576 -0.42365742 -0.05136683 0.16131979 -0.2873646
-0.24883491 -0.44640535 0.39143878 -0.32174736 -0.0060885516 0.47940776 0.4805228 -0.39073855
-0.082205735 0.21733084 -0.41941327 -0.24721856 -0.35227752 0.12543565 0.32487452 -0.010901701
-0.31524003 0.018088222 0.38286495 -0.22657216 -0.2054702 0.09857649 0.053471506 -0.1415574
0.07497681 -0.3894206 0.33370793 0.39802876 -0.28854257 0.21564443 -0.11415279 -0.39585674
0.2858685 0.033693004 -0.44596845 0.28233913 0.13547981 -0.3795308 -0.12776345 -0.020131528
0.40620348 0.4506647 0.24069248 0.24037385 0.3696926 -0.09583417 0.07258117 0.25604972
-0.080789246 0.46182162 0.1990927 0.37312123 -0.41977033 0.44040686 -0.3947016 0.106361926
-0.4263702 -0.28990364 -0.240407 -0.11076861 -0.024988294 0.280268 0.48141968 0.20939487
-0.20019615 0.23836215 -0.37213385 -0.46388388 0.4743865 0.19810215 0.38761583 0.23487365
0.45801604 -0.06873679 0.19679606 0.38450783 0.26671252 -0.39440927 -0.35708106 0.120465435
0.42764398 -0.102314174 0.1395648 0.46808177 0.12897362 -0.26808426 -0.16082962 -0.035371743
0.28782064 0.19054636 -0.04765479 0.27592063 0.4012619 0.10925201 -0.38956717 -0.44287503

layer2.weight f4 [128, 128]
00000000: 79f6 27bd 88de 453d 975a 7ebc 05a2 b5bd
00000010: 4cd5 8b3d 6486 4d3d 0ae6 e2bc 1480 91bd
00000020: 56b5 133b 2067 84bd d49b 2bbc 7fff dd3c
00000030: 1783 55bc 7ccd 69b8 fdc7 353d 5364 87bc
00000040: fc15 80bd 056f 783c b9d4 143d 3b3d 8f3c
00000050: 5965 4cbb f896 8c3d 9ace 3bbd ae41 df3c
00000060: c17c 88bd 0de3 8d3d d7b9 de3c 5f90 97bc
00000070: c6b5 65bd f5cb 683d 9d33 dc3c 5112 8c3d
00000080: 2184 8dbc 6092 983d 49dd 8ebd 2be3 363c
00000090: d6aa 7e3d 526f b6bd 73f3 513c c86d 2abd
000000a0: b7e1 50bd c021 b23c e7e2 2bbd 463f 9abd
000000b0: 878a 353d 1548 88bd c605 4b3d c6de fabb
000000c0: e3c4 37bd 94b7 d3bc 7254 13bd bbfc e53c
000000d0: a417 adbc b672 453d c9e5 803d fdc6 b3bd
000000e0: 4fba 853d 1f01 7bbc ec5d e13c 97d6 10bd
000000f0: add8 a83d 1d31 8dbd 36ec febb 1c03 0c3c
00000100: a87f e63c 3b47 30bd cc08 6f3c 75f7 8a3d
00000110: e38e 23bc 1b4e 473d a859 513c cbc7 823d
00000120: bcc9 093d 946f ff3c 606b 90bd e041 14bc
00000130: b194 e9bc 7572 b1bb 83ad 30bd 1ecb 77bd
00000140: b19f 9abd 0cdc 213c 11ae 3a3d 1ad2 c9bd
00000150: d5c4 d03c d285 033d da2d 9c3b 344e 8f3d
00000160: 8e6b 09bd 066a f43c 35e7 83bd 4004 a0bd
00000170: d294 aa3d 2aa6 9d3d 729d 6dbd bd19 3ebb
00000180: 9f73 aabc 7029 3bbd 386a ecbc 3e28 a83d
00000190: cb3d b3bd b1e5 8d3d 3f1d 49bd 2fe3 81bd
000001a0: 0fb2 7cbd a933 9cbc 027f 5a3d 7b31 9dbd
000001b0: e016 9e3c 4ed3 f43c b7b5 24bd ecd4 723d
000001c0: 1656 7dbd 7cc0 62bd 5df4 1bbd ac8a 023b
000001d0: 5160 813d 972d 5dbd 39a2 9bbd 7149 963c
000001e0: f305 083d 3edd 91bc 682b 0bbc 49c3 1e3d
000001f0: 7e6a 3f3d 6850 bbbd c99b 123d ceb9 e53c
00000200: e2a0 663d 2f70 7f3d 6c86 783d 82c9 993c
00000210: e848 7ebd 6690 c33b 0e14 49bd f83d 603d
00000220: 0f51 073c 2847 47bd dc6e 803b 59d3 933c
00000230: 7a47 abbd 6d17 4cbd 6ed4 743d 1d69 75bc
00000240: 69e7 843d be52 2abc b2a2 e73b c485 a13d
00000250: 7a2d 4ebd 896b a6bc 8bd0 cdbc d575 af3d
00000260: 4939 073c bdb0 003d 324c 38bc 488a f73c
00000270: ab1d 9abd 9ad9 aa3d 0ada ad3d 6580 8e3d
00000280: a5ea 143c 318d a9bd 1219 84bd f5a6 b63c
00000290: 0a7a 36bd b4a4 0bbd 2d04 b93c aea2 7c3c
000002a0: a0ee 8dbc 9bb3 89bc 641d bd3c 2688 70bc
000002b0: 1189 83bd dcd4 933d 319a 313c f814 fe3c
000002c0: 0061 4cbd 0957 a1bd 454c 653d 1a28 bc3c
000002d0: 6015 293d b7a7 88bc ad5c a2bd 9b80 523b
000002e0: 0be6 52bd 46fd 31bd 9a89 10bc 04d3 3e3d
000002f0: 3ea0 b33d 772e b03d fc05 b6bc dba3 debc
00000300: 2891 d83c f302 9b3d 11c7 893d 48c2 15bd
00000310: 27ae 493d 65cd 41bd 53c8 993c 5bca 883d
00000320: a0b6 22bd b150 73bd 3cf5 b9bd eb08 1b3c
00000330: 8b81 f8bc 64bb 73bc 8346 5bbd dc0b e23b
00000340: c3e2 cfbc fa02 883d 0ec3 20bc 94b2 8dbd
00000350: ec46 5cbd e9d1 4ebc 1113 90bd c571 b23c
00000360: e2db 26bd 3db8 833d 0f56 6d3d b375 09bd
00000370: 5df9 833d 5dee 8fbd 4da6 683d b217 d53c
00000380: c554 1c3d 90d3 863c a5eb 7ebd d53d 5ebd
00000390: 59c8 43bc 428c 8c3d 80df d8bb aa3c bc3c
000003a0: fa35 773d 7967 52bd c716 a43d 6ebd a33d
000003b0: ce62 693d a4c5 92bd 485c 813d b807 db3b
000003c0: 110a 273d af77 bc3c 205b cebc 831f 79bd
000003d0: f65b 953d 861b 0a3d 821f 823d 5b8b 9cbd
000003e0: 2f08 913d a467 693d 0c10 493b 7f78 59bd
000003f0: 5eff a83d 16d8 7f3d 0300 e33c 22ea 613c
-0.04100654 0.048307925 -0.015524528 -0.088687934 0.068277925 0.050176993 -0.027697582 -0.07104507
0.0022538505 -0.06464982 -0.010474164 0.02709937 -0.013031743 -5.57429e-05 0.044380177 -0.01652733
-0.06254193 0.015163188 0.03633568 0.017485252 -0.0031188338 0.068647325 -0.045851327 0.027252998
-0.0666442 0.06928072 0.027188225 -0.018501459 -0.056081556 0.056835134 0.02688008 0.06839431
-0.017274918 0.07449794 -0.069758005 0.0111625595 0.06217464 -0.089079514 0.0128143905 -0.0416086
-0.05099651 0.021744609 -0.041964438 -0.075316 0.044321563 -0.066543736 0.049566053 -0.007655951
-0.0448655 -0.025844373 -0.035969205 0.028074613 -0.021129437 0.0482051 0.06293828 -0.087781884
0.06529676 -0.0153200915 0.027510606 -0.0353609 0.082444526 -0.06894133 -0.0077796234 0.008545663
0.028137043 -0.04303668 0.0145895 0.0678548 -0.009982797 0.04865847 0.012777723 0.06385764
0.033639655 0.031181134 -0.0705173 -0.009048909 -0.028513284 -0.0054152557 -0.043134224 -0.060496442
-0.0754999 0.009879123 0.04557616 -0.09854527 0.025484482 0.032110043 0.004766208 0.06997338
-0.033549838 0.029835712 -0.064405836 -0.078133106 0.083291665 0.07697709 -0.05801148 -0.002900704
-0.020807086 -0.045693815 -0.028859243 0.082108006 -0.087520204 0.06928576 -0.049100157 -0.0634216
-0.061693247 -0.019067602 0.05334378 -0.07675453 0.019298017 0.029885914 -0.04021236 0.05928509
-0.061849676 -0.05535935 -0.03807484 0.001991908 0.06317199 -0.053998556 -0.07599301 0.018345566
0.0332088 -0.017805692 -0.008494236 0.038760457 0.04673242 -0.09146196 0.0357931 0.0280427
0.056305774 0.062362846 0.06067507 0.018772844 -0.062081248 0.0059681414 -0.04909139 0.054746598
0.008259072 -0.048651844 0.0039194655 0.018045114 -0.083632424 -0.049827028 0.0597729 -0.014978674
0.064894505 -0.010395704 0.0070689553 0.07886842 -0.05033634 -0.020314949 -0.025123855 0.085673966
0.008253404 0.03141855 -0.011248635 0.030217305 -0.0752519 0.083422855 0.08488853 0.06958083
0.009089147 -0.08278883 -0.06450094 0.022296408 -0.04454998 -0.03409262 0.022584999 0.015419645
-0.0173257 -0.016809275 0.023085304 -0.014680898 -0.06422628 0.07218334 0.010839985 0.031015858
-0.049897194 -0.07877929 0.05598094 0.02296834 0.04128015 -0.016681535 -0.07927833 0.0032120112
-0.051488917 -0.04345443 -0.008821869 0.04658796 0.08770798 0.086026125 -0.02221965 -0.027177742
0.026436403 0.07568922 0.06727422 -0.036562234 0.04923835 -0.04731502 0.01877228 0.06679221
-0.039724946 -0.059403125 -0.09079978 0.009462575 -0.030335208 -0.01487622 -0.053534042 0.0068983864
-0.025376683 0.06641193 -0.00981213 -0.06918827 -0.053778574 -0.012623289 -0.07034887 0.021782765
-0.04073704 0.06431625 0.0579434 -0.033559512 0.06444047 -0.07027886 0.05679922 0.026012275
0.03816678 0.016458303 -0.062236447 -0.054258186 -0.011949622 0.068626896 -0.00661844 0.022978146
0.06035421 -0.05136821 0.08012157 0.07995115 0.056978993 -0.07166603 0.063164294 0.0066842698
0.040781084 0.023006288 -0.025189936 -0.060821068 0.07292931 0.033717655 0.06353666 -0.076437674
0.07081639 0.056983605 0.003067973 -0.05309343 0.082518324 0.062461935 0.027709967 0.013788732

layer2.bias f4 [128]
00000000: 9c60 d6bc 156d 963d d4cc 313d 03a4 aa3d
00000010: 2d9b 39bd b413 9a3d f6fb 08bd 585d 013a
00000020: 3b11 3b3d fc11 acbd 2393 a23d 919c 013c
00000030: a29e 6e3c c89c a039 fe19 a63d 8d55 933d
00000040: 4d58 fd3b f53b 923c db82 34bc 7c3b e23c
00000050: 4904 4e3c ba92 9ebd a745 913d 1f62 6ebd
00000060: 8aac 57bd 717c a6bd aa85 793c eb35 35bd
00000070: 7b4d 9b3d 3bd2 7fbc 8af8 2b3d ff78 5fbd
00000080: 5aaa 8ebc 7ec8 8d3d 6a08 893d ea00 b03d
00000090: 98a6 73bb 2406 18bc 1e93 503d 94aa 69bc
000000a0: 326a 81bc 5ae5 cd3b 03cc b33c 8c12 973d
000000b0: 09cf 75bd 4d45 ac3c 54d3 be3d 0a33 e53b
000000c0: ad06 3e3c ce71 35bb 2057 a13d 0a10 af3d
000000d0: 947d a0bc 04eb d33c fbba a43d ebef 59bd
000000e0: 639c 553d 3fde a6bd 1214 a4bd 2313 42bd
000000f0: e5e1 a63d 5f17 febc f2b2 903b 28ea 3dbd
00000100: 6d2a 99bd aee9 92bd a65b 8abd a132 b7bd
00000110: a55d ea3b fe44 963d b84a 92bd ea82 5d3d
00000120: dfb8 163d 0e07 2ebd c5a0 f7bc f3c5 913d
00000130: caa6 81bd 8022 b6bd 5049 9f3d 1f8b 193b
00000140: 418a 413c 8d87 a9bc 0e5b 563d f1d1 a83c
00000150: 2bca 53bd 7c69 f33c e923 94bd 5d3b 7dbd
00000160: d580 17bd be24 6ebd 01fe 09bd 301c b63d
00000170: aa18 b13c 55b9 1fbd a075 9bbb 5904 143d
00000180: 1a0b 193d 36a6 d4bb a850 53bd 870c 6a3d
00000190: 2ce7 223d 24d6 b2bc 9adb 0e3d ed82 e83c
000001a0: ae60 a03d f436 793d 3772 a8bd 2cf3 5d3d
000001b0: 68c7 623d 9968 41bd 86ac 9fbb 4591 bfbd
000001c0: d40f df3c 2e41 a43d 641e 923d c999 ef3a
000001d0: 0b67 15bc aa19 8bbd 5c69 cebc 4d38 8bbc
000001e0: 4e1f 51bd 815c c83c 31f2 453d 537f 4e3d
000001f0: bccf 963d 5170 8e3d 0190 1b3c 8516 043d
-0.026169114 0.073450245 0.04340823 0.08332064 -0.045314003 0.07523289 -0.033443414 0.0004934869
0.04567073 -0.08401868 0.0793822 0.0079108635 0.014564188 0.0003063439 0.08110426 0.07194052
0.0077314735 0.017850855 -0.0110175265 0.027616255 0.012574264 -0.077428296 0.07093363 -0.058199044
-0.05265478 -0.08129204 0.015229622 -0.044240873 0.075831376 -0.015614088 0.041985072 -0.05455875
-0.017415214 0.069230065 0.06691058 0.08593924 -0.0037178155 -0.009278808 0.050921552 -0.01426186
-0.015797708 0.0062834444 0.021947866 0.073765844 -0.060011897 0.021029139 0.093176514 0.0069946097
0.011598271 -0.002768624 0.07877946 0.08547981 -0.01959113 0.0258689 0.08043476 -0.05320732
0.052151095 -0.08147859 -0.080116406 -0.04738153 0.08148555 -0.031017004 0.004415863 -0.046365887
-0.07478795 -0.07173477 -0.06755762 -0.089452036 0.0071522766 0.07337378 -0.07143158 0.054079928
0.0367974 -0.042487197 -0.030228028 0.07117834 -0.063306406 -0.08893299 0.07777655 0.002342887
0.011812747 -0.020694518 0.05233293 0.02060792 -0.051706474 0.029713385 -0.07233412 -0.06182419
-0.0369881 -0.05814051 -0.033689503 0.08892095 0.021618206 -0.038995106 -0.0047442466 0.03613696
0.037364103 -0.0064895405 -0.05159059 0.057140853 0.039771244 -0.021830626 0.034877397 0.028382743
0.0783094 0.060843423 -0.0822491 0.054186985 0.05536595 -0.047218893 -0.0048728613 -0.0935388
0.027229227 0.080202445 0.07134703 0.0018280084 -0.009118806 -0.067920044 -0.025196724 -0.01699462
-0.051055245 0.024458172 0.048326675 0.050414395 0.07363841 0.069550164 0.009494782 0.03224804

layer3.weight f4 [4, 128]
00000000: eb17 76bd c4f3 aabd 7830 24bd e769 963d
00000010: 7cab 3c3d 7c16 3c3d 1152 8abd 563b 923c
00000020: ca0c a43d 3c55 8dbd b492 643c 2b05 9b3d
00000030: 1ae1 383d 68fb 73bd 5ee0 20bd 16ea 3bbd
00000040: f164 353d e0a8 8d3c 86b4 84bd 653f 053d
00000050: a478 763d 0a6e f93c 96ef 403c b28f 90bc
00000060: aa7a 86bd aa48 49ba eadb 833d 189f 1abd
00000070: a63e e7bc e346 69bc 3b11 16bd 86af 68bd
00000080: 7478 a7bd ceca 8d3d be2b 41bd e221 5e3d
00000090: 9d1e 99bd 405a fb3c 9099 013d 3ef8 86bd
000000a0: 4585 8a3d a3ce 1abc 4da6 f5bc a679 723c
000000b0: e045 d7bc 3522 53bc cf66 c13d 5523 31bd
000000c0: d70a 0abd f4ef 9c3d dd6b aebc 217b 0a3d
000000d0: aa53 e7bc 40c6 423d 356e d93b 3827 5c3d
000000e0: 720d 8c3d 6dfa e33b f345 edbc 434b 87bc
000000f0: 6d4a 82bd 3b68 8f3c 7ba5 81bd 446b 863d
00000100: 3e35 a2bd ddb5 6e3d 47d7 0c3d 25b9 033d
00000110: 08a2 a63d 24dd 3eb9 9415 0fbd ff55 b0bd
00000120: 6ee2 693d 4bab 40bd 334e a5bb 0526 573d
00000130: 6d0f 22bd 4903 b2bc 6b93 45bd f58a 2cbd
00000140: 1ff1 16bd b33b d2bc bcaf f83c b8e6 b1bc
00000150: fef0 8cbc f7ea 37ba f301 9a3d 42b1 10bd
00000160: 36d6 ad3d 75c4 253c 60d6 9cbc f6ec 9d3d
00000170: be09 a83d e8bb 27bd d6e7 f23c 2178 86bd
00000180: 8925 6f3d 6d22 1a3d b84d f4bc 5dd9 95bd
00000190: d6fb a73c 1dc7 75bd 7542 86bd 724a 8d3d
000001a0: afd1 1dbd 5175 edbc d638 a03d a129 41ba
000001b0: c087 50bd 8eed 01bd 30d1 a33d 53c6 1f3c
000001c0: 6989 6e3c ba14 42bd 9e03 0ebd 449f 01bd
000001d0: a26a efbc 779d 5d3d 3ce6 883d 4749 ddbc
000001e0: e528 9abd 6791 7e3d 9e1b adbc 67e8 2d3d
000001f0: 40e1 693c 33fb 14bd b22e 5dbd 50df 8b3d
00000200: 98f2 713d 5c31 813c c34d 43bd 0cf1 4f3d
00000210: 532e a93c c066 993d 11a5 5cbc 6936 903d
00000220: aa79 9dbc eefb d3ba bbe2 71bd 3567 93bb
00000230: 8418 7a3d d6a8 883d 6e89 b03c 11a6 7d3d
00000240: d9e9 c9bc 6417 8ebd a6c6 a8bc 8f45 383b
00000250: 0a60 71bc 0085 5cbd 7caf ab3c f07c 703d
00000260: 1a9f 9abd 96b0 3dbd dec6 f73c 1d2c 9dbd
00000270: 57fa 46bd 2f8b 953d 4b4e aebd 85b8 09bd
00000280: 3afc a1bd 12a7 62bb 3cb7 13bd 4e3e 14bd
00000290: 2860 603d dcdb ed3c a836 b43b 57a9 8bbd
000002a0: 6e54 643d 6345 94bd 9e23 25bc 84cc b43c
000002b0: 14a4 8cbc 48c2 2a3c 9aaf 673c 58ac c73c
000002c0: faeb 47bc 1ba2 92bd 61b3 97bb b12d 823c
000002d0: 5494 6a3d 40b3 04bd d478 6b3d 70b3 0d3d
000002e0: d0a0 35bc 097d 12bd 7ab3 95bd 0c59 a9bd
000002f0: 853a ab3d 316a b4bd 76dd 993d 5d6f 5fbd
00000300: 6b3d a1bc 5de3 05bd b7ab 53bd 0617 af3d
00000310: 7c2e b03b a78d 66bd 39b0 973d 9187 503d
00000320: 78a0 0bbc bf16 9d3d 0658 27bd 9aea 70bd
00000330: 4ac6 9bbd 2b75 4c3d 4140 083d ab9c 533c
00000340: 6417 813d 2b9d 49bb 4c28 843d 80cc 8d3d
00000350: 9d32 fb3c 6f9a a43d b42f b33c 58cb 6ebd
00000360: 4161 1fbd 364d 9bbd 43dc 8b3b 5258 863d
00000370: 06ee f73c 272e 223d e92a 683c 210b aabc
00000380: 76d8 5c3d 7de1 9dbd d85f 863d 844b 0bbd
00000390: f8d3 6c3c 92e6 0c3d c3d8 14bd 8036 ae3d
000003a0: c2d6 96bc 658b 3b3d 8f48 01bd 44dc bdbc
000003b0: addd b13c 638c b43b 486a 85bc 7e63 803c
000003c0: a7e0 513d 9c14 063c cf94 38bc 800e 973c
000003d0: 39b6 58bd 7b6a a23d 86a8 7a39 d0a3 12bd
000003e0: 6acd 8fbd f2e3 3f3d 48a6 f9bc 2323 983b
000003f0: 6ab1 123d 8640 a53d 606c 613d c94e 5bbd
-0.060081404 -0.08347276 -0.040085286 0.07344418 0.046061978 0.04591988 -0.06753934 0.01785056
0.08010252 -0.06901023 0.013950992 0.07569345 0.04513655 -0.05956593 -0.039276473 -0.04587754
0.04428572 0.01729244 -0.064797446 0.03253116 0.060173646 0.030447979 0.011775872 -0.017646644
-0.06566365 -0.00076783693 0.0643843 -0.03774938 -0.028228115 -0.014238092 -0.036637526 -0.056808017
-0.081772715 0.069234475 -0.047160856 0.054231532 -0.07476542 0.030682683 0.03164059 -0.06590317
0.067637004 -0.00944868 -0.029986525 0.014799511 -0.026278436 -0.012886574 0.09443437 -0.043246586
-0.033701744 0.07662955 -0.021291668 0.03380883 -0.028238136 0.047552347 0.006635452 0.05374834
0.06838502 0.0069573433 -0.028964018 -0.01651538 -0.06361852 0.017505756 -0.06330391 0.06563428
-0.079203114 0.058278907 0.034384992 0.03215899 0.08136374 -0.00018202193 -0.034932688 -0.086101525
0.057100706 -0.047038358 -0.0050447225 0.052526493 -0.039565492 -0.021730082 -0.04823629 -0.042124707
-0.036851045 -0.025663232 0.030357234 -0.02171646 -0.017204758 -0.00070159085 0.07519903 -0.035325296
0.08488123 0.01011764 -0.01914519 0.07711212 0.08204983 -0.040950686 0.029651564 -0.065658815
0.058385406 0.037630487 -0.029822215 -0.073168494 0.020505827 -0.060004342 -0.065556444 0.06898965
-0.038530048 -0.028986605 0.078233406 -0.0007368569 -0.05091071 -0.03172069 0.07998884 0.009751874
0.014559128 -0.047383048 -0.03467142 -0.03164603 -0.029225651 0.05410525 0.06684539 -0.02701248
-0.07527331 0.062150385 -0.021131333 0.042457964 0.014274895 -0.036372375 -0.05399961 0.06829703
0.059069246 0.015770607 -0.04768158 0.05076699 0.020651972 0.07490301 -0.013467089 0.07041628
-0.019223053 -0.0016173103 -0.059054118 -0.004498387 0.061058536 0.06672828 0.021549907 0.06192595
-0.02464764 -0.06938055 -0.020602535 0.0028117632 -0.01473237 -0.053837776 0.0209577 0.0587129
-0.075498775 -0.046310984 0.030246194 -0.076744296 -0.048578586 0.07301938 -0.08511027 -0.033623237
-0.079094365 -0.0034584445 -0.036063418 -0.03619223 0.0547792 0.029035501 0.0054996796 -0.068194084
0.05574458 -0.07239797 -0.010079293 0.022070177 -0.017168082 0.010422297 0.014140988 0.024374172
-0.012202257 -0.071598254 -0.004629538 0.015890928 0.057270363 -0.03239751 0.057488278 0.034594953
-0.011085704 -0.035763774 -0.07309623 -0.082689375 0.08360771 -0.08809317 0.075129434 -0.054549564
-0.019682607 -0.032687534 -0.051677432 0.08549313 0.005376635 -0.056287434 0.07406659 0.050910536
-0.008522145 0.07670354 -0.04085543 -0.058817483 -0.0760618 0.049916428 0.033264402 0.0129157705
0.063032895 -0.0030763845 0.064529985 0.06923771 0.030663783 0.08037268 0.021873333 -0.058299392
-0.038911108 -0.07583086 0.0042682006 0.065598145 0.030264866 0.039594796 0.014170387 -0.02075726
0.05391737 -0.07709024 0.065612495 -0.034007564 0.014454834 0.034399576 -0.036339533 0.08506489
-0.018412951 0.045787234 -0.031563338 -0.02317632 0.021712149 0.0055098995 -0.01628603 0.015672442
0.051239636 0.008183625 -0.0112659475 0.018439531 -0.052908156 0.07930466 0.00023904638 -0.035800755
-0.070216015 0.046848245 -0.030474797 0.0046428605 0.035813726 0.080689475 0.055034995 -0.053541932

layer3.bias f4 [4]
00000000: 7b0a 523d 28b7 7f3d e7c5 5ebc da1c 4a3d
0.051279526 0.06243053 -0.013596988 0.04934392

layer1.weight f4 [128, 4]
00000000: 7c2e a5be a4e8 363e b417 9b3e e0a4 97bd
00000010: 34b5 993e bca5 57be e023 07bd f6f3 c7be
00000020: d685 a83e 5e29 c13e 80b3 7e3d 505b f3be
00000030: 6014 c33e 7a0a d2be 2213 9cbe 66a0 a03e
00000040: f610 f43e aad5 f13e 466b edbe f860 e43e
00000050: e8e3 dcbe ca00 ac3e e4a1 f1be 307d 063e
00000060: 80e1 ef3e 2a9c c0be d6f0 c23e 4cf0 b63e
00000070: 0233 f7be 8093 ab3d 8027 403c 2084 e73e
00000080: d89f 533e 404b ad3e 00aa 0f3b c477 7e3e
00000090: 58ae 17be 4454 3cbe 18f0 1a3e 2cb1 ffbe
000000a0: d849 8bbe 200e e13e 2ceb 033e e00c 0f3e
000000b0: f8a9 3fbe 3aa8 c63e bc0c 07be 2864 f13e
000000c0: 40ec 92bd d88c 15be c86f c5be 5036 8b3e
000000d0: b63f fe3e 40ef 4abd d667 88be 9ce4 ff3e
000000e0: 3c0f 473e 5cc7 543e 00ef 43be e01c 2dbd
000000f0: 0cbb e6be 8007 8e3d 20b4 2f3d c886 df3d
00000100: 38f0 f93e 10d8 55be 90d1 d0be bc57 a5be
00000110: 86a3 d03e 2423 8cbe 3c10 db3e 42f6 833e
00000120: 306d 4c3d 80a7 cf3c eeb6 b43e 860d b33e
00000130: 380b 81bd fefe 8f3e 48e5 4bbe fea6 90be
00000140: 549c 8b3e 0018 e93c 06c8 bb3e f68c f9be
00000150: 68c1 303e 785c 0abe f86e 4c3e e885 db3d
00000160: 00e9 dcbb 9ee2 e93e 8458 063e 8a84 f53e
00000170: bc65 883e c665 c83e b093 7e3d eace e83e
00000180: f0db 0abe 7ef1 8a3e 6e38 a63e 1c7b 4e3e
00000190: 48e8 853d 3c8d 12be f06c 0fbe 84a8 7f3e
000001a0: 00eb 1a3e 78f3 dbbd d02e 503e 3247 f9be
000001b0: c8b0 b63d 20b6 1fbe 8c97 183e 00a4 973d
000001c0: c052 033d f2fe abbe 64b4 293e c48b 18be
000001d0: 2ceb a83e 8023 7e3c 5e53 ad3e c01e 293e
000001e0: b088 bd3d 0042 92bc 027a abbe e814 49be
000001f0: 40cc 62be 9ed4 b03e 0050 673b dc7d b3be
00000200: 7097 393e 30be 74be 6ed0 cbbe e29a eebe
00000210: 40ce 783c 50d3 a63e 6e5f d6be 1654 b9be
00000220: 60d1 2d3e e0b6 dabc 10d2 10bd e8af 9ebe
00000230: 30cd 5f3d a825 a03d e4c0 52be 14ec f83e
00000240: 32f4 bf3e 0a3b 85be 0cba fc3e e03e 1abe
00000250: d018 033e a028 6ebe 7cb6 fb3e 6422 4abe
00000260: f8a0 e2be c0a7 083e a888 efbd 1096 b7bd
00000270: e06a 493e 4890 a2bd f678 b4be 7066 3bbe
00000280: f28c d5be 7cbc 46be 38ac d93e 4cda 2ebe
00000290: b4b2 b23e 8215 afbe 08b2 5c3e 907e 9f3d
000002a0: eae1 8fbe 285d 573e a8e4 bfbe 3ca2 053e
000002b0: b67d e83e c084 dfbc 9897 b13e 78b0 a93d
000002c0: 6e95 c7be 50aa 313d 70e4 f23d 1c4d 6ebe
000002d0: a217 eb3e 0482 bc3e 70dd a9be 0012 633c
000002e0: 00b6 41bd 00b0 d83c ec28 29be 2e48 f93e
000002f0: 60c7 e83c 8ef3 8cbe 9482 fa3e d8e8 9f3e
00000300: 14ee 143e 5c96 d4be 6497 0abe 52cd 913e
00000310: a8fb e8bd 487f c6bd f0d3 80be 6a18 97be
00000320: 9c0c 65be 68c2 efbe 88f8 e0bd d4a6 35be
00000330: 186f 20be 7e57 e4be 3085 7f3e 80b4 f0bd
00000340: 44d9 8b3e 16c4 eebe 90b9 f8be aabf 813e
00000350: 2094 b4be 9c04 293e f87e a13d d25e f43e
00000360: 70ad 7cbe 2878 24be 76f1 bf3e e0a7 f8be
00000370: 00e5 b1bc 8843 1ebe 90e1 103e 5211 d3be
00000380: 00db c63c 2ce8 933e a854 8e3e 7666 b23e
00000390: 54e5 60be 7a53 bebe 0c07 b53e 060e ff3e
000003a0: f472 333e 48d8 e2be fe1c 8e3e 4006 94be
000003b0: 80ef 35bc 40b0 193e 7a9c c03e d264 c6be
000003c0: b854 b8bd 6464 823e 0e17 f9be 3011 7c3e
000003d0: 00ee 87bd e805 f43d f0bf 823d 24d9 9d3e
000003e0: d6d6 81be f0b8 df3e 94ae 62be 08d6 8dbe
000003f0: e890 3ebe 009a f93a f050 1a3d 3cec b4be
-0.32262027 0.17862183 0.30291522 -0.07404494 0.3002106 -0.21059316 -0.032993197 -0.39053315
0.3291461 0.37726873 0.062182903 -0.47530603 0.38101482 -0.41023618 -0.30483347 0.31372374
0.4766919 0.47233325 -0.46370906 0.4460523 -0.4314263 0.33594352 -0.47193825 0.13133693
0.4685173 -0.37619144 0.38074368 0.35730207 -0.48281103 0.08377743 0.0117281675 0.4521799
0.20666444 0.33846474 0.0021921396 0.24850374 -0.148126 -0.1839152 0.15130651 -0.4993986
-0.27204776 0.4395609 0.1288268 0.13969755 -0.18717182 0.38800222 -0.13188452 0.47146726
-0.07173967 -0.14604509 -0.38561845 0.27189875 0.49657983 -0.049544573 -0.2664172 0.49979103
0.19439405 0.20779175 -0.1913414 -0.042263865 -0.4506458 0.06935024 0.04289639 0.10914379
0.48816085 -0.20883203 -0.40784883 -0.322935 0.40749758 -0.2737056 0.42785823 0.25773817
0.049908817 0.025348425 0.35295814 0.34971255 -0.06300968 0.2812423 -0.19911683 -0.28252405
0.27267706 0.028453827 0.36676043 -0.48740357 0.17261279 -0.13511837 0.19964206 0.107189
-0.006741643 0.45680708 0.13119704 0.47952682 0.26640117 0.39140147 0.062152565 0.45470363
-0.13560462 0.2713737 0.32464927 0.2016415 0.06538445 -0.14311689 -0.140064 0.24966627
0.15128708 -0.10739797 0.20330358 -0.4868713 0.08920437 -0.15596819 0.1490156 0.074043274
0.03206134 -0.33592945 0.1657272 -0.14897066 0.32991922 0.015511394 0.33852667 0.16515636
0.09254587 -0.017853737 -0.33491522 -0.19636881 -0.22148228 0.34537214 0.0035295486 -0.3505696
0.18124175 -0.23900676 -0.39807457 -0.4660254 0.015185893 0.32583094 -0.41869682 -0.36196965
0.16974401 -0.02669853 -0.03535658 -0.3099358 0.05463904 0.07819682 -0.20581394 0.48617613
0.37490994 -0.26021606 0.49360693 -0.15063047 0.12802434 -0.23257685 0.49162662 -0.19739681
-0.44263434 0.13345242 -0.11695987 -0.08964169 0.19669676 -0.07937676 -0.35248536 -0.18300796
-0.41709095 -0.19407839 0.42514205 -0.17075461 0.34901965 -0.34196097 0.21552289 0.07787812
-0.28102046 0.2103163 -0.37479138 0.13050169 0.4540841 -0.02728498 0.3468597 0.08285612
-0.38981193 0.043375313 0.11859977 -0.23271602 0.45916468 0.36817944 -0.33176756 0.013859272
-0.04729271 0.02645111 -0.16519517 0.4868788 0.028415382 -0.27529567 0.48927748 0.31232333
0.14543945 -0.41520965 -0.13534313 0.2847696 -0.113761246 -0.09692246 -0.25161695 -0.29510814
-0.22368091 -0.46828008 -0.109849036 -0.17739421 -0.15667379 -0.44598 0.24953151 -0.11753178
0.27314198 -0.46633977 -0.48579073 0.2534154 -0.3526926 0.16505665 0.078855455 0.47728592
-0.24675536 -0.16061461 0.37488908 -0.48565578 -0.021715641 -0.15455449 0.14148545 -0.41224152
0.02427435 0.2888807 0.27798963 0.34843796 -0.21962482 -0.37173063 0.3535694 0.49815387
0.1752432 -0.44305634 0.27756494 -0.28911018 -0.0111044645 0.1500864 0.37619382 -0.38748795
-0.09000534 0.25467217 -0.48650402 0.24615932 -0.06637192 0.11915189 0.063842654 0.30829728
-0.2535922 0.43695784 -0.22136909 -0.27702355 -0.18609965 0.0019043088 0.037674844 -0.35336483

layer1.bias f4 [128]
00000000: f488 5bbe 3ad9 9cbe 6e64 dc3e 2eaf f83e
00000010: 6a56 83be 3827 f43e 8242 fc3e dea9 ad3e
00000020: c280 c8be 98dd 0cbe 0078 98b9 dea8 a6be
00000030: 0e94 b83e e6e0 b8be 8cb3 51be 78f2 4bbe
00000040: 0846 b63e ead5 fbbe 8c70 9fbe 201d 763d
00000050: d08b 6a3d a077 39be dc54 c4be 9426 b93e
00000060: a0f9 373e 9886 d8be 024d 97be 4cf5 103e
00000070: a0e9 d8be 6088 3abd 0431 253e 7421 93be
00000080: 94ce 7ebe 3e8f e4be aa6a c83e 4a9e a4be
00000090: 004a 463b b26d f93e 1607 f63e e20e c8be
000000a0: 7898 84bd f89a 613e 56bd d6be 5c1f 77be
000000b0: b85d b4be 3005 f53d 2cb9 ad3e 009c 283c
000000c0: 0c42 abbe c02d 943c e006 c43e c8e9 68be
000000d0: c866 52be 5011 da3d f004 5b3d 6cf4 10be
000000e0: 4862 af3d 2c67 c2be 5cc0 a73e 7a9e cb3e
000000f0: dabb 93be 7c02 703e f0c8 e9bd bcad cabe
00000100: fe96 963e e0dd ec3c fa55 e4be 58b3 923e
00000110: 38bb 0a3e dc51 c2be 6cd4 02be 4038 37bc
00000120: 989f d63e 86bd e63e 54b2 7c3e dca4 7f3e
00000130: 8c60 c53e 387c e2bd 70a5 943d 9ecd 893e
00000140: 70e1 a0bd 0cf8 f23e a82c 5f3e 0e33 c33e
00000150: 3c90 cfbe 7414 e83e 5416 cabe 48d4 d93d
00000160: f464 d9be 169a 88be dce4 75be b078 c5bd
00000170: 40b4 ccbc 0227 8f3e a47c f63e 9c6b 563e
00000180: 901c 4abe 54d2 7a3e 5488 bebe 3082 edbe
00000190: cae2 f23e 248f 4a3e 002b d13e b882 703e
000001a0: 1481 ea3e e0c5 8cbd e884 493e 5075 ca3e
000001b0: e8ae 873e 362e c2be 1801 b5be c833 003e
000001c0: 6e90 e03e 188a d1bd 74d7 1e3e 34c5 f13e
000001d0: 50b5 043e 8aa9 85be 2871 19be a09c cbbc
000001e0: 3a5d 933e eca4 493e 50e3 29bd dcf2 8f3e
000001f0: 7609 d03e a02d c73d 0eda c1be b23a dbbe
-0.21438962 -0.3063448 0.43045372 0.48571151 -0.25651866 0.47686172 0.4926949 0.3391866
-0.39160734 -0.13756406 -0.00029081106 -0.3255071 0.36050457 -0.36109084 -0.20478648 -0.19916713
0.35600305 -0.4918664 -0.31140554 0.06008637 0.05726224 -0.1811204 -0.38345993 0.36162245
0.17966318 -0.42290187 -0.2955094 0.14156073 -0.42365742 -0.045540214 0.16131979 -0.2873646
-0.24883491 -0.44640535 0.39143878 -0.32152015 0.003025651 0.48716503 0.4805228 -0.39073855
-0.064743936 0.22031772 -0.41941327 -0.24133056 -0.35227752 0.1196388 0.33930337 0.0102911
-0.33448827 0.018088222 0.38286495 -0.2274543 -0.2054702 0.10647833 0.053471506 -0.1415574
0.085636675 -0.3796934 0.32763946 0.39769346 -0.28854257 0.23438448 -0.11415279 -0.39585674
0.29412073 0.028914392 -0.44596845 0.28652453 0.13547981 -0.3795308 -0.12776345 -0.011182845
0.41918635 0.4506647 0.24677402 0.24965233 0.38550222 -0.11058849 0.07258117 0.26914686
-0.07855499 0.4745487 0.21794379 0.3812489 -0.4053973 0.45328104 -0.3947016 0.106361926
-0.42459834 -0.26680058 -0.24013084 -0.0964216 -0.024988294 0.27959448 0.48141968 0.20939487
-0.19737458 0.24494296 -0.37213385 -0.46388388 0.4743865 0.19781166 0.4085312 0.23487365
0.45801604 -0.06873679 0.19679606 0.39542627 0.2650063 -0.3792588 -0.35352397 0.12519753
0.4386019 -0.102314174 0.15511876 0.47220767 0.1295979 -0.2610591 -0.14984572 -0.024854958
0.28782064 0.19691819 -0.041476548 0.28114974 0.40632218 0.09725499 -0.37861675 -0.42818218

layer2.weight f4 [128, 128]
00000000: 584e ffbc 88de 453d 975a 7ebc aeda a9bd
00000010: b781 a23d 6486 4d3d 7899 9fbc 981f 81bd
00000020: d744 443c 2067 84bd 941c deba 3923 153d
00000030: 1783 55bc 6503 153c fdc7 353d fe48 e6bb
00000040: fc15 80bd fe18 ca3c fef7 3c3d 3b3d 8f3c
00000050: f228 f8ba 63ce 9f3d afad 17bd 89b9 123d
00000060: 5e44 6abd 1dac 9f3d d7b9 de3c 89a0 0fbc
00000070: c6b5 65bd 16fa 873d 9d33 dc3c 5112 8c3d
00000080: 2184 8dbc 6092 983d 49dd 8ebd 3a3e ac3c
00000090: 4955 933d 1337 a6bd 73f3 513c c86d 2abd
000000a0: cf2b 2abd 72ed fa3c e7e2 2bbd 76d6 88bd
000000b0: 878a 353d dcc4 85bd 07a2 723d 1f73 ba3a
000000c0: 4960 14bd 94b7 d3bc 7254 13bd c72f 1d3d
000000d0: a417 adbc ad1d 6c3d c9e5 803d fdc6 b3bd
000000e0: 36a4 993d 60a9 cebb 5d10 0d3d fe03 d4bc
000000f0: add8 a83d da27 74bd 36ec febb 1c03 0c3c
00000100: 2f0b 193d 3763 24bd cc08 6f3c 6833 9a3d
00000110: e38e 23bc 1b4e 473d a859 513c b106 963d
00000120: 5049 383d 946f ff3c 28e7 74bd 9d07 3bb7
00000130: e8ba 85bc 7317 5e3b 83ad 30bd 95b8 4fbd
00000140: 5369 85bd 5f0c a53c 85c9 623d 5f1c b3bd
00000150: 61d2 173d ffa8 2d3d da2d 9c3b 344e 8f3d
00000160: e452 debc 1cc8 223d 5112 5dbd 3e9c 87bd
00000170: d294 aa3d 2aa6 9d3d 729d 6dbd bd19 3ebb
00000180: 6afa d5bb 02fd 14bd 386a ecbc 3e28 a83d
00000190: cb3d b3bd fdb5 973d c524 20bd 2fe3 81bd
000001a0: 0fb2 7cbd a933 9cbc 027f 5a3d d5da 87bd
000001b0: 7376 ea3c 1ccd 233d acf3 eabc 2f09 7e3d
000001c0: 1ccd 5cbd 7cc0 62bd 44ae eebc 2b57 293c
000001d0: 5160 813d f186 47bd 39a2 9bbd 3bb0 e63c
000001e0: f305 083d 0903 12bc fcca 93bb 7dd1 3c3d
000001f0: a0bb 723d ba02 a8bd 8530 3c3d 92e2 163d
00000200: 6319 793d 2f70 7f3d ef2f 793d 7ef2 833c
00000210: 23c1 79bd 6690 c33b d48a 41bd ab42 5f3d
00000220: a81a 233c 2847 47bd 19ec 043c 7611 8e3c
00000230: 7a47 abbd ad5b 4dbd a3b5 743d d18d 18bc
00000240: 69e7 843d 71ce 09bc ef79 453c c485 a13d
00000250: 6408 4bbd 3650 a4bc 64e4 babc fe95 b23d
00000260: b551 153c ac8d 103d 324c 38bc a087 fe3c
00000270: ab1d 9abd 7e09 af3d 0ada ad3d 6580 8e3d
00000280: a5ea 143c 318d a9bd 1219 84bd 328a b93c
00000290: 88e5 2dbd 4972 0dbd 2d04 b93c aea2 7c3c
000002a0: bf96 74bc 3859 7ebc 641d bd3c b50e 80bc
000002b0: 1189 83bd f04d 8c3d 82e0 523c cea8 0a3d
000002c0: 7b98 46bd 0957 a1bd 454c 653d 477b c63c
000002d0: 6015 293d 7d64 80bc ad5c a2bd 9b80 523b
000002e0: 1c93 48bd 7167 23bd 5aa3 f2bb 3c8d 413d
000002f0: 3ea0 b33d 299d b33d fc05 b6bc dba3 debc
00000300: 4965 e93c 3a63 8e3d 11c7 893d 092a 0cbd
00000310: 27ae 493d 65cd 41bd 53c8 993c 21c4 903d
00000320: a914 13bd b150 73bd 9750 afbd 2879 293c
00000330: 8c1a 07bd 198f 42bc 8346 5bbd 5289 013c
00000340: f551 c6bc af89 873d 60e3 18bc f7e0 87bd
00000350: 8e22 68bd 3c4f 5cbc 1113 90bd c571 b23c
00000360: e4be 25bd ba8a 8e3d ed17 733d 9d79 06bd
00000370: 5df9 833d 784e 90bd 4da6 683d b217 d53c
00000380: edda 243d 8ea9 8a3c a5eb 7ebd d53d 5ebd
00000390: 59c8 43bc fad3 7f3d ca8f 73bb aa3c bc3c
000003a0: fa35 773d 7967 52bd c716 a43d 1cb1 ad3d
000003b0: a615 6b3d b657 93bd ca5e 823d d4da 023c
000003c0: cf27 203d af77 bc3c 23c1 d9bc 832b 65bd
000003d0: c608 943d 0a90 f23c 39b4 863d f422 94bd
000003e0: 2f08 913d 835f 803d 8552 96ba 1bbf 61bd
000003f0: e3ea aa3d d5a5 853d 23c9 ff3c 7cd4 873c
-0.031165287 0.048307925 -0.015524528 -0.08293663 0.079348974 0.050176993 -0.01948236 -0.06304854
0.011979303 -0.06464982 -0.0016945773 0.036410544 -0.013031743 0.009095048 0.044380177 -0.0070277443
-0.06254193 0.02467012 0.04613494 0.017485252 -0.0018933101 0.07803037 -0.037030872 0.03582147
-0.057194106 0.077965 0.027188225 -0.008766302 -0.056081556 0.06639497 0.02688008 0.06839431
-0.017274918 0.07449794 -0.069758005 0.021025766 0.07194001 -0.08115973 0.0128143905 -0.0416086
-0.041545685 0.0306308 -0.041964438 -0.0668153 0.044321563 -0.065316886 0.059236553 0.0014224983
-0.036224637 -0.025844373 -0.035969205 0.038375642 -0.021129437 0.05764549 0.06293828 -0.087781884
0.07502024 -0.006306812 0.034439433 -0.02588081 0.082444526 -0.059608318 -0.0077796234 0.008545663
0.03736418 -0.04013368 0.0145895 0.07529336 -0.009982797 0.04865847 0.012777723 0.07325495
0.04499179 0.031181134 -0.05979076 -1.1147841e-05 -0.016324475 0.0033888489 -0.043134224 -0.05071314
-0.065142296 0.0201475 0.055367965 -0.08745646 0.037065867 0.042397495 0.004766208 0.06997338
-0.027139135 0.03974162 -0.053972546 -0.06621598 0.083291665 0.07697709 -0.05801148 -0.002900704
-0.006530096 -0.0363741 -0.028859243 0.082108006 -0.087520204 0.074077584 -0.039097566 -0.0634216
-0.061693247 -0.019067602 0.05334378 -0.06633536 0.028620934 0.03999053 -0.028680645 0.062020477
-0.053906545 -0.05535935 -0.02913583 0.010335724 0.06317199 -0.048712675 -0.07599301 0.028160205
0.0332088 -0.008911856 -0.0045102816 0.04609822 0.059260964 -0.08203645 0.04594471 0.036837168
0.060815226 0.062362846 0.06083673 0.01610684 -0.060975205 0.0059681414 -0.047251537 0.05450694
0.009955086 -0.048651844 0.008112931 0.01734231 -0.083632424 -0.050136257 0.059743535 -0.009311155
0.064894505 -0.008411036 0.012052997 0.07886842 -0.04956855 -0.020057779 -0.022813983 0.08720015
0.009113719 0.03529136 -0.011248635 0.03107053 -0.0752519 0.08546732 0.08488853 0.06958083
0.009089147 -0.08278883 -0.06450094 0.022648904 -0.042455226 -0.03453282 0.022584999 0.015419645
-0.014928519 -0.015524201 0.023085304 -0.015632013 -0.06422628 0.06850803 0.01287091 0.03385239
-0.04848526 -0.07877929 0.05598094 0.024228705 0.04128015 -0.015672917 -0.07927833 0.0032120112
-0.04896842 -0.03989357 -0.007404727 0.047253832 0.08770798 0.0877021 -0.02221965 -0.027177742
0.02849068 0.0695252 0.06727422 -0.034219775 0.04923835 -0.04731502 0.01877228 0.070686586
-0.035908375 -0.059403125 -0.08560293 0.010343827 -0.0329843 -0.011874937 -0.053534042 0.007906275
-0.024209002 0.06618058 -0.009331554 -0.066347055 -0.05667358 -0.013446625 -0.07034887 0.021782765
-0.04046525 0.06960054 0.05934899 -0.032830823 0.06444047 -0.07046217 0.05679922 0.026012275
0.040247846 0.016926553 -0.062236447 -0.054258186 -0.011949622 0.062458016 -0.0037164562 0.022978146
0.06035421 -0.05136821 0.08012157 0.084810466 0.057393692 -0.07194464 0.06365736 0.007986743
0.039100464 0.023006288 -0.026581353 -0.0559497 0.07228236 0.029609699 0.065773435 -0.07233229
0.07081639 0.062682174 -0.0011468685 -0.055113893 0.08345582 0.065257706 0.03122384 0.016580813

layer2.bias f4 [128]
00000000: 6837 85bc 1068 983d d4cc 313d 6534 ac3d
00000010: ae10 2dbd e120 a03d 3d5f b5bc 585d 013a
00000020: 2843 3f3d 655f 99bd 04c7 ad3d d27f 483c
00000030: e8f9 c83c c259 a03b 3f43 b33d bc84 9d3d
00000040: 3a19 473c f53b 923c dff3 d5bb 108f de3c
00000050: 19fa ac3c d148 92bd 7e5c a43d 4411 68bd
00000060: f1fa 4dbd d88c 91bd 5aad 873c a163 0ebd
00000070: aba9 ab3d 7ac9 4fbc 0f57 423d 7db6 46bd
00000080: 0d66 92bc 77d4 933d dd35 983d 9db4 b13d
00000090: 7cd8 ce3b 2406 18bc 2fb1 5f3d 1f40 f1bb
000000a0: 71a1 e7bb d780 583c a15e dd3c f090 9d3d
000000b0: ce07 4dbd af89 e83c dd35 ab3d 89a6 7a3c
000000c0: 3370 763c 0ed6 e3ba 904d 9b3d bef8 ac3d
000000d0: 92fb 75bc f2de e23c fbba a43d 6847 4ebd
000000e0: caea 593d f3ef 95bd 4118 94bd 18a8 39bd
000000f0: f4fe b23d 5f17 febc ebd7 1a3c 02fe 2abd
00000100: 1c41 90bd cdf7 85bd c115 8cbd 2be0 b1bd
00000110: a9f2 373c 5bed 8f3d b3df 8dbd ea82 5d3d
00000120: dfb8 163d 19dd 30bd 3b96 aebc 9ead 8a3d
00000130: b604 5abd 3fbb acbd c8c0 a83d b634 4c3c
00000140: ba80 8d3c 81fa 48bc a5f7 6f3d 6bb2 e23c
00000150: f2a7 42bd 8639 0e3d 52ca 8fbd 8b93 82bd
00000160: 393c 03bd 1b4e 41bd 478c 0abd cc75 b33d
00000170: b625 063d 13ce 2bbd 5c62 1f3b 189c 283d
00000180: 0ddb 2c3d 394f c1ba b7fb 40bd c939 7e3d
00000190: 1f4f 2c3d c698 a5bc d00e 3c3d cc30 013d
000001a0: e669 a13d 40d9 923d 941d aabd bc16 853d
000001b0: 0d5c 773d 5cd1 20bd edb5 5b3b d3b8 afbd
000001c0: 78d5 c83c 7b95 ae3d 641e 923d e5dc 113c
000001d0: 6fe5 c6bb aa19 8bbd 5c69 cebc a29b 8abc
000001e0: 5da0 25bd 0293 e43c 2c61 263d 3482 793d
000001f0: db10 933d e9b8 a33d 058a 5f3c e30e 1b3d
-0.016261771 0.07441723 0.04340823 0.08408431 -0.042252235 0.07818771 -0.02214014 0.0004934869
0.046694905 -0.07488898 0.08485225 0.012237506 0.024533227 0.0048935125 0.087530605 0.07691333
0.012152011 0.017850855 -0.006529316 0.027167827 0.02111535 -0.07142795 0.08025454 -0.05665709
-0.050288144 -0.07106942 0.016562153 -0.034762982 0.08381971 -0.012682313 0.047446307 -0.048513878
-0.017870927 0.07218259 0.074321486 0.086770274 0.006312428 -0.009278808 0.054612335 -0.00736238
-0.007068806 0.013214312 0.027022662 0.0769366 -0.05005627 0.028385965 0.08359883 0.015298494
0.015041399 -0.0017382519 0.07583153 0.08445881 -0.015013592 0.0276942 0.08043476 -0.050361067
0.053202428 -0.07321157 -0.072311886 -0.045326322 0.08740035 -0.031017004 0.009450893 -0.041746147
-0.07043669 -0.06541405 -0.06840087 -0.08685335 0.011227288 0.07027694 -0.06927433 0.054079928
0.0367974 -0.043179605 -0.02131187 0.06771396 -0.05322715 -0.08434152 0.08239895 0.012463739
0.017273296 -0.012266756 0.05858578 0.027672967 -0.047523446 0.034722827 -0.070210114 -0.06375798
-0.032039855 -0.047193628 -0.033825185 0.08762702 0.032750808 -0.041944575 0.0024320101 0.041164488
0.04220109 -0.0014748342 -0.047115054 0.062066827 0.042067643 -0.02021445 0.045912564 0.031540677
0.07881527 0.071703434 -0.08306423 0.06498477 0.06039052 -0.03926216 0.0033525184 -0.08580174
0.024515852 0.08524605 0.07134703 0.008902763 -0.006069831 -0.067920044 -0.025196724 -0.016919915
-0.040436137 0.02790213 0.040620014 0.060915187 0.07180949 0.07994253 0.013643746 0.037855994

layer3.weight f4 [4, 128]
00000000: 3b34 8abd d83f b0bd 7830 24bd 4341 9c3d
00000010: 8412 483d f583 4d3d e5df 8fbd 563b 923c
00000020: 8b84 b23d 024d a0bd c5f2 1e3c fb19 b03d
00000030: 0f25 563d c176 8abd 641c 36bd 16ea 3bbd
00000040: 4205 333d e0a8 8d3c 86b4 84bd bf8e 073d
00000050: 5e8b 783d 37a4 263d 96ef 403c 8c17 99bc
00000060: 2cf1 89bd c294 8b3b a7a9 853d 0b79 25bd
00000070: 179c 01bd d2e7 8fbc 3b11 16bd f18a 81bd
00000080: 7478 a7bd d652 8a3d a1a9 5bbd 315c 7a3d
00000090: 1cd1 b2bd 405a fb3c c70c da3c b019 94bd
000000a0: 5e12 893d b3da 34bc 69b6 03bd 8c4a 693c
000000b0: 18eb 04bd da4e 40bc 7092 b33d e4c3 59bd
000000c0: 6d3a 13bd c700 ab3d 3698 9fbc 3eb6 073d
000000d0: 418f 05bd 4dc3 4d3d 356e d93b 093e 5d3d
000000e0: 720d 8c3d 9641 7c3b 63d0 09bd 709b 40bc
000000f0: 6d4a 82bd 3b68 8f3c 1446 8bbd c15a 843d
00000100: aa40 aabd 0866 843d c6f1 0d3d 1f5f 0e3d
00000110: 0a54 ab3d 2e4a 243b ac77 0abd ff55 b0bd
00000120: 6ee2 693d 4bab 40bd 0736 39bc 1c47 833d
00000130: 42cc 30bd 4903 b2bc ff14 5abd 6316 41bd
00000140: 1ff1 16bd 9a20 0bbd 05ee e93c f09d d5bc
00000150: 7eb8 d6bc 9429 d4ba 916d 9c3d 4d6f fdbc
00000160: 36d6 ad3d 3eff b93b 3bb1 bbbc 9f17 a53d
00000170: 2480 b23d 1efa 26bd 330b 0e3d af50 9abd
00000180: 8925 6f3d 6d22 1a3d eb50 07bd 54b3 a2bd
00000190: 2ca5 943c b0f3 84bd 468c a1bd 24ab 8f3d
000001a0: 4dae 1cbd c4e8 10bd d14e ab3d 3a64 dcbb
000001b0: 1cfd 6ebd e12a 1abd 31e6 b23d a1c3 173c
000001c0: 9570 073c c970 61bd 9e03 0ebd 8a95 42bd
000001d0: 2f11 d0bc 779d 5d3d 3ce6 883d d2d9 01bd
000001e0: b1f1 a4bd 0e3f 823d d4ee b4bc 30b6 273d
000001f0: 2eb3 a93c 7398 3bbd baae 6dbd 1e55 913d
00000200: b242 793d 8a8e 653c c34d 43bd 3609 3c3d
00000210: a891 ae3c c22e 9e3d c981 eebb 6936 903d
00000220: c5b2 fcbc ca34 31bb b573 75bd b6c8 1f3a
00000230: eb90 753d d810 923d aedb e13c 11a6 7d3d
00000240: bc6b 0bbd 6417 8ebd 744a d1bc 1902 533c
00000250: 2d8e 9bbc fb24 54bd d4b9 c73c c085 7b3d
00000260: fd30 a3bd b59d 39bd c3ad 0d3d 7d27 a9bd
00000270: 694d 5abd 1b5f 933d 4b4e aebd 5225 0bbd
00000280: 3afc a1bd 33e8 67bc 96bf 2ebd 4967 2ebd
00000290: 8b5b 7b3d dcdb ed3c 26cf 5d3b 3b2b 9cbd
000002a0: 3f00 883d bfb1 a8bd d248 4cbc 1daf a53c
000002b0: 0af9 a7bc 9d57 3e3c 379f 5e3c bd1b b83c
000002c0: 67a8 17bb aa7c 9fbd cf54 3dbc 3e3e 903c
000002d0: d653 873d 6cdc 1dbd d478 6b3d b938 223d
000002e0: 8fdd c3bb acfe 28bd 88fd a7bd 12c1 98bd
000002f0: 853a ab3d 316a b4bd 5118 af3d 3de9 82bd
00000300: d390 28bc 53cc 1fbd 9884 74bd 0617 af3d
00000310: dfdc 593b aab1 56bd fb46 9e3d 9187 503d
00000320: 78a0 0bbc bf16 9d3d 84d1 2abd b519 70bd
00000330: ed7e a7bd 2e44 5f3d 2378 123d b6f9 a63c
00000340: 6417 813d a371 04bc 7aed 893d f0c0 933d
00000350: 75cc e93c 583e b23d 2d18 a43c b438 78bd
00000360: 4161 1fbd 422f adbd 43dc 8b3b 7735 8b3d
00000370: 9073 c73c 1dd6 e93c a181 ab3c 4d55 96bc
00000380: caa8 703d 7de1 9dbd 2d0a 8f3d 0390 cdbc
00000390: e0e5 ad3c a61e 283d cb70 0bbd 7a14 ae3d
000003a0: d5a2 24bc b38a 513d 1b54 36bd ee03 fdbc
000003b0: 9f9f ae3c 638c b43b 23eb 41bc ea09 883c
000003c0: f7c5 7d3d c3b7 ef3b cf94 38bc 0d88 e33c
000003d0: 7ff0 6dbd 7b6a a23d 86a8 7a39 4f23 27bd
000003e0: c07f a2bd f214 663d 6c75 01bd e9a4 5b3c
000003f0: 7783 ea3c d727 a43d 2182 763d 115d 8bbd
-0.067482434 -0.08605927 -0.040085286 0.07629635 0.048845783 0.050174672 -0.07025126 0.01785056
0.08716687 -0.07827188 0.009701435 0.085987054 0.052281436 -0.06760932 -0.04446067 -0.04587754
0.043706186 0.01729244 -0.064797446 0.033095118 0.060679786 0.04068395 0.011775872 -0.018687986
-0.06735453 0.0042596767 0.06526499 -0.04039864 -0.031643 -0.017566595 -0.036637526 -0.06325329
-0.081772715 0.06754081 -0.053628568 0.061123077 -0.08731291 0.030682683 0.02661742 -0.07231462
0.066929564 -0.01103847 -0.03215638 0.014238965 -0.032450765 -0.01173755 0.08768165 -0.05316533
-0.03594439 0.08349758 -0.01948176 0.033132784 -0.03260732 0.05023508 0.006635452 0.05401424
0.06838502 0.003849124 -0.033646 -0.011755809 -0.06361852 0.017505756 -0.06800476 0.064626224
-0.08313115 0.064647734 0.0346544 0.034758683 0.083656386 0.0025068629 -0.033805534 -0.086101525
0.057100706 -0.047038358 -0.011304385 0.064100474 -0.043163545 -0.021730082 -0.05324268 -0.04714049
-0.036851045 -0.03396664 0.02855588 -0.026076287 -0.02621102 -0.0016186708 0.07638086 -0.030936861
0.08488123 0.005676179 -0.022911659 0.08061146 0.08715847 -0.040765874 0.03467865 -0.075349204
0.058385406 0.037630487 -0.033036154 -0.079443604 0.018145166 -0.06491792 -0.07888083 0.07015064
-0.038252164 -0.035378233 0.083646424 -0.006725815 -0.058346853 -0.03763855 0.08735312 0.00926295
0.008266588 -0.0550392 -0.03467142 -0.047505893 -0.025398819 0.05410525 0.06684539 -0.03170187
-0.080539115 0.06359683 -0.022086538 0.040945232 0.020715322 -0.045799684 -0.05802796 0.07096313
0.06085462 0.014011035 -0.04768158 0.04590722 0.021309689 0.07723762 -0.007278655 0.07041628
-0.030846963 -0.0027039521 -0.0599248 0.0006095277 0.059952658 0.07132119 0.027570572 0.06192595
-0.03403829 -0.06938055 -0.025548197 0.012878918 -0.018988693 -0.05179308 0.024380602 0.06140685
-0.07968328 -0.045316417 0.03458954 -0.08259485 -0.05329648 0.07195874 -0.08511027 -0.03397114
-0.079094365 -0.014154482 -0.04266318 -0.04257897 0.0613666 0.029035501 0.0033845394 -0.07625433
0.06640672 -0.082370274 -0.012468534 0.020225102 -0.020504493 0.011617568 0.013587764 0.022474164
-0.0023141147 -0.0778745 -0.0115558645 0.017607804 0.06607787 -0.03854029 0.057488278 0.039604876
-0.0059773396 -0.0412585 -0.08202654 -0.074587 0.08360771 -0.08809317 0.0854956 -0.06392143
-0.010288435 -0.039013218 -0.059696764 0.08549313 0.0033243222 -0.052415527 0.07728382 0.050910536
-0.008522145 0.07670354 -0.041703716 -0.058618266 -0.08178506 0.05450838 0.035759103 0.020382743
0.063032895 -0.008083734 0.06734748 0.07214534 0.028539876 0.087032974 0.02003106 -0.06060095
-0.038911108 -0.08456279 0.0042682006 0.06797307 0.024347097 0.02854448 0.020935835 -0.018351221
0.05875472 -0.07709024 0.06984363 -0.025093084 0.021227777 0.041044854 -0.034043115 0.08499999
-0.010048588 0.051157665 -0.044513803 -0.030885663 0.021316348 0.0055098995 -0.011835846 0.01660629
0.061956372 0.0073156073 -0.0112659475 0.027774835 -0.058090683 0.07930466 0.00023904638 -0.040805157
-0.07934523 0.05617232 -0.031606123 0.013406017 0.02862714 0.08015411 0.060182694 -0.068048604
