custom_maze/static/custom_maze/run/room30/trained_model.pth (torch, 292296 bytes, 24 tensors)

layer1.weight f4 [128, 4]
000000 84 3a 6e be 6e 8c c5 3e e0 5b 13 be de 68 b8 be
       -0.2326451 0.38583702 -0.14390516 -0.36017507
000010 be 42 87 be dc 24 7f bd e0 e0 fa 3e 4c 5b e9 3e
       -0.26418108 -0.06229101 0.4899969 0.45577466
000020 96 ca e6 3e 08 37 ee be ed c5 91 be c5 e4 76 3e
       0.45076436 -0.4652636 -0.28471318 0.24110706
000030 da 90 f9 be 91 d4 51 3e b2 8b f3 3c 3c 5a 84 bb
       -0.48743325 0.20491244 0.029729698 -0.004039077
000040 9a ee b2 3e 55 10 e2 bd fc cb 69 3e 3c 1a 54 3e
       0.34947664 -0.11038271 0.2283172 0.20713133
000050 40 8f 3b bc 48 18 e3 be 72 5c dd be e8 18 af bd
       -0.011447728 -0.44354463 -0.43234593 -0.08549672
000060 e0 fb dd be d6 60 f5 3e 28 67 e3 bd 1a 39 f4 be
       -0.43356228 0.47925442 -0.1110366 -0.47699815
000070 10 e4 e5 be 18 e8 92 be 65 a9 98 be 51 c8 e0 3e
       -0.4490056 -0.28692698 -0.29816738 0.4390283
000080 cc 58 fd bd e8 f4 ba 3e a1 13 7f 3e 4d 03 92 3e
       -0.12370452 0.36514974 0.24909832 0.28518143
000090 73 f1 a8 be e4 b9 4d 3d 5c 6f a3 3d bb 83 f0 3e
       -0.3299671 0.050226107 0.079802245 0.46975502
0000a0 95 fb b0 be a2 c0 97 3e be b1 e0 3e 2f 34 37 3e
       -0.34566942 0.29639155 0.43885607 0.17891
0000b0 0a 01 61 be 10 69 6f 3d b0 d3 d4 3e da 5d d8 3e
       -0.21973053 0.058449805 0.41567755 0.42259103
0000c0 4a 6f 9e 3c b6 36 e7 3e f4 f4 eb 3d 0a 6f ef be
       0.019340176 0.4515893 0.115213305 -0.46764404
0000d0 cc 3c 5e be b5 d6 9e be 67 a0 d1 3e 83 2b 33 3e
       -0.2170288 -0.31023183 0.4094269 0.17497067
0000e0 8b ca e3 3d b1 6c e5 3d 87 e7 a8 bd 3f 55 36 3e
       0.111226164 0.11202372 -0.08247285 0.17805956
0000f0 11 89 39 3e b7 79 8c be 6b 1b 63 3e 7a e8 c1 3d
       0.18118693 -0.2743661 0.22178428 0.094681695
000100 99 91 bc be 3a 2f 6c 3e 4d c0 8c bd e9 92 42 3e
       -0.36829832 0.2306489 -0.06872616 0.19001354
000110 26 64 24 3e 1c b9 65 3e 19 85 4f 3e 95 c0 c1 be
       0.16053829 0.22433895 0.20265616 -0.3784224
000120 44 57 a2 3e 68 6a 32 3e 00 4d a5 bd 72 65 ae be
       0.31707203 0.17423403 -0.08071327 -0.34061772
000130 46 97 b7 3d f4 7f 83 be 69 f9 a4 bb 7f 02 95 3e
       0.089644 -0.25683558 -0.005034615 0.29103467
000140 a0 2c 50 3d 80 44 bd bd 80 0a 1d bd 80 97 1e 3c
       0.050823808 -0.09241581 -0.03834009 0.009679675
000150 d4 67 06 3e 65 41 61 be 90 0a 22 be b5 30 a8 3e
       0.13125545 -0.21997602 -0.15824342 0.3284966
000160 a4 b2 31 3e 7c 1c 6b be 20 87 ac bc 66 d9 e0 be
       0.17353302 -0.22960085 -0.021060526 -0.43915862
000170 02 3c 9d 3e ea 11 e7 be b6 f7 e1 be c0 7c ef bd
       0.30709845 -0.45130855 -0.441343 -0.11693716
000180 9c 44 e3 be 30 b3 e4 be d3 ed 8a bd 06 df 1d 3e
       -0.44388282 -0.4466796 -0.067836426 0.15417108
000190 83 91 5c be 8d 13 93 3e bd 56 da be 79 88 fe 3e
       -0.21539883 0.28725854 -0.426443 0.49713495
0001a0 9c 71 9f 3e 50 65 71 be 20 fb 84 3d 78 cd 12 be
       0.31141365 -0.23573804 0.06493211 -0.14336193
0001b0 91 04 9d be 49 b7 d8 be 52 12 00 3f 5f 0d c9 bd
       -0.30667546 -0.42327335 0.50027955 -0.098170035
0001c0 c6 b8 a8 3e 86 f5 f6 3e dd 29 f2 be df ce f8 3e
       0.3295347 0.48234195 -0.47297564 0.4859533
0001d0 49 37 fc 3e c3 9e 8d 3e 90 1f 6a be 54 05 01 be
       0.4926093 0.27660188 -0.22863603 -0.12599689
0001e0 db 60 35 be a5 82 56 3e e9 c8 2a 3e 60 41 ba bd
       -0.17712729 0.20948274 0.16678204 -0.090945005
0001f0 68 eb 8a 3e 70 b3 44 bd 80 af d9 be b0 33 4b bd
       0.27132726 -0.048022687 -0.42516708 -0.04960984
000200 a2 47 cd be 56 68 90 be ea de a7 3e 70 87 b7 3e
       -0.40093714 -0.28204602 0.32787257 0.35845518
000210 b3 3a 72 3e 1f c8 83 be 19 2a da 3e a7 50 ec 3e
       0.23655204 -0.25738618 0.42610243 0.46155283
000220 65 4d 99 be ba 7d 54 3c 02 be ca 3e d0 cc bd 3e
       -0.2994186 0.012969429 0.3959809 0.37070322
000230 c9 08 8f 3e 41 43 04 bc c3 86 11 be 59 ae 6d 3e
       0.2793639 -0.008072675 -0.14211564 0.2321104
000240 06 b3 c3 3e 08 b9 50 be 03 85 fe ba 22 d6 09 3e
       0.38222522 -0.20383084 -0.0019418303 0.13460591
000250 46 af be 3c 23 69 cf 3e da 01 a0 3e ea 3b e8 be
       0.023276936 0.405099 0.31251413 -0.4535821
000260 c2 36 c5 be 88 a7 ba bd f0 f1 54 3d 38 cd 34 be
       -0.3851834 -0.09113985 0.051988542 -0.1765641
000270 b0 c2 6f 3d 9a b5 a5 3e 54 a0 96 be c0 50 7b be
       0.058535278 0.32365113 -0.29419196 -0.24542522
000280 e1 9d 95 be b0 e3 83 bd 5f f6 78 3e d9 ee 3b bc
       -0.29222015 -0.06439912 0.24312733 -0.01147052
000290 6e 52 a8 be f0 58 28 be 90 70 1a 3d 66 55 b0 be
       -0.3287539 -0.16440177 0.037705004 -0.34440154
0002a0 ab e2 38 3e 2e 20 a0 3e 1c 03 52 3c a3 25 ec 3d
       0.18055217 0.3127455 0.012818124 0.11530616
0002b0 a0 79 99 be 12 43 d4 3e e6 5c a0 bd c8 c1 ad 3e
       -0.29975605 0.4145742 -0.07830219 0.33936906
0002c0 75 f9 c5 3d 6a 75 f4 be e9 86 9b 3e bc a6 32 be
       0.09666721 -0.4774583 0.30376366 -0.17446417
0002d0 98 85 b0 bd c2 cc 8e 3e 0e 55 a7 3e da d8 20 3d
       -0.08619231 0.27890593 0.3268208 0.039269306
0002e0 83 8d e6 3e fb a5 ba be 0c df bb be 18 f4 bc 3e
       0.4502984 -0.36454758 -0.3669361 0.3690498
0002f0 fe 1a ef 3e 32 a2 e4 3e 7a 57 c2 be 10 6a ef bd
       0.4670028 0.44654995 -0.37957364 -0.11690152
000300 87 74 d8 3e aa 0a 88 be a5 39 09 be bf f8 1d 3e
       0.42276403 -0.26570636 -0.13400896 0.1542692
000310 b4 19 aa 3e 03 86 98 3e 35 cf 6c 3e eb 03 f1 be
       0.33222735 0.29789743 0.23125918 -0.47073302
000320 7a d6 ef 3e ee 80 9e be 30 68 e7 bd da 8b f8 be
       0.4684332 -0.3095774 -0.11299169 -0.48544198
000330 fd a2 cf be 73 1d 30 be 40 b7 b5 3d 27 69 34 3e
       -0.40554038 -0.17198734 0.08872843 0.17618237
000340 48 5a ad bd e0 6b 39 be 90 a3 ac 3e fc 66 f9 be
       -0.084644854 -0.18107557 0.33718538 -0.48711383
000350 4e ed a1 3e 00 5b 64 be c8 4d 9b be 00 50 9a 3b
       0.31626362 -0.22300339 -0.3033278 0.004709244
000360 73 16 bc 3d 51 b8 e0 be 70 08 10 3d 90 6a f0 3d
       0.09183969 -0.43890622 0.035164297 0.11739075
000370 ac 29 ad 3e 28 36 a4 bd 7e ea d0 be b0 e8 2c bd
       0.33820856 -0.08018142 -0.40803903 -0.042214096
000380 00 e8 99 bd 00 be c3 3b c6 b2 82 be 00 cb 44 bb
       -0.075149536 0.0059735775 -0.25527018 -0.0030028224
000390 e0 1d 08 bd 18 99 14 3e 40 93 e3 bd 10 31 02 be
       -0.033231616 0.14511526 -0.1111207 -0.12714028
0003a0 00 e7 4b 3b 48 2b a8 be fc 42 f9 be 02 9c d4 3e
       0.0031113029 -0.3284552 -0.48683918 0.41525275
0003b0 98 c8 d8 3e 74 97 ea be 7a b6 8f be dc 68 20 be
       0.4234054 -0.45818675 -0.28068906 -0.15665
0003c0 cc 72 02 3e 08 62 23 be 94 5b 87 be 08 e7 25 3e
       0.12739104 -0.15955365 -0.26437056 0.16201413
0003d0 67 8d e2 3e d4 78 b3 3e aa 59 c9 3e 8e b8 85 3e
       0.44248506 0.35053122 0.3932622 0.26117367
0003e0 e0 3c b4 be 05 12 fb 3e e7 6c eb 3e 1d 00 e8 be
       -0.35202694 0.49037185 0.45981523 -0.45312586
0003f0 d8 f6 81 3d 10 b5 26 be d0 a5 da be 84 13 ee be
       0.0634591 -0.16280007 -0.4270463 -0.46499264

layer1.bias f4 [128]
000000 d8 ac 8a be 76 8f de 3d f7 89 10 bd c7 98 4c 3e
       -0.27084994 0.10867207 -0.035287824 0.19980155
000010 da 58 da 3d 48 fc 48 be 78 dd e3 bd 8c f7 a8 bd
       0.10661478 -0.19627488 -0.11126226 -0.08250341
000020 7c 7f 4b be 46 ef 4a be 47 8a 8f be 2f 42 ba be
       -0.1987285 -0.19817838 -0.28035185 -0.3637862
000030 ff 65 e9 3e b5 91 b2 3e 71 b8 eb be cb 68 57 be
       0.4558563 0.3487679 -0.46039155 -0.21036069
000040 2b 66 fa be 1a 5c b7 3b c0 92 9e 3e 0b 1f a8 3e
       -0.48906073 0.005595696 0.30971336 0.32836184
000050 00 d2 c9 bc 0e c2 86 bd 5c 5f 39 be 46 b5 b0 3e
       -0.024636269 -0.06579982 -0.18102783 0.345133
000060 77 93 77 3d 05 95 82 3e c8 1a c8 be 48 2f f7 3e
       0.060443368 0.25504318 -0.39082932 0.4827826
000070 e0 4d 5b 3e 2f 75 8f 3e 93 88 1f be 58 33 d9 bd
       0.21416426 0.2801909 -0.15579443 -0.10605496
000080 a9 d8 88 3e 05 56 a1 be 27 72 56 3e 73 02 6c be
       0.267278 -0.3151094 0.20941983 -0.2304781
000090 15 a6 e5 be b1 d2 d7 be b6 a8 d0 3e b4 a0 2d 3e
       -0.44853273 -0.42152932 0.40753716 0.16955835
0000a0 b4 9d 94 3e 18 aa e5 3e 15 ed d7 3d b2 d4 0d be
       0.29026568 0.44856334 0.10543267 -0.13850668
0000b0 8f 3b f0 bd 8f 30 06 3e 58 6b b5 3e 3c f2 7c be
       -0.1173011 0.13104461 0.3543346 -0.2470178
0000c0 c9 f5 a9 bc 3b c2 df 3e 1a ab bf 3e 9b f7 9e be
       -0.020747082 0.43702874 0.37435228 -0.31048283
0000d0 4e 1e 89 3e 18 0f e2 3e ba e2 75 be 78 4c 6c be
       0.26780933 0.4415214 -0.2401227 -0.23076046
0000e0 46 7d 95 3e 28 9b 19 3e 4c f6 f3 3e 30 6c 4a be
       0.2919714 0.15000594 0.47648847 -0.19767833
0000f0 bc 45 8d 3e 63 37 81 3e ac e2 69 3e b6 0d 92 be
       0.27592266 0.2523757 0.22840375 -0.28526086
000100 e0 4c 7c 3e 54 60 fa 3d 0a 67 cc 3e 30 76 24 be
       0.246387 0.122254044 0.39922363 -0.1606071
000110 21 8e 41 be ce 49 93 be 8d 0e b6 3e 80 40 89 bb
       -0.18901874 -0.28767246 0.35557976 -0.004188597
000120 12 ea 98 be a5 e5 b9 be 47 b4 74 bd a0 bf 53 bd
       -0.2986608 -0.36308017 -0.05974224 -0.05169642
000130 38 b7 3d be 54 a4 02 3e d0 c1 19 be 05 4a eb 3d
       -0.18526924 0.12757999 -0.1501534 0.114887275
000140 54 50 16 3e 58 ce ab 3e 95 18 23 3d f1 82 d1 be
       0.1467908 0.33555865 0.039818365 -0.40920213
000150 6d 4a 32 3e 64 96 2e be 6c 77 57 be a2 bf cd be
       0.17411204 -0.17049557 -0.2104165 -0.40185267
000160 c6 a8 89 be 5a 30 a5 3d 51 5a 73 be 4b eb ec be
       -0.26886576 0.08065863 -0.23764922 -0.46273264
000170 93 da bd 3d f0 de ab 3d 4f 44 1f be dc f0 9b 3e
       0.09270205 0.08392131 -0.15553401 0.304572
000180 9b 35 d7 3d 4d 11 e6 3e 8e e9 97 3e 4d ae 7b 3e
       0.10508271 0.44935074 0.29670376 0.24578209
000190 2c 2d 34 3e cf d5 ab 3e 0c 1e e8 b8 56 31 da 3e
       0.17595357 0.3356156 -0.00011068219 0.42615765
0001a0 16 75 5e 3e 80 4d f0 bc 20 c1 c9 3e 0b bb 4e bd
       0.21724352 -0.02933383 0.39405155 -0.050471347
0001b0 f1 ca ed bd 26 f3 3a 3e b2 ac b5 3e 67 8e be be
       -0.116109736 0.18256816 0.3548332 -0.3721802
0001c0 d2 b3 37 3d 4d 46 a1 3e b4 df 87 3e 2c 9d 39 3e
       0.044849224 0.31498948 0.2653786 0.18126363
0001d0 ea dc a7 3e e0 e9 0d be 48 5f 24 be 74 04 6b be
       0.32785732 -0.13858747 -0.16051972 -0.22950917
0001e0 6a d4 c7 3e 76 9b b1 be 83 ff 82 3e 34 24 69 be
       0.39029247 -0.3468892 0.25585565 -0.22767717
0001f0 81 10 f6 3e 50 e2 b0 bd 16 45 96 be 6c b5 c8 3d
       0.48059466 -0.08636916 -0.29349583 0.098002285

layer2.weight f4 [128, 128]
000000 12 9a 72 bd ce 89 9b 3d 52 04 28 bd fa b6 93 3d
       -0.059228964 0.075946435 -0.041019745 0.072126344
000010 5b 42 98 3d 4b 20 dd bc 84 64 5e 3d 00 18 00 3d
       0.07434531 -0.026992938 0.054295078 0.03127289
000020 cf 9e 9b bd cc cc 85 3d e3 ff 3b bd a1 df 62 bd
       -0.0759865 0.065332025 -0.04589833 -0.05538905
000030 59 2b 83 bd c4 e4 8a bd 24 bb 5f bd 36 85 6a bd
       -0.06404752 -0.06781915 -0.05462183 -0.057255946
000040 03 70 ce bc e9 c2 9d 3d 61 f0 de 3c 7a 49 34 bd
       -0.025199896 0.07703192 0.027214231 -0.044015385
000050 95 69 9c 3d f0 e9 85 bd f4 cf 48 bd a0 a6 bb bb
       0.07637326 -0.06538761 -0.049026445 -0.0057266504
000060 83 39 60 bb 23 b8 ce bc 02 58 fd bb ec 75 5d 3c
       -0.0034213967 -0.025234288 -0.0077314386 0.013516884
000070 34 18 3e bd 20 34 8b bd 78 9e 9e 3c d3 68 cb 3c
       -0.0464098 -0.067970514 0.019362673 0.024830258
000080 ce 5e a7 bd 5d 5f 15 bd ca 82 59 bd b3 01 be bc
       -0.081723794 -0.0364679 -0.053103246 -0.02319417
000090 47 9d a4 bd 47 c7 75 bd ee d0 b0 bd 36 7d 0d bd
       -0.08037811 -0.0600045 -0.086336 -0.03454324
0000a0 9f ee 66 3d f1 87 f0 bc ce 0b 9c 3d 18 c0 49 3c
       0.05637991 -0.029361697 0.07619439 0.012313865
0000b0 d8 58 98 bd d4 3a 4b bd b7 79 ad 3d 57 72 68 3d
       -0.074388206 -0.04961665 0.08470481 0.056749668
0000c0 7b 84 42 3d 60 5b 9e bd ed 2c 93 3d f3 86 d6 bc
       0.047489624 -0.07732272 0.07186303 -0.026187396
0000d0 2e 10 75 bd ae 31 62 bc a0 11 9e bd 66 e3 ab bd
       -0.059829883 -0.01380579 -0.077182055 -0.08392982
0000e0 19 74 31 bd 25 53 d8 3c d3 cb 8f 3c 82 f5 01 3d
       -0.04332361 0.026406834 0.017553246 0.031728275
0000f0 5f 99 8d 3d 34 dc 79 3d 41 d4 8d bc 65 fb 29 bd
       0.06914019 0.061001018 -0.017313125 -0.041499514
000100 19 72 93 3d 49 07 9b bd 7e fa 37 bd 2b 9d 88 3d
       0.07199497 -0.07569749 -0.044916622 0.066706024
000110 c4 da 45 3c fb 41 5b bd 6b 8a 1b 3b 19 6e 8c bd
       0.012076084 -0.05352972 0.0023733627 -0.06856937
000120 7d 46 b3 3d 48 29 88 3d fd 2a 8d 3b db f1 56 3d
       0.08753679 0.06648499 0.004308103 0.052476745
000130 bf 49 01 bd 9f a6 c8 3c 43 6a a6 bd af ae f3 bc
       -0.03156447 0.024493514 -0.081257366 -0.029746382
000140 05 66 46 3c 62 84 39 bd 39 fc 7d 3d 1b a7 01 3c
       0.012109284 -0.045292266 0.062008116 0.007913376
000150 2a 8e 91 3d 8a 87 82 3d 9b 2a c5 bb 28 d3 f9 bc
       0.07107194 0.06373508 -0.006017042 -0.030496195
000160 f9 9f ac bd 11 4b 8a 3a f7 a4 61 39 28 5a 28 bb
       -0.0842895 0.0010550936 0.00021519126 -0.0025688503
000170 46 8b 3a bd 24 bb 76 bd 59 ab bc 3c 22 c8 ec bc
       -0.045542978 -0.060237065 0.023030924 -0.028904025
000180 21 90 9f 3d 5b 2b 37 bd 4b 5c 06 3d 13 78 b5 3c
       0.07791162 -0.04471908 0.03280286 0.022151982
000190 d6 79 a1 bd 61 f1 a4 3d 70 ce 3c 3d ec df 84 3c
       -0.078845665 0.08053852 0.04609531 0.016220056
0001a0 2b c4 94 bd e2 6a 09 3d 81 47 5d bd d8 c2 80 3a
       -0.072639786 0.033549197 -0.05402327 0.0009823693
0001b0 34 7e 90 3d fe 29 d5 3c d0 0a 95 bd a6 59 f8 bc
       0.07055321 0.026021 -0.07277453 -0.030316185
0001c0 0e 93 1a bd e5 07 a5 bd ae 7f 94 bd 48 22 5d bd
       -0.0377379 -0.080581464 -0.072509155 -0.05398777
0001d0 f2 34 b4 3d e9 20 95 bd 53 a8 e5 3c f0 12 a7 3d
       0.08799161 -0.07281668 0.028034365 0.08157909
0001e0 49 b3 bf bc 4e 94 a2 bc 89 60 f5 3c dd b7 8b bd
       -0.02340092 -0.019846108 0.029953258 -0.068221785
0001f0 3a 98 ec 3c 63 47 3b bd e7 d9 2c bd eb 13 9a 3b
       0.028881181 -0.045722377 -0.042199995 0.0047020814
000200 82 86 63 3c a2 12 39 bd a8 72 45 bb 97 cd 9f 3c
       0.01388705 -0.045183785 -0.0030128155 0.019507213
000210 0d ee 28 3d 8a 1f 3c bc e7 fe f6 3c 9d d2 5e bd
       0.041242648 -0.011482129 0.030150844 -0.054400075
000220 48 0c dd 3c 3e 12 57 bd 1c e1 f0 bc 18 73 42 bd
       0.026983395 -0.05250763 -0.029404216 -0.047473043
000230 07 9f d6 3c c9 a2 a4 bc 97 88 52 3d 48 63 98 ba
       0.026198877 -0.020097153 0.051399793 -0.0011626268
000240 59 6f 9e bd 95 52 af 3c c9 47 28 3d 74 e7 84 bd
       -0.07736082 0.021401683 0.041084085 -0.06489459
000250 d6 06 a7 bc ce 33 47 3d 0e 93 24 3c 9e 61 00 bc
       -0.020389002 0.04863339 0.010044826 -0.007835774
000260 fe 89 e6 3c 29 61 e3 3b 69 c2 3d 3d 5d 91 01 3b
       0.028141972 0.0069390726 0.046327982 0.001977048
000270 dd 0b ac bd 56 d0 a1 3c 3a e2 72 bd 49 82 28 bd
       -0.084007 0.019752663 -0.059297778 -0.041139875
000280 38 d0 9b 3b a5 28 34 3d 4f be 02 bd ed f9 85 3d
       0.004755046 0.043984074 -0.031919774 0.0654181
000290 80 31 84 bd 78 c3 9b bc e1 f3 5c 3d 5e d3 96 3d
       -0.06454754 -0.019014105 0.05394352 0.07364534
0002a0 87 0b af 3d 41 95 72 bc 8f 7d 24 3d 0d 75 4b 3b
       0.085471205 -0.014806093 0.040158805 0.003104511
0002b0 c9 52 85 bc 7a 3b a5 3d ec 52 b8 3a 26 71 20 bd
       -0.016274827 0.08067985 0.0014062799 -0.039170407
0002c0 23 e9 9d bc c3 b5 96 bd b8 9b 93 3d bf 20 e3 3c
       -0.019276207 -0.07358887 0.07207435 0.027725575
0002d0 1d d8 69 3d 4f 63 a3 bb 21 59 e5 3c 3a e1 58 bc
       0.057090867 -0.0049862037 0.027996602 -0.013237292
0002e0 16 53 8b 3d 85 92 62 bd 9a fe ad 3d 81 38 a2 bd
       0.06802957 -0.055315513 0.08495827 -0.079209335
0002f0 f0 f5 44 bd 60 40 68 bd 4a b4 91 3d 1d a3 fe 3b
       -0.048086107 -0.056702018 0.071144655 0.0077709095
000300 07 7a 18 3d 3b ce 35 3d 7d 17 7f bd ac b2 93 bd
       0.03722575 0.04438613 -0.06227826 -0.07211813
000310 4b cb 43 3d ff d2 9a 3d 18 ce 5e 3c 8c 9b 49 3b
       0.047801297 0.075597756 0.013598941 0.003076288
000320 94 96 9a 3c 00 0b 3c bd 12 67 5b bd 8d c5 52 3b
       0.01887063 -0.045908928 -0.053565092 0.0032161206
000330 3e 04 74 bc f3 c5 7c bc 64 fc fa bc 5b f2 00 3d
       -0.01489359 -0.015428054 -0.030637927 0.03148113
000340 7a 53 ba bc 78 f0 86 bd e3 f8 9c 3d ce 58 00 bd
       -0.022744883 -0.065888345 0.07664659 -0.03133469
000350 2f 41 43 3d 49 2e ba bb 20 03 a8 3d 05 80 b3 3d
       0.047669586 -0.005681787 0.08203721 0.08764652
000360 44 02 97 bd 2e e5 86 bd de 6e ee bc 27 73 9e bc
       -0.07373479 -0.06586681 -0.0291056 -0.019342018
000370 53 09 cc 3c cc e9 03 bc e7 2a 2a bd 0b e4 4c 3d
       0.02490679 -0.008051347 -0.04154482 0.050022166
000380 18 1f 2a 3d c9 c7 cb 3c 54 9e 90 3d 26 7f 5d bc
       0.04153356 0.024875538 0.07061449 -0.013519084
000390 60 37 93 bd 2c fd 6f bc 66 eb 03 3d 34 0d 93 bd
       -0.07188296 -0.014647763 0.032206915 -0.07180253
0003a0 72 b0 96 3c 5c 53 9e 3a 8b e8 06 3d 86 d5 e4 3c
       0.018394683 0.0012079286 0.032936614 0.027933847
0003b0 8f ef 92 3d e4 e3 f1 3c c5 83 4a bd b4 93 72 3d
       0.071745984 0.029527612 -0.04944207 0.059222892
0003c0 b3 cb 8a bb 89 62 a4 bc 2b ce 5d bd 1d 89 95 3d
       -0.0042357086 -0.020066516 -0.054151695 0.07301543
0003d0 9a b1 5d 3d e3 19 a8 bd 9f 3a 51 3d b0 81 ec 3c
       0.054124452 -0.082080625 0.051081296 0.028870434
0003e0 a8 af 89 bc 7d 42 04 bd 88 ac 14 bc da 3d b9 3c
       -0.016807392 -0.03228997 -0.009074338 0.022612501
0003f0 50 23 71 3d 69 ae 8c 3d c0 86 fe 3c d3 8e e1 bc
       0.058871567 0.068692036 0.031070113 -0.027533924

layer2.bias f4 [128]
000000 ee 45 04 3d cb bd a3 ba f1 a7 1d bb db 3d a6 bd
       0.032293253 -0.0012492476 -0.00240564 -0.08117267
000010 aa 89 97 3c e3 39 eb 3c 46 df 9c bd c7 e9 cc bb
       0.01849826 0.028714126 -0.076597735 -0.0062534544
000020 6c db 95 bd 39 79 b0 bc 8c e9 45 3c f1 8a 93 3d
       -0.07317242 -0.021542178 0.012079608 0.07204235
000030 a4 d1 04 3d 0e d9 29 3d a5 d3 b0 3d a4 2e b4 bb
       0.03242649 0.041466765 0.08634118 -0.005498724
000040 38 db b0 3c 49 d2 74 bd 7c b0 49 3d a6 28 ab bd
       0.021588907 -0.059770856 0.049240574 -0.083573624
000050 dc 14 8d bd 4a 9b 41 bc c4 74 40 bd ee ba aa 3d
       -0.06888744 -0.011816809 -0.046986356 0.08336435
000060 31 c6 8c 3d 18 c5 2c 3d 04 33 2f bd cf d9 3b bd
       0.068737395 0.04218015 -0.04277326 -0.045862015
000070 f4 ff ae bb f0 28 41 3d 25 af 2a 3d 9e 60 af 3d
       -0.0053405706 0.04715818 0.041670937 0.0856335
000080 28 13 bd bc e9 1e c3 3c 75 4d c5 bc de ad 05 3d
       -0.023080423 0.02381845 -0.024084786 0.032636516
000090 d0 8c 1c 3d 56 0a ea 3c 72 f0 ed bc 24 55 ae 3d
       0.038220227 0.028569382 -0.029045317 0.08512333
0000a0 47 11 e7 3a b1 2b a9 bd 32 ff b6 3c 39 26 4a bd
       0.001762905 -0.082602866 0.022338483 -0.04935286
0000b0 ae 3e 76 bd 46 5b bc 3b 38 82 0a bc 75 8b 88 3c
       -0.06011837 0.0057481853 -0.008453898 0.01666806
0000c0 c2 10 16 bc 10 67 31 bd 8d 4a 8d 3d a1 f9 4b ba
       -0.009159269 -0.04331118 0.06898985 -0.0007781033
0000d0 34 69 a1 3d fb 54 0a 3d fd a5 07 3c 74 39 77 3d
       0.07881394 0.03377245 0.008279321 0.060357526
0000e0 17 e3 32 3c 85 85 83 3d 13 bf 3f 3d aa 48 68 bd
       0.0109184 0.06421951 0.046813082 -0.056709923
0000f0 06 9e a9 bd ec bd 80 bd 9c 20 5a bd 4d c4 9e bd
       -0.08282094 -0.06286225 -0.053253755 -0.07752285
000100 57 38 95 3d 9a 1e 10 bd cb 88 1b bc df f7 96 3d
       0.072861366 -0.035185434 -0.009493063 0.073714964
000110 d9 85 7a bd 9a f9 ae 3d 70 72 16 3d 51 ff 67 3d
       -0.061162803 0.085437015 0.03673023 0.056639973
000120 1b c1 d5 3c d6 52 8d bd 65 e5 79 3d 02 fb 62 3d
       0.026093056 -0.06900565 0.061009783 0.05541516
000130 d5 f3 a4 3d 11 c7 9b bd 7f 69 c4 3c ed ee 37 3d
       0.0805432 -0.07606328 0.023976086 0.04490559
000140 ca da 31 bd 57 33 7e 3d 45 b4 ad bd 35 37 07 bc
       -0.043421544 0.06206068 -0.08481649 -0.0082529085
000150 0f 45 09 3d de ab 8b bd 62 07 c9 bc 43 6a 49 3d
       0.033513125 -0.068198904 -0.024539653 0.049173605
000160 68 eb b4 3c 19 5d 90 bd 8e 7b 31 bd 36 60 84 bd
       0.022084907 -0.07049007 -0.04333072 -0.06463663
000170 86 04 96 bd ba ed 81 bc be 2c a6 bd 90 50 3f 3c
       -0.073250815 -0.015860427 -0.08114003 0.011676922
000180 9e c9 9e 3d f9 92 df bc 27 1c 0b 3c 2b c2 37 3d
       0.07753299 -0.027291762 0.008490599 0.044862907
000190 5e df a9 bd 55 ae 95 3d 90 a7 9e 3d 98 6a a9 bd
       -0.08294557 0.07308642 0.07746804 -0.08272284
0001a0 ef 6f a8 bd e5 47 a2 bc ee b7 8f 3d 55 e8 6f bd
       -0.08224475 -0.019809673 0.07017504 -0.05857118
0001b0 69 0c b4 bd dc 51 f9 3c ed 84 b6 3d 94 4b 23 3d
       -0.087914295 0.030434541 0.08912072 0.039867
0001c0 14 ac 26 bd 97 9c 4f bd da 0e 26 bd 5c 8c 82 bd
       -0.04069145 -0.050686445 -0.040541507 -0.06374428
0001d0 8a 0e a4 bd 58 1c 9c 3d 41 25 18 3d b6 c1 c8 bc
       -0.080105856 0.07622594 0.037144903 -0.024506431
0001e0 47 d6 77 bd 77 2c b8 3a f8 d1 e2 3a 99 d2 b0 bd
       -0.060507085 0.0014051337 0.0017305007 -0.08633918
0001f0 51 63 5d bd 1a 34 eb 3c 05 76 7b bd 50 ea 4f bd
       -0.054049794 0.028711367 -0.06139185 -0.050760567

layer3.weight f4 [4, 128]
000000 05 c7 00 3d 75 5c 2f 3c bb 07 f4 bc 83 f4 66 3c
       0.0314398 0.010703196 -0.029788842 0.014096382
000010 db e3 73 bc 43 df d7 3b 24 9b a3 3b 07 16 c2 bc
       -0.014885868 0.006587894 0.0049928594 -0.023692144
000020 95 5a ac 3d 20 2b 70 bd b1 6b d5 bc 09 ec 08 bd
       0.08415715 -0.058634877 -0.026052328 -0.033428226
000030 76 b6 9c bd 30 2a d6 3c 7c 66 3a bd 2d 64 97 bd
       -0.07651989 0.026143163 -0.045507893 -0.07392154
000040 62 7b 8f bd 4c 4f 2c bd 34 ea 85 bd a6 91 8b bb
       -0.07005955 -0.04206781 -0.06538811 -0.004259306
000050 7f 34 b5 bc ff 62 ae 3d f7 64 8d bd 96 41 ee 3a
       -0.022119759 0.08514976 -0.06904023 0.0018177505
000060 3e 56 b7 bd 9f 96 35 3d d8 73 89 bd 7f f0 26 bd
       -0.08951996 0.044333097 -0.067115486 -0.0407567
000070 5c 40 91 3c 4f 1a 23 bd 17 95 00 3d f0 02 bf bb
       0.017730884 -0.03982001 0.031392183 -0.0058292076
000080 56 cf 25 bd bf b9 d6 bc 33 90 bb 3c b6 e7 88 bd
       -0.040480934 -0.026211618 0.022895908 -0.0668482
000090 4f a9 ca 3c e1 21 b0 bd 92 93 b5 3c c9 dd 1f 3b
       0.024738936 -0.08600212 0.022165094 0.002439367
0000a0 99 64 06 bd c4 e2 52 bd bc 8e 2f bd f0 a8 9d bd
       -0.03281078 -0.05148579 -0.04286073 -0.07698238
0000b0 8c 26 80 3d 12 3a 38 3d 93 f7 97 bd 9d 01 93 bd
       0.06257352 0.044977255 -0.07420268 -0.07178042
0000c0 80 cb 07 bd 1a af 07 3d 23 5a 86 bd 1b 84 55 bd
       -0.033153057 0.033125974 -0.06560161 -0.05212794
0000d0 a6 d6 b4 3c e6 4d 10 3d a5 e9 96 3d 8d 36 31 3d
       0.022075009 0.03523054 0.07368783 0.043264914
0000e0 7b 4c 1f 3c a8 59 12 bc cb fd 61 bd 9a 42 7c bd
       0.009722824 -0.0089325085 -0.055173676 -0.061586954
0000f0 e0 79 8f bd a0 83 9a bd a1 d4 50 bc bf 18 97 3c
       -0.07005668 -0.07544637 -0.012746007 0.018444417
000100 f9 28 92 bd 5c 22 36 bd 61 8e 12 3d bc 04 b2 3c
       -0.07136721 -0.04446636 0.035780314 0.021730773
000110 a5 4e 90 3d ec 3e 81 3d 38 af b1 bc 9b 6d 54 bd
       0.0704625 0.063108295 -0.021689996 -0.05186234
000120 e8 2d 8d 3d 9a 7c 12 3d 1d 4f 95 bc c1 e7 1e bd
       0.068935215 0.03576336 -0.0182262 -0.038795236
000130 e6 0c 71 3d 13 34 31 3d ce 64 1e bd 8e 88 33 bc
       0.05885019 0.043262552 -0.038670354 -0.01095785
000140 c0 e4 57 bd eb f2 28 3d e2 4c 38 3d 19 1f d1 bb
       -0.052708387 0.04124729 0.044995196 -0.006381881
000150 73 66 5c bd f0 e3 80 bd ca c9 df 39 ae 9a 98 bd
       -0.05380864 -0.06293476 0.0004268422 -0.07451378
000160 d1 52 a5 bc 00 65 c6 3c 88 fa 4e 3d 17 8d 1b bb
       -0.020181092 0.024218082 0.050531894 -0.002373522
000170 24 b0 7e bd c7 3b 56 bd 49 19 8f 3c 57 9e 0c bb
       -0.0621797 -0.052303102 0.017468112 -0.0021456683
000180 7a 68 13 bc 72 9e 94 bd 2d 61 1d 3b 4e 74 59 bd
       -0.008997077 -0.072567835 0.002401422 -0.053089432
000190 eb 5e c8 3c e3 df 6a bd df 7d 9b bd b2 99 d5 bc
       0.024459323 -0.05734242 -0.075923674 -0.026074264
0001a0 94 23 9a 3d 5c f5 10 3d 0e 88 3a 3d ee 2c ea 3c
       0.07526317 0.035390243 0.045539908 0.028585877
0001b0 99 a4 7d 3d 10 3a f3 bc 88 a5 1b 3c de da ae bc
       0.06192455 -0.029690772 0.009499915 -0.021344598
0001c0 af 69 0a 3b 4d 7e 70 bd 75 56 84 3c 80 d5 ae 3c
       0.0021120121 -0.0587142 0.016154507 0.02134204
0001d0 ce 33 98 3d a8 98 3b 3b 46 8c 3f 3d 6d 9b 18 3d
       0.07431756 0.0028624926 0.046764635 0.0372576
0001e0 75 36 8f bd 3e 52 a5 bc e2 f2 80 3d 32 b5 52 3d
       -0.06992809 -0.020180818 0.06296326 0.051442333
0001f0 46 70 e8 3b d1 16 13 bc 20 64 73 3d d3 24 74 bc
       0.007093462 -0.008977608 0.05942166 -0.014901358
000200 fd 05 ce 3c ff 81 18 3d 0a 69 8f bd e1 b9 79 bc
       0.02514934 0.03723335 -0.070024565 -0.015242071
000210 e4 4b 9d 3d 2e f3 03 bc 09 64 47 3d 3f 99 e3 bc
       0.076804906 -0.008053584 0.048679385 -0.027783034
000220 bd d3 f3 3c 50 1a 20 bd 4f b1 76 bd a4 78 c4 3c
       0.02976405 -0.039087594 -0.06022769 0.023983307
000230 03 95 13 3d 8d b0 92 bd b2 64 8c bd 5b 6b 48 bd
       0.03603078 -0.07162581 -0.068551436 -0.048930507
000240 d8 97 a0 3d b3 a1 f1 3c fb 24 17 bd 35 98 11 bd
       0.07841462 0.02949605 -0.0369005 -0.035545547
000250 ec 21 50 3d 63 48 98 bb 92 ba ed bc 10 93 d5 3c
       0.0508136 -0.004647301 -0.029019628 0.026071101
000260 a6 09 7c bd fb c1 a0 3d 70 c0 29 bc 04 b6 44 bb
       -0.06153264 0.07849499 -0.010360822 -0.0030015716
000270 a6 08 3c bb 76 d2 dd 3c 23 ca b0 3d 14 42 45 3c
       -0.0028691678 0.027077895 0.086323045 0.01203968
000280 11 a8 4f bd 17 71 73 bc b2 dc 1c bd 01 a1 19 3d
       -0.05069739 -0.014858506 -0.03829641 0.03750706
000290 2e 24 14 bd 54 06 a6 3d a2 cf 75 3d ba 34 90 ba
       -0.036167316 0.08106676 0.060012467 -0.0011002042
0002a0 64 99 69 bd 1a 79 45 bd b1 27 f7 3c 3f 1a 27 3a
       -0.05703105 -0.048211195 0.030170294 0.00063744554
0002b0 5e 0e 22 3d 60 6f 9c 3d 46 84 a5 bc 1b 17 c8 3c
       0.039564483 0.076384306 -0.020204674 0.02442508
0002c0 e3 1f 11 bd f0 93 01 3d 40 f9 62 3d c0 ef 59 3d
       -0.0354308 0.031635225 0.055413485 0.05320716
0002d0 5b 1e cb 3c e5 63 a2 bd bb 2f 83 3d d4 c4 9e bd
       0.024794748 -0.079292096 0.06405588 -0.07752386
0002e0 7e 5e 9f 3d 71 86 3f bd b6 2c 2d 3c 42 89 84 bc
       0.07781695 -0.046759073 0.010569742 -0.01617873
0002f0 f2 62 77 3d a8 92 5f 3d 27 5c b0 bd a0 57 0f bc
       0.060397096 0.05458322 -0.08611327 -0.008748919
000300 ee 9f cc 3c 8b 86 2e 3d 1d 5a d1 3c cb 50 4b 3d
       0.024978604 0.04260878 0.025555665 0.049637597
000310 f4 c5 39 bb e9 8a 8f 3d 2e a8 94 bd 09 02 9b 3c
       -0.002834675 0.07008917 -0.0725864 0.018921869
000320 b9 65 d6 bc 95 64 75 3d c7 b9 e7 bc 40 d3 a8 3c
       -0.026171552 0.059910376 -0.028286828 0.020608544
000330 ee 89 92 3d c6 66 5b bd 15 b6 23 bd 99 4d 8a bd
       0.07155214 -0.05356481 -0.03996857 -0.06753082
000340 bf 61 65 bc 23 ab 68 3d 94 a9 a2 3d 45 ab 51 bd
       -0.014000355 0.056803834 0.07942501 -0.051188726
000350 7f 8f 49 bd 17 5a 1c 3d 2c 14 9b 3d 77 ab 1b 3d
       -0.049209114 0.038171854 0.07572207 0.03800532
000360 d3 8e 8e 3d cb e9 0b bc c3 00 0e 3d af 6d ee bc
       0.06960835 -0.008539627 0.034668695 -0.029105036
000370 df 7e 22 bc 1b 99 cb 3c 71 03 70 3d a1 74 50 bd
       -0.009917944 0.02485328 0.058597032 -0.050892476
000380 91 22 b8 3b 5f 10 57 3d 4c e9 98 3c e2 b5 ce 3c
       0.005619355 0.052505847 0.018665932 0.025233213
000390 ca a1 d2 bc 6a fa b1 3d e2 3b 02 3d f7 4e 4c bd
       -0.025711913 0.08690341 0.03179539 -0.049879994
0003a0 90 72 e8 3c 16 4a ad 3d 81 d4 90 3c 7f 3f 2f 3c
       0.02837494 0.084613964 0.017679455 0.010696291
0003b0 6b da 07 bb 27 b9 14 3d eb 31 07 3d 9b cf a6 3d
       -0.0020729552 0.036309388 0.03300659 0.08145066
0003c0 62 f6 52 bd cd 76 dc 3c 92 a1 62 3d 2d 9a 20 bd
       -0.0515045 0.026912117 0.055329867 -0.039209533
0003d0 c2 05 ad bd ff f1 46 3d 00 d0 a2 bd f7 19 18 3d
       -0.08448364 0.04857063 -0.07949829 0.037134137
0003e0 71 b4 93 bd 98 f7 81 bd 03 5c 14 bd ac f6 32 3c
       -0.07212151 -0.06346053 -0.03622056 0.010923069
0003f0 a0 ca a5 bd 2e 62 a0 3d 60 d6 91 bb dd ba 9a bd
       -0.08095288 0.07831226 -0.0044506043 -0.075551726

layer3.bias f4 [4]
000000 2a e9 dc 3c 2a 94 94 3d 86 98 3f bc 2a e7 17 bd
       0.02696665 0.072548226 -0.011694079 -0.03708569

layer1.weight f4 [128, 4]
000000 84 3a 6e be 6e 8c c5 3e e0 5b 13 be de 68 b8 be
       -0.2326451 0.38583702 -0.14390516 -0.36017507
000010 ec 9e 86 be b0 b6 7e bd d4 bf fb 3e 40 3a ea 3e
       -0.26293123 -0.062185943 0.4916979 0.45747566
000020 40 9d e7 3e bc 02 ed be f6 cb 90 be b4 d8 78 3e
       0.4523716 -0.4629115 -0.2828061 0.24301416
000030 8a b2 f9 be f4 0b 52 3e c0 c9 f5 3c 00 c4 76 bb
       -0.48769027 0.20512372 0.030003428 -0.0037653446
000040 b6 b9 b3 3e a8 c1 df bd d0 2d 6d 3e 10 7c 57 3e
       0.35102624 -0.10925609 0.23162007 0.2104342
000050 40 8f 3b bc 48 18 e3 be 72 5c dd be e8 18 af bd
       -0.011447728 -0.44354463 -0.43234593 -0.08549672
000060 e0 fb dd be d6 60 f5 3e 28 67 e3 bd 1a 39 f4 be
       -0.43356228 0.47925442 -0.1110366 -0.47699815
000070 64 46 e5 be 58 0d 92 be c8 42 98 be ee 2e e1 3e
       -0.44780266 -0.28525805 -0.2973845 0.43981117
000080 00 b6 fd bd 04 6e bb 3e 40 c1 7e 3e 1e da 91 3e
       -0.12388229 0.36607373 0.24878407 0.28486723
000090 7e fe a8 be 00 26 39 3d 60 61 a4 3d 3c c0 f0 3e
       -0.33006662 0.045202255 0.08026385 0.47021663
0000a0 a2 20 b0 be 40 31 9a 3e 36 4e e1 3e 1c 6d 38 3e
       -0.34399897 0.301157 0.44004983 0.18010372
0000b0 0c c5 5f be e0 30 7b 3d 50 9e d5 3e 7a 28 d9 3e
       -0.21852511 0.061325908 0.41722345 0.42413694
0000c0 e0 b9 99 3c 60 4f e6 3e 90 1d e9 3d e4 24 f0 be
       0.01876539 0.44982433 0.11382592 -0.46903145
0000d0 7c ff 5b be e8 8b 9d be f0 1e d3 3e 98 28 36 3e
       -0.21484178 -0.30770802 0.4123454 0.17788923
0000e0 10 d6 e5 3d b8 e0 e6 3d a8 6f a7 bd 30 11 37 3e
       0.1122247 0.112733305 -0.081755936 0.1787765
0000f0 34 09 3d 3e 00 ea 8e be 98 cc 65 3e d8 4a c7 3d
       0.18460542 -0.27912903 0.22441328 0.09731072
000100 0a 9e b9 be 64 09 72 3e f0 40 81 bd 98 52 48 3e
       -0.36253387 0.23636395 -0.06311214 0.19562757
000110 50 ae 23 3e 9c 66 65 3e 88 4a 4f 3e de dd c1 be
       0.15984464 0.22402424 0.20243275 -0.37864584
000120 44 57 a2 3e 68 6a 32 3e 00 4d a5 bd 72 65 ae be
       0.31707203 0.17423403 -0.08071327 -0.34061772
000130 a8 19 bd 3d f0 a0 81 be 00 ac 19 bb 0c 63 96 3e
       0.09233409 -0.25318098 -0.0023448467 0.29372442
000140 a0 2c 50 3d 80 44 bd bd 80 0a 1d bd 80 97 1e 3c
       0.050823808 -0.09241581 -0.03834009 0.009679675
000150 e0 cd 06 3e c8 fd 5e be d8 12 22 be 90 2c a8 3e
       0.13164473 -0.21776497 -0.15827501 0.32846498
000160 a4 b2 31 3e 7c 1c 6b be 20 87 ac bc 66 d9 e0 be
       0.17353302 -0.22960085 -0.021060526 -0.43915862
000170 02 3c 9d 3e ea 11 e7 be b6 f7 e1 be c0 7c ef bd
       0.30709845 -0.45130855 -0.441343 -0.11693716
000180 9c 9f e1 be 30 b3 e4 be 68 6e 85 bd bc 9e 20 3e
       -0.44067085 -0.4466796 -0.06515199 0.15685552
000190 fc e9 5c be c8 2c 94 3e 86 fa da be b0 e4 fd 3e
       -0.21573633 0.28940415 -0.4276926 0.49588537
0001a0 9c 71 9f 3e 50 65 71 be 20 fb 84 3d 78 cd 12 be
       0.31141365 -0.23573804 0.06493211 -0.14336193
0001b0 4a 60 9e be b2 8f da be 0e b0 fe 3e b8 df ce bd
       -0.30932838 -0.42687756 0.49743694 -0.10101265
0001c0 66 ad a7 3e 42 77 f6 3e 7e 1c f3 be 3e dc f7 3e
       0.3274948 0.48137861 -0.47482675 0.4841022
0001d0 7a 34 fc 3e a4 f2 8e 3e 90 c9 68 be a8 5e ff bd
       0.49258786 0.27919495 -0.2273314 -0.12469226
0001e0 10 f3 35 be 54 31 55 3e 68 2d 2b 3e 60 78 b9 bd
       -0.17768502 0.20819598 0.1671654 -0.09056163
0001f0 68 eb 8a 3e 70 b3 44 bd 80 af d9 be b0 33 4b bd
       0.27132726 -0.048022687 -0.42516708 -0.04960984
000200 ec 27 cc be 9a 74 8f be b6 22 a9 3e 3c cb b8 3e
       -0.39874208 -0.28018647 0.33034295 0.36092556
000210 80 5f 77 3e 48 12 81 be ec ac dc 3e 7a d3 ee 3e
       0.24157524 -0.2520926 0.4310068 0.4664572
000220 d8 9a 98 be c0 2d 4d 3c e6 b2 cb 3e b4 c1 be 3e
       -0.29805636 0.012523115 0.39784926 0.3725716
000230 ec ec 8e 3e 00 09 17 bc e8 0e 12 be 34 26 6d 3e
       0.27915132 -0.009218454 -0.14263499 0.23159105
000240 24 cf c3 3e 40 fb 4e be 00 fc 15 bb 3c 7b 09 3e
       0.38243973 -0.20213032 -0.00228858 0.13425916
000250 80 ee a0 3c e4 69 cd 3e 46 fe 9d 3e 7e 3f ea be
       0.019644976 0.4011985 0.30858058 -0.45751566
000260 c2 36 c5 be 88 a7 ba bd f0 f1 54 3d 38 cd 34 be
       -0.3851834 -0.09113985 0.051988542 -0.1765641
000270 b0 c2 6f 3d 9a b5 a5 3e 54 a0 96 be c0 50 7b be
       0.058535278 0.32365113 -0.29419196 -0.24542522
000280 ee 67 93 be 00 95 77 bd 8c 92 7d 3e 00 58 e4 bb
       -0.2879023 -0.06044483 0.24762934 -0.006968498
000290 6e 52 a8 be f0 58 28 be 90 70 1a 3d 66 55 b0 be
       -0.3287539 -0.16440177 0.037705004 -0.34440154
0002a0 74 3c 39 3e fa 4b a1 3e 00 46 54 3c 00 6e ec 3d
       0.18089467 0.31503278 0.012956142 0.11544418
0002b0 4c 02 9a be e2 82 d4 3e a0 68 a8 bd da be ab 3e
       -0.30079877 0.41506106 -0.08223081 0.33544046
0002c0 40 a3 c5 3d dc e2 f4 be 34 e2 9a 3e 24 f0 33 be
       0.09650278 -0.4782933 0.30250704 -0.17572075
0002d0 98 1f af bd 2e bd 8f 3e b4 96 a7 3e 00 e6 22 3d
       -0.08550948 0.2807402 0.32732165 0.039770126
0002e0 74 be e7 3e 5c 58 b9 be 20 4e bc be 04 85 bc 3e
       0.45262492 -0.36200225 -0.36778355 0.36820233
0002f0 fe 1a ef 3e 32 a2 e4 3e 7a 57 c2 be 10 6a ef bd
       0.4670028 0.44654995 -0.37957364 -0.11690152
000300 c2 69 d8 3e 06 7c 87 be 90 ef 09 be d4 42 1d 3e
       0.42268187 -0.2646181 -0.13470292 0.15357524
000310 0c 72 ac 3e d0 23 9b 3e a8 fa 71 3e 32 6e ee be
       0.3368076 0.3030076 0.23630774 -0.46568447
000320 7a d6 ef 3e ee 80 9e be 30 68 e7 bd da 8b f8 be
       0.4684332 -0.3095774 -0.11299169 -0.48544198
000330 64 9c cd be 1c fb 30 be c0 91 be 3d 68 d6 38 3e
       -0.4015838 -0.1728329 0.09305143 0.1805054
000340 48 5a ad bd e0 6b 39 be 90 a3 ac 3e fc 66 f9 be
       -0.084644854 -0.18107557 0.33718538 -0.48711383
000350 4e ed a1 3e 00 5b 64 be c8 4d 9b be 00 50 9a 3b
       0.31626362 -0.22300339 -0.3033278 0.004709244
000360 d8 fe b8 3d 96 fe e0 be c0 61 0a 3d 38 97 ed 3d
       0.090329826 -0.43944234 0.033784628 0.11601108
000370 ac 29 ad 3e 28 36 a4 bd 7e ea d0 be b0 e8 2c bd
       0.33820856 -0.08018142 -0.40803903 -0.042214096
000380 00 e8 99 bd 00 be c3 3b c6 b2 82 be 00 cb 44 bb
       -0.075149536 0.0059735775 -0.25527018 -0.0030028224
000390 e0 1d 08 bd 18 99 14 3e 40 93 e3 bd 10 31 02 be
       -0.033231616 0.14511526 -0.1111207 -0.12714028
0003a0 00 e7 4b 3b 48 2b a8 be fc 42 f9 be 02 9c d4 3e
       0.0031113029 -0.3284552 -0.48683918 0.41525275
0003b0 98 c8 d8 3e 74 97 ea be 7a b6 8f be dc 68 20 be
       0.4234054 -0.45818675 -0.28068906 -0.15665
0003c0 cc 72 02 3e 08 62 23 be 94 5b 87 be 08 e7 25 3e
       0.12739104 -0.15955365 -0.26437056 0.16201413
0003d0 d8 f1 e3 3e 76 5c b3 3e 74 bb ca 3e 58 1a 87 3e
       0.4452045 0.3503148 0.3959614 0.26387286
0003e0 84 79 b3 be 9c 76 fd 3e 48 1a ed 3e bc 52 e6 be
       -0.35053647 0.49504554 0.46309114 -0.44984996
0003f0 d8 f6 81 3d 10 b5 26 be d0 a5 da be 84 13 ee be
       0.0634591 -0.16280007 -0.4270463 -0.46499264

layer1.bias f4 [128]
000000 d8 ac 8a be 48 0b e2 3d 40 ba 08 bd 88 e0 4c 3e
       -0.27084994 0.11037308 -0.033380747 0.20007527
000010 78 1c e1 3d 48 fc 48 be 78 dd e3 bd 18 5d a7 bd
       0.10991758 -0.19627488 -0.11126226 -0.08172053
000020 dc d1 4b be 44 76 4a be d0 ed 8e be 90 77 b9 be
       -0.19904274 -0.19771677 -0.27915812 -0.3622403
000030 26 b0 e8 3e 3e 10 b4 3e 66 5a eb be a0 b7 54 be
       0.4544689 0.35168642 -0.45967406 -0.20773172
000040 58 86 f7 be 00 0a b0 3b c0 92 9e 3e 96 7f a9 3e
       -0.48344684 0.005372286 0.30971336 0.33105153
000050 00 d2 c9 bc a0 d2 86 bd 5c 5f 39 be 46 b5 b0 3e
       -0.024636269 -0.06583142 -0.18102783 0.345133
000060 20 49 81 3d 3e f1 81 3e c8 1a c8 be b4 ba f5 3e
       0.063127756 0.25379366 -0.39082932 0.47994006
000070 a0 68 59 3e 2c 20 90 3e 14 24 1f be 58 33 d9 bd
       0.21231318 0.28149545 -0.15541106 -0.10605496
000080 74 1c 8a 3e 34 d3 9e be f0 5b 58 3e 98 8a 6c be
       0.26974833 -0.3102051 0.21128821 -0.23099744
000090 88 d3 e5 be 44 d6 d9 be b6 a8 d0 3e b4 a0 2d 3e
       -0.44887948 -0.42546284 0.40753716 0.16955835
0000a0 c8 eb 96 3e 18 aa e5 3e 70 35 d8 3d 88 da 11 be
       0.29476762 0.44856334 0.105570674 -0.1424352
0000b0 60 ce f2 bd d8 b3 06 3e 48 fc b4 3e 3c f2 7c be
       -0.11855769 0.13154542 0.35348725 -0.2470178
0000c0 60 a6 af bc f2 57 e2 3e 1a ab bf 3e fe c0 9c be
       -0.021441638 0.44207722 0.37435228 -0.3061599
0000d0 4e 1e 89 3e 18 0f e2 3e 64 4c 77 be 78 4c 6c be
       0.26780933 0.4415214 -0.24150234 -0.23076046
0000e0 46 7d 95 3e 28 9b 19 3e 4c f6 f3 3e 30 6c 4a be
       0.2919714 0.15000594 0.47648847 -0.19767833
0000f0 bc 45 8d 3e 2e 99 82 3e 6c 3d 6d 3e b6 0d 92 be
       0.27592266 0.25507492 0.23167962 -0.28526086
000100 e0 4c 7c 3e 30 17 ef 3d 90 59 cd 3e 30 76 24 be
       0.246387 0.116743445 0.40107393 -0.1606071
000110 84 48 40 be bc bf 93 be c0 66 b7 3e 80 40 89 bb
       -0.18777663 -0.2885722 0.3582058 -0.004188597
000120 12 ea 98 be 8e 2e b7 be 98 b3 80 bd a0 bf 53 bd
       -0.2986608 -0.35777706 -0.06284255 -0.05169642
000130 38 b7 3d be 54 a4 02 3e 60 99 18 be 38 5e e4 3d
       -0.18526924 0.12757999 -0.14902258 0.11150783
000140 54 50 16 3e 58 ce ab 3e d0 18 22 3d cc 1b d0 be
       0.1467908 0.33555865 0.039574444 -0.40646207
000150 88 0c 34 3e a8 9b 2e be 78 b7 58 be 10 eb cd be
       0.17582905 -0.17051566 -0.21163738 -0.402184
000160 fa 83 88 be 98 8b a8 3d 78 6b 76 be ac 6e ec be
       -0.2666319 0.082297504 -0.24064434 -0.46178186
000170 f8 fb c4 3d 90 2f af 3d 78 87 1a be dc f0 9b 3e
       0.09618372 0.08553994 -0.1509074 0.304572
000180 d8 ca dc 3d 08 7a e6 3e 62 17 99 3e 28 2f 80 3e
       0.10780877 0.45014977 0.29900652 0.25035977
000190 2c 2d 34 3e 38 c7 ac 3e 00 70 a6 39 56 31 da 3e
       0.17595357 0.33745742 0.00031745434 0.42615765
0001a0 e4 cd 60 3e 80 4d f0 bc 1a 03 c9 3e 40 d7 60 bd
       0.21953541 -0.02933383 0.3926018 -0.05489278
0001b0 e8 9d e5 bd 0c 64 3d 3e d0 a2 b7 3e d2 bd be be
       -0.11211759 0.18495196 0.35866404 -0.37254196
0001c0 20 53 38 3d c2 aa a0 3e f2 c6 89 3e 2c 9d 39 3e
       0.04500115 0.31380278 0.26909596 0.18126363
0001d0 26 65 a9 3e e0 e9 0d be 48 5f 24 be 74 04 6b be
       0.33084983 -0.13858747 -0.16051972 -0.22950917
0001e0 ca a3 c8 3e 90 7e b1 be 3e 25 80 3e 34 24 69 be
       0.3918746 -0.34666872 0.25028414 -0.22767717
0001f0 62 a3 f7 3e 50 e2 b0 bd ba a3 96 be 28 21 cd 3d
       0.4836684 -0.08636916 -0.29421788 0.1001609

layer2.weight f4 [128, 128]
000000 12 9a 72 bd ce 89 9b 3d 52 04 28 bd fa b6 93 3d
       -0.059228964 0.075946435 -0.041019745 0.072126344
000010 5b 42 98 3d 4b 20 dd bc 84 64 5e 3d 00 18 00 3d
       0.07434531 -0.026992938 0.054295078 0.03127289
000020 cf 9e 9b bd cc cc 85 3d e3 ff 3b bd a1 df 62 bd
       -0.0759865 0.065332025 -0.04589833 -0.05538905
000030 59 2b 83 bd c4 e4 8a bd 24 bb 5f bd 36 85 6a bd
       -0.06404752 -0.06781915 -0.05462183 -0.057255946
000040 03 70 ce bc e9 c2 9d 3d 61 f0 de 3c 7a 49 34 bd
       -0.025199896 0.07703192 0.027214231 -0.044015385
000050 95 69 9c 3d f0 e9 85 bd f4 cf 48 bd a0 a6 bb bb
       0.07637326 -0.06538761 -0.049026445 -0.0057266504
000060 83 39 60 bb 23 b8 ce bc 02 58 fd bb ec 75 5d 3c
       -0.0034213967 -0.025234288 -0.0077314386 0.013516884
000070 34 18 3e bd 20 34 8b bd 78 9e 9e 3c d3 68 cb 3c
       -0.0464098 -0.067970514 0.019362673 0.024830258
000080 ce 5e a7 bd 5d 5f 15 bd ca 82 59 bd b3 01 be bc
       -0.081723794 -0.0364679 -0.053103246 -0.02319417
000090 47 9d a4 bd 47 c7 75 bd ee d0 b0 bd 36 7d 0d bd
       -0.08037811 -0.0600045 -0.086336 -0.03454324
0000a0 9f ee 66 3d f1 87 f0 bc ce 0b 9c 3d 18 c0 49 3c
       0.05637991 -0.029361697 0.07619439 0.012313865
0000b0 d8 58 98 bd d4 3a 4b bd b7 79 ad 3d 57 72 68 3d
       -0.074388206 -0.04961665 0.08470481 0.056749668
0000c0 7b 84 42 3d 60 5b 9e bd ed 2c 93 3d f3 86 d6 bc
       0.047489624 -0.07732272 0.07186303 -0.026187396
0000d0 2e 10 75 bd ae 31 62 bc a0 11 9e bd 66 e3 ab bd
       -0.059829883 -0.01380579 -0.077182055 -0.08392982
0000e0 19 74 31 bd 25 53 d8 3c d3 cb 8f 3c 82 f5 01 3d
       -0.04332361 0.026406834 0.017553246 0.031728275
0000f0 5f 99 8d 3d 34 dc 79 3d 41 d4 8d bc 65 fb 29 bd
       0.06914019 0.061001018 -0.017313125 -0.041499514
000100 19 72 93 3d 49 07 9b bd 7e fa 37 bd 2b 9d 88 3d
       0.07199497 -0.07569749 -0.044916622 0.066706024
000110 c4 da 45 3c fb 41 5b bd 6b 8a 1b 3b 19 6e 8c bd
       0.012076084 -0.05352972 0.0023733627 -0.06856937
000120 7d 46 b3 3d 48 29 88 3d fd 2a 8d 3b db f1 56 3d
       0.08753679 0.06648499 0.004308103 0.052476745
000130 bf 49 01 bd 9f a6 c8 3c 43 6a a6 bd af ae f3 bc
       -0.03156447 0.024493514 -0.081257366 -0.029746382
000140 05 66 46 3c 62 84 39 bd 39 fc 7d 3d 1b a7 01 3c
       0.012109284 -0.045292266 0.062008116 0.007913376
000150 2a 8e 91 3d 8a 87 82 3d 9b 2a c5 bb 28 d3 f9 bc
       0.07107194 0.06373508 -0.006017042 -0.030496195
000160 f9 9f ac bd 11 4b 8a 3a f7 a4 61 39 28 5a 28 bb
       -0.0842895 0.0010550936 0.00021519126 -0.0025688503
000170 46 8b 3a bd 24 bb 76 bd 59 ab bc 3c 22 c8 ec bc
       -0.045542978 -0.060237065 0.023030924 -0.028904025
000180 21 90 9f 3d 5b 2b 37 bd 4b 5c 06 3d 13 78 b5 3c
       0.07791162 -0.04471908 0.03280286 0.022151982
000190 d6 79 a1 bd 61 f1 a4 3d 70 ce 3c 3d ec df 84 3c
       -0.078845665 0.08053852 0.04609531 0.016220056
0001a0 2b c4 94 bd e2 6a 09 3d 81 47 5d bd d8 c2 80 3a
       -0.072639786 0.033549197 -0.05402327 0.0009823693
0001b0 34 7e 90 3d fe 29 d5 3c d0 0a 95 bd a6 59 f8 bc
       0.07055321 0.026021 -0.07277453 -0.030316185
0001c0 0e 93 1a bd e5 07 a5 bd ae 7f 94 bd 48 22 5d bd
       -0.0377379 -0.080581464 -0.072509155 -0.05398777
0001d0 f2 34 b4 3d e9 20 95 bd 53 a8 e5 3c f0 12 a7 3d
       0.08799161 -0.07281668 0.028034365 0.08157909
0001e0 49 b3 bf bc 4e 94 a2 bc 89 60 f5 3c dd b7 8b bd
       -0.02340092 -0.019846108 0.029953258 -0.068221785
0001f0 3a 98 ec 3c 63 47 3b bd e7 d9 2c bd eb 13 9a 3b
       0.028881181 -0.045722377 -0.042199995 0.0047020814
000200 82 86 63 3c 8b 4c 39 bd 93 fb ce bb e8 5d 8c 3c
       0.01388705 -0.045239013 -0.006316611 0.017134622
000210 51 7a 29 3d 8a 1f 3c bc e7 fe f6 3c a2 e8 60 bd
       0.041376416 -0.011482129 0.030150844 -0.054909356
000220 6a 9e e3 3c 74 89 57 bd 72 05 ea bc 00 8a 3f bd
       0.027785499 -0.05262132 -0.02856705 -0.046762466
000230 1e 15 c3 3c ee 84 a5 bc c5 45 55 3d 3b 43 b3 ba
       0.02381378 -0.020204987 0.05206849 -0.0013676652
000240 cb 40 97 bd 42 52 a2 3c c9 47 28 3d 64 f5 83 bd
       -0.07385405 0.019814614 0.041084085 -0.06443289
000250 d6 06 a7 bc 06 dc 47 3d 0e 93 24 3c 9e 61 00 bc
       -0.020389002 0.048793815 0.010044826 -0.007835774
000260 fe 5d e9 3c e5 cd e4 3b 69 c2 3d 3d 60 e7 7d 3a
       0.028487202 0.0069825524 0.046327982 0.00096856616
000270 ab 45 ab bd 42 e5 a0 3c e6 40 6e bd 49 82 28 bd
       -0.083628975 0.019640569 -0.05816736 -0.041139875
000280 90 1e ac 3b f0 40 36 3d cb 59 00 bd ab bb 86 3d
       0.005252667 0.044495523 -0.031335633 0.065787636
000290 32 a6 83 bd ab f8 ab bc e1 f3 5c 3d 5e d3 96 3d
       -0.064281836 -0.020992598 0.05394352 0.07364534
0002a0 08 04 af 3d 41 95 72 bc 36 38 27 3d 15 73 7c 3b
       0.08545691 -0.014806093 0.04082509 0.0038520743
0002b0 fb 33 92 bc ff 0d a7 3d 19 fd 03 3a 26 71 20 bd
       -0.017847052 0.081569664 0.0005034968 -0.039170407
0002c0 cd 39 a5 bc e8 85 9a bd b8 9b 93 3d ac 56 e6 3c
       -0.020169163 -0.07545072 0.07207435 0.0281175
0002d0 1d d8 69 3d 4f 63 a3 bb 86 97 d2 3c 3a e1 58 bc
       0.057090867 -0.0049862037 0.025707018 -0.013237292
0002e0 16 53 8b 3d 85 92 62 bd 9a fe ad 3d 81 38 a2 bd
       0.06802957 -0.055315513 0.08495827 -0.079209335
0002f0 f0 f5 44 bd 35 58 66 bd e4 d9 91 3d 1d a3 fe 3b
       -0.048086107 -0.056236465 0.071216375 0.0077709095
000300 07 7a 18 3d 5a 38 32 3d 23 5b 7d bd ac b2 93 bd
       0.03722575 0.043510772 -0.061854493 -0.07211813
000310 b6 5f 46 3d 1f c3 9b 3d d4 33 6e 3c 8c 9b 49 3b
       0.04843112 0.07605576 0.014538724 0.003076288
000320 94 96 9a 3c 5d 5a 3e bd 8e e6 5c bd 8d c5 52 3b
       0.01887063 -0.046472896 -0.05393081 0.0032161206
000330 3e 04 74 bc f3 c5 7c bc 51 7c f4 bc ba 2b fd 3c
       -0.01489359 -0.015428054 -0.029844435 0.03090464
000340 7a 53 ba bc 78 f0 86 bd 94 69 9d 3d a8 42 09 bd
       -0.022744883 -0.065888345 0.07686153 -0.033510834
000350 d2 6b 40 3d 13 6a 9e bb 32 ce ae 3d 0a 5e b4 3d
       0.046977825 -0.0048344224 0.085354224 0.08806999
000360 7a cc 98 bd 91 fa 86 bd 78 0a f9 bc af b8 98 bc
       -0.07460876 -0.065907605 -0.0304005 -0.018642752
000370 8c d4 cf 3c bb 76 f8 bb 0d d0 27 bd 0b e4 4c 3d
       0.025369905 -0.007582513 -0.040969897 0.050022166
000380 ae 54 2e 3d d3 21 cf 3c 5c 12 92 3d d0 37 5c bc
       0.042561226 0.025284683 0.07132408 -0.013441041
000390 60 37 93 bd 90 e7 66 bc 22 f1 03 3d 34 0d 93 bd
       -0.07188296 -0.014093295 0.032212384 -0.07180253
0003a0 29 e6 9c 3c 5c 53 9e 3a 71 f7 03 3d 46 63 e9 3c
       0.019152718 0.0012079286 0.0322184 0.02848972
0003b0 97 53 93 3d 16 ea f6 3c 67 de 47 bd d0 29 75 3d
       0.07193678 0.030140918 -0.048796084 0.05985433
0003c0 4d 96 83 bb c8 e0 9e bc dd fd 5d bd 1d 89 95 3d
       -0.00401572 -0.019394293 -0.05419718 0.07301543
0003d0 cb 28 5f 3d e3 19 a8 bd 9f 3a 51 3d b0 81 ec 3c
       0.054482263 -0.082080625 0.051081296 0.028870434
0003e0 c5 3e 84 bc ca 2b fe bc 8b 69 01 bc da 3d b9 3c
       -0.016143212 -0.03102674 -0.007898699 0.022612501
0003f0 93 69 71 3d 69 ae 8c 3d b9 4d 01 3d 97 be da bc
       0.058938574 0.068692036 0.031568263 -0.026702208

layer2.bias f4 [128]
000000 ee 45 04 3d d3 4c 58 ba e9 a4 63 ba e6 ba a5 bd
       0.032293253 -0.0008251194 -0.00086839363 -0.08092289
000010 f2 40 b9 3c 4e ab e6 3c 30 92 99 bd c7 e9 cc bb
       0.022613976 0.028157856 -0.07498586 -0.0062534544
000020 cf c9 97 bd 0d 6b 99 bc cf ae 5b 3c aa 9c 94 3d
       -0.07411539 -0.018727804 0.013408377 0.07256444
000030 e4 f1 0a 3d 0e d9 29 3d e7 af af 3d 3d ec 46 bb
       0.03392209 0.041466765 0.085784726 -0.0030353211
000040 c4 e2 bc 3c 49 d2 74 bd 7c b0 49 3d ee 97 a9 bd
       0.023057349 -0.059770856 0.049240574 -0.082809314
000050 f8 fa 8d bd 80 67 64 bc be 8f 3b bd e8 e1 af 3d
       -0.06932634 -0.013940692 -0.04579138 0.0858801
000060 d1 5e 88 3d de 27 30 3d 02 e5 1b bd 64 a4 3b bd
       0.0665871 0.04300677 -0.038060196 -0.045811072
000070 e0 e4 9d bb 2d 61 32 3d 25 af 2a 3d ea 74 b0 3d
       -0.004818544 0.043549705 0.041670937 0.086160496
000080 07 90 c6 bc 97 3e d0 3c 9b f4 bf bc e5 5d 0c 3d
       -0.0242386 0.02542047 -0.023432067 0.034269232
000090 d0 8c 1c 3d b2 64 05 3d 21 ee f6 bc e0 a4 b2 3d
       0.038220227 0.032566734 -0.030142846 0.08722854
0000a0 de 3d a5 3b a7 20 ac bd 32 ff b6 3c 56 1d 43 bd
       0.0050427755 -0.084046654 0.022338483 -0.0476354
0000b0 3d 8d 6d bd 12 de e4 3b 55 a4 f5 bb f3 2a ae 3c
       -0.057996023 0.0069844807 -0.0074963965 0.021260714
0000c0 c2 10 16 bc 18 92 35 bd 7b e2 91 3d 9b a6 88 3b
       -0.009159269 -0.04432878 0.07123276 0.0041702515
0000d0 3c cc 9b 3d 97 5f 07 3d 94 3f 12 3c cb 7b 6d 3d
       0.07607314 0.033050146 0.008926291 0.057979386
0000e0 06 b3 2a 3c 85 85 83 3d 04 34 4a 3d aa 48 68 bd
       0.010418659 0.06421951 0.049366012 -0.056709923
0000f0 06 9e a9 bd ec bd 80 bd 9c 20 5a bd b3 bc a1 bd
       -0.08282094 -0.06286225 -0.053253755 -0.0789732
000100 4b 49 99 3d bf 7b 04 bd 72 46 20 bc 21 29 96 3d
       0.07484683 -0.032344576 -0.0097824205 0.073320635
000110 37 40 80 bd 38 52 a5 3d ae af 10 3d 46 ae 77 3d
       -0.06262248 0.080723226 0.03532379 0.060468934
000120 0c c5 cd 3c 6e f6 8c bd f1 64 83 3d 02 fb 62 3d
       0.025118373 -0.0688294 0.064157374 0.05541516
000130 d5 f3 a4 3d ee 78 94 bd 04 03 dd 3c 47 1a 38 3d
       0.0805432 -0.07249628 0.026978977 0.044946935
000140 49 17 27 bd 52 f6 88 3d 45 b4 ad bd 7b c1 0b bc
       -0.04079369 0.06687607 -0.08481649 -0.008530016
000150 49 7d 0e 3d 79 9b 85 bd 6d 47 d5 bc 16 93 4d 3d
       0.03478745 -0.06523795 -0.026035035 0.0501891
000160 68 eb b4 3c 6d 4c 8b bd 05 d8 2f bd 6f 82 88 bd
       0.022084907 -0.068016864 -0.04293062 -0.06665503
000170 54 4a 90 bd ba ed 81 bc 17 26 a8 bd 51 19 47 3c
       -0.07045427 -0.015860427 -0.0821039 0.012152032
000180 9e c9 9e 3d 39 58 dd bc 27 1c 0b 3c 2b c2 37 3d
       0.07753299 -0.027019607 0.008490599 0.044862907
000190 ed 3f b4 bd c1 8c 99 3d 19 b0 a2 3d 15 3c a2 bd
       -0.088012554 0.0749755 0.07943744 -0.07921616
0001a0 fb f7 a8 bd 5c f4 a2 bc 3d 91 8e 3d e9 9e 6c bd
       -0.082504235 -0.01989191 0.06961296 -0.057768736
0001b0 71 27 b1 bd c8 2f ff 3c 54 8a b2 3d 75 78 29 3d
       -0.08650101 0.031150714 0.0871779 0.041374642
0001c0 17 7e 2a bd 7f 8a 43 bd da 0e 26 bd 6f a2 87 bd
       -0.041624155 -0.047739502 -0.040541507 -0.066227786
0001d0 8a 0e a4 bd 23 94 97 3d 6a cf 0b 3d 67 4b d1 bc
       -0.080105856 0.07401302 0.034133352 -0.02554865
0001e0 ec cf 6e bd 77 2c b8 3a 12 4e eb 3a 23 b7 af bd
       -0.05830376 0.0014051337 0.0017952344 -0.085798524
0001f0 51 63 5d bd 4d 39 c1 3c ad 25 72 bd d0 53 44 bd
       -0.054049794 0.023586893 -0.05911796 -0.047931492
