tamer_maze/static/tamer_maze/run/oom27/trained_model.pth (torch, 146386 bytes, 12 tensors)

layer1.weight f4 [128, 4]
00000000: e086 c7bd 46b2 abbe 6053 8bbe f48a 0f3e
00000010: 30b0 4a3d fc72 d43e fc07 5dbe 8881 b93d
00000020: 383b d9be 0013 6ebd 86ba d6be 0065 2c3c
00000030: 886c c83e 6068 27be 4625 afbe 3853 c53e
00000040: 4448 66be 0c56 3e3e f07d e3be b045 bdbe
00000050: ae2a a23e 10ab 853e 3014 a03e c8ac 63be
00000060: e06a be3d 18c6 333e e8fe d53e 509d f93e
00000070: a297 d93e 9c7f 383e 00f1 c7be 90b4 8b3d
00000080: 3075 423e 3421 aebe 1816 66be 1e74 b3be
00000090: ec5d a7be 7222 9c3e ce10 883e 885b f3bd
000000a0: 0afd f7be 70f1 5abd aa70 a4be 0a7d 8dbe
000000b0: e0b2 2e3e 300f c73d c47a 7bbe 1840 f3bd
000000c0: c409 edbe ea08 bf3e 5200 c43e a06e babc
000000d0: cca4 67be b01d b73d f4e1 e93e 16e2 e63e
000000e0: 8c17 a93e 3afd e6be f4fb 493e f8e5 ddbe
000000f0: d089 b53d 822d bb3e 8678 ff3e 60de fe3c
00000100: f8f7 27be 6c81 5fbe de81 b6be 6cdb fc3e
00000110: 623e 933e 92e5 b7be b034 5ebe 4ece e73e
00000120: 04ab 40be 2087 0b3e 28c6 ab3d e0cf 013e
00000130: 4043 bc3c 0042 a53c 88ec 4d3e f67f f23e
00000140: d6d9 a73e ea11 963e 7082 d8bd c20c fd3e
00000150: dc6d 303e b895 acbd 5c02 aa3e 9448 4f3e
00000160: 6c44 acbe 4a4d 96be c01d 123c 9041 f4be
00000170: a63e 863e 5095 683e 4828 ba3d 843f 093e
00000180: b676 8e3e a024 683d d041 fe3d 0489 973e
00000190: 84bf 533e 18fc fd3d 86aa febe 4076 da3c
000001a0: aa52 b13e f8e6 3b3e 6042 47bd c0aa 11be
000001b0: 5cf0 ad3e 22b0 bdbe 7423 213e 2ade fb3e
000001c0: e003 28be feb3 c13e d050 d4bd c06e bdbc
000001d0: 0029 df3d 0814 a93e 7261 c8be 8cac ccbe
000001e0: 00fa 723e c6b7 953e 0cab d9be 789b 67be
000001f0: 004e 2e3d 40d8 203d 1c36 aabe 3448 d9be
00000200: f6a7 b7be 6813 8c3e 38cf 673e e064 8c3c
00000210: 542f 28be 90e0 793d eceb 203e e02b 413e
00000220: 6087 473e f09d 663e 70dd 92be d654 e4be
00000230: cc7e 73be 1494 9f3e 9e2c 963e 8cbd 0a3e
00000240: 54b2 0a3e a05d 66be 42ba 873e 22d3 c43e
00000250: 9453 f4be 083d 47be 001d 30bc 1c6c 04be
00000260: 7815 ce3e 1027 c3be d088 f0be c8a6 d7be
00000270: 8ccf 4d3e 3ccf 51be a076 02bd d0df 4bbe
00000280: d019 2dbd 021c a9be 1026 eebd d0c7 7a3e
00000290: 702d 383d b848 823d e071 efbc 0c11 a33e
000002a0: 4091 bf3e 8062 9d3c b2e7 9c3e d84e 393e
000002b0: 1c3c 04be 34e0 ef3e 5c20 fb3e 767b 983e
000002c0: d098 f43e f61a 84be 58e5 63be 7436 b33e
000002d0: 0040 bc3a d68a 9c3e 1488 bdbe 5afb acbe
000002e0: 1053 6dbe 3863 893e 2007 983d 0ca3 e93e
000002f0: 8686 e23e 7063 febd b8c5 9d3d e088 cdbc
00000300: 0859 20be ccb9 663e bcb2 9bbe 6853 42be
00000310: 1245 d93e ec22 6cbe 842e 38be e86f a93e
00000320: 50bb 303e 6885 47be 707b 4d3e 1ac4 f0be
00000330: 9425 c8be 88e9 953e 8eaf c0be 0063 32bb
00000340: e4ee d3be 3cb2 c13e 3404 a5be b811 a23d
00000350: 4cb3 8d3e 7810 80be 20e8 c03c 7cfb 0f3e
00000360: 4cae abbe d053 2cbd 4419 dabe 7049 123e
00000370: 485f f1be 2cff 37be 9209 e6be 9e30 d4be
00000380: 52df c9be 1881 e8be 802f e53c a82b 323e
00000390: a02c e53d 8caf 553e 641a 8cbe 5c95 ad3e
000003a0: 520b d93e 9678 c03e 6030 043d a0a2 7dbd
000003b0: e01a 933d 06a0 8e3e 0a60 b83e 68b1 abbd
000003c0: c69d 8a3e 50f7 86be cacb e63e b05d 063e
000003d0: acb5 b2be 8efe fbbe 4000 c3bc 7897 9c3d
000003e0: 90e4 bdbe 8232 b13e 6060 fe3c 80d2 7e3d
000003f0: f000 193e 50ae 72bd 903f 233d e0ea babd
-0.09742522 -0.3353445 -0.27212048 0.1401785 0.04948443 0.41493976 -0.21585077 0.09057909
-0.42427993 -0.05812359 -0.4193918 0.010522127 0.39145303 -0.1634841 -0.34208125 0.38540053
-0.22488505 0.18587512 -0.4443202 -0.3696723 0.31673187 0.26107073 0.31265402 -0.2223388
0.092977285 0.17556036 0.4179604 0.48752832 0.424985 0.18017429 -0.39051056 0.06821549
0.18990016 -0.34009707 -0.22469366 -0.35049528 -0.32688844 0.3049503 0.2657532 -0.118826926
-0.4843524 -0.05345291 -0.32117206 -0.2763446 0.17060423 0.09719694 -0.2455855 -0.11877459
-0.46296513 0.37311488 0.38281494 -0.022757828 -0.22621459 0.08941209 0.456802 0.45094365
0.33025777 -0.45115072 0.19725019 -0.43339515 0.08864176 0.36558157 0.4989664 0.031111896
-0.16403186 -0.21826714 -0.35645956 0.49386156 0.28758532 -0.35917336 -0.21699786 0.45274585
-0.18815237 0.13625765 0.08387405 0.12676954 0.022981286 0.020173073 0.20109761 0.4736325
0.32783383 0.29310542 -0.10571754 0.49423796 0.17229408 -0.08426994 0.33204925 0.2024253
-0.33645952 -0.29355842 0.008918226 -0.4770627 0.26219672 0.22713208 0.09089714 0.13403136
0.27824944 0.056675553 0.124148965 0.29596722 0.20678526 0.12401599 -0.49739474 0.026667714
0.3463338 0.18349826 -0.048647285 -0.14225292 0.33972442 -0.3704844 0.1573618 0.49192935
-0.16407728 0.37832636 -0.10366976 -0.023124099 0.10896492 0.33023095 -0.39136845 -0.39975393
0.2372818 0.2924177 -0.4251331 -0.226179 0.042554855 0.039268732 -0.33244407 -0.424379
-0.35870332 0.27358556 0.22637641 0.017137945 -0.16424304 0.061005175 0.15714997 0.18864393
0.19485235 0.22521186 -0.28684568 -0.44595975 -0.23778838 0.31167662 0.29330915 0.13548869
0.1354459 -0.22496653 0.2650929 0.38442332 -0.47720015 -0.19456875 -0.010749102 -0.12931865
0.40250754 -0.3811574 -0.4697938 -0.42119431 0.20098704 -0.2048921 -0.03185141 -0.19909596
-0.042260945 -0.3302918 -0.116283536 0.24490285 0.044965208 0.06361526 -0.029229105 0.31848943
0.37415504 0.019212008 0.3064552 0.18096483 -0.12913555 0.4685074 0.49048126 0.29781693
0.47772837 -0.2580182 -0.22255456 0.35002482 0.0014362335 0.30574673 -0.37017882 -0.33785516
-0.23176217 0.2683351 0.07423234 0.45632207 0.44243258 -0.1242131 0.077037275 -0.025089681
-0.15658963 0.22531813 -0.304098 -0.1897713 0.4243551 -0.23060197 -0.17986494 0.3309319
0.17258954 -0.19484484 0.20066619 -0.47024614 -0.3909117 0.29279733 -0.37633938 -0.0027219653
-0.41393197 0.37831295 -0.3222977 0.07913536 0.27675855 -0.25012565 0.023548186 0.14060777
-0.33531415 -0.042072117 -0.425974 0.14285827 -0.47143006 -0.17968434 -0.44929177 -0.41443342
-0.39428192 -0.4541099 0.027976751 0.17399466 0.11190152 0.20867747 -0.27363884 0.33903015
0.4239145 0.37592 0.032272696 -0.06192267 0.071828604 0.27856463 0.36010772 -0.08383447
0.27073497 -0.2636056 0.45077354 0.13121676 -0.3490423 -0.49217647 -0.02380383 0.07646078
-0.37088442 0.34608847 0.031051815 0.062212467 0.14941764 -0.05924827 0.03985554 -0.0912683

layer1.bias f4 [128]
00000000: 82bd 98be 5264 f73e e0f6 1f3e 38c3 6e3e
00000010: e069 fd3d 2a90 edbe 7c12 06be 6a75 f1be
00000020: f058 1d3e d87a 803e 0445 4a3e 0813 f4bd
00000030: c0df 65bc 4477 c8be 9048 f43e 600a bf3d
00000040: 5c67 4e3e 3821 c13e 720a e6be 8cce ca3e
00000050: 74f2 423e 484e 813d 46b4 9a3e 2807 9e3d
00000060: b032 72be e80f 01be b037 66be 84c0 65be
00000070: 3003 303e 6465 a73e b00c 1cbd c02e 313e
00000080: 84a3 183e 8445 453e 307f dc3d b0ff 35bd
00000090: a86d 963e d834 f7bd e096 e2be 02a9 d33e
000000a0: fcc6 57be 3ce8 863e feb7 f93e fa47 9dbe
000000b0: 66c2 fe3e 4ce7 bdbe 106f 263d fa09 96be
000000c0: e0bb 88bc 4e17 913e 0440 363e 5e36 823e
000000d0: 2017 c73e 88b5 a4bd b839 93bd 0024 b83b
000000e0: 7c32 503e 328c fe3e 1015 22bd 5ace 863e
000000f0: b090 8fbd c098 40bc d01c 4d3d e6f8 f03e
00000100: 3c22 03be 6a63 edbe 36d8 eb3e a0e4 ee3c
00000110: e05e fc3d 80b4 dabc a682 b3be 3069 fcbd
00000120: 307b bf3e 94a5 af3e 38d5 c7be 9e02 d03e
00000130: 0057 bcbd 04ea 933e 80c1 afbb a4d1 a93e
00000140: 1e16 e03e 767f dbbe d070 babe fa39 b7be
00000150: 380e ab3e 5c3f 1cbe 0e05 85be d4f7 9cbe
00000160: 78db 97be 44bc 0a3e 32af cebe 80b4 9fbd
00000170: 70ba d1be 2092 a8be 601b 253d 78a2 f4be
00000180: e090 f8bc 0051 aebc 54e2 acbe 385c f2bd
00000190: 1a30 c33e 0064 02bc 3662 b43e be7e a2be
000001a0: b8b4 d1bd 7068 09be 2030 bf3e 76c0 bc3e
000001b0: 648a e43e 74de 38be 6034 593d 4869 4d3e
000001c0: cc28 52be 40cd 433e 6897 c7be fe5b fabe
000001d0: 6800 bd3e 18de 3ebe 5a2c e3be 18be e73e
000001e0: 32cc 8ebe 9640 d8be e2bb 84be 1822 84be
000001f0: 2c2e 35be 503f e9be 06f0 d43e 7043 603e
-0.29832083 0.48318726 0.15621519 0.23316658 0.1237371 -0.4639905 -0.13092989 -0.47159892
0.15365958 0.25093722 0.1975289 -0.119176924 -0.014030397 -0.39153492 0.4771161 0.09328151
0.20156616 0.37720656 -0.44929844 0.39610708 0.19037801 0.06313759 0.30215663 0.07716209
-0.23652148 -0.12603724 -0.2248218 -0.2243672 0.17188716 0.32694542 -0.038098037 0.1730299
0.14906126 0.192648 0.107664466 -0.044433296 0.29380536 -0.12070626 -0.44255733 0.4133988
-0.21072 0.26349056 0.48773187 -0.30718976 0.4975769 -0.37090528 0.04063326 -0.29304487
-0.016691148 0.28338093 0.17797858 0.25432104 0.3888483 -0.08042437 -0.07188743 0.005619526
0.20331758 0.49716336 -0.039570868 0.2632931 -0.07010019 -0.011755168 0.050076306 0.47064894
-0.12806028 -0.4636491 0.46063393 0.029161751 0.123227835 -0.026697397 -0.35060614 -0.123247504
0.37398672 0.34306014 -0.3902986 0.40626997 -0.091962814 0.28889477 -0.005363643 0.33167756
0.43766874 -0.42870682 -0.36414194 -0.3578642 0.33409286 -0.15258545 -0.2598042 -0.30657828
-0.2965963 0.1354838 -0.40368038 -0.077980995 -0.40962553 -0.32923985 0.04030931 -0.47780204
-0.03034252 -0.021278858 -0.33766425 -0.118339956 0.38122636 -0.007958412 0.3523118 -0.31737322
-0.102395475 -0.13418746 0.37341404 0.36865586 0.44636834 -0.18053609 0.053028464 0.20059693
-0.20523375 0.19121265 -0.389827 -0.4889831 0.36914372 -0.1863941 -0.44369775 0.45262218
-0.27890164 -0.42236775 -0.25924593 -0.2580726 -0.17693394 -0.45556116 0.41589373 0.21900725

layer2.weight f4 [128, 128]
00000000: 7964 14bc 0856 123d 28a6 85bd 1182 67bc
00000010: 2b04 5c3d d223 f4bc 8c86 863d 51f2 bdbb
00000020: fad3 1cbd 0664 65bd e683 b5bc 5ec2 a73d
00000030: 2034 7b3d 87f0 db3c 36b5 a0bd 6637 50bd
00000040: 05e5 123d cecc b33d 735c 253c a8d4 c33c
00000050: e3fd 043d 37e1 b5bc 2cc9 a0bc 4caf 803d
00000060: fe0c a43c f68a dc3c 46ff 3ebd 32f0 743c
00000070: 9df6 9b3d 49a8 5e3d 0084 bbbc 6ee1 90bd
00000080: f5e2 c6bb d43f f23c 1f31 4e3d 6145 793d
00000090: 977a 82bd 7c1e 653d 2989 d23c 7aab ab3d
000000a0: 4184 9bbc e732 96bd 374e 7cbd 29b2 503b
000000b0: ea6a a8bd 4c28 9fbd bb25 723d e6b1 013d
000000c0: 8e89 7a3d c214 16bd c15b 3c3d 1f40 b3bd
000000d0: 186d 943d 3a4b 833d 1812 823d 6d97 a33d
000000e0: a153 9bbd 1c62 893d 8f67 4abd 12f2 aabd
000000f0: 8f7d 6f3d 7f1a a9bd 3c06 933a 5161 cabc
00000100: d82d 84bc 19eb 85bb 2233 903d 8fa7 53bc
00000110: 4582 733c fc6d aebd c1fc 9abd 501f 39bc
00000120: 243c 80bc 8620 14bd b832 4fbd 3d14 aa3d
00000130: df17 abbc 884b 5ebd e146 39bd e8b3 713d
00000140: 1a62 3f3c c556 713d 9c9f 9dbd 35d2 873c
00000150: c3b8 9dbd 8e46 b93c 8ceb bfbc 5668 863d
00000160: 096b 5b3d 9cd9 983b bd13 343c ffd6 083d
00000170: 0c53 a13d 47d9 293c 7b91 f13c e5bd 99bd
00000180: bd59 7c3d 88c2 503d 94a1 9cbd 6ca2 9fbd
00000190: 1e00 853c a4af 45bd 7283 3bbd b4e2 8bbd
000001a0: a90c 4c3d 3336 533c 1da0 513d 0fe4 3abd
000001b0: 1e24 b3ba 0756 85bd ffe3 033b 0745 4d3d
000001c0: dfe6 28bb 9f22 95bd 4943 1a3d 321c f8bc
000001d0: 9a24 ffbc 1005 813d dd70 52bd 50a0 1cbd
000001e0: 3f9d 2c3d 20ed 8e3d 3f0a 08bd 358d a7bc
000001f0: 0b21 d93c 8c78 83bd a728 2ebd 7693 8f3d
00000200: c7a1 863d 5d83 98bd ca62 c3bc baf3 a03d
00000210: b68e 963c 4656 bcbc 0060 86bd b961 893b
00000220: a142 8ebd b6e7 65bd 7768 e9bb 6e34 433d
00000230: 3e61 b0bd 54e7 253d 37ec 2dbd 856f fd3a
00000240: 9b6c 033d 99ef 8f3d 37fa 44bd ee3e 66bd
00000250: 28bc b03d 6112 893d d8e5 4a3d 26a3 473d
00000260: 3d10 9c3c e24b 13ba 0689 cebb 2e78 a63d
00000270: 9efe 2ebd 09a0 70bd 8e2b 063d 5bd3 b23d
00000280: 0b0a 78bd 7bf5 ad3d e98f 1d3d c842 973c
00000290: 2d65 9e3d f0c0 e23c 7dec 083d b601 443c
000002a0: e079 4cbd 2e2c 85bb 9039 8d3d f03a 0ebd
000002b0: 5937 62bd e8c5 303d 786e a6bd a1d2 2f3d
000002c0: d358 a1bd 5041 043d 8076 d8bc cd71 933d
000002d0: 2996 76bd f707 07bd 7f3d a0bc 526f f5bc
000002e0: 9f9a 25bd 208a 2dbd b48d 21bc f082 4cbd
000002f0: 8b3a ee3b 161d 733d 7925 d73c 50d3 22bd
00000300: e887 e63c 9fb1 b43c 5469 3fbd c94f 673d
00000310: cd2f 9fbd 7c18 0fbd af91 aa3d a72a 8f3d
00000320: 7532 96bd 6ee6 a43c fb25 853d d3a6 80bc
00000330: 26ae 24bc af6d 5cbc e3aa a43d 816c abbc
00000340: 4c3d 89bd ec4d cdbb db78 533d 0e6c 31bd
00000350: a638 b3bd 77e3 48bd 9b3b 84bd 7faf 483d
00000360: 8a7a af3d 2f7f 21bd 88de 67bd 33ad 17bd
00000370: d19c ae3a 89b1 a9bd b043 b03c 4aed f6bc
00000380: 1f67 75bc 4346 4bbd 0cfb 41bb de1a ec3c
00000390: 7360 ad3c b9d5 0d3d 0c2b 963d 8810 b33d
000003a0: 13bb 74bc 734b eabc 0d63 933d a270 a33c
000003b0: 8857 25bd add0 ccbb 2f03 023d 922f 943a
000003c0: 9e61 023d 382d 553d 8924 683d 1f6d 963d
000003d0: e207 58bb b300 71bc 6108 043d b220 89bd
000003e0: 422c 70bd 97f1 863c 93e2 02bd 43c1 923d
000003f0: fdcc a6bd a0c5 5b3d 0fc1 2fbd 3edb a8bd
-0.009057158 0.035726577 -0.065258324 -0.014130131 0.053714912 -0.029802237 0.065686315 -0.0057967086
-0.038288094 -0.056003593 -0.02215762 0.081913695 0.061329007 0.02684809 -0.07847063 -0.050834082
0.03586294 0.08779298 0.010092842 0.023905113 0.032468688 -0.022202117 -0.019627176 0.06283435
0.020025726 0.02692173 -0.046630166 0.014949845 0.07615397 0.054359708 -0.022890091 -0.07074247
-0.006069536 0.029571451 0.050339814 0.06085718 -0.063710384 0.055937275 0.025700169 0.08382316
-0.018983962 -0.073339276 -0.06159803 0.0031844473 -0.08223517 -0.07771358 0.059118014 0.031663798
0.06116634 -0.03664089 0.04598594 -0.087524645 0.072473705 0.06410833 0.06351107 0.079878666
-0.0758431 0.06708166 -0.049415167 -0.083469525 0.05846935 -0.08257007 0.0011217068 -0.024704607
-0.016135141 -0.0040868637 0.07041003 -0.012918367 0.014862602 -0.085170716 -0.0756774 -0.011298969
-0.015653677 -0.03616383 -0.05058548 0.083046414 -0.020885406 -0.05427125 -0.04523361 0.059009463
0.011681104 0.05892064 -0.07696459 0.016579727 -0.07701256 0.02261665 -0.023427747 0.06562869
0.053568874 0.004664613 0.010991034 0.03340816 0.07877168 0.010366744 0.029488316 -0.07506923
0.06160902 0.05096677 -0.07648006 -0.077946514 0.016235407 -0.048263207 -0.045779653 -0.068303496
0.04981676 0.01289134 0.051178087 -0.04562765 -0.001366738 -0.06510549 0.002012491 0.050114658
-0.0025772376 -0.07281994 0.037661824 -0.030286882 -0.031145383 0.06299794 -0.051377166 -0.038238823
0.04214215 0.06978822 -0.033212896 -0.020453075 0.026505014 -0.06419477 -0.042519238 0.07010548
0.06573825 -0.074469306 -0.023850817 0.07858987 0.018378597 -0.022990357 -0.06561279 0.0041925577
-0.06946302 -0.05612918 -0.007123049 0.047657423 -0.086122975 0.040503815 -0.0424616 0.0019335604
0.032085996 0.070281215 -0.048090186 -0.05621236 0.08629638 0.066929586 0.049535602 0.048739575
0.019050712 -0.00056189124 -0.0063029556 0.08128391 -0.04272329 -0.05874637 0.03275638 0.08731719
-0.060556453 0.08494087 0.03846732 0.018464461 0.077341415 0.02767989 0.033428658 0.011963299
-0.049920917 -0.0040641045 0.06895745 -0.034724176 -0.055228565 0.043157488 -0.08126539 0.04292548
-0.0787827 0.03228885 -0.026423693 0.0719944 -0.060201798 -0.03296658 -0.019560574 -0.029960308
-0.04043066 -0.042368054 -0.009860445 -0.04992956 0.0072701625 0.05935391 0.026262986 -0.039752305
0.028140977 0.022057353 -0.046731308 0.056472573 -0.07772789 -0.03493546 0.08328568 0.06990557
-0.07333843 0.020129409 0.06501385 -0.015704548 -0.010051286 -0.013453885 0.080404066 -0.020925762
-0.067011446 -0.0062653925 0.05162893 -0.04331594 -0.08751039 -0.049045052 -0.06456681 0.04899549
0.08568294 -0.039427932 -0.056608707 -0.03703041 0.0013321881 -0.08285815 0.02151665 -0.030142445
-0.014978199 -0.049627554 -0.0029599098 0.028821405 0.021164155 0.03462765 0.07332429 0.087433875
-0.01493718 -0.02860043 0.07196627 0.019951168 -0.04036668 -0.006250462 0.031741317 0.0011305681
0.031831376 0.052045077 0.056675468 0.07345032 -0.0032963683 -0.014709639 0.032234553 -0.06695689
-0.058635958 0.01647262 -0.03195436 0.07165768 -0.08144567 0.053655267 -0.042908724 -0.08244942

layer2.bias f4 [128]
00000000: 8d98 4b3d 2f37 9b3d 32c8 273d 752a 99bd
00000010: c13b bdbc 46c8 f73c 7620 50bd 5673 9e3c
00000020: c133 9e3d b64d d3bc 5620 923c f85e 2b3d
00000030: eb73 05bd f957 a0bd eeb8 a03c a448 af3a
00000040: b860 87bc 4ad2 413d 953f 793d aa3c 913d
00000050: 4281 76bc 9ddb fabc 9ef7 40bd 72ea 713c
00000060: 6860 77bd 8acc 963c 4fdb 34bd 2759 7abd
00000070: 700f 853d 9910 9bbd 343c b3bd d4dd 913d
00000080: be80 a6bd 452e b03d 5397 82bd 566e 8a3b
00000090: 54a9 f03c 5666 1f3c fce7 ea3b 9754 893d
000000a0: 677a 8fbd 66cd 3ebd 1819 6d3d ad86 e43c
000000b0: 0b8b 42bd ebef 423d 6a8b 343d 5ed5 86bd
000000c0: 6e6e 9abc c131 7abd d0b9 cabc 7e12 98bd
000000d0: cf21 91bd 32e5 a33c 8c1e bc3c 7923 92bc
000000e0: 8c73 aabd fc0b f73b b103 6339 9dc3 05bd
000000f0: 5725 babb efe3 863c 5a38 a13d 0c79 6cbd
00000100: f9a8 83bd db9b 4dbd a974 ee3c d202 41bd
00000110: d992 993d 7ae9 df3c 02c5 4e3d a449 933d
00000120: fe84 483c 1953 1b3d dc12 8abd 8748 73bd
00000130: 3593 973d 4670 1ebd 26be 17bc 9e8c 9b3d
00000140: 52e8 883c 1d76 5e3d 3eec ae3d 4ab0 a33d
00000150: a744 38bd e525 57bd 750d 0d3d 8f9c 0fbc
00000160: 3b6a 053d 5984 773d 5177 2ebd 6bc1 243d
00000170: 9097 f0bb 592a 97bd cb30 083d 7892 5d3c
00000180: d23c 9e3d 794b 223c 0781 5a3d 99ce fabc
00000190: 51eb 9fbc 1c21 873d ba70 403d a82f 303d
000001a0: f064 8bbd 1f83 573d 82cf 9ebd 468a 8ebd
000001b0: 9ca1 54bd d245 08bd 0231 753d 1d9d f8bc
000001c0: 7f87 183d 3a0d 7abc bd96 43bd e68e 073d
000001d0: 11f9 ff3c 17e3 873b 89c3 2fbd fbc5 803c
000001e0: 1d0a 8cbc c798 57bd b7e8 f63b 5e4c 26bd
000001f0: 171b adba 7cbc 87bc b348 b43d 2167 aa3d
0.04970603 0.07578885 0.040962406 -0.07478801 -0.023099782 0.030246865 -0.050812207 0.019342106
0.07724715 -0.025793891 0.017837685 0.041838616 -0.03258125 -0.078292795 0.019619431 0.0013373089
-0.016525611 0.047319688 0.060851652 0.07091649 -0.015045466 -0.030622298 -0.047111146 0.014765369
-0.060394675 0.018408079 -0.04415446 -0.06112018 0.06497085 -0.07571525 -0.08751717 0.071223885
-0.081300244 0.08602575 -0.06376519 0.004224579 0.029377617 0.009728989 0.007168768 0.06705587
-0.07005768 -0.046582602 0.05788526 0.02789625 -0.047495883 0.047592085 0.044078268 -0.06583665
-0.018851485 -0.061082605 -0.024746805 -0.07425402 -0.070865266 0.02000675 0.022963785 -0.01783918
-0.0832282 0.0075392704 0.00021649782 -0.032657254 -0.005680721 0.01646611 0.07872076 -0.057732627
-0.06428713 -0.050197463 0.029108362 -0.04712183 0.07498712 0.02733301 0.05048085 0.0719178
0.012238739 0.037921045 -0.067418784 -0.05939534 0.074011244 -0.03868129 -0.0092616435 0.0759518
0.016712341 0.05431186 0.08541153 0.07992609 -0.044987347 -0.052526373 0.03443666 -0.008765354
0.032572012 0.06042895 -0.042594258 0.04022352 -0.0073422864 -0.07381124 0.033249658 0.01352369
0.07726444 0.009905689 0.053345706 -0.030616092 -0.019521387 0.06598112 0.046982504 0.0430142
-0.06806362 0.05261528 -0.07754423 -0.06959967 -0.051911935 -0.03326971 0.05986119 -0.030348355
0.037238594 -0.0152619425 -0.047751177 0.033095263 0.031246694 0.0041469443 -0.042911086 0.015719404
-0.017094666 -0.052635934 0.007535066 -0.040600173 -0.0013206926 -0.016569369 0.08802929 0.083204515

layer3.weight f4 [4, 128]
00000000: c258 103d dcdf 8abd 8aa4 543d 16f7 adbc
00000010: b5a8 853d cef4 a5bd 2cf6 113c d613 193d
00000020: b402 a43d a241 60bd 1f1a 323d d5a7 92bc
00000030: d7ee 9dbd 0600 503d 095a 483d eb43 41bd
00000040: d74f b0bd f7ec 2d3d 2814 843d 8f93 f1b9
00000050: af9f 48bc 7609 30bc c1cc 93bc 45b8 52bd
00000060: fa56 13bd fb07 063d e887 53bd c0b9 003d
00000070: d29f 963d 0f83 2a3d 8e4a b93c 90b6 4fbd
00000080: fdf0 b3bd 81ec 593d ee25 a53d 1578 49bd
00000090: 8595 91bc a87d 113d 44c2 8fbd 2ad5 71bd
000000a0: d74b 783d 14ca a63d b36a ae3c 5140 d0bc
000000b0: c600 803d 500e cbbc a65e 01bd ef4a bdbc
000000c0: a305 633c a0fa 933d 55b9 9f3c 3208 aebd
000000d0: 8e5c 15bd d8cc 7ebd 1d57 a33d 4272 b6bc
000000e0: 8e46 5b3b e434 ac3d b1c7 5b3d 7b84 c0bc
000000f0: 5630 22bd 547c a33d 35c9 543c a0ac 28bc
00000100: 31cb 8a3d ca4c 243d 859a 14bc 3c45 343c
00000110: 918c 4bbd 1789 223d 1a15 393a f2f9 88bd
00000120: 8baf 603d d0c3 1abc d1c7 d83c 26e6 913d
00000130: bc08 12bd 04a7 813d c409 2d3c 5ce6 823d
00000140: d20b f4bc 36fd 9f3d 0802 18bc 878b 943d
00000150: e4d2 05bd ffeb 2dbd f71a 983d c896 ae3c
00000160: bb5a 723d 2c0f d4bc 7f71 30bd e5fa a33b
00000170: 4a3c 823d 8dab 203d a72d f43b 930e 7e3d
00000180: abf2 723d 730c 053b 5548 1e3d fd87 c53c
00000190: 58ce a3bd 18dd fe3c d80e 30bd d58b 1bbd
000001a0: e4dd 693d 21b2 c13c a72b 9abc 7190 2e3c
000001b0: ecf8 b2bd 0d45 f9bc f8f6 803c 07fc 6cbd
000001c0: 8eea f53c 06fb 3fbd 3141 643d df27 57bd
000001d0: 3e89 e43c 94c6 473d e474 babb e7aa 0c3d
000001e0: 0aed b2bd be43 ac3d 48ee 42bd c3bf a03d
000001f0: aa54 573d 21c0 29bd 06f4 66bd b94d 823d
00000200: 3848 753d c990 8ebd 785b 7b3d fc80 a13d
00000210: d278 89bd 1d04 84bd d302 79bc c3e0 8cbd
00000220: f1cc 693d 8975 0d3d 2dce 55bd 5082 513c
00000230: 7ebf 113d 2e34 273d fd24 66bd 5728 1bbd
00000240: af6e 89bd accc 35bd 7aa9 c33c 13a9 ffbc
00000250: 485f b33d fb85 5abd 8de0 2abd 74cc 39bd
00000260: e1f5 56b6 7dc5 ea3c fd5e acbd aa19 4a3d
00000270: 4052 a23d fe0f 713d ceb6 843d 6a80 1abd
00000280: 4ad5 a73d dac1 933d 3aaf 7b3d b53d 223d
00000290: 8eea b1bd f9b0 b1bd 200f b3bc d058 8ebc
000002a0: 83e6 4d3d cbb6 933d 58bb f73a 607a 6b3d
000002b0: 058b 85bb e2de 4ebd 5ef4 18bd 666e 433d
000002c0: 4a54 4c3d 02f4 24bd e6a0 703d ec39 b43c
000002d0: d18c 813d 53f5 aa3d e750 cdbc b674 8ebd
000002e0: 42d3 d53c 7163 9b3b 5dc0 6ebc 95dc 51bd
000002f0: f350 77bd 6547 b4bd e1aa 11bd 7f54 cf3b
00000300: 8608 08bd 71f4 a1bd 2e46 afbd 68d2 97bd
00000310: d84c febb 073b a7bc 16da 84bd fdec 12bd
00000320: f09c c9bc 8754 b4ba 3574 7f3d 1f6f 1d3d
00000330: b376 dc3c 8842 ba3c 0c1c c5bc 8559 8fbd
00000340: 0743 1a3c 3bb9 823d a2cc a83d 2d9f 783d
00000350: 0def 303d 47e5 be3c a514 6fbc a0e3 8a3b
00000360: 8c65 8a3d 4e1a 40bd 2a7b f93c 1b83 973b
00000370: 2f5d a73d 7e79 67bc 4bc5 39bd ad25 b3bd
00000380: 4e58 c93c ccda 863d f077 0e3d 279c 5abd
00000390: 0d13 2cbd 88ce 7cbd 5c7b 043d b031 aebd
000003a0: 2576 a8bd f808 af3d feaf 80bc f70b 223d
000003b0: 4bca 3cbd 509d 9b3d 8be9 22bd 6879 06bc
000003c0: d96e 9bbd 5ac4 7b3d ffab 00bc 105b 11bd
000003d0: 7f4f 3d3d d15a 57bd db03 22bd 58f1 13bb
000003e0: 1fcd 9abd 7b98 113b f864 acbd 5735 adbc
000003f0: 674d a43d d749 7c3d 8c3a 0dbc c81e 0fbd
0.035240896 -0.06780979 0.05191473 -0.021235984 0.06526319 -0.081033334 0.00890879 0.037372433
0.08008328 -0.054750092 0.043481942 -0.017902294 -0.07711571 0.050781272 0.04891399 -0.047183912
-0.08608978 0.042462315 0.06449157 -0.00046077042 -0.012245103 -0.010744443 -0.01804197 -0.051445264
-0.03597162 0.032722455 -0.051643282 0.031427145 0.07354702 0.041628893 0.022618558 -0.050711215
-0.08786199 0.053204063 0.08063875 -0.049186785 -0.017771492 0.035520226 -0.07019475 -0.05904118
0.0606192 0.08144012 0.021291113 -0.025421293 0.062501475 -0.024787098 -0.031584404 -0.02310702
0.013856324 0.07225537 0.019497553 -0.08497657 -0.03646522 -0.062207073 0.079756 -0.02227128
0.0033458802 0.084085256 0.053657237 -0.023500672 -0.039596878 0.07982698 0.012987425 -0.010295063
0.06777037 0.040112294 -0.009070043 0.011002835 -0.0496946 0.03968152 0.00070603343 -0.06688298
0.05485491 -0.009446099 0.026462467 0.071239755 -0.03565286 0.06330684 0.01056141 0.06391594
-0.029790793 0.07811968 -0.009277828 0.07253175 -0.032671824 -0.04246139 0.07427018 0.021312132
0.05916856 -0.02588614 -0.04307699 0.005004274 0.063591555 0.039226104 0.0074517312 0.062025618
0.059313457 0.002030161 0.0386432 0.024112696 -0.07998341 0.031111285 -0.042982906 -0.03797515
0.057096377 0.023644509 -0.018819643 0.010654555 -0.08738884 -0.030428434 0.015742764 -0.05785754
0.030019071 -0.046870254 0.055726234 -0.05252826 0.027897473 0.048773363 -0.005690204 0.034342673
-0.08736618 0.08411358 -0.047590524 0.07849076 0.052570976 -0.041442994 -0.056385063 0.06362481
0.059883326 -0.06961209 0.06136653 0.0788593 -0.06712498 -0.06446097 -0.015198427 -0.068788074
0.057080213 0.03453592 -0.052198578 0.012787417 0.03558301 0.040821247 -0.05618762 -0.037880268
-0.06710564 -0.044384643 0.023884524 -0.03120855 0.08758408 -0.05335043 -0.041718055 -0.045360997
-3.2031605e-06 0.028658623 -0.08416555 0.04934088 0.07925844 0.058853142 0.0648018 -0.03772012
0.081949785 0.072147086 0.061446406 0.03960963 -0.08687316 -0.08676333 -0.021857798 -0.017376333
0.05026866 0.07212599 0.0018900437 0.057489753 -0.0040754103 -0.050505526 -0.03734242 0.047712706
0.04988507 -0.040271766 0.058747195 0.022000276 0.06325687 0.08347573 -0.025062991 -0.069558546
0.026101712 0.004742079 -0.01457223 -0.051235754 -0.060379934 -0.0880268 -0.035563353 0.0063272114
-0.033211254 -0.079079516 -0.085583076 -0.07413179 -0.0077606253 -0.020413889 -0.06486909 -0.03587054
-0.024610966 -0.0013758101 0.062366683 0.03843605 0.026912069 0.022736803 -0.024061225 -0.06999496
0.009415395 0.06382986 0.082421556 0.060698677 0.043196727 0.023302687 -0.014592324 0.004238561
0.0675765 -0.046900086 0.030454237 0.0046237833 0.0817207 -0.014128087 -0.04535417 -0.087474205
0.02457824 0.06584701 0.03478235 -0.053371575 -0.042010356 -0.0617204 0.032344207 -0.08505571
-0.08225659 0.085466325 -0.01570892 0.03956219 -0.04609136 0.07598364 -0.039773505 -0.008207656
-0.07589502 0.061466552 -0.007853507 -0.035487235 0.04621839 -0.052576844 -0.039554458 -0.0022574272
-0.07558655 0.002221613 -0.08417696 -0.021143598 0.08022576 0.061593857 -0.008619916 -0.034941465

layer3.bias f4 [4]
00000000: a0bc 8bbd b0c8 6b3d 5bc7 ad3b d8f6 3ebc
-0.06823087 0.057564437 0.005303306 -0.011655532

layer1.weight f4 [128, 4]
00000000: e086 c7bd 46b2 abbe 6053 8bbe f48a 0f3e
00000010: 30b0 4a3d fc72 d43e fc07 5dbe 8881 b93d
00000020: 383b d9be 0013 6ebd 86ba d6be 0065 2c3c
00000030: 886c c83e 6068 27be 4625 afbe 3853 c53e
00000040: 4448 66be 0c56 3e3e f07d e3be b045 bdbe
00000050: ae2a a23e 10ab 853e 3014 a03e c8ac 63be
00000060: e06a be3d 18c6 333e e8fe d53e 509d f93e
00000070: a297 d93e 9c7f 383e 00f1 c7be 90b4 8b3d
00000080: 3075 423e 3421 aebe 1816 66be 1e74 b3be
00000090: ec5d a7be 7222 9c3e ce10 883e 885b f3bd
000000a0: 0afd f7be 70f1 5abd aa70 a4be 0a7d 8dbe
000000b0: e0b2 2e3e 300f c73d c47a 7bbe 1840 f3bd
000000c0: c409 edbe ea08 bf3e 5200 c43e a06e babc
000000d0: cca4 67be b01d b73d f4e1 e93e 16e2 e63e
000000e0: 8c17 a93e 3afd e6be f4fb 493e f8e5 ddbe
000000f0: d089 b53d 822d bb3e 8678 ff3e 60de fe3c
00000100: f8f7 27be 6c81 5fbe de81 b6be 6cdb fc3e
00000110: 623e 933e 92e5 b7be b034 5ebe 4ece e73e
00000120: 04ab 40be 2087 0b3e 28c6 ab3d e0cf 013e
00000130: 4043 bc3c 0042 a53c 88ec 4d3e f67f f23e
00000140: d6d9 a73e ea11 963e 7082 d8bd c20c fd3e
00000150: dc6d 303e b895 acbd 5c02 aa3e 9448 4f3e
00000160: 6c44 acbe 4a4d 96be c01d 123c 9041 f4be
00000170: a63e 863e 5095 683e 4828 ba3d 843f 093e
00000180: b676 8e3e a024 683d d041 fe3d 0489 973e
00000190: 84bf 533e 18fc fd3d 86aa febe 4076 da3c
000001a0: aa52 b13e f8e6 3b3e 6042 47bd c0aa 11be
000001b0: 5cf0 ad3e 22b0 bdbe 7423 213e 2ade fb3e
000001c0: e003 28be feb3 c13e d050 d4bd c06e bdbc
000001d0: 0029 df3d 0814 a93e 7261 c8be 8cac ccbe
000001e0: 00fa 723e c6b7 953e 0cab d9be 789b 67be
000001f0: 004e 2e3d 40d8 203d 1c36 aabe 3448 d9be
00000200: f6a7 b7be 6813 8c3e 38cf 673e e064 8c3c
00000210: 542f 28be 90e0 793d eceb 203e e02b 413e
00000220: 6087 473e f09d 663e 70dd 92be d654 e4be
00000230: cc7e 73be 1494 9f3e 9e2c 963e 8cbd 0a3e
00000240: 54b2 0a3e a05d 66be 42ba 873e 22d3 c43e
00000250: 9453 f4be 083d 47be 001d 30bc 1c6c 04be
00000260: 7815 ce3e 1027 c3be d088 f0be c8a6 d7be
00000270: 8ccf 4d3e 3ccf 51be a076 02bd d0df 4bbe
00000280: d019 2dbd 021c a9be 1026 eebd d0c7 7a3e
00000290: 702d 383d b848 823d e071 efbc 0c11 a33e
000002a0: 4091 bf3e 8062 9d3c b2e7 9c3e d84e 393e
000002b0: 1c3c 04be 34e0 ef3e 5c20 fb3e 767b 983e
000002c0: d098 f43e f61a 84be 58e5 63be 7436 b33e
000002d0: 0040 bc3a d68a 9c3e 1488 bdbe 5afb acbe
000002e0: 1053 6dbe 3863 893e 2007 983d 0ca3 e93e
000002f0: 8686 e23e 7063 febd b8c5 9d3d e088 cdbc
00000300: 0859 20be ccb9 663e bcb2 9bbe 6853 42be
00000310: 1245 d93e ec22 6cbe 842e 38be e86f a93e
00000320: 50bb 303e 6885 47be 707b 4d3e 1ac4 f0be
00000330: 9425 c8be 88e9 953e 8eaf c0be 0063 32bb
00000340: e4ee d3be 3cb2 c13e 3404 a5be b811 a23d
00000350: 4cb3 8d3e 7810 80be 20e8 c03c 7cfb 0f3e
00000360: 4cae abbe d053 2cbd 4419 dabe 7049 123e
00000370: 485f f1be 2cff 37be 9209 e6be 9e30 d4be
00000380: 52df c9be 1881 e8be 802f e53c a82b 323e
00000390: a02c e53d 8caf 553e 641a 8cbe 5c95 ad3e
000003a0: 520b d93e 9678 c03e 6030 043d a0a2 7dbd
000003b0: e01a 933d 06a0 8e3e 0a60 b83e 68b1 abbd
000003c0: c69d 8a3e 50f7 86be cacb e63e b05d 063e
000003d0: acb5 b2be 8efe fbbe 4000 c3bc 7897 9c3d
000003e0: 90e4 bdbe 8232 b13e 6060 fe3c 80d2 7e3d
000003f0: f000 193e 50ae 72bd 903f 233d e0ea babd
-0.09742522 -0.3353445 -0.27212048 0.1401785 0.04948443 0.41493976 -0.21585077 0.09057909
-0.42427993 -0.05812359 -0.4193918 0.010522127 0.39145303 -0.1634841 -0.34208125 0.38540053
-0.22488505 0.18587512 -0.4443202 -0.3696723 0.31673187 0.26107073 0.31265402 -0.2223388
0.092977285 0.17556036 0.4179604 0.48752832 0.424985 0.18017429 -0.39051056 0.06821549
0.18990016 -0.34009707 -0.22469366 -0.35049528 -0.32688844 0.3049503 0.2657532 -0.118826926
-0.4843524 -0.05345291 -0.32117206 -0.2763446 0.17060423 0.09719694 -0.2455855 -0.11877459
-0.46296513 0.37311488 0.38281494 -0.022757828 -0.22621459 0.08941209 0.456802 0.45094365
0.33025777 -0.45115072 0.19725019 -0.43339515 0.08864176 0.36558157 0.4989664 0.031111896
-0.16403186 -0.21826714 -0.35645956 0.49386156 0.28758532 -0.35917336 -0.21699786 0.45274585
-0.18815237 0.13625765 0.08387405 0.12676954 0.022981286 0.020173073 0.20109761 0.4736325
0.32783383 0.29310542 -0.10571754 0.49423796 0.17229408 -0.08426994 0.33204925 0.2024253
-0.33645952 -0.29355842 0.008918226 -0.4770627 0.26219672 0.22713208 0.09089714 0.13403136
0.27824944 0.056675553 0.124148965 0.29596722 0.20678526 0.12401599 -0.49739474 0.026667714
0.3463338 0.18349826 -0.048647285 -0.14225292 0.33972442 -0.3704844 0.1573618 0.49192935
-0.16407728 0.37832636 -0.10366976 -0.023124099 0.10896492 0.33023095 -0.39136845 -0.39975393
0.2372818 0.2924177 -0.4251331 -0.226179 0.042554855 0.039268732 -0.33244407 -0.424379
-0.35870332 0.27358556 0.22637641 0.017137945 -0.16424304 0.061005175 0.15714997 0.18864393
0.19485235 0.22521186 -0.28684568 -0.44595975 -0.23778838 0.31167662 0.29330915 0.13548869
0.1354459 -0.22496653 0.2650929 0.38442332 -0.47720015 -0.19456875 -0.010749102 -0.12931865
0.40250754 -0.3811574 -0.4697938 -0.42119431 0.20098704 -0.2048921 -0.03185141 -0.19909596
-0.042260945 -0.3302918 -0.116283536 0.24490285 0.044965208 0.06361526 -0.029229105 0.31848943
0.37415504 0.019212008 0.3064552 0.18096483 -0.12913555 0.4685074 0.49048126 0.29781693
0.47772837 -0.2580182 -0.22255456 0.35002482 0.0014362335 0.30574673 -0.37017882 -0.33785516
-0.23176217 0.2683351 0.07423234 0.45632207 0.44243258 -0.1242131 0.077037275 -0.025089681
-0.15658963 0.22531813 -0.304098 -0.1897713 0.4243551 -0.23060197 -0.17986494 0.3309319
0.17258954 -0.19484484 0.20066619 -0.47024614 -0.3909117 0.29279733 -0.37633938 -0.0027219653
-0.41393197 0.37831295 -0.3222977 0.07913536 0.27675855 -0.25012565 0.023548186 0.14060777
-0.33531415 -0.042072117 -0.425974 0.14285827 -0.47143006 -0.17968434 -0.44929177 -0.41443342
-0.39428192 -0.4541099 0.027976751 0.17399466 0.11190152 0.20867747 -0.27363884 0.33903015
0.4239145 0.37592 0.032272696 -0.06192267 0.071828604 0.27856463 0.36010772 -0.08383447
0.27073497 -0.2636056 0.45077354 0.13121676 -0.3490423 -0.49217647 -0.02380383 0.07646078
-0.37088442 0.34608847 0.031051815 0.062212467 0.14941764 -0.05924827 0.03985554 -0.0912683

layer1.bias f4 [128]
00000000: 82bd 98be 5264 f73e e0f6 1f3e 38c3 6e3e
00000010: e069 fd3d 2a90 edbe 7c12 06be 6a75 f1be
00000020: f058 1d3e d87a 803e 0445 4a3e 0813 f4bd
00000030: c0df 65bc 4477 c8be 9048 f43e 600a bf3d
00000040: 5c67 4e3e 3821 c13e 720a e6be 8cce ca3e
00000050: 74f2 423e 484e 813d 46b4 9a3e 2807 9e3d
00000060: b032 72be e80f 01be b037 66be 84c0 65be
00000070: 3003 303e 6465 a73e b00c 1cbd c02e 313e
00000080: 84a3 183e 8445 453e 307f dc3d b0ff 35bd
00000090: a86d 963e d834 f7bd e096 e2be 02a9 d33e
000000a0: fcc6 57be 3ce8 863e feb7 f93e fa47 9dbe
000000b0: 66c2 fe3e 4ce7 bdbe 106f 263d fa09 96be
000000c0: e0bb 88bc 4e17 913e 0440 363e 5e36 823e
000000d0: 2017 c73e 88b5 a4bd b839 93bd 0024 b83b
000000e0: 7c32 503e 328c fe3e 1015 22bd 5ace 863e
000000f0: b090 8fbd c098 40bc d01c 4d3d e6f8 f03e
00000100: 3c22 03be 6a63 edbe 36d8 eb3e a0e4 ee3c
00000110: e05e fc3d 80b4 dabc a682 b3be 3069 fcbd
00000120: 307b bf3e 94a5 af3e 38d5 c7be 9e02 d03e
00000130: 0057 bcbd 04ea 933e 80c1 afbb a4d1 a93e
00000140: 1e16 e03e 767f dbbe d070 babe fa39 b7be
00000150: 380e ab3e 5c3f 1cbe 0e05 85be d4f7 9cbe
00000160: 78db 97be 44bc 0a3e 32af cebe 80b4 9fbd
00000170: 70ba d1be 2092 a8be 601b 253d 78a2 f4be
00000180: e090 f8bc 0051 aebc 54e2 acbe 385c f2bd
00000190: 1a30 c33e 0064 02bc 3662 b43e be7e a2be
000001a0: b8b4 d1bd 7068 09be 2030 bf3e 76c0 bc3e
000001b0: 648a e43e 74de 38be 6034 593d 4869 4d3e
000001c0: cc28 52be 40cd 433e 6897 c7be fe5b fabe
000001d0: 6800 bd3e 18de 3ebe 5a2c e3be 18be e73e
000001e0: 32cc 8ebe 9640 d8be e2bb 84be 1822 84be
000001f0: 2c2e 35be 503f e9be 06f0 d43e 7043 603e
-0.29832083 0.48318726 0.15621519 0.23316658 0.1237371 -0.4639905 -0.13092989 -0.47159892
0.15365958 0.25093722 0.1975289 -0.119176924 -0.014030397 -0.39153492 0.4771161 0.09328151
0.20156616 0.37720656 -0.44929844 0.39610708 0.19037801 0.06313759 0.30215663 0.07716209
-0.23652148 -0.12603724 -0.2248218 -0.2243672 0.17188716 0.32694542 -0.038098037 0.1730299
0.14906126 0.192648 0.107664466 -0.044433296 0.29380536 -0.12070626 -0.44255733 0.4133988
-0.21072 0.26349056 0.48773187 -0.30718976 0.4975769 -0.37090528 0.04063326 -0.29304487
-0.016691148 0.28338093 0.17797858 0.25432104 0.3888483 -0.08042437 -0.07188743 0.005619526
0.20331758 0.49716336 -0.039570868 0.2632931 -0.07010019 -0.011755168 0.050076306 0.47064894
-0.12806028 -0.4636491 0.46063393 0.029161751 0.123227835 -0.026697397 -0.35060614 -0.123247504
0.37398672 0.34306014 -0.3902986 0.40626997 -0.091962814 0.28889477 -0.005363643 0.33167756
0.43766874 -0.42870682 -0.36414194 -0.3578642 0.33409286 -0.15258545 -0.2598042 -0.30657828
-0.2965963 0.1354838 -0.40368038 -0.077980995 -0.40962553 -0.32923985 0.04030931 -0.47780204
-0.03034252 -0.021278858 -0.33766425 -0.118339956 0.38122636 -0.007958412 0.3523118 -0.31737322
-0.102395475 -0.13418746 0.37341404 0.36865586 0.44636834 -0.18053609 0.053028464 0.20059693
-0.20523375 0.19121265 -0.389827 -0.4889831 0.36914372 -0.1863941 -0.44369775 0.45262218
-0.27890164 -0.42236775 -0.25924593 -0.2580726 -0.17693394 -0.45556116 0.41589373 0.21900725

layer2.weight f4 [128, 128]
00000000: 7964 14bc 0856 123d 28a6 85bd 1182 67bc
00000010: 2b04 5c3d d223 f4bc 8c86 863d 51f2 bdbb
00000020: fad3 1cbd 0664 65bd e683 b5bc 5ec2 a73d
00000030: 2034 7b3d 87f0 db3c 36b5 a0bd 6637 50bd
00000040: 05e5 123d cecc b33d 735c 253c a8d4 c33c
00000050: e3fd 043d 37e1 b5bc 2cc9 a0bc 4caf 803d
00000060: fe0c a43c f68a dc3c 46ff 3ebd 32f0 743c
00000070: 9df6 9b3d 49a8 5e3d 0084 bbbc 6ee1 90bd
00000080: f5e2 c6bb d43f f23c 1f31 4e3d 6145 793d
00000090: 977a 82bd 7c1e 653d 2989 d23c 7aab ab3d
000000a0: 4184 9bbc e732 96bd 374e 7cbd 29b2 503b
000000b0: ea6a a8bd 4c28 9fbd bb25 723d e6b1 013d
000000c0: 8e89 7a3d c214 16bd c15b 3c3d 1f40 b3bd
000000d0: 186d 943d 3a4b 833d 1812 823d 6d97 a33d
000000e0: a153 9bbd 1c62 893d 8f67 4abd 12f2 aabd
000000f0: 8f7d 6f3d 7f1a a9bd 3c06 933a 5161 cabc
00000100: d82d 84bc 19eb 85bb 2233 903d 8fa7 53bc
00000110: 4582 733c fc6d aebd c1fc 9abd 501f 39bc
00000120: 243c 80bc 8620 14bd b832 4fbd 3d14 aa3d
00000130: df17 abbc 884b 5ebd e146 39bd e8b3 713d
00000140: 1a62 3f3c c556 713d 9c9f 9dbd 35d2 873c
00000150: c3b8 9dbd 8e46 b93c 8ceb bfbc 5668 863d
00000160: 096b 5b3d 9cd9 983b bd13 343c ffd6 083d
00000170: 0c53 a13d 47d9 293c 7b91 f13c e5bd 99bd
00000180: bd59 7c3d 88c2 503d 94a1 9cbd 6ca2 9fbd
00000190: 1e00 853c a4af 45bd 7283 3bbd b4e2 8bbd
000001a0: a90c 4c3d 3336 533c 1da0 513d 0fe4 3abd
000001b0: 1e24 b3ba 0756 85bd ffe3 033b 0745 4d3d
000001c0: dfe6 28bb 9f22 95bd 4943 1a3d 321c f8bc
000001d0: 9a24 ffbc 1005 813d dd70 52bd 50a0 1cbd
000001e0: 3f9d 2c3d 20ed 8e3d 3f0a 08bd 358d a7bc
000001f0: 0b21 d93c 8c78 83bd a728 2ebd 7693 8f3d
00000200: c7a1 863d 5d83 98bd ca62 c3bc baf3 a03d
00000210: b68e 963c 4656 bcbc 0060 86bd b961 893b
00000220: a142 8ebd b6e7 65bd 7768 e9bb 6e34 433d
00000230: 3e61 b0bd 54e7 253d 37ec 2dbd 856f fd3a
00000240: 9b6c 033d 99ef 8f3d 37fa 44bd ee3e 66bd
00000250: 28bc b03d 6112 893d d8e5 4a3d 26a3 473d
00000260: 3d10 9c3c e24b 13ba 0689 cebb 2e78 a63d
00000270: 9efe 2ebd 09a0 70bd 8e2b 063d 5bd3 b23d
00000280: 0b0a 78bd 7bf5 ad3d e98f 1d3d c842 973c
00000290: 2d65 9e3d f0c0 e23c 7dec 083d b601 443c
000002a0: e079 4cbd 2e2c 85bb 9039 8d3d f03a 0ebd
000002b0: 5937 62bd e8c5 303d 786e a6bd a1d2 2f3d
000002c0: d358 a1bd 5041 043d 8076 d8bc cd71 933d
000002d0: 2996 76bd f707 07bd 7f3d a0bc 526f f5bc
000002e0: 9f9a 25bd 208a 2dbd b48d 21bc f082 4cbd
000002f0: 8b3a ee3b 161d 733d 7925 d73c 50d3 22bd
00000300: e887 e63c 9fb1 b43c 5469 3fbd c94f 673d
00000310: cd2f 9fbd 7c18 0fbd af91 aa3d a72a 8f3d
00000320: 7532 96bd 6ee6 a43c fb25 853d d3a6 80bc
00000330: 26ae 24bc af6d 5cbc e3aa a43d 816c abbc
00000340: 4c3d 89bd ec4d cdbb db78 533d 0e6c 31bd
00000350: a638 b3bd 77e3 48bd 9b3b 84bd 7faf 483d
00000360: 8a7a af3d 2f7f 21bd 88de 67bd 33ad 17bd
00000370: d19c ae3a 89b1 a9bd b043 b03c 4aed f6bc
00000380: 1f67 75bc 4346 4bbd 0cfb 41bb de1a ec3c
00000390: 7360 ad3c b9d5 0d3d 0c2b 963d 8810 b33d
000003a0: 13bb 74bc 734b eabc 0d63 933d a270 a33c
000003b0: 8857 25bd add0 ccbb 2f03 023d 922f 943a
000003c0: 9e61 023d 382d 553d 8924 683d 1f6d 963d
000003d0: e207 58bb b300 71bc 6108 043d b220 89bd
000003e0: 422c 70bd 97f1 863c 93e2 02bd 43c1 923d
000003f0: fdcc a6bd a0c5 5b3d 0fc1 2fbd 3edb a8bd
-0.009057158 0.035726577 -0.065258324 -0.014130131 0.053714912 -0.029802237 0.065686315 -0.0057967086
-0.038288094 -0.056003593 -0.02215762 0.081913695 0.061329007 0.02684809 -0.07847063 -0.050834082
0.03586294 0.08779298 0.010092842 0.023905113 0.032468688 -0.022202117 -0.019627176 0.06283435
0.020025726 0.02692173 -0.046630166 0.014949845 0.07615397 0.054359708 -0.022890091 -0.07074247
-0.006069536 0.029571451 0.050339814 0.06085718 -0.063710384 0.055937275 0.025700169 0.08382316
-0.018983962 -0.073339276 -0.06159803 0.0031844473 -0.08223517 -0.07771358 0.059118014 0.031663798
0.06116634 -0.03664089 0.04598594 -0.087524645 0.072473705 0.06410833 0.06351107 0.079878666
-0.0758431 0.06708166 -0.049415167 -0.083469525 0.05846935 -0.08257007 0.0011217068 -0.024704607
-0.016135141 -0.0040868637 0.07041003 -0.012918367 0.014862602 -0.085170716 -0.0756774 -0.011298969
-0.015653677 -0.03616383 -0.05058548 0.083046414 -0.020885406 -0.05427125 -0.04523361 0.059009463
0.011681104 0.05892064 -0.07696459 0.016579727 -0.07701256 0.02261665 -0.023427747 0.06562869
0.053568874 0.004664613 0.010991034 0.03340816 0.07877168 0.010366744 0.029488316 -0.07506923
0.06160902 0.05096677 -0.07648006 -0.077946514 0.016235407 -0.048263207 -0.045779653 -0.068303496
0.04981676 0.01289134 0.051178087 -0.04562765 -0.001366738 -0.06510549 0.002012491 0.050114658
-0.0025772376 -0.07281994 0.037661824 -0.030286882 -0.031145383 0.06299794 -0.051377166 -0.038238823
0.04214215 0.06978822 -0.033212896 -0.020453075 0.026505014 -0.06419477 -0.042519238 0.07010548
0.06573825 -0.074469306 -0.023850817 0.07858987 0.018378597 -0.022990357 -0.06561279 0.0041925577
-0.06946302 -0.05612918 -0.007123049 0.047657423 -0.086122975 0.040503815 -0.0424616 0.0019335604
0.032085996 0.070281215 -0.048090186 -0.05621236 0.08629638 0.066929586 0.049535602 0.048739575
0.019050712 -0.00056189124 -0.0063029556 0.08128391 -0.04272329 -0.05874637 0.03275638 0.08731719
-0.060556453 0.08494087 0.03846732 0.018464461 0.077341415 0.02767989 0.033428658 0.011963299
-0.049920917 -0.0040641045 0.06895745 -0.034724176 -0.055228565 0.043157488 -0.08126539 0.04292548
-0.0787827 0.03228885 -0.026423693 0.0719944 -0.060201798 -0.03296658 -0.019560574 -0.029960308
-0.04043066 -0.042368054 -0.009860445 -0.04992956 0.0072701625 0.05935391 0.026262986 -0.039752305
0.028140977 0.022057353 -0.046731308 0.056472573 -0.07772789 -0.03493546 0.08328568 0.06990557
-0.07333843 0.020129409 0.06501385 -0.015704548 -0.010051286 -0.013453885 0.080404066 -0.020925762
-0.067011446 -0.0062653925 0.05162893 -0.04331594 -0.08751039 -0.049045052 -0.06456681 0.04899549
0.08568294 -0.039427932 -0.056608707 -0.03703041 0.0013321881 -0.08285815 0.02151665 -0.030142445
-0.014978199 -0.049627554 -0.0029599098 0.028821405 0.021164155 0.03462765 0.07332429 0.087433875
-0.01493718 -0.02860043 0.07196627 0.019951168 -0.04036668 -0.006250462 0.031741317 0.0011305681
0.031831376 0.052045077 0.056675468 0.07345032 -0.0032963683 -0.014709639 0.032234553 -0.06695689
-0.058635958 0.01647262 -0.03195436 0.07165768 -0.08144567 0.053655267 -0.042908724 -0.08244942

layer2.bias f4 [128]
00000000: 8d98 4b3d 2f37 9b3d 32c8 273d 752a 99bd
00000010: c13b bdbc 46c8 f73c 7620 50bd 5673 9e3c
00000020: c133 9e3d b64d d3bc 5620 923c f85e 2b3d
00000030: eb73 05bd f957 a0bd eeb8 a03c a448 af3a
00000040: b860 87bc 4ad2 413d 953f 793d aa3c 913d
00000050: 4281 76bc 9ddb fabc 9ef7 40bd 72ea 713c
00000060: 6860 77bd 8acc 963c 4fdb 34bd 2759 7abd
00000070: 700f 853d 9910 9bbd 343c b3bd d4dd 913d
00000080: be80 a6bd 452e b03d 5397 82bd 566e 8a3b
00000090: 54a9 f03c 5666 1f3c fce7 ea3b 9754 893d
000000a0: 677a 8fbd 66cd 3ebd 1819 6d3d ad86 e43c
000000b0: 0b8b 42bd ebef 423d 6a8b 343d 5ed5 86bd
000000c0: 6e6e 9abc c131 7abd d0b9 cabc 7e12 98bd
000000d0: cf21 91bd 32e5 a33c 8c1e bc3c 7923 92bc
000000e0: 8c73 aabd fc0b f73b b103 6339 9dc3 05bd
000000f0: 5725 babb efe3 863c 5a38 a13d 0c79 6cbd
00000100: f9a8 83bd db9b 4dbd a974 ee3c d202 41bd
00000110: d992 993d 7ae9 df3c 02c5 4e3d a449 933d
00000120: fe84 483c 1953 1b3d dc12 8abd 8748 73bd
00000130: 3593 973d 4670 1ebd 26be 17bc 9e8c 9b3d
00000140: 52e8 883c 1d76 5e3d 3eec ae3d 4ab0 a33d
00000150: a744 38bd e525 57bd 750d 0d3d 8f9c 0fbc
00000160: 3b6a 053d 5984 773d 5177 2ebd 6bc1 243d
00000170: 9097 f0bb 592a 97bd cb30 083d 7892 5d3c
00000180: d23c 9e3d 794b 223c 0781 5a3d 99ce fabc
00000190: 51eb 9fbc 1c21 873d ba70 403d a82f 303d
000001a0: f064 8bbd 1f83 573d 82cf 9ebd 468a 8ebd
000001b0: 9ca1 54bd d245 08bd 0231 753d 1d9d f8bc
000001c0: 7f87 183d 3a0d 7abc bd96 43bd e68e 073d
000001d0: 11f9 ff3c 17e3 873b 89c3 2fbd fbc5 803c
000001e0: 1d0a 8cbc c798 57bd b7e8 f63b 5e4c 26bd
000001f0: 171b adba 7cbc 87bc b348 b43d 2167 aa3d
0.04970603 0.07578885 0.040962406 -0.07478801 -0.023099782 0.030246865 -0.050812207 0.019342106
0.07724715 -0.025793891 0.017837685 0.041838616 -0.03258125 -0.078292795 0.019619431 0.0013373089
-0.016525611 0.047319688 0.060851652 0.07091649 -0.015045466 -0.030622298 -0.047111146 0.014765369
-0.060394675 0.018408079 -0.04415446 -0.06112018 0.06497085 -0.07571525 -0.08751717 0.071223885
-0.081300244 0.08602575 -0.06376519 0.004224579 0.029377617 0.009728989 0.007168768 0.06705587
-0.07005768 -0.046582602 0.05788526 0.02789625 -0.047495883 0.047592085 0.044078268 -0.06583665
-0.018851485 -0.061082605 -0.024746805 -0.07425402 -0.070865266 0.02000675 0.022963785 -0.01783918
-0.0832282 0.0075392704 0.00021649782 -0.032657254 -0.005680721 0.01646611 0.07872076 -0.057732627
-0.06428713 -0.050197463 0.029108362 -0.04712183 0.07498712 0.02733301 0.05048085 0.0719178
0.012238739 0.037921045 -0.067418784 -0.05939534 0.074011244 -0.03868129 -0.0092616435 0.0759518
0.016712341 0.05431186 0.08541153 0.07992609 -0.044987347 -0.052526373 0.03443666 -0.008765354
0.032572012 0.06042895 -0.042594258 0.04022352 -0.0073422864 -0.07381124 0.033249658 0.01352369
0.07726444 0.009905689 0.053345706 -0.030616092 -0.019521387 0.06598112 0.046982504 0.0430142
-0.06806362 0.05261528 -0.07754423 -0.06959967 -0.051911935 -0.03326971 0.05986119 -0.030348355
0.037238594 -0.0152619425 -0.047751177 0.033095263 0.031246694 0.0041469443 -0.042911086 0.015719404
-0.017094666 -0.052635934 0.007535066 -0.040600173 -0.0013206926 -0.016569369 0.08802929 0.083204515

layer3.weight f4 [4, 128]
00000000: c258 103d dcdf 8abd 8aa4 543d 16f7 adbc
00000010: b5a8 853d cef4 a5bd 2cf6 113c d613 193d
00000020: b402 a43d a241 60bd 1f1a 323d d5a7 92bc
00000030: d7ee 9dbd 0600 503d 095a 483d eb43 41bd
00000040: d74f b0bd f7ec 2d3d 2814 843d 8f93 f1b9
00000050: af9f 48bc 7609 30bc c1cc 93bc 45b8 52bd
00000060: fa56 13bd fb07 063d e887 53bd c0b9 003d
00000070: d29f 963d 0f83 2a3d 8e4a b93c 90b6 4fbd
00000080: fdf0 b3bd 81ec 593d ee25 a53d 1578 49bd
00000090: 8595 91bc a87d 113d 44c2 8fbd 2ad5 71bd
000000a0: d74b 783d 14ca a63d b36a ae3c 5140 d0bc
000000b0: c600 803d 500e cbbc a65e 01bd ef4a bdbc
000000c0: a305 633c a0fa 933d 55b9 9f3c 3208 aebd
000000d0: 8e5c 15bd d8cc 7ebd 1d57 a33d 4272 b6bc
000000e0: 8e46 5b3b e434 ac3d b1c7 5b3d 7b84 c0bc
000000f0: 5630 22bd 547c a33d 35c9 543c a0ac 28bc
00000100: 31cb 8a3d ca4c 243d 859a 14bc 3c45 343c
00000110: 918c 4bbd 1789 223d 1a15 393a f2f9 88bd
00000120: 8baf 603d d0c3 1abc d1c7 d83c 26e6 913d
00000130: bc08 12bd 04a7 813d c409 2d3c 5ce6 823d
00000140: d20b f4bc 36fd 9f3d 0802 18bc 878b 943d
00000150: e4d2 05bd ffeb 2dbd f71a 983d c896 ae3c
00000160: bb5a 723d 2c0f d4bc 7f71 30bd e5fa a33b
00000170: 4a3c 823d 8dab 203d a72d f43b 930e 7e3d
00000180: abf2 723d 730c 053b 5548 1e3d fd87 c53c
00000190: 58ce a3bd 18dd fe3c d80e 30bd d58b 1bbd
000001a0: e4dd 693d 21b2 c13c a72b 9abc 7190 2e3c
000001b0: ecf8 b2bd 0d45 f9bc f8f6 803c 07fc 6cbd
000001c0: 8eea f53c 06fb 3fbd 3141 643d df27 57bd
000001d0: 3e89 e43c 94c6 473d e474 babb e7aa 0c3d
000001e0: 0aed b2bd be43 ac3d 48ee 42bd c3bf a03d
000001f0: aa54 573d 21c0 29bd 06f4 66bd b94d 823d
00000200: 3848 753d c990 8ebd 785b 7b3d fc80 a13d
00000210: d278 89bd 1d04 84bd d302 79bc c3e0 8cbd
00000220: f1cc 693d 8975 0d3d 2dce 55bd 5082 513c
00000230: 7ebf 113d 2e34 273d fd24 66bd 5728 1bbd
00000240: af6e 89bd accc 35bd 7aa9 c33c 13a9 ffbc
00000250: 485f b33d fb85 5abd 8de0 2abd 74cc 39bd
00000260: e1f5 56b6 7dc5 ea3c fd5e acbd aa19 4a3d
00000270: 4052 a23d fe0f 713d ceb6 843d 6a80 1abd
00000280: 4ad5 a73d dac1 933d 3aaf 7b3d b53d 223d
00000290: 8eea b1bd f9b0 b1bd 200f b3bc d058 8ebc
000002a0: 83e6 4d3d cbb6 933d 58bb f73a 607a 6b3d
000002b0: 058b 85bb e2de 4ebd 5ef4 18bd 666e 433d
000002c0: 4a54 4c3d 02f4 24bd e6a0 703d ec39 b43c
000002d0: d18c 813d 53f5 aa3d e750 cdbc b674 8ebd
000002e0: 42d3 d53c 7163 9b3b 5dc0 6ebc 95dc 51bd
000002f0: f350 77bd 6547 b4bd e1aa 11bd 7f54 cf3b
00000300: 8608 08bd 71f4 a1bd 2e46 afbd 68d2 97bd
00000310: d84c febb 073b a7bc 16da 84bd fdec 12bd
00000320: f09c c9bc 8754 b4ba 3574 7f3d 1f6f 1d3d
00000330: b376 dc3c 8842 ba3c 0c1c c5bc 8559 8fbd
00000340: 0743 1a3c 3bb9 823d a2cc a83d 2d9f 783d
00000350: 0def 303d 47e5 be3c a514 6fbc a0e3 8a3b
00000360: 8c65 8a3d 4e1a 40bd 2a7b f93c 1b83 973b
00000370: 2f5d a73d 7e79 67bc 4bc5 39bd ad25 b3bd
00000380: 4e58 c93c ccda 863d f077 0e3d 279c 5abd
00000390: 0d13 2cbd 88ce 7cbd 5c7b 043d b031 aebd
000003a0: 2576 a8bd f808 af3d feaf 80bc f70b 223d
000003b0: 4bca 3cbd 509d 9b3d 8be9 22bd 6879 06bc
000003c0: d96e 9bbd 5ac4 7b3d ffab 00bc 105b 11bd
000003d0: 7f4f 3d3d d15a 57bd db03 22bd 58f1 13bb
000003e0: 1fcd 9abd 7b98 113b f864 acbd 5735 adbc
000003f0: 674d a43d d749 7c3d 8c3a 0dbc c81e 0fbd
0.035240896 -0.06780979 0.05191473 -0.021235984 0.06526319 -0.081033334 0.00890879 0.037372433
0.08008328 -0.054750092 0.043481942 -0.017902294 -0.07711571 0.050781272 0.04891399 -0.047183912
-0.08608978 0.042462315 0.06449157 -0.00046077042 -0.012245103 -0.010744443 -0.01804197 -0.051445264
-0.03597162 0.032722455 -0.051643282 0.031427145 0.07354702 0.041628893 0.022618558 -0.050711215
-0.08786199 0.053204063 0.08063875 -0.049186785 -0.017771492 0.035520226 -0.07019475 -0.05904118
0.0606192 0.08144012 0.021291113 -0.025421293 0.062501475 -0.024787098 -0.031584404 -0.02310702
0.013856324 0.07225537 0.019497553 -0.08497657 -0.03646522 -0.062207073 0.079756 -0.02227128
0.0033458802 0.084085256 0.053657237 -0.023500672 -0.039596878 0.07982698 0.012987425 -0.010295063
0.06777037 0.040112294 -0.009070043 0.011002835 -0.0496946 0.03968152 0.00070603343 -0.06688298
0.05485491 -0.009446099 0.026462467 0.071239755 -0.03565286 0.06330684 0.01056141 0.06391594
-0.029790793 0.07811968 -0.009277828 0.07253175 -0.032671824 -0.04246139 0.07427018 0.021312132
0.05916856 -0.02588614 -0.04307699 0.005004274 0.063591555 0.039226104 0.0074517312 0.062025618
0.059313457 0.002030161 0.0386432 0.024112696 -0.07998341 0.031111285 -0.042982906 -0.03797515
0.057096377 0.023644509 -0.018819643 0.010654555 -0.08738884 -0.030428434 0.015742764 -0.05785754
0.030019071 -0.046870254 0.055726234 -0.05252826 0.027897473 0.048773363 -0.005690204 0.034342673
-0.08736618 0.08411358 -0.047590524 0.07849076 0.052570976 -0.041442994 -0.056385063 0.06362481
0.059883326 -0.06961209 0.06136653 0.0788593 -0.06712498 -0.06446097 -0.015198427 -0.068788074
0.057080213 0.03453592 -0.052198578 0.012787417 0.03558301 0.040821247 -0.05618762 -0.037880268
-0.06710564 -0.044384643 0.023884524 -0.03120855 0.08758408 -0.05335043 -0.041718055 -0.045360997
-3.2031605e-06 0.028658623 -0.08416555 0.04934088 0.07925844 0.058853142 0.0648018 -0.03772012
0.081949785 0.072147086 0.061446406 0.03960963 -0.08687316 -0.08676333 -0.021857798 -0.017376333
0.05026866 0.07212599 0.0018900437 0.057489753 -0.0040754103 -0.050505526 -0.03734242 0.047712706
0.04988507 -0.040271766 0.058747195 0.022000276 0.06325687 0.08347573 -0.025062991 -0.069558546
0.026101712 0.004742079 -0.01457223 -0.051235754 -0.060379934 -0.0880268 -0.035563353 0.0063272114
-0.033211254 -0.079079516 -0.085583076 -0.07413179 -0.0077606253 -0.020413889 -0.06486909 -0.03587054
-0.024610966 -0.0013758101 0.062366683 0.03843605 0.026912069 0.022736803 -0.024061225 -0.06999496
0.009415395 0.06382986 0.082421556 0.060698677 0.043196727 0.023302687 -0.014592324 0.004238561
0.0675765 -0.046900086 0.030454237 0.0046237833 0.0817207 -0.014128087 -0.04535417 -0.087474205
0.02457824 0.06584701 0.03478235 -0.053371575 -0.042010356 -0.0617204 0.032344207 -0.08505571
-0.08225659 0.085466325 -0.01570892 0.03956219 -0.04609136 0.07598364 -0.039773505 -0.008207656
-0.07589502 0.061466552 -0.007853507 -0.035487235 0.04621839 -0.052576844 -0.039554458 -0.0022574272
-0.07558655 0.002221613 -0.08417696 -0.021143598 0.08022576 0.061593857 -0.008619916 -0.034941465
