custom_maze/static/custom_maze/run/room248887/trained_model.pth (torch, 158674 bytes, 12 tensors)

layer1.weight f4 [128, 16]
000000 80 06 9f bb d0 70 12 3d 48 d6 26 3e 54 3a 47 be
       -0.00485307 0.035752118 0.1629268 -0.19455844
000010 7a 2d 34 3e e0 35 29 3e 38 29 b8 3d 98 5b 1d bd
       0.17595473 0.16524458 0.08992237 -0.03841743
000020 16 ef 46 be 8e 95 5d 3e c0 f0 64 bc 14 a4 cf 3d
       -0.19427142 0.21639082 -0.013973415 0.10138717
000030 e0 ff 58 bd dc 01 85 3d 40 fb a4 3b 24 0b 40 3e
       -0.052978396 0.06494495 0.005034834 0.1875425
000040 c0 35 19 bd b0 ff 9c bc 50 11 c2 3d 00 75 ee 3c
       -0.037404776 -0.01916489 0.09475958 0.029108524
000050 c4 88 a6 bd 6c 81 30 be 60 91 77 bc 90 c7 8e bd
       -0.08131555 -0.1723687 -0.015110344 -0.06971657
000060 10 46 17 3d d0 3e b7 3d 28 83 09 3e a8 9a ae bd
       0.03693205 0.089475274 0.13428938 -0.08525592
000070 ac cb c5 3d 00 69 f3 3a d4 a5 ca bd b0 6d 55 3d
       0.09657988 0.0018570721 -0.098949105 0.05210656
000080 e2 9b 7a 3e 02 9b 64 be d0 07 67 bd 0a bf 6b be
       0.24473527 -0.22324756 -0.056403935 -0.23022094
000090 ee 67 01 3e e8 94 1c 3e a8 c4 b0 3d c0 63 63 bd
       0.12637302 0.15291178 0.08631259 -0.05551505
0000a0 c4 12 1e 3e 48 72 6d 3d 90 fe d2 3d a8 8a 3a 3d
       0.15436846 0.057970315 0.1030246 0.04554239
0000b0 5c 84 93 bd 78 24 3b 3d 2e 2a 77 3e 58 52 4e bd
       -0.0720298 0.045689076 0.24137184 -0.050371498
0000c0 58 a3 86 3d d6 cd 28 3e 2e 58 03 3e 70 16 61 3e
       0.06574124 0.1648477 0.12826607 0.21981215
0000d0 ba 7e 27 3e a4 1f 8c bd 84 d3 05 be 30 81 58 bd
       0.16356936 -0.068419725 -0.13068968 -0.052857578
0000e0 a0 b6 f4 3c 36 de 2a 3e 60 25 fa 3d 76 d6 34 3e
       0.029872239 0.16686329 0.1221416 0.17659935
0000f0 48 c3 df bd 8c 74 69 3e 48 a1 53 be 54 ad 79 be
       -0.10925919 0.22798365 -0.20666993 -0.24382526
000100 2e e1 1e be 00 12 56 bc 4c df 89 3d d0 26 24 bd
       -0.15515587 -0.013065815 0.067320436 -0.040076077
000110 d0 52 7d be f8 62 36 3e c8 0c 36 3d 9c 0e 05 be
       -0.24738622 0.17811191 0.044445783 -0.12993854
000120 40 88 eb bc 44 6f 29 3e f8 ec 42 be 18 5f 34 bd
       -0.028751493 0.1654635 -0.19035709 -0.044036
000130 40 40 2d 3e b2 e2 52 be 04 e7 66 be 58 77 bf 3d
       0.1691904 -0.2059429 -0.22549063 0.09348935
000140 dc 55 82 bd e8 d5 ff bd 50 ed 96 bc 8a 80 30 be
       -0.063640326 -0.12491971 -0.018423706 -0.17236534
000150 20 0f 7d 3d d8 44 50 3d f4 14 b6 3d b0 6e 2b 3e
       0.061782002 0.050846905 0.08890715 0.16741443
000160 c4 07 64 3e 66 16 5c be c6 9b 3c be c0 75 8b bd
       0.22268587 -0.2149292 -0.18418798 -0.068095684
000170 04 e5 b6 bd d8 82 47 bd 24 80 92 3d 1c 6b a8 3d
       -0.089304 -0.048708767 0.07153347 0.082235545
000180 84 3b 80 bd c8 af 42 be 58 f8 21 3d 84 e0 76 3e
       -0.06261352 -0.19012368 0.03954348 0.24109083
000190 38 00 1f 3e 08 1d fb 3d e0 5f 29 3c 40 80 6e bd
       0.15527427 0.12261397 0.0103378 -0.058227777
0001a0 70 0a 35 bd dc 15 fe bd 1a ea 6b 3e 14 02 99 bd
       -0.044199407 -0.12406513 0.23038521 -0.074710995
0001b0 e4 5e 64 be 58 fe 24 3d f0 88 7b bd ca 5d 03 be
       -0.22301823 0.040281624 -0.06140989 -0.12828746
0001c0 1c 3a 70 be ac c8 40 3e c8 2d de 3d f0 c2 05 3d
       -0.23459667 0.1882655 0.10848576 0.03265661
0001d0 82 bf 1f be 40 9c 35 be 12 57 7d be 74 c5 c3 bd
       -0.15600398 -0.17735386 -0.24740246 -0.095591456
0001e0 cc 47 e4 3d c0 9c e7 bc b8 78 5a be 36 e3 47 3e
       0.11146507 -0.028272986 -0.21335113 0.19520268
0001f0 38 39 8a 3d 70 5e dc 3c 90 6d 1a bd 6c 35 cc 3d
       0.06749195 0.0269005 -0.037702143 0.09971127
000200 7e ba 5e be 48 5a 8a 3d 38 28 54 bd 08 f4 82 3d
       -0.21750829 0.06755501 -0.051796168 0.063942015
000210 ac 33 5b 3e d4 f5 d9 3d 34 b8 45 be 5a b0 1a be
       0.2140643 0.10642591 -0.19308549 -0.15106335
000220 28 66 28 bd 8c bc 84 bd 18 0a 01 3d 10 4f 95 bd
       -0.04111305 -0.06481275 0.031503767 -0.072904706
000230 38 be be bd ea 48 69 be 8e ed 3c be 36 6f 3a be
       -0.09313625 -0.22781721 -0.18449995 -0.18206486
000240 4c ed 7f be 1e 26 2f be 2a 18 5e be b0 8d 94 3c
       -0.24992865 -0.17104384 -0.21688905 0.018133968
000250 a0 12 aa bd ca ca 2c 3e 08 90 28 3e 00 90 20 3d
       -0.08304334 0.16874233 0.16461194 0.03919983
000260 82 ac 67 3e 8a e3 29 be 9a b0 7f be d6 e0 18 be
       0.226244 -0.16590706 -0.24969712 -0.14929518
000270 3e 56 3a be c0 49 f6 3c b8 b7 1e 3e a8 2a 34 3d
       -0.18196961 0.030064464 0.1549977 0.043985993
000280 36 a2 03 be 80 48 7f 3c 04 0a 82 bd 40 80 19 3d
       -0.12854847 0.01558125 -0.063495666 0.037475824
000290 90 f3 03 3d fc 4f 68 3e 58 2f 18 3d 2e 73 6e be
       0.0322147 0.22686762 0.037154526 -0.23286125
0002a0 ec 48 eb bd 78 e5 e6 bd 90 2d 89 3c 06 4c 04 3e
       -0.11488518 -0.112742364 0.016745359 0.12919626
0002b0 32 85 76 be a6 8a 45 be d8 8c 5c 3e 60 c4 3c be
       -0.24074247 -0.19291171 0.21538103 -0.18434286
0002c0 7e 46 4e be d8 bd 6b be d4 20 04 3e 62 19 17 be
       -0.20144078 -0.23021638 0.12903148 -0.14755777
0002d0 cc d9 42 be ba de 6b 3e 64 9f 7e 3e 38 bc 62 be
       -0.19028395 0.23034182 0.2486549 -0.22142112
0002e0 a8 57 59 3e e4 49 a7 3d 48 3f f2 3d bc ee 41 be
       0.21224844 0.081683904 0.11828476 -0.18938726
0002f0 3e 0c 05 3e 7e 2a 3d 3e 6a aa 6c 3e 16 e6 73 3e
       0.12992951 0.1847324 0.23111883 0.2381824
000300 da c6 5e be dc a0 2a 3e 66 72 03 3e 26 9d 63 3e
       -0.21755543 0.16662925 0.12836608 0.22227916
000310 34 05 1e be 40 cc 06 3c 16 48 27 be b4 33 8d 3d
       -0.15431672 0.008227408 -0.16336092 0.06894627
000320 30 cd 6c 3e 30 1e 33 3d 30 0c a2 bd f0 fb fa 3d
       0.23125148 0.04372996 -0.07912481 0.122550845
000330 a0 00 f1 bc 44 c8 ee bd d0 de 07 be 98 74 cb bd
       -0.029419243 -0.116592914 -0.1326859 -0.09934348
000340 1c 41 f1 3d 20 75 16 be 00 7a 70 3b 68 48 0a 3e
       0.11779997 -0.14693117 0.0036693811 0.13504183
000350 e4 93 70 3e 34 bf 77 3e 60 ee cc bd 90 62 17 3e
       0.23493916 0.24194032 -0.10006404 0.14783692
000360 20 b3 ce bc dc 7e fc bd de 53 72 be 58 6e 05 be
       -0.025231898 -0.12328884 -0.23664805 -0.13030374
000370 0e 2d 1c be bc b7 a0 bd 70 db e5 bc 68 ec 74 3e
       -0.15251562 -0.078475446 -0.028058738 0.23918307
000380 a8 1c 6e be 84 98 dc bd 28 68 08 3d 6c e0 13 3e
       -0.23253119 -0.107712775 0.033302456 0.14441079
000390 1a 68 1f be 58 e1 db bd fa 17 24 be 08 86 6c be
       -0.15567055 -0.1073634 -0.16024771 -0.23098004
0003a0 18 ac 1b 3d 08 2b 26 be 3c 02 51 be 54 75 d2 bd
       0.03800592 -0.16227353 -0.20411009 -0.10276285
0003b0 ae 67 0a 3e de 6e 05 be 14 b9 3f 3e 0a 6c 52 be
       0.13516113 -0.13030574 0.18722945 -0.20549026
0003c0 50 bc e8 3d d0 fc 44 3e 20 8a 0d 3d 54 c1 6b 3e
       0.11364043 0.19237065 0.034555554 0.23022968
0003d0 e8 18 f2 bd 50 df c1 bd fc c9 5f be 40 66 15 3c
       -0.11821157 -0.094664216 -0.21854395 0.009118617
0003e0 e0 75 a2 bd 80 bf 26 bd 9c d8 79 be 64 49 a7 bd
       -0.07932639 -0.040709972 -0.24399036 -0.08168295
0003f0 40 60 5f be 4c e2 05 be 9e 4e 7d be d8 60 10 bd
       -0.2181406 -0.13074607 -0.24737021 -0.035248607

layer1.bias f4 [128]
000000 a0 60 f5 bc 40 bd c8 3b 40 b7 fb bb e8 49 3c 3d
       -0.029953301 0.006126076 -0.007681757 0.04596892
000010 ce 04 33 3e c0 58 ca bb 58 07 3b 3d f8 b5 3e be
       0.17482302 -0.0061751306 0.0456613 -0.18624103
000020 e8 32 3b 3d f0 12 34 bd 28 be 09 3d f0 15 d8 bc
       0.045702845 -0.043963373 0.033628613 -0.026377648
000030 e8 6c 93 bd 3e 7d 66 be da f3 0b be 40 11 82 bc
       -0.071985066 -0.22508714 -0.1366724 -0.015877366
000040 3c 61 3c 3e e8 8c dd 3d 38 b1 9d bd a0 81 62 3d
       0.18396467 0.10817891 -0.076998174 0.0552994
000050 2c cb 91 bd 08 32 69 3e 50 99 cf 3c d4 53 ce bd
       -0.0711883 0.22772992 0.02534166 -0.10074583
000060 da 6c 14 be 18 83 7e 3e d0 cf 62 3d 9c 45 46 3e
       -0.14494649 0.24854696 0.055373967 0.19362491
000070 88 23 6f 3d 60 dd 29 bc 2e 66 52 be da 81 02 be
       0.058383495 -0.010367721 -0.20546791 -0.12744847
000080 30 02 6e 3e 18 76 43 bd 3c 21 0b be a8 34 4c 3e
       0.23243022 -0.047720045 -0.13586897 0.19941962
000090 9e 09 0f 3e 00 f1 11 bc 6c f2 ed 3d 94 e0 f1 bd
       0.13968512 -0.0089075565 0.11618504 -0.11810413
0000a0 d4 42 dd 3d 56 70 7f 3e 28 5c 66 3d 6e da 42 be
       0.10803762 0.24945197 0.05624023 -0.19028637
0000b0 de cf 6a be 40 ea 7b 3e f4 6b 69 be 64 4d 57 3e
       -0.22930858 0.24601078 -0.22795087 0.21025616
0000c0 0c 6f aa 3d e0 1a a2 bc 98 7d 60 3d 5c 4c 7e be
       0.08321962 -0.019788206 0.054807276 -0.24833816
0000d0 54 ed fc 3d 10 50 01 bd f2 b3 20 3e 60 64 23 3e
       0.12349954 -0.031570494 0.15693644 0.15956259
0000e0 c8 8a 23 bd 98 4b 60 3e ca 2a 73 be 84 01 cb bd
       -0.039927274 0.21903837 -0.23746791 -0.099123985
0000f0 48 c6 76 be 66 00 0d be c2 6e 7e be 00 8d 4c be
       -0.24099076 -0.13769683 -0.24846938 -0.19975662
000100 54 db 34 be e6 03 38 3e 54 67 f5 3d 98 63 06 bd
       -0.17661792 0.17970237 0.11982599 -0.032809824
000110 fa 21 46 3e 5c 25 0a be 00 8e 35 3a 0c 82 68 be
       0.19348899 -0.13490814 0.00069257617 -0.22705859
000120 02 41 5e 3e 10 ef 6a 3d 10 fe 6f 3e c8 64 5e bd
       0.21704486 0.057356894 0.23436761 -0.05429533
000130 54 ef fc bd 40 3d f8 3b e4 4b b0 3d 50 2c 76 3d
       -0.12350336 0.007575661 0.08608225 0.060100853
000140 06 38 76 be b2 ba 57 3e b8 30 3c bd 54 ed 50 3e
       -0.24044809 0.21067312 -0.0459449 0.20403033
000150 74 69 50 be 9c 6f ae 3d 30 2d ed 3c 52 2d 2e 3e
       -0.20352727 0.085173815 0.028952211 0.17009476
000160 4c 51 34 be 40 65 d4 bd 88 6c 46 be 40 16 b5 3c
       -0.17609137 -0.103708744 -0.19377339 0.022105336
000170 94 34 b9 bd 40 65 80 3d 44 44 04 be 30 8c d4 bc
       -0.090432316 0.06269312 -0.12916666 -0.025945753
000180 90 7b ea 3d 92 56 2f be 10 dd 31 be ca 1b 3a 3e
       0.11449349 -0.17122868 -0.17369485 0.18174663
000190 40 89 09 3e 98 02 3f 3e e8 de 86 3d 00 3c 8e 3d
       0.13431263 0.18653333 0.06585485 0.06945038
0001a0 26 a5 41 be b2 20 08 3e a8 8c 15 be 3a 7b 0c 3e
       -0.18910655 0.13293722 -0.14604437 0.13718882
0001b0 cc 5b d2 3d d4 89 69 3e ac 2d 91 3d 14 4b b8 bd
       0.10271415 0.22806484 0.07088789 -0.08998695
0001c0 10 96 dd bd fa be 58 3e 4c e7 cf 3d 94 17 15 be
       -0.10819638 0.21166602 0.10151538 -0.14559776
0001d0 e0 12 83 3d 78 86 25 3e 20 9e ff bd c0 7e 07 bd
       0.064000845 0.16164577 -0.12481332 -0.033079863
0001e0 28 8d 42 bd 18 c4 df 3d ea 11 72 3e b8 0e de 3d
       -0.0474979 0.10926074 0.23639646 0.10842651
0001f0 06 53 4d 3e 98 4c 7b bd 68 9d f2 3d 54 a7 a8 bd
       0.20051202 -0.061352342 0.11846429 -0.0823504

layer2.weight f4 [128, 128]
000000 8f 99 10 3d 54 89 0a 3d 9b c2 38 3d 3a 9b 49 bd
       0.035302695 0.033822373 0.045107465 -0.0492203
000010 81 b7 b4 3d 5d 03 9f 3c e6 44 0b bc 0e c8 8e 3d
       0.08824063 0.019410783 -0.008500313 0.06971751
000020 17 3f 3f 3d 7a 7f ad bc 43 b1 57 bb 81 c3 52 3d
       0.046691027 -0.02117895 -0.0032912053 0.05145598
000030 5e d6 17 3c 9c 85 26 3c 5d e7 7d 3d 60 e8 f8 bc
       0.009267418 0.010163691 0.061988223 -0.030384243
000040 14 75 53 bd 6d 02 27 bd 05 be 7d 3d 8d a1 a2 3d
       -0.051625326 -0.040773798 0.061948795 0.079409696
000050 93 63 b8 bc ca b1 03 bb b5 99 5f 3b 4a 5b 81 bd
       -0.022508418 -0.0020094984 0.0034118716 -0.0631624
000060 36 49 08 bd 60 7b 01 bd db 77 00 bd 5c 7f a8 bd
       -0.033272944 -0.0316118 -0.031364303 -0.08227417
000070 2c 11 7c bd 2e cf 98 bd 31 70 25 bd aa 73 9a 3d
       -0.061539814 -0.074613914 -0.040390197 0.075415924
000080 49 13 9f bd 73 0e b5 bc dd ca 94 3d c8 36 af 3d
       -0.0776735 -0.022101616 0.072652556 0.085553706
000090 e6 c4 d0 ba e3 47 9c bd 5d 3e da bc f6 0b d5 3c
       -0.0015927821 -0.07630899 -0.026641065 0.02600668
0000a0 22 52 0b 3d 1c 85 42 3d 73 b1 68 bd b4 ea dd bc
       0.034013875 0.047490224 -0.056809854 -0.027089454
0000b0 f3 48 a3 3c a2 a1 5e bd 13 ae ae bc b5 34 b4 bb
       0.019932246 -0.054353364 -0.02132324 -0.005499447
0000c0 e3 ca 61 bc ce 39 ad bc 4e ae d2 bc 37 2f 0e bd
       -0.013781282 -0.021145727 -0.02571788 -0.034712996
0000d0 b2 34 d8 bc 45 12 79 bd ae d8 42 bc 70 ac 97 bd
       -0.026392315 -0.06080844 -0.011892481 -0.07405937
0000e0 b9 ee 92 3c bb fe 21 3d 6d 23 ef bc 43 41 46 3d
       0.017936097 0.03954957 -0.029191697 0.048402082
0000f0 9d 8b 06 bd 9a 89 49 3d 17 44 9f bd 33 fe 25 3c
       -0.03284799 0.049203493 -0.07776659 0.010131407
000100 7b 3c 7a bd 29 a8 ab bd d4 5f fe bc 9e 40 8d 3d
       -0.061092835 -0.083816834 -0.031051554 0.068970904
000110 0a ff f1 3a 0c 11 87 bd 52 80 b2 3d 55 29 b4 3d
       0.0018462848 -0.06595048 0.087158814 0.08796946
000120 3f 62 69 3d fb 68 ec 3c 7d 3d ae 3c ba 5f 2e 3d
       0.05697846 0.028858652 0.021269554 0.04257176
000130 a5 6a b4 bc 0c ab 41 bd cb 46 a1 3c f8 8a 2a 3d
       -0.022023508 -0.047282264 0.019687077 0.041636437
000140 26 4e 52 bd 65 15 b4 bd 63 79 12 3c 97 b8 82 3d
       -0.05134406 -0.08793143 0.008940074 0.06382864
000150 47 6a fa 3c 2c dd 97 3b 31 3e 37 bd 1e a7 31 3d
       0.030568255 0.00463452 -0.044737045 0.043372266
000160 64 ea 55 3d 08 b3 a6 bd 78 4a ab 3d f7 3e a1 bd
       0.052225485 -0.08139616 0.08363813 -0.07873338
000170 9a e4 a7 3c 31 a6 20 bd c7 cc 02 3d f9 33 13 bd
       0.020494748 -0.039220992 0.031933572 -0.035938237
000180 b3 cb 89 3c 15 0e 01 bd fc 3a aa 3d f1 e7 57 bd
       0.016820764 -0.03150757 0.083120316 -0.05271143
000190 4a 2c 38 bc 31 5b a4 3d 10 d6 57 bd cf b5 25 bc
       -0.011241028 0.08025206 -0.05269438 -0.010114147
0001a0 c1 a8 b1 bd 59 c0 8c 3c 4c a3 c2 3c 08 a2 8b bd
       -0.086747654 0.017181562 0.023759507 -0.068180144
0001b0 a2 ba 41 3d c8 c0 a3 3c 58 e4 cb bc 84 12 d7 bc
       0.047297128 0.019989386 -0.024889156 -0.026253946
0001c0 39 0c 49 3d cd 77 37 bc 89 46 93 3c a0 02 ad 3c
       0.049083922 -0.011197996 0.01797797 0.021119416
0001d0 b2 84 9b 3c fc a3 04 3d 92 89 a0 3d df 30 b2 35
       0.018984172 0.03238295 0.078387395 1.3276257e-06
0001e0 83 70 ed bc 6c 3d c7 3c 89 b4 e3 3c 1a 85 8f bd
       -0.028984314 0.02432128 0.027796047 -0.07007809
0001f0 0f 58 22 bd cd 23 ae 3d fa 08 92 3c c7 b6 95 bc
       -0.03963476 0.08502922 0.017826546 -0.018275632
000200 2e a2 57 3d 40 e7 83 3d aa 76 65 3d 56 22 4f bd
       0.0526449 0.06440592 0.05602137 -0.050569855
000210 22 d2 80 bd 41 0d 0e bd 55 a2 68 bd e2 cb ed ba
       -0.0629008 -0.03468061 -0.056795437 -0.0018142427
000220 60 87 9a bc c4 0b b0 bd 93 85 87 bc ef 74 a8 bd
       -0.01886338 -0.08595994 -0.016543185 -0.08225428
000230 e6 d0 af bd 7d 6c 3f bc bf 9a a1 3d e7 43 29 3d
       -0.08584766 -0.01168358 0.078908436 0.041324522
000240 b2 81 2f bd 02 2a ce 3c bb b1 f3 3c 63 a2 7b bd
       -0.042848296 0.025166515 0.029747834 -0.06143416
000250 21 dc 5d 3d f0 3a 4b 3d fe 5b 7a 3d 07 90 b0 bd
       0.05416501 0.049616754 0.061122887 -0.08621221
000260 53 95 8a 3d 85 d5 a7 bd 18 a1 66 3d 56 08 a0 bd
       0.067667626 -0.081950225 0.056305975 -0.0781409
000270 f4 c2 99 bc ca 51 c4 bb 80 89 5d bb 96 bd bf bb
       -0.018769719 -0.0059911953 -0.003380388 -0.005851458
000280 a4 d3 a7 3d 7d 41 5a 3d 6c 0e 7c 3d 3d bf c8 bc
       0.08194664 0.05328511 0.06153719 -0.024505252
000290 40 5b 13 bd 22 4c b3 3c 63 5d 45 bc 67 37 de 3c
       -0.035975695 0.021886889 -0.012046191 0.027126027
0002a0 0e a5 b7 bc c7 91 b0 bc fc c2 8c 3d 39 6f 87 bd
       -0.022417571 -0.021553887 0.06873128 -0.06613011
0002b0 41 9c 91 3d 17 d9 81 3c 5b 0f ac bd 97 6e 58 bb
       0.07109881 0.015850587 -0.08401366 -0.00330249
0002c0 ba cc 9d 3d 7c 02 ab bb 99 ec 54 bd 26 04 36 bd
       0.07705064 -0.005218802 -0.05198345 -0.04443755
0002d0 09 75 6a 3d 3b 72 b0 bd 9d 95 0c 3d 54 13 8c bc
       0.05724052 -0.08615538 0.03432237 -0.01709906
0002e0 49 8d 1a 3d 8b 4f 99 3d 8b b7 5a bc 8e 37 88 bd
       0.037732396 0.07485875 -0.013349424 -0.06651221
0002f0 d8 89 82 3c 33 5b d6 bb f6 df 66 3d 48 85 84 bd
       0.01593487 -0.0065416335 0.05636593 -0.06470734
000300 c6 8c b2 bc 47 51 a1 bd c3 ed d7 bc 50 03 48 bd
       -0.021795642 -0.078768305 -0.02635849 -0.048831284
000310 e4 b1 a0 bd 13 14 90 bd 27 af 07 bd 6f 6c c9 3c
       -0.0784643 -0.07035079 -0.033126023 0.024587838
000320 59 85 9f bd fd 04 4b bd ef c8 eb bc ea fc 90 3d
       -0.07789106 -0.049565304 -0.028782336 0.070794895
000330 ad a6 9c 3c a0 68 2b 3d e0 a5 e9 bc d1 6c b0 bd
       0.019122446 0.041847825 -0.028521478 -0.08614505
000340 51 50 c7 3c 8e 2f fc 3c a9 4d 09 3d 36 64 2a bd
       0.02433029 0.030784395 0.033521328 -0.041599475
000350 5c 73 a8 3d 2b e1 42 3d 86 a2 8d 3d d8 11 80 bc
       0.08225128 0.04757802 0.069157645 -0.015633509
000360 7a 45 98 3d a1 d3 f7 bc 4e 07 4a bd 7c 63 02 3d
       0.074351266 -0.03025228 -0.049323373 0.031833157
000370 61 25 a7 bd 20 63 57 3b 85 3e 85 bd b5 36 7b bd
       -0.08161426 0.003286548 -0.06506065 -0.06133147
000380 77 35 0d bd af 4f bd 3c 01 cb 7b bd 89 21 04 bd
       -0.034474816 0.023109285 -0.061472896 -0.032258544
000390 b5 5b 45 bd 91 f0 f5 3c f5 8f a3 3d 1d 05 d9 bb
       -0.04818316 0.030021938 0.07986442 -0.006622924
0003a0 56 55 57 bd f9 39 ab 3d 45 85 c5 bc eb 7d af bd
       -0.052571617 0.08360667 -0.0241114 -0.08568939
0003b0 c6 e5 94 bd 8e 68 a8 3d 56 72 a2 3d da b8 ee bb
       -0.07270388 0.08223067 0.07931964 -0.0072852196
0003c0 e0 92 cb 3c 7a 0c 3d bd 7f f2 95 bd 28 78 c3 3c
       0.024850309 -0.046154477 -0.07321643 0.023861006
0003d0 0e a4 bc bc 57 da 87 3b f4 1d cc 3c 84 53 a2 bb
       -0.023027446 0.004145901 0.024916627 -0.0049538035
0003e0 b4 f9 a5 3d 58 8f 70 bd 3a b4 aa bd 39 f5 33 3d
       0.08104268 -0.058730453 -0.08335157 0.043935034
0003f0 6b c1 54 3d 49 6d 6d 3d dd c2 78 3d ac 6e 44 3d
       0.05194227 0.05796555 0.06073271 0.047957107

layer2.bias f4 [128]
000000 d8 f9 6b 3d 4d b0 48 bc 8c e9 d6 3c 47 03 a7 3d
       0.057611316 -0.012249065 0.02623441 0.08154922
000010 47 3a 77 3d 78 a4 5f 3d 4d aa 5f 3d 5a 71 4d 3d
       0.060358312 0.05460021 0.05460577 0.05015693
000020 59 17 95 3d 8a e5 36 bd 7d aa 09 bd 57 41 9b bd
       0.07279844 -0.0446525 -0.033609856 -0.07580822
000030 b7 81 0e 3d a5 d4 a1 bd 15 8c 79 3d 8e 78 c3 3c
       0.034791674 -0.07901887 0.06092461 0.023861196
000040 10 f4 3b bd f9 bd 1f bc 3d 43 82 bd af 7b d1 bc
       -0.045887053 -0.009749883 -0.06360481 -0.025571672
000050 af 3d af bd 52 9f 35 bc 43 8b 10 3d 0f 03 ff 3c
       -0.08556687 -0.011085348 0.03528906 0.031129388
000060 30 1e b0 3b 98 42 8d 3d 1d ef a7 bd f3 bb 45 3d
       0.0053746924 0.068974674 -0.08199904 0.048274945
000070 fc ca a2 3d 86 37 6b bd 32 4e 6d 3d df 94 b0 bd
       0.079488724 -0.057426 0.0579359 -0.08622145
000080 90 6c 5b 38 6b 7e 4e bd 5b 13 aa 3d 61 b9 51 bc
       5.2314776e-05 -0.05041353 0.08304473 -0.012800545
000090 4f d7 23 bd 8d 44 66 3d 20 7a 6d bd 9d 33 e4 bc
       -0.040000256 0.05621772 -0.057977796 -0.027856642
0000a0 1e 08 a9 bd a6 53 a5 bd f8 8f 8b 3d 43 83 12 3d
       -0.08253501 -0.08072595 0.06814569 0.035769712
0000b0 03 86 9b 3d 46 6a 6a 3d e5 7f 9a bd ca 8f 21 bd
       0.0759392 0.057230256 -0.07543925 -0.03944377
0000c0 c6 0a 04 bd 26 62 10 bc 7a 37 76 3d 2a 16 a4 3d
       -0.032236837 -0.008812463 0.0601115 0.0801204
0000d0 21 44 b0 3c 73 8b 8c bc 45 25 00 bd 7e 54 a0 bd
       0.021516861 -0.017156338 -0.031285543 -0.078286156
0000e0 a7 8f b2 bd 4b f8 2d bd cb a7 61 38 ca 6f 0d bd
       -0.08718806 -0.04247312 5.380045e-05 -0.03453044
0000f0 04 33 45 bd 40 5b 00 bd 30 a0 49 3d 08 5a e2 3c
       -0.048144355 -0.031337023 0.049225032 0.02763082
000100 d9 52 a3 bc 8e d3 31 bd f4 d3 97 3d 34 b1 95 bd
       -0.019936966 -0.043414645 0.07413474 -0.073091894
000110 15 a3 27 bd 61 05 a3 3d 08 1d 4f bd b9 de 12 3d
       -0.04092701 0.0796001 -0.050564796 0.035856936
000120 08 e4 63 bd 8b 0b 79 3d 51 5a 3a bd c5 77 c1 3c
       -0.05563739 0.060802024 -0.04549629 0.02361668
000130 30 f9 39 bc d9 04 9c 3d a7 db a5 3d 24 d2 66 bd
       -0.011350915 0.07618112 0.08098536 -0.05635275
000140 da 3f 24 bd 4a 6a 86 bb e4 bb 9e 3d 63 21 9b 3d
       -0.040099956 -0.004102026 0.07750681 0.075747274
000150 c6 a0 9e 3d ec c3 07 3d 80 10 88 3c 43 28 5f bc
       0.07745509 0.03314583 0.01660943 -0.013620439
000160 91 4b 32 bc 53 83 02 bd 03 41 98 3d 0e 16 06 bd
       -0.010882274 -0.03186352 0.07434275 -0.032735877
000170 02 29 83 3d ad d8 85 3d 90 f6 86 bc 91 a2 20 bd
       0.06404306 0.06535468 -0.016474992 -0.039217535
000180 87 04 cf bc 0e df 8c bd 38 19 21 bd ef 18 1a 3d
       -0.025270713 -0.06878482 -0.03933069 0.037621435
000190 ae 1a 46 bd bc 69 88 bd 0e d7 a3 bd 58 71 a7 3c
       -0.048365287 -0.06660792 -0.08000003 0.020439789
0001a0 e7 61 a0 bd 18 a1 38 bd 2a ec 91 bc 64 29 1f bd
       -0.078311734 -0.045075506 -0.017812807 -0.038857833
0001b0 4c 84 56 3d 02 dd 71 3c 2a 27 84 3d 44 44 64 bd
       0.052372262 0.014762165 0.064527825 -0.055729166
0001c0 83 76 a3 3c 4e 00 3a bc 9d d2 a9 bd c6 1a 19 3d
       0.019953972 -0.011352612 -0.082921244 0.03737905
0001d0 ae 6a 79 3c ed fd 59 3d e9 74 23 bd ee ce 52 bd
       0.015223188 0.053220678 -0.039906416 -0.051466875
0001e0 d6 e9 38 bd 52 fa a0 3d 1f ff 85 3d ac ef bc 3c
       -0.04514488 0.07860245 0.06542801 0.023063503
0001f0 5c 19 88 3b 7f 69 99 3d 77 9b 76 bd b9 e1 ca 3c
       0.0041534137 0.07490825 -0.060206857 0.024765836

layer3.weight f4 [4, 128]
000000 dd c4 aa 3d 43 65 43 bd 06 4a 18 3d b6 27 6f 3d
       0.0833833 -0.047703993 0.03717997 0.05838748
000010 ed e6 65 3c 4d 45 9b 3a a6 b6 e4 3c fc 4f 3f bd
       0.014032108 0.0011846215 0.027919125 -0.04670714
000020 55 3c 03 3d 54 e7 b6 3c 52 b0 07 bd 63 2e 38 3d
       0.03203996 0.022327103 -0.033127137 0.044966113
000030 ac 9a 98 bd 39 05 aa bd ab a7 79 bc e2 70 1c bd
       -0.07451376 -0.083017774 -0.015237729 -0.03819359
000040 6b 51 22 3d 02 32 91 3d 51 5a 27 bd f7 4b 47 3d
       0.039628427 0.07089616 -0.040857617 0.04865643
000050 a1 90 5a 3d 9d c0 8f 3d 0a 04 14 3c d9 3f ee 3b
       0.053360585 0.0701916 0.009034166 0.007270795
000060 4a 67 86 bd 5f 20 9d 3d ff 52 87 3d 0e d6 8f 3b
       -0.065626696 0.0767219 0.06607627 0.004389531
000070 d9 ee 82 bc 14 d9 16 bd 03 1c 7c bd 13 85 30 bb
       -0.015983032 -0.036828116 -0.06155015 -0.0026934787
000080 95 2a 50 bd b7 6a 7f 3d 26 25 d2 3c 37 ef e5 bc
       -0.05082186 0.06235763 0.02565248 -0.028068168
000090 13 14 a6 bd 95 d9 b1 3d ae 3a 69 bd 2a c2 68 3d
       -0.081092976 0.086840786 -0.056940727 0.056825794
0000a0 ba 64 9e 3c ff e9 5d bd d8 68 9f 3d 57 b8 01 bd
       0.01933514 -0.054178234 0.07783669 -0.03166994
0000b0 fb dc b1 3d 56 c1 9a bd e4 a6 28 3d 39 df 35 bc
       0.08684727 -0.07556407 0.041174784 -0.011100584
0000c0 28 9c 75 3d 16 06 fb bc 07 52 a8 bb af 98 32 bd
       0.059963375 -0.03064255 -0.0051367315 -0.04360264
0000d0 a2 7c 8d 3d 41 1e 85 bd 25 6f 3c bd da dc e1 bc
       0.069085374 -0.06499911 -0.046004433 -0.02757113
0000e0 39 ea 9f bd 30 1c 6b bd 6b dd d1 bc fa 4e ae 3d
       -0.07808346 -0.05739993 -0.025618276 0.08511157
0000f0 af db f1 b9 f3 f9 68 bd 6f 96 64 bd e5 36 9b bd
       -0.0004613078 -0.056878995 -0.055807527 -0.0757883
000100 e4 88 35 bd 86 4e a7 bd d6 6e 25 bc be e9 92 3d
       -0.044320002 -0.08169274 -0.010097226 0.07173489
000110 64 aa 8f bc 59 7d 92 3d 0c de 36 bd 07 08 8c 3d
       -0.017537303 0.071528144 -0.044645354 0.068374686
000120 bd 16 61 3d 39 39 63 3d 27 6c 88 bd f6 70 db bc
       0.054953326 0.055474494 -0.066612534 -0.026787262
000130 24 ba 66 bd d9 f2 20 3c 65 c0 60 3d 8c 0d ce bb
       -0.05632986 0.009823524 0.05487098 -0.006288236
000140 9d d5 8b 3c 7b 94 0f bd 67 96 d9 bc cb b9 8d bd
       0.017069632 -0.03505371 -0.026560975 -0.06920203
000150 85 0f a7 3d 47 b4 70 3d 66 7b 12 bd 3a 2c 5b 3d
       0.08157257 0.058765676 -0.035762213 0.053508975
000160 1d 60 65 bd c0 6b 2e 3d 39 32 94 3d a0 90 c6 bc
       -0.055999864 0.042583227 0.07236142 -0.024238884
000170 f0 23 07 bd 8b 0b f7 bc 7b 1f 80 bc 61 b7 0e bd
       -0.032993257 -0.030156871 -0.015640011 -0.034842853
000180 39 21 b4 bd 43 dd a1 bd c7 e9 50 3d 97 2a 6a 3d
       -0.08795399 -0.079035304 0.051004197 0.057169523
000190 85 9d 26 bc 5d 51 4c bd 15 de 0e bc 72 78 dc bc
       -0.0101693915 -0.04988228 -0.008719941 -0.026912902
0001a0 2e 6b ae 3d 16 69 99 bd 51 28 72 3d 46 ab 0f bb
       0.08516537 -0.07490747 0.05912048 -0.0021922155
0001b0 c0 e3 3a bd 00 b0 18 3d e4 d5 61 3d 3f 23 8f bc
       -0.045627356 0.03727722 0.055135623 -0.017472861
0001c0 be 8b 72 3d 24 76 f2 3c b2 b3 6b 3d 26 c6 a2 bd
       0.0592153 0.02959735 0.057544418 -0.0794795
0001d0 ff 5c 15 3d 8a d1 32 3d c1 ff a5 3d 2c f7 90 bd
       0.03646564 0.043656863 0.08105422 -0.07078394
0001e0 1b 40 c1 bc 93 db 8c 3d a8 e1 7c 3d ab 5e 38 ba
       -0.023590138 0.06877818 0.06173864 -0.00070331496
0001f0 ab 89 b0 bd 8f 93 9f 3d 7b bf 82 bd 41 f1 b3 bd
       -0.08620008 0.077918164 -0.06384178 -0.0878625
000200 f6 35 33 3d 40 66 a2 bd 2b f1 13 bb c2 65 2c bc
       0.043752633 -0.07929659 -0.0022574167 -0.010522308
000210 26 d3 1e 3d 8c 0a 90 bd 12 6a 4d 3c 7f 2a 8b 3d
       0.038775586 -0.07033262 0.012537496 0.06795215
000220 0f bf 82 bd 71 40 b3 bd 03 f2 25 bd 1c c1 b0 bc
       -0.06384098 -0.087525256 -0.040514003 -0.021576457
000230 97 f2 25 bd b3 b3 1f 3d 1b 8e 9b bd 68 07 86 bc
       -0.040514555 0.038989734 -0.07595464 -0.016360953
000240 d1 f1 1a bd 25 2e 62 3d 85 a6 55 3d 67 10 e2 3c
       -0.03782827 0.055219788 0.05216076 0.027595712
000250 a4 b0 e8 bc 9a 65 9b bd c0 9e 0e 3a b9 fb b3 3d
       -0.028404541 -0.07587738 0.0005440526 0.08788247
000260 5d 67 2c 3d 7b 86 66 bd 51 67 17 bd 35 55 3b bd
       0.042090762 -0.056280594 -0.036963765 -0.045735557
000270 b4 6f 63 3d e6 bc e5 b9 32 28 a0 bd a8 e7 97 3d
       0.05552645 -0.00043819024 -0.07820167 0.07417232
000280 b4 bc f5 bc fb e8 28 3d 6c c6 a2 bc f4 c6 6b bd
       -0.029997207 0.041237812 -0.019870006 -0.057562783
000290 eb ab ac 3d 92 c7 5b bd 02 fb bc bb f2 a2 86 3b
       0.08431228 -0.053657122 -0.005767227 0.00410878
0002a0 cf 6a 86 bd 51 6c 91 bd 19 89 d5 3c 46 3e 85 3d
       -0.06563341 -0.07100738 0.02606635 0.06506018
0002b0 21 99 01 3d 71 06 33 bd 5f 51 ea bc 64 04 6d 3d
       0.031640176 -0.043707315 -0.028603254 0.057865515
0002c0 dc 80 78 bd 60 f5 ff 3c 0a 46 88 bd 84 ba 4f 3d
       -0.060669765 0.031244934 -0.06653984 0.050714985
0002d0 bd 65 3d 3c c0 77 fb 3c 0a 68 21 3d 5d b3 a4 39
       0.011559901 0.03069675 0.03940586 0.00031414154
0002e0 1b 1e 42 bd cc ab 99 bd f4 5b 99 3d 5a af 6e 3c
       -0.047391992 -0.07503471 0.07488242 0.014568174
0002f0 3a d5 8d bd 38 cd d6 bc b3 3f 8c bc e1 ba 87 3d
       -0.06925435 -0.026220903 -0.017120218 0.06627441
000300 2f d8 a8 bd 70 3e 7a bd 95 c5 8d bd 9f a8 01 bd
       -0.08244359 -0.0610947 -0.069224514 -0.03165495
000310 d8 30 35 bd 2c b7 c8 bc b5 84 2a bd b7 92 15 bb
       -0.044236034 -0.024501406 -0.041630466 -0.0022823045
000320 ef ca cb bc 19 d8 3b 3d ea 27 4d 3d ee 9e aa 3d
       -0.02487704 0.045860384 0.050086893 0.08331095
000330 20 5b 07 bd cf 3d 02 bd ad f1 a4 3c 6a 2d b1 bd
       -0.033045888 -0.031797227 0.020134771 -0.0865124
000340 29 3c 41 3d 4a 27 95 3d 7d bd 89 3d e5 37 28 3d
       0.047176514 0.072828844 0.06725595 0.04106893
000350 9a 7a 75 bd 83 ee 0c bd 04 30 b1 3c 6d b6 b2 bd
       -0.059931375 -0.03440715 0.021629341 -0.08726201
000360 3e e9 ad 3d 72 c2 67 3d 19 99 81 ba ba 60 7b bc
       0.08491753 0.056581922 -0.0009887546 -0.015342886
000370 fc 79 ff 3c b5 1e 6f bd 84 e8 0d 3d 2e ba 95 bc
       0.031186096 -0.058378894 0.034645572 -0.018277254
000380 94 96 b3 3d 21 51 86 bd ec 6e 4f bd 47 d3 a6 bd
       0.08768955 -0.06558443 -0.050642893 -0.08145767
000390 de 77 2e 3c 8f 6e 3c 3c 83 b0 0b 3c ae 56 9a 3d
       0.010648696 0.011500969 0.00852597 0.07536064
0003a0 df b5 54 bd 6e d1 9a 3d 07 35 a3 bd 98 13 a1 bd
       -0.05193126 0.07559477 -0.079690985 -0.07865065
0003b0 aa 74 43 bd bf 43 94 3c 84 4a 8c 3d 77 b6 ad bd
       -0.04771868 0.01809871 0.0685015 -0.08482068
0003c0 d2 e9 26 3d 8f 8d 30 3b 3d 5f b5 bc 14 4f 19 bd
       0.040750332 0.0026939844 -0.02214014 -0.03742893
0003d0 88 7f 5d 3d f7 86 a5 bb 00 81 83 3c 90 93 b1 bc
       0.0540767 -0.0050514895 0.016052723 -0.021676809
0003e0 ef b5 83 3d 9e 3c 12 bc b8 10 e1 bc cb b0 5e bd
       0.064311855 -0.008925585 -0.027473792 -0.05436782
0003f0 5a 0b 23 bd ed 6c 4a bd 92 4c f3 bc e8 7e 1d bd
       -0.039805748 -0.049420286 -0.029699598 -0.038451105

layer3.bias f4 [4]
000000 43 52 a9 bd e0 aa 7f bd 0d c1 f2 bb e1 0f 43 39
       -0.08267643 -0.06241882 -0.0074082674 0.00018602565

layer1.weight f4 [128, 16]
000000 80 06 9f bb d0 70 12 3d 48 d6 26 3e 54 3a 47 be
       -0.00485307 0.035752118 0.1629268 -0.19455844
000010 7a 2d 34 3e e0 35 29 3e 38 29 b8 3d 98 5b 1d bd
       0.17595473 0.16524458 0.08992237 -0.03841743
000020 16 ef 46 be 8e 95 5d 3e c0 f0 64 bc 14 a4 cf 3d
       -0.19427142 0.21639082 -0.013973415 0.10138717
000030 e0 ff 58 bd dc 01 85 3d 40 fb a4 3b 24 0b 40 3e
       -0.052978396 0.06494495 0.005034834 0.1875425
000040 c0 35 19 bd b0 ff 9c bc 50 11 c2 3d 00 75 ee 3c
       -0.037404776 -0.01916489 0.09475958 0.029108524
000050 c4 88 a6 bd 6c 81 30 be 60 91 77 bc 90 c7 8e bd
       -0.08131555 -0.1723687 -0.015110344 -0.06971657
000060 10 46 17 3d d0 3e b7 3d 28 83 09 3e a8 9a ae bd
       0.03693205 0.089475274 0.13428938 -0.08525592
000070 ac cb c5 3d 00 69 f3 3a d4 a5 ca bd b0 6d 55 3d
       0.09657988 0.0018570721 -0.098949105 0.05210656
000080 e2 9b 7a 3e 02 9b 64 be d0 07 67 bd 0a bf 6b be
       0.24473527 -0.22324756 -0.056403935 -0.23022094
000090 ee 67 01 3e e8 94 1c 3e a8 c4 b0 3d c0 63 63 bd
       0.12637302 0.15291178 0.08631259 -0.05551505
0000a0 c4 12 1e 3e 48 72 6d 3d 90 fe d2 3d a8 8a 3a 3d
       0.15436846 0.057970315 0.1030246 0.04554239
0000b0 5c 84 93 bd 78 24 3b 3d 2e 2a 77 3e 58 52 4e bd
       -0.0720298 0.045689076 0.24137184 -0.050371498
0000c0 58 a3 86 3d d6 cd 28 3e 2e 58 03 3e 70 16 61 3e
       0.06574124 0.1648477 0.12826607 0.21981215
0000d0 ba 7e 27 3e a4 1f 8c bd 84 d3 05 be 30 81 58 bd
       0.16356936 -0.068419725 -0.13068968 -0.052857578
0000e0 a0 b6 f4 3c 36 de 2a 3e 60 25 fa 3d 76 d6 34 3e
       0.029872239 0.16686329 0.1221416 0.17659935
0000f0 48 c3 df bd 8c 74 69 3e 48 a1 53 be 54 ad 79 be
       -0.10925919 0.22798365 -0.20666993 -0.24382526
000100 2e e1 1e be 00 12 56 bc 4c df 89 3d d0 26 24 bd
       -0.15515587 -0.013065815 0.067320436 -0.040076077
000110 d0 52 7d be f8 62 36 3e c8 0c 36 3d 9c 0e 05 be
       -0.24738622 0.17811191 0.044445783 -0.12993854
000120 40 88 eb bc 44 6f 29 3e f8 ec 42 be 18 5f 34 bd
       -0.028751493 0.1654635 -0.19035709 -0.044036
000130 40 40 2d 3e b2 e2 52 be 04 e7 66 be 58 77 bf 3d
       0.1691904 -0.2059429 -0.22549063 0.09348935
000140 dc 55 82 bd e8 d5 ff bd 50 ed 96 bc 8a 80 30 be
       -0.063640326 -0.12491971 -0.018423706 -0.17236534
000150 20 0f 7d 3d d8 44 50 3d f4 14 b6 3d b0 6e 2b 3e
       0.061782002 0.050846905 0.08890715 0.16741443
000160 c4 07 64 3e 66 16 5c be c6 9b 3c be c0 75 8b bd
       0.22268587 -0.2149292 -0.18418798 -0.068095684
000170 04 e5 b6 bd d8 82 47 bd 24 80 92 3d 1c 6b a8 3d
       -0.089304 -0.048708767 0.07153347 0.082235545
000180 84 3b 80 bd c8 af 42 be 58 f8 21 3d 84 e0 76 3e
       -0.06261352 -0.19012368 0.03954348 0.24109083
000190 38 00 1f 3e 08 1d fb 3d e0 5f 29 3c 40 80 6e bd
       0.15527427 0.12261397 0.0103378 -0.058227777
0001a0 70 0a 35 bd dc 15 fe bd 1a ea 6b 3e 14 02 99 bd
       -0.044199407 -0.12406513 0.23038521 -0.074710995
0001b0 e4 5e 64 be 58 fe 24 3d f0 88 7b bd ca 5d 03 be
       -0.22301823 0.040281624 -0.06140989 -0.12828746
0001c0 1c 3a 70 be ac c8 40 3e c8 2d de 3d f0 c2 05 3d
       -0.23459667 0.1882655 0.10848576 0.03265661
0001d0 82 bf 1f be 40 9c 35 be 12 57 7d be 74 c5 c3 bd
       -0.15600398 -0.17735386 -0.24740246 -0.095591456
0001e0 cc 47 e4 3d c0 9c e7 bc b8 78 5a be 36 e3 47 3e
       0.11146507 -0.028272986 -0.21335113 0.19520268
0001f0 38 39 8a 3d 70 5e dc 3c 90 6d 1a bd 6c 35 cc 3d
       0.06749195 0.0269005 -0.037702143 0.09971127
000200 7e ba 5e be 48 5a 8a 3d 38 28 54 bd 08 f4 82 3d
       -0.21750829 0.06755501 -0.051796168 0.063942015
000210 ac 33 5b 3e d4 f5 d9 3d 34 b8 45 be 5a b0 1a be
       0.2140643 0.10642591 -0.19308549 -0.15106335
000220 28 66 28 bd 8c bc 84 bd 18 0a 01 3d 10 4f 95 bd
       -0.04111305 -0.06481275 0.031503767 -0.072904706
000230 38 be be bd ea 48 69 be 8e ed 3c be 36 6f 3a be
       -0.09313625 -0.22781721 -0.18449995 -0.18206486
000240 4c ed 7f be 1e 26 2f be 2a 18 5e be b0 8d 94 3c
       -0.24992865 -0.17104384 -0.21688905 0.018133968
000250 a0 12 aa bd ca ca 2c 3e 08 90 28 3e 00 90 20 3d
       -0.08304334 0.16874233 0.16461194 0.03919983
000260 82 ac 67 3e 8a e3 29 be 9a b0 7f be d6 e0 18 be
       0.226244 -0.16590706 -0.24969712 -0.14929518
000270 3e 56 3a be c0 49 f6 3c b8 b7 1e 3e a8 2a 34 3d
       -0.18196961 0.030064464 0.1549977 0.043985993
000280 36 a2 03 be 80 48 7f 3c 04 0a 82 bd 40 80 19 3d
       -0.12854847 0.01558125 -0.063495666 0.037475824
000290 90 f3 03 3d fc 4f 68 3e 58 2f 18 3d 2e 73 6e be
       0.0322147 0.22686762 0.037154526 -0.23286125
0002a0 ec 48 eb bd 78 e5 e6 bd 90 2d 89 3c 06 4c 04 3e
       -0.11488518 -0.112742364 0.016745359 0.12919626
0002b0 32 85 76 be a6 8a 45 be d8 8c 5c 3e 60 c4 3c be
       -0.24074247 -0.19291171 0.21538103 -0.18434286
0002c0 7e 46 4e be d8 bd 6b be d4 20 04 3e 62 19 17 be
       -0.20144078 -0.23021638 0.12903148 -0.14755777
0002d0 cc d9 42 be ba de 6b 3e 64 9f 7e 3e 38 bc 62 be
       -0.19028395 0.23034182 0.2486549 -0.22142112
0002e0 a8 57 59 3e e4 49 a7 3d 48 3f f2 3d bc ee 41 be
       0.21224844 0.081683904 0.11828476 -0.18938726
0002f0 3e 0c 05 3e 7e 2a 3d 3e 6a aa 6c 3e 16 e6 73 3e
       0.12992951 0.1847324 0.23111883 0.2381824
000300 da c6 5e be dc a0 2a 3e 66 72 03 3e 26 9d 63 3e
       -0.21755543 0.16662925 0.12836608 0.22227916
000310 34 05 1e be 40 cc 06 3c 16 48 27 be b4 33 8d 3d
       -0.15431672 0.008227408 -0.16336092 0.06894627
000320 30 cd 6c 3e 30 1e 33 3d 30 0c a2 bd f0 fb fa 3d
       0.23125148 0.04372996 -0.07912481 0.122550845
000330 a0 00 f1 bc 44 c8 ee bd d0 de 07 be 98 74 cb bd
       -0.029419243 -0.116592914 -0.1326859 -0.09934348
000340 1c 41 f1 3d 20 75 16 be 00 7a 70 3b 68 48 0a 3e
       0.11779997 -0.14693117 0.0036693811 0.13504183
000350 e4 93 70 3e 34 bf 77 3e 60 ee cc bd 90 62 17 3e
       0.23493916 0.24194032 -0.10006404 0.14783692
000360 20 b3 ce bc dc 7e fc bd de 53 72 be 58 6e 05 be
       -0.025231898 -0.12328884 -0.23664805 -0.13030374
000370 0e 2d 1c be bc b7 a0 bd 70 db e5 bc 68 ec 74 3e
       -0.15251562 -0.078475446 -0.028058738 0.23918307
000380 a8 1c 6e be 84 98 dc bd 28 68 08 3d 6c e0 13 3e
       -0.23253119 -0.107712775 0.033302456 0.14441079
000390 1a 68 1f be 58 e1 db bd fa 17 24 be 08 86 6c be
       -0.15567055 -0.1073634 -0.16024771 -0.23098004
0003a0 18 ac 1b 3d 08 2b 26 be 3c 02 51 be 54 75 d2 bd
       0.03800592 -0.16227353 -0.20411009 -0.10276285
0003b0 ae 67 0a 3e de 6e 05 be 14 b9 3f 3e 0a 6c 52 be
       0.13516113 -0.13030574 0.18722945 -0.20549026
0003c0 50 bc e8 3d d0 fc 44 3e 20 8a 0d 3d 54 c1 6b 3e
       0.11364043 0.19237065 0.034555554 0.23022968
0003d0 e8 18 f2 bd 50 df c1 bd fc c9 5f be 40 66 15 3c
       -0.11821157 -0.094664216 -0.21854395 0.009118617
0003e0 e0 75 a2 bd 80 bf 26 bd 9c d8 79 be 64 49 a7 bd
       -0.07932639 -0.040709972 -0.24399036 -0.08168295
0003f0 40 60 5f be 4c e2 05 be 9e 4e 7d be d8 60 10 bd
       -0.2181406 -0.13074607 -0.24737021 -0.035248607

layer1.bias f4 [128]
000000 a0 60 f5 bc 40 bd c8 3b 40 b7 fb bb e8 49 3c 3d
       -0.029953301 0.006126076 -0.007681757 0.04596892
000010 ce 04 33 3e c0 58 ca bb 58 07 3b 3d f8 b5 3e be
       0.17482302 -0.0061751306 0.0456613 -0.18624103
000020 e8 32 3b 3d f0 12 34 bd 28 be 09 3d f0 15 d8 bc
       0.045702845 -0.043963373 0.033628613 -0.026377648
000030 e8 6c 93 bd 3e 7d 66 be da f3 0b be 40 11 82 bc
       -0.071985066 -0.22508714 -0.1366724 -0.015877366
000040 3c 61 3c 3e e8 8c dd 3d 38 b1 9d bd a0 81 62 3d
       0.18396467 0.10817891 -0.076998174 0.0552994
000050 2c cb 91 bd 08 32 69 3e 50 99 cf 3c d4 53 ce bd
       -0.0711883 0.22772992 0.02534166 -0.10074583
000060 da 6c 14 be 18 83 7e 3e d0 cf 62 3d 9c 45 46 3e
       -0.14494649 0.24854696 0.055373967 0.19362491
000070 88 23 6f 3d 60 dd 29 bc 2e 66 52 be da 81 02 be
       0.058383495 -0.010367721 -0.20546791 -0.12744847
000080 30 02 6e 3e 18 76 43 bd 3c 21 0b be a8 34 4c 3e
       0.23243022 -0.047720045 -0.13586897 0.19941962
000090 9e 09 0f 3e 00 f1 11 bc 6c f2 ed 3d 94 e0 f1 bd
       0.13968512 -0.0089075565 0.11618504 -0.11810413
0000a0 d4 42 dd 3d 56 70 7f 3e 28 5c 66 3d 6e da 42 be
       0.10803762 0.24945197 0.05624023 -0.19028637
0000b0 de cf 6a be 40 ea 7b 3e f4 6b 69 be 64 4d 57 3e
       -0.22930858 0.24601078 -0.22795087 0.21025616
0000c0 0c 6f aa 3d e0 1a a2 bc 98 7d 60 3d 5c 4c 7e be
       0.08321962 -0.019788206 0.054807276 -0.24833816
0000d0 54 ed fc 3d 10 50 01 bd f2 b3 20 3e 60 64 23 3e
       0.12349954 -0.031570494 0.15693644 0.15956259
0000e0 c8 8a 23 bd 98 4b 60 3e ca 2a 73 be 84 01 cb bd
       -0.039927274 0.21903837 -0.23746791 -0.099123985
0000f0 48 c6 76 be 66 00 0d be c2 6e 7e be 00 8d 4c be
       -0.24099076 -0.13769683 -0.24846938 -0.19975662
000100 54 db 34 be e6 03 38 3e 54 67 f5 3d 98 63 06 bd
       -0.17661792 0.17970237 0.11982599 -0.032809824
000110 fa 21 46 3e 5c 25 0a be 00 8e 35 3a 0c 82 68 be
       0.19348899 -0.13490814 0.00069257617 -0.22705859
000120 02 41 5e 3e 10 ef 6a 3d 10 fe 6f 3e c8 64 5e bd
       0.21704486 0.057356894 0.23436761 -0.05429533
000130 54 ef fc bd 40 3d f8 3b e4 4b b0 3d 50 2c 76 3d
       -0.12350336 0.007575661 0.08608225 0.060100853
000140 06 38 76 be b2 ba 57 3e b8 30 3c bd 54 ed 50 3e
       -0.24044809 0.21067312 -0.0459449 0.20403033
000150 74 69 50 be 9c 6f ae 3d 30 2d ed 3c 52 2d 2e 3e
       -0.20352727 0.085173815 0.028952211 0.17009476
000160 4c 51 34 be 40 65 d4 bd 88 6c 46 be 40 16 b5 3c
       -0.17609137 -0.103708744 -0.19377339 0.022105336
000170 94 34 b9 bd 40 65 80 3d 44 44 04 be 30 8c d4 bc
       -0.090432316 0.06269312 -0.12916666 -0.025945753
000180 90 7b ea 3d 92 56 2f be 10 dd 31 be ca 1b 3a 3e
       0.11449349 -0.17122868 -0.17369485 0.18174663
000190 40 89 09 3e 98 02 3f 3e e8 de 86 3d 00 3c 8e 3d
       0.13431263 0.18653333 0.06585485 0.06945038
0001a0 26 a5 41 be b2 20 08 3e a8 8c 15 be 3a 7b 0c 3e
       -0.18910655 0.13293722 -0.14604437 0.13718882
0001b0 cc 5b d2 3d d4 89 69 3e ac 2d 91 3d 14 4b b8 bd
       0.10271415 0.22806484 0.07088789 -0.08998695
0001c0 10 96 dd bd fa be 58 3e 4c e7 cf 3d 94 17 15 be
       -0.10819638 0.21166602 0.10151538 -0.14559776
0001d0 e0 12 83 3d 78 86 25 3e 20 9e ff bd c0 7e 07 bd
       0.064000845 0.16164577 -0.12481332 -0.033079863
0001e0 28 8d 42 bd 18 c4 df 3d ea 11 72 3e b8 0e de 3d
       -0.0474979 0.10926074 0.23639646 0.10842651
0001f0 06 53 4d 3e 98 4c 7b bd 68 9d f2 3d 54 a7 a8 bd
       0.20051202 -0.061352342 0.11846429 -0.0823504

layer2.weight f4 [128, 128]
000000 8f 99 10 3d 54 89 0a 3d 9b c2 38 3d 3a 9b 49 bd
       0.035302695 0.033822373 0.045107465 -0.0492203
000010 81 b7 b4 3d 5d 03 9f 3c e6 44 0b bc 0e c8 8e 3d
       0.08824063 0.019410783 -0.008500313 0.06971751
000020 17 3f 3f 3d 7a 7f ad bc 43 b1 57 bb 81 c3 52 3d
       0.046691027 -0.02117895 -0.0032912053 0.05145598
000030 5e d6 17 3c 9c 85 26 3c 5d e7 7d 3d 60 e8 f8 bc
       0.009267418 0.010163691 0.061988223 -0.030384243
000040 14 75 53 bd 6d 02 27 bd 05 be 7d 3d 8d a1 a2 3d
       -0.051625326 -0.040773798 0.061948795 0.079409696
000050 93 63 b8 bc ca b1 03 bb b5 99 5f 3b 4a 5b 81 bd
       -0.022508418 -0.0020094984 0.0034118716 -0.0631624
000060 36 49 08 bd 60 7b 01 bd db 77 00 bd 5c 7f a8 bd
       -0.033272944 -0.0316118 -0.031364303 -0.08227417
000070 2c 11 7c bd 2e cf 98 bd 31 70 25 bd aa 73 9a 3d
       -0.061539814 -0.074613914 -0.040390197 0.075415924
000080 49 13 9f bd 73 0e b5 bc dd ca 94 3d c8 36 af 3d
       -0.0776735 -0.022101616 0.072652556 0.085553706
000090 e6 c4 d0 ba e3 47 9c bd 5d 3e da bc f6 0b d5 3c
       -0.0015927821 -0.07630899 -0.026641065 0.02600668
0000a0 22 52 0b 3d 1c 85 42 3d 73 b1 68 bd b4 ea dd bc
       0.034013875 0.047490224 -0.056809854 -0.027089454
0000b0 f3 48 a3 3c a2 a1 5e bd 13 ae ae bc b5 34 b4 bb
       0.019932246 -0.054353364 -0.02132324 -0.005499447
0000c0 e3 ca 61 bc ce 39 ad bc 4e ae d2 bc 37 2f 0e bd
       -0.013781282 -0.021145727 -0.02571788 -0.034712996
0000d0 b2 34 d8 bc 45 12 79 bd ae d8 42 bc 70 ac 97 bd
       -0.026392315 -0.06080844 -0.011892481 -0.07405937
0000e0 b9 ee 92 3c bb fe 21 3d 6d 23 ef bc 43 41 46 3d
       0.017936097 0.03954957 -0.029191697 0.048402082
0000f0 9d 8b 06 bd 9a 89 49 3d 17 44 9f bd 33 fe 25 3c
       -0.03284799 0.049203493 -0.07776659 0.010131407
000100 7b 3c 7a bd 29 a8 ab bd d4 5f fe bc 9e 40 8d 3d
       -0.061092835 -0.083816834 -0.031051554 0.068970904
000110 0a ff f1 3a 0c 11 87 bd 52 80 b2 3d 55 29 b4 3d
       0.0018462848 -0.06595048 0.087158814 0.08796946
000120 3f 62 69 3d fb 68 ec 3c 7d 3d ae 3c ba 5f 2e 3d
       0.05697846 0.028858652 0.021269554 0.04257176
000130 a5 6a b4 bc 0c ab 41 bd cb 46 a1 3c f8 8a 2a 3d
       -0.022023508 -0.047282264 0.019687077 0.041636437
000140 26 4e 52 bd 65 15 b4 bd 63 79 12 3c 97 b8 82 3d
       -0.05134406 -0.08793143 0.008940074 0.06382864
000150 47 6a fa 3c 2c dd 97 3b 31 3e 37 bd 1e a7 31 3d
       0.030568255 0.00463452 -0.044737045 0.043372266
000160 64 ea 55 3d 08 b3 a6 bd 78 4a ab 3d f7 3e a1 bd
       0.052225485 -0.08139616 0.08363813 -0.07873338
000170 9a e4 a7 3c 31 a6 20 bd c7 cc 02 3d f9 33 13 bd
       0.020494748 -0.039220992 0.031933572 -0.035938237
000180 b3 cb 89 3c 15 0e 01 bd fc 3a aa 3d f1 e7 57 bd
       0.016820764 -0.03150757 0.083120316 -0.05271143
000190 4a 2c 38 bc 31 5b a4 3d 10 d6 57 bd cf b5 25 bc
       -0.011241028 0.08025206 -0.05269438 -0.010114147
0001a0 c1 a8 b1 bd 59 c0 8c 3c 4c a3 c2 3c 08 a2 8b bd
       -0.086747654 0.017181562 0.023759507 -0.068180144
0001b0 a2 ba 41 3d c8 c0 a3 3c 58 e4 cb bc 84 12 d7 bc
       0.047297128 0.019989386 -0.024889156 -0.026253946
0001c0 39 0c 49 3d cd 77 37 bc 89 46 93 3c a0 02 ad 3c
       0.049083922 -0.011197996 0.01797797 0.021119416
0001d0 b2 84 9b 3c fc a3 04 3d 92 89 a0 3d df 30 b2 35
       0.018984172 0.03238295 0.078387395 1.3276257e-06
0001e0 83 70 ed bc 6c 3d c7 3c 89 b4 e3 3c 1a 85 8f bd
       -0.028984314 0.02432128 0.027796047 -0.07007809
0001f0 0f 58 22 bd cd 23 ae 3d fa 08 92 3c c7 b6 95 bc
       -0.03963476 0.08502922 0.017826546 -0.018275632
000200 2e a2 57 3d 40 e7 83 3d aa 76 65 3d 56 22 4f bd
       0.0526449 0.06440592 0.05602137 -0.050569855
000210 22 d2 80 bd 41 0d 0e bd 55 a2 68 bd e2 cb ed ba
       -0.0629008 -0.03468061 -0.056795437 -0.0018142427
000220 60 87 9a bc c4 0b b0 bd 93 85 87 bc ef 74 a8 bd
       -0.01886338 -0.08595994 -0.016543185 -0.08225428
000230 e6 d0 af bd 7d 6c 3f bc bf 9a a1 3d e7 43 29 3d
       -0.08584766 -0.01168358 0.078908436 0.041324522
000240 b2 81 2f bd 02 2a ce 3c bb b1 f3 3c 63 a2 7b bd
       -0.042848296 0.025166515 0.029747834 -0.06143416
000250 21 dc 5d 3d f0 3a 4b 3d fe 5b 7a 3d 07 90 b0 bd
       0.05416501 0.049616754 0.061122887 -0.08621221
000260 53 95 8a 3d 85 d5 a7 bd 18 a1 66 3d 56 08 a0 bd
       0.067667626 -0.081950225 0.056305975 -0.0781409
000270 f4 c2 99 bc ca 51 c4 bb 80 89 5d bb 96 bd bf bb
       -0.018769719 -0.0059911953 -0.003380388 -0.005851458
000280 a4 d3 a7 3d 7d 41 5a 3d 6c 0e 7c 3d 3d bf c8 bc
       0.08194664 0.05328511 0.06153719 -0.024505252
000290 40 5b 13 bd 22 4c b3 3c 63 5d 45 bc 67 37 de 3c
       -0.035975695 0.021886889 -0.012046191 0.027126027
0002a0 0e a5 b7 bc c7 91 b0 bc fc c2 8c 3d 39 6f 87 bd
       -0.022417571 -0.021553887 0.06873128 -0.06613011
0002b0 41 9c 91 3d 17 d9 81 3c 5b 0f ac bd 97 6e 58 bb
       0.07109881 0.015850587 -0.08401366 -0.00330249
0002c0 ba cc 9d 3d 7c 02 ab bb 99 ec 54 bd 26 04 36 bd
       0.07705064 -0.005218802 -0.05198345 -0.04443755
0002d0 09 75 6a 3d 3b 72 b0 bd 9d 95 0c 3d 54 13 8c bc
       0.05724052 -0.08615538 0.03432237 -0.01709906
0002e0 49 8d 1a 3d 8b 4f 99 3d 8b b7 5a bc 8e 37 88 bd
       0.037732396 0.07485875 -0.013349424 -0.06651221
0002f0 d8 89 82 3c 33 5b d6 bb f6 df 66 3d 48 85 84 bd
       0.01593487 -0.0065416335 0.05636593 -0.06470734
000300 c6 8c b2 bc 47 51 a1 bd c3 ed d7 bc 50 03 48 bd
       -0.021795642 -0.078768305 -0.02635849 -0.048831284
000310 e4 b1 a0 bd 13 14 90 bd 27 af 07 bd 6f 6c c9 3c
       -0.0784643 -0.07035079 -0.033126023 0.024587838
000320 59 85 9f bd fd 04 4b bd ef c8 eb bc ea fc 90 3d
       -0.07789106 -0.049565304 -0.028782336 0.070794895
000330 ad a6 9c 3c a0 68 2b 3d e0 a5 e9 bc d1 6c b0 bd
       0.019122446 0.041847825 -0.028521478 -0.08614505
000340 51 50 c7 3c 8e 2f fc 3c a9 4d 09 3d 36 64 2a bd
       0.02433029 0.030784395 0.033521328 -0.041599475
000350 5c 73 a8 3d 2b e1 42 3d 86 a2 8d 3d d8 11 80 bc
       0.08225128 0.04757802 0.069157645 -0.015633509
000360 7a 45 98 3d a1 d3 f7 bc 4e 07 4a bd 7c 63 02 3d
       0.074351266 -0.03025228 -0.049323373 0.031833157
000370 61 25 a7 bd 20 63 57 3b 85 3e 85 bd b5 36 7b bd
       -0.08161426 0.003286548 -0.06506065 -0.06133147
000380 77 35 0d bd af 4f bd 3c 01 cb 7b bd 89 21 04 bd
       -0.034474816 0.023109285 -0.061472896 -0.032258544
000390 b5 5b 45 bd 91 f0 f5 3c f5 8f a3 3d 1d 05 d9 bb
       -0.04818316 0.030021938 0.07986442 -0.006622924
0003a0 56 55 57 bd f9 39 ab 3d 45 85 c5 bc eb 7d af bd
       -0.052571617 0.08360667 -0.0241114 -0.08568939
0003b0 c6 e5 94 bd 8e 68 a8 3d 56 72 a2 3d da b8 ee bb
       -0.07270388 0.08223067 0.07931964 -0.0072852196
0003c0 e0 92 cb 3c 7a 0c 3d bd 7f f2 95 bd 28 78 c3 3c
       0.024850309 -0.046154477 -0.07321643 0.023861006
0003d0 0e a4 bc bc 57 da 87 3b f4 1d cc 3c 84 53 a2 bb
       -0.023027446 0.004145901 0.024916627 -0.0049538035
0003e0 b4 f9 a5 3d 58 8f 70 bd 3a b4 aa bd 39 f5 33 3d
       0.08104268 -0.058730453 -0.08335157 0.043935034
0003f0 6b c1 54 3d 49 6d 6d 3d dd c2 78 3d ac 6e 44 3d
       0.05194227 0.05796555 0.06073271 0.047957107

layer2.bias f4 [128]
000000 d8 f9 6b 3d 4d b0 48 bc 8c e9 d6 3c 47 03 a7 3d
       0.057611316 -0.012249065 0.02623441 0.08154922
000010 47 3a 77 3d 78 a4 5f 3d 4d aa 5f 3d 5a 71 4d 3d
       0.060358312 0.05460021 0.05460577 0.05015693
000020 59 17 95 3d 8a e5 36 bd 7d aa 09 bd 57 41 9b bd
       0.07279844 -0.0446525 -0.033609856 -0.07580822
000030 b7 81 0e 3d a5 d4 a1 bd 15 8c 79 3d 8e 78 c3 3c
       0.034791674 -0.07901887 0.06092461 0.023861196
000040 10 f4 3b bd f9 bd 1f bc 3d 43 82 bd af 7b d1 bc
       -0.045887053 -0.009749883 -0.06360481 -0.025571672
000050 af 3d af bd 52 9f 35 bc 43 8b 10 3d 0f 03 ff 3c
       -0.08556687 -0.011085348 0.03528906 0.031129388
000060 30 1e b0 3b 98 42 8d 3d 1d ef a7 bd f3 bb 45 3d
       0.0053746924 0.068974674 -0.08199904 0.048274945
000070 fc ca a2 3d 86 37 6b bd 32 4e 6d 3d df 94 b0 bd
       0.079488724 -0.057426 0.0579359 -0.08622145
000080 90 6c 5b 38 6b 7e 4e bd 5b 13 aa 3d 61 b9 51 bc
       5.2314776e-05 -0.05041353 0.08304473 -0.012800545
000090 4f d7 23 bd 8d 44 66 3d 20 7a 6d bd 9d 33 e4 bc
       -0.040000256 0.05621772 -0.057977796 -0.027856642
0000a0 1e 08 a9 bd a6 53 a5 bd f8 8f 8b 3d 43 83 12 3d
       -0.08253501 -0.08072595 0.06814569 0.035769712
0000b0 03 86 9b 3d 46 6a 6a 3d e5 7f 9a bd ca 8f 21 bd
       0.0759392 0.057230256 -0.07543925 -0.03944377
0000c0 c6 0a 04 bd 26 62 10 bc 7a 37 76 3d 2a 16 a4 3d
       -0.032236837 -0.008812463 0.0601115 0.0801204
0000d0 21 44 b0 3c 73 8b 8c bc 45 25 00 bd 7e 54 a0 bd
       0.021516861 -0.017156338 -0.031285543 -0.078286156
0000e0 a7 8f b2 bd 4b f8 2d bd cb a7 61 38 ca 6f 0d bd
       -0.08718806 -0.04247312 5.380045e-05 -0.03453044
0000f0 04 33 45 bd 40 5b 00 bd 30 a0 49 3d 08 5a e2 3c
       -0.048144355 -0.031337023 0.049225032 0.02763082
000100 d9 52 a3 bc 8e d3 31 bd f4 d3 97 3d 34 b1 95 bd
       -0.019936966 -0.043414645 0.07413474 -0.073091894
000110 15 a3 27 bd 61 05 a3 3d 08 1d 4f bd b9 de 12 3d
       -0.04092701 0.0796001 -0.050564796 0.035856936
000120 08 e4 63 bd 8b 0b 79 3d 51 5a 3a bd c5 77 c1 3c
       -0.05563739 0.060802024 -0.04549629 0.02361668
000130 30 f9 39 bc d9 04 9c 3d a7 db a5 3d 24 d2 66 bd
       -0.011350915 0.07618112 0.08098536 -0.05635275
000140 da 3f 24 bd 4a 6a 86 bb e4 bb 9e 3d 63 21 9b 3d
       -0.040099956 -0.004102026 0.07750681 0.075747274
000150 c6 a0 9e 3d ec c3 07 3d 80 10 88 3c 43 28 5f bc
       0.07745509 0.03314583 0.01660943 -0.013620439
000160 91 4b 32 bc 53 83 02 bd 03 41 98 3d 0e 16 06 bd
       -0.010882274 -0.03186352 0.07434275 -0.032735877
000170 02 29 83 3d ad d8 85 3d 90 f6 86 bc 91 a2 20 bd
       0.06404306 0.06535468 -0.016474992 -0.039217535
000180 87 04 cf bc 0e df 8c bd 38 19 21 bd ef 18 1a 3d
       -0.025270713 -0.06878482 -0.03933069 0.037621435
000190 ae 1a 46 bd bc 69 88 bd 0e d7 a3 bd 58 71 a7 3c
       -0.048365287 -0.06660792 -0.08000003 0.020439789
0001a0 e7 61 a0 bd 18 a1 38 bd 2a ec 91 bc 64 29 1f bd
       -0.078311734 -0.045075506 -0.017812807 -0.038857833
0001b0 4c 84 56 3d 02 dd 71 3c 2a 27 84 3d 44 44 64 bd
       0.052372262 0.014762165 0.064527825 -0.055729166
0001c0 83 76 a3 3c 4e 00 3a bc 9d d2 a9 bd c6 1a 19 3d
       0.019953972 -0.011352612 -0.082921244 0.03737905
0001d0 ae 6a 79 3c ed fd 59 3d e9 74 23 bd ee ce 52 bd
       0.015223188 0.053220678 -0.039906416 -0.051466875
0001e0 d6 e9 38 bd 52 fa a0 3d 1f ff 85 3d ac ef bc 3c
       -0.04514488 0.07860245 0.06542801 0.023063503
0001f0 5c 19 88 3b 7f 69 99 3d 77 9b 76 bd b9 e1 ca 3c
       0.0041534137 0.07490825 -0.060206857 0.024765836
