custom_maze/static/custom_maze/run/room24821/trained_model.pth (torch, 158674 bytes, 12 tensors)

layer1.weight f4 [128, 16]
000000 a0 ca 7e bc 62 47 23 3e 36 46 05 be 40 a8 eb bb
       -0.015551239 0.15945199 -0.13015065 -0.007191688
000010 f0 ce 7e bd 72 c4 41 be 26 53 79 3e f4 b4 b1 3d
       -0.06220907 -0.18922594 0.24348125 0.08677092
000020 d8 13 7a be 1e 8e 36 3e f2 04 7d 3e 52 95 79 3e
       -0.24421632 0.17827651 0.24708918 0.24373367
000030 48 09 ba bd 4c cc d4 bd 80 01 d1 3b 0a d6 05 be
       -0.090838015 -0.10390529 0.0063783526 -0.1306993
000040 40 64 96 3d 90 72 40 3e 40 2d 69 3c 22 e3 7d be
       0.0734334 0.18793702 0.01423198 -0.24793676
000050 60 75 3a 3d 00 f2 03 bb 58 d4 22 3d 2e a0 39 3e
       0.045522094 -0.0020133257 0.039753288 0.1812751
000060 68 eb 6d be 40 e3 a4 3d 28 81 31 3e ee a9 24 3e
       -0.23234332 0.08051157 0.17334425 0.16080448
000070 a4 5a 8a bd 7a 54 01 be e0 36 ed bc a4 66 3a 3e
       -0.067555696 -0.12629882 -0.02895683 0.18203217
000080 48 c3 9e bd bc 06 20 3e 6c cf 2b 3e b8 ec 7b 3e
       -0.07752091 0.15627569 0.16778344 0.2460202
000090 54 13 92 bd 80 19 b3 3d 00 00 a8 ba 96 7b 22 be
       -0.07132593 0.08745098 -0.0012817383 -0.15867457
0000a0 38 75 41 be 62 5a 37 3e a4 bf 71 3e dc 88 3c be
       -0.18892372 0.17905572 0.23608261 -0.18411583
0000b0 94 27 47 be 00 19 ec 3b 2c 32 cd 3d 00 5a c0 ba
       -0.19448692 0.0072051287 0.10019335 -0.001467526
0000c0 54 16 52 be 30 d8 f3 bd 0c a0 c9 bd 40 51 7e 3c
       -0.2051633 -0.11906469 -0.0984498 0.015522301
0000d0 80 e5 ea bc 7a ee 11 be 90 d6 18 3e 50 ea 5e be
       -0.028673887 -0.14251128 0.14925599 -0.2176907
0000e0 e0 bf 20 bd 7a c3 0b 3e 48 36 d7 bd 26 a2 5e 3e
       -0.039245486 0.13648787 -0.105084 0.21741542
0000f0 14 ca b1 3d a4 2f 22 3e 46 20 69 be a0 b6 26 be
       0.086811215 0.15838486 -0.22766218 -0.16280603
000100 48 ac f9 bd 28 5b 38 bd 08 11 15 3d 44 0d d5 bd
       -0.12191063 -0.04500881 0.036393195 -0.10402921
000110 68 8b 4f bd 04 55 87 3d cc 58 aa 3d c0 cc ca bb
       -0.050670058 0.06608012 0.08317718 -0.006188959
000120 40 67 f3 3d e4 82 bd 3d a0 82 4a bd bc 32 8c 3d
       0.11884928 0.09253481 -0.04944098 0.06845614
000130 9c 66 99 bd 2c 5b 80 bd a4 f5 7f be a0 05 35 bd
       -0.07490274 -0.0626739 -0.24996048 -0.044194818
000140 08 d0 7a 3d 30 99 ff 3d a8 b2 ec bd 18 fd 82 bd
       0.06123355 0.1248039 -0.115575135 -0.0639593
000150 be 6d 1b 3e c4 1f 7f 3e 78 9b 2d 3e 24 0d 01 3e
       0.15178582 0.24914461 0.16953838 0.12602669
000160 42 a8 46 3e e0 4c f1 bc f0 de 5e bd 46 01 79 3e
       0.19400123 -0.029455602 -0.05441183 0.24316892
000170 06 47 07 3e 1c c6 df 3d 48 a0 61 3e 70 87 a6 bd
       0.13210687 0.10926458 0.22033799 -0.081313014
000180 b0 7e f6 bc ba 0d 0c be d0 00 02 3e 86 fb 64 be
       -0.030089706 -0.13677111 0.12695622 -0.22361574
000190 d8 72 30 bd b0 95 59 3e 0c 0f e2 3d fa 84 0f be
       -0.043078274 0.21248507 0.11038026 -0.1401557
0001a0 e0 a1 80 3d 18 d5 5b bd ac e7 e0 3d 48 cd 7b 3e
       0.06280875 -0.05367002 0.10981688 0.24590027
0001b0 12 39 48 3e f0 ec d9 3d 94 9f a2 bd e8 86 73 be
       0.1955302 0.10640895 -0.07940593 -0.23781931
0001c0 74 f7 f5 3d 8c 1b ef bd 70 c3 21 be 08 31 b5 3d
       0.120100886 -0.11675176 -0.1579721 0.088472426
0001d0 c0 4d 70 3c 5a 7a 4e be 28 6e e8 3d 7c 4e df bd
       0.014666975 -0.20163861 0.11349136 -0.109036416
0001e0 3c 21 83 3d 28 61 f8 bd ea 57 0f be 78 6b b0 bd
       0.06402823 -0.12127906 -0.1399838 -0.08614248
0001f0 00 0c 71 3b b4 59 2f 3e a0 16 02 3c d0 04 ed bc
       0.0036780834 0.17124063 0.0079399645 -0.028932959
000200 7c 22 c7 3d 84 28 f4 3d 5c 04 9b 3d 10 0d 98 3d
       0.09723374 0.1192179 0.07569191 0.074243665
000210 32 b2 02 be d8 b3 b1 3d d4 ae 17 3e 80 5c 77 bd
       -0.12763289 0.086768806 0.14812785 -0.06039095
000220 f2 96 7a 3e a0 0a a6 3d 5a 88 6d be 8a a2 69 be
       0.24471644 0.08107495 -0.23196545 -0.2281591
000230 50 0d e9 3d e0 96 5c 3c 48 7b 63 3e 88 fe 7f bd
       0.11379492 0.013463706 0.22214997 -0.0624986
000240 00 91 5d bc be ed 0b be 40 fa 4c be 80 9c fd bd
       -0.01352334 -0.1366491 -0.20017338 -0.12383366
000250 28 0d 11 bd d8 ef 8a 3d 4e 44 24 be d4 5a ea bd
       -0.035412937 0.06784028 -0.16041681 -0.11443105
000260 e2 17 28 be cc 8b a0 bd b0 56 07 bd 4e 20 57 be
       -0.1641536 -0.07839164 -0.033041656 -0.21008417
000270 ac d0 d5 3d aa ab 04 be 8e 0a 03 be 6e 14 3c 3e
       0.104401916 -0.1295611 -0.12796995 0.18367168
000280 00 2c 50 3a 1c d6 ab 3d ba 84 5b be ac 87 d8 3d
       0.0007941127 0.083904475 -0.2143735 0.10572752
000290 90 04 cb bd 8e ad 3a 3e ec 42 2a 3e ba 57 77 3e
       -0.099129796 0.18230268 0.16627091 0.24154559
0002a0 e8 29 75 3e 78 f9 0e be d0 62 02 3d 60 fe 95 3d
       0.23941767 -0.13962352 0.031832516 0.07323909
0002b0 1c 87 06 3e 58 5c c5 bd 94 40 05 3e 00 8c 92 3c
       0.13137478 -0.09636754 0.13012916 0.017889023
0002c0 5a c8 67 3e 80 c3 b5 bb 9c a7 5b be d0 a1 87 3c
       0.22635022 -0.005546987 -0.21450657 0.01655665
0002d0 ec 06 5e be 02 f0 76 3e 94 cd 6f be 04 dc 4f be
       -0.21682328 0.24114993 -0.23418266 -0.20298773
0002e0 4a 8d 30 3e e8 27 dc bd 4c 55 88 3d 70 ba c9 bc
       0.17241398 -0.10749799 0.06656894 -0.024625033
0002f0 98 78 25 3d d6 77 2f 3e 44 87 cd bd 68 f2 9a 3d
       0.04039821 0.17135558 -0.100355655 0.075657666
000300 e6 2e 48 3e c8 14 56 be 44 cc 12 3e 18 e7 53 bd
       0.1954914 -0.20906365 0.14335734 -0.05173406
000310 0c 97 9e 3d 3c 4d 5b 3e f0 ee d6 3c 30 71 b0 bc
       0.07743654 0.21416181 0.026236981 -0.021538347
000320 06 15 6f 3e f8 25 07 3d 90 ca 09 3e 50 aa 9d bc
       0.23347864 0.032995194 0.13456178 -0.01924625
000330 e2 b1 75 be c0 ee 58 be dc 1c bf bd 2c a3 87 3d
       -0.23993638 -0.21184826 -0.09331676 0.066229194
000340 00 a0 ce bd 80 3a 88 bc ea 34 7f be 38 e1 57 3e
       -0.10089111 -0.016629457 -0.24922529 0.21082008
000350 b4 eb 82 bd bc 68 77 be 30 23 5a 3e c8 24 2e bd
       -0.06392613 -0.24161047 0.21302485 -0.042515546
000360 58 d5 e2 bd 90 bf fe 3c 28 67 25 bd b4 1f f1 bd
       -0.11075848 0.031097203 -0.04038158 -0.11773625
000370 3a 34 41 3e 60 cf 54 be a2 22 0d be c0 31 0a 3e
       0.18867579 -0.20782232 -0.13782743 0.1349554
000380 f6 f1 4d be 04 24 4d 3e c8 a5 98 3d d6 ba 1f 3e
       -0.20111832 0.2003327 0.07453495 0.15598616
000390 42 48 79 3e 30 f5 2d be d4 7e 3b be 70 9e be bc
       0.2434397 -0.16988063 -0.183101 -0.023268908
0003a0 b0 80 07 be de 33 6e 3e 78 43 4b bd f8 32 81 bd
       -0.13232684 0.23261973 -0.04962489 -0.0630855
0003b0 00 7d d0 3d 60 6f c1 3c 4c 64 e0 3d 66 49 2f be
       0.10180092 0.023612678 0.1095663 -0.17117843
0003c0 70 32 d7 bd 24 d5 10 be 0a 12 5f be bc 24 61 3e
       -0.10507667 -0.14143807 -0.21784225 0.2198667
0003d0 78 8e 3a be 54 65 8e 3d 5c a3 a5 bd 74 8c c1 3d
       -0.1821841 0.069529206 -0.08087799 0.094506174
0003e0 e0 b5 31 be ba 9e 37 3e 28 2f a1 bd da f2 02 be
       -0.17354536 0.17931643 -0.078703225 -0.12787953
0003f0 68 5c 1b 3d 70 51 7a 3e 6c 93 ce bd 7e 75 22 3e
       0.037929922 0.24445128 -0.10086712 0.15865132

layer1.bias f4 [128]
000000 56 32 59 be d0 f8 cd bd f8 15 24 3d 10 78 ea bd
       -0.21210608 -0.10057223 0.040060014 -0.11448681
000010 b8 65 6f be ac 7e 33 be 54 08 3f be 76 8f 5e 3e
       -0.23378646 -0.1752879 -0.1865552 0.21734414
000020 98 64 26 be 30 31 98 3c d0 e2 38 bd a4 89 84 3d
       -0.16249311 0.018578142 -0.04513818 0.06471565
000030 80 72 44 3e 18 d6 6f be 60 d1 f8 bd 20 86 91 bc
       0.19184303 -0.23421514 -0.1214931 -0.017764151
000040 4c d8 6c 3e 04 c7 ed bd a4 49 07 3e 44 b0 10 3e
       0.23129386 -0.11610225 0.13211685 0.1412974
000050 1c 34 85 3d 90 e1 1d be 48 f7 4c 3e a4 59 69 3e
       0.0650408 -0.15418077 0.20016205 0.22788101
000060 d0 e7 f8 bc e8 8a 2a 3d d8 4e 46 be 16 33 59 be
       -0.030383974 0.041636378 -0.19366014 -0.21210894
000070 d6 e7 0a 3e 16 d4 0b 3e 38 17 e5 3d 60 8c 01 3e
       0.13565001 0.13655123 0.11186069 0.12651205
000080 24 4a 27 be 9c 67 ee 3d 40 e1 7f be 82 fc 46 be
       -0.16336876 0.11640856 -0.2498827 -0.19432262
000090 a8 4f c5 3d f8 d2 89 3d d0 25 9f 3c f0 19 26 bd
       0.09634334 0.06729692 0.01942721 -0.04055208
0000a0 a0 b2 64 3c b6 1a 56 3e ca 0a 44 be 68 db 76 3d
       0.013958603 0.20908627 -0.1914474 0.060267836
0000b0 1e 20 12 3e b8 af 80 bd 24 bf 18 3e ac 52 17 3e
       0.14270064 -0.06283516 0.14916664 0.1477763
0000c0 90 16 e3 3d 1c db b6 bd a0 f3 48 3d 94 ea fc bd
       0.11088288 -0.089285105 0.049060464 -0.1234943
0000d0 9c f5 49 be b0 9f 12 3d 68 b7 8e 3d d8 76 67 3e
       -0.19722599 0.03579682 0.06968576 0.22603929
0000e0 68 ea 6f 3e 30 e9 53 3d f4 fd 1a be 9a 97 42 3e
       0.23429263 0.051736057 -0.15135938 0.19003144
0000f0 be 35 7c 3e 80 93 0c bd 20 10 06 be 30 22 5e 3d
       0.24629876 -0.034320354 -0.13092089 0.054231822
000100 00 f4 ed 3b d0 8d e6 3d e8 e2 63 3d f0 37 9f 3d
       0.007261753 0.11257517 0.055636317 0.07774341
000110 88 9b ea bd c8 06 31 be 0a a9 67 be f0 1a 24 be
       -0.114554465 -0.17287743 -0.22623077 -0.16025901
000120 b4 d6 13 3e 58 15 c6 3d d0 17 f2 bc 40 37 83 3c
       0.14437371 0.0967204 -0.02955237 0.016017556
000130 68 4b 89 3d 80 8b 57 3e 0a bc 3a be d4 9c 1d 3e
       0.06703836 0.21049309 -0.18235794 0.15391856
000140 06 0c 13 be ee 5f 67 be 5c 6c c3 bd 0a a1 04 be
       -0.14360055 -0.22595188 -0.09542152 -0.12952057
000150 c0 08 16 bd 84 fd 8f bd 94 cc 5d 3e 1c 2c 82 bd
       -0.03662944 -0.07030776 0.21660072 -0.063560694
000160 e8 52 05 3d ec 44 0d 3e bc 39 8e 3d 0c 56 94 bd
       0.03254977 0.13795823 0.06944606 -0.07242975
000170 b4 95 07 3e e0 86 0e bd a6 39 50 3e ec f6 d5 bd
       0.13240701 -0.034796596 0.20334491 -0.10447487
000180 a8 96 01 3e 10 6d 4d be a8 f4 cd 3d f4 c0 43 3e
       0.12655127 -0.20061135 0.1005643 0.19116575
000190 18 2c d9 3d a0 3c 1a bd 24 14 67 3e a4 29 c4 bd
       0.10604113 -0.037655473 0.22566277 -0.09578255
0001a0 04 3e bf 3d 40 9d 06 bc e8 94 70 3e 30 09 82 bc
       0.093380004 -0.008216202 0.23494303 -0.015873522
0001b0 3c e0 46 3e f0 5e 3c bd 36 14 54 be 30 87 6e bd
       0.19421476 -0.045988977 -0.20710835 -0.058234394
0001c0 e0 5a 02 bd a2 69 59 3e 86 64 2f be 0e ac 7e be
       -0.031824946 0.21231702 -0.1712819 -0.24870321
0001d0 00 24 06 3b f8 8e 41 bd 2c 3a c9 3d 9e 6d 55 3e
       0.0020468235 -0.047255486 0.098255485 0.20842597
0001e0 08 31 0e 3e c0 2d 13 bc b0 04 bc bc 68 86 85 3d
       0.13885891 -0.008983076 -0.022951454 0.065197766
0001f0 2c 80 16 be 98 63 ab 3d 78 ea 75 3e 60 2d cd 3c
       -0.14697331 0.083686054 0.24015224 0.02504605

layer2.weight f4 [128, 128]
000000 57 59 a8 3d a4 7e b0 bc 1f 9d 61 bd 68 08 8a 3d
       0.08220165 -0.021544762 -0.055081483 0.067398846
000010 fd b3 c4 3c b4 7b 82 bc 5c 3f 8e bd 95 e2 44 3d
       0.024011606 -0.015928127 -0.069456786 0.048067648
000020 1c 9a 23 3c b6 ea 83 3a fc e1 68 bd 69 38 64 bd
       0.009985473 0.0010064456 -0.05685614 -0.05571786
000030 7c 1f 8f 3d 3a 58 ae ba a3 0d 2c bc 76 59 a4 bd
       0.06988427 -0.001330144 -0.010501298 -0.08024876
000040 74 13 ad bd 7f 37 ff bc 15 de 96 bb 25 07 e6 bb
       -0.08450976 -0.031154392 -0.004604111 -0.0070198947
000050 5f 86 42 3d b6 b8 ce 3c 31 4c 48 3d ec 52 2e 3b
       0.047491428 0.025234561 0.048900787 0.0026599718
000060 e7 4e 25 bd 9f 96 01 3c af 6c b3 3c 6e 71 27 bc
       -0.04035845 0.007909446 0.02190241 -0.010219915
000070 5d 1e 30 3c 52 e4 67 bd 41 32 34 3d 6d 5c 19 bd
       0.010749427 -0.056614228 0.04399324 -0.03744166
000080 eb a7 76 3d 92 6e f9 39 e5 2d 2d bd 47 78 da 3c
       0.060218733 0.00047575362 -0.042280097 0.02666868
000090 0f e1 5f bd d4 58 ec bb 11 12 54 bd b8 11 a7 bd
       -0.054657992 -0.0072127376 -0.051775042 -0.081576765
0000a0 b5 bb d8 bc 08 7e 1e bd 24 1d 1f bd 9d 40 19 bd
       -0.026456693 -0.03869441 -0.03884615 -0.037415136
0000b0 12 06 86 3d 8d 06 76 bd 65 2a 8e 3d af 9a 1f bd
       0.065441266 -0.06006484 0.0694168 -0.038965877
0000c0 d0 42 95 3b 60 ca 07 3d 38 29 51 3d 67 bc fc 3c
       0.004555084 0.033151984 0.0510647 0.030851556
0000d0 61 61 93 3d f2 78 91 bd 7e b8 de 3a 36 d8 6d bd
       0.07196308 -0.071031466 0.0016992239 -0.058067523
0000e0 e7 7d 0a bd 31 84 bc 3c 09 a7 3f bd 4b 11 c3 3a
       -0.033811476 0.023012253 -0.046790157 0.0014882473
0000f0 ae 51 b3 bc 89 3d a0 3d 04 96 33 3d 7b 9c e1 b9
       -0.021889534 0.07824237 0.043844238 -0.0004303193
000100 51 bf 9d 3d 33 3e fd 3c d6 b4 60 bd 92 a3 81 bd
       0.07702506 0.030913448 -0.05485996 -0.06330027
000110 09 44 74 3d c0 44 0c 3d c4 3d 54 3d b0 f7 80 3d
       0.059635196 0.034245253 0.051816717 0.06297243
000120 f9 92 93 bd 88 cd ab 3c a4 59 8f 3d 2d 47 a5 bd
       -0.07205767 0.020972028 0.069995195 -0.08070216
000130 fd 9c 07 3d c6 5e 99 bd e0 b8 11 3d af 46 16 3d
       0.0331087 -0.0748878 0.0355767 0.036688503
000140 a6 dc 07 3d 49 24 a5 bd 2f a1 b8 bc db 90 9a bd
       0.03316941 -0.080635615 -0.022537796 -0.0754716
000150 c4 cb 55 3d 5a 50 21 3d cb 74 5b 3d bc 1a 62 bd
       0.05219628 0.03938327 0.05357818 -0.055201277
000160 c5 f2 46 3d a0 96 a6 3d dd 6c c3 3b 81 26 fa bb
       0.048571367 0.08134198 0.0059639052 -0.0076339846
000170 a5 da 87 3d 22 1c 43 bd 38 e1 9f bc 15 14 64 3d
       0.066335 -0.04763425 -0.019516572 0.055683214
000180 ca 56 15 bb a4 80 b2 3c 78 c1 6a 3d e5 8e 5e bd
       -0.0022787326 0.021789856 0.057313412 -0.054335494
000190 7e c0 2c bd 43 ce 40 bd fb 4f dd bc 55 89 7f bd
       -0.042175762 -0.047071707 -0.027015677 -0.06238683
0001a0 b1 e7 2e bd 08 1e 93 3c 9d 33 3c 3d 0c 6b 1c bd
       -0.042701427 0.017958656 0.04594766 -0.038188025
0001b0 d2 88 a5 bb 5a 1b 94 bd 41 5c 35 bd bd 88 00 3d
       -0.0050517106 -0.072317794 -0.044277433 0.031380404
0001c0 bc 8e 0d 3c 11 a6 4f bd b6 65 c6 bb ce b7 e7 3b
       0.008639988 -0.050695483 -0.0060546054 0.007071472
0001d0 20 3f 32 3d 21 ed a3 bc 73 0b 56 bd 72 d8 8d 3d
       0.043517232 -0.020010533 -0.052257013 0.06926049
0001e0 a7 a0 29 3d 1c 55 7c bd bb a0 84 3d 04 58 d6 bb
       0.041412976 -0.061604604 0.064759694 -0.006541254
0001f0 cb e0 35 bd 4c 47 48 3d 52 60 5f bd 7f 73 ba bc
       -0.044403832 0.04889612 -0.054535218 -0.022760151
000200 1c a4 a9 bb 44 d8 a4 bd 48 98 37 bd 3e 59 0c bc
       -0.005177034 -0.08049062 -0.04482296 -0.008566199
000210 c1 7d 11 bd 93 27 70 bd 27 bd 02 bd 2c 12 ea bc
       -0.03552032 -0.05863149 -0.03191867 -0.028573118
000220 fb e2 c2 bc 91 f3 00 3d 08 57 a9 bd 06 68 b7 bc
       -0.023789873 0.031482283 -0.08268553 -0.02238847
000230 eb 3a 7f 3c 85 a3 0d 3d f9 94 47 3c 0b c7 fa 3c
       0.015578012 0.034579773 0.012181514 0.03061249
000240 87 88 a5 bd 7a fc fd bc 27 21 85 3d 62 44 47 bd
       -0.08082681 -0.03100418 0.06500464 -0.0486492
000250 13 5f 43 39 1c 5c 16 3c d9 23 ac 3d 3a 28 91 bd
       0.00018632067 0.009177234 0.08405275 -0.07087751
000260 d9 93 96 bd 8f 95 8e 3b b6 b7 7f 3d 43 a1 c2 3c
       -0.073524185 0.004351325 0.06243106 0.023758536
000270 f2 5b 89 bd 51 cf aa bd 6d 0b 7c 3d 1f e8 c3 3c
       -0.0670699 -0.08340324 0.061534334 0.023914395
000280 1b 31 8e bc 82 47 82 3c b6 30 a9 3d 22 33 aa 3d
       -0.0173574 0.015903238 0.08261244 0.08310534
000290 0f 57 8f 3d bc 5b 8e bd 2c 3c 00 3d 5d a7 9c bd
       0.06999027 -0.06951091 0.031307384 -0.076491095
0002a0 6b 86 df bc 82 1c 06 3b 21 80 89 bd f8 51 a5 3d
       -0.027285775 0.002046377 -0.06713892 0.08072275
0002b0 f1 82 f1 3c df d8 07 3d cf d3 64 3d fb ec 35 3d
       0.029481383 0.03316581 0.05586606 0.044415455
0002c0 f8 a6 87 bd 03 7c 06 bd 13 d8 01 3c 71 ed 95 bd
       -0.06623644 -0.03283311 0.007925051 -0.07320679
0002d0 a5 4d 93 bd e2 1b 18 bd 4a 54 a5 3d 3f 3c 8d 3c
       -0.07192544 -0.037135966 0.080727175 0.017240642
0002e0 ec 14 82 bd 81 d3 43 bd 2c fb 29 bc a4 31 46 bd
       -0.06351647 -0.047809128 -0.010374825 -0.048387185
0002f0 5f 47 f0 bc 5b 71 a0 3a d8 0a b0 3d 98 c4 4f 3d
       -0.029330907 0.0012240814 0.08595818 0.050724596
000300 0f 45 de 3b 64 3b 9e bd cd e9 04 3c 34 ea 40 bd
       0.006783135 -0.077261716 0.008112383 -0.047098354
000310 59 e5 41 3d 95 61 28 bb d9 ac ae bd dd b8 b2 bd
       0.047337864 -0.002569293 -0.08529062 -0.08726666
000320 bb c3 8d 3d cd 20 c0 3c 47 4d 5e bc 5c 22 22 bd
       0.06922098 0.02345314 -0.013568229 -0.03958355
000330 32 40 a8 3c 8b f3 a0 3d 30 f7 6a 3d 34 f6 b3 bd
       0.020538423 0.07858952 0.057364643 -0.08787194
000340 3f dd 1e bc 15 5c 49 bc e4 b7 9d bd 26 9f 62 3c
       -0.009696304 -0.0122900205 -0.0770109 0.013831889
000350 03 3e 23 3c ea fe 3d bc 25 1f 61 3b 17 90 a5 3c
       0.009963515 -0.011596421 0.003435084 0.020210309
000360 cb 7a 72 bd ba 9b b3 3d 5c 56 de bc b4 78 6c 3d
       -0.059199136 0.08769937 -0.027140789 0.0577323
000370 80 24 10 bd 97 47 38 3d 12 df 3d 3d 86 dc a1 bc
       -0.03519106 0.04499015 0.046355315 -0.019758474
000380 39 e5 37 3d e3 a5 de 3c ca ae 5d bd 80 23 3f 3d
       0.044896338 0.02717871 -0.05412177 0.046664715
000390 f0 a9 07 3d 26 20 46 bd c5 e2 ac 3d 0e 83 89 3d
       0.03312105 -0.048370503 0.0844169 0.0671445
0003a0 bd 28 3f 3a c1 62 56 3c d8 70 2e bd 3b 19 a5 bd
       0.0007292142 0.013085068 -0.042588085 -0.08061453
0003b0 06 68 a5 bd 6f 71 88 bd 3b 14 72 3d 64 2c 80 3d
       -0.080764815 -0.06662261 0.059101325 0.06258467
0003c0 29 0d 9a bd 86 e2 80 3d b9 f7 ac 3d f2 f8 59 bd
       -0.07522041 0.06293206 0.08445687 -0.05321593
0003d0 09 80 8d bd 11 9d 28 3d 10 1f 5e bd dd d9 79 3d
       -0.069091864 0.041165415 -0.054228842 0.060998786
0003e0 46 07 c1 3b 50 e9 46 bd b2 63 b2 bb 0b 11 73 3c
       0.0058907596 -0.048562348 -0.0054440135 0.014835606
0003f0 eb 04 3b bc a1 c1 0c bc e1 c8 36 bd 0c 46 63 3d
       -0.011414747 -0.008591087 -0.044625167 0.055486724

layer2.bias f4 [128]
000000 6a 0a a7 3c b6 bf 42 3d 78 f2 e8 3b cf 42 aa 3d
       0.020390708 0.04754611 0.0071089827 0.08313524
000010 94 dd 57 3d 2b 21 ce bc 78 a5 3e 3d 34 c9 9a bd
       0.052701548 -0.0251623 0.046544522 -0.07557908
000020 81 44 13 3d 69 79 40 3c ba 5e 95 bd 2c 6c b4 3c
       0.035954002 0.011747696 -0.07293458 0.022024237
000030 f5 9c 24 bd 3a d1 26 3c 36 ce 2c bd 00 97 90 3d
       -0.04018875 0.010181719 -0.042188846 0.07060051
000040 69 8c 79 3d f4 70 69 3b 9f 99 ab bd 37 22 07 bd
       0.06092492 0.0035620304 -0.0837891 -0.032991614
000050 f5 36 9b bd 03 1d e8 bb 92 61 c8 3c a6 5f fa 3c
       -0.075788416 -0.0070835366 0.024460588 0.030563187
000060 b9 05 a1 bd f8 c5 26 3d c6 b9 34 3c cd 34 0d 3d
       -0.0786242 0.04071614 0.01103062 0.034474183
000070 c5 94 50 bc 92 1f 89 3d 7c cd 9a 3d 8c 4d a7 3d
       -0.012730782 0.06695475 0.07558724 0.08169088
000080 27 31 7f bd 6a 52 52 3d 35 70 03 bb e7 f8 94 bd
       -0.062302735 0.051348127 -0.0020055894 -0.07274037
000090 c0 25 1e 3c b1 c7 46 bd 44 6b c9 3c c2 a0 3f bd
       0.009652555 -0.048530284 0.024587281 -0.04678417
0000a0 cf 4f 79 bd 9d 6f 90 bd d8 9b ad bd 84 f3 c5 bc
       -0.060867127 -0.070525385 -0.084769905 -0.024163969
0000b0 f6 5f b6 3b ae 21 83 bd 38 28 65 bd 7b d9 69 3d
       0.0055656387 -0.06402908 -0.05594656 0.05709217
0000c0 c6 34 b2 bd 18 26 74 bd 2f a6 4e 3d 53 6d 6c 3d
       -0.08701472 -0.05960664 0.050451454 0.057721447
0000d0 f6 28 4b bd e7 d2 51 bd f0 de c6 3c 6b 47 13 3c
       -0.04959961 -0.051226523 0.024276227 0.008989195
0000e0 f6 b5 82 3d f8 4c 99 bd 88 1b 7b 3d bb 1e c7 3c
       0.063823625 -0.07485384 0.061305553 0.024306646
0000f0 bf 98 a6 bd 3b 95 14 3d 91 ff b3 bd c9 a8 ab 3d
       -0.08134603 0.03627513 -0.0878898 0.083818026
000100 62 6d 3d 3c 46 9f 98 bb d3 97 10 bd 6d 8d 0c 3d
       0.011561723 -0.0046576587 -0.03530104 0.03431456
000110 fd a1 64 bd 1b ec 57 3d 16 c3 95 3c 30 58 86 3d
       -0.055818547 0.052715402 0.0182815 0.06559789
000120 cd f4 74 bd 5f 78 9c 3d 04 79 f2 3c 92 ce 38 bc
       -0.059803773 0.076401465 0.02959872 -0.011279719
000130 01 8a af 3c 02 89 ab 3d cf 5c 04 3d 6a 15 17 bc
       0.02142811 0.083757415 0.03231507 -0.009221414
000140 6c e8 58 bd 3a f7 9c bd 85 55 60 bd 78 ca 6f 3d
       -0.05295603 -0.07664342 -0.054769058 0.0585427
000150 88 6f 10 3d 74 cd 30 3d e7 43 84 bd 9d 8f 97 3c
       0.035262614 0.043164685 -0.06458264 0.018501097
000160 ee 14 17 bc 0f 5f 87 bc 18 3a 26 3d 3a d2 a5 bc
       -0.009221299 -0.01652482 0.040582746 -0.020241845
000170 a5 01 8a 3d c9 1f 83 3d d9 88 24 3c 06 79 80 3d
       0.06738595 0.06402547 0.010042393 0.062730834
000180 3c ad 23 3d b1 9c 39 bb 16 fe 99 bb 4b 1e 5d 3d
       0.03996013 -0.0028322155 -0.004699479 0.053983968
000190 7d 0a 65 bc aa c2 9e 3c 3d d2 6a bd dd d9 4f 3d
       -0.013979551 0.019379932 -0.057329405 0.05074488
0001a0 99 54 b4 3d a2 d6 de bb c8 d0 01 3c 94 20 9a 3d
       0.08805198 -0.0068004886 0.0079233125 0.07525745
0001b0 c7 b5 a2 bd c5 0c 0b bc bf 9b b8 3b be e2 ad bd
       -0.079448275 -0.008486931 0.0056338008 -0.08490513
0001c0 0d e2 7f bd 99 3c 86 3d 49 55 4e bd ba 87 29 bd
       -0.06247144 0.06554527 -0.050374303 -0.041389205
0001d0 b0 a6 b3 3c 3c f1 09 bd 8d 27 66 bd 86 52 d0 3b
       0.021930069 -0.033677325 -0.056190062 0.006357494
0001e0 85 ad 1b 3d 25 ed 7d 3d 6b 07 69 3d ca f2 bc bc
       0.038007278 0.061993737 0.05689184 -0.02306499
0001f0 10 a8 32 3d 64 9b b2 bd e9 5c 34 3d 5c 55 46 3c
       0.04361731 -0.08721045 0.04403392 0.012105312

layer3.weight f4 [4, 128]
000000 88 80 32 3d ee 07 99 3d 22 40 e2 3c ad 8d 96 3d
       0.04357961 0.074722156 0.027618472 0.07351241
000010 ad ac 42 bd 0e ad d4 bc 8b be a0 3d 2d db 9d 3d
       -0.047527958 -0.025961425 0.07848843 0.0770782
000020 80 b4 a5 3d 81 d9 06 bd 1b 93 27 3c 68 27 29 3d
       0.08091068 -0.03292227 0.010227944 0.041297346
000030 4d f0 66 3d c2 f9 6d 3d 0b c5 21 bd 1f 23 16 bd
       0.056381512 0.058099516 -0.039494555 -0.036654588
000040 e7 15 6f 3d 75 1b 96 3d 72 c5 9e bc e7 43 a0 3d
       0.058370497 0.07329456 -0.019381259 0.07825451
000050 1e 6b 4c 3d ce c6 5b bc c5 66 60 3c c9 4e a2 bd
       0.049906842 -0.013414098 0.013696377 -0.07925183
000060 ae 90 5d bd 8e 3d 00 b9 b0 05 9a 3c 9c 5c 70 3d
       -0.054093055 -0.00012229962 0.01880154 0.05868207
000070 2b 27 a3 3d f7 7d 0d bd 47 6c 56 bd e7 5d b7 3b
       0.07966455 -0.034543958 -0.052349355 0.005595911
000080 b3 b7 23 3d 5a b5 17 3c b3 43 a1 3c de 2f 58 bd
       0.03997011 0.009259546 0.019685602 -0.052780025
000090 81 fa 0f 3d 8c a8 37 bd 2f db 56 3d b8 de 86 3d
       0.03515101 -0.044838473 0.052455124 0.06585449
0000a0 41 ea 63 bc 02 d7 19 bd 2e de 5c bd e3 11 e1 ba
       -0.013910831 -0.037558563 -0.053922825 -0.0017171468
0000b0 09 ef 37 3d c8 f5 3e 3c d5 07 1c bd e6 c2 54 bd
       0.044905696 0.0116552785 -0.038093407 -0.051943682
0000c0 b4 57 9d bd 19 26 87 bd a5 1c 81 bb 80 00 99 bc
       -0.07682744 -0.065990634 -0.0039401823 -0.018676996
0000d0 0e d5 47 bd a0 d6 85 3d 64 e3 39 bd 57 85 9e 3d
       -0.04878717 0.06535077 -0.045382872 0.07740276
0000e0 cb 05 82 3c c2 f0 a2 3b e0 a9 69 3b 33 d0 fc 3c
       0.015871903 0.004972548 0.0035654232 0.030860996
0000f0 49 99 20 3d d7 37 13 3d cd 7c 16 3d 65 62 a2 3d
       0.039208684 0.035941925 0.036740113 0.079289235
000100 3f 48 a0 bd 90 6c f8 3b 33 7e ab 3d 0c f1 8e bd
       -0.0782628 0.007581301 0.0837368 -0.0697957
000110 70 22 3b bd 15 9e a3 3d 7d 31 39 bd 3d 7e 8a bd
       -0.04568714 0.07989136 -0.04521321 -0.06762359
000120 27 04 8b bd bc 09 bb bc c5 8c 3b 3d 2c 26 ad bd
       -0.06787901 -0.02283179 0.045788545 -0.08454546
000130 e2 bf fa 3c 2b f6 aa bd fb 7d 8a bc 4b ed 04 3c
       0.030609075 -0.08347734 -0.016905775 0.008113216
000140 92 15 d6 bc a6 3b 59 3c 16 72 8d 3d 89 58 3f bd
       -0.026133332 0.01325885 0.06906526 -0.046715293
000150 89 21 bf 3c be 45 c5 bc 54 71 54 3d 65 a7 07 bd
       0.02333142 -0.024081107 0.05186589 -0.033118624
000160 68 5f a6 bd 7f 58 9c bc 19 cc 33 3d 32 d5 13 3c
       -0.08123666 -0.019085167 0.043895815 0.009022998
000170 d3 51 9e bd 9f 37 82 3d b2 35 ec bc a0 fd 8c 3d
       -0.077304505 0.06358265 -0.028834198 0.06884313
000180 7c 32 43 3d aa a3 f6 3c d4 31 ec 3c 83 ef 97 bc
       0.047655568 0.030107338 0.028832354 -0.018546825
000190 b3 15 0b 3c f0 66 86 bd 63 d3 96 3b 17 af ae bd
       0.00848906 -0.065626025 0.004602836 -0.085294895
0001a0 27 9e 9d 3d 7f c7 98 bd d0 cc 21 bd 12 df 39 bd
       0.07696181 -0.07459926 -0.039501965 -0.045378752
0001b0 1e fa 89 bd cd 37 b4 3b ee 51 45 3d 79 d8 8d bc
       -0.06737159 0.005499816 0.048173837 -0.017315136
0001c0 6c da af 3d 9e be c4 bc 0f 96 81 bd 25 3f 50 3d
       0.085865825 -0.024016675 -0.063274495 0.05084147
0001d0 86 17 ab bd d4 6e c8 bc e8 41 ac bd cc d3 95 3d
       -0.08354096 -0.02446691 -0.08411008 0.07315788
0001e0 f0 19 ac 3d 6e ae e8 bc d9 74 fd bc 03 97 a1 3d
       0.08403385 -0.028403487 -0.030939506 0.07890131
0001f0 fb 50 3e 3c 92 22 ee bc 5b c3 be bb 53 d0 b2 bd
       0.011615987 -0.029069219 -0.005821628 -0.08731141
000200 44 3c f7 3c 30 87 27 3d 6d c6 8c 3d ff 75 42 3c
       0.030180104 0.04090041 0.06873784 0.011868953
000210 19 86 90 3d 5c 12 a9 3b a8 85 2e bd d3 15 97 bd
       0.07056827 0.0051596593 -0.042607933 -0.073772095
000220 47 64 78 3d a5 f2 3e bc c3 68 4c 3d 01 45 08 bd
       0.060642507 -0.011654531 0.049904596 -0.033268932
000230 96 4e 46 bd d2 e9 c8 3c eb 1b dd 3c 36 b6 aa bd
       -0.04841479 0.024525557 0.026990851 -0.08335535
000240 54 e5 90 3d 50 52 54 bd 35 fe 39 3d f4 40 4a 3d
       0.07074991 -0.05183631 0.045408446 0.04937835
000250 af 28 47 3d bd 3f a6 bc 29 51 5b 3c 78 8b 71 3d
       0.048622783 -0.020294065 0.013386049 0.0589709
000260 26 a0 b0 bd 8c 9c b1 3d 7a 0d 83 3c 87 21 14 3d
       -0.08624296 0.08672437 0.015997637 0.036164787
000270 ea 11 a1 3d 14 62 09 3b ed a0 9c 3d df b3 b9 3c
       0.07864745 0.0020963 0.07647882 0.022668777
000280 2d 85 14 bc 32 f8 37 bd e1 bb dd 3b b8 a7 bd 3b
       -0.009064955 -0.044914432 0.0067667817 0.005787816
000290 17 cb 53 bd d1 28 82 bb d6 95 62 3d a7 a7 df 3c
       -0.051707353 -0.003972151 0.055318676 0.027301623
0002a0 2b 2b d4 bc 89 5f 53 3d 88 20 36 bd 84 c4 93 3d
       -0.02589949 0.05160478 -0.044464618 0.07215217
0002b0 18 fc dd 3c d6 ab ad bd f9 44 82 bd b3 d0 ae 3b
       0.027097747 -0.08480041 -0.06360812 0.0053349375
0002c0 9d 96 b5 39 0e ce 93 bc c4 78 12 bd 6b c7 c7 bc
       0.00034635226 -0.01804259 -0.035759702 -0.024387082
0002d0 f4 a5 9b 3c 36 10 80 bc d3 7e f2 3c 27 4d 63 3d
       0.019000031 -0.01563273 0.02960149 0.0554935
0002e0 4b 84 86 bd 9a 37 88 bd f3 39 d9 3c 59 ae eb bc
       -0.06568202 -0.0665123 0.02651689 -0.028769659
0002f0 36 b3 6f 3c 73 7b a3 3d ce f9 f9 3c ef 85 af 3d
       0.01463013 0.079825304 0.030514624 0.08570468
000300 00 41 81 3d d5 55 cd bc eb ba 39 bb a2 82 a6 3d
       0.06311226 -0.025065342 -0.0028340172 0.08130385
000310 b6 17 97 3d 80 bb cd bc c8 43 05 bc 72 27 2c 3d
       0.073775694 -0.025113821 -0.008133836 0.042029805
000320 8c 72 f9 3b 21 6b 52 bc 29 12 38 3d fe 9e 43 3d
       0.007612532 -0.012842924 0.044939194 0.04775905
000330 b0 cc 61 bd 5a bb a9 3d 70 4f b4 3d 06 4e 68 bd
       -0.055126846 0.082876876 0.08804214 -0.056715034
000340 c3 64 35 3d e5 70 4c bd 57 23 f7 3c ee 36 93 3d
       0.044285547 -0.049912352 0.030168219 0.071882114
000350 f2 bb b1 bd da 53 1f 3d 1d 17 b2 bd b4 94 4c 3c
       -0.08678426 0.038898326 -0.08695815 0.012486625
000360 ce 16 37 3d 79 19 a8 3d 95 91 49 bd 50 2f 4e 3c
       0.044699483 0.082079835 -0.049211103 0.012584522
000370 1d 4c 28 bd fc 4d 17 bd 43 24 a4 3d 4a eb 87 3d
       -0.041088212 -0.036939606 0.08014729 0.06636675
000380 b8 da b0 3c 03 69 7d 3d 3c 22 68 3d f0 3f 61 3c
       0.021588668 0.061867725 0.056673273 0.013748154
000390 ff 17 57 3b f6 82 91 bc b8 a1 97 bd 88 ea fe 3c
       0.00328207 -0.017762642 -0.07403892 0.031117693
0003a0 75 aa 50 3d d2 68 7e 3c 89 72 36 3d 55 fa 36 3c
       0.05094381 0.015527921 0.044542823 0.011168082
0003b0 ce 71 30 3d c3 ed c6 3c 61 02 9f 3d 39 b3 04 bd
       0.043077283 0.024283295 0.077641256 -0.032397483
0003c0 e3 c7 38 bd 8c 95 27 3d a8 b9 42 3d c4 d2 b4 bd
       -0.0451125 0.040914103 0.047540337 -0.08829263
0003d0 e4 19 54 bc 6f 42 8e 3d 9b d7 6f 3d e0 ac 31 bd
       -0.012945626 0.06946265 0.058555227 -0.043377757
0003e0 70 b0 02 bd ce 9b db bc 3a 53 3e bd de 63 a6 3c
       -0.031906545 -0.026807692 -0.04646609 0.020311292
0003f0 3b 3d 26 3d a4 74 99 bb bc 7e 92 bd 1b 53 ca 3c
       0.040585738 -0.004683094 -0.07153079 0.02469783

layer3.bias f4 [4]
000000 b8 b4 1a bd d7 5d 23 3d 10 d3 aa bd 15 c7 c0 3c
       -0.037770003 0.039884415 -0.08341038 0.02353243

layer1.weight f4 [128, 16]
000000 a0 ca 7e bc 62 47 23 3e 36 46 05 be 40 a8 eb bb
       -0.015551239 0.15945199 -0.13015065 -0.007191688
000010 f0 ce 7e bd 72 c4 41 be 26 53 79 3e f4 b4 b1 3d
       -0.06220907 -0.18922594 0.24348125 0.08677092
000020 d8 13 7a be 1e 8e 36 3e f2 04 7d 3e 52 95 79 3e
       -0.24421632 0.17827651 0.24708918 0.24373367
000030 48 09 ba bd 4c cc d4 bd 80 01 d1 3b 0a d6 05 be
       -0.090838015 -0.10390529 0.0063783526 -0.1306993
000040 40 64 96 3d 90 72 40 3e 40 2d 69 3c 22 e3 7d be
       0.0734334 0.18793702 0.01423198 -0.24793676
000050 60 75 3a 3d 00 f2 03 bb 58 d4 22 3d 2e a0 39 3e
       0.045522094 -0.0020133257 0.039753288 0.1812751
000060 68 eb 6d be 40 e3 a4 3d 28 81 31 3e ee a9 24 3e
       -0.23234332 0.08051157 0.17334425 0.16080448
000070 a4 5a 8a bd 7a 54 01 be e0 36 ed bc a4 66 3a 3e
       -0.067555696 -0.12629882 -0.02895683 0.18203217
000080 48 c3 9e bd bc 06 20 3e 6c cf 2b 3e b8 ec 7b 3e
       -0.07752091 0.15627569 0.16778344 0.2460202
000090 54 13 92 bd 80 19 b3 3d 00 00 a8 ba 96 7b 22 be
       -0.07132593 0.08745098 -0.0012817383 -0.15867457
0000a0 38 75 41 be 62 5a 37 3e a4 bf 71 3e dc 88 3c be
       -0.18892372 0.17905572 0.23608261 -0.18411583
0000b0 94 27 47 be 00 19 ec 3b 2c 32 cd 3d 00 5a c0 ba
       -0.19448692 0.0072051287 0.10019335 -0.001467526
0000c0 54 16 52 be 30 d8 f3 bd 0c a0 c9 bd 40 51 7e 3c
       -0.2051633 -0.11906469 -0.0984498 0.015522301
0000d0 80 e5 ea bc 7a ee 11 be 90 d6 18 3e 50 ea 5e be
       -0.028673887 -0.14251128 0.14925599 -0.2176907
0000e0 e0 bf 20 bd 7a c3 0b 3e 48 36 d7 bd 26 a2 5e 3e
       -0.039245486 0.13648787 -0.105084 0.21741542
0000f0 14 ca b1 3d a4 2f 22 3e 46 20 69 be a0 b6 26 be
       0.086811215 0.15838486 -0.22766218 -0.16280603
000100 48 ac f9 bd 28 5b 38 bd 08 11 15 3d 44 0d d5 bd
       -0.12191063 -0.04500881 0.036393195 -0.10402921
000110 68 8b 4f bd 04 55 87 3d cc 58 aa 3d c0 cc ca bb
       -0.050670058 0.06608012 0.08317718 -0.006188959
000120 40 67 f3 3d e4 82 bd 3d a0 82 4a bd bc 32 8c 3d
       0.11884928 0.09253481 -0.04944098 0.06845614
000130 9c 66 99 bd 2c 5b 80 bd a4 f5 7f be a0 05 35 bd
       -0.07490274 -0.0626739 -0.24996048 -0.044194818
000140 08 d0 7a 3d 30 99 ff 3d a8 b2 ec bd 18 fd 82 bd
       0.06123355 0.1248039 -0.115575135 -0.0639593
000150 be 6d 1b 3e c4 1f 7f 3e 78 9b 2d 3e 24 0d 01 3e
       0.15178582 0.24914461 0.16953838 0.12602669
000160 42 a8 46 3e e0 4c f1 bc f0 de 5e bd 46 01 79 3e
       0.19400123 -0.029455602 -0.05441183 0.24316892
000170 06 47 07 3e 1c c6 df 3d 48 a0 61 3e 70 87 a6 bd
       0.13210687 0.10926458 0.22033799 -0.081313014
000180 b0 7e f6 bc ba 0d 0c be d0 00 02 3e 86 fb 64 be
       -0.030089706 -0.13677111 0.12695622 -0.22361574
000190 d8 72 30 bd b0 95 59 3e 0c 0f e2 3d fa 84 0f be
       -0.043078274 0.21248507 0.11038026 -0.1401557
0001a0 e0 a1 80 3d 18 d5 5b bd ac e7 e0 3d 48 cd 7b 3e
       0.06280875 -0.05367002 0.10981688 0.24590027
0001b0 12 39 48 3e f0 ec d9 3d 94 9f a2 bd e8 86 73 be
       0.1955302 0.10640895 -0.07940593 -0.23781931
0001c0 74 f7 f5 3d 8c 1b ef bd 70 c3 21 be 08 31 b5 3d
       0.120100886 -0.11675176 -0.1579721 0.088472426
0001d0 c0 4d 70 3c 5a 7a 4e be 28 6e e8 3d 7c 4e df bd
       0.014666975 -0.20163861 0.11349136 -0.109036416
0001e0 3c 21 83 3d 28 61 f8 bd ea 57 0f be 78 6b b0 bd
       0.06402823 -0.12127906 -0.1399838 -0.08614248
0001f0 00 0c 71 3b b4 59 2f 3e a0 16 02 3c d0 04 ed bc
       0.0036780834 0.17124063 0.0079399645 -0.028932959
000200 7c 22 c7 3d 84 28 f4 3d 5c 04 9b 3d 10 0d 98 3d
       0.09723374 0.1192179 0.07569191 0.074243665
000210 32 b2 02 be d8 b3 b1 3d d4 ae 17 3e 80 5c 77 bd
       -0.12763289 0.086768806 0.14812785 -0.06039095
000220 f2 96 7a 3e a0 0a a6 3d 5a 88 6d be 8a a2 69 be
       0.24471644 0.08107495 -0.23196545 -0.2281591
000230 50 0d e9 3d e0 96 5c 3c 48 7b 63 3e 88 fe 7f bd
       0.11379492 0.013463706 0.22214997 -0.0624986
000240 00 91 5d bc be ed 0b be 40 fa 4c be 80 9c fd bd
       -0.01352334 -0.1366491 -0.20017338 -0.12383366
000250 28 0d 11 bd d8 ef 8a 3d 4e 44 24 be d4 5a ea bd
       -0.035412937 0.06784028 -0.16041681 -0.11443105
000260 e2 17 28 be cc 8b a0 bd b0 56 07 bd 4e 20 57 be
       -0.1641536 -0.07839164 -0.033041656 -0.21008417
000270 ac d0 d5 3d aa ab 04 be 8e 0a 03 be 6e 14 3c 3e
       0.104401916 -0.1295611 -0.12796995 0.18367168
000280 00 2c 50 3a 1c d6 ab 3d ba 84 5b be ac 87 d8 3d
       0.0007941127 0.083904475 -0.2143735 0.10572752
000290 90 04 cb bd 8e ad 3a 3e ec 42 2a 3e ba 57 77 3e
       -0.099129796 0.18230268 0.16627091 0.24154559
0002a0 e8 29 75 3e 78 f9 0e be d0 62 02 3d 60 fe 95 3d
       0.23941767 -0.13962352 0.031832516 0.07323909
0002b0 1c 87 06 3e 58 5c c5 bd 94 40 05 3e 00 8c 92 3c
       0.13137478 -0.09636754 0.13012916 0.017889023
0002c0 5a c8 67 3e 80 c3 b5 bb 9c a7 5b be d0 a1 87 3c
       0.22635022 -0.005546987 -0.21450657 0.01655665
0002d0 ec 06 5e be 02 f0 76 3e 94 cd 6f be 04 dc 4f be
       -0.21682328 0.24114993 -0.23418266 -0.20298773
0002e0 4a 8d 30 3e e8 27 dc bd 4c 55 88 3d 70 ba c9 bc
       0.17241398 -0.10749799 0.06656894 -0.024625033
0002f0 98 78 25 3d d6 77 2f 3e 44 87 cd bd 68 f2 9a 3d
       0.04039821 0.17135558 -0.100355655 0.075657666
000300 e6 2e 48 3e c8 14 56 be 44 cc 12 3e 18 e7 53 bd
       0.1954914 -0.20906365 0.14335734 -0.05173406
000310 0c 97 9e 3d 3c 4d 5b 3e f0 ee d6 3c 30 71 b0 bc
       0.07743654 0.21416181 0.026236981 -0.021538347
000320 06 15 6f 3e f8 25 07 3d 90 ca 09 3e 50 aa 9d bc
       0.23347864 0.032995194 0.13456178 -0.01924625
000330 e2 b1 75 be c0 ee 58 be dc 1c bf bd 2c a3 87 3d
       -0.23993638 -0.21184826 -0.09331676 0.066229194
000340 00 a0 ce bd 80 3a 88 bc ea 34 7f be 38 e1 57 3e
       -0.10089111 -0.016629457 -0.24922529 0.21082008
000350 b4 eb 82 bd bc 68 77 be 30 23 5a 3e c8 24 2e bd
       -0.06392613 -0.24161047 0.21302485 -0.042515546
000360 58 d5 e2 bd 90 bf fe 3c 28 67 25 bd b4 1f f1 bd
       -0.11075848 0.031097203 -0.04038158 -0.11773625
000370 3a 34 41 3e 60 cf 54 be a2 22 0d be c0 31 0a 3e
       0.18867579 -0.20782232 -0.13782743 0.1349554
000380 f6 f1 4d be 04 24 4d 3e c8 a5 98 3d d6 ba 1f 3e
       -0.20111832 0.2003327 0.07453495 0.15598616
000390 42 48 79 3e 30 f5 2d be d4 7e 3b be 70 9e be bc
       0.2434397 -0.16988063 -0.183101 -0.023268908
0003a0 b0 80 07 be de 33 6e 3e 78 43 4b bd f8 32 81 bd
       -0.13232684 0.23261973 -0.04962489 -0.0630855
0003b0 00 7d d0 3d 60 6f c1 3c 4c 64 e0 3d 66 49 2f be
       0.10180092 0.023612678 0.1095663 -0.17117843
0003c0 70 32 d7 bd 24 d5 10 be 0a 12 5f be bc 24 61 3e
       -0.10507667 -0.14143807 -0.21784225 0.2198667
0003d0 78 8e 3a be 54 65 8e 3d 5c a3 a5 bd 74 8c c1 3d
       -0.1821841 0.069529206 -0.08087799 0.094506174
0003e0 e0 b5 31 be ba 9e 37 3e 28 2f a1 bd da f2 02 be
       -0.17354536 0.17931643 -0.078703225 -0.12787953
0003f0 68 5c 1b 3d 70 51 7a 3e 6c 93 ce bd 7e 75 22 3e
       0.037929922 0.24445128 -0.10086712 0.15865132

layer1.bias f4 [128]
000000 56 32 59 be d0 f8 cd bd f8 15 24 3d 10 78 ea bd
       -0.21210608 -0.10057223 0.040060014 -0.11448681
000010 b8 65 6f be ac 7e 33 be 54 08 3f be 76 8f 5e 3e
       -0.23378646 -0.1752879 -0.1865552 0.21734414
000020 98 64 26 be 30 31 98 3c d0 e2 38 bd a4 89 84 3d
       -0.16249311 0.018578142 -0.04513818 0.06471565
000030 80 72 44 3e 18 d6 6f be 60 d1 f8 bd 20 86 91 bc
       0.19184303 -0.23421514 -0.1214931 -0.017764151
000040 4c d8 6c 3e 04 c7 ed bd a4 49 07 3e 44 b0 10 3e
       0.23129386 -0.11610225 0.13211685 0.1412974
000050 1c 34 85 3d 90 e1 1d be 48 f7 4c 3e a4 59 69 3e
       0.0650408 -0.15418077 0.20016205 0.22788101
000060 d0 e7 f8 bc e8 8a 2a 3d d8 4e 46 be 16 33 59 be
       -0.030383974 0.041636378 -0.19366014 -0.21210894
000070 d6 e7 0a 3e 16 d4 0b 3e 38 17 e5 3d 60 8c 01 3e
       0.13565001 0.13655123 0.11186069 0.12651205
000080 24 4a 27 be 9c 67 ee 3d 40 e1 7f be 82 fc 46 be
       -0.16336876 0.11640856 -0.2498827 -0.19432262
000090 a8 4f c5 3d f8 d2 89 3d d0 25 9f 3c f0 19 26 bd
       0.09634334 0.06729692 0.01942721 -0.04055208
0000a0 a0 b2 64 3c b6 1a 56 3e ca 0a 44 be 68 db 76 3d
       0.013958603 0.20908627 -0.1914474 0.060267836
0000b0 1e 20 12 3e b8 af 80 bd 24 bf 18 3e ac 52 17 3e
       0.14270064 -0.06283516 0.14916664 0.1477763
0000c0 90 16 e3 3d 1c db b6 bd a0 f3 48 3d 94 ea fc bd
       0.11088288 -0.089285105 0.049060464 -0.1234943
0000d0 9c f5 49 be b0 9f 12 3d 68 b7 8e 3d d8 76 67 3e
       -0.19722599 0.03579682 0.06968576 0.22603929
0000e0 68 ea 6f 3e 30 e9 53 3d f4 fd 1a be 9a 97 42 3e
       0.23429263 0.051736057 -0.15135938 0.19003144
0000f0 be 35 7c 3e 80 93 0c bd 20 10 06 be 30 22 5e 3d
       0.24629876 -0.034320354 -0.13092089 0.054231822
000100 00 f4 ed 3b d0 8d e6 3d e8 e2 63 3d f0 37 9f 3d
       0.007261753 0.11257517 0.055636317 0.07774341
000110 88 9b ea bd c8 06 31 be 0a a9 67 be f0 1a 24 be
       -0.114554465 -0.17287743 -0.22623077 -0.16025901
000120 b4 d6 13 3e 58 15 c6 3d d0 17 f2 bc 40 37 83 3c
       0.14437371 0.0967204 -0.02955237 0.016017556
000130 68 4b 89 3d 80 8b 57 3e 0a bc 3a be d4 9c 1d 3e
       0.06703836 0.21049309 -0.18235794 0.15391856
000140 06 0c 13 be ee 5f 67 be 5c 6c c3 bd 0a a1 04 be
       -0.14360055 -0.22595188 -0.09542152 -0.12952057
000150 c0 08 16 bd 84 fd 8f bd 94 cc 5d 3e 1c 2c 82 bd
       -0.03662944 -0.07030776 0.21660072 -0.063560694
000160 e8 52 05 3d ec 44 0d 3e bc 39 8e 3d 0c 56 94 bd
       0.03254977 0.13795823 0.06944606 -0.07242975
000170 b4 95 07 3e e0 86 0e bd a6 39 50 3e ec f6 d5 bd
       0.13240701 -0.034796596 0.20334491 -0.10447487
000180 a8 96 01 3e 10 6d 4d be a8 f4 cd 3d f4 c0 43 3e
       0.12655127 -0.20061135 0.1005643 0.19116575
000190 18 2c d9 3d a0 3c 1a bd 24 14 67 3e a4 29 c4 bd
       0.10604113 -0.037655473 0.22566277 -0.09578255
0001a0 04 3e bf 3d 40 9d 06 bc e8 94 70 3e 30 09 82 bc
       0.093380004 -0.008216202 0.23494303 -0.015873522
0001b0 3c e0 46 3e f0 5e 3c bd 36 14 54 be 30 87 6e bd
       0.19421476 -0.045988977 -0.20710835 -0.058234394
0001c0 e0 5a 02 bd a2 69 59 3e 86 64 2f be 0e ac 7e be
       -0.031824946 0.21231702 -0.1712819 -0.24870321
0001d0 00 24 06 3b f8 8e 41 bd 2c 3a c9 3d 9e 6d 55 3e
       0.0020468235 -0.047255486 0.098255485 0.20842597
0001e0 08 31 0e 3e c0 2d 13 bc b0 04 bc bc 68 86 85 3d
       0.13885891 -0.008983076 -0.022951454 0.065197766
0001f0 2c 80 16 be 98 63 ab 3d 78 ea 75 3e 60 2d cd 3c
       -0.14697331 0.083686054 0.24015224 0.02504605

layer2.weight f4 [128, 128]
000000 57 59 a8 3d a4 7e b0 bc 1f 9d 61 bd 68 08 8a 3d
       0.08220165 -0.021544762 -0.055081483 0.067398846
000010 fd b3 c4 3c b4 7b 82 bc 5c 3f 8e bd 95 e2 44 3d
       0.024011606 -0.015928127 -0.069456786 0.048067648
000020 1c 9a 23 3c b6 ea 83 3a fc e1 68 bd 69 38 64 bd
       0.009985473 0.0010064456 -0.05685614 -0.05571786
000030 7c 1f 8f 3d 3a 58 ae ba a3 0d 2c bc 76 59 a4 bd
       0.06988427 -0.001330144 -0.010501298 -0.08024876
000040 74 13 ad bd 7f 37 ff bc 15 de 96 bb 25 07 e6 bb
       -0.08450976 -0.031154392 -0.004604111 -0.0070198947
000050 5f 86 42 3d b6 b8 ce 3c 31 4c 48 3d ec 52 2e 3b
       0.047491428 0.025234561 0.048900787 0.0026599718
000060 e7 4e 25 bd 9f 96 01 3c af 6c b3 3c 6e 71 27 bc
       -0.04035845 0.007909446 0.02190241 -0.010219915
000070 5d 1e 30 3c 52 e4 67 bd 41 32 34 3d 6d 5c 19 bd
       0.010749427 -0.056614228 0.04399324 -0.03744166
000080 eb a7 76 3d 92 6e f9 39 e5 2d 2d bd 47 78 da 3c
       0.060218733 0.00047575362 -0.042280097 0.02666868
000090 0f e1 5f bd d4 58 ec bb 11 12 54 bd b8 11 a7 bd
       -0.054657992 -0.0072127376 -0.051775042 -0.081576765
0000a0 b5 bb d8 bc 08 7e 1e bd 24 1d 1f bd 9d 40 19 bd
       -0.026456693 -0.03869441 -0.03884615 -0.037415136
0000b0 12 06 86 3d 8d 06 76 bd 65 2a 8e 3d af 9a 1f bd
       0.065441266 -0.06006484 0.0694168 -0.038965877
0000c0 d0 42 95 3b 60 ca 07 3d 38 29 51 3d 67 bc fc 3c
       0.004555084 0.033151984 0.0510647 0.030851556
0000d0 61 61 93 3d f2 78 91 bd 7e b8 de 3a 36 d8 6d bd
       0.07196308 -0.071031466 0.0016992239 -0.058067523
0000e0 e7 7d 0a bd 31 84 bc 3c 09 a7 3f bd 4b 11 c3 3a
       -0.033811476 0.023012253 -0.046790157 0.0014882473
0000f0 ae 51 b3 bc 89 3d a0 3d 04 96 33 3d 7b 9c e1 b9
       -0.021889534 0.07824237 0.043844238 -0.0004303193
000100 51 bf 9d 3d 33 3e fd 3c d6 b4 60 bd 92 a3 81 bd
       0.07702506 0.030913448 -0.05485996 -0.06330027
000110 09 44 74 3d c0 44 0c 3d c4 3d 54 3d b0 f7 80 3d
       0.059635196 0.034245253 0.051816717 0.06297243
000120 f9 92 93 bd 88 cd ab 3c a4 59 8f 3d 2d 47 a5 bd
       -0.07205767 0.020972028 0.069995195 -0.08070216
000130 fd 9c 07 3d c6 5e 99 bd e0 b8 11 3d af 46 16 3d
       0.0331087 -0.0748878 0.0355767 0.036688503
000140 a6 dc 07 3d 49 24 a5 bd 2f a1 b8 bc db 90 9a bd
       0.03316941 -0.080635615 -0.022537796 -0.0754716
000150 c4 cb 55 3d 5a 50 21 3d cb 74 5b 3d bc 1a 62 bd
       0.05219628 0.03938327 0.05357818 -0.055201277
000160 c5 f2 46 3d a0 96 a6 3d dd 6c c3 3b 81 26 fa bb
       0.048571367 0.08134198 0.0059639052 -0.0076339846
000170 a5 da 87 3d 22 1c 43 bd 38 e1 9f bc 15 14 64 3d
       0.066335 -0.04763425 -0.019516572 0.055683214
000180 ca 56 15 bb a4 80 b2 3c 78 c1 6a 3d e5 8e 5e bd
       -0.0022787326 0.021789856 0.057313412 -0.054335494
000190 7e c0 2c bd 43 ce 40 bd fb 4f dd bc 55 89 7f bd
       -0.042175762 -0.047071707 -0.027015677 -0.06238683
0001a0 b1 e7 2e bd 08 1e 93 3c 9d 33 3c 3d 0c 6b 1c bd
       -0.042701427 0.017958656 0.04594766 -0.038188025
0001b0 d2 88 a5 bb 5a 1b 94 bd 41 5c 35 bd bd 88 00 3d
       -0.0050517106 -0.072317794 -0.044277433 0.031380404
0001c0 bc 8e 0d 3c 11 a6 4f bd b6 65 c6 bb ce b7 e7 3b
       0.008639988 -0.050695483 -0.0060546054 0.007071472
0001d0 20 3f 32 3d 21 ed a3 bc 73 0b 56 bd 72 d8 8d 3d
       0.043517232 -0.020010533 -0.052257013 0.06926049
0001e0 a7 a0 29 3d 1c 55 7c bd bb a0 84 3d 04 58 d6 bb
       0.041412976 -0.061604604 0.064759694 -0.006541254
0001f0 cb e0 35 bd 4c 47 48 3d 52 60 5f bd 7f 73 ba bc
       -0.044403832 0.04889612 -0.054535218 -0.022760151
000200 1c a4 a9 bb 44 d8 a4 bd 48 98 37 bd 3e 59 0c bc
       -0.005177034 -0.08049062 -0.04482296 -0.008566199
000210 c1 7d 11 bd 93 27 70 bd 27 bd 02 bd 2c 12 ea bc
       -0.03552032 -0.05863149 -0.03191867 -0.028573118
000220 fb e2 c2 bc 91 f3 00 3d 08 57 a9 bd 06 68 b7 bc
       -0.023789873 0.031482283 -0.08268553 -0.02238847
000230 eb 3a 7f 3c 85 a3 0d 3d f9 94 47 3c 0b c7 fa 3c
       0.015578012 0.034579773 0.012181514 0.03061249
000240 87 88 a5 bd 7a fc fd bc 27 21 85 3d 62 44 47 bd
       -0.08082681 -0.03100418 0.06500464 -0.0486492
000250 13 5f 43 39 1c 5c 16 3c d9 23 ac 3d 3a 28 91 bd
       0.00018632067 0.009177234 0.08405275 -0.07087751
000260 d9 93 96 bd 8f 95 8e 3b b6 b7 7f 3d 43 a1 c2 3c
       -0.073524185 0.004351325 0.06243106 0.023758536
000270 f2 5b 89 bd 51 cf aa bd 6d 0b 7c 3d 1f e8 c3 3c
       -0.0670699 -0.08340324 0.061534334 0.023914395
000280 1b 31 8e bc 82 47 82 3c b6 30 a9 3d 22 33 aa 3d
       -0.0173574 0.015903238 0.08261244 0.08310534
000290 0f 57 8f 3d bc 5b 8e bd 2c 3c 00 3d 5d a7 9c bd
       0.06999027 -0.06951091 0.031307384 -0.076491095
0002a0 6b 86 df bc 82 1c 06 3b 21 80 89 bd f8 51 a5 3d
       -0.027285775 0.002046377 -0.06713892 0.08072275
0002b0 f1 82 f1 3c df d8 07 3d cf d3 64 3d fb ec 35 3d
       0.029481383 0.03316581 0.05586606 0.044415455
0002c0 f8 a6 87 bd 03 7c 06 bd 13 d8 01 3c 71 ed 95 bd
       -0.06623644 -0.03283311 0.007925051 -0.07320679
0002d0 a5 4d 93 bd e2 1b 18 bd 4a 54 a5 3d 3f 3c 8d 3c
       -0.07192544 -0.037135966 0.080727175 0.017240642
0002e0 ec 14 82 bd 81 d3 43 bd 2c fb 29 bc a4 31 46 bd
       -0.06351647 -0.047809128 -0.010374825 -0.048387185
0002f0 5f 47 f0 bc 5b 71 a0 3a d8 0a b0 3d 98 c4 4f 3d
       -0.029330907 0.0012240814 0.08595818 0.050724596
000300 0f 45 de 3b 64 3b 9e bd cd e9 04 3c 34 ea 40 bd
       0.006783135 -0.077261716 0.008112383 -0.047098354
000310 59 e5 41 3d 95 61 28 bb d9 ac ae bd dd b8 b2 bd
       0.047337864 -0.002569293 -0.08529062 -0.08726666
000320 bb c3 8d 3d cd 20 c0 3c 47 4d 5e bc 5c 22 22 bd
       0.06922098 0.02345314 -0.013568229 -0.03958355
000330 32 40 a8 3c 8b f3 a0 3d 30 f7 6a 3d 34 f6 b3 bd
       0.020538423 0.07858952 0.057364643 -0.08787194
000340 3f dd 1e bc 15 5c 49 bc e4 b7 9d bd 26 9f 62 3c
       -0.009696304 -0.0122900205 -0.0770109 0.013831889
000350 03 3e 23 3c ea fe 3d bc 25 1f 61 3b 17 90 a5 3c
       0.009963515 -0.011596421 0.003435084 0.020210309
000360 cb 7a 72 bd ba 9b b3 3d 5c 56 de bc b4 78 6c 3d
       -0.059199136 0.08769937 -0.027140789 0.0577323
000370 80 24 10 bd 97 47 38 3d 12 df 3d 3d 86 dc a1 bc
       -0.03519106 0.04499015 0.046355315 -0.019758474
000380 39 e5 37 3d e3 a5 de 3c ca ae 5d bd 80 23 3f 3d
       0.044896338 0.02717871 -0.05412177 0.046664715
000390 f0 a9 07 3d 26 20 46 bd c5 e2 ac 3d 0e 83 89 3d
       0.03312105 -0.048370503 0.0844169 0.0671445
0003a0 bd 28 3f 3a c1 62 56 3c d8 70 2e bd 3b 19 a5 bd
       0.0007292142 0.013085068 -0.042588085 -0.08061453
0003b0 06 68 a5 bd 6f 71 88 bd 3b 14 72 3d 64 2c 80 3d
       -0.080764815 -0.06662261 0.059101325 0.06258467
0003c0 29 0d 9a bd 86 e2 80 3d b9 f7 ac 3d f2 f8 59 bd
       -0.07522041 0.06293206 0.08445687 -0.05321593
0003d0 09 80 8d bd 11 9d 28 3d 10 1f 5e bd dd d9 79 3d
       -0.069091864 0.041165415 -0.054228842 0.060998786
0003e0 46 07 c1 3b 50 e9 46 bd b2 63 b2 bb 0b 11 73 3c
       0.0058907596 -0.048562348 -0.0054440135 0.014835606
0003f0 eb 04 3b bc a1 c1 0c bc e1 c8 36 bd 0c 46 63 3d
       -0.011414747 -0.008591087 -0.044625167 0.055486724

layer2.bias f4 [128]
000000 6a 0a a7 3c b6 bf 42 3d 78 f2 e8 3b cf 42 aa 3d
       0.020390708 0.04754611 0.0071089827 0.08313524
000010 94 dd 57 3d 2b 21 ce bc 78 a5 3e 3d 34 c9 9a bd
       0.052701548 -0.0251623 0.046544522 -0.07557908
000020 81 44 13 3d 69 79 40 3c ba 5e 95 bd 2c 6c b4 3c
       0.035954002 0.011747696 -0.07293458 0.022024237
000030 f5 9c 24 bd 3a d1 26 3c 36 ce 2c bd 00 97 90 3d
       -0.04018875 0.010181719 -0.042188846 0.07060051
000040 69 8c 79 3d f4 70 69 3b 9f 99 ab bd 37 22 07 bd
       0.06092492 0.0035620304 -0.0837891 -0.032991614
000050 f5 36 9b bd 03 1d e8 bb 92 61 c8 3c a6 5f fa 3c
       -0.075788416 -0.0070835366 0.024460588 0.030563187
000060 b9 05 a1 bd f8 c5 26 3d c6 b9 34 3c cd 34 0d 3d
       -0.0786242 0.04071614 0.01103062 0.034474183
000070 c5 94 50 bc 92 1f 89 3d 7c cd 9a 3d 8c 4d a7 3d
       -0.012730782 0.06695475 0.07558724 0.08169088
000080 27 31 7f bd 6a 52 52 3d 35 70 03 bb e7 f8 94 bd
       -0.062302735 0.051348127 -0.0020055894 -0.07274037
000090 c0 25 1e 3c b1 c7 46 bd 44 6b c9 3c c2 a0 3f bd
       0.009652555 -0.048530284 0.024587281 -0.04678417
0000a0 cf 4f 79 bd 9d 6f 90 bd d8 9b ad bd 84 f3 c5 bc
       -0.060867127 -0.070525385 -0.084769905 -0.024163969
0000b0 f6 5f b6 3b ae 21 83 bd 38 28 65 bd 7b d9 69 3d
       0.0055656387 -0.06402908 -0.05594656 0.05709217
0000c0 c6 34 b2 bd 18 26 74 bd 2f a6 4e 3d 53 6d 6c 3d
       -0.08701472 -0.05960664 0.050451454 0.057721447
0000d0 f6 28 4b bd e7 d2 51 bd f0 de c6 3c 6b 47 13 3c
       -0.04959961 -0.051226523 0.024276227 0.008989195
0000e0 f6 b5 82 3d f8 4c 99 bd 88 1b 7b 3d bb 1e c7 3c
       0.063823625 -0.07485384 0.061305553 0.024306646
0000f0 bf 98 a6 bd 3b 95 14 3d 91 ff b3 bd c9 a8 ab 3d
       -0.08134603 0.03627513 -0.0878898 0.083818026
000100 62 6d 3d 3c 46 9f 98 bb d3 97 10 bd 6d 8d 0c 3d
       0.011561723 -0.0046576587 -0.03530104 0.03431456
000110 fd a1 64 bd 1b ec 57 3d 16 c3 95 3c 30 58 86 3d
       -0.055818547 0.052715402 0.0182815 0.06559789
000120 cd f4 74 bd 5f 78 9c 3d 04 79 f2 3c 92 ce 38 bc
       -0.059803773 0.076401465 0.02959872 -0.011279719
000130 01 8a af 3c 02 89 ab 3d cf 5c 04 3d 6a 15 17 bc
       0.02142811 0.083757415 0.03231507 -0.009221414
000140 6c e8 58 bd 3a f7 9c bd 85 55 60 bd 78 ca 6f 3d
       -0.05295603 -0.07664342 -0.054769058 0.0585427
000150 88 6f 10 3d 74 cd 30 3d e7 43 84 bd 9d 8f 97 3c
       0.035262614 0.043164685 -0.06458264 0.018501097
000160 ee 14 17 bc 0f 5f 87 bc 18 3a 26 3d 3a d2 a5 bc
       -0.009221299 -0.01652482 0.040582746 -0.020241845
000170 a5 01 8a 3d c9 1f 83 3d d9 88 24 3c 06 79 80 3d
       0.06738595 0.06402547 0.010042393 0.062730834
000180 3c ad 23 3d b1 9c 39 bb 16 fe 99 bb 4b 1e 5d 3d
       0.03996013 -0.0028322155 -0.004699479 0.053983968
000190 7d 0a 65 bc aa c2 9e 3c 3d d2 6a bd dd d9 4f 3d
       -0.013979551 0.019379932 -0.057329405 0.05074488
0001a0 99 54 b4 3d a2 d6 de bb c8 d0 01 3c 94 20 9a 3d
       0.08805198 -0.0068004886 0.0079233125 0.07525745
0001b0 c7 b5 a2 bd c5 0c 0b bc bf 9b b8 3b be e2 ad bd
       -0.079448275 -0.008486931 0.0056338008 -0.08490513
0001c0 0d e2 7f bd 99 3c 86 3d 49 55 4e bd ba 87 29 bd
       -0.06247144 0.06554527 -0.050374303 -0.041389205
0001d0 b0 a6 b3 3c 3c f1 09 bd 8d 27 66 bd 86 52 d0 3b
       0.021930069 -0.033677325 -0.056190062 0.006357494
0001e0 85 ad 1b 3d 25 ed 7d 3d 6b 07 69 3d ca f2 bc bc
       0.038007278 0.061993737 0.05689184 -0.02306499
0001f0 10 a8 32 3d 64 9b b2 bd e9 5c 34 3d 5c 55 46 3c
       0.04361731 -0.08721045 0.04403392 0.012105312
