custom_maze/static/custom_maze/run/room248889/trained_model.pth (torch, 158674 bytes, 12 tensors)

layer1.weight f4 [128, 16]
00000000: 8088 28bb f0c9 4cbd 008b 533c 8068 5d3d
00000010: 40c1 873b f6db 7f3e 82d1 3abe 8816 00bd
00000020: f8d4 6dbd 288b 39be 3e04 2f3e e0e4 193e
00000030: 6e95 053e ca64 24be d069 09bd 2ca9 5dbe
00000040: 2a4a 6e3e c27f 4c3e b285 12be f8c1 d3bd
00000050: 9e23 703e 00a8 1c3e 1097 ebbd 0ccd 7a3e
00000060: 8423 5dbe 301f 343d b41d 5b3e a0e8 acbd
00000070: 6029 633c 2838 5bbd 7866 0b3d fede 3c3e
00000080: 6010 96bc c0e4 f5bc 9689 103e 40b5 59bc
00000090: 42d7 3bbe fcbc c13d 9021 b8bc 00f2 3abb
000000a0: f4f3 f3bd cccc 86bd e023 4a3d 3459 eebd
000000b0: 8cef e1bd 5c9d 5d3e 6663 15be 44b1 d4bd
000000c0: bcec f13d ba31 123e c4d3 ef3d 2876 f53d
000000d0: 2055 12bc 40fe f73b a8ea 7cbd c0a1 3a3d
000000e0: dcc5 d2bd 0e7e 7bbe 4057 cabb e0cf 1c3e
000000f0: f84b 3d3d ba8d 1dbe 3cb9 0b3e 24ae ec3d
00000100: 4808 893d 2471 7ebe 08df 433d 08b3 003d
00000110: 1e08 1e3e ece8 593e 1072 553d 284a 0b3e
00000120: 8cd8 02be 820f 733e b81b c43d 7cdd 413e
00000130: 64c7 893d 0058 adb9 a046 153e e886 373e
00000140: c096 cebd 34e7 0abe 9894 50bd 1ca6 183e
00000150: 02fa 4a3e 44be 70be 90da 14bd 2680 35be
00000160: 585e 61bd 1abc 6d3e f2a3 36be bcbe 94bd
00000170: 1045 10bd fabb 4b3e 1eaf 37be f8fe cbbd
00000180: 10da eabc 24b1 5abe 5c48 35be 462e 3abe
00000190: 281a 10be ced3 5cbe f8af 41be 10a3 d7bd
000001a0: da7e 353e 302a 563e 009d f53b 908e 3c3d
000001b0: 883d 173d 9820 353d d471 47be 7881 563e
000001c0: 4688 69be 5020 2dbe e026 cabd 206b 0dbc
000001d0: 9a0a 77be c27f 5bbe f8f1 903d 5072 f0bd
000001e0: 2032 efbd 64d2 f6bd cc87 dd3d b863 633e
000001f0: 4812 173d 409d 213d 1a0f 13be 401a 8abd
00000200: 8c3a 02be c014 bf3b 3075 923c f859 7a3d
00000210: 9022 203d 60d0 62be c07a 25bc 7cfb 92bd
00000220: 44ea 683e cea8 443e ecbd abbd 6024 d03d
00000230: d852 73bd 3e15 16be 2861 143e 3c26 d53d
00000240: d01c e63d d080 17bd 4abf 12be f02d 743d
00000250: 6ab3 5d3e 80fd c5bc 9ea2 513e 58aa 6ebd
00000260: 14ee 113e d831 073e 10cc cdbc 340d d1bd
00000270: 989f 7bbd b032 bb3d 00fe 53bc 3a02 20be
00000280: 60ed c33d 5cf1 f63d d49f a13d c289 24be
00000290: f0f1 213d 82b4 6d3e 7ea3 0e3e b00f d5bd
000002a0: 42d7 63be ae76 63be b001 663e 90d0 a53c
000002b0: 6840 70bd c6ce 523e 9063 47bd 665e 66be
000002c0: 24a6 963d a831 2fbe b8a1 163e 241c 503e
000002d0: 4e79 433e 3c82 8c3d 5cbe 713e 3287 7abe
000002e0: 744c 22be aebf 513e b4ff 6fbe 6e93 14be
000002f0: b279 31be 3c86 8dbd d8d9 04bd fc3e ca3d
00000300: 7842 7e3d fa10 44be ec66 793e f026 433d
00000310: c813 5b3d d09a 903c 68f1 763e 2450 7bbe
00000320: d24f 30be d6ea 5ebe 0040 30b8 d050 83bd
00000330: e80e 66bd 42d1 493e aab7 383e ae4d 51be
00000340: a885 22be 2a42 423e 0000 c1bb 50a3 443e
00000350: 7eaa 22be 98dd 00bd 5811 a73d 407b 793d
00000360: 40ad 953d 006b 5d3d 922b 08be 08eb 0fbe
00000370: c6a3 633e 601f 7b3e 3066 e43d 8091 ee3c
00000380: faee 13be c4cb 73be 3e84 393e 0495 553e
00000390: 2053 3a3e 4ca7 fbbd 88b2 7e3e 0098 583a
000003a0: 5027 6d3e ce10 553e 323a 2e3e 6073 9e3d
000003b0: e84c 5a3e d0bf c73d 00f7 153b 1844 9b3d
000003c0: c822 523e 80c6 48bc fc17 1abe a652 2abe
000003d0: 8099 663b 28b8 583d c40a 88bd d4dc 383e
000003e0: 18cf 1a3e c8c6 763e 5058 793e bad4 6e3e
000003f0: e03a 5abc 4005 00bd 68a2 6f3e 80b7 563b
-0.0025716126 -0.04999727 0.012911558 0.054054737 0.0041429102 0.24986252 -0.18243983 -0.031271487
-0.05806443 -0.1811949 0.17091462 0.15028715 0.13045284 -0.16054073 -0.033548176 -0.21646565
0.23270479 0.1997061 -0.14308813 -0.10339731 0.23451087 0.15298462 -0.11503422 0.24492282
-0.2159558 0.043975055 0.2139805 -0.08442807 0.013864845 -0.05352035 0.03403327 0.1844444
-0.018318355 -0.030016303 0.14114985 -0.013287842 -0.18343833 0.09459874 -0.022476941 -0.002852559
-0.11911765 -0.06582031 0.04935062 -0.11638108 -0.11032018 0.21642059 -0.14588699 -0.10385373
0.118127316 0.14276782 0.11710313 0.11985427 -0.008931428 0.0075681508 -0.061747223 0.045564413
-0.10291645 -0.24559805 -0.006174952 0.15313673 0.046215028 -0.15386096 0.1364488 0.11556652
0.06691033 -0.24847847 0.04782012 0.031420738 0.15432784 0.21280259 0.05211073 0.13602507
-0.12777919 0.23736385 0.095755994 0.18932146 0.06727484 -0.00033062696 0.14577723 0.17922556
-0.10087347 -0.1356476 -0.05092296 0.14907116 0.19821933 -0.2351008 -0.03634125 -0.17724666
-0.055021614 0.23216286 -0.17835978 -0.07262942 -0.035222113 0.19895926 -0.17937896 -0.09960741
-0.028668433 -0.21356636 -0.17703384 -0.18181714 -0.14072478 -0.21565172 -0.18914783 -0.105291486
0.17724171 0.20914531 0.0074955225 0.046034396 0.036923915 0.044220537 -0.19477016 0.20947826
-0.2280589 -0.16906857 -0.09870696 -0.008631498 -0.24125138 -0.21435454 0.07077402 -0.117405534
-0.116794825 -0.120518476 0.10816917 0.22206008 0.03688267 0.039456606 -0.1436123 -0.06743288
-0.12717646 0.005831331 0.017878145 0.061120957 0.03909546 -0.22149801 -0.010100067 -0.07176873
0.22745615 0.19205019 -0.08385834 0.10163188 -0.059405178 -0.14656541 0.14490187 0.10407683
0.11235964 -0.03698808 -0.14330783 0.059614122 0.21650472 -0.02416873 0.2047219 -0.05826792
0.14250976 0.13202608 -0.025121719 -0.102075964 -0.061431497 0.09140527 -0.012938976 -0.1562585
0.0956676 0.120577544 0.07891813 -0.16068175 0.03953737 0.2321339 0.13929555 -0.10403383
-0.22250083 -0.22213241 0.22461581 0.020241052 -0.058655173 0.2058669 -0.048678935 -0.22496948
0.073559076 -0.17108786 0.14710128 0.20323235 0.19089243 0.06860778 0.23607773 -0.24465635
-0.15849477 0.20483276 -0.23437387 -0.14509365 -0.1733158 -0.06910369 -0.032434314 0.098752946
0.06207511 -0.19147101 0.24355668 0.047644556 0.05348566 0.017651945 0.24115527 -0.2454229
-0.17217949 -0.2176927 -4.2021275e-05 -0.06411898 -0.05616656 0.19708732 0.18038812 -0.20439789
-0.15871298 0.18970552 -0.0058898926 0.19202924 -0.1588535 -0.03146133 0.08157605 0.060908556
0.073084354 0.05405712 -0.13297871 -0.14054501 0.22230443 0.24523687 0.11152303 0.029122114
-0.14446631 -0.23808199 0.18116853 0.20857626 0.18195772 -0.12287769 0.24872792 0.0008262396
0.23159528 0.20807192 0.17014387 0.0773685 0.213184 0.09753382 0.002288282 0.07581347
0.2052108 -0.012254357 -0.15048212 -0.1663309 0.0035186708 0.05291 -0.066426784 0.18052989
0.15118062 0.24099267 0.24350095 0.23323336 -0.013319701 -0.031255007 0.23401797 0.0032763183

layer1.bias f4 [128]
00000000: 52fd 27be 10c4 213d a886 363d 206b 11be
00000010: 641a 0ebe 5240 203e 0028 c839 e473 27be
00000020: ecfa 9dbd 80ba 10be c689 34be 42fc 30be
00000030: b65f 053e 1201 74be f82e 61be 581e a73d
00000040: 24f5 37be 12bd 1abe 9a9c 5a3e 7a69 27be
00000050: 884c e9bd 8042 65bb e88a cfbd a8cd ff3d
00000060: c6f9 083e d0e4 8d3c 1cbb e43d 3cc1 f3bd
00000070: 7e96 5bbe 7638 623e b849 713d c08c ae3d
00000080: b863 32be e8dd c1bd 84dc ad3d d6d5 063e
00000090: 7ea7 173e b8c6 163d 5094 4bbd 645d 133e
000000a0: 44c4 a2bd 0082 4a3e 1026 3fbd 6006 3dbe
000000b0: a8f2 e83d 1022 97bc 7c4b d6bd 1406 27be
000000c0: 00e6 3c3e 4036 ff3d 72c6 0e3e eac3 6f3e
000000d0: 6866 e5bd 9076 8a3c 80d6 2f3e 10b8 b6bd
000000e0: c0e1 0fbd bc44 e73d 2001 07bd dcdd 7d3e
000000f0: 9861 063e 2c30 36be a6fe 463e 6cb0 a33d
00000100: f249 21be 00b1 4e3b a095 28be 8080 5cbb
00000110: e047 ae3d 60a5 d6bd 70b5 cdbd ba7d 253e
00000120: 6057 393c 00ec 6d3d f025 943c 80af 99bd
00000130: 0054 dbbc f499 cc3d d0d0 cabd f40e c33d
00000140: 36fc 56be 2403 4c3e 4822 493e 8675 34be
00000150: 901f 4b3e 78ff 6c3e 8077 693d e067 a6bd
00000160: 7018 e53d caeb 34be b85e 08be 8818 c2bd
00000170: 20e6 98bc e011 253c 207f 1b3c 00e0 953d
00000180: 2636 1abe 3c23 473e a4c8 ab3d d674 3f3e
00000190: 94d4 cabd 3c42 da3d 46fe 0b3e 6c97 a13d
000001a0: 5ca2 06be 188a 1abe 68c0 20bd 2041 343d
000001b0: 90c6 8ebc 3e09 05be 887a 48be 3a0e 5fbe
000001c0: a055 6fbe e0a8 05bd 5c86 02be 806f 6c3d
000001d0: f6f4 103e ce30 16be f0b4 a8bd f02f e43c
000001e0: 9829 63bd f031 d5bc 42ad 403e 8a90 79be
000001f0: a01e 2b3e 601b dfbd eaa0 703e d08d debd
-0.16405228 0.03949362 0.044562012 -0.14201021 -0.13877255 0.15649536 0.00038176775 -0.16352803
-0.07713875 -0.14133644 -0.17630681 -0.17283729 0.13024792 -0.23828533 -0.21990573 0.081600845
-0.17964607 -0.15111187 0.21348801 -0.1634883 -0.1139155 -0.0034982264 -0.10133916 0.12490398
0.13376531 0.01732102 0.11168501 -0.11902091 -0.21444127 0.2209185 0.058908194 0.0852294
-0.17420852 -0.094661534 0.08489326 0.1316751 0.14809987 0.036810607 -0.04970199 0.14391094
-0.07947591 0.19776154 -0.04666716 -0.18459463 0.11374408 -0.01844886 -0.10463616 -0.16310912
0.18447113 0.12461519 0.13942888 0.23414579 -0.11201173 0.016902238 0.17171669 -0.08921826
-0.0351274 0.11292407 -0.032960057 0.24791664 0.13123167 -0.17791814 0.19433078 0.07992634
-0.15750864 0.0031538606 -0.16463327 -0.0033645928 0.08509803 -0.104807615 -0.10044372 0.16161242
0.011312336 0.058086395 0.018084496 -0.07504177 -0.026773453 0.09990302 -0.09903109 0.095243365
-0.20994648 0.19923073 0.19641984 -0.17622957 0.19836259 0.23144329 0.05699873 -0.08125281
0.11186302 -0.17668071 -0.13317382 -0.09477335 -0.01866442 0.0100750625 0.009490758 0.07318115
-0.15059718 0.19447035 0.083878785 0.18696913 -0.09903827 0.106571645 0.13671216 0.078902096
-0.13147873 -0.15091741 -0.039245993 0.04400742 -0.017428666 -0.12991807 -0.19577992 -0.21782771
-0.23372507 -0.032631755 -0.12746567 0.057723522 0.14155945 -0.14667055 -0.08237636 0.02785489
-0.05545959 -0.026024789 0.18816093 -0.24371544 0.16710901 -0.10893893 0.23498884 -0.10866892

layer2.weight f4 [128, 128]
00000000: be46 1a3b b6f4 46bd 7634 54bd 7949 0f3d
00000010: 29ca 0c3c 887a 973b 058f 073d 863e 8ebd
00000020: 6654 853d 0fa1 f53c 3187 afbd 4ff7 af3d
00000030: 478b 6ebd ca90 31bd 2333 a3bc 8afa 6fbc
00000040: 19eb 2b3d e5ff 313d fdbf 72bc a2e7 bb3c
00000050: 870b c7bc a09a 81bd c7a5 aebd c80d aabd
00000060: 75b9 a63d c4b9 8cbb fe1e d0bc 20c5 b1bb
00000070: 0dab 793d fde6 4d3d 1c66 40bd c443 25bd
00000080: fcdb 9cbd 730a b1bc 478b 6e3d 61ef 4cbd
00000090: 0ec7 4dbc bba5 3dbc ae2d 863d 931f db3c
000000a0: ee7f 463d 0012 cc3c a096 88bd 0b28 043d
000000b0: 7adf 42bd 6f27 aeba ec4a edbb f04b 653b
000000c0: 3536 133d b67c a3bd b342 59bd d9dc eabb
000000d0: 485b b1bd 2287 9ebc d055 af3d 32de af3b
000000e0: 1d15 65bd 17b9 9bbb 1aa6 013d 0ade 233c
000000f0: b590 c33c 2007 4cbd e80c 81bd 83a9 603d
00000100: 6bca 33bc 3928 6f3c fa45 753d 37de 83bd
00000110: f52c a2bd ae5d 9bbd 52a9 97bd e437 85bd
00000120: d646 2abd d808 2ebd cd19 6b3d 18ef 5e3d
00000130: 4b97 a13c b792 7c3d e951 423d 79b4 27bd
00000140: 1553 643c f0ce 70bd 201a b43d 584a 88bd
00000150: 9606 76bd af69 6fbd 9c98 e6bc f105 873d
00000160: b404 6abd 67ab e8bb aff9 afbc 80ca c13c
00000170: 94cf b33d aad7 68bd b0ae 89bd 5a36 c73c
00000180: 3957 5ebc 172a be3c 1edd 503d 18bf 013d
00000190: 0326 debc ca81 4cbd 1e47 403d bf80 fbbc
000001a0: 0e87 b0bd a250 91bd 9a52 06ba f271 65bd
000001b0: 6a49 4d3d 0554 a73c 6236 173b 568f 983d
000001c0: 6f16 a83d 0d56 8bbd de7a 033d 0dcb 37bd
000001d0: c8c6 a53b c6c8 a03d e0c4 c8bc 2776 463c
000001e0: 94b1 8c3d 9971 853d 8e6b 1c3d 5cb4 52bd
000001f0: 9065 1bbd 0cbb 0c3c 6f2b 863d 57bf 24bd
00000200: c332 b1bd c5b9 a13d d706 e1bc 4318 853d
00000210: 90ce 98b9 f42f 7c3d de08 8ebc f3d5 daba
00000220: 6da5 183d d5b5 3e3b fd4b a7bd cc7b 87bd
00000230: dc60 ea3c 080b 603d 0390 a7bd 5abe b03d
00000240: 5b6a 2cbd 6153 683d 868d 87bd 8c75 633d
00000250: 052d 12bd cceb 22bd 9264 adbd c3a5 37bd
00000260: 1e61 abbd 60c1 823b 139c b9bc a7f1 ab3d
00000270: e429 753d a43c 23bc f327 353c 9483 7a3b
00000280: fa50 97bd e209 3c3d d697 92bc 919a 463b
00000290: bf57 463c b152 303d 1b65 52bd f92e 9fbd
000002a0: bb53 de3b 274e b33d ee7f 03bd 4f1c 863c
000002b0: fe02 333d f1b3 5e3d 568e ffbc a24e a0bd
000002c0: 1d65 313d 518d 8e3c 1066 18bd b2d7 6fbd
000002d0: 8153 4abd 78a9 25bd bd30 c73b b651 423c
000002e0: b404 3e3a 1105 27bd 8571 7d3d 7851 7bbd
000002f0: d6f5 abbd c4f7 173d 3f5e a6bd 2020 7dbd
00000300: a367 a5bd 4843 29bc dbc8 47bb bc5b 31bd
00000310: 766b 63bb ea42 82bc 6d84 1c3d 523e 8c3d
00000320: 608b 66bd 63f7 a1bd f60e 04bd e645 a2bd
00000330: d9f7 773d 6878 ce3c cc13 ecbc 2d04 393c
00000340: 2ab9 8d3d 2ce9 ab3d daf9 393c 24f0 abbd
00000350: 0688 0a3d 89d9 943d b23d 11bd 2ae9 a4bd
00000360: fe2d 803d 25d2 ae3d e81b 1a3d c7e7 abbd
00000370: 672d ae3c 66af 9dbc a5dd bb3c 2013 80b7
00000380: a5fc 863d f243 923d 96e3 81bc 8cc0 7e3c
00000390: 88e3 703c 7494 36bd 7d89 a8bd f081 603d
000003a0: e4ea 35bc e4d3 2c3d ef3b 683d c1e8 913d
000003b0: 1eb6 473b 26bc 99bb b471 5a3d ecaa 813d
000003c0: 516c 53bd 3630 833b a71f 48bb 6ac1 9cbc
000003d0: 3f1f a5bd 4441 7c3d 427e 253c 67f7 c5bc
000003e0: 86cf afbb 5cfa 133b afea 2abd 8d35 18bd
000003f0: 1019 5abd eb51 0cbd eecb 8c3c a924 783c
0.00235407 -0.04857322 -0.051807843 0.03498218 0.008593121 0.004622761 0.03309538 -0.06945519
0.06510238 0.029984025 -0.085707076 0.08592092 -0.058238294 -0.043350972 -0.019921845 -0.0146471355
0.041972253 0.04345693 -0.014816281 0.0229376 -0.024297489 -0.063283205 -0.08527713 -0.0830341
0.08140842 -0.004294606 -0.025405403 -0.0054251105 0.060954142 0.050269116 -0.04697238 -0.04034783
-0.07659146 -0.021611428 0.058238294 -0.050032977 -0.012559665 -0.011575158 0.065516815 0.026748454
0.048461847 0.024910927 -0.066693544 0.03226475 -0.047576405 -0.0013286899 -0.0072415974 0.003498789
0.035940368 -0.07982771 -0.053042125 -0.0071674404 -0.08659989 -0.019351546 0.08561289 0.005367064
-0.05592834 -0.004752289 0.031652547 0.010001669 0.023872713 -0.049811482 -0.0630129 0.05484916
-0.010973553 0.014596992 0.059881188 -0.064388685 -0.07918731 -0.07586227 -0.07405342 -0.06504801
-0.04157146 -0.042488903 0.057397652 0.054427236 0.019725462 0.061663356 0.047441397 -0.040943597
0.013935824 -0.0587911 0.087940454 -0.06654805 -0.060064875 -0.058450397 -0.028148942 0.0659293
-0.05713339 -0.007100511 -0.021481363 0.02365613 0.08779827 -0.0568463 -0.06722772 0.024317909
-0.0135706 0.02321343 0.050992124 0.03167638 -0.027117735 -0.049928464 0.046942823 -0.03070104
-0.0861951 -0.070954576 -0.0005124003 -0.05601687 0.05011884 0.020425806 0.0023073186 0.07449214
0.08207404 -0.06803522 0.032099597 -0.04487138 0.005059097 0.078507945 -0.02450794 0.012113131
0.06869808 0.06515808 0.03818851 -0.051441535 -0.037938654 0.008589517 0.06551253 -0.04022154
-0.0865226 0.07896761 -0.027469082 0.06498768 -0.000291456 0.06156917 -0.017338213 -0.0016695842
0.037267137 0.002910008 -0.081687905 -0.06615409 0.02861064 0.05469802 -0.08181765 0.08630057
-0.042093616 0.05672014 -0.0661879 0.055532023 -0.035687465 -0.039775655 -0.08466448 -0.044835817
-0.08368133 0.0039903373 -0.02265743 0.08395701 0.059854403 -0.009963188 0.011056888 0.00382254
-0.07388492 0.045907862 -0.017894667 0.003030453 0.012105881 0.04304761 -0.051365953 -0.07772631
0.006784884 0.08755141 -0.032104425 0.01637092 0.043704025 0.054370824 -0.0311958 -0.07827498
0.04330932 0.01740137 -0.03720671 -0.058555312 -0.04939604 -0.04044482 0.006078808 0.011860302
0.00072486256 -0.040776316 0.06187584 -0.06135699 -0.08396499 0.037101522 -0.08123445 -0.061798215
-0.08076408 -0.0103309825 -0.003048471 -0.043300375 -0.0034701503 -0.015901048 0.03821223 0.06847824
-0.056285262 -0.079085134 -0.03224083 -0.07923488 0.0605391 0.025203899 -0.028818034 0.0112924995
0.06920083 0.083940834 0.011351073 -0.083954126 0.03382113 0.07268054 -0.035459228 -0.08052285
0.06258772 0.08536176 0.03762427 -0.083938174 0.021261884 -0.019248676 0.022932837 -1.5267695e-05
0.06591157 0.07141866 -0.015855592 0.015548836 0.014702685 -0.04457517 -0.08229349 0.054811418
-0.011103366 0.042194262 0.056697782 0.071244724 0.003047354 -0.0046916185 0.053331092 0.06331429
-0.05161697 0.00400355 -0.0030536444 -0.019135196 -0.080626 0.06158568 0.010100903 -0.024165822
-0.005365315 0.0022579646 -0.041727718 -0.037160445 -0.053246558 -0.03425781 0.017187085 0.015145459

layer2.bias f4 [128]
00000000: 3a67 593d 6b37 423c 3556 80bd 45a0 4e3d
00000010: 14d1 92bd 9b3b afbc 0c24 4d3d e94a c1bc
00000020: ab2a ac3d 6852 90bd 9056 d13a 3093 743d
00000030: ab41 21bd 0de6 0bbd 65a4 b3bd 6fbd a23d
00000040: 7d4e c2ba f269 803c 803a 0d3c 1691 2dbd
00000050: cb00 983d 4eb4 9c3d f125 8b3c 4ba4 8d3d
00000060: 5e54 b3bd 4438 8ebd aa6a acbc 7408 a83d
00000070: 07d1 fa3c 8fdc fbbb 1e22 42bb 961d 703c
00000080: f3c0 f9bc d984 89bd 2217 9e3d 61a2 68bd
00000090: f3a2 383c 27da b23d 4718 a03d e076 cbbc
000000a0: e02e aebd 7dc6 5dbc 41eb 0bbd 906f 913d
000000b0: 806e aebc ffd5 7dbd 92ff 943c 9bd0 ab3c
000000c0: d4e6 52bd fb03 1dbd feaf a83d 91ef 04bd
000000d0: cc40 a83d dac2 1c3d 6dc8 863d 9fa6 5d3c
000000e0: 360e 04bd 30e3 d1bb 01ee a7bd 5f00 acbd
000000f0: 3cde 5c3d 6942 afbd c81f 713d d6f6 893d
00000100: 8fcc 1fbc eb0e d23c 471f 98bd fe95 98ba
00000110: 6d1f 30bb ff6d 443d 6d6b 783d 42cb bcbc
00000120: c9a4 a63d 9931 33bd 8a97 c23c 3aec 5dbd
00000130: db35 a33d 2429 573b 9259 f6bc 7234 d13c
00000140: 614b bc3c 4be6 093d 7b56 893d 7722 38bd
00000150: d0e6 96bc 85b0 2fbd d556 a83d b939 8abd
00000160: 8b6b 16bd a5bf 87bd 3e1f 2d3d de40 003c
00000170: ab63 893d f429 853d 3ec7 bf3c b438 503d
00000180: 9108 b33d 54e5 893d 7625 3cbb ecbb c03c
00000190: e296 7ebd e5fe b03c 9c27 093d ed45 203d
000001a0: 9af3 aabd 6620 5ebd 6a7f 7c3d 8025 ae3d
000001b0: 3f60 083c 167e 93bd 5a66 803d 10c9 54bd
000001c0: 4e87 603d 8c27 e0bc fe08 9e3d d335 16bd
000001d0: d2e6 b13d 0b0b b6bc 858f b0bd a5a0 313d
000001e0: 2b43 e93c 233a 46bd bdc4 96bd a08f 5a3d
000001f0: b91e 81bd f2db 26bd 1945 a73d 268b c1bc
0.05307696 0.011854033 -0.06266443 0.050445814 -0.07168785 -0.021390727 0.050083205 -0.02359529
0.08406576 -0.07046968 0.0015971232 0.05971068 -0.039369266 -0.03415494 -0.0877159 0.07946288
-0.0014824417 0.015675519 0.0086199045 -0.042374693 0.07422026 0.07651578 0.016985865 0.06916102
-0.08756326 -0.069443256 -0.021046955 0.08204737 0.03061725 -0.0076862047 -0.0029622386 0.014655491
-0.030487513 -0.06714792 0.07719256 -0.05679548 0.011269319 0.087330155 0.078171305 -0.024836957
-0.085050344 -0.013536093 -0.034159902 0.07101357 -0.021292925 -0.06197166 0.018188272 0.020973494
-0.051489666 -0.038333874 0.08236693 -0.03245503 0.08215484 0.038271762 0.06581197 0.013528495
-0.032240115 -0.0064052567 -0.081996925 -0.08398508 0.053922877 -0.085575886 0.0588682 0.06736533
-0.00975336 0.025641879 -0.07427841 -0.0011641381 -0.00268742 0.047956463 0.060649324 -0.02304614
0.08136899 -0.043748472 0.0237539 -0.05418036 0.079692565 0.0032830918 -0.030072007 0.025537703
0.022985162 0.03366689 0.06705948 -0.044954743 -0.018420607 -0.04289295 0.08219687 -0.06749291
-0.036723655 -0.0662835 0.042266123 0.007827966 0.06708463 0.065021425 0.023410436 0.050835326
0.08741868 0.06733194 -0.0028708852 0.023527108 -0.06215561 0.021605918 0.03348504 0.039129186
-0.083472446 -0.054230116 0.06164495 0.08503246 0.008323728 -0.07201783 0.06269522 -0.05194956
0.054816537 -0.027362607 0.07716559 -0.036672425 0.086866036 -0.022222063 -0.08621124 0.043366093
0.028474411 -0.048395287 -0.073617436 0.053359628 -0.06304688 -0.0407371 0.08167476 -0.023625921

layer3.weight f4 [4, 128]
00000000: e31f d23c 28a2 533d 1a9b fc3c ed64 b1bd
00000010: 892c 98bd c7db 873d b4d5 78bd 88ef 37bd
00000020: e308 84bd f112 23bd e8c3 cb3c 6079 94bb
00000030: d733 78bd 84c0 64bd ab1e acbd 9440 113c
00000040: 4031 4dbd 2c31 a7ba d61e 76bd 819c 193c
00000050: e6c4 173d b37d 0f3d 2e0f 1ebd 70e0 203d
00000060: 3225 9fbc 2537 7cbd b525 48bc f755 81bd
00000070: 9050 60bd 9e96 1b3d 6723 d63c 9a25 2abb
00000080: ab93 ac3d 9ee3 3e3b f405 c83c 688f 853d
00000090: 1dff f83b 46e9 4bbb 014c 81bd 4332 e13c
000000a0: 8bae 3e3c 2f2d 9f3d 4e28 a83d 94b7 f13c
000000b0: 3c20 803d 715c 22ba 27ce 59bc c1d4 47bd
000000c0: b49d e8bc 00fa 8d3d 22bf 973d 895d ab3d
000000d0: 2db6 ad3d 6ff6 4f3d 3090 2e3d 3021 44bd
000000e0: 6d03 a4bd 382f 9d3d 48fa 44bd 54bf a13d
000000f0: 09ea 8e3c 29f6 98bd 7a98 b8bb b57b 23bc
00000100: 08be cf3c 716e 48bd 973b 0cbd 15bf 513c
00000110: 7572 a8bd 6106 47bd cfd2 fc3c eece 583d
00000120: 148f a1bd ef7a 59bc 19a3 a2bd 6c31 523d
00000130: 24d5 edbc cb94 a5bd b5ff df3c e717 6b3d
00000140: 3db6 983d cfcb 9abc 6028 71bd 3ec6 c8bc
00000150: 7a98 143d 851c 80bd ecb2 863d 9968 7ebc
00000160: b30e 9f3c 4ce0 a33d afa3 b4bd 152e ea3c
00000170: 485a 7a3d 98d1 9b3c 2850 1abd abbb 94bd
00000180: e1de 893d 0bd3 603c 9868 273c c370 74bd
00000190: 09d3 91bd e531 783d bd41 39bd d98a 61bc
000001a0: 6964 61bd df31 95bd 4aad 5abc 4099 ab3c
000001b0: 396e 97bd 1dcd 09bd 5ccf 8f3c 6ad4 663d
000001c0: c43d 0cbd 6d9d a6bd 3a79 e73b fc31 923d
000001d0: 776c 113b 50c0 393d fcc3 30bd 4edd e33c
000001e0: 3a53 1e3d 4056 903d 17e7 5fbd f2f1 a33c
000001f0: 7211 d0bc cf32 793d 0510 1c3c 5d55 d63a
00000200: 74cb 753d 0dc3 5b3d 6480 97bd 4586 e23c
00000210: 447a 3d3d a8c5 a1bd 28e5 163d da87 203d
00000220: fbfa 3d3c 2dee 6dbb cfac c8bb 87c8 6abd
00000230: 3d94 c8bc ff93 4abd 11ae 44bd 78f3 d63c
00000240: e40d 043c 3acc b2bd 0595 983c f1e2 a23d
00000250: ef66 513d 1fb4 593c 533a 593c fba4 eb3c
00000260: e6b8 783d 3e2e 1d3d cb8a 973b 4e6a b4bd
00000270: f336 a43d e5ec aa3c 82dc 3dbd 3580 39bd
00000280: 19c9 0cbc dc1d 663d f8d6 01ba fd7c 9a3d
00000290: 29fc 0b3d 7679 843b 2295 a3bd 8d92 02bd
000002a0: 3823 68bd d475 383b 5ad0 a9bd bfaf af3c
000002b0: b9fb 21bd 00e7 42bc 8f9c 0bbd 81b3 57bd
000002c0: 4256 7e3d 067a b03c be75 05bd f77f ca3c
000002d0: 2c96 5f3b dfd2 f03a 3a3d 0c39 7804 a83d
000002e0: 33c3 063d 001f 0b3d 49d8 98bc 6f1f 483c
000002f0: 84d5 873d 923e 543c f6c5 043c bcbf 6cbd
00000300: 291e 2b3d 8aba cbbc 6716 4bbd f8b3 7f3d
00000310: 76b9 8bbd 14cf 96bc 647c 51bc bc98 6ebd
00000320: d70a 3b3d b0d4 413d 9797 8f3d 495f 28bd
00000330: 3bd6 1cbb 1a35 c53c 4efd 963d f777 93bd
00000340: 7716 b23c 273c 8e3c 2d70 6e3d f5f6 373d
00000350: ed64 44bd 799c 023d 945b 6c3d 5c86 5dbc
00000360: e3ce ae3c a80f f2ba 89f7 1f3d 4366 18bc
00000370: 31d3 afbd daf9 46bb a6dd 1dbd 4b7c 953d
00000380: e7d4 46bc dcb0 793d af6f e2bc ab9c 1cbd
00000390: 9916 7a3d 787d 2cbd c359 aa3d 223d 5f3d
000003a0: e0bf debc 46e5 dcbb 4953 173c 1524 3cbd
000003b0: 43be 34bd c6aa 993d 07c9 e13a 7508 b2bc
000003c0: 792f 9dbd 0584 72bd 6632 163d 080d cfbc
000003d0: 68ff 403d 9a4c fa39 7cf4 b9bc 83cc 833d
000003e0: 7089 9a3d e3a2 59bc dd8e 3c3c 1788 4bbc
000003f0: 0361 21bd 1451 083d 4c34 36bd 2a67 a3bd
0.02564997 0.051668316 0.030835677 -0.08661828 -0.074303694 0.06633716 -0.06075068 -0.04490617
-0.064470075 -0.039812986 0.024873689 -0.0045310706 -0.060596313 -0.05584766 -0.08404287 0.008865494
-0.050095797 -0.0012755743 -0.060088 0.009375692 0.03705301 0.035031985 -0.038588695 0.03927654
-0.019426916 -0.061576027 -0.012216021 -0.063152246 -0.05476433 0.037985437 0.026139928 -0.0025962354
0.08426603 0.002912737 0.024416901 0.06521493 0.0075987712 -0.0031114384 -0.06313325 0.027489787
0.011638294 0.0777229 0.082108125 0.029506482 0.06256148 -0.00061935844 -0.013293779 -0.048786882
-0.028395511 0.06932449 0.074095026 0.0836745 0.08482013 0.050772127 0.042617977 -0.047883213
-0.08008466 0.07675022 -0.04809025 0.07897821 0.017445581 -0.07468826 -0.005633411 -0.0099782245
0.025359169 -0.04893345 -0.034236517 0.012801905 -0.08224956 -0.048590068 0.03086224 0.05293172
-0.07888618 -0.013273939 -0.07941265 0.051316664 -0.029032297 -0.08085021 0.02734361 0.057395842
0.07456634 -0.018896012 -0.058876395 -0.024508592 0.036278225 -0.0625544 0.065770954 -0.015527868
0.019416189 0.080017656 -0.08820283 0.028586427 0.061121255 0.01902084 -0.0376741 -0.07262357
0.06731964 0.013722192 0.010217808 -0.05967785 -0.0712033 0.060594458 -0.04522871 -0.013766014
-0.0550274 -0.07284903 -0.013346979 0.020947099 -0.0739407 -0.033642877 0.017554931 0.056354918
-0.03423859 -0.08135495 0.007064012 0.0713844 0.0022189894 0.04534942 -0.043155655 0.027815487
0.03865359 0.07047701 -0.054663744 0.02001283 -0.025398944 0.06083947 0.009525304 0.0016352345
0.06000848 0.05365281 -0.073975354 0.027651915 0.04625918 -0.07899028 0.036839634 0.03919206
0.011595483 -0.0036305294 -0.006124116 -0.057320144 -0.024484748 -0.049457546 -0.048017565 0.026239142
0.008059952 -0.087303594 0.018625746 0.07953442 0.051123556 0.013287573 0.0132585345 0.028765192
0.060723208 0.038374178 0.0046246997 -0.088093385 0.08018293 0.020864913 -0.04635287 -0.045288283
-0.008592867 0.05618082 -0.00049529923 0.07543371 0.034176026 0.0040427996 -0.07987429 -0.031878043
-0.056674212 0.0028146403 -0.08291693 0.021446107 -0.039546702 -0.011895895 -0.034084853 -0.052661423
0.06209398 0.02154256 -0.03258299 0.024719222 0.003411661 0.0018373391 0.00013374249 0.08203977
0.032901 0.03396511 -0.01865782 0.012214526 0.06632522 0.012954371 0.008103838 -0.05780004
0.04177681 -0.024869222 -0.04958191 0.06242749 -0.06822483 -0.01840929 -0.012786005 -0.058251128
0.045664635 0.047321975 0.07011335 -0.041106496 -0.0023931402 0.024073172 0.07372533 -0.07200616
0.021739228 0.017362667 0.058212448 0.04491325 -0.047947813 0.031887505 0.057704523 -0.013520803
0.021338886 -0.0018467801 0.039054427 -0.009301725 -0.085852034 -0.0030361325 -0.03854146 0.072990976
-0.012135721 0.060959682 -0.027641146 -0.038235348 0.061056707 -0.042111844 0.08317902 0.05450166
-0.027191103 -0.0067411987 0.009236165 -0.045932848 -0.04412676 0.075032756 0.0017226049 -0.021732548
-0.0767507 -0.059207935 0.036669157 -0.025274768 0.047118574 0.00047740788 -0.022699587 0.06435492
0.075457454 -0.013283464 0.011508671 -0.012422583 -0.03939916 0.033280447 -0.044483468 -0.07978661

layer3.bias f4 [4]
00000000: ffa0 97bd 58a9 263d e00a a0bd 22f8 b03d
-0.074037544 0.040688843 -0.07814574 0.086410776

layer1.weight f4 [128, 16]
00000000: 8088 28bb f0c9 4cbd 008b 533c 8068 5d3d
00000010: 40c1 873b f6db 7f3e 82d1 3abe 8816 00bd
00000020: f8d4 6dbd 288b 39be 3e04 2f3e e0e4 193e
00000030: 6e95 053e ca64 24be d069 09bd 2ca9 5dbe
00000040: 2a4a 6e3e c27f 4c3e b285 12be f8c1 d3bd
00000050: 9e23 703e 00a8 1c3e 1097 ebbd 0ccd 7a3e
00000060: 8423 5dbe 301f 343d b41d 5b3e a0e8 acbd
00000070: 6029 633c 2838 5bbd 7866 0b3d fede 3c3e
00000080: 6010 96bc c0e4 f5bc 9689 103e 40b5 59bc
00000090: 42d7 3bbe fcbc c13d 9021 b8bc 00f2 3abb
000000a0: f4f3 f3bd cccc 86bd e023 4a3d 3459 eebd
000000b0: 8cef e1bd 5c9d 5d3e 6663 15be 44b1 d4bd
000000c0: bcec f13d ba31 123e c4d3 ef3d 2876 f53d
000000d0: 2055 12bc 40fe f73b a8ea 7cbd c0a1 3a3d
000000e0: dcc5 d2bd 0e7e 7bbe 4057 cabb e0cf 1c3e
000000f0: f84b 3d3d ba8d 1dbe 3cb9 0b3e 24ae ec3d
00000100: 4808 893d 2471 7ebe 08df 433d 08b3 003d
00000110: 1e08 1e3e ece8 593e 1072 553d 284a 0b3e
00000120: 8cd8 02be 820f 733e b81b c43d 7cdd 413e
00000130: 64c7 893d 0058 adb9 a046 153e e886 373e
00000140: c096 cebd 34e7 0abe 9894 50bd 1ca6 183e
00000150: 02fa 4a3e 44be 70be 90da 14bd 2680 35be
00000160: 585e 61bd 1abc 6d3e f2a3 36be bcbe 94bd
00000170: 1045 10bd fabb 4b3e 1eaf 37be f8fe cbbd
00000180: 10da eabc 24b1 5abe 5c48 35be 462e 3abe
00000190: 281a 10be ced3 5cbe f8af 41be 10a3 d7bd
000001a0: da7e 353e 302a 563e 009d f53b 908e 3c3d
000001b0: 883d 173d 9820 353d d471 47be 7881 563e
000001c0: 4688 69be 5020 2dbe e026 cabd 206b 0dbc
000001d0: 9a0a 77be c27f 5bbe f8f1 903d 5072 f0bd
000001e0: 2032 efbd 64d2 f6bd cc87 dd3d b863 633e
000001f0: 4812 173d 409d 213d 1a0f 13be 401a 8abd
00000200: 8c3a 02be c014 bf3b 3075 923c f859 7a3d
00000210: 9022 203d 60d0 62be c07a 25bc 7cfb 92bd
00000220: 44ea 683e cea8 443e ecbd abbd 6024 d03d
00000230: d852 73bd 3e15 16be 2861 143e 3c26 d53d
00000240: d01c e63d d080 17bd 4abf 12be f02d 743d
00000250: 6ab3 5d3e 80fd c5bc 9ea2 513e 58aa 6ebd
00000260: 14ee 113e d831 073e 10cc cdbc 340d d1bd
00000270: 989f 7bbd b032 bb3d 00fe 53bc 3a02 20be
00000280: 60ed c33d 5cf1 f63d d49f a13d c289 24be
00000290: f0f1 213d 82b4 6d3e 7ea3 0e3e b00f d5bd
000002a0: 42d7 63be ae76 63be b001 663e 90d0 a53c
000002b0: 6840 70bd c6ce 523e 9063 47bd 665e 66be
000002c0: 24a6 963d a831 2fbe b8a1 163e 241c 503e
000002d0: 4e79 433e 3c82 8c3d 5cbe 713e 3287 7abe
000002e0: 744c 22be aebf 513e b4ff 6fbe 6e93 14be
000002f0: b279 31be 3c86 8dbd d8d9 04bd fc3e ca3d
00000300: 7842 7e3d fa10 44be ec66 793e f026 433d
00000310: c813 5b3d d09a 903c 68f1 763e 2450 7bbe
00000320: d24f 30be d6ea 5ebe 0040 30b8 d050 83bd
00000330: e80e 66bd 42d1 493e aab7 383e ae4d 51be
00000340: a885 22be 2a42 423e 0000 c1bb 50a3 443e
00000350: 7eaa 22be 98dd 00bd 5811 a73d 407b 793d
00000360: 40ad 953d 006b 5d3d 922b 08be 08eb 0fbe
00000370: c6a3 633e 601f 7b3e 3066 e43d 8091 ee3c
00000380: faee 13be c4cb 73be 3e84 393e 0495 553e
00000390: 2053 3a3e 4ca7 fbbd 88b2 7e3e 0098 583a
000003a0: 5027 6d3e ce10 553e 323a 2e3e 6073 9e3d
000003b0: e84c 5a3e d0bf c73d 00f7 153b 1844 9b3d
000003c0: c822 523e 80c6 48bc fc17 1abe a652 2abe
000003d0: 8099 663b 28b8 583d c40a 88bd d4dc 383e
000003e0: 18cf 1a3e c8c6 763e 5058 793e bad4 6e3e
000003f0: e03a 5abc 4005 00bd 68a2 6f3e 80b7 563b
-0.0025716126 -0.04999727 0.012911558 0.054054737 0.0041429102 0.24986252 -0.18243983 -0.031271487
-0.05806443 -0.1811949 0.17091462 0.15028715 0.13045284 -0.16054073 -0.033548176 -0.21646565
0.23270479 0.1997061 -0.14308813 -0.10339731 0.23451087 0.15298462 -0.11503422 0.24492282
-0.2159558 0.043975055 0.2139805 -0.08442807 0.013864845 -0.05352035 0.03403327 0.1844444
-0.018318355 -0.030016303 0.14114985 -0.013287842 -0.18343833 0.09459874 -0.022476941 -0.002852559
-0.11911765 -0.06582031 0.04935062 -0.11638108 -0.11032018 0.21642059 -0.14588699 -0.10385373
0.118127316 0.14276782 0.11710313 0.11985427 -0.008931428 0.0075681508 -0.061747223 0.045564413
-0.10291645 -0.24559805 -0.006174952 0.15313673 0.046215028 -0.15386096 0.1364488 0.11556652
0.06691033 -0.24847847 0.04782012 0.031420738 0.15432784 0.21280259 0.05211073 0.13602507
-0.12777919 0.23736385 0.095755994 0.18932146 0.06727484 -0.00033062696 0.14577723 0.17922556
-0.10087347 -0.1356476 -0.05092296 0.14907116 0.19821933 -0.2351008 -0.03634125 -0.17724666
-0.055021614 0.23216286 -0.17835978 -0.07262942 -0.035222113 0.19895926 -0.17937896 -0.09960741
-0.028668433 -0.21356636 -0.17703384 -0.18181714 -0.14072478 -0.21565172 -0.18914783 -0.105291486
0.17724171 0.20914531 0.0074955225 0.046034396 0.036923915 0.044220537 -0.19477016 0.20947826
-0.2280589 -0.16906857 -0.09870696 -0.008631498 -0.24125138 -0.21435454 0.07077402 -0.117405534
-0.116794825 -0.120518476 0.10816917 0.22206008 0.03688267 0.039456606 -0.1436123 -0.06743288
-0.12717646 0.005831331 0.017878145 0.061120957 0.03909546 -0.22149801 -0.010100067 -0.07176873
0.22745615 0.19205019 -0.08385834 0.10163188 -0.059405178 -0.14656541 0.14490187 0.10407683
0.11235964 -0.03698808 -0.14330783 0.059614122 0.21650472 -0.02416873 0.2047219 -0.05826792
0.14250976 0.13202608 -0.025121719 -0.102075964 -0.061431497 0.09140527 -0.012938976 -0.1562585
0.0956676 0.120577544 0.07891813 -0.16068175 0.03953737 0.2321339 0.13929555 -0.10403383
-0.22250083 -0.22213241 0.22461581 0.020241052 -0.058655173 0.2058669 -0.048678935 -0.22496948
0.073559076 -0.17108786 0.14710128 0.20323235 0.19089243 0.06860778 0.23607773 -0.24465635
-0.15849477 0.20483276 -0.23437387 -0.14509365 -0.1733158 -0.06910369 -0.032434314 0.098752946
0.06207511 -0.19147101 0.24355668 0.047644556 0.05348566 0.017651945 0.24115527 -0.2454229
-0.17217949 -0.2176927 -4.2021275e-05 -0.06411898 -0.05616656 0.19708732 0.18038812 -0.20439789
-0.15871298 0.18970552 -0.0058898926 0.19202924 -0.1588535 -0.03146133 0.08157605 0.060908556
0.073084354 0.05405712 -0.13297871 -0.14054501 0.22230443 0.24523687 0.11152303 0.029122114
-0.14446631 -0.23808199 0.18116853 0.20857626 0.18195772 -0.12287769 0.24872792 0.0008262396
0.23159528 0.20807192 0.17014387 0.0773685 0.213184 0.09753382 0.002288282 0.07581347
0.2052108 -0.012254357 -0.15048212 -0.1663309 0.0035186708 0.05291 -0.066426784 0.18052989
0.15118062 0.24099267 0.24350095 0.23323336 -0.013319701 -0.031255007 0.23401797 0.0032763183

layer1.bias f4 [128]
00000000: 52fd 27be 10c4 213d a886 363d 206b 11be
00000010: 641a 0ebe 5240 203e 0028 c839 e473 27be
00000020: ecfa 9dbd 80ba 10be c689 34be 42fc 30be
00000030: b65f 053e 1201 74be f82e 61be 581e a73d
00000040: 24f5 37be 12bd 1abe 9a9c 5a3e 7a69 27be
00000050: 884c e9bd 8042 65bb e88a cfbd a8cd ff3d
00000060: c6f9 083e d0e4 8d3c 1cbb e43d 3cc1 f3bd
00000070: 7e96 5bbe 7638 623e b849 713d c08c ae3d
00000080: b863 32be e8dd c1bd 84dc ad3d d6d5 063e
00000090: 7ea7 173e b8c6 163d 5094 4bbd 645d 133e
000000a0: 44c4 a2bd 0082 4a3e 1026 3fbd 6006 3dbe
000000b0: a8f2 e83d 1022 97bc 7c4b d6bd 1406 27be
000000c0: 00e6 3c3e 4036 ff3d 72c6 0e3e eac3 6f3e
000000d0: 6866 e5bd 9076 8a3c 80d6 2f3e 10b8 b6bd
000000e0: c0e1 0fbd bc44 e73d 2001 07bd dcdd 7d3e
000000f0: 9861 063e 2c30 36be a6fe 463e 6cb0 a33d
00000100: f249 21be 00b1 4e3b a095 28be 8080 5cbb
00000110: e047 ae3d 60a5 d6bd 70b5 cdbd ba7d 253e
00000120: 6057 393c 00ec 6d3d f025 943c 80af 99bd
00000130: 0054 dbbc f499 cc3d d0d0 cabd f40e c33d
00000140: 36fc 56be 2403 4c3e 4822 493e 8675 34be
00000150: 901f 4b3e 78ff 6c3e 8077 693d e067 a6bd
00000160: 7018 e53d caeb 34be b85e 08be 8818 c2bd
00000170: 20e6 98bc e011 253c 207f 1b3c 00e0 953d
00000180: 2636 1abe 3c23 473e a4c8 ab3d d674 3f3e
00000190: 94d4 cabd 3c42 da3d 46fe 0b3e 6c97 a13d
000001a0: 5ca2 06be 188a 1abe 68c0 20bd 2041 343d
000001b0: 90c6 8ebc 3e09 05be 887a 48be 3a0e 5fbe
000001c0: a055 6fbe e0a8 05bd 5c86 02be 806f 6c3d
000001d0: f6f4 103e ce30 16be f0b4 a8bd f02f e43c
000001e0: 9829 63bd f031 d5bc 42ad 403e 8a90 79be
000001f0: a01e 2b3e 601b dfbd eaa0 703e d08d debd
-0.16405228 0.03949362 0.044562012 -0.14201021 -0.13877255 0.15649536 0.00038176775 -0.16352803
-0.07713875 -0.14133644 -0.17630681 -0.17283729 0.13024792 -0.23828533 -0.21990573 0.081600845
-0.17964607 -0.15111187 0.21348801 -0.1634883 -0.1139155 -0.0034982264 -0.10133916 0.12490398
0.13376531 0.01732102 0.11168501 -0.11902091 -0.21444127 0.2209185 0.058908194 0.0852294
-0.17420852 -0.094661534 0.08489326 0.1316751 0.14809987 0.036810607 -0.04970199 0.14391094
-0.07947591 0.19776154 -0.04666716 -0.18459463 0.11374408 -0.01844886 -0.10463616 -0.16310912
0.18447113 0.12461519 0.13942888 0.23414579 -0.11201173 0.016902238 0.17171669 -0.08921826
-0.0351274 0.11292407 -0.032960057 0.24791664 0.13123167 -0.17791814 0.19433078 0.07992634
-0.15750864 0.0031538606 -0.16463327 -0.0033645928 0.08509803 -0.104807615 -0.10044372 0.16161242
0.011312336 0.058086395 0.018084496 -0.07504177 -0.026773453 0.09990302 -0.09903109 0.095243365
-0.20994648 0.19923073 0.19641984 -0.17622957 0.19836259 0.23144329 0.05699873 -0.08125281
0.11186302 -0.17668071 -0.13317382 -0.09477335 -0.01866442 0.0100750625 0.009490758 0.07318115
-0.15059718 0.19447035 0.083878785 0.18696913 -0.09903827 0.106571645 0.13671216 0.078902096
-0.13147873 -0.15091741 -0.039245993 0.04400742 -0.017428666 -0.12991807 -0.19577992 -0.21782771
-0.23372507 -0.032631755 -0.12746567 0.057723522 0.14155945 -0.14667055 -0.08237636 0.02785489
-0.05545959 -0.026024789 0.18816093 -0.24371544 0.16710901 -0.10893893 0.23498884 -0.10866892

layer2.weight f4 [128, 128]
00000000: be46 1a3b b6f4 46bd 7634 54bd 7949 0f3d
00000010: 29ca 0c3c 887a 973b 058f 073d 863e 8ebd
00000020: 6654 853d 0fa1 f53c 3187 afbd 4ff7 af3d
00000030: 478b 6ebd ca90 31bd 2333 a3bc 8afa 6fbc
00000040: 19eb 2b3d e5ff 313d fdbf 72bc a2e7 bb3c
00000050: 870b c7bc a09a 81bd c7a5 aebd c80d aabd
00000060: 75b9 a63d c4b9 8cbb fe1e d0bc 20c5 b1bb
00000070: 0dab 793d fde6 4d3d 1c66 40bd c443 25bd
00000080: fcdb 9cbd 730a b1bc 478b 6e3d 61ef 4cbd
00000090: 0ec7 4dbc bba5 3dbc ae2d 863d 931f db3c
000000a0: ee7f 463d 0012 cc3c a096 88bd 0b28 043d
000000b0: 7adf 42bd 6f27 aeba ec4a edbb f04b 653b
000000c0: 3536 133d b67c a3bd b342 59bd d9dc eabb
000000d0: 485b b1bd 2287 9ebc d055 af3d 32de af3b
000000e0: 1d15 65bd 17b9 9bbb 1aa6 013d 0ade 233c
000000f0: b590 c33c 2007 4cbd e80c 81bd 83a9 603d
00000100: 6bca 33bc 3928 6f3c fa45 753d 37de 83bd
00000110: f52c a2bd ae5d 9bbd 52a9 97bd e437 85bd
00000120: d646 2abd d808 2ebd cd19 6b3d 18ef 5e3d
00000130: 4b97 a13c b792 7c3d e951 423d 79b4 27bd
00000140: 1553 643c f0ce 70bd 201a b43d 584a 88bd
00000150: 9606 76bd af69 6fbd 9c98 e6bc f105 873d
00000160: b404 6abd 67ab e8bb aff9 afbc 80ca c13c
00000170: 94cf b33d aad7 68bd b0ae 89bd 5a36 c73c
00000180: 3957 5ebc 172a be3c 1edd 503d 18bf 013d
00000190: 0326 debc ca81 4cbd 1e47 403d bf80 fbbc
000001a0: 0e87 b0bd a250 91bd 9a52 06ba f271 65bd
000001b0: 6a49 4d3d 0554 a73c 6236 173b 568f 983d
000001c0: 6f16 a83d 0d56 8bbd de7a 033d 0dcb 37bd
000001d0: c8c6 a53b c6c8 a03d e0c4 c8bc 2776 463c
000001e0: 94b1 8c3d 9971 853d 8e6b 1c3d 5cb4 52bd
000001f0: 9065 1bbd 0cbb 0c3c 6f2b 863d 57bf 24bd
00000200: c332 b1bd c5b9 a13d d706 e1bc 4318 853d
00000210: 90ce 98b9 f42f 7c3d de08 8ebc f3d5 daba
00000220: 6da5 183d d5b5 3e3b fd4b a7bd cc7b 87bd
00000230: dc60 ea3c 080b 603d 0390 a7bd 5abe b03d
00000240: 5b6a 2cbd 6153 683d 868d 87bd 8c75 633d
00000250: 052d 12bd cceb 22bd 9264 adbd c3a5 37bd
00000260: 1e61 abbd 60c1 823b 139c b9bc a7f1 ab3d
00000270: e429 753d a43c 23bc f327 353c 9483 7a3b
00000280: fa50 97bd e209 3c3d d697 92bc 919a 463b
00000290: bf57 463c b152 303d 1b65 52bd f92e 9fbd
000002a0: bb53 de3b 274e b33d ee7f 03bd 4f1c 863c
000002b0: fe02 333d f1b3 5e3d 568e ffbc a24e a0bd
000002c0: 1d65 313d 518d 8e3c 1066 18bd b2d7 6fbd
000002d0: 8153 4abd 78a9 25bd bd30 c73b b651 423c
000002e0: b404 3e3a 1105 27bd 8571 7d3d 7851 7bbd
000002f0: d6f5 abbd c4f7 173d 3f5e a6bd 2020 7dbd
00000300: a367 a5bd 4843 29bc dbc8 47bb bc5b 31bd
00000310: 766b 63bb ea42 82bc 6d84 1c3d 523e 8c3d
00000320: 608b 66bd 63f7 a1bd f60e 04bd e645 a2bd
00000330: d9f7 773d 6878 ce3c cc13 ecbc 2d04 393c
00000340: 2ab9 8d3d 2ce9 ab3d daf9 393c 24f0 abbd
00000350: 0688 0a3d 89d9 943d b23d 11bd 2ae9 a4bd
00000360: fe2d 803d 25d2 ae3d e81b 1a3d c7e7 abbd
00000370: 672d ae3c 66af 9dbc a5dd bb3c 2013 80b7
00000380: a5fc 863d f243 923d 96e3 81bc 8cc0 7e3c
00000390: 88e3 703c 7494 36bd 7d89 a8bd f081 603d
000003a0: e4ea 35bc e4d3 2c3d ef3b 683d c1e8 913d
000003b0: 1eb6 473b 26bc 99bb b471 5a3d ecaa 813d
000003c0: 516c 53bd 3630 833b a71f 48bb 6ac1 9cbc
000003d0: 3f1f a5bd 4441 7c3d 427e 253c 67f7 c5bc
000003e0: 86cf afbb 5cfa 133b afea 2abd 8d35 18bd
000003f0: 1019 5abd eb51 0cbd eecb 8c3c a924 783c
0.00235407 -0.04857322 -0.051807843 0.03498218 0.008593121 0.004622761 0.03309538 -0.06945519
0.06510238 0.029984025 -0.085707076 0.08592092 -0.058238294 -0.043350972 -0.019921845 -0.0146471355
0.041972253 0.04345693 -0.014816281 0.0229376 -0.024297489 -0.063283205 -0.08527713 -0.0830341
0.08140842 -0.004294606 -0.025405403 -0.0054251105 0.060954142 0.050269116 -0.04697238 -0.04034783
-0.07659146 -0.021611428 0.058238294 -0.050032977 -0.012559665 -0.011575158 0.065516815 0.026748454
0.048461847 0.024910927 -0.066693544 0.03226475 -0.047576405 -0.0013286899 -0.0072415974 0.003498789
0.035940368 -0.07982771 -0.053042125 -0.0071674404 -0.08659989 -0.019351546 0.08561289 0.005367064
-0.05592834 -0.004752289 0.031652547 0.010001669 0.023872713 -0.049811482 -0.0630129 0.05484916
-0.010973553 0.014596992 0.059881188 -0.064388685 -0.07918731 -0.07586227 -0.07405342 -0.06504801
-0.04157146 -0.042488903 0.057397652 0.054427236 0.019725462 0.061663356 0.047441397 -0.040943597
0.013935824 -0.0587911 0.087940454 -0.06654805 -0.060064875 -0.058450397 -0.028148942 0.0659293
-0.05713339 -0.007100511 -0.021481363 0.02365613 0.08779827 -0.0568463 -0.06722772 0.024317909
-0.0135706 0.02321343 0.050992124 0.03167638 -0.027117735 -0.049928464 0.046942823 -0.03070104
-0.0861951 -0.070954576 -0.0005124003 -0.05601687 0.05011884 0.020425806 0.0023073186 0.07449214
0.08207404 -0.06803522 0.032099597 -0.04487138 0.005059097 0.078507945 -0.02450794 0.012113131
0.06869808 0.06515808 0.03818851 -0.051441535 -0.037938654 0.008589517 0.06551253 -0.04022154
-0.0865226 0.07896761 -0.027469082 0.06498768 -0.000291456 0.06156917 -0.017338213 -0.0016695842
0.037267137 0.002910008 -0.081687905 -0.06615409 0.02861064 0.05469802 -0.08181765 0.08630057
-0.042093616 0.05672014 -0.0661879 0.055532023 -0.035687465 -0.039775655 -0.08466448 -0.044835817
-0.08368133 0.0039903373 -0.02265743 0.08395701 0.059854403 -0.009963188 0.011056888 0.00382254
-0.07388492 0.045907862 -0.017894667 0.003030453 0.012105881 0.04304761 -0.051365953 -0.07772631
0.006784884 0.08755141 -0.032104425 0.01637092 0.043704025 0.054370824 -0.0311958 -0.07827498
0.04330932 0.01740137 -0.03720671 -0.058555312 -0.04939604 -0.04044482 0.006078808 0.011860302
0.00072486256 -0.040776316 0.06187584 -0.06135699 -0.08396499 0.037101522 -0.08123445 -0.061798215
-0.08076408 -0.0103309825 -0.003048471 -0.043300375 -0.0034701503 -0.015901048 0.03821223 0.06847824
-0.056285262 -0.079085134 -0.03224083 -0.07923488 0.0605391 0.025203899 -0.028818034 0.0112924995
0.06920083 0.083940834 0.011351073 -0.083954126 0.03382113 0.07268054 -0.035459228 -0.08052285
0.06258772 0.08536176 0.03762427 -0.083938174 0.021261884 -0.019248676 0.022932837 -1.5267695e-05
0.06591157 0.07141866 -0.015855592 0.015548836 0.014702685 -0.04457517 -0.08229349 0.054811418
-0.011103366 0.042194262 0.056697782 0.071244724 0.003047354 -0.0046916185 0.053331092 0.06331429
-0.05161697 0.00400355 -0.0030536444 -0.019135196 -0.080626 0.06158568 0.010100903 -0.024165822
-0.005365315 0.0022579646 -0.041727718 -0.037160445 -0.053246558 -0.03425781 0.017187085 0.015145459

layer2.bias f4 [128]
00000000: 3a67 593d 6b37 423c 3556 80bd 45a0 4e3d
00000010: 14d1 92bd 9b3b afbc 0c24 4d3d e94a c1bc
00000020: ab2a ac3d 6852 90bd 9056 d13a 3093 743d
00000030: ab41 21bd 0de6 0bbd 65a4 b3bd 6fbd a23d
00000040: 7d4e c2ba f269 803c 803a 0d3c 1691 2dbd
00000050: cb00 983d 4eb4 9c3d f125 8b3c 4ba4 8d3d
00000060: 5e54 b3bd 4438 8ebd aa6a acbc 7408 a83d
00000070: 07d1 fa3c 8fdc fbbb 1e22 42bb 961d 703c
00000080: f3c0 f9bc d984 89bd 2217 9e3d 61a2 68bd
00000090: f3a2 383c 27da b23d 4718 a03d e076 cbbc
000000a0: e02e aebd 7dc6 5dbc 41eb 0bbd 906f 913d
000000b0: 806e aebc ffd5 7dbd 92ff 943c 9bd0 ab3c
000000c0: d4e6 52bd fb03 1dbd feaf a83d 91ef 04bd
000000d0: cc40 a83d dac2 1c3d 6dc8 863d 9fa6 5d3c
000000e0: 360e 04bd 30e3 d1bb 01ee a7bd 5f00 acbd
000000f0: 3cde 5c3d 6942 afbd c81f 713d d6f6 893d
00000100: 8fcc 1fbc eb0e d23c 471f 98bd fe95 98ba
00000110: 6d1f 30bb ff6d 443d 6d6b 783d 42cb bcbc
00000120: c9a4 a63d 9931 33bd 8a97 c23c 3aec 5dbd
00000130: db35 a33d 2429 573b 9259 f6bc 7234 d13c
00000140: 614b bc3c 4be6 093d 7b56 893d 7722 38bd
00000150: d0e6 96bc 85b0 2fbd d556 a83d b939 8abd
00000160: 8b6b 16bd a5bf 87bd 3e1f 2d3d de40 003c
00000170: ab63 893d f429 853d 3ec7 bf3c b438 503d
00000180: 9108 b33d 54e5 893d 7625 3cbb ecbb c03c
00000190: e296 7ebd e5fe b03c 9c27 093d ed45 203d
000001a0: 9af3 aabd 6620 5ebd 6a7f 7c3d 8025 ae3d
000001b0: 3f60 083c 167e 93bd 5a66 803d 10c9 54bd
000001c0: 4e87 603d 8c27 e0bc fe08 9e3d d335 16bd
000001d0: d2e6 b13d 0b0b b6bc 858f b0bd a5a0 313d
000001e0: 2b43 e93c 233a 46bd bdc4 96bd a08f 5a3d
000001f0: b91e 81bd f2db 26bd 1945 a73d 268b c1bc
0.05307696 0.011854033 -0.06266443 0.050445814 -0.07168785 -0.021390727 0.050083205 -0.02359529
0.08406576 -0.07046968 0.0015971232 0.05971068 -0.039369266 -0.03415494 -0.0877159 0.07946288
-0.0014824417 0.015675519 0.0086199045 -0.042374693 0.07422026 0.07651578 0.016985865 0.06916102
-0.08756326 -0.069443256 -0.021046955 0.08204737 0.03061725 -0.0076862047 -0.0029622386 0.014655491
-0.030487513 -0.06714792 0.07719256 -0.05679548 0.011269319 0.087330155 0.078171305 -0.024836957
-0.085050344 -0.013536093 -0.034159902 0.07101357 -0.021292925 -0.06197166 0.018188272 0.020973494
-0.051489666 -0.038333874 0.08236693 -0.03245503 0.08215484 0.038271762 0.06581197 0.013528495
-0.032240115 -0.0064052567 -0.081996925 -0.08398508 0.053922877 -0.085575886 0.0588682 0.06736533
-0.00975336 0.025641879 -0.07427841 -0.0011641381 -0.00268742 0.047956463 0.060649324 -0.02304614
0.08136899 -0.043748472 0.0237539 -0.05418036 0.079692565 0.0032830918 -0.030072007 0.025537703
0.022985162 0.03366689 0.06705948 -0.044954743 -0.018420607 -0.04289295 0.08219687 -0.06749291
-0.036723655 -0.0662835 0.042266123 0.007827966 0.06708463 0.065021425 0.023410436 0.050835326
0.08741868 0.06733194 -0.0028708852 0.023527108 -0.06215561 0.021605918 0.03348504 0.039129186
-0.083472446 -0.054230116 0.06164495 0.08503246 0.008323728 -0.07201783 0.06269522 -0.05194956
0.054816537 -0.027362607 0.07716559 -0.036672425 0.086866036 -0.022222063 -0.08621124 0.043366093
0.028474411 -0.048395287 -0.073617436 0.053359628 -0.06304688 -0.0407371 0.08167476 -0.023625921
