custom_maze/static/custom_maze/run/room248878/trained_model.pth (torch, 146386 bytes, 12 tensors)

layer1.weight f4 [128, 4]
00000000: 8811 f83e 98db 2bbe 1875 a3bd c07e a93c
00000010: a07f ccbc d8d3 a13e 404d 09bd eabb 8d3e
00000020: 1052 39be a073 b8bc 4016 6a3c c086 a03e
00000030: e0cb cc3d c852 013e d040 aa3d 303c 8ebd
00000040: c4c3 8abe 80b1 b4bc 7cb7 34be b025 7fbe
00000050: 6e04 e3be 0030 c2bd 60cc c1be 440d e63e
00000060: 10b0 06be 9644 cc3e d041 bebd ae73 cc3e
00000070: 50a1 e3bd 80e7 80bb 563b c13e 864e f9be
00000080: 6030 453e b06b 83be 0050 2a3b 2a2b dc3e
00000090: 8834 6f3e 7825 27be e86e 243e 008e f03a
000000a0: fac4 843e fa51 a3be 54ba 01be 20d3 de3d
000000b0: fcc6 49be 442b 62be 84e8 19be c843 c83d
000000c0: b011 d33d 0098 ac39 ea7a dc3e 3098 4d3e
000000d0: cc12 ffbe c063 6e3d a6a0 813e 525e 9c3e
000000e0: 504c 0c3e 1205 f23e 180d 15be 700a d13e
000000f0: e84f 423e 80b3 ef3d 2832 c9be f46a 1d3e
00000100: f077 23bd f08a 9fbd f0ad 193d ba8d f9be
00000110: fede eb3e e0fc 9c3e 74c1 923e 9c1b a3be
00000120: b41f fa3e fcb1 5ebe d4ef 763e aab0 f6be
00000130: 30b1 083d b45c ec3e ec1c 9fbe 006f 34be
00000140: e071 4cbe 8039 743e 3240 dc3e 981c 50be
00000150: 3ed1 b0be aca2 e2be 9cda 213e b6af cc3e
00000160: 24e6 64be 4492 533e 6c18 0d3e 94f7 b3be
00000170: ce61 a53e 60de 1ebe 54f2 b83e f80e 25be
00000180: 665a fa3e 0ac5 bdbe e6af f23e fa06 93be
00000190: f8b7 023e 88a5 1e3e 82ae c1be 8c78 c0be
000001a0: f015 71bd ea06 8abe 86fd b3be de19 afbe
000001b0: c83f ef3e f627 b1be 3495 e83e 3058 80bd
000001c0: ccd2 abbe 4cec fe3e a82b 0d3e 5cde fb3e
000001d0: 483f 4bbe e0c0 d5bd 8815 e1bd fce7 243e
000001e0: 405c f13e 305e ef3e 02b8 b33e 9cf7 783e
000001f0: 0af6 b83e 18bb a7be 98ae f23e d885 c93e
00000200: a2d8 e2be c038 73bd 1828 cd3d 14fd 61be
00000210: c0e6 063d d073 f3bd 5201 b73e e01a e7be
00000220: c027 4f3d c2c1 da3e 04aa 47be 88f8 3fbe
00000230: f0ba bd3d fab2 83be 500a cabd 0e60 8f3e
00000240: f816 cebe 58c7 cb3e 3495 343e dc5b 6e3e
00000250: 7aee a23e 88e0 40be b80f b93d aa61 82be
00000260: 1415 06be 4a4b bebe a0ce 0e3e c088 153e
00000270: b4ed c0be 9438 0f3e 66bf 89be 8c27 44be
00000280: 7afb 87be d0e1 5e3e a484 37be 28f8 afbd
00000290: 7c89 c73e 7825 e73d 14dc 20be a084 a4bc
000002a0: 18ad d0be e877 663e 5022 debe 009a a6ba
000002b0: 96e8 ad3e a0d9 82bd e0d5 75bd f262 95be
000002c0: 523b 8abe 3899 ccbd 80dc 5f3e a80f 073e
000002d0: f447 7a3e 7ae9 d23e 1098 663d 3855 0c3e
000002e0: 001f b33d feff 8cbe 82e1 a63e d8a7 993d
000002f0: 8c76 fa3e a2e6 a8be 906f abbe 64ff 373e
00000300: 5881 12be 40f8 353d 942d d4be 66ee 83be
00000310: ac1b 8abe 2e4c 953e d00e ffbd 5ed6 afbe
00000320: c651 a6be 56e0 c6be aca3 c4be c8b1 c4be
00000330: 9e23 a13e 30a5 28be 90b5 7cbe 400d 453d
00000340: 1c64 10be 5033 f23d 4866 963e 30b1 ddbd
00000350: 143e 19be 009e 1a3b 52aa a6be 00a1 ffbc
00000360: 9217 ecbe ecca d73e 50d6 933e 2a5d cc3e
00000370: 7478 a83e 763b ad3e e2a0 ac3e 5047 823d
00000380: 726f b13e a277 a3be b611 803e 50f6 7fbe
00000390: 4e70 aabe 769e 89be caa6 9fbe 04ff 343e
000003a0: 743f 253e 248b 04be e0de 79be 567a 9e3e
000003b0: 80d3 073c 7416 873e ae27 8b3e a03d d23e
000003c0: 4a9c fabe 7c36 74be e0d1 d8bd d0af bebe
000003d0: 3224 e73e 20d2 d63e 4463 cc3e 14db c43e
000003e0: f427 383e a6a7 8fbe c0b1 ed3e a0ed 79bd
000003f0: 609d 2abe 504b a7bd ba2f a3be 00f8 053c
0.48450875 -0.16782987 -0.07981318 0.020690322 -0.0249632 0.31606936 -0.033520937 0.2768243
-0.1809771 -0.022516072 0.014287531 0.31352806 0.099998236 0.12629235 0.08313143 -0.069450736
-0.27102482 -0.022057295 -0.17648119 -0.2491672 -0.44339317 -0.094818115 -0.37851238 0.44931996
-0.131531 0.39896077 -0.092898965 0.39932007 -0.11114752 -0.003933847 0.37740582 -0.4869272
0.19256735 -0.25668097 0.0025987625 0.43001682 0.23359883 -0.16322887 0.16057932 0.0018352866
0.2593153 -0.3189848 -0.12668735 0.10880113 -0.19704813 -0.22086817 -0.15030104 0.09778553
0.10306108 0.00032919645 0.43062526 0.20077586 -0.49819028 0.058200598 0.25317878 0.3054071
0.13700986 0.47269493 -0.14555776 0.40828276 0.18975794 0.11704159 -0.3929608 0.1537283
-0.039909303 -0.07790172 0.037519395 -0.4874094 0.46068567 0.30661678 0.28663218 -0.31857002
0.48852313 -0.21747583 0.24114925 -0.4818166 0.033372104 0.46164477 -0.31076753 -0.17620468
-0.19965315 0.2385006 0.43017727 -0.20323408 -0.3453464 -0.44264734 0.15806049 0.39977807
-0.22353417 0.20661265 0.13778847 -0.35149825 0.32301182 -0.15514517 0.36122382 -0.16118991
0.48897094 -0.3706439 0.47399825 -0.2871626 0.12765491 0.15492833 -0.3782845 -0.3759197
-0.05885881 -0.269584 -0.3515436 -0.34199423 0.4672835 -0.346008 0.45426333 -0.062668204
-0.33559263 0.49789655 0.13786185 0.49193084 -0.19848359 -0.104371786 -0.10990435 0.1610412
0.47140694 0.46751547 0.35101324 0.24313205 0.36125213 -0.3275993 0.4739883 0.39359927
-0.44305903 -0.059380293 0.10017413 -0.22069198 0.032934904 -0.11887324 0.35743195 -0.45137691
0.050575018 0.4272595 -0.1949845 -0.18747151 0.09264171 -0.25722486 -0.09865248 0.2800297
-0.402519 0.39800525 0.17635041 0.23277229 0.31822568 -0.18835652 0.09036201 -0.25465137
-0.13093978 -0.37166816 0.13946009 0.14602947 -0.37681353 0.13986427 -0.26903838 -0.19155711
-0.2655905 0.21765828 -0.17921692 -0.08592254 0.3897208 0.112864435 -0.15708953 -0.020082772
-0.4075706 0.22506678 -0.43385553 -0.001271069 0.3396651 -0.06389165 -0.06001842 -0.29177052
-0.26998383 -0.09990162 0.21861458 0.13189566 0.2444151 0.41193753 0.05629736 0.13704383
0.08746147 -0.27539057 0.32593924 0.07502717 0.4891857 -0.3298846 -0.33483553 0.17968518
-0.14307153 0.044426203 -0.41441023 -0.2576782 -0.26974237 0.29159683 -0.12453997 -0.34343237
-0.32484263 -0.3884303 -0.38406122 -0.38416886 0.31472486 -0.16469264 -0.24678636 0.04810834
-0.14100689 0.11826193 0.2937491 -0.108248115 -0.14965087 0.002359271 -0.3255182 -0.0312047
-0.46111733 0.42147005 0.28874445 0.3991483 0.32904398 0.33834428 0.33716494 0.06361258
0.3465534 -0.3192721 0.25013512 -0.24996305 -0.33288807 -0.2687871 -0.31181937 0.17675406
0.16137487 -0.12943703 -0.24401426 0.3095271 0.008290172 0.26384318 0.2717871 0.4106264
-0.48947364 -0.23848909 -0.105869055 -0.3724351 0.45144802 0.41957188 0.39919484 0.38448393
0.17983991 -0.28057593 0.46424675 -0.061017632 -0.16661596 -0.081686616 -0.3187235 0.008176804

layer1.bias f4 [128]
00000000: 0031 523c b0bd 37bd 48d7 5e3e fca8 8fbe
00000010: 16b9 cc3e 5e19 e3be 465a 943e f871 c93d
00000020: d63d f23e 484b 1fbe 6862 8cbe 222f cf3e
00000030: e001 c6bd 54c3 ca3e f657 bf3e 3c3b 81be
00000040: f842 39be 16d4 a2be 7820 a73d a2dc f0be
00000050: d21c cb3e 30f2 d73e 50cc 013d 24b2 eb3e
00000060: e888 fdbe 7642 afbe 50fd bcbe 941c 163e
00000070: 1849 d43e 3cc8 863e e288 f13e 4413 3c3e
00000080: badc f7be 9e8b b0be 246c 19be 0c2c 633e
00000090: 80a0 b63d 54ac b43e 3407 903e be15 e5be
000000a0: e05c c73c d053 8bbe 2cd9 89be 1ef8 9a3e
000000b0: da6c f9be c813 ca3d 786f fbbe a4f7 84be
000000c0: d85e fc3d 103a 00be 5cd1 fb3e 18f5 c0be
000000d0: a61d 9c3e 10fe e13e c8a3 6d3e 5c0c 90be
000000e0: 18df 813e 3021 003e 3825 20be 6a43 94be
000000f0: 20d2 f0bd 8cd6 3fbe 24f6 6c3e 1ad7 8c3e
00000100: aabd ce3e 82d8 ea3e bcd7 1e3e 507a 34bd
00000110: 9cea 0d3e ec1e 19be ac6b cc3e dc3c b33e
00000120: a89d 9e3d b8ab eb3d 20ad ebbc 985e 833e
00000130: 0c08 f6be e8e3 353e 98fe a6bd 98ef e53e
00000140: c41a 5b3e 8eb6 8ebe 0698 c6be 6803 203e
00000150: 7085 c1be 86ac eebe c289 edbe c6eb b4be
00000160: feaa dbbe ae2f 903e 3428 f93e 3848 0b3e
00000170: 661f 87be 508a f53e 6ccf 39be 2816 5c3e
00000180: c64d cf3e 00f7 9ebe dc46 42be d028 01be
00000190: 282a 623e 7c8a 50be 40f5 bfbc a0a7 443e
000001a0: 9ced 4d3e 985f 5ebe 320a a8be a892 8e3d
000001b0: 6063 c43d b027 63bd b07f 7ebd 5059 c5bd
000001c0: de91 a33e b0a5 003e be22 f2be 0a3a b1be
000001d0: 40e2 94bc 40f1 90bd e02e acbd f48d e2be
000001e0: dc8a 853e e2b8 f33e e040 b4be 7e4e f6be
000001f0: 80ef 7b3c 86b3 e83e 20ae e8bc 7238 943e
0.012829065 -0.044858634 0.21761811 -0.28058612 0.3998496 -0.4435529 0.28975123 0.09836191
0.47312802 -0.15556061 -0.27418828 0.40465647 -0.096683264 0.3960215 0.37371796 -0.25240505
-0.18091953 -0.31802434 0.0816049 -0.4704333 0.39670426 0.42176962 0.03168899 0.46034348
-0.49518514 -0.34230393 -0.36912012 0.14659339 0.41462016 0.26324642 0.47174746 0.18366724
-0.48410589 -0.3448152 -0.14982659 0.22184771 0.08917332 0.35287726 0.28130496 -0.4474315
0.024336278 -0.2721238 -0.26923501 0.30267423 -0.4871586 0.09867054 -0.4910848 -0.25970185
0.123227775 -0.12522149 0.49183166 -0.37686992 0.3049137 0.44139147 0.23207009 -0.2813443
0.2536552 0.1251266 -0.15639198 -0.28957683 -0.11758828 -0.18734187 0.2314077 0.2750786
0.40379077 0.45868307 0.15511984 -0.04406196 0.13859028 -0.14953202 0.39925897 0.3500737
0.07744914 0.11507362 -0.028769076 0.25658107 -0.48053014 0.1776272 -0.08154029 0.44909358
0.21396929 -0.27873653 -0.3878786 0.156263 -0.37797117 -0.46616 -0.46394163 -0.3533613
-0.42903894 0.28161377 0.48663485 0.13601768 -0.26391143 0.47957087 -0.18145531 0.21492827
0.40489024 -0.3104782 -0.18972343 -0.12613225 0.22086394 -0.20365328 -0.023432374 0.19204569
0.20110172 -0.21716154 -0.32820278 0.06961566 0.09589267 -0.05545777 -0.06213349 -0.09636176
0.31947225 0.12563205 -0.4729213 -0.34614593 -0.01817429 -0.07077265 -0.08407378 -0.44248927
0.26082504 0.47601992 -0.35205746 -0.4810676 0.0153769255 0.45449466 -0.028403342 0.28949314

layer2.weight f4 [128, 128]
00000000: 8816 ab3d a21d a63d 31f1 28bd 68e6 503d
00000010: 6864 31bd 5621 96bd 3495 97bd 820d 36bd
00000020: ba59 0f3d caa8 11bd b63d 6dbc a996 e73c
00000030: cb5e 86bd 3c8b 0b3d 855f 883d 4d72 a13b
00000040: 09ba 8fbb 6f94 c0bc 3e28 b1bd b482 c63a
00000050: acc6 cfbc f6b0 933d 5612 25bc 93f8 3fbd
00000060: b9b0 13bd 992d 80bc 3629 a4bb 5966 5a3d
00000070: cc31 763c 8fbd b2bd 28f4 7b3b 9d50 58bd
00000080: 1e45 40bd 2b5d 51bd 821c 7cbc bc36 11bd
00000090: e438 223d bbc7 f5bc 3903 a8bd e9dd 783d
000000a0: 903c 08bd 3010 11bd 5ca3 91bd df66 eebc
000000b0: a0ad 3ebd f13b 65bd ee73 983d bee2 8fbd
000000c0: e0b5 1fbd ed6c 5dbd 936b 6fbc cdb9 483b
000000d0: 68dd 323d f38d a9bd 418d d5bb 1ceb f9bc
000000e0: 1982 923d ad43 b63c fe48 34bd 0427 8abd
000000f0: c079 a03d 0ff2 ae3d 4626 fc3b b3a1 0e3d
00000100: 7e16 333d 2ef4 a83d b9b8 023d 2a9d a0bd
00000110: 9f1c efbc a0be 36bc 026c 03bd 7585 933d
00000120: d495 37bd 489f f33c 5270 37bd faa1 9b3c
00000130: 0cde f1bc 7b39 253d 51fd 773d 9258 58bd
00000140: ab04 5ebc 0d8d 92bd fa15 bb3c 2eba 0dbd
00000150: e183 58bd ce90 9dbd 157b 92bd fd00 363c
00000160: a9dd a53d 7617 6dbd f16d 86bd bc73 8ebd
00000170: da27 8f3d c098 873d 904b 95bb ac55 94bd
00000180: 246e 1ebd 0469 1c3d 86ac 463d be97 80bd
00000190: 7f99 ab3d d2f2 a1bc 2ccd 823d 545f 803d
000001a0: 3753 6cbc 8161 91bb 6b5a 6c3d 6217 a33d
000001b0: bcc2 583b 5a26 abbd e120 4abd 1b09 13bc
000001c0: 6a00 923d c7b4 4e3c a9d3 7aba 84f3 a73d
000001d0: 18eb 853d 4958 90bd 7a26 883d db59 b33d
000001e0: 55b7 ab3d 2c1b 6dbd c05e c23a 9a24 abbd
000001f0: 5d98 9bbd 0a98 28bd 8aa0 153d d09e 95bd
00000200: 388e 043d 979b c5bc 971a 423d 5937 29bc
00000210: 6cb5 8ebd 5d88 853d 1334 d03c bc70 713b
00000220: ae32 a4bd d008 7d3c 0c6c b23d 1cd6 113d
00000230: 1cdf 68bb 0bcf 7ebc 7d67 593b 67cf ad3a
00000240: fe15 813d cfdd 1abd fbb8 36bd 7fe0 7abd
00000250: 1e4e 3fbd c6a8 80bd db0c 793c 12ba 91bc
00000260: ad89 65bd aa72 3fbd d406 f43c 0a56 ae3d
00000270: 61b3 7b3d 2819 44bd 4858 06bd 2282 803d
00000280: 9c81 eabc 2977 563d 3e7f 1abd dfc7 ae3d
00000290: 44b1 833d 19db 93bd 3b97 853d bf1a 423d
000002a0: a221 50bd 3be2 a5bd 6dc4 883d a5ee e8bc
000002b0: fa73 653c 3f50 0d3d d7a6 cdbb 9ece 6ebd
000002c0: 0425 1f3b e185 52bd fa89 a6bd 41a4 a73b
000002d0: 4224 ab3d 96ba 663d 62de 443d d3e2 7dbc
000002e0: 77d9 27ba f2c5 74bd 5898 16bc 635a 893b
000002f0: e02b 17bd 9c7e 843d c531 3abd c430 98bc
00000300: e73e 1b3d eb4c 9c3d fa09 ccb9 18f5 4b3d
00000310: 0e30 b63b 3a85 02bc 2b52 e53c 7962 2b3d
00000320: 17f9 3b3c 5372 0abd 7d5f 1abd e98e a9bd
00000330: 8b61 363d 8e86 cdbc 133b 44bd a030 893c
00000340: c135 bbbb f925 ad3d 4500 1dbd 0ffc f03c
00000350: 8e10 733d 6da8 6d3d 9d66 a4bd a279 20bd
00000360: 7996 2cbd 034f 99bc d52e 923d d9b4 9a3d
00000370: e085 7abb c8a1 ab3c 1bf7 45bd 4484 80bc
00000380: d774 95bb feac 923d fc7e b23d 003b e73b
00000390: de5c 693d a80a 8c3d c597 4f3d 9b2f 953d
000003a0: 8f2c 463d ab96 863d 262b 8d3d 2016 7bbd
000003b0: 41f6 713d d1c7 8cbb 1d38 fbbc 2b6f 9fbd
000003c0: 66e0 ac3d 91d8 43bd c1e8 0a3b 6aa9 a63d
000003d0: 30bd 45bd 19af 5f3b e69d a33d 7502 343c
000003e0: 187c a8bd 95fa 91bd 57c4 4f3d 328c 8ebd
000003f0: 851b 85bc 10f3 473c 2808 17bd d9f1 dc3c
0.08353907 0.08111121 -0.041245643 0.051000983 -0.043308645 -0.07330577 -0.07401505 -0.044446476
0.03499768 -0.03556136 -0.014480045 0.028270083 -0.06561049 0.03406833 0.06658844 0.004926956
-0.004386191 -0.023508279 -0.08650254 0.0015145154 -0.025363289 0.07211487 -0.010075172 -0.04686792
-0.036057208 -0.015646743 -0.0050097955 0.053320263 0.015026521 -0.08727562 0.003844509 -0.052811254
-0.046940915 -0.051114243 -0.015387656 -0.03545259 0.039605036 -0.030002465 -0.0820374 0.060758505
-0.033260882 -0.03541583 -0.071112365 -0.029101787 -0.0465523 -0.055965368 0.07443987 -0.070256695
-0.03899181 -0.054058958 -0.01461305 0.0030628324 0.04366818 -0.08279028 -0.006517083 -0.030507617
0.071537204 0.022249067 -0.044014923 -0.06745723 0.07835722 0.08542263 0.0076949922 0.034822177
0.043722622 0.082496986 0.031914447 -0.07842477 -0.029188452 -0.011153847 -0.032085426 0.07203189
-0.04482062 0.029739037 -0.04478485 0.018998135 -0.029524826 0.04033802 0.060544316 -0.052818842
-0.013550918 -0.071558096 0.022837628 -0.034601383 -0.052860145 -0.07693635 -0.07152382 0.011108634
0.08098919 -0.057883702 -0.065639384 -0.06955668 0.06990023 0.066209316 -0.004556127 -0.07242903
-0.038679257 0.03818609 0.048504375 -0.062789425 0.083788864 -0.019769106 0.0638679 0.062681824
-0.014424137 -0.004436672 0.057703417 0.07963444 0.0033075055 -0.08356924 -0.049347762 -0.008974339
0.07128985 0.012616343 -0.0009568283 0.08200744 0.06538981 -0.07048089 0.06647964 0.08757373
0.08384577 -0.05788724 0.0014829263 -0.083565906 -0.0759742 -0.04116062 0.036530055 -0.07305682
0.032362193 -0.024122043 0.04738864 -0.010328137 -0.06968197 0.0652015 0.025415456 0.0036840877
-0.08017479 0.015443996 0.087120146 0.03560458 -0.0035533374 -0.015552293 0.0033173256 0.0013260663
0.06303023 -0.03780919 -0.044610005 -0.061249252 -0.046705358 -0.06282191 0.015200819 -0.01778892
-0.0560395 -0.04674021 0.029788412 0.085125044 0.061450366 -0.047875553 -0.032799035 0.06274821
-0.028626256 0.052359734 -0.037719004 0.08534216 0.06430295 -0.07219524 0.065229855 0.04738879
-0.050813325 -0.08099791 0.0667809 -0.028434107 0.014004702 0.034500357 -0.0062759924 -0.058302514
0.0024283538 -0.051397208 -0.08131786 0.005116016 0.08356525 0.056330286 0.048063643 -0.015495974
-0.0006402949 -0.059759088 -0.009191595 0.004191683 -0.036907077 0.06469461 -0.04545762 -0.01857794
0.037901785 0.076318584 -0.00038917345 0.049794286 0.005559928 -0.007966334 0.027993282 0.041841958
0.011472962 -0.033800434 -0.03768872 -0.08279211 0.044526618 -0.025088575 -0.0479079 0.016746819
-0.005713195 0.08454508 -0.038330335 0.029417066 0.05934196 0.05802195 -0.080273844 -0.039178498
-0.04213569 -0.018714434 0.07137839 0.07554025 -0.0038226768 0.020951167 -0.04833136 -0.01568807
-0.0045610475 0.07161902 0.087156266 0.007056594 0.05697333 0.0683797 0.050681848 0.07284471
0.048382338 0.065717064 0.068929955 -0.061300397 0.059072737 -0.004296281 -0.030666405 -0.077848755
0.08441238 -0.047813956 0.002119586 0.08137782 -0.048276126 0.0034131466 0.07989101 0.010986914
-0.08226794 -0.07127873 0.050724354 -0.06960334 -0.016248474 0.012203947 -0.036873013 0.02697079

layer2.bias f4 [128]
00000000: 7c6a b33d 11b6 46bd 796e 2fba b405 5abb
00000010: 939f 313d 2aad 28bd b084 94bb 6658 48bc
00000020: 95da 313d 1dcd 33bd d222 e43c 86a5 8a3d
00000030: 1d32 aa3d df6f a5bc 7c02 093c 88fd b3bd
00000040: 30e5 8fbd f2c6 9fbc 7fc3 ae3d 5c97 90bc
00000050: 14ff a23c 8599 ccbc ed1a a23d afe4 c13c
00000060: 0a3e 633d 0040 aebd 1693 383d 12c3 a8bd
00000070: 6721 823d b540 7fbc dae6 7cbd a2ba 4abd
00000080: 477a 0c3d 7327 1fbc 75ef d83a fc01 82bd
00000090: cd7e 01bc 0dd1 723b acbb fcbc 4424 1f3d
000000a0: 48d0 3a3d ba2e 65bc a2ff bb3b 05bb d4bc
000000b0: 502e 07bd 64b5 8cbd f098 b4bc 5051 963d
000000c0: 4345 9a3d be75 a13d 843b 9f3d 9792 3e3d
000000d0: 068a 71bd 03d4 90bd eed0 24bd ffb7 a5bc
000000e0: 5b58 523d 6a51 b43d 216d 2abd d19d 8ebd
000000f0: 252b 44bd f795 a8bd d864 1d3d 20d5 83bc
00000100: e3f8 90bd ec7c 85bd 15f6 a93d a78a 97bd
00000110: f53b aabd e808 d63c a88b 5c3d 92d4 a73d
00000120: 13a2 21bd a595 063c 8eab 84bd 6005 b2bd
00000130: fba5 ab3c b545 99ba 3f51 0cbd fe30 2cbc
00000140: 1d46 5bbd cda7 99bd a8fb c7bc 9fae 03bd
00000150: dfae 23bd 9d1e 8d3d 801b 5b3d 903e 8b3d
00000160: 26f0 983a 8b9f 91bd bad1 583d c179 b13c
00000170: 812e aa3c 17f1 093d d3ea 533b 2406 d7ba
00000180: d543 883d e443 3ebd 3fc2 043d ab49 18bc
00000190: f3c9 833d 35d0 333c 9563 acbd 8aec dd3c
000001a0: a777 293d 2f65 4c3d e75f 7a3d b044 a23c
000001b0: 943d 0ebd c7e8 a43d d54e 393d c28f 75bd
000001c0: 0871 083d 5782 89bc 9c75 bcbc e6cf 8a3d
000001d0: 3d9b 97bd 23d8 8dbd fcc2 13bc 2654 63bd
000001e0: 9cdf 993d f8e5 c93a a18d 533d 983e 8c3c
000001f0: f214 d33c b5db 05bd 8b05 e8bc b362 abbd
0.08760545 -0.048513476 -0.0006692182 -0.003326756 0.043365072 -0.041180767 -0.004532419 -0.012228107
0.043421347 -0.043896783 0.027848635 0.06769852 0.083103396 -0.020194946 0.008362409 -0.087885916
-0.07026136 -0.019504044 0.08533382 -0.017650299 0.019897021 -0.024975548 0.07915292 0.023668615
0.055479087 -0.08508301 0.045062147 -0.08240332 0.06354027 -0.015579392 -0.061743595 -0.049494393
0.0342963 -0.009713995 0.0016550856 -0.06348035 -0.007903767 0.0037050874 -0.030851208 0.038852945
0.04560879 -0.013988191 0.005737261 -0.025968084 -0.03300315 -0.06870535 -0.022045583 0.07339728
0.07532742 0.07883786 0.077750236 0.046526518 -0.05896952 -0.07071688 -0.040238313 -0.020229338
0.051353794 0.08804591 -0.04160798 -0.06963695 -0.04789271 -0.082317285 0.03842625 -0.016092837
-0.070787214 -0.065179676 0.082988895 -0.07399493 -0.08312217 0.026127294 0.053844124 0.081948414
-0.039461207 0.008214389 -0.06478034 -0.086924314 0.02095317 -0.0011693748 -0.03425717 -0.0105097275
-0.053533662 -0.075027086 -0.024411991 -0.032148954 -0.039961692 0.06890605 0.053493023 0.06799042
0.001166825 -0.071105085 0.052934386 0.021664502 0.020774128 0.033677187 0.003233601 -0.0016405028
0.06653563 -0.046451464 0.03241181 -0.009294908 0.06435003 0.010974933 -0.08417431 0.02709033
0.041373875 0.049901184 0.061126616 0.019808143 -0.034726694 0.08052211 0.045241196 -0.05995155
0.03331092 -0.016785784 -0.0230053 0.06777935 -0.07402656 -0.069259904 -0.009018656 -0.055500172
0.07513353 0.0015403619 0.05164874 0.01711969 0.025766823 -0.032680232 -0.028322956 -0.08368435

layer3.weight f4 [4, 128]
00000000: 3ab2 8a3d f7f2 85bc 55d1 033d 6f23 aa3d
00000010: 9875 903c a872 5abd 0f91 7cbd 226e 20bc
00000020: 8a3b e13c 364a d13c ef7d 02bc 6ede c6bc
00000030: 004e 97bd e88b 2fbd 2f6d 563d 10c3 263d
00000040: 4c61 6f3d 6b16 173d 26cf 1abd 8563 a1bd
00000050: 8b16 38bc fd2e 1cbd 28f9 d43c c806 c63c
00000060: 7caa 25bd ddb4 093d 92b0 a1bc bfd1 3d3c
00000070: da85 4cbc 4aa1 b93b 00b7 88bd 12c6 85bd
00000080: 0869 8ebd ca59 a83d a673 2c3d 2dc0 42bd
00000090: 04bd 1c3d 832c 6a3a cd59 1cbd 754a 96bd
000000a0: 63a7 aebd 6098 8dbd a9ea 153c e224 84bd
000000b0: 1412 fcbc 5824 a2bd 97fc 46bd f9e5 813d
000000c0: 4561 d7bb 201d 41bd f544 b33d e439 a43d
000000d0: ac2a b9bb 2b55 fb3c 4497 1cbd 59cc c33c
000000e0: bda4 9bbd 75c4 98bd 5f6f 3bbd 9ef2 04bd
000000f0: b810 65bc fc7e 58bd fba7 35bd 3a3a 7cbd
00000100: 3afa f43c 8075 98bd 92d4 94bc f6ab 69bd
00000110: ccc6 f63c e889 8a3d 615d 68bd 9130 9abd
00000120: d68c 0f3d 7172 8b3c 7d1b 8fbd 742c 08bc
00000130: 6b93 893d 37c9 37bd c2d5 c33c 0d01 3f3d
00000140: 5265 0c3d f332 323d 6b8e 1d3d 4ff0 c13c
00000150: 6e63 873d a619 8fbd f17f 4c3d 1786 86bd
00000160: 359f d33c 1f2f 893d 0053 2ebd e183 b13d
00000170: 90c9 8a3d 8da4 8ebd a481 82bd 4423 8b3d
00000180: 7cb7 2a3d 5993 b3bd 2495 d9bc 7a86 a0bd
00000190: f597 923d a611 dc3c 9e86 7c3d 53c9 b13d
000001a0: f48a 213d 6264 0e3d b675 93bc 113e 513d
000001b0: 768f 603d 884e 1e3d 74bc 8d3d 2edb 393d
000001c0: 37b4 17bd 3e89 8abd 0dc8 5e3d 5eb2 073d
000001d0: 340f 65bd 8a88 eb3c 5fca 92bd f514 7bbd
000001e0: eb8a b63c 4534 6cbd bb8d 28bc 5da8 a93d
000001f0: e56c e7bc c4a2 adbb 83b2 353d 71c7 9ebd
00000200: 5c33 a3bd 467b 25bd 880f babc 7d65 903c
00000210: e93e 28bd b78e 0b3d 7f12 a5bd aafd 523d
00000220: a30c 8a3d d667 0f3d 2569 96bb 0a63 0b3d
00000230: 4ee8 073c 3fc0 2e3d 8767 813d 8c35 293d
00000240: 5964 b43c d406 80bd 9a97 a5bc 904d 37bd
00000250: 70f6 b2bd 5b34 943d 1e44 873d 8c37 a63d
00000260: d8be 863d bf11 b93c ec19 41bd 28f0 0e3c
00000270: 9531 66bd d98d 343d ef7f 26bd ce51 3d3b
00000280: 672f a1bd 8812 9bbd e5f5 8cbd bcf8 9abd
00000290: ddb7 98bd cbf3 abbd 3b6e 5d3c 8150 903d
000002a0: a9d8 183d 55a1 393d 7f11 953d 83ed ae3d
000002b0: 2cc3 913c f3d2 1e3c 11b1 9dbd a0e0 2f3d
000002c0: 656f 7a3d 9656 1cbd 0461 4abd 2cdc 8f3d
000002d0: 87bf f6bb 90d2 1a3d f145 efbc 8f1e 85bd
000002e0: 285d 8f3d 491e 723d 9803 063d 5dd9 9dbd
000002f0: d12b 533d 43ec 9e3d d0bc 713d 294d f0bc
00000300: c11c 1fbd 04cb 373c 20ef b73c b09b 08bc
00000310: 3f9d 1bbc aa7a a83d ff63 95bd a007 f4bc
00000320: 1405 0e3d 5ad8 853d b91c 233d a26d 96bc
00000330: d338 653d 3183 2c3d d625 623d 8ee1 6cbd
00000340: 6d0a 79bc 5124 113d 88e4 b03b 2d8d 8b3c
00000350: beed 5fbd 6103 85bd 61ec 293d bc91 b43d
00000360: b6cc c1bc cb6b b03c 50b4 f03c fe67 ad3d
00000370: d330 95bc 7af0 6d3d 0a6b 7a3d c58c d03c
00000380: 6f8a 8cbc c311 383d 1fbc 3c3d 200a 9dbd
00000390: 796d 673b 3019 9dbd 42f4 a53c 5e50 db3c
000003a0: 9589 0ebd a87d a63c 2c54 de3b f75d a53d
000003b0: 5c53 95bd a0ff 363d a793 8d3d 8857 4d3d
000003c0: 472a 923d 58bd 733d f01a b4bd 4aff 943d
000003d0: 7b2e ccbb eca2 a9bd 310b 353d aa29 8fbd
000003e0: 535b 79bd b25c a03c 13ad 483c e98b 08bc
000003f0: 1c01 9cbd becb f33c 8a04 dd3c 04c2 7e3d
0.06772275 -0.016351206 0.032182056 0.0830754 0.017634198 -0.053332 -0.061661776 -0.009791883
0.02749421 0.025548082 -0.007964595 -0.024275985 -0.07387924 -0.042858034 0.05235022 0.04071337
0.0584424 0.036886614 -0.03779521 -0.0788031 -0.011235843 -0.03813075 0.025997713 0.024173155
-0.04044579 0.03361975 -0.019737516 0.011585652 -0.012483085 0.005664979 -0.066755295 -0.065319195
-0.06953627 0.08220251 0.04210248 -0.047546554 0.038266197 0.00089330244 -0.03817158 -0.0733842
-0.0852802 -0.06913829 0.009150186 -0.06452347 -0.03077034 -0.07917088 -0.048580732 0.06342692
-0.0065728747 -0.047146916 0.08753387 0.08018854 -0.005650839 0.03068026 -0.038230196 0.023901151
-0.07599781 -0.07459346 -0.04576051 -0.03245794 -0.013981037 -0.052855477 -0.04434965 -0.061578967
0.029904474 -0.07444286 -0.018167768 -0.05704876 0.03012409 0.06764585 -0.056729678 -0.075287946
0.03504642 0.017022343 -0.06987665 -0.00831138 0.06717571 -0.044869628 0.023905639 0.04663186
0.034276314 0.04350562 0.0384659 0.023674158 0.066107616 -0.06987314 0.049926702 -0.06568544
0.025832752 0.06698441 -0.042559624 0.08667732 0.06776726 -0.06964979 -0.06372383 0.06793836
0.04167889 -0.08768339 -0.026560374 -0.07838149 0.0715789 0.026863884 0.06165182 0.08680978
0.039439157 0.0347637 -0.018000465 0.05108458 0.054824315 0.038649112 0.0692071 0.04537504
-0.0370371 -0.06764458 0.054390002 0.03312909 -0.055922702 0.02875163 -0.071675055 -0.061299283
0.022283038 -0.057667036 -0.010287697 0.08284066 -0.028250167 -0.005298944 0.044359695 -0.07752884
-0.079687804 -0.040400766 -0.022712484 0.017626518 -0.04107562 0.03407165 -0.080601685 0.051511444
0.067406915 0.035011135 -0.004590171 0.034029998 0.008295132 0.04266381 0.063185744 0.041310832
0.022020506 -0.06251302 -0.02021389 -0.044751704 -0.087384105 0.072365485 0.06604789 0.081160635
0.06579369 0.02259147 -0.04714386 0.00872425 -0.05619963 0.04408059 -0.04064935 0.002888787
-0.078703694 -0.07571894 -0.06882838 -0.075669736 -0.07456944 -0.08396109 0.0135150505 0.07046605
0.037316 0.045319874 0.07278728 0.085413955 0.01779326 0.009693849 -0.07699788 0.04293883
0.06114139 -0.038168512 -0.049408928 0.07024416 -0.007530156 0.037798464 -0.029208155 -0.06499969
0.0700019 0.059110913 0.03271827 -0.077074744 0.05155546 0.07759907 0.059017956 -0.029333668
-0.03884578 0.011217836 0.02245289 -0.0083379 -0.00949794 0.08226521 -0.07294463 -0.029788792
0.03467281 0.065354064 0.039822314 -0.018362824 0.055962395 0.0421173 0.055211864 -0.057832293
-0.01520024 0.035435025 0.005398337 0.017035091 -0.054670088 -0.06494785 0.041485194 0.08816859
-0.023657184 0.021535775 0.029382855 0.084671006 -0.018211758 0.058090664 0.061137237 0.02545775
-0.017155854 0.044938814 0.046077844 -0.07667947 0.0035313054 -0.0767082 0.020258073 0.02677172
-0.034799177 0.02032359 0.0067849364 0.08074563 -0.0729129 0.044677377 0.06912928 0.050132304
0.0713697 0.059506744 -0.087942004 0.07275255 -0.006231127 -0.08283028 0.044200126 -0.06990369
-0.06087811 0.01957545 0.012248295 -0.008334138 -0.07617399 0.029760238 0.026979703 0.062196746

layer3.bias f4 [4]
00000000: fcac 9e3c 544d 5d3d c636 9d3c 450f 95bd
0.019369595 0.054028824 0.019191157 -0.07278303

layer1.weight f4 [128, 4]
00000000: 8811 f83e 98db 2bbe 1875 a3bd c07e a93c
00000010: a07f ccbc d8d3 a13e 404d 09bd eabb 8d3e
00000020: 1052 39be a073 b8bc 4016 6a3c c086 a03e
00000030: e0cb cc3d c852 013e d040 aa3d 303c 8ebd
00000040: c4c3 8abe 80b1 b4bc 7cb7 34be b025 7fbe
00000050: 6e04 e3be 0030 c2bd 60cc c1be 440d e63e
00000060: 10b0 06be 9644 cc3e d041 bebd ae73 cc3e
00000070: 50a1 e3bd 80e7 80bb 563b c13e 864e f9be
00000080: 6030 453e b06b 83be 0050 2a3b 2a2b dc3e
00000090: 8834 6f3e 7825 27be e86e 243e 008e f03a
000000a0: fac4 843e fa51 a3be 54ba 01be 20d3 de3d
000000b0: fcc6 49be 442b 62be 84e8 19be c843 c83d
000000c0: b011 d33d 0098 ac39 ea7a dc3e 3098 4d3e
000000d0: cc12 ffbe c063 6e3d a6a0 813e 525e 9c3e
000000e0: 504c 0c3e 1205 f23e 180d 15be 700a d13e
000000f0: e84f 423e 80b3 ef3d 2832 c9be f46a 1d3e
00000100: f077 23bd f08a 9fbd f0ad 193d ba8d f9be
00000110: fede eb3e e0fc 9c3e 74c1 923e 9c1b a3be
00000120: b41f fa3e fcb1 5ebe d4ef 763e aab0 f6be
00000130: 30b1 083d b45c ec3e ec1c 9fbe 006f 34be
00000140: e071 4cbe 8039 743e 3240 dc3e 981c 50be
00000150: 3ed1 b0be aca2 e2be 9cda 213e b6af cc3e
00000160: 24e6 64be 4492 533e 6c18 0d3e 94f7 b3be
00000170: ce61 a53e 60de 1ebe 54f2 b83e f80e 25be
00000180: 665a fa3e 0ac5 bdbe e6af f23e fa06 93be
00000190: f8b7 023e 88a5 1e3e 82ae c1be 8c78 c0be
000001a0: f015 71bd ea06 8abe 86fd b3be de19 afbe
000001b0: c83f ef3e f627 b1be 3495 e83e 3058 80bd
000001c0: ccd2 abbe 4cec fe3e a82b 0d3e 5cde fb3e
000001d0: 483f 4bbe e0c0 d5bd 8815 e1bd fce7 243e
000001e0: 405c f13e 305e ef3e 02b8 b33e 9cf7 783e
000001f0: 0af6 b83e 18bb a7be 98ae f23e d885 c93e
00000200: a2d8 e2be c038 73bd 1828 cd3d 14fd 61be
00000210: c0e6 063d d073 f3bd 5201 b73e e01a e7be
00000220: c027 4f3d c2c1 da3e 04aa 47be 88f8 3fbe
00000230: f0ba bd3d fab2 83be 500a cabd 0e60 8f3e
00000240: f816 cebe 58c7 cb3e 3495 343e dc5b 6e3e
00000250: 7aee a23e 88e0 40be b80f b93d aa61 82be
00000260: 1415 06be 4a4b bebe a0ce 0e3e c088 153e
00000270: b4ed c0be 9438 0f3e 66bf 89be 8c27 44be
00000280: 7afb 87be d0e1 5e3e a484 37be 28f8 afbd
00000290: 7c89 c73e 7825 e73d 14dc 20be a084 a4bc
000002a0: 18ad d0be e877 663e 5022 debe 009a a6ba
000002b0: 96e8 ad3e a0d9 82bd e0d5 75bd f262 95be
000002c0: 523b 8abe 3899 ccbd 80dc 5f3e a80f 073e
000002d0: f447 7a3e 7ae9 d23e 1098 663d 3855 0c3e
000002e0: 001f b33d feff 8cbe 82e1 a63e d8a7 993d
000002f0: 8c76 fa3e a2e6 a8be 906f abbe 64ff 373e
00000300: 5881 12be 40f8 353d 942d d4be 66ee 83be
00000310: ac1b 8abe 2e4c 953e d00e ffbd 5ed6 afbe
00000320: c651 a6be 56e0 c6be aca3 c4be c8b1 c4be
00000330: 9e23 a13e 30a5 28be 90b5 7cbe 400d 453d
00000340: 1c64 10be 5033 f23d 4866 963e 30b1 ddbd
00000350: 143e 19be 009e 1a3b 52aa a6be 00a1 ffbc
00000360: 9217 ecbe ecca d73e 50d6 933e 2a5d cc3e
00000370: 7478 a83e 763b ad3e e2a0 ac3e 5047 823d
00000380: 726f b13e a277 a3be b611 803e 50f6 7fbe
00000390: 4e70 aabe 769e 89be caa6 9fbe 04ff 343e
000003a0: 743f 253e 248b 04be e0de 79be 567a 9e3e
000003b0: 80d3 073c 7416 873e ae27 8b3e a03d d23e
000003c0: 4a9c fabe 7c36 74be e0d1 d8bd d0af bebe
000003d0: 3224 e73e 20d2 d63e 4463 cc3e 14db c43e
000003e0: f427 383e a6a7 8fbe c0b1 ed3e a0ed 79bd
000003f0: 609d 2abe 504b a7bd ba2f a3be 00f8 053c
0.48450875 -0.16782987 -0.07981318 0.020690322 -0.0249632 0.31606936 -0.033520937 0.2768243
-0.1809771 -0.022516072 0.014287531 0.31352806 0.099998236 0.12629235 0.08313143 -0.069450736
-0.27102482 -0.022057295 -0.17648119 -0.2491672 -0.44339317 -0.094818115 -0.37851238 0.44931996
-0.131531 0.39896077 -0.092898965 0.39932007 -0.11114752 -0.003933847 0.37740582 -0.4869272
0.19256735 -0.25668097 0.0025987625 0.43001682 0.23359883 -0.16322887 0.16057932 0.0018352866
0.2593153 -0.3189848 -0.12668735 0.10880113 -0.19704813 -0.22086817 -0.15030104 0.09778553
0.10306108 0.00032919645 0.43062526 0.20077586 -0.49819028 0.058200598 0.25317878 0.3054071
0.13700986 0.47269493 -0.14555776 0.40828276 0.18975794 0.11704159 -0.3929608 0.1537283
-0.039909303 -0.07790172 0.037519395 -0.4874094 0.46068567 0.30661678 0.28663218 -0.31857002
0.48852313 -0.21747583 0.24114925 -0.4818166 0.033372104 0.46164477 -0.31076753 -0.17620468
-0.19965315 0.2385006 0.43017727 -0.20323408 -0.3453464 -0.44264734 0.15806049 0.39977807
-0.22353417 0.20661265 0.13778847 -0.35149825 0.32301182 -0.15514517 0.36122382 -0.16118991
0.48897094 -0.3706439 0.47399825 -0.2871626 0.12765491 0.15492833 -0.3782845 -0.3759197
-0.05885881 -0.269584 -0.3515436 -0.34199423 0.4672835 -0.346008 0.45426333 -0.062668204
-0.33559263 0.49789655 0.13786185 0.49193084 -0.19848359 -0.104371786 -0.10990435 0.1610412
0.47140694 0.46751547 0.35101324 0.24313205 0.36125213 -0.3275993 0.4739883 0.39359927
-0.44305903 -0.059380293 0.10017413 -0.22069198 0.032934904 -0.11887324 0.35743195 -0.45137691
0.050575018 0.4272595 -0.1949845 -0.18747151 0.09264171 -0.25722486 -0.09865248 0.2800297
-0.402519 0.39800525 0.17635041 0.23277229 0.31822568 -0.18835652 0.09036201 -0.25465137
-0.13093978 -0.37166816 0.13946009 0.14602947 -0.37681353 0.13986427 -0.26903838 -0.19155711
-0.2655905 0.21765828 -0.17921692 -0.08592254 0.3897208 0.112864435 -0.15708953 -0.020082772
-0.4075706 0.22506678 -0.43385553 -0.001271069 0.3396651 -0.06389165 -0.06001842 -0.29177052
-0.26998383 -0.09990162 0.21861458 0.13189566 0.2444151 0.41193753 0.05629736 0.13704383
0.08746147 -0.27539057 0.32593924 0.07502717 0.4891857 -0.3298846 -0.33483553 0.17968518
-0.14307153 0.044426203 -0.41441023 -0.2576782 -0.26974237 0.29159683 -0.12453997 -0.34343237
-0.32484263 -0.3884303 -0.38406122 -0.38416886 0.31472486 -0.16469264 -0.24678636 0.04810834
-0.14100689 0.11826193 0.2937491 -0.108248115 -0.14965087 0.002359271 -0.3255182 -0.0312047
-0.46111733 0.42147005 0.28874445 0.3991483 0.32904398 0.33834428 0.33716494 0.06361258
0.3465534 -0.3192721 0.25013512 -0.24996305 -0.33288807 -0.2687871 -0.31181937 0.17675406
0.16137487 -0.12943703 -0.24401426 0.3095271 0.008290172 0.26384318 0.2717871 0.4106264
-0.48947364 -0.23848909 -0.105869055 -0.3724351 0.45144802 0.41957188 0.39919484 0.38448393
0.17983991 -0.28057593 0.46424675 -0.061017632 -0.16661596 -0.081686616 -0.3187235 0.008176804

layer1.bias f4 [128]
00000000: 0031 523c b0bd 37bd 48d7 5e3e fca8 8fbe
00000010: 16b9 cc3e 5e19 e3be 465a 943e f871 c93d
00000020: d63d f23e 484b 1fbe 6862 8cbe 222f cf3e
00000030: e001 c6bd 54c3 ca3e f657 bf3e 3c3b 81be
00000040: f842 39be 16d4 a2be 7820 a73d a2dc f0be
00000050: d21c cb3e 30f2 d73e 50cc 013d 24b2 eb3e
00000060: e888 fdbe 7642 afbe 50fd bcbe 941c 163e
00000070: 1849 d43e 3cc8 863e e288 f13e 4413 3c3e
00000080: badc f7be 9e8b b0be 246c 19be 0c2c 633e
00000090: 80a0 b63d 54ac b43e 3407 903e be15 e5be
000000a0: e05c c73c d053 8bbe 2cd9 89be 1ef8 9a3e
000000b0: da6c f9be c813 ca3d 786f fbbe a4f7 84be
000000c0: d85e fc3d 103a 00be 5cd1 fb3e 18f5 c0be
000000d0: a61d 9c3e 10fe e13e c8a3 6d3e 5c0c 90be
000000e0: 18df 813e 3021 003e 3825 20be 6a43 94be
000000f0: 20d2 f0bd 8cd6 3fbe 24f6 6c3e 1ad7 8c3e
00000100: aabd ce3e 82d8 ea3e bcd7 1e3e 507a 34bd
00000110: 9cea 0d3e ec1e 19be ac6b cc3e dc3c b33e
00000120: a89d 9e3d b8ab eb3d 20ad ebbc 985e 833e
00000130: 0c08 f6be e8e3 353e 98fe a6bd 98ef e53e
00000140: c41a 5b3e 8eb6 8ebe 0698 c6be 6803 203e
00000150: 7085 c1be 86ac eebe c289 edbe c6eb b4be
00000160: feaa dbbe ae2f 903e 3428 f93e 3848 0b3e
00000170: 661f 87be 508a f53e 6ccf 39be 2816 5c3e
00000180: c64d cf3e 00f7 9ebe dc46 42be d028 01be
00000190: 282a 623e 7c8a 50be 40f5 bfbc a0a7 443e
000001a0: 9ced 4d3e 985f 5ebe 320a a8be a892 8e3d
000001b0: 6063 c43d b027 63bd b07f 7ebd 5059 c5bd
000001c0: de91 a33e b0a5 003e be22 f2be 0a3a b1be
000001d0: 40e2 94bc 40f1 90bd e02e acbd f48d e2be
000001e0: dc8a 853e e2b8 f33e e040 b4be 7e4e f6be
000001f0: 80ef 7b3c 86b3 e83e 20ae e8bc 7238 943e
0.012829065 -0.044858634 0.21761811 -0.28058612 0.3998496 -0.4435529 0.28975123 0.09836191
0.47312802 -0.15556061 -0.27418828 0.40465647 -0.096683264 0.3960215 0.37371796 -0.25240505
-0.18091953 -0.31802434 0.0816049 -0.4704333 0.39670426 0.42176962 0.03168899 0.46034348
-0.49518514 -0.34230393 -0.36912012 0.14659339 0.41462016 0.26324642 0.47174746 0.18366724
-0.48410589 -0.3448152 -0.14982659 0.22184771 0.08917332 0.35287726 0.28130496 -0.4474315
0.024336278 -0.2721238 -0.26923501 0.30267423 -0.4871586 0.09867054 -0.4910848 -0.25970185
0.123227775 -0.12522149 0.49183166 -0.37686992 0.3049137 0.44139147 0.23207009 -0.2813443
0.2536552 0.1251266 -0.15639198 -0.28957683 -0.11758828 -0.18734187 0.2314077 0.2750786
0.40379077 0.45868307 0.15511984 -0.04406196 0.13859028 -0.14953202 0.39925897 0.3500737
0.07744914 0.11507362 -0.028769076 0.25658107 -0.48053014 0.1776272 -0.08154029 0.44909358
0.21396929 -0.27873653 -0.3878786 0.156263 -0.37797117 -0.46616 -0.46394163 -0.3533613
-0.42903894 0.28161377 0.48663485 0.13601768 -0.26391143 0.47957087 -0.18145531 0.21492827
0.40489024 -0.3104782 -0.18972343 -0.12613225 0.22086394 -0.20365328 -0.023432374 0.19204569
0.20110172 -0.21716154 -0.32820278 0.06961566 0.09589267 -0.05545777 -0.06213349 -0.09636176
0.31947225 0.12563205 -0.4729213 -0.34614593 -0.01817429 -0.07077265 -0.08407378 -0.44248927
0.26082504 0.47601992 -0.35205746 -0.4810676 0.0153769255 0.45449466 -0.028403342 0.28949314

layer2.weight f4 [128, 128]
00000000: 8816 ab3d a21d a63d 31f1 28bd 68e6 503d
00000010: 6864 31bd 5621 96bd 3495 97bd 820d 36bd
00000020: ba59 0f3d caa8 11bd b63d 6dbc a996 e73c
00000030: cb5e 86bd 3c8b 0b3d 855f 883d 4d72 a13b
00000040: 09ba 8fbb 6f94 c0bc 3e28 b1bd b482 c63a
00000050: acc6 cfbc f6b0 933d 5612 25bc 93f8 3fbd
00000060: b9b0 13bd 992d 80bc 3629 a4bb 5966 5a3d
00000070: cc31 763c 8fbd b2bd 28f4 7b3b 9d50 58bd
00000080: 1e45 40bd 2b5d 51bd 821c 7cbc bc36 11bd
00000090: e438 223d bbc7 f5bc 3903 a8bd e9dd 783d
000000a0: 903c 08bd 3010 11bd 5ca3 91bd df66 eebc
000000b0: a0ad 3ebd f13b 65bd ee73 983d bee2 8fbd
000000c0: e0b5 1fbd ed6c 5dbd 936b 6fbc cdb9 483b
000000d0: 68dd 323d f38d a9bd 418d d5bb 1ceb f9bc
000000e0: 1982 923d ad43 b63c fe48 34bd 0427 8abd
000000f0: c079 a03d 0ff2 ae3d 4626 fc3b b3a1 0e3d
00000100: 7e16 333d 2ef4 a83d b9b8 023d 2a9d a0bd
00000110: 9f1c efbc a0be 36bc 026c 03bd 7585 933d
00000120: d495 37bd 489f f33c 5270 37bd faa1 9b3c
00000130: 0cde f1bc 7b39 253d 51fd 773d 9258 58bd
00000140: ab04 5ebc 0d8d 92bd fa15 bb3c 2eba 0dbd
00000150: e183 58bd ce90 9dbd 157b 92bd fd00 363c
00000160: a9dd a53d 7617 6dbd f16d 86bd bc73 8ebd
00000170: da27 8f3d c098 873d 904b 95bb ac55 94bd
00000180: 246e 1ebd 0469 1c3d 86ac 463d be97 80bd
00000190: 7f99 ab3d d2f2 a1bc 2ccd 823d 545f 803d
000001a0: 3753 6cbc 8161 91bb 6b5a 6c3d 6217 a33d
000001b0: bcc2 583b 5a26 abbd e120 4abd 1b09 13bc
000001c0: 6a00 923d c7b4 4e3c a9d3 7aba 84f3 a73d
000001d0: 18eb 853d 4958 90bd 7a26 883d db59 b33d
000001e0: 55b7 ab3d 2c1b 6dbd c05e c23a 9a24 abbd
000001f0: 5d98 9bbd 0a98 28bd 8aa0 153d d09e 95bd
00000200: 388e 043d 979b c5bc 971a 423d 5937 29bc
00000210: 6cb5 8ebd 5d88 853d 1334 d03c bc70 713b
00000220: ae32 a4bd d008 7d3c 0c6c b23d 1cd6 113d
00000230: 1cdf 68bb 0bcf 7ebc 7d67 593b 67cf ad3a
00000240: fe15 813d cfdd 1abd fbb8 36bd 7fe0 7abd
00000250: 1e4e 3fbd c6a8 80bd db0c 793c 12ba 91bc
00000260: ad89 65bd aa72 3fbd d406 f43c 0a56 ae3d
00000270: 61b3 7b3d 2819 44bd 4858 06bd 2282 803d
00000280: 9c81 eabc 2977 563d 3e7f 1abd dfc7 ae3d
00000290: 44b1 833d 19db 93bd 3b97 853d bf1a 423d
000002a0: a221 50bd 3be2 a5bd 6dc4 883d a5ee e8bc
000002b0: fa73 653c 3f50 0d3d d7a6 cdbb 9ece 6ebd
000002c0: 0425 1f3b e185 52bd fa89 a6bd 41a4 a73b
000002d0: 4224 ab3d 96ba 663d 62de 443d d3e2 7dbc
000002e0: 77d9 27ba f2c5 74bd 5898 16bc 635a 893b
000002f0: e02b 17bd 9c7e 843d c531 3abd c430 98bc
00000300: e73e 1b3d eb4c 9c3d fa09 ccb9 18f5 4b3d
00000310: 0e30 b63b 3a85 02bc 2b52 e53c 7962 2b3d
00000320: 17f9 3b3c 5372 0abd 7d5f 1abd e98e a9bd
00000330: 8b61 363d 8e86 cdbc 133b 44bd a030 893c
00000340: c135 bbbb f925 ad3d 4500 1dbd 0ffc f03c
00000350: 8e10 733d 6da8 6d3d 9d66 a4bd a279 20bd
00000360: 7996 2cbd 034f 99bc d52e 923d d9b4 9a3d
00000370: e085 7abb c8a1 ab3c 1bf7 45bd 4484 80bc
00000380: d774 95bb feac 923d fc7e b23d 003b e73b
00000390: de5c 693d a80a 8c3d c597 4f3d 9b2f 953d
000003a0: 8f2c 463d ab96 863d 262b 8d3d 2016 7bbd
000003b0: 41f6 713d d1c7 8cbb 1d38 fbbc 2b6f 9fbd
000003c0: 66e0 ac3d 91d8 43bd c1e8 0a3b 6aa9 a63d
000003d0: 30bd 45bd 19af 5f3b e69d a33d 7502 343c
000003e0: 187c a8bd 95fa 91bd 57c4 4f3d 328c 8ebd
000003f0: 851b 85bc 10f3 473c 2808 17bd d9f1 dc3c
0.08353907 0.08111121 -0.041245643 0.051000983 -0.043308645 -0.07330577 -0.07401505 -0.044446476
0.03499768 -0.03556136 -0.014480045 0.028270083 -0.06561049 0.03406833 0.06658844 0.004926956
-0.004386191 -0.023508279 -0.08650254 0.0015145154 -0.025363289 0.07211487 -0.010075172 -0.04686792
-0.036057208 -0.015646743 -0.0050097955 0.053320263 0.015026521 -0.08727562 0.003844509 -0.052811254
-0.046940915 -0.051114243 -0.015387656 -0.03545259 0.039605036 -0.030002465 -0.0820374 0.060758505
-0.033260882 -0.03541583 -0.071112365 -0.029101787 -0.0465523 -0.055965368 0.07443987 -0.070256695
-0.03899181 -0.054058958 -0.01461305 0.0030628324 0.04366818 -0.08279028 -0.006517083 -0.030507617
0.071537204 0.022249067 -0.044014923 -0.06745723 0.07835722 0.08542263 0.0076949922 0.034822177
0.043722622 0.082496986 0.031914447 -0.07842477 -0.029188452 -0.011153847 -0.032085426 0.07203189
-0.04482062 0.029739037 -0.04478485 0.018998135 -0.029524826 0.04033802 0.060544316 -0.052818842
-0.013550918 -0.071558096 0.022837628 -0.034601383 -0.052860145 -0.07693635 -0.07152382 0.011108634
0.08098919 -0.057883702 -0.065639384 -0.06955668 0.06990023 0.066209316 -0.004556127 -0.07242903
-0.038679257 0.03818609 0.048504375 -0.062789425 0.083788864 -0.019769106 0.0638679 0.062681824
-0.014424137 -0.004436672 0.057703417 0.07963444 0.0033075055 -0.08356924 -0.049347762 -0.008974339
0.07128985 0.012616343 -0.0009568283 0.08200744 0.06538981 -0.07048089 0.06647964 0.08757373
0.08384577 -0.05788724 0.0014829263 -0.083565906 -0.0759742 -0.04116062 0.036530055 -0.07305682
0.032362193 -0.024122043 0.04738864 -0.010328137 -0.06968197 0.0652015 0.025415456 0.0036840877
-0.08017479 0.015443996 0.087120146 0.03560458 -0.0035533374 -0.015552293 0.0033173256 0.0013260663
0.06303023 -0.03780919 -0.044610005 -0.061249252 -0.046705358 -0.06282191 0.015200819 -0.01778892
-0.0560395 -0.04674021 0.029788412 0.085125044 0.061450366 -0.047875553 -0.032799035 0.06274821
-0.028626256 0.052359734 -0.037719004 0.08534216 0.06430295 -0.07219524 0.065229855 0.04738879
-0.050813325 -0.08099791 0.0667809 -0.028434107 0.014004702 0.034500357 -0.0062759924 -0.058302514
0.0024283538 -0.051397208 -0.08131786 0.005116016 0.08356525 0.056330286 0.048063643 -0.015495974
-0.0006402949 -0.059759088 -0.009191595 0.004191683 -0.036907077 0.06469461 -0.04545762 -0.01857794
0.037901785 0.076318584 -0.00038917345 0.049794286 0.005559928 -0.007966334 0.027993282 0.041841958
0.011472962 -0.033800434 -0.03768872 -0.08279211 0.044526618 -0.025088575 -0.0479079 0.016746819
-0.005713195 0.08454508 -0.038330335 0.029417066 0.05934196 0.05802195 -0.080273844 -0.039178498
-0.04213569 -0.018714434 0.07137839 0.07554025 -0.0038226768 0.020951167 -0.04833136 -0.01568807
-0.0045610475 0.07161902 0.087156266 0.007056594 0.05697333 0.0683797 0.050681848 0.07284471
0.048382338 0.065717064 0.068929955 -0.061300397 0.059072737 -0.004296281 -0.030666405 -0.077848755
0.08441238 -0.047813956 0.002119586 0.08137782 -0.048276126 0.0034131466 0.07989101 0.010986914
-0.08226794 -0.07127873 0.050724354 -0.06960334 -0.016248474 0.012203947 -0.036873013 0.02697079

layer2.bias f4 [128]
00000000: 7c6a b33d 11b6 46bd 796e 2fba b405 5abb
00000010: 939f 313d 2aad 28bd b084 94bb 6658 48bc
00000020: 95da 313d 1dcd 33bd d222 e43c 86a5 8a3d
00000030: 1d32 aa3d df6f a5bc 7c02 093c 88fd b3bd
00000040: 30e5 8fbd f2c6 9fbc 7fc3 ae3d 5c97 90bc
00000050: 14ff a23c 8599 ccbc ed1a a23d afe4 c13c
00000060: 0a3e 633d 0040 aebd 1693 383d 12c3 a8bd
00000070: 6721 823d b540 7fbc dae6 7cbd a2ba 4abd
00000080: 477a 0c3d 7327 1fbc 75ef d83a fc01 82bd
00000090: cd7e 01bc 0dd1 723b acbb fcbc 4424 1f3d
000000a0: 48d0 3a3d ba2e 65bc a2ff bb3b 05bb d4bc
000000b0: 502e 07bd 64b5 8cbd f098 b4bc 5051 963d
000000c0: 4345 9a3d be75 a13d 843b 9f3d 9792 3e3d
000000d0: 068a 71bd 03d4 90bd eed0 24bd ffb7 a5bc
000000e0: 5b58 523d 6a51 b43d 216d 2abd d19d 8ebd
000000f0: 252b 44bd f795 a8bd d864 1d3d 20d5 83bc
00000100: e3f8 90bd ec7c 85bd 15f6 a93d a78a 97bd
00000110: f53b aabd e808 d63c a88b 5c3d 92d4 a73d
00000120: 13a2 21bd a595 063c 8eab 84bd 6005 b2bd
00000130: fba5 ab3c b545 99ba 3f51 0cbd fe30 2cbc
00000140: 1d46 5bbd cda7 99bd a8fb c7bc 9fae 03bd
00000150: dfae 23bd 9d1e 8d3d 801b 5b3d 903e 8b3d
00000160: 26f0 983a 8b9f 91bd bad1 583d c179 b13c
00000170: 812e aa3c 17f1 093d d3ea 533b 2406 d7ba
00000180: d543 883d e443 3ebd 3fc2 043d ab49 18bc
00000190: f3c9 833d 35d0 333c 9563 acbd 8aec dd3c
000001a0: a777 293d 2f65 4c3d e75f 7a3d b044 a23c
000001b0: 943d 0ebd c7e8 a43d d54e 393d c28f 75bd
000001c0: 0871 083d 5782 89bc 9c75 bcbc e6cf 8a3d
000001d0: 3d9b 97bd 23d8 8dbd fcc2 13bc 2654 63bd
000001e0: 9cdf 993d f8e5 c93a a18d 533d 983e 8c3c
000001f0: f214 d33c b5db 05bd 8b05 e8bc b362 abbd
0.08760545 -0.048513476 -0.0006692182 -0.003326756 0.043365072 -0.041180767 -0.004532419 -0.012228107
0.043421347 -0.043896783 0.027848635 0.06769852 0.083103396 -0.020194946 0.008362409 -0.087885916
-0.07026136 -0.019504044 0.08533382 -0.017650299 0.019897021 -0.024975548 0.07915292 0.023668615
0.055479087 -0.08508301 0.045062147 -0.08240332 0.06354027 -0.015579392 -0.061743595 -0.049494393
0.0342963 -0.009713995 0.0016550856 -0.06348035 -0.007903767 0.0037050874 -0.030851208 0.038852945
0.04560879 -0.013988191 0.005737261 -0.025968084 -0.03300315 -0.06870535 -0.022045583 0.07339728
0.07532742 0.07883786 0.077750236 0.046526518 -0.05896952 -0.07071688 -0.040238313 -0.020229338
0.051353794 0.08804591 -0.04160798 -0.06963695 -0.04789271 -0.082317285 0.03842625 -0.016092837
-0.070787214 -0.065179676 0.082988895 -0.07399493 -0.08312217 0.026127294 0.053844124 0.081948414
-0.039461207 0.008214389 -0.06478034 -0.086924314 0.02095317 -0.0011693748 -0.03425717 -0.0105097275
-0.053533662 -0.075027086 -0.024411991 -0.032148954 -0.039961692 0.06890605 0.053493023 0.06799042
0.001166825 -0.071105085 0.052934386 0.021664502 0.020774128 0.033677187 0.003233601 -0.0016405028
0.06653563 -0.046451464 0.03241181 -0.009294908 0.06435003 0.010974933 -0.08417431 0.02709033
0.041373875 0.049901184 0.061126616 0.019808143 -0.034726694 0.08052211 0.045241196 -0.05995155
0.03331092 -0.016785784 -0.0230053 0.06777935 -0.07402656 -0.069259904 -0.009018656 -0.055500172
0.07513353 0.0015403619 0.05164874 0.01711969 0.025766823 -0.032680232 -0.028322956 -0.08368435

layer3.weight f4 [4, 128]
00000000: 3ab2 8a3d f7f2 85bc 55d1 033d 6f23 aa3d
00000010: 9875 903c a872 5abd 0f91 7cbd 226e 20bc
00000020: 8a3b e13c 364a d13c ef7d 02bc 6ede c6bc
00000030: 004e 97bd e88b 2fbd 2f6d 563d 10c3 263d
00000040: 4c61 6f3d 6b16 173d 26cf 1abd 8563 a1bd
00000050: 8b16 38bc fd2e 1cbd 28f9 d43c c806 c63c
00000060: 7caa 25bd ddb4 093d 92b0 a1bc bfd1 3d3c
00000070: da85 4cbc 4aa1 b93b 00b7 88bd 12c6 85bd
00000080: 0869 8ebd ca59 a83d a673 2c3d 2dc0 42bd
00000090: 04bd 1c3d 832c 6a3a cd59 1cbd 754a 96bd
000000a0: 63a7 aebd 6098 8dbd a9ea 153c e224 84bd
000000b0: 1412 fcbc 5824 a2bd 97fc 46bd f9e5 813d
000000c0: 4561 d7bb 201d 41bd f544 b33d e439 a43d
000000d0: ac2a b9bb 2b55 fb3c 4497 1cbd 59cc c33c
000000e0: bda4 9bbd 75c4 98bd 5f6f 3bbd 9ef2 04bd
000000f0: b810 65bc fc7e 58bd fba7 35bd 3a3a 7cbd
00000100: 3afa f43c 8075 98bd 92d4 94bc f6ab 69bd
00000110: ccc6 f63c e889 8a3d 615d 68bd 9130 9abd
00000120: d68c 0f3d 7172 8b3c 7d1b 8fbd 742c 08bc
00000130: 6b93 893d 37c9 37bd c2d5 c33c 0d01 3f3d
00000140: 5265 0c3d f332 323d 6b8e 1d3d 4ff0 c13c
00000150: 6e63 873d a619 8fbd f17f 4c3d 1786 86bd
00000160: 359f d33c 1f2f 893d 0053 2ebd e183 b13d
00000170: 90c9 8a3d 8da4 8ebd a481 82bd 4423 8b3d
00000180: 7cb7 2a3d 5993 b3bd 2495 d9bc 7a86 a0bd
00000190: f597 923d a611 dc3c 9e86 7c3d 53c9 b13d
000001a0: f48a 213d 6264 0e3d b675 93bc 113e 513d
000001b0: 768f 603d 884e 1e3d 74bc 8d3d 2edb 393d
000001c0: 37b4 17bd 3e89 8abd 0dc8 5e3d 5eb2 073d
000001d0: 340f 65bd 8a88 eb3c 5fca 92bd f514 7bbd
000001e0: eb8a b63c 4534 6cbd bb8d 28bc 5da8 a93d
000001f0: e56c e7bc c4a2 adbb 83b2 353d 71c7 9ebd
00000200: 5c33 a3bd 467b 25bd 880f babc 7d65 903c
00000210: e93e 28bd b78e 0b3d 7f12 a5bd aafd 523d
00000220: a30c 8a3d d667 0f3d 2569 96bb 0a63 0b3d
00000230: 4ee8 073c 3fc0 2e3d 8767 813d 8c35 293d
00000240: 5964 b43c d406 80bd 9a97 a5bc 904d 37bd
00000250: 70f6 b2bd 5b34 943d 1e44 873d 8c37 a63d
00000260: d8be 863d bf11 b93c ec19 41bd 28f0 0e3c
00000270: 9531 66bd d98d 343d ef7f 26bd ce51 3d3b
00000280: 672f a1bd 8812 9bbd e5f5 8cbd bcf8 9abd
00000290: ddb7 98bd cbf3 abbd 3b6e 5d3c 8150 903d
000002a0: a9d8 183d 55a1 393d 7f11 953d 83ed ae3d
000002b0: 2cc3 913c f3d2 1e3c 11b1 9dbd a0e0 2f3d
000002c0: 656f 7a3d 9656 1cbd 0461 4abd 2cdc 8f3d
000002d0: 87bf f6bb 90d2 1a3d f145 efbc 8f1e 85bd
000002e0: 285d 8f3d 491e 723d 9803 063d 5dd9 9dbd
000002f0: d12b 533d 43ec 9e3d d0bc 713d 294d f0bc
00000300: c11c 1fbd 04cb 373c 20ef b73c b09b 08bc
00000310: 3f9d 1bbc aa7a a83d ff63 95bd a007 f4bc
00000320: 1405 0e3d 5ad8 853d b91c 233d a26d 96bc
00000330: d338 653d 3183 2c3d d625 623d 8ee1 6cbd
00000340: 6d0a 79bc 5124 113d 88e4 b03b 2d8d 8b3c
00000350: beed 5fbd 6103 85bd 61ec 293d bc91 b43d
00000360: b6cc c1bc cb6b b03c 50b4 f03c fe67 ad3d
00000370: d330 95bc 7af0 6d3d 0a6b 7a3d c58c d03c
00000380: 6f8a 8cbc c311 383d 1fbc 3c3d 200a 9dbd
00000390: 796d 673b 3019 9dbd 42f4 a53c 5e50 db3c
000003a0: 9589 0ebd a87d a63c 2c54 de3b f75d a53d
000003b0: 5c53 95bd a0ff 363d a793 8d3d 8857 4d3d
000003c0: 472a 923d 58bd 733d f01a b4bd 4aff 943d
000003d0: 7b2e ccbb eca2 a9bd 310b 353d aa29 8fbd
000003e0: 535b 79bd b25c a03c 13ad 483c e98b 08bc
000003f0: 1c01 9cbd becb f33c 8a04 dd3c 04c2 7e3d
0.06772275 -0.016351206 0.032182056 0.0830754 0.017634198 -0.053332 -0.061661776 -0.009791883
0.02749421 0.025548082 -0.007964595 -0.024275985 -0.07387924 -0.042858034 0.05235022 0.04071337
0.0584424 0.036886614 -0.03779521 -0.0788031 -0.011235843 -0.03813075 0.025997713 0.024173155
-0.04044579 0.03361975 -0.019737516 0.011585652 -0.012483085 0.005664979 -0.066755295 -0.065319195
-0.06953627 0.08220251 0.04210248 -0.047546554 0.038266197 0.00089330244 -0.03817158 -0.0733842
-0.0852802 -0.06913829 0.009150186 -0.06452347 -0.03077034 -0.07917088 -0.048580732 0.06342692
-0.0065728747 -0.047146916 0.08753387 0.08018854 -0.005650839 0.03068026 -0.038230196 0.023901151
-0.07599781 -0.07459346 -0.04576051 -0.03245794 -0.013981037 -0.052855477 -0.04434965 -0.061578967
0.029904474 -0.07444286 -0.018167768 -0.05704876 0.03012409 0.06764585 -0.056729678 -0.075287946
0.03504642 0.017022343 -0.06987665 -0.00831138 0.06717571 -0.044869628 0.023905639 0.04663186
0.034276314 0.04350562 0.0384659 0.023674158 0.066107616 -0.06987314 0.049926702 -0.06568544
0.025832752 0.06698441 -0.042559624 0.08667732 0.06776726 -0.06964979 -0.06372383 0.06793836
0.04167889 -0.08768339 -0.026560374 -0.07838149 0.0715789 0.026863884 0.06165182 0.08680978
0.039439157 0.0347637 -0.018000465 0.05108458 0.054824315 0.038649112 0.0692071 0.04537504
-0.0370371 -0.06764458 0.054390002 0.03312909 -0.055922702 0.02875163 -0.071675055 -0.061299283
0.022283038 -0.057667036 -0.010287697 0.08284066 -0.028250167 -0.005298944 0.044359695 -0.07752884
-0.079687804 -0.040400766 -0.022712484 0.017626518 -0.04107562 0.03407165 -0.080601685 0.051511444
0.067406915 0.035011135 -0.004590171 0.034029998 0.008295132 0.04266381 0.063185744 0.041310832
0.022020506 -0.06251302 -0.02021389 -0.044751704 -0.087384105 0.072365485 0.06604789 0.081160635
0.06579369 0.02259147 -0.04714386 0.00872425 -0.05619963 0.04408059 -0.04064935 0.002888787
-0.078703694 -0.07571894 -0.06882838 -0.075669736 -0.07456944 -0.08396109 0.0135150505 0.07046605
0.037316 0.045319874 0.07278728 0.085413955 0.01779326 0.009693849 -0.07699788 0.04293883
0.06114139 -0.038168512 -0.049408928 0.07024416 -0.007530156 0.037798464 -0.029208155 -0.06499969
0.0700019 0.059110913 0.03271827 -0.077074744 0.05155546 0.07759907 0.059017956 -0.029333668
-0.03884578 0.011217836 0.02245289 -0.0083379 -0.00949794 0.08226521 -0.07294463 -0.029788792
0.03467281 0.065354064 0.039822314 -0.018362824 0.055962395 0.0421173 0.055211864 -0.057832293
-0.01520024 0.035435025 0.005398337 0.017035091 -0.054670088 -0.06494785 0.041485194 0.08816859
-0.023657184 0.021535775 0.029382855 0.084671006 -0.018211758 0.058090664 0.061137237 0.02545775
-0.017155854 0.044938814 0.046077844 -0.07667947 0.0035313054 -0.0767082 0.020258073 0.02677172
-0.034799177 0.02032359 0.0067849364 0.08074563 -0.0729129 0.044677377 0.06912928 0.050132304
0.0713697 0.059506744 -0.087942004 0.07275255 -0.006231127 -0.08283028 0.044200126 -0.06990369
-0.06087811 0.01957545 0.012248295 -0.008334138 -0.07617399 0.029760238 0.026979703 0.062196746
