custom_maze/static/custom_maze/run/room24806/trained_model.pth (torch, 158738 bytes, 12 tensors)

layer1.weight f4 [128, 16]
00000000: b85c 1bbe 9e1b 40be 00f3 323d c45f 993d
00000010: a0fd 063e e42b 2bbe e86d 6cbe 1056 36bd
00000020: 481e 6e3d c2fb 6abe d860 2b3d ec51 893d
00000030: c8af c5bd 408c babc 9831 d4bd 4c32 5bbe
00000040: ea84 0e3e 7468 b2bd 98cd 523d 30e8 cb3c
00000050: 8896 5bbe 3098 593d aed2 36be 4c8c 1c3e
00000060: 1070 0b3e 9214 453e d08d 59be a04c b83c
00000070: 0858 77bd 3cde e6bd 20a6 60bc 30b0 63bd
00000080: b841 dcbd 7013 eabc 345b 02be 5aa9 793e
00000090: 68ca 103e e6ec 30be 4002 87bd d0ea fabd
000000a0: b01b 4dbe 24a2 9cbd ec93 353e 8876 7e3d
000000b0: 80c3 66bb 446c 79be 0cdb 5c3e 0cb3 953d
000000c0: 1842 29be 140a 37be 4233 703e 185f 0bbd
000000d0: f024 d9bd 16af 04be 781f a43d 146b 413e
000000e0: 2004 b03d bcdc 0dbe c091 773c bcaf d13d
000000f0: 00fa 74bc 022b 07be ac13 d5bd c239 143e
00000100: 9423 60be 8048 203e a0c1 0c3c 4edb 07be
00000110: b00a 663d 140e d5bd f62a 173e 40ad 343e
00000120: 228e 42be 821d 583e 1004 3abe c4b8 5c3e
00000130: c882 1b3d 7c61 c3bd 50a0 d3bc 2067 f1bd
00000140: f00e 8bbc 14e2 ca3d b0e3 a6bc f01d 183d
00000150: 105e 37bd aa2a 483e 089b 62be fcab 2fbe
00000160: 6e3d 36be d0b4 043d 3037 023e 30c7 fc3c
00000170: 4040 04bd 3067 b83c c081 793e c2f0 233e
00000180: 10b0 e53d 7819 e8bd 8c43 bcbd 3264 0bbe
00000190: d0e8 273d 88df f43d 52f7 2abe 720d 7cbe
000001a0: e89e ffbd 5c23 b4bd 40f1 2dbc f883 12be
000001b0: 200e 1f3e 56ea 583e 2a24 45be 58e7 d0bd
000001c0: bc66 efbd 00c0 443e 961e 08be 703b 203d
000001d0: 9456 3e3e e85c 7b3d e802 20bd 9a64 78be
000001e0: c008 7cbd acd1 b73d 4840 223d 504c cb3d
000001f0: 48f0 ca3d e82d 91bd 9ad0 6cbe 42a5 79be
00000200: b085 423e 980a 123d 3c4b ed3d ee73 4dbe
00000210: b497 31be 80ad 853d f662 5f3e f4d7 753e
00000220: 709c 8abc 4ae4 54be 1053 bdbd fc1b 8fbd
00000230: c8f6 343d 443b 8d3d 5028 35bd 8813 55be
00000240: 6ee1 2c3e 881b a03d fa8b 493e d0b0 6ebe
00000250: 9679 7d3e 6c68 40be c0ea 853b 3c24 3fbe
00000260: 60bb 0ebd 200f b1bc 0019 f83d 14c9 45be
00000270: 30c7 6e3e 527f 40be 5c38 bcbd 40d2 423e
00000280: a8b4 35bd 5892 2b3d 74bd 863d 9e4a 54be
00000290: 70ce c23d 84fa bebd 8042 d93b 089e efbd
000002a0: 80b2 b7bd 2460 e23d 00fa 153d 2094 dabd
000002b0: 4821 41bd 3088 05bd 40a6 d7bd b0d2 e13d
000002c0: a40b c73d dcb9 dabd f267 043e 0811 d03d
000002d0: dc8f 23be 003f 65bb 36f4 343e 1824 6cbe
000002e0: f070 bdbd 40f3 c73d 5eec 703e 3883 26be
000002f0: a4d8 65be 7638 103e 5095 623d 00dc 3a3b
00000300: 8c8e dfbd b0d7 04be 1cf1 783e 121a 413e
00000310: c884 ce3d 000a 34bd 2e59 573e 98f6 15bd
00000320: 7467 8e3d 4837 7bbe 442a 933d 748f 8abd
00000330: 3cc1 9e3d be47 53be 5892 323d 0207 2abe
00000340: c8b6 fa3d fc63 e33d 104c 43bd fab2 2e3e
00000350: 8c52 5fbe 3429 aebd 2088 083c 7430 29be
00000360: c8b0 6ebd c09b 1b3c 983d 7a3e e8d0 5d3e
00000370: c8d8 74bd fe7f 41be 2c74 32be dab5 063e
00000380: 243e ea3d 8825 783e 20e8 61be 423f 41be
00000390: 8036 29bb a056 a33c 60dd 513e c630 68be
000003a0: d056 55bd 2c5d 593e d241 6cbe f491 9b3d
000003b0: 807f 533c 90eb 82bd 1424 bf3d 4846 ca3d
000003c0: d4a9 27be 26e4 293e 4acc 123e 885a 223d
000003d0: fc0f 3f3e 88a1 21be aed6 0fbe 40af 9ebd
000003e0: 1c64 a0bd 981d 63be e439 1bbe cc57 953d
000003f0: a842 b1bd 1266 553e 9ec4 513e 10ec 1ebd
-0.15172088 -0.18760535 0.043688774 0.07488969 0.13182688 -0.16715962 -0.23088801 -0.04451567
0.058134347 -0.229476 0.041840404 0.067050785 -0.09652668 -0.022771955 -0.10361022 -0.21405905
0.1391789 -0.08711329 0.0514656 0.024890989 -0.21444142 0.053123653 -0.17853805 0.15287894
0.13616967 0.19246128 -0.21245503 0.022497475 -0.060386688 -0.112728566 -0.013711482 -0.055587947
-0.10754722 -0.028573722 -0.12730104 0.24381009 0.14139712 -0.1727787 -0.06592226 -0.12251818
-0.20030093 -0.07648113 0.17732209 0.06212476 -0.0035211742 -0.24357706 0.21567935 0.07309541
-0.16529119 -0.17874938 0.23457053 -0.034026235 -0.106027484 -0.12957415 0.08013815 0.18888503
0.08594537 -0.13853735 0.015110433 0.10238597 -0.014952183 -0.132 -0.10404143 0.14475158
-0.21888572 0.15652657 0.008591086 -0.13267252 0.056162536 -0.10403076 0.14762482 0.17644215
-0.18999532 0.21105006 -0.18165612 0.21554857 0.03796652 -0.09540078 -0.025833279 -0.11787248
-0.016974896 0.09906402 -0.020372242 0.037137926 -0.04476744 0.19547525 -0.22129452 -0.1715545
-0.17796871 0.032399 0.12716365 0.030856699 -0.032287836 0.022510141 0.24365902 0.1600981
0.11215222 -0.11332983 -0.09192571 -0.1361244 0.04099351 0.11956698 -0.16695908 -0.24614504
-0.12481481 -0.08795807 -0.0106166005 -0.14308155 0.15532732 0.21183142 -0.19252077 -0.10200375
-0.11689517 0.19213867 -0.13292918 0.039119184 0.18587714 0.0613679 -0.03906527 -0.24257126
-0.061531782 0.089755386 0.039612085 0.09926665 0.09909111 -0.07088834 -0.2312645 -0.24379447
0.1899631 0.035654634 0.115866154 -0.20063755 -0.17343026 0.06527233 0.21815094 0.24008161
-0.016920298 -0.2079021 -0.092443585 -0.069877595 0.04418066 0.0689607 -0.044227898 -0.20808232
0.1688287 0.07817751 0.19682303 -0.23309636 0.24753413 -0.18789834 0.0040868223 -0.18666166
-0.034846663 -0.021613657 0.12114143 -0.19314986 0.23318172 -0.18798569 -0.09190437 0.19025517
-0.04436174 0.04188761 0.06579104 -0.20731589 0.09512031 -0.09325126 0.006630242 -0.11700064
-0.08969593 0.110534936 0.03661537 -0.10672784 -0.04715088 -0.03260058 -0.105297565 0.110265136
0.09719017 -0.10679981 0.12930277 0.101594985 -0.15972847 -0.0034980178 0.17671284 -0.23060644
-0.09250057 0.09763193 0.23527667 -0.16260993 -0.22445923 0.14084038 0.055318177 0.0028512478
-0.109158605 -0.12972903 0.24310726 0.18857601 0.1008392 -0.04395485 0.21030113 -0.036612123
0.06953326 -0.24532807 0.07185796 -0.06765643 0.077517 -0.20632836 0.043596596 -0.16604236
0.12241894 0.11103055 -0.04767996 0.17060462 -0.21808833 -0.085039526 0.008333236 -0.1652239
-0.05827406 0.009497583 0.24437559 0.21661723 -0.05977705 -0.18896481 -0.17427129 0.13155308
0.11437634 0.24233067 -0.22061205 -0.18871787 -0.0025819838 0.019938767 0.20494604 -0.22674856
-0.052084744 0.21226948 -0.23071983 0.07596198 0.012908816 -0.06392586 0.09333053 0.09876686
-0.16373378 0.16590938 0.14335743 0.03963712 0.18658441 -0.15784276 -0.14046738 -0.0774827
-0.07831594 -0.22179258 -0.15158802 0.072921365 -0.08655292 0.20839718 0.2048516 -0.038799345

layer1.bias f4 [128]
00000000: 0657 0bbe c8e1 4b3e 40d0 e7bb 8870 413e
00000010: b87e 29be f893 0d3d 3e40 033e 3cb0 73be
00000020: 4827 773e 681e 2c3e 309e c9bd bc61 a2bd
00000030: 4cb4 003e 2034 a3bd bcd2 b0bd 6009 01bd
00000040: 084c 933d 268a 363e b82a 2f3d b8df b0bd
00000050: fc9b 983d 0c76 12be e469 bebd d86d 0a3d
00000060: aeba 7dbe 9849 f93d 70a7 c13c cca8 4abe
00000070: 90f0 663d 54d2 42be 68b5 e73d 1e48 27be
00000080: aa51 0bbe 00bd e2bd 3c36 8b3d 9001 f23d
00000090: d09f 6c3d 86e4 06be d0cc b83d 9c9c 4dbe
000000a0: 48ad e83d 9c1a eabd 6454 a8bd 88ad d8bd
000000b0: b829 59bd e013 22be 38bb febd 6cc3 4b3e
000000c0: 6066 1abd 345e f7bd dc5b 393e 54b4 99bd
000000d0: 2c94 d53d da71 0ebe 305a 92bc ba0d 453e
000000e0: a492 4abe b867 75be 6a8d 603e 94ca 04be
000000f0: e8b2 26bd 2264 0e3e 905b aa3d 5cbc 90bd
00000100: 00ba 1dbd aedc 1fbe 483e be3d fe54 6ebe
00000110: 108b 253d 5c77 19be cc55 9e3d d057 d0bd
00000120: 84ee 51be 20cf 5bbc 14f7 e5bd 24f2 753e
00000130: c40c 76be ec5a db3d 3c33 ac3d ec9f 973d
00000140: 8069 203d 2aab 1a3e c00c 3fbd 004c ad3a
00000150: 1ed9 773e 582a 1dbe 8071 dcbb 52a2 193e
00000160: a05c b03c d446 653e 7032 853c 08fd 273d
00000170: 9c49 e9bd 9c71 f2bd f0a1 48be 18f0 3c3d
00000180: 4acc 0f3e c009 333d 1a7a 79be 5c92 5b3e
00000190: ac96 07be 4060 683d 76d4 123e c427 23be
000001a0: bc5f 913d a093 41bc c033 c83d 24d6 483e
000001b0: da3c 453e 00f1 2e3e 202a 853c f2d1 263e
000001c0: 8e5f 07be f097 c1bc 1a08 503e e665 643e
000001d0: 465f 05be b88a 3fbe 70bf 4f3e 805d e23b
000001e0: f4b9 f33d f096 afbc 08fb 1d3e 80aa 9e3d
000001f0: 2659 503e a8c1 08bd 242f 26be 34b3 73be
-0.13607416 0.19910347 -0.007074386 0.18890584 -0.16552246 0.034564942 0.12817475 -0.23797697
0.24136078 0.16808474 -0.09844625 -0.079287976 0.12568778 -0.079689264 -0.086339444 -0.03150308
0.07192236 0.17826137 0.04276535 -0.08636421 0.07451627 -0.14302844 -0.09297541 0.03379616
-0.24778244 0.1217224 0.02363941 -0.19790953 0.056381762 -0.19025546 0.11313897 -0.16336104
-0.13605371 -0.11071205 0.06797454 0.11816704 0.057769597 -0.13173112 0.0902344 -0.20079273
0.11361176 -0.114308566 -0.08219221 -0.105799735 -0.0530183 -0.15827894 -0.12438053 0.19898766
-0.03769529 -0.12078515 0.18101448 -0.07505098 0.10428652 -0.13910618 -0.01786527 0.19243518
-0.19782501 -0.23965347 0.21928945 -0.12967902 -0.040697962 0.13905385 0.083182454 -0.07067177
-0.03850746 -0.15611526 0.09289223 -0.2327461 0.040415823 -0.14986938 0.07731208 -0.10172999
-0.20501143 -0.013416082 -0.11228767 0.2401815 -0.24028307 0.10710701 0.0840821 0.074035496
0.039163113 0.15104356 -0.04664302 0.0013221502 0.24203917 -0.15348184 -0.0067273974 0.15003327
0.021528542 0.223903 0.016259402 0.041012794 -0.11390993 -0.118380755 -0.19593024 0.04612741
0.14042774 0.04371047 -0.24362984 0.2144255 -0.1324107 0.056732416 0.1433886 -0.15933138
0.07098338 -0.011814982 0.097754955 0.19612938 0.19261494 0.17084122 0.016255438 0.16291025
-0.13220045 -0.02363202 0.2031559 0.22304496 -0.13024625 -0.18705261 0.20287871 0.0069081187
0.11900702 -0.021434277 0.15427792 0.07747364 0.20346507 -0.03338781 -0.1622892 -0.2379883

layer2.weight f4 [128, 128]
00000000: 4e99 343d 2306 f53c dc2e 76bd df43 11bd
00000010: 3307 38bd 53b2 bdbb 9c05 a9bd d537 083d
00000020: c789 9abd e6d1 9e3d 4a6f 92bd ce63 843b
00000030: 9313 293d 5faf 81bc 3cf8 e43c f420 2b3d
00000040: 808b 24bc 445a 7f3d 4bff 60bd a2bf 62bd
00000050: 2e6e 6bbd 1f1b aebd 3044 f93c 69af d2bc
00000060: 435a 3ebc bd37 0fbd d2f5 f6bc 2306 c3bc
00000070: d643 963d 9aa3 e03c 8bac 29bd 5ae9 383d
00000080: bbf9 a43d 140a 563d 4abf cfbc bc2b 08bd
00000090: c04e 99bd 25c2 1cbd d296 513c bdb1 0bbd
000000a0: e40e 973d 78c2 6d3d 43d9 7c3d 2d67 453d
000000b0: 53a9 dcbc b08a 493d d31c 31bd 993b 923d
000000c0: 2fcb 2c3d 7153 b43c 865f a0bc e92a 9fbd
000000d0: b459 9e3d 7ba6 50bd 9d7b 80bd 7909 4bbc
000000e0: 3077 cbbc 078b 36bd bf4f a03d b074 34bd
000000f0: 538f 3d39 9338 b23d bcb0 933b 1967 6fbd
00000100: f39e 8b3d 87d6 31bd df2f 3e3d 7bc4 c7bc
00000110: a1c8 983d 7d9d 7c3d 81db 4ebd bd5c 1abd
00000120: 5660 1dbc 132b 1abc a769 f33c 9350 33bc
00000130: cbf6 3fbd e1fc 503d edd3 8b3d 7607 2abd
00000140: aeff 92bd b3fc 2dbd 3cc0 373c 7375 6b3d
00000150: c413 f23c 6f07 9ebc e42f 7b3c 4483 af3c
00000160: 82f9 373c ff6c febc 4f1d 5b3d 0303 2b3c
00000170: 69d2 37bd 9bdf 9f3d 218b 4dbd 1ca5 72bd
00000180: 926c 01bd 4bd3 93ba 2924 afbd 9b06 983c
00000190: addb 70bd eb87 a53d 0486 9cbd a9f9 87bd
000001a0: c3d7 bcbc 8376 493d fae4 55bc cb3f 31bc
000001b0: ce0e 8a3d f12e 7fbb cb9a 813d eb7d 9ebd
000001c0: 747a 9c3d e695 543d 2c7e 94bd 05c0 e83c
000001d0: 5698 313d 0504 87bd 0e61 4d3d 69af 52bd
000001e0: 37d8 4b3d af3c 6fbc bc62 ef3c 990a 933d
000001f0: a552 aa3d 5778 2dbd ca74 27bc 090a 28bc
00000200: 93c9 f7bb c586 87bd e42d 8a3d 6f25 4e3d
00000210: 7f33 6a3d 27fa fa3c 9207 56bd 5937 66bd
00000220: f2e0 68bd 7d99 fc3c df61 843d 470b 16bc
00000230: 2768 593d ead0 a73d 3c03 ae3d 8ada 88bd
00000240: 8a19 51bd 4eaf 7f3d a6c3 2c3d 3d26 ff3c
00000250: c1ca 39bd bedd 29bc 6ee2 93bc 2c66 103c
00000260: 36b6 4c3d a4c8 423c b18b 1d3c 31c9 d7bc
00000270: a65b 7c3d 2eb6 fa3c 32ef a53d 5617 a23d
00000280: 66b2 703d 776f 803d 5fc0 90bb d225 76bb
00000290: f505 e13c 4022 6c3c 62f9 babc d822 533c
000002a0: 5b81 4a3b cee5 66bd 2da8 3c3d 3d72 aabd
000002b0: 57da 86bd 8ced 6b3d 5c54 1bbd 0ef4 473d
000002c0: 6c19 393d 6c75 4a3d 24fe ebbc 5317 8dbc
000002d0: 0c9c babc a26e 86bd 7f81 4d3c e471 83bd
000002e0: 4eb9 0d3d ecad 903d 6dd1 833d 3c09 b3bd
000002f0: 6ac3 4c3c 4cab 7abd b9e1 e33b fff7 df3c
00000300: c845 0b3c e899 c63c f997 3bbd c706 843d
00000310: 5e6d 1cbd e76f 02bd 7068 cd3c 7eeb 473d
00000320: 2e87 8e3d 7bb5 533c b9b9 c23c 56f0 833d
00000330: f030 ab3d 2b93 aa3d 3f39 58bc 749a 9038
00000340: 1fb9 d83c 24b9 723c 8595 653d bd5c 913d
00000350: b598 773d 4640 0abd 2a58 403d 23c3 ad3c
00000360: 7fca b03d d5c6 80bd 48f0 f93c 9cc2 0fbd
00000370: fe04 ab3d fa74 103b d7d3 68bd 6964 973d
00000380: 1703 e03c 186f a1bd 5e8d 843c cfdd bebc
00000390: a822 3abd 337a 54bd 9d2a a63d a790 cd3c
000003a0: 8766 9e3d 1856 84bd 8949 643c 3bb3 bd3c
000003b0: f8da ae3d 1991 923c cca5 86bc fd60 b4bb
000003c0: df2b 1ab9 15ce 04bd 19c6 953d 443b 5fbd
000003d0: 9043 113d 0cf2 a53c 9221 b03c ae56 a0bd
000003e0: 7e50 84bc 62ae 6f3d f9cb 0a3d 4737 193d
000003f0: 9b18 74bd e5a8 25bd cd7b 6d3d c69d bd3c
0.044091515 0.029910153 -0.060103282 -0.035465118 -0.04492874 -0.00578908 -0.08253023 0.03325637
-0.0754581 0.07754879 -0.07150133 0.004040218 0.041278433 -0.015830694 0.027950399 0.041779473
-0.010043025 0.062341943 -0.054930966 -0.055358537 -0.057478122 -0.08501267 0.030428022 -0.025718408
-0.0116182 -0.034965266 -0.030146513 -0.023806637 0.073371574 0.027421761 -0.041424315 0.045144416
0.08055445 0.052255705 -0.025359768 -0.033244833 -0.074857235 -0.03827109 0.012792306 -0.03410505
0.07375887 0.058046788 0.061730634 0.0481941 -0.026936209 0.04920453 -0.04324038 0.071402736
0.04218596 0.022012444 -0.0195768 -0.07771856 0.07731953 -0.05094002 -0.06273577 -0.012392395
-0.024837106 -0.04456618 0.0782771 -0.044056594 0.00018077837 0.08702197 0.0045071524 -0.05844793
0.068174265 -0.04341748 0.046432372 -0.024385681 0.07460142 0.06167363 -0.050502304 -0.0376861
-0.009605488 -0.009409684 0.029713465 -0.010944503 -0.04686622 0.051022414 0.06827531 -0.04151102
-0.07177673 -0.04247732 0.011215266 0.057485055 0.02955044 -0.019290654 0.015331242 0.021424897
0.011228921 -0.031057833 0.053494748 0.01043773 -0.044878397 0.07806321 -0.05018151 -0.05923949
-0.03159768 -0.001127818 -0.08551819 0.018557837 -0.05880325 0.08082565 -0.07642749 -0.06639416
-0.023052102 0.049185287 -0.013055081 -0.010818432 0.06741105 -0.0038937891 0.063283525 -0.07738861
0.076405436 0.051900767 -0.07250628 0.028411875 0.04335817 -0.065925635 0.050141387 -0.051436815
0.049766745 -0.01460187 0.029221885 0.07179756 0.083165444 -0.042351093 -0.010220716 -0.010256299
-0.0075618713 -0.06617502 0.06747034 0.05032867 0.057178017 0.03063686 -0.052253313 -0.056205127
-0.05685515 0.030834908 0.0646398 -0.009157962 0.053077843 0.08194144 0.08496711 -0.06682308
-0.051049747 0.062423043 0.042178772 0.031146163 -0.045359377 -0.010367809 -0.018052306 0.008813422
0.049978457 0.011888657 0.009615825 -0.026341053 0.06161084 0.030604448 0.081022635 0.07914607
0.058763884 0.0627126 -0.0044174637 -0.0037559164 0.02746866 0.014412463 -0.022823993 0.012886725
0.0030899856 -0.056371503 0.046058822 -0.083225705 -0.06584614 0.05759959 -0.03792225 0.048816733
0.04519026 0.04942839 -0.028807707 -0.017223036 -0.022779487 -0.0656407 0.012543081 -0.06418207
0.03460055 0.07064423 0.06436429 -0.08741996 0.012497762 -0.061198518 0.0069543985 0.027339933
0.008500524 0.02424331 -0.04579923 0.06446605 -0.03819024 -0.031845 0.025074214 0.048808567
0.06959377 0.012921686 0.0237702 0.06442325 0.083589435 0.08328851 -0.013197242 6.895224e-05
0.02645546 0.014814649 0.056050796 0.070977665 0.060448367 -0.033752702 0.04695908 0.021211213
0.08632373 -0.06287924 0.030510083 -0.035097703 0.083505616 0.002204238 -0.05684265 0.073921986
0.027345223 -0.078825176 0.01618069 -0.023299126 -0.045443207 -0.05187435 0.081135966 0.02509339
0.07734399 -0.064617336 0.013933548 0.023156753 0.08537859 0.017891454 -0.01643648 -0.005504726
-0.00014702928 -0.032423098 0.07313175 -0.05449988 0.035464823 0.020257019 0.021500383 -0.07829033
-0.016151663 0.058515914 0.03388593 0.037406232 -0.059593778 -0.040444274 0.057979394 0.023146521

layer2.bias f4 [128]
00000000: 6487 6b3c ab5a 5e3d 50cc 923d 3365 1fbd
00000010: d50d 8fbc 2895 a03d b75a fbba b052 46bd
00000020: 9ccd a23d 05c2 8ebb b6b2 2abd 82ad 85bd
00000030: 9a9a 443d dcd5 2e3d 32a4 973d 5d04 a53d
00000040: e201 5abd fa0c e23c d6fd fb3c eac7 923d
00000050: 3336 7b3d 78e9 2e3d bcf8 5bbd 33d5 d1bc
00000060: c7db 503d fec3 e1bb c7d7 a73d 7db5 9f3c
00000070: 3cac a0bd fe39 203d 2c3d 833d 377e 10bd
00000080: 92c4 0cbd 8e6c 7ebd d446 ad3d b0ee 753d
00000090: a92b 3abc bfb3 8bbd a18e 9d3c 9496 81bd
000000a0: 735e f3bc 0ab3 7b3d c4bf ab3c 09ae 8b3b
000000b0: d4db 733d 7257 9a3b d8c9 48bd aa76 eb3c
000000c0: 6be0 63bd 8663 b4bd 5763 263d 9d98 26bc
000000d0: e429 23bd 7363 63bd 12ae 2abd 5eee 123c
000000e0: c743 7bbd 1ed0 62bc 67d9 a63d 4028 3b3d
000000f0: 3607 833d 1039 bc3c fcb5 b1bd fd87 9f3d
00000100: c631 093d c290 a83d 07c6 693d 25cd 25bd
00000110: 3318 3fbd 1b8f 123d 1617 0c3d f6d8 353d
00000120: 3426 1c3c f684 303d 94f1 a63c f265 3dbd
00000130: f82f a1bc 471e 06ba 81c4 8ebd 45e1 96bd
00000140: 097b b43d cbe6 d9bc c925 d7bc 4351 393d
00000150: 2f20 b33c 76ed 27bd 66b5 9fbd 2898 14bd
00000160: a6cd 78bd 815c 9f3c 3d36 a6bc 9b4c 3e3d
00000170: 9858 38bd 3b93 2f3d 5e2d 2cbd 5232 4b3d
00000180: 9a36 0f3c 9d56 d83c a41c 9fbd 3e51 85bd
00000190: c1c0 813d ffbc 933c ca8e 8c3d 0a35 b83c
000001a0: 0f5c 4c3d ba37 2fbd 48a4 393d fb8c 96bd
000001b0: a50e 8bbd cbea 39bd d2df 0dbd 95ae f53b
000001c0: 1d6e acbc 7fb7 24bd 98fc 87bd d3c5 15bd
000001d0: 4200 063d 6165 7b3d ffda ae3d b19f ad3c
000001e0: f4c1 9abc 1489 5fbd 58e3 833d b409 ac3b
000001f0: bf5b 8e3d 313b 4d3d 86f4 3abc ab2d c33b
0.014375541 0.054285686 0.07167876 -0.03891487 -0.01746265 0.07840949 -0.0019176815 -0.0484187
0.07949373 -0.004356625 -0.04167434 -0.065272346 0.047999002 0.04268442 0.07404365 0.08057473
-0.05322445 0.027594078 0.030760687 0.07167037 0.061330985 0.042703122 -0.05370401 -0.025614357
0.050990846 -0.006889819 0.08195453 0.01949572 -0.07845351 0.039117806 0.06408152 -0.035276618
-0.03436715 -0.062115245 0.08460775 0.060042083 -0.011362948 -0.06821393 0.01923305 -0.063275486
-0.029708123 0.06145004 0.020965464 0.00426269 0.059535816 0.0047101313 -0.04902062 0.028743107
-0.055633944 -0.08808045 0.04062208 -0.010168222 -0.039834872 -0.055514764 -0.041669913 0.008967964
-0.061343934 -0.013843564 0.08146935 0.045692682 0.0639786 0.022976428 -0.08677289 0.077896096
0.033494733 0.08230735 0.05707362 -0.040478844 -0.046653938 0.035781007 0.034201704 0.044396363
0.009530593 0.04309555 0.020378865 -0.0462398 -0.019676194 -0.0005116206 -0.06971074 -0.073671855
0.088125296 -0.026599308 -0.026263135 0.045243513 0.021865932 -0.040997945 -0.07798271 -0.03627792
-0.060742997 0.019453289 -0.020289535 0.046459775 -0.045006365 0.04286502 -0.042035453 0.049608536
0.008741045 0.026408488 -0.07769135 -0.06509636 0.06335593 0.018034456 0.06863172 0.022486228
0.04989248 -0.042777754 0.045322686 -0.07351109 -0.067899026 -0.04538993 -0.03463728 0.0074976184
-0.0210486 -0.040214058 -0.06639975 -0.036565613 0.03271509 0.06137598 0.08537864 0.02119431
-0.018891312 -0.054574087 0.06439847 0.00525018 0.06951093 0.050105277 -0.011410838 0.005956372

layer3.weight f4 [4, 128]
00000000: a455 e93c 03e6 873d 0770 033c 90f2 8abd
00000010: 09d1 16bd 7820 7b3c 1518 adbd 21f5 a33d
00000020: 7ce7 8fbd 6d33 8f3d a6a8 19bd 974e a23c
00000030: a4bf 19bd 2145 82bd 6c93 843d 7587 7cbd
00000040: be18 b23d b758 473d 9538 58bd 3d02 2b3d
00000050: 7f6c 113d b7bd 503d a5f1 e9bb 1c3e 0c3b
00000060: 8684 513c 19ab 8fbc bb4b efbc c61c 83bd
00000070: b523 4abd 1204 cd3c 84af 313d 6d97 64bd
00000080: 7ad6 65bd 4cea a73d adaa 2dbc 5340 9e3d
00000090: 7aaa 593d 7936 82bc 6516 84bd f971 97bd
000000a0: c6ba b0bd 68f1 5ebd 924e dc3c 4e9d d3bc
000000b0: 1603 a8bd 24bd 95bb b1e4 033d c7fa 333d
000000c0: 558a 383c c31b 3abd e71a 0f3d a8de 5e3d
000000d0: e3a5 4b3d 632b 85bd 4112 74bb e9c0 1bbd
000000e0: 85e6 9fbc d6d0 983c dde8 5a3d db26 203d
000000f0: 01db 1e3d 7947 dd3c f254 0abd 7cba 38bd
00000100: 7736 53bc 73e8 b7bc a060 a1bd 6e21 31bd
00000110: 4f53 3dbc 401c 7fbc 8bc6 a6bd a122 2c3d
00000120: 634e d53c c967 97bd 36f8 36bd 9e89 573c
00000130: 0c6e 0abd adac 9a3d 4ef5 9fbc 993f c5bc
00000140: 72de 0c3c 90cb 41bd ca07 483c bc86 44bd
00000150: 2f3e a93d 3771 953b c928 1dbd ad89 4a3d
00000160: e0d1 513d 53bf 993d 933e 7bbd 74f0 843c
00000170: 215d 4cbd 2151 07bd 162b 903d 3c91 aebb
00000180: 3485 d23a edbe fbbc ed9f 40bd b1c8 96bc
00000190: f78f 543d 7992 613d 3629 0fbd eb0d 89bd
000001a0: 175e 723d 29cf 393c 93f0 58bd 340f 61bd
000001b0: 1ca2 60bd a250 cabc 21e3 aebd 722d dc3c
000001c0: 9786 94bd 9a83 953d 66d6 f63c 3491 d63c
000001d0: 7ab5 043b 91e4 b23b 498d a5bc ed90 84bd
000001e0: 2efd 00bc e2fe ad3d 6f4b 6d3d 81b9 dbbc
000001f0: 7894 9c3b 4f05 6fbb 2e5c 4c3c 7b26 c03c
00000200: 3f22 a33d d41e 8a3d 85e5 fd3b 49f2 d8bc
00000210: 8400 87bd 26d0 9b3d 448a 6bbd a6be a53a
00000220: 97e1 243c 93aa 3abd 602f 873d c884 dbbc
00000230: 1fbc 82bd c1a0 443d dd4e 72bd a0d5 e9bb
00000240: 4921 4fbd 5476 31bd 742d 5f3d f95c 763b
00000250: e6fb c33c 4a12 983d c071 303d 826e 803d
00000260: 5e0e cd3c 554b 9bbd 12fc dd3c 3859 3d3d
00000270: 0f25 503d 5ccd 8c3d f436 14bd d5c2 56bd
00000280: 3166 47bd 02f3 a53d d8dd f63b ded4 7b3d
00000290: f7af b23d 718d 1c3d ccef a6bd e56b a1bc
000002a0: 5735 9f3d adc9 993d d1e4 ad3d 4ffb 6c3d
000002b0: 8c0b 523d 0d64 68bd 7372 a7bd da2c 8e3d
000002c0: 000d a2bd 9fc5 85bb ff4f 23bd 7fba 97bd
000002d0: d546 223d 12b0 743d 3955 cfbc a8b0 a53d
000002e0: 1221 873d 5660 a1bc 6d84 a0bd a0ae 92bd
000002f0: 659f 7b3c c611 993d c93d 783d 0479 263d
00000300: bb3a 3ebd 7287 92bd 5cfa 8f3d 5b31 4cbc
00000310: 0381 5bbd 97b7 823d 5ec6 413c 0bfc 303d
00000320: 83ad f33c b16e b8bc 6562 a53d 0ab1 1ebd
00000330: aa29 b33c 979f 7ebd 6493 b23d 690b 9abd
00000340: 305e 84bd 3ed8 8ebd 3490 2dbc b356 3f39
00000350: 7931 333d 19a3 8b3c d50f 70bd 679b a53d
00000360: 1888 533c c16c aabd fa28 7fbc 4a0b 143c
00000370: efbe 0e3d f76f 073c 55fc 6dbd 79fa 56bc
00000380: 861d d6bc e318 1dbd 2c4c 81bd 8690 51bd
00000390: fede 76bd a5cb b5ba 7c2e 9ebd 675a b3bd
000003a0: 83aa d93c 151c c23c e886 9d3d c889 a73c
000003b0: 9e72 8e3d c94b 153c d331 14bd da72 a63d
000003c0: 7149 9abd d294 29bc 41dd a6bd 0961 1abc
000003d0: f43c f2bc 0625 3bbd 188d c93c 5fef d83b
000003e0: 228b 613d 7fb2 93bd da4e c4bc a3c3 b23d
000003f0: 3b4a f73c b157 b33c 310a debb 7765 a63d
0.02848322 0.06635668 0.008022315 -0.067845464 -0.036820445 0.015327565 -0.08451859 0.08005739
-0.07026574 0.069922306 -0.03751435 0.019812865 -0.03753628 -0.063608415 0.06473431 -0.06165262
0.086961254 0.04866859 -0.052788336 0.04175018 0.03550386 0.050962176 -0.007139402 0.0021399325
0.012787944 -0.01753764 -0.029210916 -0.064019725 -0.04935046 0.025026355 0.043380275 -0.055808473
-0.056112744 0.081989855 -0.010599774 0.077271126 0.053141095 -0.015895115 -0.06449584 -0.073947854
-0.08629374 -0.05442944 0.026892934 -0.025831845 -0.082037136 -0.0045696665 0.03220052 0.04394033
0.01126345 -0.045436632 0.034937765 0.05441156 0.04971875 -0.06502416 -0.0037242325 -0.03802577
-0.0195191 0.018654268 0.053444732 0.039099555 0.038783077 0.02701162 -0.033772416 -0.04509972
-0.012891403 -0.022449708 -0.07879758 -0.04324477 -0.011555507 -0.0155707 -0.08143338 0.042025212
0.026038354 -0.07392842 -0.044670306 0.013155369 -0.033796355 0.075524665 -0.01952615 -0.024078177
0.008597957 -0.047313273 0.012208888 -0.047980055 0.08263814 0.0045606154 -0.038368974 0.049447704
0.051225543 0.07507195 -0.061338972 0.016227938 -0.049893502 -0.033036355 0.07039468 -0.005327372
0.0016061426 -0.030730689 -0.047027517 -0.018406244 0.051895108 0.055071328 -0.03495141 -0.06692108
0.059171762 0.011340895 -0.052963804 -0.05494614 -0.0548421 -0.024696652 -0.08539415 0.026877139
-0.072522335 0.07300492 0.03013153 0.026192285 0.002024977 0.005459376 -0.020208972 -0.06472955
-0.007872863 0.08495881 0.057933267 -0.026821854 0.004778441 -0.003647167 0.012473149 0.023455849
0.07965516 0.06744161 0.007748308 -0.026482718 -0.06591895 0.076080605 -0.057504907 0.0012645319
0.01006355 -0.04557283 0.06600833 -0.026796713 -0.063835375 0.04800487 -0.05915724 -0.007136062
-0.050568853 -0.043325737 0.054486707 0.0037592037 0.023923825 0.07425363 0.04307723 0.06271078
0.025031265 -0.07582728 0.027097736 0.046227664 0.05081659 0.06875107 -0.03618522 -0.0524319
-0.04868144 0.08102991 0.00753377 0.061482303 0.08724969 0.038220827 -0.081512064 -0.019704768
0.07773846 0.0750917 0.08490909 0.057856854 0.051280543 -0.05673604 -0.08176126 0.069421485
-0.07912636 -0.004082396 -0.039871212 -0.07408618 0.039618332 0.059738226 -0.025309192 0.08090335
0.065981045 -0.019699257 -0.07837758 -0.07162213 0.015357827 0.07474093 0.060605798 0.040642753
-0.04644273 -0.071547404 0.07030174 -0.012462939 -0.053589832 0.06382673 0.01182708 0.043209117
0.029745823 -0.02251372 0.08075408 -0.038743056 0.021870453 -0.062163915 0.08719519 -0.075217076
-0.06463277 -0.06974839 -0.010593463 0.00018247477 0.043748353 0.017045544 -0.05860885 0.08086281
0.012910865 -0.083215244 -0.015573734 0.009035895 0.034850057 0.008266441 -0.05810197 -0.013121241
-0.026137125 -0.038353812 -0.06313357 -0.05116322 -0.060271256 -0.0013869895 -0.0772371 -0.08757477
0.026570564 0.023695031 0.07691747 0.020451441 0.06955455 0.009112307 -0.03618033 0.08127375
-0.07533539 -0.010350423 -0.081476696 -0.009422549 -0.02957008 -0.045689605 0.024603412 0.006620332
0.055064328 -0.0721178 -0.02396338 0.08728721 0.030186763 0.0218924 -0.0067761173 0.08124822

layer3.bias f4 [4]
00000000: 5d4d 24bd dc80 9e3d 5581 8a3d 113d 633d
-0.040112842 0.07739422 0.067629494 0.05547816

layer1.weight f4 [128, 16]
00000000: b85c 1bbe 9e1b 40be 00f3 323d c45f 993d
00000010: a0fd 063e e42b 2bbe e86d 6cbe 1056 36bd
00000020: 481e 6e3d c2fb 6abe d860 2b3d ec51 893d
00000030: c8af c5bd 408c babc 9831 d4bd 4c32 5bbe
00000040: ea84 0e3e 7468 b2bd 98cd 523d 30e8 cb3c
00000050: 8896 5bbe 3098 593d aed2 36be 4c8c 1c3e
00000060: 1070 0b3e 9214 453e d08d 59be a04c b83c
00000070: 0858 77bd 3cde e6bd 20a6 60bc 30b0 63bd
00000080: b841 dcbd 7013 eabc 345b 02be 5aa9 793e
00000090: 68ca 103e e6ec 30be 4002 87bd d0ea fabd
000000a0: b01b 4dbe 24a2 9cbd ec93 353e 8876 7e3d
000000b0: 80c3 66bb 446c 79be 0cdb 5c3e 0cb3 953d
000000c0: 1842 29be 140a 37be 4233 703e 185f 0bbd
000000d0: f024 d9bd 16af 04be 781f a43d 146b 413e
000000e0: 2004 b03d bcdc 0dbe c091 773c bcaf d13d
000000f0: 00fa 74bc 022b 07be ac13 d5bd c239 143e
00000100: 9423 60be 8048 203e a0c1 0c3c 4edb 07be
00000110: b00a 663d 140e d5bd f62a 173e 40ad 343e
00000120: 228e 42be 821d 583e 1004 3abe c4b8 5c3e
00000130: c882 1b3d 7c61 c3bd 50a0 d3bc 2067 f1bd
00000140: f00e 8bbc 14e2 ca3d b0e3 a6bc f01d 183d
00000150: 105e 37bd aa2a 483e 089b 62be fcab 2fbe
00000160: 6e3d 36be d0b4 043d 3037 023e 30c7 fc3c
00000170: 4040 04bd 3067 b83c c081 793e c2f0 233e
00000180: 10b0 e53d 7819 e8bd 8c43 bcbd 3264 0bbe
00000190: d0e8 273d 88df f43d 52f7 2abe 720d 7cbe
000001a0: e89e ffbd 5c23 b4bd 40f1 2dbc f883 12be
000001b0: 200e 1f3e 56ea 583e 2a24 45be 58e7 d0bd
000001c0: bc66 efbd 00c0 443e 961e 08be 703b 203d
000001d0: 9456 3e3e e85c 7b3d e802 20bd 9a64 78be
000001e0: c008 7cbd acd1 b73d 4840 223d 504c cb3d
000001f0: 48f0 ca3d e82d 91bd 9ad0 6cbe 42a5 79be
00000200: b085 423e 980a 123d 3c4b ed3d ee73 4dbe
00000210: b497 31be 80ad 853d f662 5f3e f4d7 753e
00000220: 709c 8abc 4ae4 54be 1053 bdbd fc1b 8fbd
00000230: c8f6 343d 443b 8d3d 5028 35bd 8813 55be
00000240: 6ee1 2c3e 881b a03d fa8b 493e d0b0 6ebe
00000250: 9679 7d3e 6c68 40be c0ea 853b 3c24 3fbe
00000260: 60bb 0ebd 200f b1bc 0019 f83d 14c9 45be
00000270: 30c7 6e3e 527f 40be 5c38 bcbd 40d2 423e
00000280: a8b4 35bd 5892 2b3d 74bd 863d 9e4a 54be
00000290: 70ce c23d 84fa bebd 8042 d93b 089e efbd
000002a0: 80b2 b7bd 2460 e23d 00fa 153d 2094 dabd
000002b0: 4821 41bd 3088 05bd 40a6 d7bd b0d2 e13d
000002c0: a40b c73d dcb9 dabd f267 043e 0811 d03d
000002d0: dc8f 23be 003f 65bb 36f4 343e 1824 6cbe
000002e0: f070 bdbd 40f3 c73d 5eec 703e 3883 26be
000002f0: a4d8 65be 7638 103e 5095 623d 00dc 3a3b
00000300: 8c8e dfbd b0d7 04be 1cf1 783e 121a 413e
00000310: c884 ce3d 000a 34bd 2e59 573e 98f6 15bd
00000320: 7467 8e3d 4837 7bbe 442a 933d 748f 8abd
00000330: 3cc1 9e3d be47 53be 5892 323d 0207 2abe
00000340: c8b6 fa3d fc63 e33d 104c 43bd fab2 2e3e
00000350: 8c52 5fbe 3429 aebd 2088 083c 7430 29be
00000360: c8b0 6ebd c09b 1b3c 983d 7a3e e8d0 5d3e
00000370: c8d8 74bd fe7f 41be 2c74 32be dab5 063e
00000380: 243e ea3d 8825 783e 20e8 61be 423f 41be
00000390: 8036 29bb a056 a33c 60dd 513e c630 68be
000003a0: d056 55bd 2c5d 593e d241 6cbe f491 9b3d
000003b0: 807f 533c 90eb 82bd 1424 bf3d 4846 ca3d
000003c0: d4a9 27be 26e4 293e 4acc 123e 885a 223d
000003d0: fc0f 3f3e 88a1 21be aed6 0fbe 40af 9ebd
000003e0: 1c64 a0bd 981d 63be e439 1bbe cc57 953d
000003f0: a842 b1bd 1266 553e 9ec4 513e 10ec 1ebd
-0.15172088 -0.18760535 0.043688774 0.07488969 0.13182688 -0.16715962 -0.23088801 -0.04451567
0.058134347 -0.229476 0.041840404 0.067050785 -0.09652668 -0.022771955 -0.10361022 -0.21405905
0.1391789 -0.08711329 0.0514656 0.024890989 -0.21444142 0.053123653 -0.17853805 0.15287894
0.13616967 0.19246128 -0.21245503 0.022497475 -0.060386688 -0.112728566 -0.013711482 -0.055587947
-0.10754722 -0.028573722 -0.12730104 0.24381009 0.14139712 -0.1727787 -0.06592226 -0.12251818
-0.20030093 -0.07648113 0.17732209 0.06212476 -0.0035211742 -0.24357706 0.21567935 0.07309541
-0.16529119 -0.17874938 0.23457053 -0.034026235 -0.106027484 -0.12957415 0.08013815 0.18888503
0.08594537 -0.13853735 0.015110433 0.10238597 -0.014952183 -0.132 -0.10404143 0.14475158
-0.21888572 0.15652657 0.008591086 -0.13267252 0.056162536 -0.10403076 0.14762482 0.17644215
-0.18999532 0.21105006 -0.18165612 0.21554857 0.03796652 -0.09540078 -0.025833279 -0.11787248
-0.016974896 0.09906402 -0.020372242 0.037137926 -0.04476744 0.19547525 -0.22129452 -0.1715545
-0.17796871 0.032399 0.12716365 0.030856699 -0.032287836 0.022510141 0.24365902 0.1600981
0.11215222 -0.11332983 -0.09192571 -0.1361244 0.04099351 0.11956698 -0.16695908 -0.24614504
-0.12481481 -0.08795807 -0.0106166005 -0.14308155 0.15532732 0.21183142 -0.19252077 -0.10200375
-0.11689517 0.19213867 -0.13292918 0.039119184 0.18587714 0.0613679 -0.03906527 -0.24257126
-0.061531782 0.089755386 0.039612085 0.09926665 0.09909111 -0.07088834 -0.2312645 -0.24379447
0.1899631 0.035654634 0.115866154 -0.20063755 -0.17343026 0.06527233 0.21815094 0.24008161
-0.016920298 -0.2079021 -0.092443585 -0.069877595 0.04418066 0.0689607 -0.044227898 -0.20808232
0.1688287 0.07817751 0.19682303 -0.23309636 0.24753413 -0.18789834 0.0040868223 -0.18666166
-0.034846663 -0.021613657 0.12114143 -0.19314986 0.23318172 -0.18798569 -0.09190437 0.19025517
-0.04436174 0.04188761 0.06579104 -0.20731589 0.09512031 -0.09325126 0.006630242 -0.11700064
-0.08969593 0.110534936 0.03661537 -0.10672784 -0.04715088 -0.03260058 -0.105297565 0.110265136
0.09719017 -0.10679981 0.12930277 0.101594985 -0.15972847 -0.0034980178 0.17671284 -0.23060644
-0.09250057 0.09763193 0.23527667 -0.16260993 -0.22445923 0.14084038 0.055318177 0.0028512478
-0.109158605 -0.12972903 0.24310726 0.18857601 0.1008392 -0.04395485 0.21030113 -0.036612123
0.06953326 -0.24532807 0.07185796 -0.06765643 0.077517 -0.20632836 0.043596596 -0.16604236
0.12241894 0.11103055 -0.04767996 0.17060462 -0.21808833 -0.085039526 0.008333236 -0.1652239
-0.05827406 0.009497583 0.24437559 0.21661723 -0.05977705 -0.18896481 -0.17427129 0.13155308
0.11437634 0.24233067 -0.22061205 -0.18871787 -0.0025819838 0.019938767 0.20494604 -0.22674856
-0.052084744 0.21226948 -0.23071983 0.07596198 0.012908816 -0.06392586 0.09333053 0.09876686
-0.16373378 0.16590938 0.14335743 0.03963712 0.18658441 -0.15784276 -0.14046738 -0.0774827
-0.07831594 -0.22179258 -0.15158802 0.072921365 -0.08655292 0.20839718 0.2048516 -0.038799345

layer1.bias f4 [128]
00000000: 0657 0bbe c8e1 4b3e 40d0 e7bb 8870 413e
00000010: b87e 29be f893 0d3d 3e40 033e 3cb0 73be
00000020: 4827 773e 681e 2c3e 309e c9bd bc61 a2bd
00000030: 4cb4 003e 2034 a3bd bcd2 b0bd 6009 01bd
00000040: 084c 933d 268a 363e b82a 2f3d b8df b0bd
00000050: fc9b 983d 0c76 12be e469 bebd d86d 0a3d
00000060: aeba 7dbe 9849 f93d 70a7 c13c cca8 4abe
00000070: 90f0 663d 54d2 42be 68b5 e73d 1e48 27be
00000080: aa51 0bbe 00bd e2bd 3c36 8b3d 9001 f23d
00000090: d09f 6c3d 86e4 06be d0cc b83d 9c9c 4dbe
000000a0: 48ad e83d 9c1a eabd 6454 a8bd 88ad d8bd
000000b0: b829 59bd e013 22be 38bb febd 6cc3 4b3e
000000c0: 6066 1abd 345e f7bd dc5b 393e 54b4 99bd
000000d0: 2c94 d53d da71 0ebe 305a 92bc ba0d 453e
000000e0: a492 4abe b867 75be 6a8d 603e 94ca 04be
000000f0: e8b2 26bd 2264 0e3e 905b aa3d 5cbc 90bd
00000100: 00ba 1dbd aedc 1fbe 483e be3d fe54 6ebe
00000110: 108b 253d 5c77 19be cc55 9e3d d057 d0bd
00000120: 84ee 51be 20cf 5bbc 14f7 e5bd 24f2 753e
00000130: c40c 76be ec5a db3d 3c33 ac3d ec9f 973d
00000140: 8069 203d 2aab 1a3e c00c 3fbd 004c ad3a
00000150: 1ed9 773e 582a 1dbe 8071 dcbb 52a2 193e
00000160: a05c b03c d446 653e 7032 853c 08fd 273d
00000170: 9c49 e9bd 9c71 f2bd f0a1 48be 18f0 3c3d
00000180: 4acc 0f3e c009 333d 1a7a 79be 5c92 5b3e
00000190: ac96 07be 4060 683d 76d4 123e c427 23be
000001a0: bc5f 913d a093 41bc c033 c83d 24d6 483e
000001b0: da3c 453e 00f1 2e3e 202a 853c f2d1 263e
000001c0: 8e5f 07be f097 c1bc 1a08 503e e665 643e
000001d0: 465f 05be b88a 3fbe 70bf 4f3e 805d e23b
000001e0: f4b9 f33d f096 afbc 08fb 1d3e 80aa 9e3d
000001f0: 2659 503e a8c1 08bd 242f 26be 34b3 73be
-0.13607416 0.19910347 -0.007074386 0.18890584 -0.16552246 0.034564942 0.12817475 -0.23797697
0.24136078 0.16808474 -0.09844625 -0.079287976 0.12568778 -0.079689264 -0.086339444 -0.03150308
0.07192236 0.17826137 0.04276535 -0.08636421 0.07451627 -0.14302844 -0.09297541 0.03379616
-0.24778244 0.1217224 0.02363941 -0.19790953 0.056381762 -0.19025546 0.11313897 -0.16336104
-0.13605371 -0.11071205 0.06797454 0.11816704 0.057769597 -0.13173112 0.0902344 -0.20079273
0.11361176 -0.114308566 -0.08219221 -0.105799735 -0.0530183 -0.15827894 -0.12438053 0.19898766
-0.03769529 -0.12078515 0.18101448 -0.07505098 0.10428652 -0.13910618 -0.01786527 0.19243518
-0.19782501 -0.23965347 0.21928945 -0.12967902 -0.040697962 0.13905385 0.083182454 -0.07067177
-0.03850746 -0.15611526 0.09289223 -0.2327461 0.040415823 -0.14986938 0.07731208 -0.10172999
-0.20501143 -0.013416082 -0.11228767 0.2401815 -0.24028307 0.10710701 0.0840821 0.074035496
0.039163113 0.15104356 -0.04664302 0.0013221502 0.24203917 -0.15348184 -0.0067273974 0.15003327
0.021528542 0.223903 0.016259402 0.041012794 -0.11390993 -0.118380755 -0.19593024 0.04612741
0.14042774 0.04371047 -0.24362984 0.2144255 -0.1324107 0.056732416 0.1433886 -0.15933138
0.07098338 -0.011814982 0.097754955 0.19612938 0.19261494 0.17084122 0.016255438 0.16291025
-0.13220045 -0.02363202 0.2031559 0.22304496 -0.13024625 -0.18705261 0.20287871 0.0069081187
0.11900702 -0.021434277 0.15427792 0.07747364 0.20346507 -0.03338781 -0.1622892 -0.2379883

layer2.weight f4 [128, 128]
00000000: 4e99 343d 2306 f53c dc2e 76bd df43 11bd
00000010: 3307 38bd 53b2 bdbb 9c05 a9bd d537 083d
00000020: c789 9abd e6d1 9e3d 4a6f 92bd ce63 843b
00000030: 9313 293d 5faf 81bc 3cf8 e43c f420 2b3d
00000040: 808b 24bc 445a 7f3d 4bff 60bd a2bf 62bd
00000050: 2e6e 6bbd 1f1b aebd 3044 f93c 69af d2bc
00000060: 435a 3ebc bd37 0fbd d2f5 f6bc 2306 c3bc
00000070: d643 963d 9aa3 e03c 8bac 29bd 5ae9 383d
00000080: bbf9 a43d 140a 563d 4abf cfbc bc2b 08bd
00000090: c04e 99bd 25c2 1cbd d296 513c bdb1 0bbd
000000a0: e40e 973d 78c2 6d3d 43d9 7c3d 2d67 453d
000000b0: 53a9 dcbc b08a 493d d31c 31bd 993b 923d
000000c0: 2fcb 2c3d 7153 b43c 865f a0bc e92a 9fbd
000000d0: b459 9e3d 7ba6 50bd 9d7b 80bd 7909 4bbc
000000e0: 3077 cbbc 078b 36bd bf4f a03d b074 34bd
000000f0: 538f 3d39 9338 b23d bcb0 933b 1967 6fbd
00000100: f39e 8b3d 87d6 31bd df2f 3e3d 7bc4 c7bc
00000110: a1c8 983d 7d9d 7c3d 81db 4ebd bd5c 1abd
00000120: 5660 1dbc 132b 1abc a769 f33c 9350 33bc
00000130: cbf6 3fbd e1fc 503d edd3 8b3d 7607 2abd
00000140: aeff 92bd b3fc 2dbd 3cc0 373c 7375 6b3d
00000150: c413 f23c 6f07 9ebc e42f 7b3c 4483 af3c
00000160: 82f9 373c ff6c febc 4f1d 5b3d 0303 2b3c
00000170: 69d2 37bd 9bdf 9f3d 218b 4dbd 1ca5 72bd
00000180: 926c 01bd 4bd3 93ba 2924 afbd 9b06 983c
00000190: addb 70bd eb87 a53d 0486 9cbd a9f9 87bd
000001a0: c3d7 bcbc 8376 493d fae4 55bc cb3f 31bc
000001b0: ce0e 8a3d f12e 7fbb cb9a 813d eb7d 9ebd
000001c0: 747a 9c3d e695 543d 2c7e 94bd 05c0 e83c
000001d0: 5698 313d 0504 87bd 0e61 4d3d 69af 52bd
000001e0: 37d8 4b3d af3c 6fbc bc62 ef3c 990a 933d
000001f0: a552 aa3d 5778 2dbd ca74 27bc 090a 28bc
00000200: 93c9 f7bb c586 87bd e42d 8a3d 6f25 4e3d
00000210: 7f33 6a3d 27fa fa3c 9207 56bd 5937 66bd
00000220: f2e0 68bd 7d99 fc3c df61 843d 470b 16bc
00000230: 2768 593d ead0 a73d 3c03 ae3d 8ada 88bd
00000240: 8a19 51bd 4eaf 7f3d a6c3 2c3d 3d26 ff3c
00000250: c1ca 39bd bedd 29bc 6ee2 93bc 2c66 103c
00000260: 36b6 4c3d a4c8 423c b18b 1d3c 31c9 d7bc
00000270: a65b 7c3d 2eb6 fa3c 32ef a53d 5617 a23d
00000280: 66b2 703d 776f 803d 5fc0 90bb d225 76bb
00000290: f505 e13c 4022 6c3c 62f9 babc d822 533c
000002a0: 5b81 4a3b cee5 66bd 2da8 3c3d 3d72 aabd
000002b0: 57da 86bd 8ced 6b3d 5c54 1bbd 0ef4 473d
000002c0: 6c19 393d 6c75 4a3d 24fe ebbc 5317 8dbc
000002d0: 0c9c babc a26e 86bd 7f81 4d3c e471 83bd
000002e0: 4eb9 0d3d ecad 903d 6dd1 833d 3c09 b3bd
000002f0: 6ac3 4c3c 4cab 7abd b9e1 e33b fff7 df3c
00000300: c845 0b3c e899 c63c f997 3bbd c706 843d
00000310: 5e6d 1cbd e76f 02bd 7068 cd3c 7eeb 473d
00000320: 2e87 8e3d 7bb5 533c b9b9 c23c 56f0 833d
00000330: f030 ab3d 2b93 aa3d 3f39 58bc 749a 9038
00000340: 1fb9 d83c 24b9 723c 8595 653d bd5c 913d
00000350: b598 773d 4640 0abd 2a58 403d 23c3 ad3c
00000360: 7fca b03d d5c6 80bd 48f0 f93c 9cc2 0fbd
00000370: fe04 ab3d fa74 103b d7d3 68bd 6964 973d
00000380: 1703 e03c 186f a1bd 5e8d 843c cfdd bebc
00000390: a822 3abd 337a 54bd 9d2a a63d a790 cd3c
000003a0: 8766 9e3d 1856 84bd 8949 643c 3bb3 bd3c
000003b0: f8da ae3d 1991 923c cca5 86bc fd60 b4bb
000003c0: df2b 1ab9 15ce 04bd 19c6 953d 443b 5fbd
000003d0: 9043 113d 0cf2 a53c 9221 b03c ae56 a0bd
000003e0: 7e50 84bc 62ae 6f3d f9cb 0a3d 4737 193d
000003f0: 9b18 74bd e5a8 25bd cd7b 6d3d c69d bd3c
0.044091515 0.029910153 -0.060103282 -0.035465118 -0.04492874 -0.00578908 -0.08253023 0.03325637
-0.0754581 0.07754879 -0.07150133 0.004040218 0.041278433 -0.015830694 0.027950399 0.041779473
-0.010043025 0.062341943 -0.054930966 -0.055358537 -0.057478122 -0.08501267 0.030428022 -0.025718408
-0.0116182 -0.034965266 -0.030146513 -0.023806637 0.073371574 0.027421761 -0.041424315 0.045144416
0.08055445 0.052255705 -0.025359768 -0.033244833 -0.074857235 -0.03827109 0.012792306 -0.03410505
0.07375887 0.058046788 0.061730634 0.0481941 -0.026936209 0.04920453 -0.04324038 0.071402736
0.04218596 0.022012444 -0.0195768 -0.07771856 0.07731953 -0.05094002 -0.06273577 -0.012392395
-0.024837106 -0.04456618 0.0782771 -0.044056594 0.00018077837 0.08702197 0.0045071524 -0.05844793
0.068174265 -0.04341748 0.046432372 -0.024385681 0.07460142 0.06167363 -0.050502304 -0.0376861
-0.009605488 -0.009409684 0.029713465 -0.010944503 -0.04686622 0.051022414 0.06827531 -0.04151102
-0.07177673 -0.04247732 0.011215266 0.057485055 0.02955044 -0.019290654 0.015331242 0.021424897
0.011228921 -0.031057833 0.053494748 0.01043773 -0.044878397 0.07806321 -0.05018151 -0.05923949
-0.03159768 -0.001127818 -0.08551819 0.018557837 -0.05880325 0.08082565 -0.07642749 -0.06639416
-0.023052102 0.049185287 -0.013055081 -0.010818432 0.06741105 -0.0038937891 0.063283525 -0.07738861
0.076405436 0.051900767 -0.07250628 0.028411875 0.04335817 -0.065925635 0.050141387 -0.051436815
0.049766745 -0.01460187 0.029221885 0.07179756 0.083165444 -0.042351093 -0.010220716 -0.010256299
-0.0075618713 -0.06617502 0.06747034 0.05032867 0.057178017 0.03063686 -0.052253313 -0.056205127
-0.05685515 0.030834908 0.0646398 -0.009157962 0.053077843 0.08194144 0.08496711 -0.06682308
-0.051049747 0.062423043 0.042178772 0.031146163 -0.045359377 -0.010367809 -0.018052306 0.008813422
0.049978457 0.011888657 0.009615825 -0.026341053 0.06161084 0.030604448 0.081022635 0.07914607
0.058763884 0.0627126 -0.0044174637 -0.0037559164 0.02746866 0.014412463 -0.022823993 0.012886725
0.0030899856 -0.056371503 0.046058822 -0.083225705 -0.06584614 0.05759959 -0.03792225 0.048816733
0.04519026 0.04942839 -0.028807707 -0.017223036 -0.022779487 -0.0656407 0.012543081 -0.06418207
0.03460055 0.07064423 0.06436429 -0.08741996 0.012497762 -0.061198518 0.0069543985 0.027339933
0.008500524 0.02424331 -0.04579923 0.06446605 -0.03819024 -0.031845 0.025074214 0.048808567
0.06959377 0.012921686 0.0237702 0.06442325 0.083589435 0.08328851 -0.013197242 6.895224e-05
0.02645546 0.014814649 0.056050796 0.070977665 0.060448367 -0.033752702 0.04695908 0.021211213
0.08632373 -0.06287924 0.030510083 -0.035097703 0.083505616 0.002204238 -0.05684265 0.073921986
0.027345223 -0.078825176 0.01618069 -0.023299126 -0.045443207 -0.05187435 0.081135966 0.02509339
0.07734399 -0.064617336 0.013933548 0.023156753 0.08537859 0.017891454 -0.01643648 -0.005504726
-0.00014702928 -0.032423098 0.07313175 -0.05449988 0.035464823 0.020257019 0.021500383 -0.07829033
-0.016151663 0.058515914 0.03388593 0.037406232 -0.059593778 -0.040444274 0.057979394 0.023146521

layer2.bias f4 [128]
00000000: 6487 6b3c ab5a 5e3d 50cc 923d 3365 1fbd
00000010: d50d 8fbc 2895 a03d b75a fbba b052 46bd
00000020: 9ccd a23d 05c2 8ebb b6b2 2abd 82ad 85bd
00000030: 9a9a 443d dcd5 2e3d 32a4 973d 5d04 a53d
00000040: e201 5abd fa0c e23c d6fd fb3c eac7 923d
00000050: 3336 7b3d 78e9 2e3d bcf8 5bbd 33d5 d1bc
00000060: c7db 503d fec3 e1bb c7d7 a73d 7db5 9f3c
00000070: 3cac a0bd fe39 203d 2c3d 833d 377e 10bd
00000080: 92c4 0cbd 8e6c 7ebd d446 ad3d b0ee 753d
00000090: a92b 3abc bfb3 8bbd a18e 9d3c 9496 81bd
000000a0: 735e f3bc 0ab3 7b3d c4bf ab3c 09ae 8b3b
000000b0: d4db 733d 7257 9a3b d8c9 48bd aa76 eb3c
000000c0: 6be0 63bd 8663 b4bd 5763 263d 9d98 26bc
000000d0: e429 23bd 7363 63bd 12ae 2abd 5eee 123c
000000e0: c743 7bbd 1ed0 62bc 67d9 a63d 4028 3b3d
000000f0: 3607 833d 1039 bc3c fcb5 b1bd fd87 9f3d
00000100: c631 093d c290 a83d 07c6 693d 25cd 25bd
00000110: 3318 3fbd 1b8f 123d 1617 0c3d f6d8 353d
00000120: 3426 1c3c f684 303d 94f1 a63c f265 3dbd
00000130: f82f a1bc 471e 06ba 81c4 8ebd 45e1 96bd
00000140: 097b b43d cbe6 d9bc c925 d7bc 4351 393d
00000150: 2f20 b33c 76ed 27bd 66b5 9fbd 2898 14bd
00000160: a6cd 78bd 815c 9f3c 3d36 a6bc 9b4c 3e3d
00000170: 9858 38bd 3b93 2f3d 5e2d 2cbd 5232 4b3d
00000180: 9a36 0f3c 9d56 d83c a41c 9fbd 3e51 85bd
00000190: c1c0 813d ffbc 933c ca8e 8c3d 0a35 b83c
000001a0: 0f5c 4c3d ba37 2fbd 48a4 393d fb8c 96bd
000001b0: a50e 8bbd cbea 39bd d2df 0dbd 95ae f53b
000001c0: 1d6e acbc 7fb7 24bd 98fc 87bd d3c5 15bd
000001d0: 4200 063d 6165 7b3d ffda ae3d b19f ad3c
000001e0: f4c1 9abc 1489 5fbd 58e3 833d b409 ac3b
000001f0: bf5b 8e3d 313b 4d3d 86f4 3abc ab2d c33b
0.014375541 0.054285686 0.07167876 -0.03891487 -0.01746265 0.07840949 -0.0019176815 -0.0484187
0.07949373 -0.004356625 -0.04167434 -0.065272346 0.047999002 0.04268442 0.07404365 0.08057473
-0.05322445 0.027594078 0.030760687 0.07167037 0.061330985 0.042703122 -0.05370401 -0.025614357
0.050990846 -0.006889819 0.08195453 0.01949572 -0.07845351 0.039117806 0.06408152 -0.035276618
-0.03436715 -0.062115245 0.08460775 0.060042083 -0.011362948 -0.06821393 0.01923305 -0.063275486
-0.029708123 0.06145004 0.020965464 0.00426269 0.059535816 0.0047101313 -0.04902062 0.028743107
-0.055633944 -0.08808045 0.04062208 -0.010168222 -0.039834872 -0.055514764 -0.041669913 0.008967964
-0.061343934 -0.013843564 0.08146935 0.045692682 0.0639786 0.022976428 -0.08677289 0.077896096
0.033494733 0.08230735 0.05707362 -0.040478844 -0.046653938 0.035781007 0.034201704 0.044396363
0.009530593 0.04309555 0.020378865 -0.0462398 -0.019676194 -0.0005116206 -0.06971074 -0.073671855
0.088125296 -0.026599308 -0.026263135 0.045243513 0.021865932 -0.040997945 -0.07798271 -0.03627792
-0.060742997 0.019453289 -0.020289535 0.046459775 -0.045006365 0.04286502 -0.042035453 0.049608536
0.008741045 0.026408488 -0.07769135 -0.06509636 0.06335593 0.018034456 0.06863172 0.022486228
0.04989248 -0.042777754 0.045322686 -0.07351109 -0.067899026 -0.04538993 -0.03463728 0.0074976184
-0.0210486 -0.040214058 -0.06639975 -0.036565613 0.03271509 0.06137598 0.08537864 0.02119431
-0.018891312 -0.054574087 0.06439847 0.00525018 0.06951093 0.050105277 -0.011410838 0.005956372
