custom_maze/static/custom_maze/run/room24884/trained_model.pth (torch, 146386 bytes, 12 tensors)

layer1.weight f4 [128, 4]
0	0x3ee8bc38	0.454561
1	0x3eb8a4c8	0.36063218
2	0xbe62b638	-0.22139823
3	0xbee8d056	-0.45471448
4	0xbdadbdc8	-0.084834635
5	0x3edcd6aa	0.43132526
6	0x3e8c699a	0.27424318
7	0x3e5c24b8	0.21498382
8	0x3e8fc19a	0.28077394
9	0xbea817b4	-0.32830584
10	0x3e40c5c4	0.18825442
11	0xbbb91380	-0.0056480765
12	0xbef4e880	-0.47833633
13	0x3e90b09c	0.28259742
14	0x3d7dca50	0.06196052
15	0xbee42918	-0.44562602
16	0x3b7f2500	0.0038931966
17	0x3edc2100	0.42993927
18	0x3eb5e544	0.35526478
19	0xbed490f4	-0.4151684
20	0x3eaeaf98	0.34118342
21	0x3d1e52f0	0.038653314
22	0x3e98d002	0.29846197
23	0x3e05d988	0.13071263
24	0xbda2f2d0	-0.07956469
25	0x3d519340	0.05116582
26	0xbebaea5a	-0.3650692
27	0x3e1e060c	0.15431994
28	0xbe71a734	-0.23598939
29	0xbdb788e8	-0.0896166
30	0xbe97c3e2	-0.29641634
31	0xbeeabe94	-0.45848525
32	0x3da62398	0.08112258
33	0x3e645e9c	0.22301716
34	0x3ef7e7d2	0.48419052
35	0x3e1e2fc4	0.15447909
36	0x3e491334	0.19636232
37	0x3dc3cb60	0.09560275
38	0x3e6ce3ac	0.23133725
39	0x3ec90af6	0.39266175
40	0x3e8b7e42	0.27244765
41	0x3ec2945a	0.38003808
42	0xbee72c24	-0.45150864
43	0xbebb476c	-0.36577928
44	0x3e19a69c	0.15004963
45	0xbd5e06d0	-0.054205716
46	0x3ecc8f9c	0.39953315
47	0xbe592ccc	-0.21208495
48	0x3eaec6d2	0.34136063
49	0x3e3054b4	0.17219812
50	0xbdd47218	-0.10373324
51	0xbea1a694	-0.31572402
52	0x3e7f2714	0.24917251
53	0x3c55a680	0.013040185
54	0x3eeb5060	0.4595976
55	0xbe875568	-0.26432347
56	0x3e8c54c4	0.2740842
57	0xbe7ef480	-0.24897957
58	0xbe9ed284	-0.31019986
59	0xbd42ea90	-0.047586977
60	0xbd5a7450	-0.05333358
61	0x3e9a1e58	0.30101275
62	0x3ec40286	0.38283175
63	0xbe75d76c	-0.24007958
64	0x3ef82e36	0.48472756
65	0x3c8cdc00	0.017194748
66	0xbd81a5c0	-0.063304424
67	0x3d5bcf60	0.053664565
68	0x3de0c458	0.109749496
69	0x3eae59b0	0.340528
70	0xbdc5bbd0	-0.09654963
71	0x3d10c650	0.035345376
72	0x3ee0b47e	0.43887705
73	0xbed5fd84	-0.4179498
74	0x3edd3728	0.43206143
75	0x3d8e55e0	0.06949973
76	0x3ecd0b1a	0.40047532
77	0xbeeb33d0	-0.45937967
78	0xbecbd5c2	-0.39811522
79	0xbcb239c0	-0.021756053
80	0xbdbac520	-0.0911963
81	0xbecaacd8	-0.39584994
82	0x3eaf2e44	0.34214985
83	0x3dbafaa0	0.09129834
84	0x3e6c53f8	0.23078907
85	0x3ed7547c	0.42056644
86	0xbef5b0b4	-0.47986376
87	0xbef9ec18	-0.48812938
88	0x3e2f5fe4	0.17126423
89	0x3db0c708	0.08631712
90	0xbe0c83a4	-0.13722092
91	0xbeceff32	-0.40429074
92	0x3e9f622c	0.31129587
93	0xbef06d20	-0.46958256
94	0xbe835edc	-0.2565831
95	0xbecf42c4	-0.40480626
96	0xbdc71128	-0.09720069
97	0xbed0b2d8	-0.40761447
98	0xbea7a92c	-0.32746255
99	0xbd94f9b0	-0.072741866
100	0x3ed00f38	0.4063661
101	0xbe3d6b4c	-0.18497962
102	0x3e0abc90	0.13548493
103	0x3edc485a	0.4302395
104	0x3eabf80c	0.33587682
105	0x3d7fd850	0.06246215
106	0x3d248070	0.04016155
107	0xbe9e0c00	-0.3086853
108	0x3e47b474	0.19502431
109	0xbe7a3184	-0.24432951
110	0x3e1a0a04	0.15042883
111	0x3e88b75a	0.26702386
112	0x3efc4bb8	0.4927652
113	0xbeb8f478	-0.36124015
114	0x3edaceb6	0.42735833
115	0x3edd0682	0.43169028
116	0x3e23a5e0	0.15981245
117	0x3ec091e8	0.37611318
118	0xbeba8712	-0.36431175
119	0x3ed65ed0	0.4186921
120	0xbef00578	-0.46879172
121	0x3ec22150	0.3791604
122	0x3d9c1620	0.076214075
123	0x3d90f618	0.07078189
124	0x3ee24248	0.44191194
125	0xbefb6eb8	-0.4910791
126	0xbe3c2ba0	-0.18376017
127	0x3e57fb10	0.21091866
128	0xbec568e4	-0.38556588
129	0xbe8bcc12	-0.2730413
130	0xbdf14db8	-0.11782402
131	0x3e0f6350	0.14002728
132	0x3eb39af6	0.35079163
133	0xbe0b23c8	-0.13587868
134	0x3e61ebb4	0.2206257
135	0xbc203300	-0.009777784
136	0xbebf4fd8	-0.37365603
137	0x3e9bdff8	0.30444312
138	0xbef2b9da	-0.47407418
139	0xbec6016a	-0.38672954
140	0xbdc86730	-0.097853065
141	0x3e5d4430	0.21608043
142	0xbe55bdf0	-0.20873237
143	0x3d9112e0	0.07083678
144	0x3df6df38	0.12054294
145	0xbee3f3ac	-0.44521844
146	0x3a831a00	0.0010002255
147	0xbe09ef9c	-0.1347031
148	0xbece6150	-0.4030862
149	0xbca08da0	-0.019598782
150	0x3e24dab8	0.1609906
151	0xbe02be04	-0.12767798
152	0x3ee19c58	0.44064593
153	0xbecdc19c	-0.40186775
154	0x3db90360	0.09033847
155	0xbea093d4	-0.31362784
156	0x3e5fc508	0.21852505
157	0x3e12f8b0	0.14352679
158	0x3d10cc70	0.035351217
159	0xbd591550	-0.05299884
160	0xbe32fe54	-0.17479831
161	0xbe602384	-0.21888548
162	0xbd74a980	-0.05973196
163	0xbdeafde0	-0.11474204
164	0xbed74720	-0.42046452
165	0xbdab5600	-0.083660126
166	0xbeda2b68	-0.4261124
167	0x3ea86718	0.32891154
168	0xbe710984	-0.23538786
169	0xbec031e6	-0.3753807
170	0xbee72a7e	-0.45149606
171	0xbebc0c06	-0.36727923
172	0xbefc0226	-0.4922039
173	0xbdb138e8	-0.08653432
174	0x3e8fc830	0.28082418
175	0x3e35bf08	0.17748654
176	0xbeafae0a	-0.3431247
177	0xbeef4176	-0.4672963
178	0x3eac2006	0.33618182
179	0xbd18c6c0	-0.037298918
180	0xbdb72710	-0.089429975
181	0x3e5b1f44	0.21398646
182	0x3dd3a4c8	0.10334164
183	0xbdf6ae88	-0.12045008
184	0xbe90acf0	-0.2825694
185	0xbef4d0ee	-0.4781565
186	0xbde0cb48	-0.10976273
187	0xbed2409a	-0.41064912
188	0xbeb5eb14	-0.35530913
189	0x3e4095e0	0.18807173
190	0xbdb865f0	-0.09003818
191	0x3e93141e	0.28726286
192	0x3e18aad4	0.14908916
193	0xbec37a88	-0.3817942
194	0x3dc42238	0.09576839
195	0xbec84522	-0.39115244
196	0xbe858a30	-0.2608199
197	0x3d6ae5b0	0.057347953
198	0x3e073a70	0.13205886
199	0xbecfd6dc	-0.40593612
200	0x3e2807b8	0.16409194
201	0x3e67be04	0.22631079
202	0xbe74d714	-0.23910171
203	0xbeb5084c	-0.35357893
204	0xbd9bcac0	-0.07607031
205	0xbe22f3b4	-0.15913278
206	0x3d35ff50	0.044432938
207	0xbee2f054	-0.4432398
208	0x3e63fafc	0.22263712
209	0xbd6d78e0	-0.057976604
210	0x3e0df094	0.13861305
211	0xbefba03a	-0.4914568
212	0x3d620450	0.055179894
213	0x3efe9e86	0.4973032
214	0xbeaa9dda	-0.33323556
215	0xbd4e7990	-0.0504089
216	0x3e88b0d8	0.2669742
217	0x3e9c893e	0.30573457
218	0x3e4f4ed4	0.20244914
219	0x3e84dc18	0.25949168
220	0x3e553ca8	0.2082392
221	0xbeef90c6	-0.4679014
222	0xbe80485a	-0.250552
223	0xbed487de	-0.41509908
224	0x3ce6cb00	0.02817297
225	0xbe37c5dc	-0.17946571
226	0x3ed85798	0.4225433
227	0xbed007c0	-0.40630913
228	0x3eda852a	0.4267972
229	0x3e3144b8	0.1731137
230	0x3e6d175c	0.23153442
231	0xbe339ebc	-0.17541021
232	0x3edf6838	0.436342
233	0x3cfc80e0	0.030823171
234	0x3ee97432	0.45596462
235	0xbee99fe2	-0.45629793
236	0x3e935c74	0.28781474
237	0x3c68bec0	0.014205635
238	0xbd300ac0	-0.042979002
239	0xbbe53b80	-0.0069956183
240	0x3e8b9b1c	0.27266777
241	0x3e50e8d8	0.20401323
242	0xbe6701b4	-0.22559243
243	0xbea0062a	-0.31254703
244	0xbe8c3024	-0.27380478
245	0x3df75bd8	0.12078065
246	0x3ef0c5da	0.4702595
247	0xbeb90904	-0.3613969
248	0x3de69ac8	0.11259991
249	0x3e49352c	0.1964919
250	0x3dee4830	0.116348624
251	0x3efb089a	0.4903
252	0x3ea86618	0.3289039
253	0xbed7716e	-0.42078727
254	0x3ebe6a40	0.37190437
255	0x3de58ca0	0.11208463

layer1.bias f4 [128]
0	0xbe50a27c	-0.20374483
1	0x3ece48a8	0.40289807
2	0x3ec2eb1a	0.38069993
3	0x3d2363a0	0.03988993
4	0xbea97cf2	-0.33103138
5	0x3e8c4116	0.27393407
6	0x3ee7370a	0.4515918
7	0x3e158668	0.14602053
8	0xbe2f8454	-0.17140323
9	0x3d6f47d0	0.058418095
10	0x3e83513e	0.2564792
11	0x3ef9c194	0.487805
12	0x3dc0d2b0	0.094151855
13	0x3e887298	0.26649928
14	0xbdd8e6f8	-0.10590929
15	0x3eecf896	0.46283406
16	0xbeb3daca	-0.3512786
17	0xbe9afcfa	-0.3027113
18	0x3e1e1a60	0.15439749
19	0xbe3c6320	-0.18397188
20	0xbe2ded68	-0.16985095
21	0x3cc3a4e0	0.02388233
22	0xbed0a998	-0.4075439
23	0x3ebe8a2e	0.37214798
24	0x3d1c2ed0	0.03813058
25	0xbe1ab1fc	-0.15106958
26	0xbd46ff80	-0.048583508
27	0x3ea4a188	0.3215449
28	0x3e49efdc	0.19720405
29	0xbeaa1f66	-0.3322708
30	0xbe7ff958	-0.24997461
31	0xbd9a9a38	-0.07548946
32	0xbac9ac00	-0.0015386343
33	0xbeb20964	-0.3477279
34	0xbe955b26	-0.29171103
35	0x3ed90a32	0.4239059
36	0xbe1f6944	-0.155675
37	0x3ecaeae6	0.39632338
38	0xbe8ddaec	-0.27706087
39	0x3e10cc9c	0.14140552
40	0xbe82b1be	-0.25526232
41	0x3da64210	0.08118069
42	0xbed223f0	-0.41043043
43	0xbd7d9080	-0.061905384
44	0xbd485560	-0.048909545
45	0x3e881c30	0.26584005
46	0x3e6fc694	0.23415595
47	0x3d9885c8	0.07447392
48	0xba371000	-0.000698328
49	0x3e673ddc	0.22582191
50	0x3e8184ac	0.25296533
51	0x3ed67000	0.41882324
52	0xbea89d44	-0.32932484
53	0x3ea03a6c	0.31294572
54	0xbef00df4	-0.46885645
55	0x3ebe067a	0.37114316
56	0xbee09b16	-0.4386832
57	0xbe365a94	-0.1780799
58	0x3e1777c4	0.1479178
59	0xbd3c92b0	-0.04603833
60	0xbdb32938	-0.08748096
61	0xbed822d4	-0.42214072
62	0x3ecc57b8	0.39910674
63	0xbe1ad580	-0.15120506
64	0x3ea239f0	0.31684828
65	0x3ecb3710	0.39690447
66	0x3e40c068	0.18823397
67	0x3ea14188	0.3149531
68	0x3df1c390	0.11804879
69	0xbeace238	-0.3376634
70	0xbe8db684	-0.2767831
71	0x3ea8bfa8	0.32958722
72	0xbbf4b080	-0.0074673295
73	0xbeb6e4ca	-0.35721427
74	0x3daf80e0	0.08569503
75	0x3e96671a	0.29375535
76	0x3ee710d4	0.45130026
77	0xbe7732a8	-0.24140418
78	0x3c722d40	0.014781296
79	0xbeb50c20	-0.35360813
80	0x3eabda2c	0.3356489
81	0xbdf2a9f8	-0.11848825
82	0xbe61b54c	-0.22041816
83	0xbeaa0152	-0.33204132
84	0x3e83dc5c	0.25754058
85	0x3c94fbc0	0.01818645
86	0x3e398510	0.18117166
87	0x3eaab034	0.33337557
88	0xbeb3cdf4	-0.35118067
89	0x3e88d8ae	0.26727813
90	0xbe9dd2d8	-0.30824924
91	0xbeae0770	-0.3399005
92	0xbe2645b8	-0.16237533
93	0xbe4b2bfc	-0.19840997
94	0x3ed1c72a	0.40972263
95	0x3dfd3778	0.123640954
96	0xbe9e589e	-0.30926985
97	0xbdc7d380	-0.09757137
98	0x3e5b4670	0.21413589
99	0xbcdd9c20	-0.027051985
100	0xbee63d98	-0.44968867
101	0xbeee6b6a	-0.46566325
102	0xbde540a8	-0.11193973
103	0x3ec02366	0.37527007
104	0xbe93a1f4	-0.28834498
105	0xbd5fc3f0	-0.05463022
106	0xbe7fe688	-0.24990284
107	0xbee49ce2	-0.44650942
108	0x3eeb1a00	0.45918274
109	0x3e0e1350	0.13874555
110	0xbdc3d408	-0.09561926
111	0xbe4073c0	-0.18794155
112	0xbe5d1e58	-0.21593606
113	0x3e9d757c	0.30753696
114	0x3e2ef2f0	0.17084861
115	0x3e5cb04c	0.21551627
116	0x3c64ae80	0.01395762
117	0xbe244620	-0.16042376
118	0xbd706af0	-0.058695734
119	0xbeb0f4d4	-0.3456179
120	0xbda274b8	-0.079324186
121	0x3e5a3fc4	0.21313387
122	0xbebb7a7c	-0.36616886
123	0xbec29780	-0.3800621
124	0xbef34618	-0.47514415
125	0x3e63aee4	0.22234684
126	0x3e5c5bb4	0.21519357
127	0x3edc15aa	0.42985278

layer2.weight f4 [128, 128]
0	0xbcd01ca1	-0.025404276
1	0xbda3152d	-0.07963023
2	0xbd38a392	-0.045077868
3	0xbb8e7711	-0.00434769
4	0x3a4da90c	0.00078453193
5	0x3b39ac12	0.0028331322
6	0x3d0e8d0d	0.034802485
7	0xbc144ba2	-0.009051235
8	0xbc0192e9	-0.007908561
9	0xbdae44c5	-0.085092105
10	0x3c3c5b83	0.0114964275
11	0x3cb5732b	0.022149643
12	0xbd5e1927	-0.054223206
13	0xba867102	-0.0010257068
14	0xbd07786b	-0.033073824
15	0xbd526135	-0.051362235
16	0x3d8912dc	0.0669305
17	0xbd4d4b48	-0.050120622
18	0xbbcf0c48	-0.0063186027
19	0x3c27a8a1	0.010233075
20	0xbd848555	-0.064707436
21	0xbda40074	-0.08007899
22	0xbd3dc1ea	-0.04632751
23	0xbcfda2c4	-0.030961402
24	0x3d429f9b	0.047515493
25	0xbd38e0ca	-0.04513625
26	0x3b6622b9	0.003511591
27	0xbd1dc711	-0.038519923
28	0x3d3a64d3	0.04550631
29	0x3d904198	0.07043761
30	0x3cddf336	0.027093511
31	0xbd85cb23	-0.06532886
32	0xbd8cbe44	-0.06872228
33	0x3d96899f	0.07350468
34	0x3da05847	0.078293376
35	0x3ca35cd0	0.019941717
36	0x3d0540be	0.032532446
37	0xbdb1c18d	-0.08679495
38	0xbb01d9f9	-0.001981376
39	0x3d74ddb3	0.05978174
40	0xbd84e921	-0.06489778
41	0xbaaf81eb	-0.0013390159
42	0xbd247f6c	-0.04016058
43	0x3d9f9e9d	0.07793925
44	0x3d8370e1	0.06418014
45	0x3d194602	0.03742028
46	0x3db484e4	0.088144094
47	0xb985299e	-0.00025398744
48	0xbd12d517	-0.03584775
49	0x3d3ca370	0.046054304
50	0xbd3e8a3f	-0.04651856
51	0x3da2cf3d	0.07949684
52	0xbd8ae110	-0.067812085
53	0xbb796e0a	-0.0038059973
54	0x3da8c662	0.082409635
55	0xbce67b44	-0.02813495
56	0x3ccbe1b2	0.024887893
57	0xbda7129b	-0.081578456
58	0xbcc6bd26	-0.024260115
59	0x3d805bf5	0.062675394
60	0x3d05abfb	0.032634716
61	0x3d8fbcb4	0.07018414
62	0x3db00806	0.0859528
63	0x3d983162	0.07431294
64	0x3d9a2b02	0.07527734
65	0xbc77d336	-0.01512604
66	0xbc2119b1	-0.009832785
67	0xbcface0c	-0.030615829
68	0xbd46bc44	-0.048519388
69	0x3cd8657c	0.026415579
70	0x3da83168	0.082125485
71	0x3c68c11a	0.014206195
72	0x3d45a97a	0.04825733
73	0x3dade893	0.08491626
74	0x3cb1023b	0.021607509
75	0x3d745a61	0.059656505
76	0xbcab6854	-0.020923771
77	0x3d547f97	0.05187949
78	0x3c9c619a	0.019089509
79	0x3da66b7b	0.08125969
80	0xbd9d2b68	-0.07674295
81	0x3bfc08ee	0.007691494
82	0xbd4a0dd8	-0.04932961
83	0xbda185da	-0.07886858
84	0xbd2ff2e9	-0.042956267
85	0xbd146909	-0.03623298
86	0xbd4030c7	-0.046921518
87	0x3d46b1ea	0.048509516
88	0x3d391ccb	0.045193475
89	0x3c62ef19	0.013850951
90	0xbab050bf	-0.0013451799
91	0x3c8bb061	0.017051877
92	0x3cd8b859	0.026455091
93	0x3d87be62	0.066281095
94	0xbab8ea53	-0.001410792
95	0x3d972f8b	0.07382115
96	0xbcdb8fda	-0.026801992
97	0xbd381eeb	-0.04495136
98	0xbd70f7e8	-0.05883017
99	0x3d8d6255	0.06903521
100	0x3cf8dfe9	0.030380206
101	0x3cba83a1	0.022767844
102	0x3d23fb81	0.040034775
103	0x3cfa6b4b	0.03056874
104	0xbdb123b8	-0.08649391
105	0xbd8748ab	-0.06605657
106	0x3b6ccb07	0.0036131756
107	0xbd4d5dda	-0.050138332
108	0xbd89c66d	-0.067273
109	0x3d888cfa	0.06667514
110	0x3d30bf90	0.04315144
111	0xbd659440	-0.056049585
112	0x3d5f89a5	0.054574627
113	0x3d3bbe0c	0.04583554
114	0x3d2cadff	0.042158123
115	0x3d5797f6	0.052635156
116	0x3d068477	0.032841172
117	0xbdaf7054	-0.08566347
118	0xbd410669	-0.047125254
119	0xbd031078	-0.031998128
120	0x3a99170a	0.001167984
121	0x3d3ce9f3	0.04612155
122	0xbbe3103e	-0.0069294265
123	0xbc844df9	-0.016150462
124	0x3ca517f8	0.02015303
125	0xbd6c9634	-0.057760432
126	0xbd88f95d	-0.06688187
127	0xbcddc584	-0.027071722
128	0xbd73069d	-0.05933248
129	0x3d0b4f49	0.03401116
130	0xbd9fd068	-0.07803422
131	0x3c282148	0.010261841
132	0x3c6e6b34	0.014551926
133	0xbcffb282	-0.031213049
134	0xbcdc7231	-0.02690992
135	0xbd4721ea	-0.048616327
136	0x3d9a18aa	0.075242355
137	0xbcb1ca85	-0.021703014
138	0x3b54eda0	0.0032490268
139	0x3b8cf45e	0.004301592
140	0xbc86e8bb	-0.016468396
141	0xbc0e9bca	-0.008704135
142	0x3d2fa683	0.042883407
143	0x3d1f0500	0.038823128
144	0x3d04ccb0	0.032421768
145	0x3c008c7c	0.007845994
146	0x3c1759ea	0.009237746
147	0x3dad52a3	0.08463027
148	0xbcdd2237	-0.026993854
149	0xbc9bbc67	-0.019010736
150	0xbd5ade0c	-0.053434417
151	0xbc10e1ea	-0.008842925
152	0x3c737a23	0.014860663
153	0xbaa82e51	-0.0012831186
154	0xbd2022c8	-0.03909567
155	0xbd9591ce	-0.07303201
156	0xbc5265b1	-0.012841628
157	0x3d397b83	0.045283806
158	0x3ba3ae16	0.004995118
159	0xbd0377a4	-0.03209652
160	0xbc8e709d	-0.017387683
161	0xbce3cde1	-0.027808132
162	0x3d6268e7	0.055275824
163	0xbc121f95	-0.008918663
164	0xbd955b8b	-0.07292851
165	0x3c776388	0.015099414
166	0xbd536f8b	-0.051620048
167	0x3b4e7d89	0.003150793
168	0x3caebe7e	0.021331068
169	0xbcabe2ec	-0.020982228
170	0x3ceedb69	0.029157357
171	0xbd7e6431	-0.06210727
172	0xbb8dd9a5	-0.0043289238
173	0xbda652fa	-0.08121295
174	0x3cb848f3	0.022495722
175	0x3d08d992	0.033410616
176	0xbd478107	-0.048707034
177	0xbbebf1c4	-0.0072004516
178	0x3bee938d	0.007280773
179	0x3d1d6987	0.038430717
180	0x3aebbd16	0.0017985429
181	0xbd9db79c	-0.07701036
182	0xbd512ca2	-0.051067956
183	0x3ca7bd12	0.020475898
184	0x3ca2e457	0.019884272
185	0xbcf1d0bf	-0.029518483
186	0x3c66b7a8	0.014081873
187	0x3dac236e	0.08405195
188	0x3c2643da	0.010148013
189	0x3d036213	0.032075953
190	0x3cc512a7	0.024056746
191	0xbd959a43	-0.07304814
192	0x3c11ae7e	0.0088917
193	0xbd79c408	-0.060977966
194	0xbc6861dd	-0.014183489
195	0x3d321b51	0.043483082
196	0xbd9b4d1c	-0.07583067
197	0x3bbf63f5	0.005840773
198	0x3ca20d23	0.019781655
199	0x3da75f08	0.08172423
200	0x3d8952f3	0.067052744
201	0x3d1122dc	0.035433635
202	0x3c7ad3a9	0.015309253
203	0xbd8b109f	-0.067902796
204	0xbd3e2831	-0.04642505
205	0x3d7b5fe9	0.061370764
206	0x3cc10ed4	0.02356664
207	0x3baad8c3	0.0052138283
208	0xbd7fbda8	-0.06243673
209	0x3d7ca05c	0.061676368
210	0xbcf206ba	-0.029544223
211	0xbc97aa0a	-0.018513698
212	0x3c5d9baa	0.013525883
213	0xbd2e00f7	-0.04248139
214	0x3baa6691	0.005200215
215	0xbd4dc3e0	-0.05023563
216	0x3d3fc4bc	0.04681848
217	0xbda10b91	-0.07863534
218	0xbd89d261	-0.0672958
219	0x3d0060dd	0.031342376
220	0xbdb2f095	-0.08737294
221	0x3c858ca8	0.016302422
222	0xbcf497e0	-0.029857576
223	0x3c627c31	0.013823555
224	0x3d2c38b1	0.042046253
225	0xbb9210b1	-0.004457556
226	0xbc49e4bb	-0.0123226
227	0x3da8ffbb	0.08251902
228	0x3d5872fc	0.052844033
229	0xbd99f9c3	-0.075183414
230	0xbd9abe75	-0.07555858
231	0xbd7a325f	-0.061083194
232	0xbd465bbc	-0.04842733
233	0xbcbcd4e4	-0.023050733
234	0x3d450932	0.048104472
235	0xbd49578b	-0.049155753
236	0xbd61934a	-0.055072106
237	0xbd92d815	-0.071701206
238	0xbd84e095	-0.06488148
239	0xbc1ae9ff	-0.009455203
240	0x3d5cad12	0.05387599
241	0xbd3ed3be	-0.04658865
242	0x3da4673d	0.08027504
243	0x3c789d66	0.015174245
244	0xbdaf021c	-0.08545324
245	0xbd12398f	-0.035699423
246	0x3b692c30	0.0035579316
247	0xbdb3a1bc	-0.08771083
248	0x3cd7218b	0.026261112
249	0x3d9f16c1	0.07768012
250	0x3cc345d2	0.023837004
251	0xbd8b3674	-0.067974955
252	0xbd7b9ca5	-0.061428685
253	0x3d363f23	0.044493806
254	0x3d968744	0.073500186
255	0x3d9b3739	0.07578892

layer2.bias f4 [128]
0	0x3c8e35ca	0.017359633
1	0xbdae16f6	-0.08500473
2	0x3a1663d8	0.0005736924
3	0x3cbfb65c	0.023402385
4	0xbcd84f85	-0.026405105
5	0x3ccc9a67	0.024975969
6	0x3d1c2306	0.03811934
7	0x3daefdb0	0.08544481
8	0x3c5522f7	0.013008825
9	0xbd3bec79	-0.045879815
10	0xbbd88784	-0.0066079516
11	0xbd9173bc	-0.07102153
12	0x3cc81002	0.024421696
13	0x3d871544	0.06595853
14	0xbd9ae44e	-0.07563077
15	0xbc9377d5	-0.018001476
16	0x3d49a742	0.049231775
17	0x3cf9769d	0.030452067
18	0x3d041e08	0.032255203
19	0xbb87b76d	-0.004141739
20	0x3b9d8b12	0.0048078382
21	0xbc915812	-0.01774219
22	0xbc6f356f	-0.014600142
23	0x3d9ed9c8	0.07756382
24	0x3d47ab64	0.048747435
25	0x3d678edc	0.056532726
26	0xbb21d9a1	-0.0024696367
27	0xbd9e2443	-0.0772176
28	0xbd7b904d	-0.061416913
29	0xba55a1c2	-0.0008149409
30	0x3c5a7283	0.013332966
31	0x3c833387	0.016015781
32	0xbd8b75e9	-0.06809599
33	0x3d883fd6	0.06652801
34	0x3cbd6e3e	0.023123857
35	0x3d422349	0.04739693
36	0xbdabc91e	-0.083879694
37	0x3b93a6a8	0.004505951
38	0xbd1f9e38	-0.03896925
39	0xbc224582	-0.009904267
40	0xbcaf2f9b	-0.021385005
41	0x3d1ccab2	0.038279243
42	0x3d336504	0.043797508
43	0xbd465b37	-0.048426833
44	0xbd862f4c	-0.0655199
45	0x3cb5e191	0.022202285
46	0x3c5206ad	0.012818974
47	0xbcf68076	-0.030090552
48	0xbd54734e	-0.051867776
49	0x3cc5cff6	0.024147015
50	0x3c8e691f	0.01738411
51	0x3d04e537	0.03244516
52	0x3da6cedb	0.08144923
53	0x3cdac089	0.026703136
54	0xbd700824	-0.058601514
55	0x3ce1c50d	0.027559781
56	0xbda93fdd	-0.08264134
57	0x3d4fac9e	0.05070173
58	0xbd8adbfb	-0.06780239
59	0xbd678fb9	-0.05653355
60	0x3d96f389	0.073706694
61	0x3d9ecb04	0.07753566
62	0xbd248435	-0.040165145
63	0xbcb65911	-0.022259267
64	0x3b9b36b7	0.004736747
65	0x3cfb56b2	0.030680988
66	0xbd10c1f1	-0.035341207
67	0xbd67e748	-0.05661705
68	0xbd5e88f9	-0.054329846
69	0x3da144f0	0.07874477
70	0x3b22051e	0.0024722288
71	0x3d5e7f68	0.054320723
72	0x3d83414a	0.06408937
73	0xbd033c4a	-0.032039918
74	0x3c8711eb	0.016488036
75	0x3d597695	0.053091604
76	0x3d11fbeb	0.03564064
77	0xbda8d65c	-0.08244011
78	0xbd9cbb9d	-0.07652972
79	0xbba8d3de	-0.0051522097
80	0x3ceb15a3	0.02869684
81	0x3d4f208b	0.050568145
82	0xbd1aeb96	-0.03782233
83	0xbd3528ea	-0.04422847
84	0xbda21f0f	-0.0791608
85	0x3daaa97d	0.083331086
86	0x3d266dec	0.040632173
87	0x3d2e74e3	0.04259194
88	0xbd9ab33a	-0.07553716
89	0xbd0a249c	-0.03372632
90	0x3cbb4637	0.02286063
91	0x3c98e47b	0.018663635
92	0xbda04e42	-0.078274265
93	0x3c81ffa6	0.015868973
94	0xbcee81b8	-0.02911459
95	0xbc58f9fa	-0.013243193
96	0xba904a8d	-0.0011008546
97	0x3d6ce405	0.057834644
98	0xbd419b58	-0.047267288
99	0x3d42e4bf	0.04758143
100	0xbd3809e2	-0.0449313
101	0x3d46c84f	0.048530873
102	0x3d8fb405	0.07016758
103	0xbd61197a	-0.054955937
104	0x3c7dc980	0.015489936
105	0xbdadf41f	-0.08493828
106	0x3d9a9bd9	0.07549257
107	0x3d91f109	0.07126052
108	0xbdb05b48	-0.086111605
109	0xbd290a62	-0.041269667
110	0x3d5718fd	0.052514065
111	0xbda6de6a	-0.08147891
112	0xbd09a51c	-0.033604726
113	0xbcf1ba84	-0.029507883
114	0x3d76d148	0.06025818
115	0x3d8e27de	0.06941198
116	0xbd21e3ed	-0.039524008
117	0xba9959dc	-0.0011699754
118	0x3714d892	8.871912e-06
119	0xbd8acea5	-0.067776956
120	0xbd487a9e	-0.04894506
121	0x3bbc5723	0.005747692
122	0x3cc6b8dd	0.024258072
123	0xbda695d6	-0.08134048
124	0x3d58ab47	0.052897718
125	0x3cede9ef	0.029042212
126	0xbce4b433	-0.027917957
127	0xbd6f8014	-0.058471754

layer3.weight f4 [4, 128]
0	0x3da85a6f	0.08220374
1	0x3cf7d75d	0.03025406
2	0xbc521477	-0.012822262
3	0x3d3b66aa	0.045752205
4	0x3d422a0f	0.04740339
5	0xbdaa05f8	-0.0830192
6	0xbd1fddc5	-0.039029855
7	0xbce1e939	-0.02757703
8	0x3d587dba	0.052854277
9	0xbcdef9e1	-0.02721876
10	0x3d361b98	0.04445991
11	0x3c7dad15	0.0154831605
12	0xbbbfcc42	-0.005853207
13	0x3c926f66	0.017875385
14	0xbc45c938	-0.0120719
15	0xbd6f18eb	-0.058373373
16	0xbcf8bdb4	-0.030363895
17	0x3aebcb3b	0.0017989645
18	0xbd396543	-0.045262586
19	0xbc849246	-0.01618303
20	0x3d08d489	0.033405814
21	0x3d9cb714	0.07652107
22	0x3d1bf926	0.038079403
23	0x3d542465	0.05179252
24	0xbd4a89e3	-0.049447905
25	0x3bcbce3a	0.0062196525
26	0xbd532fac	-0.051559135
27	0x3ce4e168	0.027939513
28	0xbc11c277	-0.008896462
29	0x3cec5a0b	0.02885153
30	0xbbccab8d	-0.0062460364
31	0xbd54603c	-0.05184959
32	0x3d9d629a	0.076848224
33	0xbd08c722	-0.033393033
34	0x3d50a434	0.050937846
35	0xbd11fb9c	-0.035640344
36	0xbd2ba400	-0.04190445
37	0x3b8b7b20	0.004256621
38	0x3c90e7f3	0.017688727
39	0x3c9bc9e8	0.019017175
40	0xbd89a42a	-0.06720765
41	0x3cc31239	0.0238124
42	0xbc36edd3	-0.0111651
43	0xbd780b4b	-0.060557645
44	0x3c9ea9b1	0.019368025
45	0x3d9d517b	0.07681557
46	0x3c108702	0.008821251
47	0xbcda0795	-0.026614944
48	0xbcf691ad	-0.03009876
49	0x3d30d66f	0.04317325
50	0x3cf82dad	0.030295217
51	0xbd869e4a	-0.0657316
52	0xbd87bbf2	-0.066276446
53	0xbd64ec12	-0.055889197
54	0xbca9c6f5	-0.020724753
55	0x3c0c3c9b	0.008559371
56	0xbdb33034	-0.087494284
57	0x3c1eda6b	0.00969563
58	0x3d46d9f7	0.04854771
59	0x3d582c5a	0.052776672
60	0xbb5fabbd	-0.0034129464
61	0xbbfe034e	-0.007751859
62	0x3ce8d2ef	0.028420893
63	0x3d724ba6	0.059154175
64	0xbc9c08a3	-0.019047087
65	0x3d279dd3	0.040921997
66	0x3d898788	0.06715304
67	0xbd86b239	-0.06576962
68	0xbcdb2328	-0.026750162
69	0x38805702	6.119722e-05
70	0x3cb1a351	0.02168432
71	0xbd33b368	-0.043872267
72	0x3d8afcb9	0.06786484
73	0x3d46835b	0.048465114
74	0xbd37f9e3	-0.044916045
75	0x3bedfd8f	0.0072628926
76	0xbd28b4c4	-0.041188017
77	0x3cc4c069	0.02401753
78	0x3d8db8fc	0.069200486
79	0xbd794430	-0.060856044
80	0xbceb66ab	-0.02873548
81	0x3da90d41	0.08254481
82	0xbc9aff13	-0.018920457
83	0xbd369acc	-0.04458122
84	0xbc333850	-0.010938719
85	0x3da92e42	0.08260776
86	0x3cebc045	0.028778205
87	0xbc496df0	-0.012294278
88	0x3cbccd00	0.02304697
89	0xbb63dbb6	-0.003476841
90	0xbcb04a95	-0.021519938
91	0xbd597d8e	-0.053098254
92	0xbd4cd69b	-0.05000935
93	0x3d73da83	0.05953456
94	0xbda733ab	-0.08164152
95	0xbca0890c	-0.019596599
96	0x3d26fc5a	0.040768005
97	0xbd4f339d	-0.05058633
98	0xbd9ffee5	-0.07812289
99	0x3bb57468	0.0055375583
100	0x3d934575	0.07190982
101	0xbd841403	-0.064491294
102	0xbd9b85de	-0.075938925
103	0xbb6f4197	-0.00365076
104	0x3bebc4c7	0.0071950885
105	0xbc66de8c	-0.014091145
106	0x3d9f3b00	0.07774925
107	0xbc0c5a59	-0.008566462
108	0x3c8473c8	0.01616849
109	0xbcff714d	-0.031181956
110	0xbd5f027f	-0.05444574
111	0xbc0258f1	-0.007955776
112	0xbd43f066	-0.047836684
113	0xbd86077c	-0.06544396
114	0xbd0c2e00	-0.034223557
115	0x3d87f2d0	0.0663811
116	0xbd7eb9bb	-0.062188845
117	0x3d83523a	0.06412168
118	0x3dab9f40	0.08379984
119	0x3d61a9d1	0.05509359
120	0x3d635740	0.05550313
121	0xbdb46c05	-0.088096656
122	0xbd356121	-0.044282082
123	0x3d376b0d	0.044779826
124	0xbd4fce0d	-0.050733615
125	0xbda6a492	-0.08136858
126	0x3d75a058	0.05996737
127	0xbae4e80f	-0.0017464178
128	0xbd9cd5d2	-0.076579705
129	0x3cef70b9	0.029228555
130	0x3d637bae	0.055537872
131	0xbc06c75d	-0.008226243
132	0xbd5f9bb8	-0.054591864
133	0xbd1e1b77	-0.03860041
134	0xb7c08283	-2.2948958e-05
135	0xbc759543	-0.0149892
136	0x3da7c0ea	0.08191092
137	0x396303b1	0.00021649782
138	0xbd58fd0a	-0.05297569
139	0x3cd9c79d	0.02658444
140	0xbd8ad817	-0.06779497
141	0x3d7ab445	0.061207075
142	0xbc0bbafc	-0.008528467
143	0x3d58e047	0.052948263
144	0xbd9679fc	-0.073474854
145	0xbd42e04e	-0.047577195
146	0xbd96afbb	-0.07357737
147	0xbcd01331	-0.025399776
148	0x3d8dfa5d	0.06932519
149	0xbca40877	-0.020023568
150	0x3db3e65f	0.08784174
151	0x3d0c1bb1	0.034206096
152	0xbd9867df	-0.07441687
153	0x3d597657	0.053091373
154	0x3d098ff6	0.033584557
155	0xbd52c3fe	-0.051456444
156	0x3da775d5	0.081767716
157	0x3ca0105a	0.019539047
158	0xbda0037b	-0.07813164
159	0x3d1103d8	0.035404056
160	0xbbb6cdd4	-0.005578736
161	0xbd68f626	-0.05687537
162	0xbd6771d3	-0.056505036
163	0x3d16c64f	0.036810216
164	0x3d6b9934	0.057519153
165	0x3d8fd96d	0.070238926
166	0x3d8754a3	0.0660794
167	0x3d63e523	0.055638444
168	0x3bc68c29	0.006059189
169	0xbd50b875	-0.050957162
170	0xbd9aa05a	-0.07550116
171	0xbd8c4a36	-0.06850092
172	0x3d6cd40b	0.057819407
173	0x3c9d1968	0.019177154
174	0xbd83208d	-0.06402693
175	0xbc0870ff	-0.008327722
176	0x3d7acb05	0.06122877
177	0x3dafea21	0.085895784
178	0x3b8df303	0.004331948
179	0xbd8ed690	-0.06974518
180	0xbd58a75e	-0.05289399
181	0x3c1971d0	0.009365514
182	0x3d9ccdc6	0.07656436
183	0xbc8e293d	-0.017353648
184	0x3d9f542e	0.07779728
185	0x3d6d351a	0.05791197
186	0x3d2aa196	0.041658007
187	0xbca4a20a	-0.020096797
188	0xbd841ff3	-0.06451406
189	0xbdade0d4	-0.08490148
190	0x3c9b0138	0.01892148
191	0xbd539c7d	-0.05166291
192	0xbdaef37b	-0.08542534
193	0xbd4fca5f	-0.050730105
194	0x3b4c4f46	0.003117518
195	0x3d059c99	0.032620046
196	0x3d4579a9	0.048211727
197	0x3da05ebf	0.078305714
198	0xbd721be6	-0.059108637
199	0xbcc05241	-0.023476722
200	0x3cc4cae8	0.024022534
201	0x3d6408bf	0.055672403
202	0x3d8245c6	0.063609645
203	0xbb5882be	-0.0033036913
204	0xbd9b0c12	-0.075706616
205	0xbd550670	-0.052008092
206	0x3d5a807d	0.053345192
207	0xbd808ca1	-0.06276823
208	0x3dac244c	0.084053606
209	0xbc74b49f	-0.014935642
210	0xbd8d0a9e	-0.06886791
211	0xbc0ba9ed	-0.0085244
212	0x3d13f04c	0.036117837
213	0xbd833d44	-0.0640817
214	0x3daee82c	0.08540377
215	0x3d1a6dd2	0.03770239
216	0x3d9afcb9	0.07567734
217	0x3d0e2aa1	0.034708623
218	0xbda80580	-0.08204174
219	0xbaeb56e9	-0.0017954978
220	0x3dab0e8e	0.083523855
221	0xbcc8eff1	-0.024528475
222	0xbd33c64a	-0.043890275
223	0x3c8c5643	0.017130977
224	0x3cbbdec6	0.022933375
225	0xbd0e1f3b	-0.034697752
226	0xbd8ab15e	-0.06772111
227	0xbc1e9705	-0.009679561
228	0xbdae9f3b	-0.085264646
229	0xbd999a56	-0.0750014
230	0x3b6a790e	0.003577772
231	0x3d3180fd	0.043335903
232	0xbc7df0ec	-0.015499335
233	0x3bce6ceb	0.006299605
234	0xbbb10745	-0.005402478
235	0xbd1fd615	-0.039022524
236	0xbc9e03e6	-0.019288968
237	0x3da189cc	0.07887611
238	0x3d9d1d2d	0.076715805
239	0x3d903526	0.07041387
240	0xbca8cf4b	-0.020606657
241	0xbcf8201c	-0.030288748
242	0xbd994f74	-0.074858576
243	0x3d77ad67	0.060468104
244	0x3d843bb8	0.06456703
245	0x3d93ffa6	0.072264954
246	0x3d4c6967	0.049905207
247	0xbd89aaba	-0.06722017
248	0x3c54c661	0.01298675
249	0x3c305ac7	0.0107638305
250	0x3d03467a	0.032049634
251	0xbd09c825	-0.03363814
252	0x3d73057f	0.059331413
253	0xbb56188e	-0.0032668444
254	0x3d52fb45	0.05150916
255	0x3d8fa7ab	0.07014402

layer3.bias f4 [4]
0	0x3d36586a	0.044517912
1	0xbc350bcd	-0.011050177
2	0x3cb4d27b	0.022073021
3	0x3c2aa6f5	0.010415782

layer1.weight f4 [128, 4]
0	0x3ee8bc38	0.454561
1	0x3eb8a4c8	0.36063218
2	0xbe62b638	-0.22139823
3	0xbee8d056	-0.45471448
4	0xbdadbdc8	-0.084834635
5	0x3edcd6aa	0.43132526
6	0x3e8c699a	0.27424318
7	0x3e5c24b8	0.21498382
8	0x3e8fc19a	0.28077394
9	0xbea817b4	-0.32830584
10	0x3e40c5c4	0.18825442
11	0xbbb91380	-0.0056480765
12	0xbef4e880	-0.47833633
13	0x3e90b09c	0.28259742
14	0x3d7dca50	0.06196052
15	0xbee42918	-0.44562602
16	0x3b7f2500	0.0038931966
17	0x3edc2100	0.42993927
18	0x3eb5e544	0.35526478
19	0xbed490f4	-0.4151684
20	0x3eaeaf98	0.34118342
21	0x3d1e52f0	0.038653314
22	0x3e98d002	0.29846197
23	0x3e05d988	0.13071263
24	0xbda2f2d0	-0.07956469
25	0x3d519340	0.05116582
26	0xbebaea5a	-0.3650692
27	0x3e1e060c	0.15431994
28	0xbe71a734	-0.23598939
29	0xbdb788e8	-0.0896166
30	0xbe97c3e2	-0.29641634
31	0xbeeabe94	-0.45848525
32	0x3da62398	0.08112258
33	0x3e645e9c	0.22301716
34	0x3ef7e7d2	0.48419052
35	0x3e1e2fc4	0.15447909
36	0x3e491334	0.19636232
37	0x3dc3cb60	0.09560275
38	0x3e6ce3ac	0.23133725
39	0x3ec90af6	0.39266175
40	0x3e8b7e42	0.27244765
41	0x3ec2945a	0.38003808
42	0xbee72c24	-0.45150864
43	0xbebb476c	-0.36577928
44	0x3e19a69c	0.15004963
45	0xbd5e06d0	-0.054205716
46	0x3ecc8f9c	0.39953315
47	0xbe592ccc	-0.21208495
48	0x3eaec6d2	0.34136063
49	0x3e3054b4	0.17219812
50	0xbdd47218	-0.10373324
51	0xbea1a694	-0.31572402
52	0x3e7f2714	0.24917251
53	0x3c55a680	0.013040185
54	0x3eeb5060	0.4595976
55	0xbe875568	-0.26432347
56	0x3e8c54c4	0.2740842
57	0xbe7ef480	-0.24897957
58	0xbe9ed284	-0.31019986
59	0xbd42ea90	-0.047586977
60	0xbd5a7450	-0.05333358
61	0x3e9a1e58	0.30101275
62	0x3ec40286	0.38283175
63	0xbe75d76c	-0.24007958
64	0x3ef82e36	0.48472756
65	0x3c8cdc00	0.017194748
66	0xbd81a5c0	-0.063304424
67	0x3d5bcf60	0.053664565
68	0x3de0c458	0.109749496
69	0x3eae59b0	0.340528
70	0xbdc5bbd0	-0.09654963
71	0x3d10c650	0.035345376
72	0x3ee0b47e	0.43887705
73	0xbed5fd84	-0.4179498
74	0x3edd3728	0.43206143
75	0x3d8e55e0	0.06949973
76	0x3ecd0b1a	0.40047532
77	0xbeeb33d0	-0.45937967
78	0xbecbd5c2	-0.39811522
79	0xbcb239c0	-0.021756053
80	0xbdbac520	-0.0911963
81	0xbecaacd8	-0.39584994
82	0x3eaf2e44	0.34214985
83	0x3dbafaa0	0.09129834
84	0x3e6c53f8	0.23078907
85	0x3ed7547c	0.42056644
86	0xbef5b0b4	-0.47986376
87	0xbef9ec18	-0.48812938
88	0x3e2f5fe4	0.17126423
89	0x3db0c708	0.08631712
90	0xbe0c83a4	-0.13722092
91	0xbeceff32	-0.40429074
92	0x3e9f622c	0.31129587
93	0xbef06d20	-0.46958256
94	0xbe835edc	-0.2565831
95	0xbecf42c4	-0.40480626
96	0xbdc71128	-0.09720069
97	0xbed0b2d8	-0.40761447
98	0xbea7a92c	-0.32746255
99	0xbd94f9b0	-0.072741866
100	0x3ed00f38	0.4063661
101	0xbe3d6b4c	-0.18497962
102	0x3e0abc90	0.13548493
103	0x3edc485a	0.4302395
104	0x3eabf80c	0.33587682
105	0x3d7fd850	0.06246215
106	0x3d248070	0.04016155
107	0xbe9e0c00	-0.3086853
108	0x3e47b474	0.19502431
109	0xbe7a3184	-0.24432951
110	0x3e1a0a04	0.15042883
111	0x3e88b75a	0.26702386
112	0x3efc4bb8	0.4927652
113	0xbeb8f478	-0.36124015
114	0x3edaceb6	0.42735833
115	0x3edd0682	0.43169028
116	0x3e23a5e0	0.15981245
117	0x3ec091e8	0.37611318
118	0xbeba8712	-0.36431175
119	0x3ed65ed0	0.4186921
120	0xbef00578	-0.46879172
121	0x3ec22150	0.3791604
122	0x3d9c1620	0.076214075
123	0x3d90f618	0.07078189
124	0x3ee24248	0.44191194
125	0xbefb6eb8	-0.4910791
126	0xbe3c2ba0	-0.18376017
127	0x3e57fb10	0.21091866
128	0xbec568e4	-0.38556588
129	0xbe8bcc12	-0.2730413
130	0xbdf14db8	-0.11782402
131	0x3e0f6350	0.14002728
132	0x3eb39af6	0.35079163
133	0xbe0b23c8	-0.13587868
134	0x3e61ebb4	0.2206257
135	0xbc203300	-0.009777784
136	0xbebf4fd8	-0.37365603
137	0x3e9bdff8	0.30444312
138	0xbef2b9da	-0.47407418
139	0xbec6016a	-0.38672954
140	0xbdc86730	-0.097853065
141	0x3e5d4430	0.21608043
142	0xbe55bdf0	-0.20873237
143	0x3d9112e0	0.07083678
144	0x3df6df38	0.12054294
145	0xbee3f3ac	-0.44521844
146	0x3a831a00	0.0010002255
147	0xbe09ef9c	-0.1347031
148	0xbece6150	-0.4030862
149	0xbca08da0	-0.019598782
150	0x3e24dab8	0.1609906
151	0xbe02be04	-0.12767798
152	0x3ee19c58	0.44064593
153	0xbecdc19c	-0.40186775
154	0x3db90360	0.09033847
155	0xbea093d4	-0.31362784
156	0x3e5fc508	0.21852505
157	0x3e12f8b0	0.14352679
158	0x3d10cc70	0.035351217
159	0xbd591550	-0.05299884
160	0xbe32fe54	-0.17479831
161	0xbe602384	-0.21888548
162	0xbd74a980	-0.05973196
163	0xbdeafde0	-0.11474204
164	0xbed74720	-0.42046452
165	0xbdab5600	-0.083660126
166	0xbeda2b68	-0.4261124
167	0x3ea86718	0.32891154
168	0xbe710984	-0.23538786
169	0xbec031e6	-0.3753807
170	0xbee72a7e	-0.45149606
171	0xbebc0c06	-0.36727923
172	0xbefc0226	-0.4922039
173	0xbdb138e8	-0.08653432
174	0x3e8fc830	0.28082418
175	0x3e35bf08	0.17748654
176	0xbeafae0a	-0.3431247
177	0xbeef4176	-0.4672963
178	0x3eac2006	0.33618182
179	0xbd18c6c0	-0.037298918
180	0xbdb72710	-0.089429975
181	0x3e5b1f44	0.21398646
182	0x3dd3a4c8	0.10334164
183	0xbdf6ae88	-0.12045008
184	0xbe90acf0	-0.2825694
185	0xbef4d0ee	-0.4781565
186	0xbde0cb48	-0.10976273
187	0xbed2409a	-0.41064912
188	0xbeb5eb14	-0.35530913
189	0x3e4095e0	0.18807173
190	0xbdb865f0	-0.09003818
191	0x3e93141e	0.28726286
192	0x3e18aad4	0.14908916
193	0xbec37a88	-0.3817942
194	0x3dc42238	0.09576839
195	0xbec84522	-0.39115244
196	0xbe858a30	-0.2608199
197	0x3d6ae5b0	0.057347953
198	0x3e073a70	0.13205886
199	0xbecfd6dc	-0.40593612
200	0x3e2807b8	0.16409194
201	0x3e67be04	0.22631079
202	0xbe74d714	-0.23910171
203	0xbeb5084c	-0.35357893
204	0xbd9bcac0	-0.07607031
205	0xbe22f3b4	-0.15913278
206	0x3d35ff50	0.044432938
207	0xbee2f054	-0.4432398
208	0x3e63fafc	0.22263712
209	0xbd6d78e0	-0.057976604
210	0x3e0df094	0.13861305
211	0xbefba03a	-0.4914568
212	0x3d620450	0.055179894
213	0x3efe9e86	0.4973032
214	0xbeaa9dda	-0.33323556
215	0xbd4e7990	-0.0504089
216	0x3e88b0d8	0.2669742
217	0x3e9c893e	0.30573457
218	0x3e4f4ed4	0.20244914
219	0x3e84dc18	0.25949168
220	0x3e553ca8	0.2082392
221	0xbeef90c6	-0.4679014
222	0xbe80485a	-0.250552
223	0xbed487de	-0.41509908
224	0x3ce6cb00	0.02817297
225	0xbe37c5dc	-0.17946571
226	0x3ed85798	0.4225433
227	0xbed007c0	-0.40630913
228	0x3eda852a	0.4267972
229	0x3e3144b8	0.1731137
230	0x3e6d175c	0.23153442
231	0xbe339ebc	-0.17541021
232	0x3edf6838	0.436342
233	0x3cfc80e0	0.030823171
234	0x3ee97432	0.45596462
235	0xbee99fe2	-0.45629793
236	0x3e935c74	0.28781474
237	0x3c68bec0	0.014205635
238	0xbd300ac0	-0.042979002
239	0xbbe53b80	-0.0069956183
240	0x3e8b9b1c	0.27266777
241	0x3e50e8d8	0.20401323
242	0xbe6701b4	-0.22559243
243	0xbea0062a	-0.31254703
244	0xbe8c3024	-0.27380478
245	0x3df75bd8	0.12078065
246	0x3ef0c5da	0.4702595
247	0xbeb90904	-0.3613969
248	0x3de69ac8	0.11259991
249	0x3e49352c	0.1964919
250	0x3dee4830	0.116348624
251	0x3efb089a	0.4903
252	0x3ea86618	0.3289039
253	0xbed7716e	-0.42078727
254	0x3ebe6a40	0.37190437
255	0x3de58ca0	0.11208463

layer1.bias f4 [128]
0	0xbe50a27c	-0.20374483
1	0x3ece48a8	0.40289807
2	0x3ec2eb1a	0.38069993
3	0x3d2363a0	0.03988993
4	0xbea97cf2	-0.33103138
5	0x3e8c4116	0.27393407
6	0x3ee7370a	0.4515918
7	0x3e158668	0.14602053
8	0xbe2f8454	-0.17140323
9	0x3d6f47d0	0.058418095
10	0x3e83513e	0.2564792
11	0x3ef9c194	0.487805
12	0x3dc0d2b0	0.094151855
13	0x3e887298	0.26649928
14	0xbdd8e6f8	-0.10590929
15	0x3eecf896	0.46283406
16	0xbeb3daca	-0.3512786
17	0xbe9afcfa	-0.3027113
18	0x3e1e1a60	0.15439749
19	0xbe3c6320	-0.18397188
20	0xbe2ded68	-0.16985095
21	0x3cc3a4e0	0.02388233
22	0xbed0a998	-0.4075439
23	0x3ebe8a2e	0.37214798
24	0x3d1c2ed0	0.03813058
25	0xbe1ab1fc	-0.15106958
26	0xbd46ff80	-0.048583508
27	0x3ea4a188	0.3215449
28	0x3e49efdc	0.19720405
29	0xbeaa1f66	-0.3322708
30	0xbe7ff958	-0.24997461
31	0xbd9a9a38	-0.07548946
32	0xbac9ac00	-0.0015386343
33	0xbeb20964	-0.3477279
34	0xbe955b26	-0.29171103
35	0x3ed90a32	0.4239059
36	0xbe1f6944	-0.155675
37	0x3ecaeae6	0.39632338
38	0xbe8ddaec	-0.27706087
39	0x3e10cc9c	0.14140552
40	0xbe82b1be	-0.25526232
41	0x3da64210	0.08118069
42	0xbed223f0	-0.41043043
43	0xbd7d9080	-0.061905384
44	0xbd485560	-0.048909545
45	0x3e881c30	0.26584005
46	0x3e6fc694	0.23415595
47	0x3d9885c8	0.07447392
48	0xba371000	-0.000698328
49	0x3e673ddc	0.22582191
50	0x3e8184ac	0.25296533
51	0x3ed67000	0.41882324
52	0xbea89d44	-0.32932484
53	0x3ea03a6c	0.31294572
54	0xbef00df4	-0.46885645
55	0x3ebe067a	0.37114316
56	0xbee09b16	-0.4386832
57	0xbe365a94	-0.1780799
58	0x3e1777c4	0.1479178
59	0xbd3c92b0	-0.04603833
60	0xbdb32938	-0.08748096
61	0xbed822d4	-0.42214072
62	0x3ecc57b8	0.39910674
63	0xbe1ad580	-0.15120506
64	0x3ea239f0	0.31684828
65	0x3ecb3710	0.39690447
66	0x3e40c068	0.18823397
67	0x3ea14188	0.3149531
68	0x3df1c390	0.11804879
69	0xbeace238	-0.3376634
70	0xbe8db684	-0.2767831
71	0x3ea8bfa8	0.32958722
72	0xbbf4b080	-0.0074673295
73	0xbeb6e4ca	-0.35721427
74	0x3daf80e0	0.08569503
75	0x3e96671a	0.29375535
76	0x3ee710d4	0.45130026
77	0xbe7732a8	-0.24140418
78	0x3c722d40	0.014781296
79	0xbeb50c20	-0.35360813
80	0x3eabda2c	0.3356489
81	0xbdf2a9f8	-0.11848825
82	0xbe61b54c	-0.22041816
83	0xbeaa0152	-0.33204132
84	0x3e83dc5c	0.25754058
85	0x3c94fbc0	0.01818645
86	0x3e398510	0.18117166
87	0x3eaab034	0.33337557
88	0xbeb3cdf4	-0.35118067
89	0x3e88d8ae	0.26727813
90	0xbe9dd2d8	-0.30824924
91	0xbeae0770	-0.3399005
92	0xbe2645b8	-0.16237533
93	0xbe4b2bfc	-0.19840997
94	0x3ed1c72a	0.40972263
95	0x3dfd3778	0.123640954
96	0xbe9e589e	-0.30926985
97	0xbdc7d380	-0.09757137
98	0x3e5b4670	0.21413589
99	0xbcdd9c20	-0.027051985
100	0xbee63d98	-0.44968867
101	0xbeee6b6a	-0.46566325
102	0xbde540a8	-0.11193973
103	0x3ec02366	0.37527007
104	0xbe93a1f4	-0.28834498
105	0xbd5fc3f0	-0.05463022
106	0xbe7fe688	-0.24990284
107	0xbee49ce2	-0.44650942
108	0x3eeb1a00	0.45918274
109	0x3e0e1350	0.13874555
110	0xbdc3d408	-0.09561926
111	0xbe4073c0	-0.18794155
112	0xbe5d1e58	-0.21593606
113	0x3e9d757c	0.30753696
114	0x3e2ef2f0	0.17084861
115	0x3e5cb04c	0.21551627
116	0x3c64ae80	0.01395762
117	0xbe244620	-0.16042376
118	0xbd706af0	-0.058695734
119	0xbeb0f4d4	-0.3456179
120	0xbda274b8	-0.079324186
121	0x3e5a3fc4	0.21313387
122	0xbebb7a7c	-0.36616886
123	0xbec29780	-0.3800621
124	0xbef34618	-0.47514415
125	0x3e63aee4	0.22234684
126	0x3e5c5bb4	0.21519357
127	0x3edc15aa	0.42985278

layer2.weight f4 [128, 128]
0	0xbcd01ca1	-0.025404276
1	0xbda3152d	-0.07963023
2	0xbd38a392	-0.045077868
3	0xbb8e7711	-0.00434769
4	0x3a4da90c	0.00078453193
5	0x3b39ac12	0.0028331322
6	0x3d0e8d0d	0.034802485
7	0xbc144ba2	-0.009051235
8	0xbc0192e9	-0.007908561
9	0xbdae44c5	-0.085092105
10	0x3c3c5b83	0.0114964275
11	0x3cb5732b	0.022149643
12	0xbd5e1927	-0.054223206
13	0xba867102	-0.0010257068
14	0xbd07786b	-0.033073824
15	0xbd526135	-0.051362235
16	0x3d8912dc	0.0669305
17	0xbd4d4b48	-0.050120622
18	0xbbcf0c48	-0.0063186027
19	0x3c27a8a1	0.010233075
20	0xbd848555	-0.064707436
21	0xbda40074	-0.08007899
22	0xbd3dc1ea	-0.04632751
23	0xbcfda2c4	-0.030961402
24	0x3d429f9b	0.047515493
25	0xbd38e0ca	-0.04513625
26	0x3b6622b9	0.003511591
27	0xbd1dc711	-0.038519923
28	0x3d3a64d3	0.04550631
29	0x3d904198	0.07043761
30	0x3cddf336	0.027093511
31	0xbd85cb23	-0.06532886
32	0xbd8cbe44	-0.06872228
33	0x3d96899f	0.07350468
34	0x3da05847	0.078293376
35	0x3ca35cd0	0.019941717
36	0x3d0540be	0.032532446
37	0xbdb1c18d	-0.08679495
38	0xbb01d9f9	-0.001981376
39	0x3d74ddb3	0.05978174
40	0xbd84e921	-0.06489778
41	0xbaaf81eb	-0.0013390159
42	0xbd247f6c	-0.04016058
43	0x3d9f9e9d	0.07793925
44	0x3d8370e1	0.06418014
45	0x3d194602	0.03742028
46	0x3db484e4	0.088144094
47	0xb985299e	-0.00025398744
48	0xbd12d517	-0.03584775
49	0x3d3ca370	0.046054304
50	0xbd3e8a3f	-0.04651856
51	0x3da2cf3d	0.07949684
52	0xbd8ae110	-0.067812085
53	0xbb796e0a	-0.0038059973
54	0x3da8c662	0.082409635
55	0xbce67b44	-0.02813495
56	0x3ccbe1b2	0.024887893
57	0xbda7129b	-0.081578456
58	0xbcc6bd26	-0.024260115
59	0x3d805bf5	0.062675394
60	0x3d05abfb	0.032634716
61	0x3d8fbcb4	0.07018414
62	0x3db00806	0.0859528
63	0x3d983162	0.07431294
64	0x3d9a2b02	0.07527734
65	0xbc77d336	-0.01512604
66	0xbc2119b1	-0.009832785
67	0xbcface0c	-0.030615829
68	0xbd46bc44	-0.048519388
69	0x3cd8657c	0.026415579
70	0x3da83168	0.082125485
71	0x3c68c11a	0.014206195
72	0x3d45a97a	0.04825733
73	0x3dade893	0.08491626
74	0x3cb1023b	0.021607509
75	0x3d745a61	0.059656505
76	0xbcab6854	-0.020923771
77	0x3d547f97	0.05187949
78	0x3c9c619a	0.019089509
79	0x3da66b7b	0.08125969
80	0xbd9d2b68	-0.07674295
81	0x3bfc08ee	0.007691494
82	0xbd4a0dd8	-0.04932961
83	0xbda185da	-0.07886858
84	0xbd2ff2e9	-0.042956267
85	0xbd146909	-0.03623298
86	0xbd4030c7	-0.046921518
87	0x3d46b1ea	0.048509516
88	0x3d391ccb	0.045193475
89	0x3c62ef19	0.013850951
90	0xbab050bf	-0.0013451799
91	0x3c8bb061	0.017051877
92	0x3cd8b859	0.026455091
93	0x3d87be62	0.066281095
94	0xbab8ea53	-0.001410792
95	0x3d972f8b	0.07382115
96	0xbcdb8fda	-0.026801992
97	0xbd381eeb	-0.04495136
98	0xbd70f7e8	-0.05883017
99	0x3d8d6255	0.06903521
100	0x3cf8dfe9	0.030380206
101	0x3cba83a1	0.022767844
102	0x3d23fb81	0.040034775
103	0x3cfa6b4b	0.03056874
104	0xbdb123b8	-0.08649391
105	0xbd8748ab	-0.06605657
106	0x3b6ccb07	0.0036131756
107	0xbd4d5dda	-0.050138332
108	0xbd89c66d	-0.067273
109	0x3d888cfa	0.06667514
110	0x3d30bf90	0.04315144
111	0xbd659440	-0.056049585
112	0x3d5f89a5	0.054574627
113	0x3d3bbe0c	0.04583554
114	0x3d2cadff	0.042158123
115	0x3d5797f6	0.052635156
116	0x3d068477	0.032841172
117	0xbdaf7054	-0.08566347
118	0xbd410669	-0.047125254
119	0xbd031078	-0.031998128
120	0x3a99170a	0.001167984
121	0x3d3ce9f3	0.04612155
122	0xbbe3103e	-0.0069294265
123	0xbc844df9	-0.016150462
124	0x3ca517f8	0.02015303
125	0xbd6c9634	-0.057760432
126	0xbd88f95d	-0.06688187
127	0xbcddc584	-0.027071722
128	0xbd73069d	-0.05933248
129	0x3d0b4f49	0.03401116
130	0xbd9fd068	-0.07803422
131	0x3c282148	0.010261841
132	0x3c6e6b34	0.014551926
133	0xbcffb282	-0.031213049
134	0xbcdc7231	-0.02690992
135	0xbd4721ea	-0.048616327
136	0x3d9a18aa	0.075242355
137	0xbcb1ca85	-0.021703014
138	0x3b54eda0	0.0032490268
139	0x3b8cf45e	0.004301592
140	0xbc86e8bb	-0.016468396
141	0xbc0e9bca	-0.008704135
142	0x3d2fa683	0.042883407
143	0x3d1f0500	0.038823128
144	0x3d04ccb0	0.032421768
145	0x3c008c7c	0.007845994
146	0x3c1759ea	0.009237746
147	0x3dad52a3	0.08463027
148	0xbcdd2237	-0.026993854
149	0xbc9bbc67	-0.019010736
150	0xbd5ade0c	-0.053434417
151	0xbc10e1ea	-0.008842925
152	0x3c737a23	0.014860663
153	0xbaa82e51	-0.0012831186
154	0xbd2022c8	-0.03909567
155	0xbd9591ce	-0.07303201
156	0xbc5265b1	-0.012841628
157	0x3d397b83	0.045283806
158	0x3ba3ae16	0.004995118
159	0xbd0377a4	-0.03209652
160	0xbc8e709d	-0.017387683
161	0xbce3cde1	-0.027808132
162	0x3d6268e7	0.055275824
163	0xbc121f95	-0.008918663
164	0xbd955b8b	-0.07292851
165	0x3c776388	0.015099414
166	0xbd536f8b	-0.051620048
167	0x3b4e7d89	0.003150793
168	0x3caebe7e	0.021331068
169	0xbcabe2ec	-0.020982228
170	0x3ceedb69	0.029157357
171	0xbd7e6431	-0.06210727
172	0xbb8dd9a5	-0.0043289238
173	0xbda652fa	-0.08121295
174	0x3cb848f3	0.022495722
175	0x3d08d992	0.033410616
176	0xbd478107	-0.048707034
177	0xbbebf1c4	-0.0072004516
178	0x3bee938d	0.007280773
179	0x3d1d6987	0.038430717
180	0x3aebbd16	0.0017985429
181	0xbd9db79c	-0.07701036
182	0xbd512ca2	-0.051067956
183	0x3ca7bd12	0.020475898
184	0x3ca2e457	0.019884272
185	0xbcf1d0bf	-0.029518483
186	0x3c66b7a8	0.014081873
187	0x3dac236e	0.08405195
188	0x3c2643da	0.010148013
189	0x3d036213	0.032075953
190	0x3cc512a7	0.024056746
191	0xbd959a43	-0.07304814
192	0x3c11ae7e	0.0088917
193	0xbd79c408	-0.060977966
194	0xbc6861dd	-0.014183489
195	0x3d321b51	0.043483082
196	0xbd9b4d1c	-0.07583067
197	0x3bbf63f5	0.005840773
198	0x3ca20d23	0.019781655
199	0x3da75f08	0.08172423
200	0x3d8952f3	0.067052744
201	0x3d1122dc	0.035433635
202	0x3c7ad3a9	0.015309253
203	0xbd8b109f	-0.067902796
204	0xbd3e2831	-0.04642505
205	0x3d7b5fe9	0.061370764
206	0x3cc10ed4	0.02356664
207	0x3baad8c3	0.0052138283
208	0xbd7fbda8	-0.06243673
209	0x3d7ca05c	0.061676368
210	0xbcf206ba	-0.029544223
211	0xbc97aa0a	-0.018513698
212	0x3c5d9baa	0.013525883
213	0xbd2e00f7	-0.04248139
214	0x3baa6691	0.005200215
215	0xbd4dc3e0	-0.05023563
216	0x3d3fc4bc	0.04681848
217	0xbda10b91	-0.07863534
218	0xbd89d261	-0.0672958
219	0x3d0060dd	0.031342376
220	0xbdb2f095	-0.08737294
221	0x3c858ca8	0.016302422
222	0xbcf497e0	-0.029857576
223	0x3c627c31	0.013823555
224	0x3d2c38b1	0.042046253
225	0xbb9210b1	-0.004457556
226	0xbc49e4bb	-0.0123226
227	0x3da8ffbb	0.08251902
228	0x3d5872fc	0.052844033
229	0xbd99f9c3	-0.075183414
230	0xbd9abe75	-0.07555858
231	0xbd7a325f	-0.061083194
232	0xbd465bbc	-0.04842733
233	0xbcbcd4e4	-0.023050733
234	0x3d450932	0.048104472
235	0xbd49578b	-0.049155753
236	0xbd61934a	-0.055072106
237	0xbd92d815	-0.071701206
238	0xbd84e095	-0.06488148
239	0xbc1ae9ff	-0.009455203
240	0x3d5cad12	0.05387599
241	0xbd3ed3be	-0.04658865
242	0x3da4673d	0.08027504
243	0x3c789d66	0.015174245
244	0xbdaf021c	-0.08545324
245	0xbd12398f	-0.035699423
246	0x3b692c30	0.0035579316
247	0xbdb3a1bc	-0.08771083
248	0x3cd7218b	0.026261112
249	0x3d9f16c1	0.07768012
250	0x3cc345d2	0.023837004
251	0xbd8b3674	-0.067974955
252	0xbd7b9ca5	-0.061428685
253	0x3d363f23	0.044493806
254	0x3d968744	0.073500186
255	0x3d9b3739	0.07578892

layer2.bias f4 [128]
0	0x3c8e35ca	0.017359633
1	0xbdae16f6	-0.08500473
2	0x3a1663d8	0.0005736924
3	0x3cbfb65c	0.023402385
4	0xbcd84f85	-0.026405105
5	0x3ccc9a67	0.024975969
6	0x3d1c2306	0.03811934
7	0x3daefdb0	0.08544481
8	0x3c5522f7	0.013008825
9	0xbd3bec79	-0.045879815
10	0xbbd88784	-0.0066079516
11	0xbd9173bc	-0.07102153
12	0x3cc81002	0.024421696
13	0x3d871544	0.06595853
14	0xbd9ae44e	-0.07563077
15	0xbc9377d5	-0.018001476
16	0x3d49a742	0.049231775
17	0x3cf9769d	0.030452067
18	0x3d041e08	0.032255203
19	0xbb87b76d	-0.004141739
20	0x3b9d8b12	0.0048078382
21	0xbc915812	-0.01774219
22	0xbc6f356f	-0.014600142
23	0x3d9ed9c8	0.07756382
24	0x3d47ab64	0.048747435
25	0x3d678edc	0.056532726
26	0xbb21d9a1	-0.0024696367
27	0xbd9e2443	-0.0772176
28	0xbd7b904d	-0.061416913
29	0xba55a1c2	-0.0008149409
30	0x3c5a7283	0.013332966
31	0x3c833387	0.016015781
32	0xbd8b75e9	-0.06809599
33	0x3d883fd6	0.06652801
34	0x3cbd6e3e	0.023123857
35	0x3d422349	0.04739693
36	0xbdabc91e	-0.083879694
37	0x3b93a6a8	0.004505951
38	0xbd1f9e38	-0.03896925
39	0xbc224582	-0.009904267
40	0xbcaf2f9b	-0.021385005
41	0x3d1ccab2	0.038279243
42	0x3d336504	0.043797508
43	0xbd465b37	-0.048426833
44	0xbd862f4c	-0.0655199
45	0x3cb5e191	0.022202285
46	0x3c5206ad	0.012818974
47	0xbcf68076	-0.030090552
48	0xbd54734e	-0.051867776
49	0x3cc5cff6	0.024147015
50	0x3c8e691f	0.01738411
51	0x3d04e537	0.03244516
52	0x3da6cedb	0.08144923
53	0x3cdac089	0.026703136
54	0xbd700824	-0.058601514
55	0x3ce1c50d	0.027559781
56	0xbda93fdd	-0.08264134
57	0x3d4fac9e	0.05070173
58	0xbd8adbfb	-0.06780239
59	0xbd678fb9	-0.05653355
60	0x3d96f389	0.073706694
61	0x3d9ecb04	0.07753566
62	0xbd248435	-0.040165145
63	0xbcb65911	-0.022259267
64	0x3b9b36b7	0.004736747
65	0x3cfb56b2	0.030680988
66	0xbd10c1f1	-0.035341207
67	0xbd67e748	-0.05661705
68	0xbd5e88f9	-0.054329846
69	0x3da144f0	0.07874477
70	0x3b22051e	0.0024722288
71	0x3d5e7f68	0.054320723
72	0x3d83414a	0.06408937
73	0xbd033c4a	-0.032039918
74	0x3c8711eb	0.016488036
75	0x3d597695	0.053091604
76	0x3d11fbeb	0.03564064
77	0xbda8d65c	-0.08244011
78	0xbd9cbb9d	-0.07652972
79	0xbba8d3de	-0.0051522097
80	0x3ceb15a3	0.02869684
81	0x3d4f208b	0.050568145
82	0xbd1aeb96	-0.03782233
83	0xbd3528ea	-0.04422847
84	0xbda21f0f	-0.0791608
85	0x3daaa97d	0.083331086
86	0x3d266dec	0.040632173
87	0x3d2e74e3	0.04259194
88	0xbd9ab33a	-0.07553716
89	0xbd0a249c	-0.03372632
90	0x3cbb4637	0.02286063
91	0x3c98e47b	0.018663635
92	0xbda04e42	-0.078274265
93	0x3c81ffa6	0.015868973
94	0xbcee81b8	-0.02911459
95	0xbc58f9fa	-0.013243193
96	0xba904a8d	-0.0011008546
97	0x3d6ce405	0.057834644
98	0xbd419b58	-0.047267288
99	0x3d42e4bf	0.04758143
100	0xbd3809e2	-0.0449313
101	0x3d46c84f	0.048530873
102	0x3d8fb405	0.07016758
103	0xbd61197a	-0.054955937
104	0x3c7dc980	0.015489936
105	0xbdadf41f	-0.08493828
106	0x3d9a9bd9	0.07549257
107	0x3d91f109	0.07126052
108	0xbdb05b48	-0.086111605
109	0xbd290a62	-0.041269667
110	0x3d5718fd	0.052514065
111	0xbda6de6a	-0.08147891
112	0xbd09a51c	-0.033604726
113	0xbcf1ba84	-0.029507883
114	0x3d76d148	0.06025818
115	0x3d8e27de	0.06941198
116	0xbd21e3ed	-0.039524008
117	0xba9959dc	-0.0011699754
118	0x3714d892	8.871912e-06
119	0xbd8acea5	-0.067776956
120	0xbd487a9e	-0.04894506
121	0x3bbc5723	0.005747692
122	0x3cc6b8dd	0.024258072
123	0xbda695d6	-0.08134048
124	0x3d58ab47	0.052897718
125	0x3cede9ef	0.029042212
126	0xbce4b433	-0.027917957
127	0xbd6f8014	-0.058471754
