custom_maze/static/custom_maze/run/room24829/trained_model.pth (torch, 158674 bytes, 12 tensors)

layer1.weight f4 [128, 16]
000000 60 af 47 3c da 3b 36 3e 40 3f 46 3e a0 22 59 bc
       0.012187809 0.17796269 0.19360065 -0.013252884
000010 38 2d c5 3d 1e a6 1d be a8 9f 25 bd 92 51 5c be
       0.096277654 -0.153954 -0.040435463 -0.21515492
000020 40 67 43 3e 00 77 3e bb 9a 1b 6d be e8 ab 98 3d
       0.19082355 -0.0029062629 -0.2315506 0.074546635
000030 78 90 fd bd 54 b1 de bd 18 41 48 bd d0 3b b7 bc
       -0.12381071 -0.108736664 -0.048890203 -0.022367388
000040 60 da 3d 3c 06 f3 6a 3e c0 15 e7 bb 1c 33 3c be
       0.011587709 0.22944269 -0.0070521533 -0.18378872
000050 9c da d6 3d c8 48 23 be 00 94 da b9 9e ec 04 3e
       0.10490915 -0.15945733 -0.0004169047 0.12980887
000060 c8 8c 5a be 44 a4 c3 3d a0 63 69 3c a8 fa 6b 3d
       -0.21342766 0.095528156 0.014244944 0.05761209
000070 a4 d1 0a 3e 38 f7 b9 3d fc 84 21 be f2 08 6a 3e
       0.13556534 0.09080356 -0.15773386 0.22854975
000080 ae d9 46 3e c0 0c 8c bc 4a ca 47 3e 20 bd 10 3c
       0.19418976 -0.017095923 0.19510761 0.008834153
000090 16 bd 3f be 0e 47 77 3e 64 3a b4 bd 8c f5 b6 3d
       -0.18724474 0.24148199 -0.088002 0.08933553
0000a0 56 37 03 be f4 c1 6a be 7a 67 47 3e 7c 9e 0f 3e
       -0.12814078 -0.2292555 0.19473067 0.140253
0000b0 62 e1 35 3e 92 c5 0e be 50 05 ef bc 10 be 5a 3e
       0.17761758 -0.13942555 -0.029177338 0.21361566
0000c0 d0 a1 6b 3e 2a 34 69 be 00 24 7c 3d 90 c4 eb bc
       0.23010945 -0.22773805 0.06155777 -0.028780252
0000d0 30 0d d0 bc 80 62 17 3e 0e 5a 17 3e d0 cd d0 bd
       -0.025396913 0.14783669 0.14780447 -0.101955056
0000e0 16 ac 00 be 6c 3e 67 be 80 f3 be bb 50 07 cf bc
       -0.12565646 -0.22582406 -0.0058273673 -0.025272042
0000f0 14 29 a0 3d c8 da 54 be 68 c9 42 3d b8 27 3e be
       0.07820335 -0.20786583 0.047555357 -0.18569839
000100 c8 5f 83 bd 00 65 ec 3d d8 76 21 be 0a bd 1d be
       -0.06414753 0.11542702 -0.15767992 -0.15404144
000110 10 01 4d be 70 41 d8 3d e6 35 3c be 18 b1 ca bd
       -0.20019937 0.10559356 -0.18379936 -0.09897059
000120 1e 7d 09 be 4c a2 0d 3e 1e 64 3a be 2c 91 46 be
       -0.13426635 0.13831443 -0.18202254 -0.19391316
000130 00 25 1c 3b f8 2a 9e 3d bc 7b 88 3d 4a 5d 5a 3e
       0.0023825765 0.077230394 0.066642255 0.2132465
000140 a0 01 2a bd cc 77 4b be f0 79 d8 3c 44 91 2c be
       -0.041505456 -0.19869918 0.026425332 -0.1685229
000150 00 b4 f3 3c d0 ce e4 3d 70 c0 1b be 90 13 42 be
       0.029748917 0.11172259 -0.15210128 -0.18952775
000160 4a 21 1a 3e 40 71 13 3c 00 2a b8 bb c0 ae a7 3b
       0.15051761 0.008999169 -0.005620241 0.0051172674
000170 70 88 46 3e 00 7e 45 bc 48 99 ee bd 0a 0d 45 be
       0.19387984 -0.0120539665 -0.1165033 -0.19243255
000180 94 cb a7 bd 0c c8 10 3e 28 77 60 3e 70 6b 16 3d
       -0.08193126 0.14138812 0.21920455 0.036723554
000190 bc b5 be 3d e4 b3 d7 bd de 83 54 be cc 10 78 3e
       0.09312007 -0.10532358 -0.20753428 0.24225157
0001a0 0c e3 10 be 44 49 d2 bd 48 54 29 3e 60 39 c1 3c
       -0.14149112 -0.102678806 0.16536057 0.023586929
0001b0 b0 cc 6b be 60 a1 f8 3c e8 93 57 3d e0 5a be 3d
       -0.23027301 0.030350387 0.05263129 0.09294677
0001c0 78 46 29 be 58 99 52 bd 28 c3 37 be 06 ee 3e 3e
       -0.16530788 -0.05141577 -0.1794554 0.18645486
0001d0 9c 0a bb 3d 38 f3 89 bd 5c 47 f9 bd 50 13 b0 3d
       0.09132883 -0.067358434 -0.12171814 0.085974336
0001e0 ec b7 00 3e e0 df 1f bc ba ae 33 3e c0 5b 52 bd
       0.1257016 -0.009757966 0.17547122 -0.05135703
0001f0 84 69 a1 bd 34 cb fe bd 00 f1 15 3c 9c fc 3e be
       -0.07881454 -0.12441102 0.009151697 -0.1865105
000200 d8 cc 4b be 9a 30 7e 3e 64 2c bd 3d 80 41 ce bd
       -0.1990236 0.24823228 0.092369825 -0.10071087
000210 06 b5 34 3e c0 14 04 bd 30 42 36 3e 20 f8 a2 3c
       0.1764718 -0.03224635 0.17798686 0.019893706
000220 e4 96 6a 3e 66 c0 43 be 3c c2 80 bd 86 80 52 3e
       0.22909123 -0.19116363 -0.06287047 0.2055684
000230 04 87 7d 3e 18 a1 43 3d b8 9f 3c 3d ec a8 7c 3e
       0.24758536 0.047761053 0.046050757 0.24673814
000240 30 2f 86 bd 44 77 67 be ae cc 3a 3e 1e bc 03 be
       -0.06551969 -0.2260409 0.18242142 -0.1286473
000250 7e ad 1d 3e 5c 13 a5 bd 4c 0f 2a 3e 94 96 9d 3d
       0.15398213 -0.08060333 0.16607398 0.07694736
000260 c0 59 ed 3c a0 cc 76 be 78 bd e0 bd c8 55 57 3d
       0.02897346 -0.24101496 -0.10973638 0.05257204
000270 30 94 1c 3d 1c eb 07 3e d8 01 34 3d 64 aa 70 3e
       0.03822726 0.13273281 0.04394707 0.23502499
000280 14 da 08 3e a8 b8 06 bd 56 88 2f 3e 74 57 0b 3e
       0.1336444 -0.032890946 0.17141852 0.1360758
000290 b8 8d 34 3e 4c 69 98 3d f4 fa 3d 3e 7e b8 19 be
       0.17632186 0.07441959 0.18552762 -0.15011784
0002a0 d0 e8 64 3d dc 21 18 be ca eb 5a be c4 80 ed bd
       0.05588609 -0.14856666 -0.21379009 -0.11596826
0002b0 44 c7 d2 3d 7c 49 fd 3d 00 32 a1 bd 28 d1 29 3d
       0.10291913 0.12367532 -0.07870865 0.041459233
0002c0 90 3f 89 bd da 44 06 3e 98 28 38 3e 5c 4d 45 3e
       -0.06701577 0.13112202 0.17984235 0.19267792
0002d0 a2 88 3c be ca 83 00 be a4 38 9e 3d 40 23 0d 3d
       -0.18411496 -0.12550274 0.07725647 0.034457445
0002e0 38 07 49 3d 58 1e f1 bd 00 e6 78 bb e8 59 6f 3e
       0.04907915 -0.11773366 -0.0037978888 0.2337414
0002f0 f2 06 60 3e 80 2b 33 3c 10 1f c6 bd f0 1c b9 bd
       0.2187765 0.010935664 -0.096738935 -0.090387225
000300 9c be c2 bd 6e 34 0c be d6 b9 77 be 18 2d d7 3d
       -0.09509012 -0.13691875 -0.24191985 0.10506648
000310 b0 e0 20 3d 40 78 3f 3c 6c 1d d7 3d c0 0e a3 bd
       0.03927678 0.011686385 0.10503659 -0.07961798
000320 a4 b4 08 3e 08 4a 18 3d 8e 51 3e 3e 00 dd 03 bc
       0.13350159 0.037179977 0.18585798 -0.008048296
000330 e0 2e 94 3c 14 ce a2 bd 70 9f 87 3d 20 9d cd bd
       0.018088758 -0.079494625 0.06622207 -0.10039735
000340 94 0b c7 bd 8e 79 48 be 20 7b 59 3d 48 b0 5a be
       -0.09719005 -0.1957762 0.053095937 -0.21356308
000350 bc 05 8d bd a4 92 c6 bd 00 58 bb b9 c8 0f b2 bd
       -0.06885859 -0.09695938 -0.00035732985 -0.08694416
000360 c6 1c 4b 3e 34 00 e5 bd 16 a5 06 3e 5a b3 2f 3e
       0.19835195 -0.11181679 0.13148913 0.17158261
000370 0c 1e b5 bd fa 2c 16 be f8 1a cf bd da 8e 2d be
       -0.088436216 -0.14665595 -0.10112566 -0.16949025
000380 7e 50 5d 3e 20 68 42 be 00 7c a1 ba 08 76 35 3e
       0.21612737 -0.18985033 -0.001232028 0.17720807
000390 9c 4b 17 be 5a c8 76 3e 0a 92 3f 3e 60 10 c8 bc
       -0.14774936 0.24099866 0.18708053 -0.02442187
0003a0 42 77 1f be 3c 54 c4 3d 68 85 75 3e c0 7f c7 3c
       -0.15572837 0.09586379 0.23976672 0.024352908
0003b0 9c 41 58 be 68 80 40 3d 20 05 82 bd a0 a1 d5 3d
       -0.21118778 0.046997458 -0.06348634 0.10431218
0003c0 c0 2a da 3c e6 18 7f be 54 af 88 3d 82 42 57 be
       0.026631713 -0.24911842 0.06674066 -0.21021464
0003d0 da bf 3b be 4c ca 6b be fc e2 7f be c2 32 36 3e
       -0.18334904 -0.23026389 -0.24988931 0.177928
0003e0 a4 f2 94 3d 74 25 ac 3d 5e af 79 be a0 77 65 bd
       0.072728425 0.08405581 -0.24383304 -0.056022286
0003f0 be 25 07 3e fc f0 b6 bd 34 af 77 3e 38 98 28 be
       0.13197991 -0.08932683 0.24187928 -0.16464317

layer1.bias f4 [128]
000000 4c 35 5f be 68 ed 55 be e0 38 60 bd 88 5a 61 be
       -0.21797675 -0.20891345 -0.05474174 -0.22007191
000010 ee e7 61 3e 3a c2 2a be 38 48 29 3e 44 1a 80 bd
       0.2206113 -0.16675654 0.16531456 -0.0625501
000020 ae 39 0b be a0 9e 9a 3d 50 6a cd bc 4c 3b 0f 3e
       -0.13596222 0.075497866 -0.025075108 0.13987464
000030 44 28 10 be 2e 78 32 3e ea 69 28 be 54 94 a8 3d
       -0.1407786 0.17428657 -0.16446653 0.08231416
000040 94 1a 3a 3e a0 b3 19 3d b0 88 43 bd da a4 48 be
       0.18174201 0.03752482 -0.047737777 -0.19594136
000050 84 7d 47 be 4c 71 c2 bd 50 46 e3 3d f8 21 b8 3d
       -0.19481474 -0.09494266 0.110973954 0.08990854
000060 dc 1b f3 3d 40 bf 9c bd d0 4c 8e 3d 4a 70 66 3e
       0.11870548 -0.076536655 0.069482446 0.22503772
000070 28 35 44 3d 8e 4a 2b be 90 8f f8 bd 80 30 c9 bb
       0.047902256 -0.16727659 -0.121367574 -0.006139815
000080 40 6b 08 bd c8 d7 74 bd f2 56 1f 3e 84 8c f3 bd
       -0.033305407 -0.059776098 0.15560511 -0.118920356
000090 ee e6 2c 3e 50 53 a6 3c 40 8f ad bc 14 44 9b 3d
       0.16884968 0.020303398 -0.021186471 0.07581344
0000a0 d8 17 63 bd ea 98 10 be 5e 83 6f be 2c e7 1a 3e
       -0.05544266 -0.14120832 -0.23389956 0.15127248
0000b0 38 15 eb bd 94 32 a3 bd f4 21 6e be f8 80 f1 bd
       -0.114786565 -0.079686314 -0.2325514 -0.11792177
0000c0 ba fc 42 be f8 5d de bd d4 50 c6 bd 00 42 79 be
       -0.1904172 -0.10857767 -0.096833855 -0.24341583
0000d0 20 c6 35 3e c4 a2 de bd de cf 68 3e b4 91 0f be
       0.1775136 -0.10870889 0.22735545 -0.14020425
0000e0 e0 bc 6f 3d f0 77 84 3d 4c 38 ed 3d cc 70 ec 3d
       0.058529735 0.06468189 0.115830034 0.11544952
0000f0 9c 2c c5 3d 2c c1 6b be c0 43 d8 3b b6 b7 0c 3e
       0.09627649 -0.23022908 0.0065998733 0.13741955
000100 90 84 a6 3d 7c 4b b5 bd 5c e4 9d 3d 40 37 46 3d
       0.08130753 -0.08852288 0.07709572 0.048392534
000110 a8 b2 d0 3d b4 4c 97 3d 1e 46 0d be 9c 19 22 3e
       0.10190326 0.07387677 -0.13796279 0.15830082
000120 62 65 7c be b0 50 fe 3d 76 15 37 3e 04 c8 93 3d
       -0.2464805 0.12417734 0.1787928 0.07215884
000130 c0 ff 8b 3b b0 6d 49 be 48 9a 7c be 44 2a a5 bd
       0.004272431 -0.19670749 -0.24668229 -0.08064702
000140 28 e3 4c 3d 42 72 72 be 30 b7 83 bd 52 47 10 3e
       0.05002132 -0.23676398 -0.064314246 0.14089707
000150 f0 47 8b 3d 3a e4 36 3e 2c 05 5d 3e 14 c7 f6 3d
       0.0680083 0.17860499 0.21584004 0.1204969
000160 30 a3 33 3d 40 0c ec 3b 7c ac 53 be 0a 6d 06 3e
       0.0438568 0.0072036088 -0.20671266 0.13127533
000170 1c e8 91 3d 92 5b 4f 3e cc 4f 23 be e0 50 10 bd
       0.071243495 0.20249775 -0.15948409 -0.03523338
000180 36 ae 02 3e 98 fa 11 3e 66 ba 68 be 20 e7 30 3c
       0.12761769 0.1425575 -0.22727355 0.010797292
000190 68 66 2a 3e 6c d5 31 3e 20 b2 2b 3e bc cf 02 be
       0.16640627 0.1736657 0.16767168 -0.12774557
0001a0 fc 2d b0 3d ee 14 25 3e a0 32 cf 3c 4a af 3d be
       0.08602521 0.16121265 0.025292695 -0.18523899
0001b0 30 a6 47 3d 40 79 f8 bd 24 9f fb 3d 10 05 8f 3c
       0.048742473 -0.121325016 0.12286213 0.017458469
0001c0 7e e3 46 be 4c cf cd 3d 6c ae b7 3d 9a 16 16 be
       -0.19422719 0.10049304 0.08968815 -0.1465706
0001d0 9c 8c 43 be fc dd b6 bd 5e 35 6e 3e e2 ae 25 be
       -0.19096607 -0.08929059 0.23262545 -0.16179994
0001e0 dc ac 67 be c0 67 f2 3c 16 4f 3a be f6 3c 7e be
       -0.22624534 0.029590487 -0.18194231 -0.24827942
0001f0 aa 90 2b be b0 23 38 bd f6 46 0d 3e 38 f9 09 3d
       -0.16754404 -0.04495591 0.137966 0.03368494

layer2.weight f4 [128, 128]
000000 34 fc b0 bd 1d d7 5f bd bd bf a9 3d 37 62 99 bd
       -0.08641854 -0.054648507 0.08288524 -0.07489436
000010 f2 03 8f 3d 1d ae 5b 3d 31 ff 93 bd df b5 74 3d
       0.069831744 0.053632844 -0.07226408 0.05974376
000020 6f bc a9 3d 7e 36 a3 bd 74 74 f4 bc 32 76 3e bc
       0.08287894 -0.07969378 -0.029840685 -0.01162486
000030 9a 13 19 bd 5b 6d 1a 3d bb 33 11 bd 02 48 0a bd
       -0.03737221 0.037701946 -0.035449725 -0.03376008
000040 ec 98 9e bc 14 bb 9f bd c3 58 7b bd 6e 5b a9 bd
       -0.019360028 -0.07799354 -0.061363947 -0.08269392
000050 41 95 8d bc 8b eb af bc e1 72 e4 bc fb b1 8f 3d
       -0.017283084 -0.02147462 -0.02788681 0.07016369
000060 77 b3 af 3d be 1c 0a 3d 63 48 85 3d bf db 82 3d
       0.08579152 0.033718817 0.06507947 0.063895695
000070 97 f5 7c 3c 88 ab 04 3c 3f cc 04 bd 6a 83 47 bd
       0.015439413 0.008097537 -0.032421347 -0.04870931
000080 e1 98 0f bd 95 d8 3e 3d cd c6 9d 3c 02 07 f8 3b
       -0.035057906 0.046593267 0.019259835 0.007569195
000090 37 71 76 bd 18 f0 53 3d 98 d3 d4 3c a3 30 37 3d
       -0.060166564 0.051742643 0.025979802 0.044724118
0000a0 28 a4 96 bd e6 a3 86 bc db 79 7c bd c7 f7 6b 3c
       -0.07355529 -0.016435575 -0.061639648 0.014402336
0000b0 05 f5 7d 3d 6f 80 b8 3b fc 55 eb 3c 5c b7 9d 3d
       0.062001247 0.005630545 0.028727524 0.07700989
0000c0 6e e5 6a bd 65 1e 76 bb 34 78 89 bd 4e ed de bc
       -0.057347707 -0.0037554738 -0.0671238 -0.027212765
0000d0 47 e1 b2 bd d5 67 68 bc c4 83 ac bc 1e 56 9b bd
       -0.087343745 -0.014184912 -0.021058924 -0.07584785
0000e0 4d d6 9b bc 6b cd 9a bd c8 6f 58 bc d4 67 73 3d
       -0.019023085 -0.075587116 -0.0132102445 0.05942519
0000f0 f8 10 b1 3c 7f 3b 6c 3d 17 ba bb bc 4c 23 29 bd
       0.021614537 0.057673927 -0.022915883 -0.041293427
000100 ee b8 b2 3d d9 1d 9c bd 70 17 0c 3c ac 9b e8 bb
       0.08726679 -0.076228805 0.00855051 -0.0070986357
000110 3a 24 09 bd ed 25 ae 3d 31 ea a7 3d fb 8e 67 bd
       -0.033481814 0.085033275 0.08198965 -0.05653284
000120 1e 1c 8d bd 1e 9f 94 3b 55 3c d5 3c 52 22 c1 3b
       -0.068901286 0.00453557 0.026029745 0.005893984
000130 de ec 83 bd ee cc ca bc 66 af 1f 3d 1a 92 14 3d
       -0.06441663 -0.024755921 0.038985632 0.036272146
000140 5f 4c 9f bc 9e cf 32 bd b9 d5 4a 3d b6 95 56 3c
       -0.019445596 -0.04365503 0.049520228 0.013097217
000150 ce 49 a9 3d be f0 a1 3c 6b 41 d9 3c 04 02 2e 3d
       0.0826603 0.019768115 0.026520452 0.04248239
000160 73 bb b4 3d c1 0b 5d 3d 9e 2b 5b 3d 30 bb 02 bc
       0.088248156 0.053966288 0.053508393 -0.007979199
000170 4e 54 2c bc c9 10 92 3d 07 f8 8a 3d 10 b9 b5 bc
       -0.010518147 0.07132108 0.06785589 -0.022182971
000180 a3 12 6e bc 23 33 83 3d f3 57 63 3d a2 f3 fa 3c
       -0.0145308105 0.06406238 0.055503797 0.030633751
000190 67 21 5c 3c 51 fb 68 bd 37 5e 8a 3d 4e 56 5e bd
       0.013435698 -0.0568803 0.06756251 -0.054281525
0001a0 0d 6c a9 bc ca 88 09 3d d8 56 5a 3d a9 db 4b bb
       -0.020681405 0.033577718 0.053305477 -0.003110627
0001b0 17 9f 76 bd 99 88 08 3d 25 39 3f bd 74 d1 90 3c
       -0.060210314 0.033333395 -0.046685357 0.017678
0001c0 df 8f ad bc 68 80 b1 3d bb 02 17 bd 51 b2 dc bc
       -0.021186767 0.0866707 -0.03686784 -0.026940497
0001d0 cc b6 b0 3d 30 72 e9 3a 29 f0 7b 3d 89 07 db 3c
       0.08628616 0.001781052 0.06150833 0.026736991
0001e0 06 f8 c5 bc 60 bd 52 bd 4a ea 8e bd 3e cf 99 3d
       -0.024166118 -0.051450133 -0.06978281 0.075102314
0001f0 97 4a 3b bd 01 b2 3d bd 0a a4 00 3d 68 d7 6f 3d
       -0.04572543 -0.046312336 0.03140644 0.058555037
000200 3d 54 45 3d a6 6a 96 bc 38 dd 86 3c d8 e9 43 3d
       0.04817604 -0.0183614 0.016462907 0.047830433
000210 e0 42 b4 bd ed 1b d3 3c 95 5e 16 bc 18 2c b1 3d
       -0.08801818 0.025770152 -0.009177824 0.08650988
000220 08 53 aa bc 14 c3 b4 bd bc 77 4e 3d 11 26 49 3d
       -0.020791546 -0.08826271 0.050407156 0.04910857
000230 fd 93 04 bd 48 85 dc bc 2a d5 9e bd 96 30 29 bb
       -0.032367695 -0.026919022 -0.077555016 -0.0025816313
000240 95 93 36 3d 57 3b 8d 3b e4 9c 5f 3c 3e 7a 17 3d
       0.04457434 0.0043100524 0.0136482455 0.036981814
000250 d8 47 92 bc 46 c3 22 3d cd 4a 65 3d f2 6f 22 3d
       -0.017856523 0.03973701 0.05597954 0.03965754
000260 97 47 51 bd 01 a3 2e 3c fd 75 7e bc b9 d5 a6 3d
       -0.051093664 0.01065898 -0.01553106 0.08146233
000270 af 98 8f 3d 7e 69 3d 3b 2e 59 23 bd 5f 59 8d bc
       0.07011544 0.002890199 -0.03987997 -0.01725453
000280 51 b9 4e 3d f2 a0 76 bc 15 4e 76 bd 61 f9 3f bd
       0.0504697 -0.015053021 -0.06013306 -0.046868686
000290 33 6b a8 3d 09 ba b9 3c dd ad d6 3c de d6 b6 bc
       0.08223572 0.022671716 0.026205951 -0.022319254
0002a0 7d 15 07 3d 80 7e a7 bd 5e de c5 bc 25 0e 1b 3d
       0.032979477 -0.08178425 -0.024153885 0.037855286
0002b0 ab 4b ab 3b 31 01 7b 3d 6c ec 51 3c a1 18 fa 3a
       0.005227526 0.061280433 0.012812715 0.0019080826
0002c0 5e 38 e8 3c 61 00 aa bd 3f 66 bd 3c bc b1 75 3d
       0.02834719 -0.083008535 0.023120044 0.059983954
0002d0 56 1f da bb 80 7c a3 bb 59 06 fb 3c d7 97 1e 3d
       -0.0066565676 -0.004989207 0.030642675 0.038719025
0002e0 ce a9 a2 3c 49 ec d2 bc 1f 84 17 bd df d1 2c 3d
       0.01985636 -0.025747435 -0.036991235 0.042192336
0002f0 32 01 1d 3d 9d 8c a3 bd 04 be 56 bc e5 7e 2c bd
       0.038331218 -0.07985804 -0.013106827 -0.042113204
000300 26 06 3c 3d 4d 95 7c bd 18 56 84 3d 09 6a 80 bd
       0.0459043 -0.06166582 0.064617336 -0.062702246
000310 54 a6 82 bc f0 ed 53 bd ff 1c 0e 3d 50 36 7b bd
       -0.015948452 -0.051740587 0.03469562 -0.061331093
000320 f0 22 bd bc 19 16 28 bc 2f 01 9a 3d 16 b9 7c bb
       -0.023087949 -0.010259175 0.07519757 -0.0038562468
000330 63 0f 1a bd d8 8b d8 bb 24 83 6d 3c 52 9b 4a bd
       -0.03761233 -0.0066084675 0.014496598 -0.04946453
000340 d5 62 92 bd 1b 00 21 bc 5b 8d 92 3d 21 4f 11 bd
       -0.07147757 -0.009826685 0.07155868 -0.035475854
000350 cb 59 a6 3d 5f d5 f4 3c 16 cf 9a 3d 7e e1 7a bd
       0.081225954 0.0298869 0.0755903 -0.061250202
000360 73 96 15 bd 35 77 8c 3a 6c ce 80 bb 75 fb 3f ba
       -0.036520433 0.0010716679 -0.0039308574 -0.0007323542
000370 af c9 54 3d fc 81 18 bd bb f1 05 bd 65 98 1b 3d
       0.051950153 -0.037233338 -0.032701235 0.03798713
000380 55 ee 8b bd da 3d 78 bd 65 a2 19 bd 76 c4 e0 3a
       -0.068325676 -0.06060586 -0.037508387 0.0017148394
000390 7b 87 56 bc d2 f5 e9 3c db 5a 80 bc be 63 90 3b
       -0.0130938245 0.0285596 -0.015668323 0.0044064214
0003a0 96 43 9a bd dc 07 ed 3c 29 01 91 bc 06 1e ad 3d
       -0.07532422 0.028934412 -0.017700749 0.08452992
0003b0 c3 6c 5d 3d 93 7f 10 bd 0a 35 f7 bc e3 b8 a9 3d
       0.0540588 -0.035277914 -0.030176658 0.082872175
0003c0 e3 b1 f7 3b 78 4d f5 3c a8 75 22 3d ae c7 74 3d
       0.0075590475 0.029944167 0.039662987 0.059760742
0003d0 41 91 18 3d 23 23 45 bc 8a ef 18 3d bd 5b 41 3d
       0.0372479 -0.012032303 0.037337817 0.04720663
0003e0 1c e5 16 3c 24 fc 56 3d ec e3 80 bc 62 ee ec 3c
       0.009209897 0.052486554 -0.015733682 0.028922264
0003f0 82 95 df 3c 4f 1b 2f 3d f4 ab ba 3c 91 5d 25 3d
       0.02729297 0.042750653 0.022787072 0.040372435

layer2.bias f4 [128]
000000 05 3a 47 bb 50 bd d1 bc 79 47 13 bd 1a 3b 6d bd
       -0.0030399573 -0.025602967 -0.035956834 -0.05791769
000010 96 1c 30 3d a4 f9 8f bd 51 19 ab 3d ba a4 1f bd
       0.04299601 -0.07030037 0.08354438 -0.038975455
000020 ff f7 8b 3c 2b e8 6f 3d 46 7b 8d bd 1a e6 62 3d
       0.017086027 0.058571022 -0.06908278 0.055395223
000030 f7 e7 91 bd ac 3c 34 3d c1 c3 53 bb 3d 33 d3 bc
       -0.07124322 0.044003174 -0.0032312723 -0.025781268
000040 10 97 ff bb 5b 0b 14 3d 5f a5 7d bd f9 36 c7 3c
       -0.0077999905 0.036143642 -0.06192529 0.024318205
000050 5b b4 91 bd 17 8c a4 bd 47 14 f1 b9 56 6e 60 bd
       -0.07114478 -0.080345325 -0.0004598221 -0.054792725
000060 e8 24 04 bd 34 b3 e4 3c 9c 39 08 bd a8 69 ad bd
       -0.03226176 0.027917482 -0.033258066 -0.08467418
000070 1f 27 05 bd 95 38 19 bd e1 3b 94 bd 7e ba 69 bd
       -0.032508012 -0.037407476 -0.072379835 -0.05706262
000080 81 1c d7 3b 9e 17 60 bd a2 1c 96 3d 92 3d 55 bc
       0.006564677 -0.054710023 0.0732968 -0.013015168
000090 45 e3 00 3d 74 d9 4b bc 66 50 ea 3b bd 2a 5a bc
       0.03146674 -0.012441982 0.0071506975 -0.013315854
0000a0 af 83 a4 bd d9 35 7d 3d 3e 55 88 bc b9 e3 78 3d
       -0.08032929 0.06181893 -0.01664221 0.06076405
0000b0 b7 28 bf bc 98 91 29 bd 51 e0 72 bd ec c0 b0 3d
       -0.023334844 -0.041398615 -0.059295956 0.08630547
0000c0 c1 b3 e4 bc a1 50 b1 3b 24 85 b8 3c 1d 85 7c 3b
       -0.027917745 0.005411223 0.022524424 0.003853149
0000d0 7a 4f b2 bd 83 c3 4f bb 7c 7e 92 bd a3 33 73 bd
       -0.08706565 -0.0031702227 -0.07153031 -0.059375416
0000e0 1e c7 78 bd 5d b8 7d bd 8a 7f 8d bd 7f 28 ae 3d
       -0.060736768 -0.0619434 -0.06909092 0.08503818
0000f0 92 cf 7a 3d a0 28 b4 bd f2 04 3a bd 52 f2 0e 3c
       0.06123311 -0.08796811 -0.045414872 0.008724766
000100 aa f2 8c 3c b4 a0 61 3d 41 60 8a bd 87 c3 72 bc
       0.017205555 0.0550849 -0.0675664 -0.014817125
000110 c0 00 a5 3d 3f 71 2f 3d a4 2a 90 bd ca 3c a1 bd
       0.08056784 0.04283261 -0.07039383 -0.07872923
000120 72 32 20 3d 21 3d 33 3d 15 87 02 bd 45 80 6c bd
       0.03911061 0.04375947 -0.031867106 -0.057739515
000130 4d 7a 30 bd f0 44 5c 3c 9f be 33 bc 55 fb b9 bc
       -0.043085385 0.01344417 -0.010970741 -0.022702852
000140 52 33 09 bd 8e 46 db bc 12 01 ae 3d 50 23 e7 3b
       -0.03349621 -0.026767042 0.08496298 0.00705377
000150 3c 74 9d bd 04 1c 81 bd 84 c4 0a bb 62 4c e9 3c
       -0.076881856 -0.06304172 -0.0021174261 0.028478805
000160 e7 77 52 3d a8 3c 07 bd 64 39 b3 3d f6 7a 84 bd
       0.05138388 -0.03301683 0.08751181 -0.064687654
000170 c4 73 86 3d 76 64 29 bd b5 c8 0f bd 5b 3d e5 3b
       0.06565049 -0.041355573 -0.03510352 0.0069958395
000180 10 1c 8d 3d 9b 09 ad 3d ff cc 93 3c c9 04 11 bc
       0.06890118 0.08449098 0.018042086 -0.0088512385
000190 f9 34 b8 3c 64 68 0a bd 11 7b 9a 3a f9 9d 78 bc
       0.022486197 -0.03379096 0.0011785944 -0.015174382
0001a0 0b 16 61 bd 3a 75 98 bd 19 84 95 3d 5e e9 93 bc
       -0.054952662 -0.07444234 0.07300586 -0.018055614
0001b0 21 e2 46 bd ef f8 e1 3b 00 65 9d 3c 1f e2 52 bd
       -0.048555497 0.0068961303 0.0192132 -0.051485177
0001c0 e4 84 f4 3c db 03 1a 3d cb 15 bc bc 62 92 39 3d
       0.029848523 0.037601333 -0.02295961 0.045305617
0001d0 31 cf 55 3b ed ee 84 3b 23 97 1d bc d0 99 75 3a
       0.0032624716 0.0040568025 -0.009618553 0.0009368928
0001e0 6a c6 8a 3c 39 20 64 3d 68 91 84 3d 83 69 a9 bd
       0.016940314 0.055694792 0.064730465 -0.08272078
0001f0 aa bf 4f bd a7 47 af 3d a3 46 c3 bc 72 20 e6 3c
       -0.050719894 0.085585885 -0.023837393 0.028091643

layer3.weight f4 [4, 128]
000000 df 7f 4b 3c 45 54 82 3d 56 db 74 bc f3 39 89 3d
       0.012420624 0.063637294 -0.014944872 0.06700506
000010 fc c5 1d bc fc 13 d1 3c 6e 0a 4e 3d 32 6a 88 3d
       -0.009629723 0.025522225 0.050302915 0.0666088
000020 d0 ba 54 bd 08 49 13 3d ed aa 6b bd 02 2e 11 3d
       -0.05193597 0.03595832 -0.057536054 0.035444267
000030 96 43 54 bd f2 66 c7 3c ad ef e1 bc 9d 0c e0 3c
       -0.051822267 0.02434108 -0.027580107 0.027349764
000040 b3 1b aa 3d 13 4a c5 bc a5 d7 6a bd 83 63 01 3d
       0.083060645 -0.024083173 -0.05733456 0.031589042
000050 aa 15 72 bb c7 35 1d bd b0 b7 5a 3d 69 89 8b bd
       -0.0036939182 -0.038381364 0.053397834 -0.06813318
000060 12 fb b2 3d a1 48 68 bd d6 dd 52 bd d9 ec e5 3c
       0.08739294 -0.05670989 -0.05148109 0.02806704
000070 98 7c 89 bd 18 a3 71 3d f4 4e 9d bd 8c 8e 48 3d
       -0.067132175 0.05899343 -0.07681075 0.04896407
000080 7c df 25 3c 7e 20 cc 3c 12 5c 0a 3d 43 73 1b ba
       0.010124084 0.024917837 0.03377921 -0.0005929956
000090 2c b5 98 3c ab 68 25 3d 05 e9 cd 3c cd 63 b7 bc
       0.018641077 0.040383022 0.025135526 -0.022386456
0000a0 4f d4 3b bd 02 0e ca bb 14 7d 7f bc 6b 00 ec bc
       -0.04585677 -0.0061662206 -0.015593786 -0.028808793
0000b0 4d a3 fc bc 50 e7 09 bd a8 8d c3 3c 09 77 03 bd
       -0.030839587 -0.033667862 0.023871258 -0.032095943
0000c0 d2 db 72 bd e8 1f 7b bd 7d 9e a7 3c 55 3f a2 3d
       -0.05929167 -0.061309725 0.020461315 0.07922236
0000d0 64 71 50 bd 82 ce c8 3c 81 13 21 3c 12 c3 83 bc
       -0.050889388 0.024512533 0.00983131 -0.016084228
0000e0 12 20 a5 3d 1f 99 9e bd 91 4d ef bc fd 7f ad bd
       0.080627576 -0.07744049 -0.029211791 -0.084716775
0000f0 2d ad 5f 3d 04 5a aa bb 87 6d b0 3d ff 3e 46 3c
       0.054608513 -0.005198719 0.08614641 0.01209998
000100 d6 1a 39 3d eb 48 a7 3d ec ce 71 3d 6b c4 a9 bd
       0.04519161 0.08168205 0.059035227 -0.08289417
000110 65 f8 0f 3d 86 e4 2d 3c 1e 7e 0d 3c 5c e8 3c bc
       0.035148997 0.010613566 0.008636026 -0.011530008
000120 96 e1 ad 3d 5f 52 19 3d 73 fb bc 3c 34 a4 b9 3b
       0.08490293 0.03743207 0.02306912 0.0056653265
000130 55 42 55 bd 05 66 a9 bd 62 94 48 3d e2 b7 4c 3c
       -0.052065212 -0.08271412 0.048969634 0.012495013
000140 2f 69 8d 3d e5 83 a8 bd 5a 5b bd bb 6a 0c 90 3c
       0.06904828 -0.08228282 -0.005778712 0.017584044
000150 de 9a 9d bd 28 47 9d bd 4f d0 a2 3d 63 50 a0 3d
       -0.07695554 -0.076795876 0.07949888 0.078278325
000160 05 8c e5 bc 0c 0e 75 bd 03 7e 71 bd 4b 32 5f 3c
       -0.028020868 -0.05982785 -0.058958065 0.013622831
000170 57 52 16 bb 09 da 15 3d 27 67 5a bc 6a 7e 94 bc
       -0.0022937262 0.036584888 -0.0133302575 -0.018126685
000180 d5 5c b9 3c e2 59 15 bd ad fd 8e 3d 51 07 3b bd
       0.022627274 -0.036462672 0.069819786 -0.045661274
000190 33 19 80 3d 02 a3 ad bd a3 2a 96 3d b8 96 9d bd
       0.06254806 -0.08478357 0.07332351 -0.07694763
0001a0 df 42 bc bc c3 16 ab bd 67 50 99 3d 0c c6 28 bd
       -0.022981105 -0.08353951 0.07486039 -0.041204497
0001b0 05 78 a4 3d 6a 14 ac bd 3b df 38 bd 93 b7 65 bd
       0.080307044 -0.08402331 -0.045134764 -0.056083273
0001c0 42 4d a5 bd 24 b1 a1 3d 3f 54 67 3d 0a 4f 83 3d
       -0.080713764 0.07895115 0.056476828 0.0641156
0001d0 83 e9 17 3d a3 b5 20 bd 36 c0 93 3d ba 7d 34 bd
       0.03708793 -0.039235722 0.07214396 -0.044065215
0001e0 a6 a2 30 3d 76 d7 96 bd 2c 5b 57 3c e9 a9 62 3d
       0.043123864 -0.07365315 0.013144296 0.05533782
0001f0 8b a8 a7 3c c2 6f 80 3d 6c 44 89 bc 41 1e 34 bb
       0.02046611 0.06271316 -0.016756259 -0.0027483853
000200 72 75 9c bd f8 09 c1 bc 6e ee 97 3d ee 32 c2 3c
       -0.076395884 -0.023564324 0.07418524 0.023705926
000210 ad f8 71 bd 90 37 a7 3d bd 88 fc 3c 61 09 2d bd
       -0.059075046 0.081648946 0.03082692 -0.042245273
000220 8a 90 c1 bc e1 90 2f bd 1d 05 89 bc a5 a5 62 3b
       -0.023628492 -0.042862777 -0.016726071 0.0034583595
000230 6b 3e b1 3d e8 17 a8 bd 01 f1 e5 bc 91 be a0 bc
       0.086544834 -0.08207685 -0.028069021 -0.01962212
000240 32 1d 6f 3d 1c 8a 82 bc 52 00 9f 3d 46 de 5f bd
       0.058377452 -0.015934996 0.07763733 -0.054655336
000250 b8 f3 9d bd 99 59 36 3b 68 f4 99 bc 4b 3c e9 3c
       -0.07712501 0.00278244 -0.0187933 0.028471133
000260 6f d6 c1 3c 23 23 30 bb 5b ba 0d bc 96 58 83 bd
       0.02366182 -0.0026876412 -0.008650388 -0.06413381
000270 97 f0 cf bc 82 0e 91 bc 70 f5 d1 3c da 09 4f bc
       -0.025383277 -0.017707113 0.025629729 -0.012636626
000280 29 be bf 3c 78 04 90 bd a9 a1 55 bd c6 8e 34 3c
       0.023406105 -0.07032102 -0.052156124 0.011020368
000290 64 b4 92 3d 76 8c 3b bc bf ba 9f bb 2c f2 35 3d
       0.07163313 -0.011447063 -0.004874557 0.044420406
0002a0 03 49 67 3d 0d ca 23 3d 39 99 3f 3d d4 aa 60 3d
       0.056466114 0.039987613 0.046776984 0.054850414
0002b0 92 53 a5 3d af 1c ae 3d f0 22 56 bd ac 1c 80 ba
       0.080725804 0.08501565 -0.052279413 -0.000977417
0002c0 d8 15 95 3d 9f fd 0f bd 27 5c a5 bd 06 35 aa 3d
       0.07279557 -0.03515398 -0.08074217 0.08310895
0002d0 f0 d5 ba 3b 21 57 39 3c d4 2e 1b bd 06 69 75 3c
       0.005701773 0.011312277 -0.037886456 0.014978653
0002e0 82 44 84 3d 4d d3 a0 bd a1 53 bb 3a 58 76 ae bc
       0.06458379 -0.078528024 0.0014291891 -0.021296665
0002f0 c8 76 b4 bd ad 92 5c bd c8 4b 8d bb c0 29 ee 3c
       -0.08811718 -0.05385082 -0.0043120123 0.029072642
000300 94 71 87 3d d2 73 2f bd 25 a7 39 bd f5 33 29 3d
       0.0661346 -0.042835064 -0.045325417 0.041309316
000310 fd 34 a6 3d 5e 18 14 bd b5 82 8b 3d b2 39 11 3d
       0.081155755 -0.03615605 0.0681204 0.035455413
000320 69 de 78 3c 2a 2f 01 bc d2 76 06 bd 0d 34 cc bb
       0.015189745 -0.00788478 -0.03282816 -0.006231791
000330 de 53 1e bd 5b b1 36 3d 20 f2 83 bd 7e 1c 7b 3b
       -0.0386542 0.044602733 -0.06442666 0.0038316543
000340 50 2c 25 3d 41 44 51 3d b6 c2 2e bd d8 60 e5 3c
       0.040325463 0.051090483 -0.04266616 0.02800028
000350 10 fa 11 bb 84 0e 29 bc 44 a8 8f 3d 3c 36 89 3a
       -0.0022274293 -0.010318402 0.07014516 0.0010468434
000360 d1 00 0f bd ce 63 ac bd bc e8 2d 3d ce d0 0f 3d
       -0.034912888 -0.08417474 0.04245828 0.03511124
000370 34 25 47 3d 19 ae 64 3d 64 5e c3 3c 8c dd 8e bd
       0.048619464 0.055830095 0.02384872 -0.069758505
000380 c5 0b 0a 3d d0 38 0b bd 24 71 9b ba c7 3e 39 bc
       0.03370263 -0.033989727 -0.001185928 -0.011306471
000390 28 8a 25 3d ff d4 41 3c a4 0d ea bc 50 b9 49 bd
       0.04041496 0.011830567 -0.028570957 -0.049248993
0003a0 8d 5b 5a 3d d6 31 de bc eb 98 29 bd 6c 11 ff 3c
       0.053309966 -0.027123373 -0.0414056 0.031136237
0003b0 c4 af a2 bd 71 05 0a 3d fb cd a7 3d d1 e0 b4 bd
       -0.07943681 0.033696596 0.081935845 -0.08831943
0003c0 15 fe 42 bd 74 ff 48 3d 4e ea 16 3d d1 90 2c bd
       -0.047605593 0.049071744 0.036844544 -0.042130295
0003d0 ab dd ad 3d 81 b0 7a 3d 50 d2 2a 3c 57 4a 1f bd
       0.084895454 0.061203483 0.010426119 -0.038889255
0003e0 84 0e 88 3d 9a 82 f7 3b 05 2f 5b bd 66 4c 6a 3d
       0.06643394 0.0075534107 -0.05351164 0.057201765
0003f0 de af 03 bd 87 bd 02 3d 80 1d 78 3d d1 b3 54 bc
       -0.032150142 0.03191903 0.06057501 -0.012982325

layer3.bias f4 [4]
000000 0a 22 7f b9 bd 10 33 3d b9 e5 7e bd 8c 7a 05 3d
       -0.00024331376 0.043717135 -0.0622308 0.032587573

layer1.weight f4 [128, 16]
000000 60 af 47 3c da 3b 36 3e 40 3f 46 3e a0 22 59 bc
       0.012187809 0.17796269 0.19360065 -0.013252884
000010 38 2d c5 3d 1e a6 1d be a8 9f 25 bd 92 51 5c be
       0.096277654 -0.153954 -0.040435463 -0.21515492
000020 40 67 43 3e 00 77 3e bb 9a 1b 6d be e8 ab 98 3d
       0.19082355 -0.0029062629 -0.2315506 0.074546635
000030 78 90 fd bd 54 b1 de bd 18 41 48 bd d0 3b b7 bc
       -0.12381071 -0.108736664 -0.048890203 -0.022367388
000040 60 da 3d 3c 06 f3 6a 3e c0 15 e7 bb 1c 33 3c be
       0.011587709 0.22944269 -0.0070521533 -0.18378872
000050 9c da d6 3d c8 48 23 be 00 94 da b9 9e ec 04 3e
       0.10490915 -0.15945733 -0.0004169047 0.12980887
000060 c8 8c 5a be 44 a4 c3 3d a0 63 69 3c a8 fa 6b 3d
       -0.21342766 0.095528156 0.014244944 0.05761209
000070 a4 d1 0a 3e 38 f7 b9 3d fc 84 21 be f2 08 6a 3e
       0.13556534 0.09080356 -0.15773386 0.22854975
000080 ae d9 46 3e c0 0c 8c bc 4a ca 47 3e 20 bd 10 3c
       0.19418976 -0.017095923 0.19510761 0.008834153
000090 16 bd 3f be 0e 47 77 3e 64 3a b4 bd 8c f5 b6 3d
       -0.18724474 0.24148199 -0.088002 0.08933553
0000a0 56 37 03 be f4 c1 6a be 7a 67 47 3e 7c 9e 0f 3e
       -0.12814078 -0.2292555 0.19473067 0.140253
0000b0 62 e1 35 3e 92 c5 0e be 50 05 ef bc 10 be 5a 3e
       0.17761758 -0.13942555 -0.029177338 0.21361566
0000c0 d0 a1 6b 3e 2a 34 69 be 00 24 7c 3d 90 c4 eb bc
       0.23010945 -0.22773805 0.06155777 -0.028780252
0000d0 30 0d d0 bc 80 62 17 3e 0e 5a 17 3e d0 cd d0 bd
       -0.025396913 0.14783669 0.14780447 -0.101955056
0000e0 16 ac 00 be 6c 3e 67 be 80 f3 be bb 50 07 cf bc
       -0.12565646 -0.22582406 -0.0058273673 -0.025272042
0000f0 14 29 a0 3d c8 da 54 be 68 c9 42 3d b8 27 3e be
       0.07820335 -0.20786583 0.047555357 -0.18569839
000100 c8 5f 83 bd 00 65 ec 3d d8 76 21 be 0a bd 1d be
       -0.06414753 0.11542702 -0.15767992 -0.15404144
000110 10 01 4d be 70 41 d8 3d e6 35 3c be 18 b1 ca bd
       -0.20019937 0.10559356 -0.18379936 -0.09897059
000120 1e 7d 09 be 4c a2 0d 3e 1e 64 3a be 2c 91 46 be
       -0.13426635 0.13831443 -0.18202254 -0.19391316
000130 00 25 1c 3b f8 2a 9e 3d bc 7b 88 3d 4a 5d 5a 3e
       0.0023825765 0.077230394 0.066642255 0.2132465
000140 a0 01 2a bd cc 77 4b be f0 79 d8 3c 44 91 2c be
       -0.041505456 -0.19869918 0.026425332 -0.1685229
000150 00 b4 f3 3c d0 ce e4 3d 70 c0 1b be 90 13 42 be
       0.029748917 0.11172259 -0.15210128 -0.18952775
000160 4a 21 1a 3e 40 71 13 3c 00 2a b8 bb c0 ae a7 3b
       0.15051761 0.008999169 -0.005620241 0.0051172674
000170 70 88 46 3e 00 7e 45 bc 48 99 ee bd 0a 0d 45 be
       0.19387984 -0.0120539665 -0.1165033 -0.19243255
000180 94 cb a7 bd 0c c8 10 3e 28 77 60 3e 70 6b 16 3d
       -0.08193126 0.14138812 0.21920455 0.036723554
000190 bc b5 be 3d e4 b3 d7 bd de 83 54 be cc 10 78 3e
       0.09312007 -0.10532358 -0.20753428 0.24225157
0001a0 0c e3 10 be 44 49 d2 bd 48 54 29 3e 60 39 c1 3c
       -0.14149112 -0.102678806 0.16536057 0.023586929
0001b0 b0 cc 6b be 60 a1 f8 3c e8 93 57 3d e0 5a be 3d
       -0.23027301 0.030350387 0.05263129 0.09294677
0001c0 78 46 29 be 58 99 52 bd 28 c3 37 be 06 ee 3e 3e
       -0.16530788 -0.05141577 -0.1794554 0.18645486
0001d0 9c 0a bb 3d 38 f3 89 bd 5c 47 f9 bd 50 13 b0 3d
       0.09132883 -0.067358434 -0.12171814 0.085974336
0001e0 ec b7 00 3e e0 df 1f bc ba ae 33 3e c0 5b 52 bd
       0.1257016 -0.009757966 0.17547122 -0.05135703
0001f0 84 69 a1 bd 34 cb fe bd 00 f1 15 3c 9c fc 3e be
       -0.07881454 -0.12441102 0.009151697 -0.1865105
000200 d8 cc 4b be 9a 30 7e 3e 64 2c bd 3d 80 41 ce bd
       -0.1990236 0.24823228 0.092369825 -0.10071087
000210 06 b5 34 3e c0 14 04 bd 30 42 36 3e 20 f8 a2 3c
       0.1764718 -0.03224635 0.17798686 0.019893706
000220 e4 96 6a 3e 66 c0 43 be 3c c2 80 bd 86 80 52 3e
       0.22909123 -0.19116363 -0.06287047 0.2055684
000230 04 87 7d 3e 18 a1 43 3d b8 9f 3c 3d ec a8 7c 3e
       0.24758536 0.047761053 0.046050757 0.24673814
000240 30 2f 86 bd 44 77 67 be ae cc 3a 3e 1e bc 03 be
       -0.06551969 -0.2260409 0.18242142 -0.1286473
000250 7e ad 1d 3e 5c 13 a5 bd 4c 0f 2a 3e 94 96 9d 3d
       0.15398213 -0.08060333 0.16607398 0.07694736
000260 c0 59 ed 3c a0 cc 76 be 78 bd e0 bd c8 55 57 3d
       0.02897346 -0.24101496 -0.10973638 0.05257204
000270 30 94 1c 3d 1c eb 07 3e d8 01 34 3d 64 aa 70 3e
       0.03822726 0.13273281 0.04394707 0.23502499
000280 14 da 08 3e a8 b8 06 bd 56 88 2f 3e 74 57 0b 3e
       0.1336444 -0.032890946 0.17141852 0.1360758
000290 b8 8d 34 3e 4c 69 98 3d f4 fa 3d 3e 7e b8 19 be
       0.17632186 0.07441959 0.18552762 -0.15011784
0002a0 d0 e8 64 3d dc 21 18 be ca eb 5a be c4 80 ed bd
       0.05588609 -0.14856666 -0.21379009 -0.11596826
0002b0 44 c7 d2 3d 7c 49 fd 3d 00 32 a1 bd 28 d1 29 3d
       0.10291913 0.12367532 -0.07870865 0.041459233
0002c0 90 3f 89 bd da 44 06 3e 98 28 38 3e 5c 4d 45 3e
       -0.06701577 0.13112202 0.17984235 0.19267792
0002d0 a2 88 3c be ca 83 00 be a4 38 9e 3d 40 23 0d 3d
       -0.18411496 -0.12550274 0.07725647 0.034457445
0002e0 38 07 49 3d 58 1e f1 bd 00 e6 78 bb e8 59 6f 3e
       0.04907915 -0.11773366 -0.0037978888 0.2337414
0002f0 f2 06 60 3e 80 2b 33 3c 10 1f c6 bd f0 1c b9 bd
       0.2187765 0.010935664 -0.096738935 -0.090387225
000300 9c be c2 bd 6e 34 0c be d6 b9 77 be 18 2d d7 3d
       -0.09509012 -0.13691875 -0.24191985 0.10506648
000310 b0 e0 20 3d 40 78 3f 3c 6c 1d d7 3d c0 0e a3 bd
       0.03927678 0.011686385 0.10503659 -0.07961798
000320 a4 b4 08 3e 08 4a 18 3d 8e 51 3e 3e 00 dd 03 bc
       0.13350159 0.037179977 0.18585798 -0.008048296
000330 e0 2e 94 3c 14 ce a2 bd 70 9f 87 3d 20 9d cd bd
       0.018088758 -0.079494625 0.06622207 -0.10039735
000340 94 0b c7 bd 8e 79 48 be 20 7b 59 3d 48 b0 5a be
       -0.09719005 -0.1957762 0.053095937 -0.21356308
000350 bc 05 8d bd a4 92 c6 bd 00 58 bb b9 c8 0f b2 bd
       -0.06885859 -0.09695938 -0.00035732985 -0.08694416
000360 c6 1c 4b 3e 34 00 e5 bd 16 a5 06 3e 5a b3 2f 3e
       0.19835195 -0.11181679 0.13148913 0.17158261
000370 0c 1e b5 bd fa 2c 16 be f8 1a cf bd da 8e 2d be
       -0.088436216 -0.14665595 -0.10112566 -0.16949025
000380 7e 50 5d 3e 20 68 42 be 00 7c a1 ba 08 76 35 3e
       0.21612737 -0.18985033 -0.001232028 0.17720807
000390 9c 4b 17 be 5a c8 76 3e 0a 92 3f 3e 60 10 c8 bc
       -0.14774936 0.24099866 0.18708053 -0.02442187
0003a0 42 77 1f be 3c 54 c4 3d 68 85 75 3e c0 7f c7 3c
       -0.15572837 0.09586379 0.23976672 0.024352908
0003b0 9c 41 58 be 68 80 40 3d 20 05 82 bd a0 a1 d5 3d
       -0.21118778 0.046997458 -0.06348634 0.10431218
0003c0 c0 2a da 3c e6 18 7f be 54 af 88 3d 82 42 57 be
       0.026631713 -0.24911842 0.06674066 -0.21021464
0003d0 da bf 3b be 4c ca 6b be fc e2 7f be c2 32 36 3e
       -0.18334904 -0.23026389 -0.24988931 0.177928
0003e0 a4 f2 94 3d 74 25 ac 3d 5e af 79 be a0 77 65 bd
       0.072728425 0.08405581 -0.24383304 -0.056022286
0003f0 be 25 07 3e fc f0 b6 bd 34 af 77 3e 38 98 28 be
       0.13197991 -0.08932683 0.24187928 -0.16464317

layer1.bias f4 [128]
000000 4c 35 5f be 68 ed 55 be e0 38 60 bd 88 5a 61 be
       -0.21797675 -0.20891345 -0.05474174 -0.22007191
000010 ee e7 61 3e 3a c2 2a be 38 48 29 3e 44 1a 80 bd
       0.2206113 -0.16675654 0.16531456 -0.0625501
000020 ae 39 0b be a0 9e 9a 3d 50 6a cd bc 4c 3b 0f 3e
       -0.13596222 0.075497866 -0.025075108 0.13987464
000030 44 28 10 be 2e 78 32 3e ea 69 28 be 54 94 a8 3d
       -0.1407786 0.17428657 -0.16446653 0.08231416
000040 94 1a 3a 3e a0 b3 19 3d b0 88 43 bd da a4 48 be
       0.18174201 0.03752482 -0.047737777 -0.19594136
000050 84 7d 47 be 4c 71 c2 bd 50 46 e3 3d f8 21 b8 3d
       -0.19481474 -0.09494266 0.110973954 0.08990854
000060 dc 1b f3 3d 40 bf 9c bd d0 4c 8e 3d 4a 70 66 3e
       0.11870548 -0.076536655 0.069482446 0.22503772
000070 28 35 44 3d 8e 4a 2b be 90 8f f8 bd 80 30 c9 bb
       0.047902256 -0.16727659 -0.121367574 -0.006139815
000080 40 6b 08 bd c8 d7 74 bd f2 56 1f 3e 84 8c f3 bd
       -0.033305407 -0.059776098 0.15560511 -0.118920356
000090 ee e6 2c 3e 50 53 a6 3c 40 8f ad bc 14 44 9b 3d
       0.16884968 0.020303398 -0.021186471 0.07581344
0000a0 d8 17 63 bd ea 98 10 be 5e 83 6f be 2c e7 1a 3e
       -0.05544266 -0.14120832 -0.23389956 0.15127248
0000b0 38 15 eb bd 94 32 a3 bd f4 21 6e be f8 80 f1 bd
       -0.114786565 -0.079686314 -0.2325514 -0.11792177
0000c0 ba fc 42 be f8 5d de bd d4 50 c6 bd 00 42 79 be
       -0.1904172 -0.10857767 -0.096833855 -0.24341583
0000d0 20 c6 35 3e c4 a2 de bd de cf 68 3e b4 91 0f be
       0.1775136 -0.10870889 0.22735545 -0.14020425
0000e0 e0 bc 6f 3d f0 77 84 3d 4c 38 ed 3d cc 70 ec 3d
       0.058529735 0.06468189 0.115830034 0.11544952
0000f0 9c 2c c5 3d 2c c1 6b be c0 43 d8 3b b6 b7 0c 3e
       0.09627649 -0.23022908 0.0065998733 0.13741955
000100 90 84 a6 3d 7c 4b b5 bd 5c e4 9d 3d 40 37 46 3d
       0.08130753 -0.08852288 0.07709572 0.048392534
000110 a8 b2 d0 3d b4 4c 97 3d 1e 46 0d be 9c 19 22 3e
       0.10190326 0.07387677 -0.13796279 0.15830082
000120 62 65 7c be b0 50 fe 3d 76 15 37 3e 04 c8 93 3d
       -0.2464805 0.12417734 0.1787928 0.07215884
000130 c0 ff 8b 3b b0 6d 49 be 48 9a 7c be 44 2a a5 bd
       0.004272431 -0.19670749 -0.24668229 -0.08064702
000140 28 e3 4c 3d 42 72 72 be 30 b7 83 bd 52 47 10 3e
       0.05002132 -0.23676398 -0.064314246 0.14089707
000150 f0 47 8b 3d 3a e4 36 3e 2c 05 5d 3e 14 c7 f6 3d
       0.0680083 0.17860499 0.21584004 0.1204969
000160 30 a3 33 3d 40 0c ec 3b 7c ac 53 be 0a 6d 06 3e
       0.0438568 0.0072036088 -0.20671266 0.13127533
000170 1c e8 91 3d 92 5b 4f 3e cc 4f 23 be e0 50 10 bd
       0.071243495 0.20249775 -0.15948409 -0.03523338
000180 36 ae 02 3e 98 fa 11 3e 66 ba 68 be 20 e7 30 3c
       0.12761769 0.1425575 -0.22727355 0.010797292
000190 68 66 2a 3e 6c d5 31 3e 20 b2 2b 3e bc cf 02 be
       0.16640627 0.1736657 0.16767168 -0.12774557
0001a0 fc 2d b0 3d ee 14 25 3e a0 32 cf 3c 4a af 3d be
       0.08602521 0.16121265 0.025292695 -0.18523899
0001b0 30 a6 47 3d 40 79 f8 bd 24 9f fb 3d 10 05 8f 3c
       0.048742473 -0.121325016 0.12286213 0.017458469
0001c0 7e e3 46 be 4c cf cd 3d 6c ae b7 3d 9a 16 16 be
       -0.19422719 0.10049304 0.08968815 -0.1465706
0001d0 9c 8c 43 be fc dd b6 bd 5e 35 6e 3e e2 ae 25 be
       -0.19096607 -0.08929059 0.23262545 -0.16179994
0001e0 dc ac 67 be c0 67 f2 3c 16 4f 3a be f6 3c 7e be
       -0.22624534 0.029590487 -0.18194231 -0.24827942
0001f0 aa 90 2b be b0 23 38 bd f6 46 0d 3e 38 f9 09 3d
       -0.16754404 -0.04495591 0.137966 0.03368494

layer2.weight f4 [128, 128]
000000 34 fc b0 bd 1d d7 5f bd bd bf a9 3d 37 62 99 bd
       -0.08641854 -0.054648507 0.08288524 -0.07489436
000010 f2 03 8f 3d 1d ae 5b 3d 31 ff 93 bd df b5 74 3d
       0.069831744 0.053632844 -0.07226408 0.05974376
000020 6f bc a9 3d 7e 36 a3 bd 74 74 f4 bc 32 76 3e bc
       0.08287894 -0.07969378 -0.029840685 -0.01162486
000030 9a 13 19 bd 5b 6d 1a 3d bb 33 11 bd 02 48 0a bd
       -0.03737221 0.037701946 -0.035449725 -0.03376008
000040 ec 98 9e bc 14 bb 9f bd c3 58 7b bd 6e 5b a9 bd
       -0.019360028 -0.07799354 -0.061363947 -0.08269392
000050 41 95 8d bc 8b eb af bc e1 72 e4 bc fb b1 8f 3d
       -0.017283084 -0.02147462 -0.02788681 0.07016369
000060 77 b3 af 3d be 1c 0a 3d 63 48 85 3d bf db 82 3d
       0.08579152 0.033718817 0.06507947 0.063895695
000070 97 f5 7c 3c 88 ab 04 3c 3f cc 04 bd 6a 83 47 bd
       0.015439413 0.008097537 -0.032421347 -0.04870931
000080 e1 98 0f bd 95 d8 3e 3d cd c6 9d 3c 02 07 f8 3b
       -0.035057906 0.046593267 0.019259835 0.007569195
000090 37 71 76 bd 18 f0 53 3d 98 d3 d4 3c a3 30 37 3d
       -0.060166564 0.051742643 0.025979802 0.044724118
0000a0 28 a4 96 bd e6 a3 86 bc db 79 7c bd c7 f7 6b 3c
       -0.07355529 -0.016435575 -0.061639648 0.014402336
0000b0 05 f5 7d 3d 6f 80 b8 3b fc 55 eb 3c 5c b7 9d 3d
       0.062001247 0.005630545 0.028727524 0.07700989
0000c0 6e e5 6a bd 65 1e 76 bb 34 78 89 bd 4e ed de bc
       -0.057347707 -0.0037554738 -0.0671238 -0.027212765
0000d0 47 e1 b2 bd d5 67 68 bc c4 83 ac bc 1e 56 9b bd
       -0.087343745 -0.014184912 -0.021058924 -0.07584785
0000e0 4d d6 9b bc 6b cd 9a bd c8 6f 58 bc d4 67 73 3d
       -0.019023085 -0.075587116 -0.0132102445 0.05942519
0000f0 f8 10 b1 3c 7f 3b 6c 3d 17 ba bb bc 4c 23 29 bd
       0.021614537 0.057673927 -0.022915883 -0.041293427
000100 ee b8 b2 3d d9 1d 9c bd 70 17 0c 3c ac 9b e8 bb
       0.08726679 -0.076228805 0.00855051 -0.0070986357
000110 3a 24 09 bd ed 25 ae 3d 31 ea a7 3d fb 8e 67 bd
       -0.033481814 0.085033275 0.08198965 -0.05653284
000120 1e 1c 8d bd 1e 9f 94 3b 55 3c d5 3c 52 22 c1 3b
       -0.068901286 0.00453557 0.026029745 0.005893984
000130 de ec 83 bd ee cc ca bc 66 af 1f 3d 1a 92 14 3d
       -0.06441663 -0.024755921 0.038985632 0.036272146
000140 5f 4c 9f bc 9e cf 32 bd b9 d5 4a 3d b6 95 56 3c
       -0.019445596 -0.04365503 0.049520228 0.013097217
000150 ce 49 a9 3d be f0 a1 3c 6b 41 d9 3c 04 02 2e 3d
       0.0826603 0.019768115 0.026520452 0.04248239
000160 73 bb b4 3d c1 0b 5d 3d 9e 2b 5b 3d 30 bb 02 bc
       0.088248156 0.053966288 0.053508393 -0.007979199
000170 4e 54 2c bc c9 10 92 3d 07 f8 8a 3d 10 b9 b5 bc
       -0.010518147 0.07132108 0.06785589 -0.022182971
000180 a3 12 6e bc 23 33 83 3d f3 57 63 3d a2 f3 fa 3c
       -0.0145308105 0.06406238 0.055503797 0.030633751
000190 67 21 5c 3c 51 fb 68 bd 37 5e 8a 3d 4e 56 5e bd
       0.013435698 -0.0568803 0.06756251 -0.054281525
0001a0 0d 6c a9 bc ca 88 09 3d d8 56 5a 3d a9 db 4b bb
       -0.020681405 0.033577718 0.053305477 -0.003110627
0001b0 17 9f 76 bd 99 88 08 3d 25 39 3f bd 74 d1 90 3c
       -0.060210314 0.033333395 -0.046685357 0.017678
0001c0 df 8f ad bc 68 80 b1 3d bb 02 17 bd 51 b2 dc bc
       -0.021186767 0.0866707 -0.03686784 -0.026940497
0001d0 cc b6 b0 3d 30 72 e9 3a 29 f0 7b 3d 89 07 db 3c
       0.08628616 0.001781052 0.06150833 0.026736991
0001e0 06 f8 c5 bc 60 bd 52 bd 4a ea 8e bd 3e cf 99 3d
       -0.024166118 -0.051450133 -0.06978281 0.075102314
0001f0 97 4a 3b bd 01 b2 3d bd 0a a4 00 3d 68 d7 6f 3d
       -0.04572543 -0.046312336 0.03140644 0.058555037
000200 3d 54 45 3d a6 6a 96 bc 38 dd 86 3c d8 e9 43 3d
       0.04817604 -0.0183614 0.016462907 0.047830433
000210 e0 42 b4 bd ed 1b d3 3c 95 5e 16 bc 18 2c b1 3d
       -0.08801818 0.025770152 -0.009177824 0.08650988
000220 08 53 aa bc 14 c3 b4 bd bc 77 4e 3d 11 26 49 3d
       -0.020791546 -0.08826271 0.050407156 0.04910857
000230 fd 93 04 bd 48 85 dc bc 2a d5 9e bd 96 30 29 bb
       -0.032367695 -0.026919022 -0.077555016 -0.0025816313
000240 95 93 36 3d 57 3b 8d 3b e4 9c 5f 3c 3e 7a 17 3d
       0.04457434 0.0043100524 0.0136482455 0.036981814
000250 d8 47 92 bc 46 c3 22 3d cd 4a 65 3d f2 6f 22 3d
       -0.017856523 0.03973701 0.05597954 0.03965754
000260 97 47 51 bd 01 a3 2e 3c fd 75 7e bc b9 d5 a6 3d
       -0.051093664 0.01065898 -0.01553106 0.08146233
000270 af 98 8f 3d 7e 69 3d 3b 2e 59 23 bd 5f 59 8d bc
       0.07011544 0.002890199 -0.03987997 -0.01725453
000280 51 b9 4e 3d f2 a0 76 bc 15 4e 76 bd 61 f9 3f bd
       0.0504697 -0.015053021 -0.06013306 -0.046868686
000290 33 6b a8 3d 09 ba b9 3c dd ad d6 3c de d6 b6 bc
       0.08223572 0.022671716 0.026205951 -0.022319254
0002a0 7d 15 07 3d 80 7e a7 bd 5e de c5 bc 25 0e 1b 3d
       0.032979477 -0.08178425 -0.024153885 0.037855286
0002b0 ab 4b ab 3b 31 01 7b 3d 6c ec 51 3c a1 18 fa 3a
       0.005227526 0.061280433 0.012812715 0.0019080826
0002c0 5e 38 e8 3c 61 00 aa bd 3f 66 bd 3c bc b1 75 3d
       0.02834719 -0.083008535 0.023120044 0.059983954
0002d0 56 1f da bb 80 7c a3 bb 59 06 fb 3c d7 97 1e 3d
       -0.0066565676 -0.004989207 0.030642675 0.038719025
0002e0 ce a9 a2 3c 49 ec d2 bc 1f 84 17 bd df d1 2c 3d
       0.01985636 -0.025747435 -0.036991235 0.042192336
0002f0 32 01 1d 3d 9d 8c a3 bd 04 be 56 bc e5 7e 2c bd
       0.038331218 -0.07985804 -0.013106827 -0.042113204
000300 26 06 3c 3d 4d 95 7c bd 18 56 84 3d 09 6a 80 bd
       0.0459043 -0.06166582 0.064617336 -0.062702246
000310 54 a6 82 bc f0 ed 53 bd ff 1c 0e 3d 50 36 7b bd
       -0.015948452 -0.051740587 0.03469562 -0.061331093
000320 f0 22 bd bc 19 16 28 bc 2f 01 9a 3d 16 b9 7c bb
       -0.023087949 -0.010259175 0.07519757 -0.0038562468
000330 63 0f 1a bd d8 8b d8 bb 24 83 6d 3c 52 9b 4a bd
       -0.03761233 -0.0066084675 0.014496598 -0.04946453
000340 d5 62 92 bd 1b 00 21 bc 5b 8d 92 3d 21 4f 11 bd
       -0.07147757 -0.009826685 0.07155868 -0.035475854
000350 cb 59 a6 3d 5f d5 f4 3c 16 cf 9a 3d 7e e1 7a bd
       0.081225954 0.0298869 0.0755903 -0.061250202
000360 73 96 15 bd 35 77 8c 3a 6c ce 80 bb 75 fb 3f ba
       -0.036520433 0.0010716679 -0.0039308574 -0.0007323542
000370 af c9 54 3d fc 81 18 bd bb f1 05 bd 65 98 1b 3d
       0.051950153 -0.037233338 -0.032701235 0.03798713
000380 55 ee 8b bd da 3d 78 bd 65 a2 19 bd 76 c4 e0 3a
       -0.068325676 -0.06060586 -0.037508387 0.0017148394
000390 7b 87 56 bc d2 f5 e9 3c db 5a 80 bc be 63 90 3b
       -0.0130938245 0.0285596 -0.015668323 0.0044064214
0003a0 96 43 9a bd dc 07 ed 3c 29 01 91 bc 06 1e ad 3d
       -0.07532422 0.028934412 -0.017700749 0.08452992
0003b0 c3 6c 5d 3d 93 7f 10 bd 0a 35 f7 bc e3 b8 a9 3d
       0.0540588 -0.035277914 -0.030176658 0.082872175
0003c0 e3 b1 f7 3b 78 4d f5 3c a8 75 22 3d ae c7 74 3d
       0.0075590475 0.029944167 0.039662987 0.059760742
0003d0 41 91 18 3d 23 23 45 bc 8a ef 18 3d bd 5b 41 3d
       0.0372479 -0.012032303 0.037337817 0.04720663
0003e0 1c e5 16 3c 24 fc 56 3d ec e3 80 bc 62 ee ec 3c
       0.009209897 0.052486554 -0.015733682 0.028922264
0003f0 82 95 df 3c 4f 1b 2f 3d f4 ab ba 3c 91 5d 25 3d
       0.02729297 0.042750653 0.022787072 0.040372435

layer2.bias f4 [128]
000000 05 3a 47 bb 50 bd d1 bc 79 47 13 bd 1a 3b 6d bd
       -0.0030399573 -0.025602967 -0.035956834 -0.05791769
000010 96 1c 30 3d a4 f9 8f bd 51 19 ab 3d ba a4 1f bd
       0.04299601 -0.07030037 0.08354438 -0.038975455
000020 ff f7 8b 3c 2b e8 6f 3d 46 7b 8d bd 1a e6 62 3d
       0.017086027 0.058571022 -0.06908278 0.055395223
000030 f7 e7 91 bd ac 3c 34 3d c1 c3 53 bb 3d 33 d3 bc
       -0.07124322 0.044003174 -0.0032312723 -0.025781268
000040 10 97 ff bb 5b 0b 14 3d 5f a5 7d bd f9 36 c7 3c
       -0.0077999905 0.036143642 -0.06192529 0.024318205
000050 5b b4 91 bd 17 8c a4 bd 47 14 f1 b9 56 6e 60 bd
       -0.07114478 -0.080345325 -0.0004598221 -0.054792725
000060 e8 24 04 bd 34 b3 e4 3c 9c 39 08 bd a8 69 ad bd
       -0.03226176 0.027917482 -0.033258066 -0.08467418
000070 1f 27 05 bd 95 38 19 bd e1 3b 94 bd 7e ba 69 bd
       -0.032508012 -0.037407476 -0.072379835 -0.05706262
000080 81 1c d7 3b 9e 17 60 bd a2 1c 96 3d 92 3d 55 bc
       0.006564677 -0.054710023 0.0732968 -0.013015168
000090 45 e3 00 3d 74 d9 4b bc 66 50 ea 3b bd 2a 5a bc
       0.03146674 -0.012441982 0.0071506975 -0.013315854
0000a0 af 83 a4 bd d9 35 7d 3d 3e 55 88 bc b9 e3 78 3d
       -0.08032929 0.06181893 -0.01664221 0.06076405
0000b0 b7 28 bf bc 98 91 29 bd 51 e0 72 bd ec c0 b0 3d
       -0.023334844 -0.041398615 -0.059295956 0.08630547
0000c0 c1 b3 e4 bc a1 50 b1 3b 24 85 b8 3c 1d 85 7c 3b
       -0.027917745 0.005411223 0.022524424 0.003853149
0000d0 7a 4f b2 bd 83 c3 4f bb 7c 7e 92 bd a3 33 73 bd
       -0.08706565 -0.0031702227 -0.07153031 -0.059375416
0000e0 1e c7 78 bd 5d b8 7d bd 8a 7f 8d bd 7f 28 ae 3d
       -0.060736768 -0.0619434 -0.06909092 0.08503818
0000f0 92 cf 7a 3d a0 28 b4 bd f2 04 3a bd 52 f2 0e 3c
       0.06123311 -0.08796811 -0.045414872 0.008724766
000100 aa f2 8c 3c b4 a0 61 3d 41 60 8a bd 87 c3 72 bc
       0.017205555 0.0550849 -0.0675664 -0.014817125
000110 c0 00 a5 3d 3f 71 2f 3d a4 2a 90 bd ca 3c a1 bd
       0.08056784 0.04283261 -0.07039383 -0.07872923
000120 72 32 20 3d 21 3d 33 3d 15 87 02 bd 45 80 6c bd
       0.03911061 0.04375947 -0.031867106 -0.057739515
000130 4d 7a 30 bd f0 44 5c 3c 9f be 33 bc 55 fb b9 bc
       -0.043085385 0.01344417 -0.010970741 -0.022702852
000140 52 33 09 bd 8e 46 db bc 12 01 ae 3d 50 23 e7 3b
       -0.03349621 -0.026767042 0.08496298 0.00705377
000150 3c 74 9d bd 04 1c 81 bd 84 c4 0a bb 62 4c e9 3c
       -0.076881856 -0.06304172 -0.0021174261 0.028478805
000160 e7 77 52 3d a8 3c 07 bd 64 39 b3 3d f6 7a 84 bd
       0.05138388 -0.03301683 0.08751181 -0.064687654
000170 c4 73 86 3d 76 64 29 bd b5 c8 0f bd 5b 3d e5 3b
       0.06565049 -0.041355573 -0.03510352 0.0069958395
000180 10 1c 8d 3d 9b 09 ad 3d ff cc 93 3c c9 04 11 bc
       0.06890118 0.08449098 0.018042086 -0.0088512385
000190 f9 34 b8 3c 64 68 0a bd 11 7b 9a 3a f9 9d 78 bc
       0.022486197 -0.03379096 0.0011785944 -0.015174382
0001a0 0b 16 61 bd 3a 75 98 bd 19 84 95 3d 5e e9 93 bc
       -0.054952662 -0.07444234 0.07300586 -0.018055614
0001b0 21 e2 46 bd ef f8 e1 3b 00 65 9d 3c 1f e2 52 bd
       -0.048555497 0.0068961303 0.0192132 -0.051485177
0001c0 e4 84 f4 3c db 03 1a 3d cb 15 bc bc 62 92 39 3d
       0.029848523 0.037601333 -0.02295961 0.045305617
0001d0 31 cf 55 3b ed ee 84 3b 23 97 1d bc d0 99 75 3a
       0.0032624716 0.0040568025 -0.009618553 0.0009368928
0001e0 6a c6 8a 3c 39 20 64 3d 68 91 84 3d 83 69 a9 bd
       0.016940314 0.055694792 0.064730465 -0.08272078
0001f0 aa bf 4f bd a7 47 af 3d a3 46 c3 bc 72 20 e6 3c
       -0.050719894 0.085585885 -0.023837393 0.028091643
