custom_maze/static/custom_maze/run/room248885/trained_model.pth (torch, 146386 bytes, 12 tensors)

layer1.weight f4 [128, 4]
00000000: 5618 e73e 18c1 c7bd fc8e 463e 2a36 863e
00000010: 7e92 863e a22e 91be a26c bd3e ccdd 563e
00000020: bc52 82be aa6d a93e 981e 63be c6dc 8b3e
00000030: 9c92 1abe 94d9 9f3e dcd5 153e d411 2dbe
00000040: 32b4 cdbe c40b 7dbe f051 8bbe 54a2 653e
00000050: e829 c5be 4094 a93e 4061 a83d 9088 f3be
00000060: 9845 dc3d 3083 16bd 1862 903e 7c85 90be
00000070: 48c8 a73e 90dc dc3e c0d3 3d3d 8c80 a7be
00000080: 80ec cb3d f279 e93e 3423 ddbe f8e4 d3be
00000090: a434 bd3e 2034 e1be 586a b4be 60cf 2c3e
000000a0: a078 363d 9279 b8be 5a43 dbbe b8eb 483e
000000b0: 30f6 db3e 64e4 963e 70af db3d c6d2 ffbe
000000c0: f05e b6bd a8bf 8dbd fccf 2f3e 0e0a f43e
000000d0: a843 313e ca03 a03e 182f 8c3d 1860 d73d
000000e0: 44b6 aabe 6041 933e 1825 babd 88cb 2fbe
000000f0: 640a 6d3e d0ec 4c3e 802a d5bc 5231 aa3e
00000100: 3017 493e c4a6 99be c260 8e3e 7860 a23e
00000110: ceec 993e 70a0 6ebd d8a7 623e 145f fcbe
00000120: d874 713e d04c 97bd ca2d d83e 40b9 e43d
00000130: d0f5 fc3d 042c 2abe 3016 e8be 7056 b7be
00000140: fa00 c03e 8edc e4be e800 7fbe 84c0 d63e
00000150: 5c46 e2be 5694 cc3e f805 dbbe 4c82 f73e
00000160: 68c7 63be 3425 aa3e b088 17be 4096 1f3e
00000170: a884 52be 2092 983e 40d8 90bd 520a debe
00000180: 605c 693d 70c9 cebd 0077 a2bb 48c7 763e
00000190: 2a6c ba3e 467c 87be 40c3 fb3d 00b9 b03b
000001a0: c2b4 b23e 42d4 b83e d0b3 823e 8295 993e
000001b0: c07a 0c3d ec3e 9fbe b0bf 6c3d 3876 7d3e
000001c0: 9054 3fbe 788a 623e 40f7 b5be d866 92be
000001d0: fe63 ccbe 5635 8dbe 5a51 873e 82b8 dd3e
000001e0: 8067 b03c d0b5 3dbd 2c6b 683e ba7f a6be
000001f0: 609f 12bd 78ef 523e 7025 223d 1c5c d63e
00000200: 9af2 aabe a4e6 f2be 80d4 723e 9e70 803e
00000210: ba22 ef3e 10e4 7dbd 8c3b ae3e 74cb 113e
00000220: 520d cf3e a021 9b3e 4a5f c9be 00d8 dcbb
00000230: 70ff 8e3e d839 b83d 5a96 b0be 6ae4 b3be
00000240: 805a 853c 884f ccbd 34f1 443e 7434 403e
00000250: b8db 1d3e 8a4d fcbe fc35 723e b2d0 a13e
00000260: 0050 46ba 8c8e d1be a811 93be 70a1 ffbe
00000270: f880 7a3e 98a8 823d 200c dd3e 2625 ea3e
00000280: 4ed8 c2be 90fd 583e eec6 d63e 9ed9 efbe
00000290: 8a17 91be 4851 9abe 2065 e6bc 8850 1d3e
000002a0: 4ca4 a03e 706f 78be 9889 61be 4817 273e
000002b0: 10ca 873d 403d d0be e62b ba3e 9ce4 adbe
000002c0: 602f 8ebc 6064 af3c 4cfd 0ebe f01e 33be
000002d0: e2c7 be3e e803 c7be b0d0 033e c8d5 043e
000002e0: a031 a9be 40e9 653e 1831 97be 988b d03e
000002f0: 200f 1dbd 107e ed3d 9265 dcbe e233 90be
00000300: 1cbb 523e a89a b73e 1056 a63d 6034 7cbd
00000310: 28fe e1bd 220f e5be f0ae 7d3d a007 8d3c
00000320: b0f5 f93e 200a 1a3e 088d 7a3e c823 e6bd
00000330: 2a79 bfbe 4866 9abe 5049 d93e 64c8 d6be
00000340: 504c 09bd 7845 a23e 645a 1fbe 5015 c93d
00000350: a0d4 8cbe aed4 9a3e dc60 8e3e a60d 8c3e
00000360: 28f4 c1be 40e3 d3be 9099 e93d 6cb5 9abe
00000370: f290 dbbe 5e77 afbe 8017 7e3c fa62 d2be
00000380: 2cd9 af3e 1808 e23e de07 fabe 00ba adba
00000390: f0dd cfbe f87a f4be 1250 c3be 80a5 c2bb
000003a0: c0bb c43e a85b 91be d03b 98bd 0c7e 51be
000003b0: f095 d13d d053 56be 9000 e5be 38e4 d23e
000003c0: 689b a13d 609e a1be d63e fa3e 3ce0 5f3e
000003d0: b4c2 e4be b4b2 913e f810 3cbe 10f0 b63e
000003e0: 0096 17bb 00c5 ee3e 3402 323e dc9f d5be
000003f0: 609b 87bd a2c3 a43e 8828 763e 5e61 e33e
0.45135754 -0.097536266 0.19390482 0.262132 0.2628364 -0.2835589 0.36996943 0.20983046
-0.25453746 0.3309148 -0.2217964 0.27316874 -0.1509499 0.31220686 0.14632362 -0.16901332
-0.4017654 -0.2471152 -0.2721095 0.22425205 -0.38508534 0.33120918 0.08221674 -0.47565126
0.107554615 -0.036746204 0.2819984 -0.2822684 0.3276999 0.43137026 0.04634452 -0.3271526
0.09957218 0.4560085 -0.4319092 -0.41385627 0.36954224 -0.4398508 -0.35237384 0.16875982
0.04454863 -0.3603025 -0.42824823 0.1962117 0.42961264 0.29471123 0.107268214 -0.49965495
-0.08904827 -0.06921321 0.17169183 0.4766392 0.17310965 0.3125289 0.0684492 0.10516375
-0.33342183 0.28760815 -0.09089106 -0.17167485 0.23148495 0.20012212 -0.026021242 0.33240753
0.19637752 -0.30010045 0.27808195 0.31714225 0.3006348 -0.058258474 0.2213434 -0.4929129
0.23579729 -0.07387698 0.42222434 0.11168146 0.123515725 -0.16618353 -0.45329428 -0.35808134
0.37500745 -0.4469952 -0.2490269 0.41943753 -0.44194305 0.3995692 -0.4277799 0.48341596
-0.22244036 0.3323151 -0.14798236 0.1558466 -0.20558417 0.29798985 -0.070724964 -0.4336725
0.05697286 -0.10097015 -0.0049580336 0.24099457 0.36410648 -0.26462 0.122931 0.0053931475
0.34903532 0.3609944 0.2552781 0.29996878 0.03429675 -0.31102693 0.057799995 0.24752128
-0.18684602 0.22123134 -0.355402 -0.2859409 -0.39920038 -0.27579755 0.26429254 0.4330483
0.021533728 -0.046315968 0.22697133 -0.32519323 -0.035796523 0.20599163 0.039586484 0.4186715
-0.33388215 -0.4744159 0.23713875 0.2508592 0.46706182 -0.061985075 0.34029806 0.14237767
0.4043985 0.3029909 -0.39330512 -0.0067396164 0.27929258 0.08995408 -0.3448971 -0.35135204
0.016278505 -0.09976107 0.19232637 0.1877001 0.15415847 -0.49277908 0.23653406 0.31604534
-0.00075650215 -0.40929067 -0.28724408 -0.49927855 0.2446326 0.06379813 0.43173313 0.45731467
-0.38055652 0.21190476 0.41948646 -0.46845716 -0.2833827 -0.30140138 -0.028124392 0.15362751
0.3137535 -0.2426126 -0.22025144 0.16317475 0.06630337 -0.4067173 0.36361617 -0.33963478
-0.017356575 0.021410167 -0.13963813 -0.1749227 0.37261873 -0.38870168 0.12872577 0.12972176
-0.33045673 0.22452259 -0.29529643 0.40731502 -0.038344502 0.1159631 -0.43046242 -0.28164583
0.20579189 0.3586018 0.08121884 -0.061573386 -0.110348046 -0.44738108 0.06193441 0.01721555
0.48820257 0.15042925 0.24467862 -0.112372935 -0.37397128 -0.3015616 0.42438745 -0.4194976
-0.033520043 0.31693625 -0.15561825 0.09818518 -0.2750597 0.30240387 0.27808273 0.27354163
-0.3788159 -0.41384315 0.11406243 -0.3021654 -0.42884022 -0.34270757 0.0155085325 -0.41091138
0.34345376 0.441468 -0.48834127 -0.0013254285 -0.40599012 -0.47750068 -0.38147026 -0.0059401393
0.38424492 -0.2839024 -0.07433283 -0.2045824 0.102336764 -0.2093041 -0.44726992 0.41189742
0.078909695 -0.31566143 0.48876065 0.21862882 -0.44679797 0.28456652 -0.18365848 0.35730028
-0.0023130178 0.46634674 0.17383653 -0.41723526 -0.06621432 0.32180506 0.24038899 0.44410223

layer1.bias f4 [128]
00000000: 04f3 81be acd2 57be ec06 0dbe e885 14be
00000010: ec23 edbe 006e 143d 4804 bbbe 9cda 163e
00000020: 2a43 82be c084 773e 3250 a03e a8f8 c13e
00000030: 7286 86be 300d 583e 208c 87bd 069b 8f3e
00000040: 280c 8a3e 0008 d7ba 1694 d5be f09b 293d
00000050: c6e5 d23e 6469 3d3e 2472 d03e c804 45be
00000060: 14c3 cd3e 3480 b3be 6a80 c93e 340a 28be
00000070: 60d8 1ebd b08f 52bd 3e74 d73e c08e 3bbd
00000080: 427c f5be 9892 83bd b000 803e f6fc c0be
00000090: 38e1 bb3e d4ee cdbe 1a13 e8be 3e44 f0be
000000a0: f8ee cabe 00a8 cfba 08c9 883d 4afe ac3e
000000b0: f846 d13d d8b9 8dbe 3026 233d 94f9 d83e
000000c0: 32ec 933e c8d0 1fbe b095 fcbe 5c15 dabe
000000d0: b238 9abe 7095 f7bd 88a6 eebd c62a e83e
000000e0: 746e 0d3e 2028 ca3d f880 673e aae8 e3be
000000f0: e650 cabe b431 fabe b253 913e 58f7 a2be
00000100: 7c35 bebe d246 c1be 900d 093e 74f2 f43e
00000110: 82c4 e53e 3094 903d 6c66 a03e 1020 78be
00000120: ece8 d43e 0460 643e a0be 403e 165c fabe
00000130: b84a b5bd b4d6 a23e 0855 e63e c41d 75be
00000140: 0604 9b3e 603b 0f3d 101b 57be 905e d33d
00000150: 1644 823e 801e 4dbc e487 1dbe 14cb f3be
00000160: a43e ab3e b080 163d b0ad 343e 7a7c c73e
00000170: b864 d7bd 40aa f1bc 00a7 0c3d ac12 dcbe
00000180: e889 f2be 242e 81be 4c81 8c3e b855 e63d
00000190: a01e f0be d4f3 b03e 667d c33e f4fe 38be
000001a0: 8868 bebd 683a f33e 1856 8e3e b6ce e3be
000001b0: 5277 873e 5c52 633e 9647 e3be 4035 68be
000001c0: 7ece de3e 7892 933d a4e4 8abe c887 df3e
000001d0: 6eaf f03e 201c 753e fad8 9fbe 5865 3abe
000001e0: 0018 54be 7a24 b33e 2e7e b5be 40cd fa3e
000001f0: 2270 f4be 16d4 94be 90a2 1e3d 029a 83be
-0.2538072 -0.21076459 -0.13772172 -0.14504206 -0.4631647 0.036237717 -0.36526704 0.1473183
-0.25441867 0.24171734 0.31311184 0.37885022 -0.2627445 0.2109878 -0.066185236 0.2804796
0.269624 -0.0016405582 -0.41714543 0.04140848 0.41190928 0.18497235 0.40712082 -0.19240105
0.40187895 -0.3505875 0.39355785 -0.16410142 -0.03878057 -0.051406562 0.42080873 -0.045790434
-0.47946364 -0.06424445 0.25000525 -0.37692994 0.36695266 -0.40221274 -0.45327073 -0.46927065
-0.39635444 -0.0015842915 0.06678969 0.33787757 0.10218614 -0.2768085 0.03983134 0.42377913
0.2889114 -0.15606987 -0.49332952 -0.4259442 -0.3012138 -0.1208905 -0.11652857 0.45345134
0.13811666 0.098709345 0.22607791 -0.44513446 -0.39514846 -0.48866045 0.28384167 -0.31829333
-0.3715018 -0.37749344 0.1338408 0.47841227 0.44876486 0.070595145 0.31328142 -0.24230981
0.41583955 0.22302252 0.18822718 -0.4889838 -0.08852142 0.3180443 0.4498675 -0.23937136
0.30276507 0.034968734 -0.21006417 0.10320771 0.2544257 -0.012519479 -0.1538387 -0.47615874
0.33446229 0.03674382 0.17644382 0.38962156 -0.105172575 -0.029500127 0.03433895 -0.42982996
-0.4737084 -0.25230515 0.27442396 0.11246818 -0.46898365 0.34561026 0.3818161 -0.18066007
-0.092972815 0.47505498 0.2780006 -0.44493645 0.26458222 0.22199386 -0.44390553 -0.22676563
0.43516916 0.07205671 -0.27127564 0.4365828 0.47008842 0.2393651 -0.31220227 -0.18202722
-0.2071228 0.34988767 -0.3544783 0.48984718 -0.477418 -0.2906806 0.03872925 -0.25703436

layer2.weight f4 [128, 128]
00000000: 56d9 a1bd fd7d 783d 6591 3e3d cf53 943b
00000010: 3fa2 353d a59d 713d b844 ec3c 8c83 173d
00000020: 7596 adbc 2f15 453d 5042 8ebd 8f1d 7ebc
00000030: a62e a4bc d481 46bd 2919 50bc 2f83 d8bb
00000040: ae46 b0bd ee25 5f3d 7e3d 983d 362c a1bb
00000050: 333f 69bd 3b9c a0bd 6541 703d c08b 3abd
00000060: 5832 7f3c 9971 793d cd12 6abd df4c 773d
00000070: e4c8 abbd 245c 85bd d849 60bd 7ea7 aa3d
00000080: 472f a63c 6fa5 e9bc 5d03 4d3c c913 273d
00000090: 1498 81bc 6714 963d 8c0e a23d ff31 15bd
000000a0: 1d32 6c3a 6259 a83d 8f5b 2fbb 0459 fbbc
000000b0: e055 8b3d af62 afbd a8f9 c53c f416 87bd
000000c0: efbb 573d 358b a93d 7b33 343d b1d6 ad3d
000000d0: 7743 afbd d5fe 2bbb 2a78 d23c 6fb2 b93b
000000e0: 8165 fe3c ad82 a1bd 0eaa b63c f5dd 34bd
000000f0: a5c7 a0bd 92fa e5bc 0d7d aabd b86e 0dbd
00000100: 9c59 92bc bc0e 103d ed0e 5b3d 34d6 79bd
00000110: 047c a7bd 1b9a fcbc aebd aabd 230f b13c
00000120: 5ac9 69bd c241 c63c fb6e 163d 34fc 483d
00000130: a2f4 94bc 32ff 143c 364e 0f3d 8031 4e3d
00000140: a3e0 993d 4ada bf3c 796d f33c e879 be3c
00000150: ff13 afbd 431e 8dbc 216b 1dbd 2fba 8fbd
00000160: 30b0 8f3d 0d53 333d a018 8abd a6ac 9e3d
00000170: 2b61 823d f47f 5dbc c2a7 3a3c c559 e1bc
00000180: f09a dc3b 7369 693d d5b7 803d bd86 a83d
00000190: 9e5b 9dbd 1692 45bd b900 21bb 79e7 81bc
000001a0: c8cf 953d a5d2 733d e58f 6cbd d907 d2bc
000001b0: 46c5 9bbd 62da 013d d430 90bd c3a6 a6bd
000001c0: 2c7a 953d 2204 783d d263 9d3d a5d2 58bd
000001d0: 2163 e73b 790c 84bd 280b a9bc e544 573c
000001e0: b22b ab3c d28f a83d 39a3 88bd ea04 333d
000001f0: a055 b93c 11fd 74bd 187d 973b fd30 f43c
00000200: b951 7f3c 93a1 153d ecc3 5bbd bfc7 7637
00000210: fd7f 65bd 6939 63bd 20b2 ab3d fc36 143d
00000220: e66e e0bc c8d4 2d3d 0e25 2f3d 298b 47bc
00000230: 4bdf 523d 62c1 46bd 2ae7 a13d 2790 3b3d
00000240: 6835 873d 4581 973d 45cf 6ebd 9fa0 163d
00000250: e31f f0bb 58be 0d3d 28ae b0bd c17e 4fbd
00000260: 5270 653d 4659 95bd a99a a7bd e42e aabd
00000270: 4427 ce3c ca4d 92bc 88b3 94bd 52f2 6b3d
00000280: 3c3c 353c 7e14 b1bd cc0f a8bd 1d64 a63a
00000290: d409 cfbc 74ad 993d ded1 0dbc 06f9 a23c
000002a0: c7d1 ea3c 6c25 e1bb 3901 10bd 3a54 9dbd
000002b0: 41a4 a73d 23c3 ab3d 4997 483d b761 6b3d
000002c0: cb28 b03d e614 1fbd 65a4 95bd 069f d83b
000002d0: 6ef3 93bd a044 bb3c ac87 7b3d eb51 853d
000002e0: 7567 073d 7e48 86bd 5e82 643d 96c1 8fbd
000002f0: b0d1 7b3c 97fb 8bbd d665 2a3d a8c4 883c
00000300: 6c46 2d3d 0714 6abd 0460 19bd 0857 06bd
00000310: ad2c 16bd 1183 3c3d 2ff5 4f3c 1396 d4bc
00000320: ae22 4c3d 8d6f d63c 1a83 8dbd 14df 7bbd
00000330: 959d f73c ccb1 823d 10e7 2ebb 2414 ad3d
00000340: 3496 fbbc 2358 86bd c247 33bd 96a7 4cbd
00000350: b60d 133d 80e5 8dbd 9741 0a3d f5f3 a5bd
00000360: 42f7 fe3b 454c a3bd a3c3 333d 9a8e 5dbd
00000370: 8778 913c df99 873d 7a3c b1bc 2ac0 933d
00000380: 3fbe 5d3d 3b7a 17bd 6d7c 5bbd 22c6 87bd
00000390: 73d8 40bd cc4d d83c 0929 a1bd b457 373d
000003a0: b020 923c 5180 0b3d 29d8 eabb f36b 87bd
000003b0: eff1 b23c 0f5d 663d a9d3 863d 6bb3 ccbb
000003c0: 4a79 82bd a73e 7d3d f092 30bd 88c8 a7bd
000003d0: 1442 27bd 8893 26bc 4435 2cbd ebfa a83d
000003e0: 2476 33bb d483 923d 05d6 eebc 4530 0d3d
000003f0: af11 38bc c038 21bd 82d9 81bc e06f 703c
-0.07902782 0.060667027 0.046525378 0.0045265923 0.044344183 0.058988232 0.028841361 0.036990687
-0.021189908 0.048115905 -0.06946242 -0.015509977 -0.020041775 -0.048463657 -0.012701311 -0.006607435
-0.08607231 0.054479532 0.07433604 -0.0049186004 -0.056945037 -0.078422986 0.058656115 -0.045543432
0.015575968 0.06089935 -0.057146836 0.060376044 -0.08387926 -0.06511715 -0.054757923 0.08332728
0.020286215 -0.028521268 0.012513009 0.040790353 -0.015819587 0.0732811 0.07912931 -0.036424633
0.0009010153 0.082201734 -0.0026757454 -0.030682094 0.06803489 -0.08563744 0.024166897 -0.06596175
0.05266946 0.08278505 0.043994408 0.08488215 -0.0855779 -0.002624442 0.025692064 0.005667023
0.03105426 -0.078862526 0.022297885 -0.044156987 -0.07850579 -0.028073583 -0.08324633 -0.034529418
-0.017864995 0.0351703 0.05348103 -0.060995296 -0.08177951 -0.030835202 -0.0833696 0.021613663
-0.05707679 0.024201278 0.036726933 0.049068645 -0.018183056 0.009094046 0.034986697 0.050340176
0.07513549 0.023419518 0.029715287 0.023251489 -0.08548736 -0.017226344 -0.038432244 -0.070179336
0.07016027 0.043780375 -0.06742978 0.07747774 0.063661896 -0.013519276 0.011392536 -0.027508626
0.006732337 0.05698533 0.06285063 0.08228824 -0.0768349 -0.04823502 -0.002456708 -0.015857445
0.07315022 0.05952706 -0.057754416 -0.025638508 -0.07605986 0.031702407 -0.07040563 -0.08137276
0.07298693 0.060550816 0.07685055 -0.05293526 0.0070613776 -0.064476915 -0.020635203 0.013138984
0.020894859 0.082305565 -0.06671757 0.04370586 0.022623837 -0.059811655 0.0046230666 0.029808516
0.015583449 0.036531042 -0.053653643 1.470925e-05 -0.056030262 -0.055474672 0.08383584 0.03618525
-0.02739663 0.042439252 0.042759947 -0.012179174 0.05148248 -0.048524268 0.07905419 0.04579177
0.06601983 0.07397703 -0.058303136 0.036774274 -0.00732802 0.034605354 -0.08626968 -0.05065799
0.05601532 -0.07292418 -0.08183796 -0.08309725 0.025165208 -0.017859358 -0.07260805 0.05760414
0.011061724 -0.08646487 -0.08206138 0.0012694631 -0.025273241 0.07503787 -0.008655993 0.019894134
0.028664483 -0.006870916 -0.035157416 -0.076820806 0.08185626 0.08386829 0.0489724 0.057466235
0.08601531 -0.03883829 -0.073067464 0.006610754 -0.07224165 0.022859871 0.061408684 0.06509765
0.03305765 -0.065567955 0.05578839 -0.070193455 0.015369818 -0.06835096 0.041601025 0.016695336
0.042303488 -0.057148006 -0.037445083 -0.032797843 -0.0366637 0.046023432 0.012692734 -0.025950467
0.04983776 0.026176238 -0.06909771 -0.06149204 0.030226508 0.06381568 -0.0026688017 0.08451107
-0.03071127 -0.065597795 -0.043769605 -0.04996451 0.035901748 -0.06928539 0.033753958 -0.08103172
0.0077809403 -0.07973532 0.043887746 -0.054091074 0.017757667 0.066211455 -0.021635283 0.07214387
0.05413651 -0.036981802 -0.05358546 -0.06629588 -0.047081422 0.026404284 -0.07869155 0.044761375
0.017837852 0.03405792 -0.0071668816 -0.066123866 0.021843879 0.05624109 0.0658334 -0.006246974
-0.0637079 0.061827328 -0.04310888 -0.08192545 -0.0408345 -0.01016701 -0.042042986 0.08250984
-0.002738365 0.071540505 -0.029154787 0.03446986 -0.011234685 -0.03936076 -0.015850786 0.014675111

layer2.bias f4 [128]
00000000: c8f7 77bd f509 a63d 5f53 a3bd c7e3 00bd
00000010: 539e b4bd 5e0d 84bd c4ff 65bc dd58 bbbc
00000020: ace8 3d3d cd0f 2a3d 1426 5ebc 7fdd 0e3d
00000030: 6b89 fdbc 7ce2 0dbb 2a4a b83c 7ccf 993c
00000040: eba9 47ba 3f19 a7bd f0c8 d5bc 22f7 42bd
00000050: 4dec 30bd 836a 473d d132 c73c fe35 723d
00000060: bf89 2a3d a63e 56bc decd 283d a1fb 22bc
00000070: 7324 00bc abf6 aa3d bcf5 563d 98b2 343d
00000080: d237 99bd 442d 00bd 7962 42bd 38f4 943d
00000090: 9c2c 8b3d d2dc ad3d 9957 b43c a50f a0bc
000000a0: cdaf abbd b071 073a f507 b1bd fa82 b8bc
000000b0: 4534 613c c9b0 a73d aa2e 9f3d 325b 933d
000000c0: fab1 853d 7fc6 89bd 624f 8d3c 16aa a53d
000000d0: ed54 05bd cbff 91bd 0538 7abd 4218 01bd
000000e0: bdf8 853d 5c09 91bd 63c1 38bd 0071 66bd
000000f0: 3595 7b3d 0bda 9ebc 9067 9bbd fb78 203d
00000100: cb29 2dbd deec 6ebc e1e4 d73b a2af 913d
00000110: 7b7a 29bd fab9 3abd e22d 013d 359f 9d3d
00000120: 4fb4 57bc 100c db3c 039c 4d3c 0874 89bd
00000130: 1470 f83c 176b 233c f239 6aba 5344 52bb
00000140: 9a22 48bd 746d 3c3d 81f8 933c 62a3 db3c
00000150: d408 00bc 05cb 28bd d619 c93c c5b1 55bd
00000160: 0133 41bd 8fd1 943d fe9d 87bd f52a 723d
00000170: d66a 85bd 713f 5d3d bc62 88bd cca4 51bd
00000180: 8b5b c7bc ea3e aa3d 2954 5a3d 9479 35bd
00000190: 13eb 713d 7cdf 083c 63d0 b33b ba7c 1138
000001a0: 59f3 98bd 39c2 0b3d 60de 153b 618e 98bd
000001b0: 22d1 0c3d 2998 46bd 49c3 a43d 9067 90bd
000001c0: 0bcc 373d f82a 113d d34d b33d 5642 0f3d
000001d0: 928c 76bc 004e 87bd cf9c 2bbd 8e8d 973c
000001e0: 88cb 16bd 24c1 723d 71f7 993d e72a 4abd
000001f0: c086 673d b91a 863d a3bc 473d 8eb6 af3d
-0.060539037 0.08107368 -0.07974886 -0.031467225 -0.088192604 -0.06447862 -0.01403803 -0.022869522
0.04636447 0.041518975 -0.013558883 0.034879204 -0.030949315 -0.0021649888 0.022496302 0.018775694
-0.00076165673 -0.08159112 -0.026096791 -0.047598965 -0.043194104 0.048685562 0.024316223 0.059133522
0.04163527 -0.01307646 0.041211955 -0.009947688 -0.00782119 0.083478294 0.052480444 0.044115633
-0.0748135 -0.03129317 -0.047457192 0.072731435 0.06795618 0.08489384 0.022014426 -0.01953871
-0.08383141 0.0005166782 -0.08644096 -0.022523392 0.013745372 0.08188016 0.07772572 0.071951285
0.06528087 -0.06727313 0.017249767 0.08089082 -0.032551695 -0.07128867 -0.06108858 -0.031517275
0.06541584 -0.07081863 -0.045106303 -0.05626011 0.06142159 -0.01939108 -0.07588112 0.039177876
-0.042276185 -0.014582841 0.006588564 0.071135774 -0.041376572 -0.045587517 0.031537898 0.07696382
-0.0131655475 0.02673915 0.012549403 -0.06711584 0.03032688 0.009974263 -0.0008935026 -0.0032084181
-0.048861124 0.04600282 0.018062832 0.026811305 -0.007814605 -0.04120924 0.024548452 -0.052171487
-0.04716778 0.07266533 -0.066219315 0.059123 -0.06514518 0.05401558 -0.06659457 -0.051182553
-0.024335643 0.08312781 0.053302918 -0.0443054 0.059062075 0.008354064 0.005487488 3.4686855e-05
-0.0746829 0.034120772 0.0022868142 -0.074490316 0.034379132 -0.048484955 0.0804506 -0.07051003
0.044872325 0.03544137 0.08755078 0.034975372 -0.015048163 -0.06606674 -0.04189759 0.018500116
-0.036815196 0.059266225 0.07517899 -0.04935732 0.056524992 0.06548066 0.048763882 0.085797414

layer3.weight f4 [4, 128]
00000000: 6b6d 9c3d 0fdd 0bba 3a02 7b3d 74f9 a33d
00000010: 763d fb3c 1486 e0bc 2ed2 6b3d 6f43 41bd
00000020: 12e4 103d 1e02 79bc 2605 a6bd 1a20 923d
00000030: 1c9c 9d3d 61c7 883d fbd8 7bbd 2ac3 a93d
00000040: a148 01bd f8d9 82bd 438c 8dbc 0999 1b3d
00000050: aeb6 bdbc 9ac7 1ebd 6f7c 49bc 502d 95bd
00000060: 6227 29bd b007 98bb abf2 96bd 4ca9 8b3d
00000070: a581 82bd 34f1 bf3a 1245 90bc 2bfc ec3b
00000080: f3d8 b5bc 0da7 83bc c36e 9d3d 9d9d 0a3d
00000090: f63d 48bd ea68 9f3d de38 8c3d 0b3b 613d
000000a0: 42f0 60bd fb5e 013c 8bea 1b3d 4430 4bbd
000000b0: 31ee 0ebd ea71 493d b115 153d eef1 bbbc
000000c0: 7d3b d23b 04e5 83bd a1fb 373c d228 e63c
000000d0: af74 723c 4ca0 0cbd 9c85 0dbd 9e76 0dbd
000000e0: 3b8f c63c f486 18bd 699c 79bd 7d23 203c
000000f0: b83c 533d 586f 7d3c b84a 80bd 1699 183c
00000100: b279 7bbc 0300 8d3c 1e65 353c 9ef2 f6bc
00000110: 1d9a 85bc 7e99 6fbc 03e0 26bd 0505 1dbd
00000120: c562 643d 4e6a 16bd 9322 b23d d45c 183d
00000130: a983 49bd 0cfd adbd 1797 353d be91 ac3d
00000140: 7d15 33bc b25e b13d 6cd2 6dbd f4b0 93bd
00000150: 8a78 20bd 3586 283d 4ac4 f43c 6967 f9bb
00000160: ed00 6c3c dd68 263d a895 bfbc 8123 cf3c
00000170: 614d 71bc b4c5 82bc a6e0 acbd 4598 a13d
00000180: bb5a a03a 378b 863c b450 773c 446d 3ebc
00000190: bdfb f73c 3d1d 023c 1bae 94bd ee68 433d
000001a0: a8ae 973d 3624 893d 13fe ae3d 52d5 83bb
000001b0: 8515 b13d 9ac8 693d 5268 443d 62e6 b03d
000001c0: 411f 403c 5277 8d3d 962f 593d b40f acbd
000001d0: 6455 a6bd d8e8 fbbb 914b 883d 8b9d 4cbd
000001e0: 5721 983d 5ed8 3dbd 2579 8a3d c29f 4fbd
000001f0: dd7d 7f3d cb1f 25bd d6b4 a33d e064 63bc
00000200: 8020 8c3c 767f a73d 579d 1ebc 3f08 c9bc
00000210: a9c1 133d 54ae 603d 8f0f a83b 2826 5a3d
00000220: 9d97 493d d3ea ab3d dbbc 1d3d db3b 3cbd
00000230: c542 81bd 3bfe bdbc 3dff a1bc e234 9abd
00000240: ac03 23bb ffb2 ae3d ac0d 4bbd d27b b03d
00000250: e384 94bc 3b22 9dbd 0b63 96bd 4791 5d3c
00000260: cdbf 4abd 0f32 1ebd 9ec8 f0bc 6ec5 c3bc
00000270: b65f 643d a259 4fbd aa12 bf3c 557d 80bd
00000280: 106c 053d ab7e fbbc cfba 20bc da76 3bbc
00000290: 2a7d 3cbd c620 5e3c 575a a9bd e542 ff3c
000002a0: 153e 1e3d 316c a3bc a19c 0ebd 2525 09bd
000002b0: ebc8 8b3d d30a 31bd 6a1b 433d f217 15bd
000002c0: 5ce6 94bb 6ee1 823d 63aa fd3c 2a06 a63d
000002d0: 14d5 773d 1ddb 4cbd 119f 7abd b772 b2bd
000002e0: e93e 9c3c c0d1 8ebd fec7 b33d 6e40 4dbd
000002f0: 3d78 663c fba3 db3b 5db5 91bd 7707 36bd
00000300: d588 7dbd e50a 78bd 83d7 89bd e54e acbd
00000310: 6c60 a23d bacd 67bd 3f2d 84bc 7285 a4bc
00000320: f368 5d3d 8d46 a1b9 f312 7cbd 14bd 103d
00000330: 7850 903d 9ae6 f53c bad8 b1bd 3765 4e3d
00000340: c012 d0bc 1969 6bbd f857 63bc 8e6a 873d
00000350: 7aad f1bc 69ee cd3c 3538 32bc 1a45 6f3d
00000360: 44fb 87bc de3a 203d 98d7 083d e492 c83c
00000370: 0a83 433d 44e8 b13d a126 c13c 9c1d 223d
00000380: 19bf fc3b be8f 91bd ec3f f53c f696 473d
00000390: 67ff 89bd e370 343d 6f19 a03d cdaf f9bb
000003a0: 0b62 8b3d f5f9 77bd 1168 13bd f573 41bd
000003b0: 7a7b 033d 6882 a5bd 6986 84bd 9305 a33d
000003c0: 9abd 883d 9e1d 7f3b 9e2a bb3b 5690 9b3d
000003d0: 4657 983d e73c 6d3d c1ac f43c 3f20 013d
000003e0: 40ce 8cbc 6276 aabd d852 5f3d 15dd a93d
000003f0: e99a 72bd c6d0 a93d 8252 adbc 624a a13d
0.07638057 -0.00053353695 0.06128142 0.08006564 0.030668955 -0.027407683 0.05757349 -0.04718345
0.035373755 -0.015198259 -0.08106451 0.07135029 0.07695791 0.066786535 -0.061486226 0.08289178
-0.031563405 -0.063892305 -0.017278796 0.037987743 -0.023158398 -0.038764574 -0.012297734 -0.07284033
-0.041297324 -0.0046395883 -0.07370504 0.068194 -0.06372384 0.0014644028 -0.01761106 0.007232209
-0.022198176 -0.016070867 0.07687142 0.033841718 -0.048887216 0.07783683 0.06846784 0.05498795
-0.054916628 0.00789618 0.038065474 -0.049606577 -0.034895126 0.049180903 0.03639764 -0.02294251
0.006415783 -0.06440166 0.011229427 0.028095637 0.014798327 -0.03433256 -0.034551248 -0.03453695
0.02423822 -0.037238076 -0.06094018 0.009774086 0.051571578 0.015468441 -0.062642515 0.009313842
-0.015348839 0.01721192 0.0110714715 -0.030144986 -0.016308839 -0.014623998 -0.040740978 -0.038334865
0.055758256 -0.036722474 0.08698001 0.037197903 -0.049197827 -0.084955305 0.044333544 0.084262356
-0.010930416 0.0866064 -0.058062002 -0.072114855 -0.039177455 0.041143615 0.029878754 -0.0076112044
0.014404518 0.04062735 -0.023386791 0.025285484 -0.014727921 -0.015963413 -0.08441286 0.07890371
0.0012234071 0.016423805 0.015094925 -0.011622731 0.030271405 0.007941541 -0.072597705 0.04770749
0.0740636 0.0669636 0.085445546 -0.0040232325 0.08646683 0.057076074 0.04795105 0.08637692
0.0117262015 0.06907524 0.053023897 -0.08401433 -0.08121756 -0.0076876692 0.06655038 -0.049954932
0.07428234 -0.046348922 0.06761388 -0.050689466 0.062375892 -0.040313523 0.07993476 -0.013879031
0.017105341 0.08178608 -0.009681067 -0.024540065 0.03607336 0.054853752 0.005128808 0.053259045
0.049216855 0.083943985 0.038510185 -0.04595552 -0.063115634 -0.023192516 -0.019775027 -0.07529618
-0.0024874015 0.085302345 -0.049573585 0.08617367 -0.018129772 -0.076725446 -0.0734311 0.013523406
-0.04949932 -0.03862196 -0.029392537 -0.023897853 0.05575534 -0.05062259 0.02332433 -0.06273905
0.03257376 -0.030700048 -0.009810164 -0.011441911 -0.046017803 0.0135576185 -0.08269184 0.031159827
0.038633425 -0.01994905 -0.03481734 -0.03348269 0.068254314 -0.043223213 0.047633566 -0.03639979
-0.0045440625 0.063906536 0.030965036 0.081066445 0.06050594 -0.05001365 -0.061186854 -0.08713286
0.019072967 -0.069736004 0.0877838 -0.050110273 0.014066753 0.0067028976 -0.071146704 -0.044440713
-0.06189807 -0.060557265 -0.06730559 -0.084134854 0.07928547 -0.05659268 -0.016134856 -0.020083163
0.054055165 -0.00030760877 -0.06154151 0.03533657 0.07046598 0.030017186 -0.086839154 0.050389495
-0.025399566 -0.057473276 -0.013875954 0.066121206 -0.029501665 0.025138097 -0.010877659 0.05841551
-0.016599305 0.03911864 0.03340873 0.024484105 0.04773239 0.08686879 0.02357799 0.03957902
0.0077132103 -0.07107495 0.029937707 0.048727952 -0.06738167 0.04405297 0.07817351 -0.007619834
0.068058096 -0.060541112 -0.035987917 -0.047229726 0.03210018 -0.08081514 -0.06470949 0.079600476
0.06676789 0.0038927565 0.0057118675 0.07595889 0.07438521 0.05791941 0.029867532 0.031524893
-0.017188191 -0.08323361 0.054522365 0.08294121 -0.059229765 0.082917735 -0.021157507 0.078755155

layer3.bias f4 [4]
00000000: 9df6 6cbd a697 ae3d 1f6e f6bb c501 d63c
-0.057852376 0.085250184 -0.0075204517 0.02612389

layer1.weight f4 [128, 4]
00000000: 5618 e73e 18c1 c7bd fc8e 463e 2a36 863e
00000010: 7e92 863e a22e 91be a26c bd3e ccdd 563e
00000020: bc52 82be aa6d a93e 981e 63be c6dc 8b3e
00000030: 9c92 1abe 94d9 9f3e dcd5 153e d411 2dbe
00000040: 32b4 cdbe c40b 7dbe f051 8bbe 54a2 653e
00000050: e829 c5be 4094 a93e 4061 a83d 9088 f3be
00000060: 9845 dc3d 3083 16bd 1862 903e 7c85 90be
00000070: 48c8 a73e 90dc dc3e c0d3 3d3d 8c80 a7be
00000080: 80ec cb3d f279 e93e 3423 ddbe f8e4 d3be
00000090: a434 bd3e 2034 e1be 586a b4be 60cf 2c3e
000000a0: a078 363d 9279 b8be 5a43 dbbe b8eb 483e
000000b0: 30f6 db3e 64e4 963e 70af db3d c6d2 ffbe
000000c0: f05e b6bd a8bf 8dbd fccf 2f3e 0e0a f43e
000000d0: a843 313e ca03 a03e 182f 8c3d 1860 d73d
000000e0: 44b6 aabe 6041 933e 1825 babd 88cb 2fbe
000000f0: 640a 6d3e d0ec 4c3e 802a d5bc 5231 aa3e
00000100: 3017 493e c4a6 99be c260 8e3e 7860 a23e
00000110: ceec 993e 70a0 6ebd d8a7 623e 145f fcbe
00000120: d874 713e d04c 97bd ca2d d83e 40b9 e43d
00000130: d0f5 fc3d 042c 2abe 3016 e8be 7056 b7be
00000140: fa00 c03e 8edc e4be e800 7fbe 84c0 d63e
00000150: 5c46 e2be 5694 cc3e f805 dbbe 4c82 f73e
00000160: 68c7 63be 3425 aa3e b088 17be 4096 1f3e
00000170: a884 52be 2092 983e 40d8 90bd 520a debe
00000180: 605c 693d 70c9 cebd 0077 a2bb 48c7 763e
00000190: 2a6c ba3e 467c 87be 40c3 fb3d 00b9 b03b
000001a0: c2b4 b23e 42d4 b83e d0b3 823e 8295 993e
000001b0: c07a 0c3d ec3e 9fbe b0bf 6c3d 3876 7d3e
000001c0: 9054 3fbe 788a 623e 40f7 b5be d866 92be
000001d0: fe63 ccbe 5635 8dbe 5a51 873e 82b8 dd3e
000001e0: 8067 b03c d0b5 3dbd 2c6b 683e ba7f a6be
000001f0: 609f 12bd 78ef 523e 7025 223d 1c5c d63e
00000200: 9af2 aabe a4e6 f2be 80d4 723e 9e70 803e
00000210: ba22 ef3e 10e4 7dbd 8c3b ae3e 74cb 113e
00000220: 520d cf3e a021 9b3e 4a5f c9be 00d8 dcbb
00000230: 70ff 8e3e d839 b83d 5a96 b0be 6ae4 b3be
00000240: 805a 853c 884f ccbd 34f1 443e 7434 403e
00000250: b8db 1d3e 8a4d fcbe fc35 723e b2d0 a13e
00000260: 0050 46ba 8c8e d1be a811 93be 70a1 ffbe
00000270: f880 7a3e 98a8 823d 200c dd3e 2625 ea3e
00000280: 4ed8 c2be 90fd 583e eec6 d63e 9ed9 efbe
00000290: 8a17 91be 4851 9abe 2065 e6bc 8850 1d3e
000002a0: 4ca4 a03e 706f 78be 9889 61be 4817 273e
000002b0: 10ca 873d 403d d0be e62b ba3e 9ce4 adbe
000002c0: 602f 8ebc 6064 af3c 4cfd 0ebe f01e 33be
000002d0: e2c7 be3e e803 c7be b0d0 033e c8d5 043e
000002e0: a031 a9be 40e9 653e 1831 97be 988b d03e
000002f0: 200f 1dbd 107e ed3d 9265 dcbe e233 90be
00000300: 1cbb 523e a89a b73e 1056 a63d 6034 7cbd
00000310: 28fe e1bd 220f e5be f0ae 7d3d a007 8d3c
00000320: b0f5 f93e 200a 1a3e 088d 7a3e c823 e6bd
00000330: 2a79 bfbe 4866 9abe 5049 d93e 64c8 d6be
00000340: 504c 09bd 7845 a23e 645a 1fbe 5015 c93d
00000350: a0d4 8cbe aed4 9a3e dc60 8e3e a60d 8c3e
00000360: 28f4 c1be 40e3 d3be 9099 e93d 6cb5 9abe
00000370: f290 dbbe 5e77 afbe 8017 7e3c fa62 d2be
00000380: 2cd9 af3e 1808 e23e de07 fabe 00ba adba
00000390: f0dd cfbe f87a f4be 1250 c3be 80a5 c2bb
000003a0: c0bb c43e a85b 91be d03b 98bd 0c7e 51be
000003b0: f095 d13d d053 56be 9000 e5be 38e4 d23e
000003c0: 689b a13d 609e a1be d63e fa3e 3ce0 5f3e
000003d0: b4c2 e4be b4b2 913e f810 3cbe 10f0 b63e
000003e0: 0096 17bb 00c5 ee3e 3402 323e dc9f d5be
000003f0: 609b 87bd a2c3 a43e 8828 763e 5e61 e33e
0.45135754 -0.097536266 0.19390482 0.262132 0.2628364 -0.2835589 0.36996943 0.20983046
-0.25453746 0.3309148 -0.2217964 0.27316874 -0.1509499 0.31220686 0.14632362 -0.16901332
-0.4017654 -0.2471152 -0.2721095 0.22425205 -0.38508534 0.33120918 0.08221674 -0.47565126
0.107554615 -0.036746204 0.2819984 -0.2822684 0.3276999 0.43137026 0.04634452 -0.3271526
0.09957218 0.4560085 -0.4319092 -0.41385627 0.36954224 -0.4398508 -0.35237384 0.16875982
0.04454863 -0.3603025 -0.42824823 0.1962117 0.42961264 0.29471123 0.107268214 -0.49965495
-0.08904827 -0.06921321 0.17169183 0.4766392 0.17310965 0.3125289 0.0684492 0.10516375
-0.33342183 0.28760815 -0.09089106 -0.17167485 0.23148495 0.20012212 -0.026021242 0.33240753
0.19637752 -0.30010045 0.27808195 0.31714225 0.3006348 -0.058258474 0.2213434 -0.4929129
0.23579729 -0.07387698 0.42222434 0.11168146 0.123515725 -0.16618353 -0.45329428 -0.35808134
0.37500745 -0.4469952 -0.2490269 0.41943753 -0.44194305 0.3995692 -0.4277799 0.48341596
-0.22244036 0.3323151 -0.14798236 0.1558466 -0.20558417 0.29798985 -0.070724964 -0.4336725
0.05697286 -0.10097015 -0.0049580336 0.24099457 0.36410648 -0.26462 0.122931 0.0053931475
0.34903532 0.3609944 0.2552781 0.29996878 0.03429675 -0.31102693 0.057799995 0.24752128
-0.18684602 0.22123134 -0.355402 -0.2859409 -0.39920038 -0.27579755 0.26429254 0.4330483
0.021533728 -0.046315968 0.22697133 -0.32519323 -0.035796523 0.20599163 0.039586484 0.4186715
-0.33388215 -0.4744159 0.23713875 0.2508592 0.46706182 -0.061985075 0.34029806 0.14237767
0.4043985 0.3029909 -0.39330512 -0.0067396164 0.27929258 0.08995408 -0.3448971 -0.35135204
0.016278505 -0.09976107 0.19232637 0.1877001 0.15415847 -0.49277908 0.23653406 0.31604534
-0.00075650215 -0.40929067 -0.28724408 -0.49927855 0.2446326 0.06379813 0.43173313 0.45731467
-0.38055652 0.21190476 0.41948646 -0.46845716 -0.2833827 -0.30140138 -0.028124392 0.15362751
0.3137535 -0.2426126 -0.22025144 0.16317475 0.06630337 -0.4067173 0.36361617 -0.33963478
-0.017356575 0.021410167 -0.13963813 -0.1749227 0.37261873 -0.38870168 0.12872577 0.12972176
-0.33045673 0.22452259 -0.29529643 0.40731502 -0.038344502 0.1159631 -0.43046242 -0.28164583
0.20579189 0.3586018 0.08121884 -0.061573386 -0.110348046 -0.44738108 0.06193441 0.01721555
0.48820257 0.15042925 0.24467862 -0.112372935 -0.37397128 -0.3015616 0.42438745 -0.4194976
-0.033520043 0.31693625 -0.15561825 0.09818518 -0.2750597 0.30240387 0.27808273 0.27354163
-0.3788159 -0.41384315 0.11406243 -0.3021654 -0.42884022 -0.34270757 0.0155085325 -0.41091138
0.34345376 0.441468 -0.48834127 -0.0013254285 -0.40599012 -0.47750068 -0.38147026 -0.0059401393
0.38424492 -0.2839024 -0.07433283 -0.2045824 0.102336764 -0.2093041 -0.44726992 0.41189742
0.078909695 -0.31566143 0.48876065 0.21862882 -0.44679797 0.28456652 -0.18365848 0.35730028
-0.0023130178 0.46634674 0.17383653 -0.41723526 -0.06621432 0.32180506 0.24038899 0.44410223

layer1.bias f4 [128]
00000000: 04f3 81be acd2 57be ec06 0dbe e885 14be
00000010: ec23 edbe 006e 143d 4804 bbbe 9cda 163e
00000020: 2a43 82be c084 773e 3250 a03e a8f8 c13e
00000030: 7286 86be 300d 583e 208c 87bd 069b 8f3e
00000040: 280c 8a3e 0008 d7ba 1694 d5be f09b 293d
00000050: c6e5 d23e 6469 3d3e 2472 d03e c804 45be
00000060: 14c3 cd3e 3480 b3be 6a80 c93e 340a 28be
00000070: 60d8 1ebd b08f 52bd 3e74 d73e c08e 3bbd
00000080: 427c f5be 9892 83bd b000 803e f6fc c0be
00000090: 38e1 bb3e d4ee cdbe 1a13 e8be 3e44 f0be
000000a0: f8ee cabe 00a8 cfba 08c9 883d 4afe ac3e
000000b0: f846 d13d d8b9 8dbe 3026 233d 94f9 d83e
000000c0: 32ec 933e c8d0 1fbe b095 fcbe 5c15 dabe
000000d0: b238 9abe 7095 f7bd 88a6 eebd c62a e83e
000000e0: 746e 0d3e 2028 ca3d f880 673e aae8 e3be
000000f0: e650 cabe b431 fabe b253 913e 58f7 a2be
00000100: 7c35 bebe d246 c1be 900d 093e 74f2 f43e
00000110: 82c4 e53e 3094 903d 6c66 a03e 1020 78be
00000120: ece8 d43e 0460 643e a0be 403e 165c fabe
00000130: b84a b5bd b4d6 a23e 0855 e63e c41d 75be
00000140: 0604 9b3e 603b 0f3d 101b 57be 905e d33d
00000150: 1644 823e 801e 4dbc e487 1dbe 14cb f3be
00000160: a43e ab3e b080 163d b0ad 343e 7a7c c73e
00000170: b864 d7bd 40aa f1bc 00a7 0c3d ac12 dcbe
00000180: e889 f2be 242e 81be 4c81 8c3e b855 e63d
00000190: a01e f0be d4f3 b03e 667d c33e f4fe 38be
000001a0: 8868 bebd 683a f33e 1856 8e3e b6ce e3be
000001b0: 5277 873e 5c52 633e 9647 e3be 4035 68be
000001c0: 7ece de3e 7892 933d a4e4 8abe c887 df3e
000001d0: 6eaf f03e 201c 753e fad8 9fbe 5865 3abe
000001e0: 0018 54be 7a24 b33e 2e7e b5be 40cd fa3e
000001f0: 2270 f4be 16d4 94be 90a2 1e3d 029a 83be
-0.2538072 -0.21076459 -0.13772172 -0.14504206 -0.4631647 0.036237717 -0.36526704 0.1473183
-0.25441867 0.24171734 0.31311184 0.37885022 -0.2627445 0.2109878 -0.066185236 0.2804796
0.269624 -0.0016405582 -0.41714543 0.04140848 0.41190928 0.18497235 0.40712082 -0.19240105
0.40187895 -0.3505875 0.39355785 -0.16410142 -0.03878057 -0.051406562 0.42080873 -0.045790434
-0.47946364 -0.06424445 0.25000525 -0.37692994 0.36695266 -0.40221274 -0.45327073 -0.46927065
-0.39635444 -0.0015842915 0.06678969 0.33787757 0.10218614 -0.2768085 0.03983134 0.42377913
0.2889114 -0.15606987 -0.49332952 -0.4259442 -0.3012138 -0.1208905 -0.11652857 0.45345134
0.13811666 0.098709345 0.22607791 -0.44513446 -0.39514846 -0.48866045 0.28384167 -0.31829333
-0.3715018 -0.37749344 0.1338408 0.47841227 0.44876486 0.070595145 0.31328142 -0.24230981
0.41583955 0.22302252 0.18822718 -0.4889838 -0.08852142 0.3180443 0.4498675 -0.23937136
0.30276507 0.034968734 -0.21006417 0.10320771 0.2544257 -0.012519479 -0.1538387 -0.47615874
0.33446229 0.03674382 0.17644382 0.38962156 -0.105172575 -0.029500127 0.03433895 -0.42982996
-0.4737084 -0.25230515 0.27442396 0.11246818 -0.46898365 0.34561026 0.3818161 -0.18066007
-0.092972815 0.47505498 0.2780006 -0.44493645 0.26458222 0.22199386 -0.44390553 -0.22676563
0.43516916 0.07205671 -0.27127564 0.4365828 0.47008842 0.2393651 -0.31220227 -0.18202722
-0.2071228 0.34988767 -0.3544783 0.48984718 -0.477418 -0.2906806 0.03872925 -0.25703436

layer2.weight f4 [128, 128]
00000000: 56d9 a1bd fd7d 783d 6591 3e3d cf53 943b
00000010: 3fa2 353d a59d 713d b844 ec3c 8c83 173d
00000020: 7596 adbc 2f15 453d 5042 8ebd 8f1d 7ebc
00000030: a62e a4bc d481 46bd 2919 50bc 2f83 d8bb
00000040: ae46 b0bd ee25 5f3d 7e3d 983d 362c a1bb
00000050: 333f 69bd 3b9c a0bd 6541 703d c08b 3abd
00000060: 5832 7f3c 9971 793d cd12 6abd df4c 773d
00000070: e4c8 abbd 245c 85bd d849 60bd 7ea7 aa3d
00000080: 472f a63c 6fa5 e9bc 5d03 4d3c c913 273d
00000090: 1498 81bc 6714 963d 8c0e a23d ff31 15bd
000000a0: 1d32 6c3a 6259 a83d 8f5b 2fbb 0459 fbbc
000000b0: e055 8b3d af62 afbd a8f9 c53c f416 87bd
000000c0: efbb 573d 358b a93d 7b33 343d b1d6 ad3d
000000d0: 7743 afbd d5fe 2bbb 2a78 d23c 6fb2 b93b
000000e0: 8165 fe3c ad82 a1bd 0eaa b63c f5dd 34bd
000000f0: a5c7 a0bd 92fa e5bc 0d7d aabd b86e 0dbd
00000100: 9c59 92bc bc0e 103d ed0e 5b3d 34d6 79bd
00000110: 047c a7bd 1b9a fcbc aebd aabd 230f b13c
00000120: 5ac9 69bd c241 c63c fb6e 163d 34fc 483d
00000130: a2f4 94bc 32ff 143c 364e 0f3d 8031 4e3d
00000140: a3e0 993d 4ada bf3c 796d f33c e879 be3c
00000150: ff13 afbd 431e 8dbc 216b 1dbd 2fba 8fbd
00000160: 30b0 8f3d 0d53 333d a018 8abd a6ac 9e3d
00000170: 2b61 823d f47f 5dbc c2a7 3a3c c559 e1bc
00000180: f09a dc3b 7369 693d d5b7 803d bd86 a83d
00000190: 9e5b 9dbd 1692 45bd b900 21bb 79e7 81bc
000001a0: c8cf 953d a5d2 733d e58f 6cbd d907 d2bc
000001b0: 46c5 9bbd 62da 013d d430 90bd c3a6 a6bd
000001c0: 2c7a 953d 2204 783d d263 9d3d a5d2 58bd
000001d0: 2163 e73b 790c 84bd 280b a9bc e544 573c
000001e0: b22b ab3c d28f a83d 39a3 88bd ea04 333d
000001f0: a055 b93c 11fd 74bd 187d 973b fd30 f43c
00000200: b951 7f3c 93a1 153d ecc3 5bbd bfc7 7637
00000210: fd7f 65bd 6939 63bd 20b2 ab3d fc36 143d
00000220: e66e e0bc c8d4 2d3d 0e25 2f3d 298b 47bc
00000230: 4bdf 523d 62c1 46bd 2ae7 a13d 2790 3b3d
00000240: 6835 873d 4581 973d 45cf 6ebd 9fa0 163d
00000250: e31f f0bb 58be 0d3d 28ae b0bd c17e 4fbd
00000260: 5270 653d 4659 95bd a99a a7bd e42e aabd
00000270: 4427 ce3c ca4d 92bc 88b3 94bd 52f2 6b3d
00000280: 3c3c 353c 7e14 b1bd cc0f a8bd 1d64 a63a
00000290: d409 cfbc 74ad 993d ded1 0dbc 06f9 a23c
000002a0: c7d1 ea3c 6c25 e1bb 3901 10bd 3a54 9dbd
000002b0: 41a4 a73d 23c3 ab3d 4997 483d b761 6b3d
000002c0: cb28 b03d e614 1fbd 65a4 95bd 069f d83b
000002d0: 6ef3 93bd a044 bb3c ac87 7b3d eb51 853d
000002e0: 7567 073d 7e48 86bd 5e82 643d 96c1 8fbd
000002f0: b0d1 7b3c 97fb 8bbd d665 2a3d a8c4 883c
00000300: 6c46 2d3d 0714 6abd 0460 19bd 0857 06bd
00000310: ad2c 16bd 1183 3c3d 2ff5 4f3c 1396 d4bc
00000320: ae22 4c3d 8d6f d63c 1a83 8dbd 14df 7bbd
00000330: 959d f73c ccb1 823d 10e7 2ebb 2414 ad3d
00000340: 3496 fbbc 2358 86bd c247 33bd 96a7 4cbd
00000350: b60d 133d 80e5 8dbd 9741 0a3d f5f3 a5bd
00000360: 42f7 fe3b 454c a3bd a3c3 333d 9a8e 5dbd
00000370: 8778 913c df99 873d 7a3c b1bc 2ac0 933d
00000380: 3fbe 5d3d 3b7a 17bd 6d7c 5bbd 22c6 87bd
00000390: 73d8 40bd cc4d d83c 0929 a1bd b457 373d
000003a0: b020 923c 5180 0b3d 29d8 eabb f36b 87bd
000003b0: eff1 b23c 0f5d 663d a9d3 863d 6bb3 ccbb
000003c0: 4a79 82bd a73e 7d3d f092 30bd 88c8 a7bd
000003d0: 1442 27bd 8893 26bc 4435 2cbd ebfa a83d
000003e0: 2476 33bb d483 923d 05d6 eebc 4530 0d3d
000003f0: af11 38bc c038 21bd 82d9 81bc e06f 703c
-0.07902782 0.060667027 0.046525378 0.0045265923 0.044344183 0.058988232 0.028841361 0.036990687
-0.021189908 0.048115905 -0.06946242 -0.015509977 -0.020041775 -0.048463657 -0.012701311 -0.006607435
-0.08607231 0.054479532 0.07433604 -0.0049186004 -0.056945037 -0.078422986 0.058656115 -0.045543432
0.015575968 0.06089935 -0.057146836 0.060376044 -0.08387926 -0.06511715 -0.054757923 0.08332728
0.020286215 -0.028521268 0.012513009 0.040790353 -0.015819587 0.0732811 0.07912931 -0.036424633
0.0009010153 0.082201734 -0.0026757454 -0.030682094 0.06803489 -0.08563744 0.024166897 -0.06596175
0.05266946 0.08278505 0.043994408 0.08488215 -0.0855779 -0.002624442 0.025692064 0.005667023
0.03105426 -0.078862526 0.022297885 -0.044156987 -0.07850579 -0.028073583 -0.08324633 -0.034529418
-0.017864995 0.0351703 0.05348103 -0.060995296 -0.08177951 -0.030835202 -0.0833696 0.021613663
-0.05707679 0.024201278 0.036726933 0.049068645 -0.018183056 0.009094046 0.034986697 0.050340176
0.07513549 0.023419518 0.029715287 0.023251489 -0.08548736 -0.017226344 -0.038432244 -0.070179336
0.07016027 0.043780375 -0.06742978 0.07747774 0.063661896 -0.013519276 0.011392536 -0.027508626
0.006732337 0.05698533 0.06285063 0.08228824 -0.0768349 -0.04823502 -0.002456708 -0.015857445
0.07315022 0.05952706 -0.057754416 -0.025638508 -0.07605986 0.031702407 -0.07040563 -0.08137276
0.07298693 0.060550816 0.07685055 -0.05293526 0.0070613776 -0.064476915 -0.020635203 0.013138984
0.020894859 0.082305565 -0.06671757 0.04370586 0.022623837 -0.059811655 0.0046230666 0.029808516
0.015583449 0.036531042 -0.053653643 1.470925e-05 -0.056030262 -0.055474672 0.08383584 0.03618525
-0.02739663 0.042439252 0.042759947 -0.012179174 0.05148248 -0.048524268 0.07905419 0.04579177
0.06601983 0.07397703 -0.058303136 0.036774274 -0.00732802 0.034605354 -0.08626968 -0.05065799
0.05601532 -0.07292418 -0.08183796 -0.08309725 0.025165208 -0.017859358 -0.07260805 0.05760414
0.011061724 -0.08646487 -0.08206138 0.0012694631 -0.025273241 0.07503787 -0.008655993 0.019894134
0.028664483 -0.006870916 -0.035157416 -0.076820806 0.08185626 0.08386829 0.0489724 0.057466235
0.08601531 -0.03883829 -0.073067464 0.006610754 -0.07224165 0.022859871 0.061408684 0.06509765
0.03305765 -0.065567955 0.05578839 -0.070193455 0.015369818 -0.06835096 0.041601025 0.016695336
0.042303488 -0.057148006 -0.037445083 -0.032797843 -0.0366637 0.046023432 0.012692734 -0.025950467
0.04983776 0.026176238 -0.06909771 -0.06149204 0.030226508 0.06381568 -0.0026688017 0.08451107
-0.03071127 -0.065597795 -0.043769605 -0.04996451 0.035901748 -0.06928539 0.033753958 -0.08103172
0.0077809403 -0.07973532 0.043887746 -0.054091074 0.017757667 0.066211455 -0.021635283 0.07214387
0.05413651 -0.036981802 -0.05358546 -0.06629588 -0.047081422 0.026404284 -0.07869155 0.044761375
0.017837852 0.03405792 -0.0071668816 -0.066123866 0.021843879 0.05624109 0.0658334 -0.006246974
-0.0637079 0.061827328 -0.04310888 -0.08192545 -0.0408345 -0.01016701 -0.042042986 0.08250984
-0.002738365 0.071540505 -0.029154787 0.03446986 -0.011234685 -0.03936076 -0.015850786 0.014675111

layer2.bias f4 [128]
00000000: c8f7 77bd f509 a63d 5f53 a3bd c7e3 00bd
00000010: 539e b4bd 5e0d 84bd c4ff 65bc dd58 bbbc
00000020: ace8 3d3d cd0f 2a3d 1426 5ebc 7fdd 0e3d
00000030: 6b89 fdbc 7ce2 0dbb 2a4a b83c 7ccf 993c
00000040: eba9 47ba 3f19 a7bd f0c8 d5bc 22f7 42bd
00000050: 4dec 30bd 836a 473d d132 c73c fe35 723d
00000060: bf89 2a3d a63e 56bc decd 283d a1fb 22bc
00000070: 7324 00bc abf6 aa3d bcf5 563d 98b2 343d
00000080: d237 99bd 442d 00bd 7962 42bd 38f4 943d
00000090: 9c2c 8b3d d2dc ad3d 9957 b43c a50f a0bc
000000a0: cdaf abbd b071 073a f507 b1bd fa82 b8bc
000000b0: 4534 613c c9b0 a73d aa2e 9f3d 325b 933d
000000c0: fab1 853d 7fc6 89bd 624f 8d3c 16aa a53d
000000d0: ed54 05bd cbff 91bd 0538 7abd 4218 01bd
000000e0: bdf8 853d 5c09 91bd 63c1 38bd 0071 66bd
000000f0: 3595 7b3d 0bda 9ebc 9067 9bbd fb78 203d
00000100: cb29 2dbd deec 6ebc e1e4 d73b a2af 913d
00000110: 7b7a 29bd fab9 3abd e22d 013d 359f 9d3d
00000120: 4fb4 57bc 100c db3c 039c 4d3c 0874 89bd
00000130: 1470 f83c 176b 233c f239 6aba 5344 52bb
00000140: 9a22 48bd 746d 3c3d 81f8 933c 62a3 db3c
00000150: d408 00bc 05cb 28bd d619 c93c c5b1 55bd
00000160: 0133 41bd 8fd1 943d fe9d 87bd f52a 723d
00000170: d66a 85bd 713f 5d3d bc62 88bd cca4 51bd
00000180: 8b5b c7bc ea3e aa3d 2954 5a3d 9479 35bd
00000190: 13eb 713d 7cdf 083c 63d0 b33b ba7c 1138
000001a0: 59f3 98bd 39c2 0b3d 60de 153b 618e 98bd
000001b0: 22d1 0c3d 2998 46bd 49c3 a43d 9067 90bd
000001c0: 0bcc 373d f82a 113d d34d b33d 5642 0f3d
000001d0: 928c 76bc 004e 87bd cf9c 2bbd 8e8d 973c
000001e0: 88cb 16bd 24c1 723d 71f7 993d e72a 4abd
000001f0: c086 673d b91a 863d a3bc 473d 8eb6 af3d
-0.060539037 0.08107368 -0.07974886 -0.031467225 -0.088192604 -0.06447862 -0.01403803 -0.022869522
0.04636447 0.041518975 -0.013558883 0.034879204 -0.030949315 -0.0021649888 0.022496302 0.018775694
-0.00076165673 -0.08159112 -0.026096791 -0.047598965 -0.043194104 0.048685562 0.024316223 0.059133522
0.04163527 -0.01307646 0.041211955 -0.009947688 -0.00782119 0.083478294 0.052480444 0.044115633
-0.0748135 -0.03129317 -0.047457192 0.072731435 0.06795618 0.08489384 0.022014426 -0.01953871
-0.08383141 0.0005166782 -0.08644096 -0.022523392 0.013745372 0.08188016 0.07772572 0.071951285
0.06528087 -0.06727313 0.017249767 0.08089082 -0.032551695 -0.07128867 -0.06108858 -0.031517275
0.06541584 -0.07081863 -0.045106303 -0.05626011 0.06142159 -0.01939108 -0.07588112 0.039177876
-0.042276185 -0.014582841 0.006588564 0.071135774 -0.041376572 -0.045587517 0.031537898 0.07696382
-0.0131655475 0.02673915 0.012549403 -0.06711584 0.03032688 0.009974263 -0.0008935026 -0.0032084181
-0.048861124 0.04600282 0.018062832 0.026811305 -0.007814605 -0.04120924 0.024548452 -0.052171487
-0.04716778 0.07266533 -0.066219315 0.059123 -0.06514518 0.05401558 -0.06659457 -0.051182553
-0.024335643 0.08312781 0.053302918 -0.0443054 0.059062075 0.008354064 0.005487488 3.4686855e-05
-0.0746829 0.034120772 0.0022868142 -0.074490316 0.034379132 -0.048484955 0.0804506 -0.07051003
0.044872325 0.03544137 0.08755078 0.034975372 -0.015048163 -0.06606674 -0.04189759 0.018500116
-0.036815196 0.059266225 0.07517899 -0.04935732 0.056524992 0.06548066 0.048763882 0.085797414

layer3.weight f4 [4, 128]
00000000: 6b6d 9c3d 0fdd 0bba 3a02 7b3d 74f9 a33d
00000010: 763d fb3c 1486 e0bc 2ed2 6b3d 6f43 41bd
00000020: 12e4 103d 1e02 79bc 2605 a6bd 1a20 923d
00000030: 1c9c 9d3d 61c7 883d fbd8 7bbd 2ac3 a93d
00000040: a148 01bd f8d9 82bd 438c 8dbc 0999 1b3d
00000050: aeb6 bdbc 9ac7 1ebd 6f7c 49bc 502d 95bd
00000060: 6227 29bd b007 98bb abf2 96bd 4ca9 8b3d
00000070: a581 82bd 34f1 bf3a 1245 90bc 2bfc ec3b
00000080: f3d8 b5bc 0da7 83bc c36e 9d3d 9d9d 0a3d
00000090: f63d 48bd ea68 9f3d de38 8c3d 0b3b 613d
000000a0: 42f0 60bd fb5e 013c 8bea 1b3d 4430 4bbd
000000b0: 31ee 0ebd ea71 493d b115 153d eef1 bbbc
000000c0: 7d3b d23b 04e5 83bd a1fb 373c d228 e63c
000000d0: af74 723c 4ca0 0cbd 9c85 0dbd 9e76 0dbd
000000e0: 3b8f c63c f486 18bd 699c 79bd 7d23 203c
000000f0: b83c 533d 586f 7d3c b84a 80bd 1699 183c
00000100: b279 7bbc 0300 8d3c 1e65 353c 9ef2 f6bc
00000110: 1d9a 85bc 7e99 6fbc 03e0 26bd 0505 1dbd
00000120: c562 643d 4e6a 16bd 9322 b23d d45c 183d
00000130: a983 49bd 0cfd adbd 1797 353d be91 ac3d
00000140: 7d15 33bc b25e b13d 6cd2 6dbd f4b0 93bd
00000150: 8a78 20bd 3586 283d 4ac4 f43c 6967 f9bb
00000160: ed00 6c3c dd68 263d a895 bfbc 8123 cf3c
00000170: 614d 71bc b4c5 82bc a6e0 acbd 4598 a13d
00000180: bb5a a03a 378b 863c b450 773c 446d 3ebc
00000190: bdfb f73c 3d1d 023c 1bae 94bd ee68 433d
000001a0: a8ae 973d 3624 893d 13fe ae3d 52d5 83bb
000001b0: 8515 b13d 9ac8 693d 5268 443d 62e6 b03d
000001c0: 411f 403c 5277 8d3d 962f 593d b40f acbd
000001d0: 6455 a6bd d8e8 fbbb 914b 883d 8b9d 4cbd
000001e0: 5721 983d 5ed8 3dbd 2579 8a3d c29f 4fbd
000001f0: dd7d 7f3d cb1f 25bd d6b4 a33d e064 63bc
00000200: 8020 8c3c 767f a73d 579d 1ebc 3f08 c9bc
00000210: a9c1 133d 54ae 603d 8f0f a83b 2826 5a3d
00000220: 9d97 493d d3ea ab3d dbbc 1d3d db3b 3cbd
00000230: c542 81bd 3bfe bdbc 3dff a1bc e234 9abd
00000240: ac03 23bb ffb2 ae3d ac0d 4bbd d27b b03d
00000250: e384 94bc 3b22 9dbd 0b63 96bd 4791 5d3c
00000260: cdbf 4abd 0f32 1ebd 9ec8 f0bc 6ec5 c3bc
00000270: b65f 643d a259 4fbd aa12 bf3c 557d 80bd
00000280: 106c 053d ab7e fbbc cfba 20bc da76 3bbc
00000290: 2a7d 3cbd c620 5e3c 575a a9bd e542 ff3c
000002a0: 153e 1e3d 316c a3bc a19c 0ebd 2525 09bd
000002b0: ebc8 8b3d d30a 31bd 6a1b 433d f217 15bd
000002c0: 5ce6 94bb 6ee1 823d 63aa fd3c 2a06 a63d
000002d0: 14d5 773d 1ddb 4cbd 119f 7abd b772 b2bd
000002e0: e93e 9c3c c0d1 8ebd fec7 b33d 6e40 4dbd
000002f0: 3d78 663c fba3 db3b 5db5 91bd 7707 36bd
00000300: d588 7dbd e50a 78bd 83d7 89bd e54e acbd
00000310: 6c60 a23d bacd 67bd 3f2d 84bc 7285 a4bc
00000320: f368 5d3d 8d46 a1b9 f312 7cbd 14bd 103d
00000330: 7850 903d 9ae6 f53c bad8 b1bd 3765 4e3d
00000340: c012 d0bc 1969 6bbd f857 63bc 8e6a 873d
00000350: 7aad f1bc 69ee cd3c 3538 32bc 1a45 6f3d
00000360: 44fb 87bc de3a 203d 98d7 083d e492 c83c
00000370: 0a83 433d 44e8 b13d a126 c13c 9c1d 223d
00000380: 19bf fc3b be8f 91bd ec3f f53c f696 473d
00000390: 67ff 89bd e370 343d 6f19 a03d cdaf f9bb
000003a0: 0b62 8b3d f5f9 77bd 1168 13bd f573 41bd
000003b0: 7a7b 033d 6882 a5bd 6986 84bd 9305 a33d
000003c0: 9abd 883d 9e1d 7f3b 9e2a bb3b 5690 9b3d
000003d0: 4657 983d e73c 6d3d c1ac f43c 3f20 013d
000003e0: 40ce 8cbc 6276 aabd d852 5f3d 15dd a93d
000003f0: e99a 72bd c6d0 a93d 8252 adbc 624a a13d
0.07638057 -0.00053353695 0.06128142 0.08006564 0.030668955 -0.027407683 0.05757349 -0.04718345
0.035373755 -0.015198259 -0.08106451 0.07135029 0.07695791 0.066786535 -0.061486226 0.08289178
-0.031563405 -0.063892305 -0.017278796 0.037987743 -0.023158398 -0.038764574 -0.012297734 -0.07284033
-0.041297324 -0.0046395883 -0.07370504 0.068194 -0.06372384 0.0014644028 -0.01761106 0.007232209
-0.022198176 -0.016070867 0.07687142 0.033841718 -0.048887216 0.07783683 0.06846784 0.05498795
-0.054916628 0.00789618 0.038065474 -0.049606577 -0.034895126 0.049180903 0.03639764 -0.02294251
0.006415783 -0.06440166 0.011229427 0.028095637 0.014798327 -0.03433256 -0.034551248 -0.03453695
0.02423822 -0.037238076 -0.06094018 0.009774086 0.051571578 0.015468441 -0.062642515 0.009313842
-0.015348839 0.01721192 0.0110714715 -0.030144986 -0.016308839 -0.014623998 -0.040740978 -0.038334865
0.055758256 -0.036722474 0.08698001 0.037197903 -0.049197827 -0.084955305 0.044333544 0.084262356
-0.010930416 0.0866064 -0.058062002 -0.072114855 -0.039177455 0.041143615 0.029878754 -0.0076112044
0.014404518 0.04062735 -0.023386791 0.025285484 -0.014727921 -0.015963413 -0.08441286 0.07890371
0.0012234071 0.016423805 0.015094925 -0.011622731 0.030271405 0.007941541 -0.072597705 0.04770749
0.0740636 0.0669636 0.085445546 -0.0040232325 0.08646683 0.057076074 0.04795105 0.08637692
0.0117262015 0.06907524 0.053023897 -0.08401433 -0.08121756 -0.0076876692 0.06655038 -0.049954932
0.07428234 -0.046348922 0.06761388 -0.050689466 0.062375892 -0.040313523 0.07993476 -0.013879031
0.017105341 0.08178608 -0.009681067 -0.024540065 0.03607336 0.054853752 0.005128808 0.053259045
0.049216855 0.083943985 0.038510185 -0.04595552 -0.063115634 -0.023192516 -0.019775027 -0.07529618
-0.0024874015 0.085302345 -0.049573585 0.08617367 -0.018129772 -0.076725446 -0.0734311 0.013523406
-0.04949932 -0.03862196 -0.029392537 -0.023897853 0.05575534 -0.05062259 0.02332433 -0.06273905
0.03257376 -0.030700048 -0.009810164 -0.011441911 -0.046017803 0.0135576185 -0.08269184 0.031159827
0.038633425 -0.01994905 -0.03481734 -0.03348269 0.068254314 -0.043223213 0.047633566 -0.03639979
-0.0045440625 0.063906536 0.030965036 0.081066445 0.06050594 -0.05001365 -0.061186854 -0.08713286
0.019072967 -0.069736004 0.0877838 -0.050110273 0.014066753 0.0067028976 -0.071146704 -0.044440713
-0.06189807 -0.060557265 -0.06730559 -0.084134854 0.07928547 -0.05659268 -0.016134856 -0.020083163
0.054055165 -0.00030760877 -0.06154151 0.03533657 0.07046598 0.030017186 -0.086839154 0.050389495
-0.025399566 -0.057473276 -0.013875954 0.066121206 -0.029501665 0.025138097 -0.010877659 0.05841551
-0.016599305 0.03911864 0.03340873 0.024484105 0.04773239 0.08686879 0.02357799 0.03957902
0.0077132103 -0.07107495 0.029937707 0.048727952 -0.06738167 0.04405297 0.07817351 -0.007619834
0.068058096 -0.060541112 -0.035987917 -0.047229726 0.03210018 -0.08081514 -0.06470949 0.079600476
0.06676789 0.0038927565 0.0057118675 0.07595889 0.07438521 0.05791941 0.029867532 0.031524893
-0.017188191 -0.08323361 0.054522365 0.08294121 -0.059229765 0.082917735 -0.021157507 0.078755155
