custom_maze/static/custom_maze/run/room248879/trained_model.pth (torch, 146386 bytes, 12 tensors)

layer1.weight f4 [128, 4]
-0.46127844 0.42567974 0.07088232 0.048609376 0.4073859 -0.46757853 -0.3946566 -0.22089309
0.12842733 0.053215504 0.028587997 0.49587786 0.45484626 -0.13786948 0.40945554 0.3421738
0.39904386 0.32856876 0.23415971 -0.17548776 -0.056340516 -0.025782824 0.18194813 -0.3982916
-0.27566737 0.41862583 0.45892245 -0.1493029 0.24865663 -0.007512629 -0.3943826 -0.41989303
-0.37385285 -0.17710948 0.29943103 -0.43365604 0.30247158 -0.18098754 0.21665382 -0.37978017
0.19110394 0.041106522 0.118864 0.31411505 0.46346736 -0.22974956 -0.46624058 -0.4517039
-0.2791462 -0.13035643 0.39244586 -0.3692224 -0.060467184 -0.410514 -0.18974489 -0.28506768
0.01943767 0.17457992 -0.40418297 -0.18694752 -0.09695381 -0.30131644 -0.33926165 0.30848622
-0.114439845 -0.07684696 0.13914692 -0.080842316 -0.17718214 -0.22591865 -0.49268472 -0.17837477
0.39660633 0.3230849 0.035219014 0.2067107 -0.093913674 0.26848096 -0.122630715 -0.13141936
0.28375947 0.2710966 0.026586711 -0.464477 -0.44815856 0.18271089 0.36650592 -0.2621647
-0.42346507 -0.32234204 -0.07070196 -0.4200114 -0.06491941 0.20471781 -0.44850528 -0.15343803
-0.2148552 -0.13518041 -0.24595863 0.081451535 0.30767065 0.14759135 -0.4903896 0.4018026
0.28202832 -0.0796296 -0.3137554 -0.49702275 0.28933722 0.19746524 -0.009414077 -0.3068204
0.35011935 -0.3055386 -0.48962325 0.18736982 -0.25657517 0.10465711 0.3676932 -0.3605547
-0.18889272 -0.046900272 -0.053247035 -0.07245189 -0.26426148 0.080881655 -0.21074504 -0.033610284
-0.4043128 -0.01760161 -0.4637497 -0.045104325 0.07586545 0.36465454 -0.0828743 -0.11917192
0.44780278 -0.15747702 -0.23345101 -0.41939878 -0.42866087 0.08360416 0.22396737 -0.2395441
-0.1100719 -0.3745569 0.3329454 -0.07893866 0.12518454 -0.21377796 -0.39769042 0.36714745
-0.070753455 -0.07383996 -0.2191683 -0.23722142 0.34096897 -0.32252902 0.41282904 -0.11965358
0.025001645 0.12589413 0.3275246 0.39597452 -0.041376114 0.3115247 0.31000805 -0.11586857
-0.00010830164 -0.4910193 -0.17029 0.1947177 0.1874597 -0.04749769 -0.46855164 0.45266378
-0.25512117 -0.05767572 -0.22247297 0.27953178 0.39046597 -0.4094724 -0.4699316 -0.37826377
-0.20971566 0.2616021 0.2043485 -0.35254562 -0.16477042 0.27067667 -0.17205137 -0.45724607
0.3955089 0.17554653 0.3835705 -0.038131714 -0.27393478 0.4744165 -0.23599237 -0.32246268
0.38319618 -0.32560122 0.22949171 -0.2744584 -0.101007044 0.10935551 0.45381254 0.366897
-0.011757851 0.3412376 -0.24651974 -0.30397052 0.44284964 0.4415977 -0.09283483 -0.36718965
0.3830515 -0.23324907 0.4641325 -0.4603269 -0.46169746 0.41785675 -0.27859825 0.109796524
-0.30438107 0.2665295 -0.3132146 0.07228726 -0.15219867 0.098721206 0.37292457 0.2704296
0.32567173 0.23268604 0.27984667 -0.25187486 -0.29581958 -0.22742605 -0.43945777 -0.35462415
-0.23484409 0.37218153 0.19157457 0.24075174 0.20097029 -0.17549938 -0.3881775 -0.43165666
-0.26033676 -0.16883302 -0.44430655 0.26561868 -0.29957348 -0.06751716 -0.35336095 -0.2496419
00000000: b02c ecbe b2f2 d93e c02a 913d a01a 473d
00000010: e294 d03e 7466 efbe 6e10 cabe cc31 62be
00000020: 7482 033e 80f8 593d 6031 ea3c b4e3 fd3e
00000030: 9ce1 e83e a82d 0dbe 28a4 d13e 6831 af3e
00000040: 7a4f cc3e 2a3a a83e 90c7 6f3e 10b3 33be
00000050: 50c5 66bd 8036 d3bc 9c50 3a3e e0ec cbbe
00000060: 4624 8dbe 2056 d63e e2f7 ea3e dce2 18be
00000070: d89f 7e3e 802c f6bb 84ec c9be 38fc d6be
00000080: a469 bfbe 305c 35be 064f 993e 2a08 debe
00000090: 8edd 9a3e cc54 39be 80da 5d3e 8c72 c2be
000000a0: c0b0 433e 505f 283d f86e f33d b0d3 a03e
000000b0: 984b ed3e 7843 6bbe 16b7 eebe bc45 e7be
000000c0: 40ec 8ebe 287c 05be aaee c83e b80a bdbe
000000d0: 70ac 77bd e42e d2be 7c4c 42be 64f4 91be
000000e0: c03b 9f3c 14c5 323e 12f1 cebe 2c6f 3fbe
000000f0: b88f c6bd 2646 9abe b4b3 adbe e8f1 9d3e
00000100: 705f eabd f061 9dbd 887c 0e3e a890 a5bd
00000110: 3c6f 35be 3857 67be 2c41 fcbe e0a7 36be
00000120: fc0f cb3e 626b a53e d041 103d f8ab 533e
00000130: d055 c0bd 5676 893e d025 fbbd cc92 06be
00000140: ec48 913e 2ccd 8a3e 60cc d93c eecf edbe
00000150: 0a75 e5be 9018 3b3e aaa6 bb3e 743a 86be
00000160: 6ad0 d8be 040a a5be 30cc 90bd bc0b d7be
00000170: 78f4 84bd 8ca1 513e 7ca2 e5be dc1e 1dbe
00000180: 0003 5cbe bc6c 0abe 94dc 7bbe 10d0 a63d
00000190: 0287 9d3e 3022 173e 5814 fbbe 12b9 cd3e
000001a0: 0466 903e d814 a3bd 8ca4 a0be c479 febe
000001b0: 0224 943e 5434 4a3e 803d 1abc 9017 9dbe
000001c0: d842 b33e 8e6f 9cbe e6af fabe e0dd 3f3e
000001d0: d25d 83be 7856 d63d 4842 bc3e a09a b8be
000001e0: 186d 41be 801a 40bd 9019 5abd a861 94bd
000001f0: 484d 87be 48a5 a53d 8ccd 57be f0aa 09bd
00000200: 1602 cfbe 4031 90bc 9a70 edbe 50bf 38bd
00000210: 585f 9b3d 00b4 ba3e 00ba a9bd 6810 f4bd
00000220: 6846 e53e a841 21be c80d 6fbe 70bb d6be
00000230: 7079 dbbe a838 ab3d b457 653e 0c4b 75be
00000240: 606d e1bd ecc5 bfbe d277 aa3e 98aa a1bd
00000250: 6030 003e 9ce8 5abe 149e cbbe c0fa bb3e
00000260: 30e7 90bd 6839 97bd a86d 60be 2cea 72be
00000270: 7c93 ae3e 8622 a5be 545e d33e f00c f5bd
00000280: 40d0 cc3c 64ea 003e 4eb1 a73e 2cbd ca3e
00000290: 007a 29bd 2a80 9f3e 60b9 9e3e 804c edbd
000002a0: 0020 e3b8 e266 fbbe 8060 2ebe 1464 473e
000002b0: 70f5 3f3e f08c 42bd 00e6 efbe 8cc3 e73e
000002c0: 3e9f 82be 603d 6cbd f4cf 63be ca1e 8f3e
000002d0: 28eb c73e 5ea6 d1be e09a f0be caab c1be
000002e0: b4bf 56be b6f0 853e bc40 513e dc80 b4be
000002f0: 94b9 28be 2296 8a3e 3c2e 30be 281c eabe
00000300: 2480 ca3e 78c2 333e 5a63 c43e 0030 1cbd
00000310: 2e41 8cbe b8e6 f23e fca7 71be d419 a5be
00000320: 4a32 c43e 34b5 a6be e0ff 6a3e d085 8cbe
00000330: c8dc cebd c8f5 df3d 1e5a e83e ecd9 bb3e
00000340: 00a4 40bc b2b6 ae3e ac6f 7cbe 06a2 9bbe
00000350: 30bd e23e 1819 e23e 3020 bebd 4800 bcbe
00000360: 541f c43e d8d8 6ebe c6a2 ed3e f8af ebbe
00000370: 9c63 ecbe 52f1 d53e 6ea4 8ebe 00dd e03d
00000380: d6d7 9bbe 8e76 883e aa5d a0be 580b 943d
00000390: f8d9 1bbe 582e ca3d f8ef be3e c075 8a3e
000003a0: 72be a63e 4045 6e3e 1048 8f3e bef5 80be
000003b0: aa75 97be 60e2 68be 9c00 e1be 4c91 b5be
000003c0: f87a 70be 948e be3e 202c 443e a087 763e
000003d0: 28cb 4d3e 1cb6 33be 34bf c6be 1a02 ddbe
000003e0: dc4a 85be 90e2 2cbe 267c e3be 2cff 873e
000003f0: b261 99be 7046 8abd baeb b4be 20a2 7fbe

layer1.bias f4 [128]
0.3243392 -0.49402976 -0.16478348 -0.18350565 -0.34038174 0.45243764 -0.17983884 0.37885255
0.31434262 0.30733103 0.11501497 -0.42707062 0.09772581 0.11663681 0.26162428 0.1254816
-0.09966767 0.056494176 -0.31678736 -0.26952714 0.05938387 -0.44441056 0.36283082 0.2060669
0.20673478 -0.06747669 -0.022953272 0.085001945 0.3343792 -0.23990494 -0.24912792 0.3857739
-0.0008304715 -0.21294159 0.41403228 0.35817796 -0.1382125 0.44906014 0.46102875 -0.4623307
-0.15994763 -0.19559771 -0.24780083 -0.12473172 -0.0212968 -0.36613888 0.050715387 0.19648951
-0.3280502 0.043301463 0.23690015 0.22603047 0.4922902 0.26969612 0.41639608 -0.3385741
0.4053321 -0.42524815 -0.32817578 -0.14970285 -0.219432 -0.40265 0.45391798 0.34401578
-0.22768342 0.3819458 -0.26196396 -0.12848324 0.4058048 0.43272513 -0.36973423 0.3624555
0.3369034 0.31353384 0.35713053 -0.20721203 -0.43516386 -0.052146077 -0.41208917 -0.3325897
0.0042566657 -0.034240127 -0.45439547 0.33216697 0.066922426 -0.19696319 -0.12058157 0.21490318
-0.44581884 0.14856428 0.19981122 0.21482188 -0.33330595 -0.32135886 -0.111733556 -0.14111996
-0.26645517 -0.28464848 -0.16054887 0.1203686 -0.43222338 -0.17013127 -0.23995769 -0.058539987
-0.07373822 0.0033542514 -0.29221928 -0.3735546 -0.121849835 0.0065906644 -0.050397098 -0.2833678
-0.23019773 0.23541129 -0.08052403 0.10049027 0.48051643 0.47839928 -0.4420346 -0.19888085
-0.27827674 -0.4387865 -0.34551615 0.14109641 0.4903301 0.21987784 -0.4882893 -0.030082047
00000000: ca0f a63e 78f1 fcbe 00bd 28be e8e8 3bbe
00000010: 8446 aebe e8a5 e73e ac27 38be f6f8 c13e
00000020: 84f1 a03e 7e5a 9d3e f88c eb3d 00a9 dabe
00000030: 7824 c83d 48df ee3d 9ef3 853e 407e 003e
00000040: 901e ccbd 7066 673d f431 a2be 76ff 89be
00000050: 803c 733d c889 e3be f6c4 b93e 3403 533e
00000060: 48b2 533e 3831 8abd 8008 bcbc 8015 ae3d
00000070: c033 ab3e a4a9 75be 641b 7fbe 2884 c53e
00000080: 00b4 59ba 5c0d 5abe 0afc d33e 1a63 b73e
00000090: 9487 0dbe 36eb e53e f60b ec3e 9cb6 ecbe
000000a0: 50c9 23be c44a 48be 80bf 7dbe 5873 ffbd
000000b0: a076 aebc 8e76 bbbe f0ba 4f3d 8c34 493e
000000c0: 32f6 a7be e05c 313d f495 723e 8874 673e
000000d0: 760d fc3e 9c15 8a3e de31 d53e 9659 adbe
000000e0: b087 cf3e 20ba d9be a806 a8be b44b 19be
000000f0: c8b2 60be 2428 cebe f067 e83e d622 b03e
00000100: d825 69be 668e c33e 2420 86be 1c91 03be
00000110: a6c5 cf3e 268e dd3e ce4d bdbe c493 b93e
00000120: 9a7e ac3e 8287 a03e d0d9 b63e 642f 54be
00000130: cccd debe 2097 55bd 5afd d2be 3249 aabe
00000140: 807b 8b3b 603f 0cbd 86a6 e8be ca11 aa3e
00000150: a00e 893d b8b0 49be 78f3 f6bd 940f 5c3e
00000160: 5e42 e4be 3c21 183e 509b 4c3e 44fa 5b3e
00000170: 14a7 aabe 2689 a4be 90d4 e4bd c081 10be
00000180: d06c 88be 72bd 91be ec66 24be d083 f63d
00000190: 624c ddbe e436 2ebe 78b7 75be a0c7 6fbd
000001a0: 1004 97bd 00d3 5b3b c49d 95be 8c42 bfbe
000001b0: 688c f9bd 80f6 d73b 306d 4ebd 9615 91be
000001c0: f4b8 6bbe a80f 713e c8e9 a4bd d8cd cd3d
000001d0: 4006 f63e c0f0 f43e 5c52 e2be 6ca7 4bbe
000001e0: 4a7a 8ebe a0a8 e0be 7ee7 b0be 947b 103e
000001f0: 8c0c fb3e a827 613e 0e01 fabe a06e f6bc

layer2.weight f4 [128, 128]
0.07713616 -0.021778625 0.026631739 -0.03947438 -0.073019646 0.02201213 0.017870137 -0.030159894
-0.0067911427 -0.0076944656 -0.052636124 0.03964483 0.006203605 0.068250775 0.068424545 -0.033996154
0.019846782 -0.023018626 -0.06317153 0.07056108 0.08176475 -0.08179965 0.0627513 -0.05838356
0.013958815 0.05525048 -0.015156428 0.05979092 -0.039477054 -0.076979846 -0.0035268061 -0.013022154
-0.060433164 0.06244122 -0.06742698 0.02146481 0.05717754 -0.06946631 0.024664978 -0.001038804
0.06424808 0.07856317 0.069632195 -0.005621336 -0.028802218 -0.058063973 0.04904301 0.06341293
0.008613625 -0.06541856 0.08178472 0.07667953 -0.057777323 -0.02944442 0.018237615 0.081007496
-0.073823944 -0.07204517 0.05722643 -0.06479187 0.011337091 -0.053424977 -0.03191314 0.019262457
-0.04547311 -0.034213886 -0.048067067 -0.047660265 0.054786623 -0.074337184 -0.06847326 -0.020095607
-0.07492112 0.082728796 -0.074406244 -0.0011889415 0.012592203 -0.060243536 -0.035880644 -0.07216035
0.030642433 -0.0008422415 0.0053482032 0.05861123 -0.050940935 -0.08601352 0.034928273 0.029980212
0.024171839 -0.035822164 -0.06070893 0.08701983 0.02560029 -0.030952666 0.07121508 0.08344931
0.0029922787 0.080545425 -0.077787824 -0.020536589 -0.008677815 -0.01745515 0.06538284 -0.05875706
0.046488248 0.039528295 0.08456433 -0.0679756 0.006926929 0.054282494 4.1830746e-05 0.048814226
-0.04799898 -0.029279636 0.055788074 -0.0047716238 -0.086935565 0.075629264 -0.028711086 -0.0084763
0.04972187 -0.06353339 -0.07705443 -0.048933525 -0.04958606 -0.013135402 -0.07718017 -0.0184093
0.022762816 0.0017153767 0.00019007175 -0.050787456 -0.049610622 -0.016089 0.053759255 0.060764797
-0.008235178 0.041815173 -0.046422858 0.0672075 -0.084085256 0.0054563307 -0.06949814 -0.0027824296
0.06917731 0.035472903 -0.056520335 0.013627488 -0.08670561 -0.059904233 -0.046173073 -0.034688763
0.028047832 0.061066903 -0.024914552 -0.028020415 -0.067447305 -0.043945022 0.046637688 0.0081529915
0.07907834 -0.058255646 -0.056121435 0.036858935 -0.00923703 -0.061548803 -0.011359134 -0.010644039
-0.0039040414 0.011914619 -0.07201426 -0.06602626 -0.05149366 -0.039865986 -0.05061888 -0.049780663
0.03988177 0.07686858 -0.07963664 -0.019854316 -0.035825875 -0.048571546 -0.032167118 -0.021514965
-0.0073982575 -0.026726285 -0.03408854 -0.041663032 0.017340962 0.036781847 0.0830836 0.066294566
0.044616412 0.05557551 0.05068248 0.08828435 -0.024823017 -0.033725295 0.035491303 -0.047244202
-0.08273935 -0.030732132 -0.07774313 -0.029121365 0.017609922 0.08131176 0.010522403 0.06469254
0.025387565 0.06421247 -0.07907427 -0.011827385 -0.008531039 -0.014445463 0.058975916 0.019154541
-0.0128158135 -0.01995277 0.041143574 -0.043156117 0.026809936 -0.047273684 -0.025550231 0.043962765
0.049344875 0.057492334 -0.009506274 0.07935472 0.08245384 -0.08342162 0.026771087 -0.045872986
-0.055250376 0.08685751 -0.030736875 -0.08695106 0.058270272 0.05838235 -0.06967966 -0.072414905
0.065674685 -0.045247823 0.011942773 -0.0058724363 -0.049525484 0.002919923 -0.08700071 -0.07081251
-0.07967819 0.07868746 0.08737244 -0.047971047 -0.033115525 0.023795962 0.034887884 -0.027687645
00000000: 90f9 9d3d 1669 b2bc ce2a da3c e3af 21bd
00000010: 538b 95bd c852 b43c 6564 923c e211 f7bc
00000020: 3c88 debb db21 fcbb fa98 57bd 9e62 223d
00000030: 9c47 cb3b 10c7 8b3d 2b22 8c3d 8d3f 0bbd
00000040: b895 a23c 8f91 bcbc 1360 81bd 5482 903d
00000050: 4774 a73d 9386 a7bd c183 803d 9a23 6fbd
00000060: 83b3 643c 544e 623d ab52 78bc 53e7 743d
00000070: b1b2 21bd 9ca7 9dbd fd21 67bb df5a 55bc
00000080: c488 77bd 5dc2 7f3d 2817 8abd f8d6 af3c
00000090: ff32 6a3d 5a44 8ebd 350e ca3c 7a28 88ba
000000a0: 7f94 833d bae5 a03d 539b 8e3d 2f33 b8bb
000000b0: a1f2 ebbc 7dd4 6dbd 53e1 483d a3de 813d
000000c0: 2920 0d3c 2afa 85bd bf7e a73d 280a 9d3d
000000d0: eaa7 6cbd 6d35 f1bc 0d67 953c 42e7 a53d
000000e0: 0231 97bd 6b8c 93bd 4366 6a3d 9ab1 84bd
000000f0: 35bf 393c 26d4 5abd 5ab7 02bd 4dcc 9d3c
00000100: 0342 3abd dc23 0cbd f9e1 44bd 6937 43bd
00000110: f067 603d 183e 98bd b53b 8cbd 8b9f a4bc
00000120: 3f70 99bd b76d a93d 4d62 98bd 42d6 9bba
00000130: 874f 4e3c edc1 76bd 95f7 12bd cec8 93bd
00000140: d705 fb3c dfc9 5cba fb3f af3b 5412 703d
00000150: 71a7 50bd db27 b0bd f310 0f3d 1099 f53c
00000160: 0504 c63c 43ba 12bd eda9 78bd 7437 b23d
00000170: b3b7 d13c 7290 fdbc 36d9 913d 79e7 aa3d
00000180: 1b1a 443b 00f5 a43d 394f 9fbd 593c a8bc
00000190: 652d 0ebc 1afe 8ebc 70e7 853d 3eab 70bd
000001a0: 766a 3e3d 6ce8 213d 1030 ad3d cb36 8bbd
000001b0: 4bfb e23b 5257 5e3d 6c73 2f38 6df1 473d
000001c0: 949a 44bd d9db efbc 0982 643d 485b 9cbb
000001d0: 460b b2bd 84e3 9a3d 8333 ebbc 2ee0 0abc
000001e0: 29a9 4b3d cb1d 82bd b7ce 9dbd 856e 48bd
000001f0: c11a 4bbd df35 57bc a310 9ebd 1acf 96bc
00000200: 1679 ba3c 7ed6 e03a ff4d 4739 8206 50bd
00000210: 8234 4bbd 14cd 83bc aa32 5c3d 82e4 783d
00000220: d7ec 06bc 6346 2b3d e525 3ebd 16a4 893d
00000230: e434 acbd 05cb b23b 0a55 8ebd 6c59 36bb
00000240: d5ac 8d3d 094c 113d de81 67bd d445 5f3c
00000250: b692 b1bd 245e 75bd fa1f 3dbd ce15 0ebd
00000260: 91c4 e53c 4a21 7a3d 9a19 ccbc 128b e5bc
00000270: d021 8abd b2ff 33bd 2907 3f3d 2094 053c
00000280: d3f3 a13d 799d 6ebd 97df 65bd 65f9 163d
00000290: e956 17bc 991a 7cbd a91b 3abc 5664 2ebc
000002a0: f2da 7fbb 8935 433c 367c 93bd c738 87bd
000002b0: 04eb 52bd 844a 23bd be55 4fbd cfe6 4bbd
000002c0: 115b 233d 466d 9d3d 8918 a3bd 85a5 a2bc
000002d0: 27be 12bd f5f2 46bd abc1 03bd 2740 b0bc
000002e0: 156d f2bb 15f1 dabc 6da0 0bbd dba6 2abd
000002f0: a20e 8e3c 90a8 163d bc27 aa3d 72c5 873d
00000300: b3bf 363d 25a3 633d 6f98 4f3d 6dce b43d
00000310: a459 cbbc 8923 0abd 545f 113d 2383 41bd
00000320: 4073 a9bd f4c1 fbbc ca37 9fbd ee8f eebc
00000330: af42 903c c886 a63d 2866 2c3c 867d 843d
00000340: 95f9 cf3c d481 833d b1f1 a1bd a6c7 41bc
00000350: c5c5 0bbc aaac 6cbc bb90 713d fce9 9c3c
00000360: 6bf9 51bc fe73 a3bc 2a86 283d 78c4 30bd
00000370: 83a0 db3c 0da2 41bd b84e d1bc 4d12 343d
00000380: da1d 4a3d 157d 6b3d 34c0 1bbc ba84 a23d
00000390: 8fdd a83d f4d8 aabd 0a4f db3c 50e5 3bbd
000003a0: 384e 62bd 5ae2 b13d e6cb fbbc 6613 b2bd
000003b0: cfac 6e3d 5522 6f3d 36b4 8ebd 444e 94bd
000003c0: 7380 863d c855 39bd 9fab 433c 916d c0bb
000003d0: 3cdb 4abd 2e5c 3f3b 6e2d b2bd 2606 91bd
000003e0: 522e a3bd e426 a13d 52f0 b23d 4a7d 44bd
000003f0: 25a4 07bd c0ef c23c 99e6 0e3d 33d1 e2bc

layer2.bias f4 [128]
0.03488242 -0.0767702 0.051184904 0.0048574135 -0.013592063 0.079426326 0.00037437992 -0.043800816
-0.06547544 -0.06008463 -0.0073612523 -0.06806664 -0.03577 -0.018025806 0.013202595 -0.067709774
0.032487717 -0.043974746 0.028854627 0.01760752 -0.018170318 0.05806979 -0.05898583 -0.0325202
0.07852779 -0.009744499 -0.082633935 0.04934181 0.0070159435 0.028560515 -0.027155815 0.041874737
-0.0779985 -0.043879822 -0.014968106 0.052299496 0.019882997 0.07057273 -0.08297886 0.024935666
0.036492553 0.009109261 0.027044494 0.08383651 0.0033797242 0.07750656 -0.043021522 0.03463781
-0.073964 -0.010730682 -0.076870695 0.011270836 -0.04073611 -0.052443396 0.011816501 0.034560192
0.01987559 -0.06255268 0.05095159 0.06962175 -0.027077727 0.037408035 0.083114386 -0.042585637
0.035103444 0.0066004912 -0.08681891 -0.011144585 -0.014122239 0.056988966 0.011983645 0.010043731
-0.030136218 0.06943179 0.0719093 -0.065557495 -0.06704771 -0.007282512 -0.07525294 0.023436671
-0.08318093 0.036927994 0.06513806 -0.076010756 -0.060182992 0.0174016 -0.06281588 -0.035691764
0.037660927 -0.0030659197 -0.05019517 -0.022511685 -0.005789997 0.031243384 -0.08835858 -0.07176404
0.022452543 0.025603356 0.053080827 0.003466125 0.049674 0.00290769 0.07471476 0.08553943
0.044933893 -0.08503511 -0.006854405 0.04408987 -0.08697013 -0.085177116 0.083462015 -0.070970505
-0.01858069 -0.03462881 -0.006559124 0.07764577 -0.0113198 -0.017253192 -0.08783393 0.0145424325
0.04957407 0.006467002 -0.052525435 -0.07826567 -0.021760123 -0.05167129 0.081332915 -0.042224366
00000000: dee0 0e3d b239 9dbd 43a7 513d f02a 9f3b
00000010: 3fb1 5ebc 45aa a23d 6c48 c439 7c68 33bd
00000020: fd17 86bd 4d1b 76bd a936 f1bb 8666 8bbd
00000030: 9083 12bd dbaa 93bc b24f 583c 6cab 8abd
00000040: d711 053d dd1e 34bd 8a60 ec3c a53d 903c
00000050: ebd9 94bc 97da 6d3d 209b 71bd e733 05bd
00000060: 2ed3 a03d 64a7 1fbc fb3b a9bd a31a 4a3d
00000070: 00e6 e53b bef7 e93c df75 debc d884 2b3d
00000080: adbd 9fbd 54bb 33bd c93c 75bc ff37 563d
00000090: abe1 a23c 6f88 903d d2f0 a9bd e245 cc3c
000000a0: 3779 153d 033f 153c 6a8c dd3c 7ab2 ab3d
000000b0: 5d7e 5d3b c2bb 9e3d 5637 30bd 60e0 0d3d
000000c0: 707a 97bd becf 2fbc 626e 9dbd 50a9 383c
000000d0: e8da 26bd e3ce 56bd ff99 413c fd8e 0d3d
000000e0: 22d2 a23c 9f1b 80bd 9db2 503d d995 8e3d
000000f0: 1cd2 ddbc 2b39 193d e037 aa3d 476e 2ebd
00000100: a1c8 0f3d ef48 d83b 1dce b1bd c797 36bc
00000110: f760 67bc 436d 693d 0d57 443c 768e 243c
00000120: 3be0 f6bc 4132 8e3d 2f45 933d 0243 86bd
00000130: 4f50 89bd 23a2 eebb 371e 9abd 43fe bf3c
00000140: c35a aabd cf41 173d 1a67 853d 87ab 9bbd
00000150: 7182 76bd cd8d 8e3c 9da5 80bd 8731 12bd
00000160: 5842 1a3d 99ed 48bb 7399 4dbd 6d6a b8bc
00000170: 04ba bdbb 20f2 ff3c 58f5 b4bd 06f9 92bd
00000180: 65ee b73c 21be d13c 486b 593d ee27 633b
00000190: f776 4b3d f18e 3e3b 0d04 993d 4c2f af3d
000001a0: 9a0c 383d e326 aebd eb9a e0bb 9497 343d
000001b0: 651d b2bd 5771 aebd 22ee aa3d fc58 91bd
000001c0: 8836 98bc f0d6 0dbd eced d6bb bf04 9f3d
000001d0: af76 39bc 9156 8dbc 47e2 b3bd 6243 6e3c
000001e0: 2e0e 4b3d 25e9 d33b e924 57bd c049 a0bd
000001f0: 4942 b2bc 46a5 53bd df91 a63d 75f3 2cbd

layer3.weight f4 [4, 128]
-0.0020830764 0.0073792282 -0.0038505043 -0.07997205 -0.032738186 0.031423226 0.03423752 0.017480342
-0.05870252 -0.0650468 -0.029430881 0.045594934 0.06778499 0.08807469 -0.050999455 0.06427391
-0.047468223 0.06517849 0.010054046 0.08233812 0.018649315 0.031960756 0.0013626708 -0.02576499
-0.055524226 0.0046487655 0.043174546 -0.026193602 0.063010395 0.05938608 0.037836257 0.0835301
0.072746165 0.07154964 -0.02905196 0.012987815 0.04782838 -0.031453267 0.030592458 -0.031011619
-0.043400243 0.0044552274 0.072277375 0.08046495 0.06853641 -0.0034988837 0.06006242 -0.04935045
0.02310309 -0.062741354 -0.039021302 -0.023046233 0.0045452844 -0.025549103 0.064741075 0.024930293
0.030342918 -0.07749684 0.048121575 0.049791623 0.043838676 -0.063822456 0.08721887 0.03871605
0.039226368 0.069211796 -0.06331428 -0.015516689 0.019398002 0.04703308 0.035910726 0.02891358
-0.002856671 0.02463732 0.06682217 -0.07914231 0.025447013 0.075582735 0.06749836 -0.045988712
-0.033641897 0.0516492 0.06819953 -0.058949374 0.021899734 -0.07287054 0.016968785 -0.040436856
-0.072188854 0.047152586 0.053778768 -0.0074456306 0.0031047792 0.041474245 -0.0062650656 -0.049588297
0.043743223 -0.025080303 0.0222546 -0.07519613 -0.050498415 -0.012831461 0.07453984 0.017702056
-0.057212975 0.063309304 5.8183723e-05 -0.020550508 -0.045278873 -0.079988845 0.055140384 0.051063962
0.008150221 0.070962824 0.014480993 0.0070142257 -0.04710589 -0.039946288 -0.009426817 0.083570234
-0.07016168 0.007954849 0.07493957 0.052931815 -0.0091402605 0.00029626073 0.07786699 -0.01666421
-0.050590493 -0.008045802 -0.00050886 0.07576134 -0.083949395 -0.002883719 -0.0808128 -0.019013012
0.044462997 0.01667066 -0.06777268 0.08726023 0.019525845 0.0048665176 -0.020171218 -0.01451568
-0.07543024 0.027477153 -0.07520787 -0.045912836 -0.056580868 0.082696676 0.073747545 -0.08102034
0.024323283 0.045138095 0.028926877 -0.003726108 -0.062323514 -0.07085564 0.0262436 0.06552756
-0.086242534 -0.0069046966 0.081790194 0.014137401 0.08743242 -0.01941916 0.02224065 0.061106388
0.024267692 0.029414138 -0.07264004 0.081507586 -0.045662515 0.048966207 0.036912926 -0.013081507
0.021962764 0.046565786 0.040171057 0.06511358 -0.022538196 -0.068317965 -0.057987023 0.039838865
-0.06001946 -0.002709526 -0.078598656 0.08823135 -0.0012802738 -0.015815469 -0.085441224 0.04339764
0.06865255 -0.012549487 -0.039267976 0.03277796 0.05978029 0.05890455 -0.052265093 -0.02040272
0.06898368 0.07677896 -0.070889704 -0.005911559 -0.08454809 0.047500014 -0.05867018 0.067545034
0.021927265 -0.012858466 -0.073174745 -0.02015792 -0.058062382 -0.07806964 -0.08322093 -0.007118613
0.021740219 0.00958865 0.04811367 0.07711886 0.05147622 0.013561844 0.07168609 -0.072712615
-0.024085764 0.04842971 -0.029265748 0.05521055 -0.08673473 -0.08222882 -0.008113763 0.015842684
-0.08380061 -0.019446777 0.07272915 0.016721731 -0.021962786 -0.08011516 -0.08054028 -0.048769057
0.08465561 0.0047254306 -0.0792684 0.08658582 -0.009912033 0.0015432595 0.021795947 -0.042002138
-0.008458462 0.017817792 0.015499313 0.06699967 -0.012533914 -0.020928387 -0.039305698 0.021822784
00000000: 3984 08bb 74cd f13b be58 7cbb 63c8 a3bd
00000010: 7a18 06bd a4b5 003d a43c 0c3d ef32 8f3c
00000020: 0e72 70bd 4237 85bd 0819 f1bc c1c1 3a3d
00000030: dbd2 8a3d 8160 b43d cee4 50bd 0aa2 833d
00000040: 0a6e 42bd 4d7c 853d bab9 243c e3a0 a83d
00000050: 73c6 983c 48e9 023d a59b b23a 1a11 d3bc
00000060: 5f6d 63bd ac54 983b cbd7 303d f793 d6bc
00000070: 980b 813d d13e 733d 31fa 1a3d d411 ab3d
00000080: f1fb 943d 9e88 923d 60fe edbc d8ca 543c
00000090: b1e7 433d 24d5 00bd 099d fa3c 140c febc
000000a0: 74c4 31bd 28fd 913b 2906 943d cfca a43d
000000b0: d15c 8c3d 874d 65bb 0304 763d b323 4abd
000000c0: b142 bd3c 8a7e 80bd cdd4 1fbd 74cb bcbc
000000d0: 9cf0 943b 5a4c d1bc f896 843d 9d3a cc3c
000000e0: b691 f83c aab6 9ebd 211b 453d 4df2 4b3d
000000f0: 2f90 333d 59b5 82bd cf9f b23d b994 1e3d
00000100: d4ab 203d eabe 8d3d ebaa 81bd b639 7ebc
00000110: 8fe8 9e3c c2a5 403d 2017 133d 2cdc ec3c
00000120: fd36 3bbb 34d4 c93c 10da 883d 5d15 a2bd
00000130: 4176 d03c 1fcb 9a3d 953c 8a3d a95e 3cbd
00000140: 16cc 09bd 1d8e 533d 32ac 8b3d e674 71bd
00000150: 1267 b33c 263d 95bd 1f02 8b3c 1ea1 25bd
00000160: c0d7 93bd 1223 413d 2047 5c3d 7afa f3bb
00000170: 8d79 4b3b e6e0 293d 2e4b cdbb 191d 4bbd
00000180: 182c 333d 3575 cdbc 474f b63c 6e00 9abd
00000190: 6dd7 4ebd 0c3b 52bc 58a8 983d e703 913c
000001a0: 2758 6abd 4fa8 813d 4c0a 7438 8a59 a8bc
000001b0: 5776 39bd 31d1 a3bd e2da 613d 7228 513d
000001c0: 8188 053c f554 913d b041 6d3c 97d7 e53b
000001d0: 1bf2 40bd b89e 23bd f072 1abc df26 ab3d
000001e0: edb0 8fbd 0e55 023c eb79 993d 08cf 583d
000001f0: 08c1 15bc 7153 9b39 ba78 9f3d 6283 88bc
00000200: fa37 4fbd 8ad2 03bc 0465 05ba c328 9b3d
00000210: a9ed abbd c7fc 3cbb 2e81 a5bd 2dc1 9bbc
00000220: d51e 363d e890 883c 67cc 8abd 7eb5 b23d
00000230: aaf4 9f3c 4f77 9f3b 1c3e a5bc 2dd3 6dbc
00000240: 2b7b 9abd c417 e13c 9506 9abd 190f 3cbd
00000250: 57c1 67bd e05c a93d f408 973d feed a5bd
00000260: 9f41 c73c b9e2 383d 0ff8 ec3c b831 74bb
00000270: f146 7fbd c31c 91bd d1fc d63c 5033 863d
00000280: ed9f b0bd cb40 e2bb 9e81 a73d 8fa0 673c
00000290: c50f b33d ee14 9fbc 0632 b63c b14a 7a3d
000002a0: 0acd c63c ebf5 f03c 4dc4 94bd 73ed a63d
000002b0: 9e08 3bbd ca90 483d 0232 173d d153 56bc
000002c0: 41eb b33c c4bb 3e3d 688a 243d 455a 853d
000002d0: 06a2 b8bc 4aea 8bbd cd83 6dbd 142e 233d
000002e0: f7d6 75bd 4e92 31bb 55f8 a0bd a3b2 b43d
000002f0: dcce a7ba 718f 81bc cffb aebd b9c1 313d
00000300: b599 8c3d 5d9c 4dbc 75d7 20bd 2f42 063d
00000310: 2ddc 743d e645 713d ec13 56bd 9b23 a7bc
00000320: 5147 8d3d 4a3e 9d3d 9f2e 91bd c0b5 c1bb
00000330: 8d27 adbd 608f 423d 2550 70bd 0d55 8a3d
00000340: cfa0 b33c 51ac 52bc a4dc 95bd 3922 a5bc
00000350: d2d2 6dbd fae2 9fbd bc6f aabd 4143 e9bb
00000360: 8b18 b23c b719 1d3c d712 453d 7ef0 9d3d
00000370: bbd8 523d 7f32 5e3c 28d0 923d 5aea 94bd
00000380: 824f c5bc 3b5e 463d b9be efbc 7524 623d
00000390: faa1 b1bd 9567 a8bd 97ef 04bc 84c8 813c
000003a0: a79f abbd d94e 9fbc 05f3 943d 03fc 883c
000003b0: 4deb b3bc 6b13 a4bd 4df2 a4bd 10c2 47bd
000003c0: ec5f ad3d c9d7 9a3b 7957 a2bd e853 b13d
000003d0: 1466 22bc 3247 ca3a 6a8d b23c 6f0a 2cbd
000003e0: 5c95 0abc 9ef6 913c d5f0 7d3c 1f37 893d
000003f0: 0c5b 4dbc 0272 abbc 03ff 20bd b2c5 b23c

layer3.bias f4 [4]
0.03293691 0.039559282 -0.008652874 -0.022468485
00000000: dae8 063d ea08 223d c9c4 0dbc d40f b8bc

layer1.weight f4 [128, 4]
-0.46127844 0.42567974 0.07088232 0.048609376 0.4073859 -0.46757853 -0.3946566 -0.22089309
0.12842733 0.053215504 0.028587997 0.49587786 0.45484626 -0.13786948 0.40945554 0.3421738
0.39904386 0.32856876 0.23415971 -0.17548776 -0.056340516 -0.025782824 0.18194813 -0.3982916
-0.27566737 0.41862583 0.45892245 -0.1493029 0.24865663 -0.007512629 -0.3943826 -0.41989303
-0.37385285 -0.17710948 0.29943103 -0.43365604 0.30247158 -0.18098754 0.21665382 -0.37978017
0.19110394 0.041106522 0.118864 0.31411505 0.46346736 -0.22974956 -0.46624058 -0.4517039
-0.2791462 -0.13035643 0.39244586 -0.3692224 -0.060467184 -0.410514 -0.18974489 -0.28506768
0.01943767 0.17457992 -0.40418297 -0.18694752 -0.09695381 -0.30131644 -0.33926165 0.30848622
-0.114439845 -0.07684696 0.13914692 -0.080842316 -0.17718214 -0.22591865 -0.49268472 -0.17837477
0.39660633 0.3230849 0.035219014 0.2067107 -0.093913674 0.26848096 -0.122630715 -0.13141936
0.28375947 0.2710966 0.026586711 -0.464477 -0.44815856 0.18271089 0.36650592 -0.2621647
-0.42346507 -0.32234204 -0.07070196 -0.4200114 -0.06491941 0.20471781 -0.44850528 -0.15343803
-0.2148552 -0.13518041 -0.24595863 0.081451535 0.30767065 0.14759135 -0.4903896 0.4018026
0.28202832 -0.0796296 -0.3137554 -0.49702275 0.28933722 0.19746524 -0.009414077 -0.3068204
0.35011935 -0.3055386 -0.48962325 0.18736982 -0.25657517 0.10465711 0.3676932 -0.3605547
-0.18889272 -0.046900272 -0.053247035 -0.07245189 -0.26426148 0.080881655 -0.21074504 -0.033610284
-0.4043128 -0.01760161 -0.4637497 -0.045104325 0.07586545 0.36465454 -0.0828743 -0.11917192
0.44780278 -0.15747702 -0.23345101 -0.41939878 -0.42866087 0.08360416 0.22396737 -0.2395441
-0.1100719 -0.3745569 0.3329454 -0.07893866 0.12518454 -0.21377796 -0.39769042 0.36714745
-0.070753455 -0.07383996 -0.2191683 -0.23722142 0.34096897 -0.32252902 0.41282904 -0.11965358
0.025001645 0.12589413 0.3275246 0.39597452 -0.041376114 0.3115247 0.31000805 -0.11586857
-0.00010830164 -0.4910193 -0.17029 0.1947177 0.1874597 -0.04749769 -0.46855164 0.45266378
-0.25512117 -0.05767572 -0.22247297 0.27953178 0.39046597 -0.4094724 -0.4699316 -0.37826377
-0.20971566 0.2616021 0.2043485 -0.35254562 -0.16477042 0.27067667 -0.17205137 -0.45724607
0.3955089 0.17554653 0.3835705 -0.038131714 -0.27393478 0.4744165 -0.23599237 -0.32246268
0.38319618 -0.32560122 0.22949171 -0.2744584 -0.101007044 0.10935551 0.45381254 0.366897
-0.011757851 0.3412376 -0.24651974 -0.30397052 0.44284964 0.4415977 -0.09283483 -0.36718965
0.3830515 -0.23324907 0.4641325 -0.4603269 -0.46169746 0.41785675 -0.27859825 0.109796524
-0.30438107 0.2665295 -0.3132146 0.07228726 -0.15219867 0.098721206 0.37292457 0.2704296
0.32567173 0.23268604 0.27984667 -0.25187486 -0.29581958 -0.22742605 -0.43945777 -0.35462415
-0.23484409 0.37218153 0.19157457 0.24075174 0.20097029 -0.17549938 -0.3881775 -0.43165666
-0.26033676 -0.16883302 -0.44430655 0.26561868 -0.29957348 -0.06751716 -0.35336095 -0.2496419
00000000: b02c ecbe b2f2 d93e c02a 913d a01a 473d
00000010: e294 d03e 7466 efbe 6e10 cabe cc31 62be
00000020: 7482 033e 80f8 593d 6031 ea3c b4e3 fd3e
00000030: 9ce1 e83e a82d 0dbe 28a4 d13e 6831 af3e
00000040: 7a4f cc3e 2a3a a83e 90c7 6f3e 10b3 33be
00000050: 50c5 66bd 8036 d3bc 9c50 3a3e e0ec cbbe
00000060: 4624 8dbe 2056 d63e e2f7 ea3e dce2 18be
00000070: d89f 7e3e 802c f6bb 84ec c9be 38fc d6be
00000080: a469 bfbe 305c 35be 064f 993e 2a08 debe
00000090: 8edd 9a3e cc54 39be 80da 5d3e 8c72 c2be
000000a0: c0b0 433e 505f 283d f86e f33d b0d3 a03e
000000b0: 984b ed3e 7843 6bbe 16b7 eebe bc45 e7be
000000c0: 40ec 8ebe 287c 05be aaee c83e b80a bdbe
000000d0: 70ac 77bd e42e d2be 7c4c 42be 64f4 91be
000000e0: c03b 9f3c 14c5 323e 12f1 cebe 2c6f 3fbe
000000f0: b88f c6bd 2646 9abe b4b3 adbe e8f1 9d3e
00000100: 705f eabd f061 9dbd 887c 0e3e a890 a5bd
00000110: 3c6f 35be 3857 67be 2c41 fcbe e0a7 36be
00000120: fc0f cb3e 626b a53e d041 103d f8ab 533e
00000130: d055 c0bd 5676 893e d025 fbbd cc92 06be
00000140: ec48 913e 2ccd 8a3e 60cc d93c eecf edbe
00000150: 0a75 e5be 9018 3b3e aaa6 bb3e 743a 86be
00000160: 6ad0 d8be 040a a5be 30cc 90bd bc0b d7be
00000170: 78f4 84bd 8ca1 513e 7ca2 e5be dc1e 1dbe
00000180: 0003 5cbe bc6c 0abe 94dc 7bbe 10d0 a63d
00000190: 0287 9d3e 3022 173e 5814 fbbe 12b9 cd3e
000001a0: 0466 903e d814 a3bd 8ca4 a0be c479 febe
000001b0: 0224 943e 5434 4a3e 803d 1abc 9017 9dbe
000001c0: d842 b33e 8e6f 9cbe e6af fabe e0dd 3f3e
000001d0: d25d 83be 7856 d63d 4842 bc3e a09a b8be
000001e0: 186d 41be 801a 40bd 9019 5abd a861 94bd
000001f0: 484d 87be 48a5 a53d 8ccd 57be f0aa 09bd
00000200: 1602 cfbe 4031 90bc 9a70 edbe 50bf 38bd
00000210: 585f 9b3d 00b4 ba3e 00ba a9bd 6810 f4bd
00000220: 6846 e53e a841 21be c80d 6fbe 70bb d6be
00000230: 7079 dbbe a838 ab3d b457 653e 0c4b 75be
00000240: 606d e1bd ecc5 bfbe d277 aa3e 98aa a1bd
00000250: 6030 003e 9ce8 5abe 149e cbbe c0fa bb3e
00000260: 30e7 90bd 6839 97bd a86d 60be 2cea 72be
00000270: 7c93 ae3e 8622 a5be 545e d33e f00c f5bd
00000280: 40d0 cc3c 64ea 003e 4eb1 a73e 2cbd ca3e
00000290: 007a 29bd 2a80 9f3e 60b9 9e3e 804c edbd
000002a0: 0020 e3b8 e266 fbbe 8060 2ebe 1464 473e
000002b0: 70f5 3f3e f08c 42bd 00e6 efbe 8cc3 e73e
000002c0: 3e9f 82be 603d 6cbd f4cf 63be ca1e 8f3e
000002d0: 28eb c73e 5ea6 d1be e09a f0be caab c1be
000002e0: b4bf 56be b6f0 853e bc40 513e dc80 b4be
000002f0: 94b9 28be 2296 8a3e 3c2e 30be 281c eabe
00000300: 2480 ca3e 78c2 333e 5a63 c43e 0030 1cbd
00000310: 2e41 8cbe b8e6 f23e fca7 71be d419 a5be
00000320: 4a32 c43e 34b5 a6be e0ff 6a3e d085 8cbe
00000330: c8dc cebd c8f5 df3d 1e5a e83e ecd9 bb3e
00000340: 00a4 40bc b2b6 ae3e ac6f 7cbe 06a2 9bbe
00000350: 30bd e23e 1819 e23e 3020 bebd 4800 bcbe
00000360: 541f c43e d8d8 6ebe c6a2 ed3e f8af ebbe
00000370: 9c63 ecbe 52f1 d53e 6ea4 8ebe 00dd e03d
00000380: d6d7 9bbe 8e76 883e aa5d a0be 580b 943d
00000390: f8d9 1bbe 582e ca3d f8ef be3e c075 8a3e
000003a0: 72be a63e 4045 6e3e 1048 8f3e bef5 80be
000003b0: aa75 97be 60e2 68be 9c00 e1be 4c91 b5be
000003c0: f87a 70be 948e be3e 202c 443e a087 763e
000003d0: 28cb 4d3e 1cb6 33be 34bf c6be 1a02 ddbe
000003e0: dc4a 85be 90e2 2cbe 267c e3be 2cff 873e
000003f0: b261 99be 7046 8abd baeb b4be 20a2 7fbe

layer1.bias f4 [128]
0.3243392 -0.49402976 -0.16478348 -0.18350565 -0.34038174 0.45243764 -0.17983884 0.37885255
0.31434262 0.30733103 0.11501497 -0.42707062 0.09772581 0.11663681 0.26162428 0.1254816
-0.09966767 0.056494176 -0.31678736 -0.26952714 0.05938387 -0.44441056 0.36283082 0.2060669
0.20673478 -0.06747669 -0.022953272 0.085001945 0.3343792 -0.23990494 -0.24912792 0.3857739
-0.0008304715 -0.21294159 0.41403228 0.35817796 -0.1382125 0.44906014 0.46102875 -0.4623307
-0.15994763 -0.19559771 -0.24780083 -0.12473172 -0.0212968 -0.36613888 0.050715387 0.19648951
-0.3280502 0.043301463 0.23690015 0.22603047 0.4922902 0.26969612 0.41639608 -0.3385741
0.4053321 -0.42524815 -0.32817578 -0.14970285 -0.219432 -0.40265 0.45391798 0.34401578
-0.22768342 0.3819458 -0.26196396 -0.12848324 0.4058048 0.43272513 -0.36973423 0.3624555
0.3369034 0.31353384 0.35713053 -0.20721203 -0.43516386 -0.052146077 -0.41208917 -0.3325897
0.0042566657 -0.034240127 -0.45439547 0.33216697 0.066922426 -0.19696319 -0.12058157 0.21490318
-0.44581884 0.14856428 0.19981122 0.21482188 -0.33330595 -0.32135886 -0.111733556 -0.14111996
-0.26645517 -0.28464848 -0.16054887 0.1203686 -0.43222338 -0.17013127 -0.23995769 -0.058539987
-0.07373822 0.0033542514 -0.29221928 -0.3735546 -0.121849835 0.0065906644 -0.050397098 -0.2833678
-0.23019773 0.23541129 -0.08052403 0.10049027 0.48051643 0.47839928 -0.4420346 -0.19888085
-0.27827674 -0.4387865 -0.34551615 0.14109641 0.4903301 0.21987784 -0.4882893 -0.030082047
00000000: ca0f a63e 78f1 fcbe 00bd 28be e8e8 3bbe
00000010: 8446 aebe e8a5 e73e ac27 38be f6f8 c13e
00000020: 84f1 a03e 7e5a 9d3e f88c eb3d 00a9 dabe
00000030: 7824 c83d 48df ee3d 9ef3 853e 407e 003e
00000040: 901e ccbd 7066 673d f431 a2be 76ff 89be
00000050: 803c 733d c889 e3be f6c4 b93e 3403 533e
00000060: 48b2 533e 3831 8abd 8008 bcbc 8015 ae3d
00000070: c033 ab3e a4a9 75be 641b 7fbe 2884 c53e
00000080: 00b4 59ba 5c0d 5abe 0afc d33e 1a63 b73e
00000090: 9487 0dbe 36eb e53e f60b ec3e 9cb6 ecbe
000000a0: 50c9 23be c44a 48be 80bf 7dbe 5873 ffbd
000000b0: a076 aebc 8e76 bbbe f0ba 4f3d 8c34 493e
000000c0: 32f6 a7be e05c 313d f495 723e 8874 673e
000000d0: 760d fc3e 9c15 8a3e de31 d53e 9659 adbe
000000e0: b087 cf3e 20ba d9be a806 a8be b44b 19be
000000f0: c8b2 60be 2428 cebe f067 e83e d622 b03e
00000100: d825 69be 668e c33e 2420 86be 1c91 03be
00000110: a6c5 cf3e 268e dd3e ce4d bdbe c493 b93e
00000120: 9a7e ac3e 8287 a03e d0d9 b63e 642f 54be
00000130: cccd debe 2097 55bd 5afd d2be 3249 aabe
00000140: 807b 8b3b 603f 0cbd 86a6 e8be ca11 aa3e
00000150: a00e 893d b8b0 49be 78f3 f6bd 940f 5c3e
00000160: 5e42 e4be 3c21 183e 509b 4c3e 44fa 5b3e
00000170: 14a7 aabe 2689 a4be 90d4 e4bd c081 10be
00000180: d06c 88be 72bd 91be ec66 24be d083 f63d
00000190: 624c ddbe e436 2ebe 78b7 75be a0c7 6fbd
000001a0: 1004 97bd 00d3 5b3b c49d 95be 8c42 bfbe
000001b0: 688c f9bd 80f6 d73b 306d 4ebd 9615 91be
000001c0: f4b8 6bbe a80f 713e c8e9 a4bd d8cd cd3d
000001d0: 4006 f63e c0f0 f43e 5c52 e2be 6ca7 4bbe
000001e0: 4a7a 8ebe a0a8 e0be 7ee7 b0be 947b 103e
000001f0: 8c0c fb3e a827 613e 0e01 fabe a06e f6bc

layer2.weight f4 [128, 128]
0.07713616 -0.021778625 0.026631739 -0.03947438 -0.073019646 0.02201213 0.017870137 -0.030159894
-0.0067911427 -0.0076944656 -0.052636124 0.03964483 0.006203605 0.068250775 0.068424545 -0.033996154
0.019846782 -0.023018626 -0.06317153 0.07056108 0.08176475 -0.08179965 0.0627513 -0.05838356
0.013958815 0.05525048 -0.015156428 0.05979092 -0.039477054 -0.076979846 -0.0035268061 -0.013022154
-0.060433164 0.06244122 -0.06742698 0.02146481 0.05717754 -0.06946631 0.024664978 -0.001038804
0.06424808 0.07856317 0.069632195 -0.005621336 -0.028802218 -0.058063973 0.04904301 0.06341293
0.008613625 -0.06541856 0.08178472 0.07667953 -0.057777323 -0.02944442 0.018237615 0.081007496
-0.073823944 -0.07204517 0.05722643 -0.06479187 0.011337091 -0.053424977 -0.03191314 0.019262457
-0.04547311 -0.034213886 -0.048067067 -0.047660265 0.054786623 -0.074337184 -0.06847326 -0.020095607
-0.07492112 0.082728796 -0.074406244 -0.0011889415 0.012592203 -0.060243536 -0.035880644 -0.07216035
0.030642433 -0.0008422415 0.0053482032 0.05861123 -0.050940935 -0.08601352 0.034928273 0.029980212
0.024171839 -0.035822164 -0.06070893 0.08701983 0.02560029 -0.030952666 0.07121508 0.08344931
0.0029922787 0.080545425 -0.077787824 -0.020536589 -0.008677815 -0.01745515 0.06538284 -0.05875706
0.046488248 0.039528295 0.08456433 -0.0679756 0.006926929 0.054282494 4.1830746e-05 0.048814226
-0.04799898 -0.029279636 0.055788074 -0.0047716238 -0.086935565 0.075629264 -0.028711086 -0.0084763
0.04972187 -0.06353339 -0.07705443 -0.048933525 -0.04958606 -0.013135402 -0.07718017 -0.0184093
0.022762816 0.0017153767 0.00019007175 -0.050787456 -0.049610622 -0.016089 0.053759255 0.060764797
-0.008235178 0.041815173 -0.046422858 0.0672075 -0.084085256 0.0054563307 -0.06949814 -0.0027824296
0.06917731 0.035472903 -0.056520335 0.013627488 -0.08670561 -0.059904233 -0.046173073 -0.034688763
0.028047832 0.061066903 -0.024914552 -0.028020415 -0.067447305 -0.043945022 0.046637688 0.0081529915
0.07907834 -0.058255646 -0.056121435 0.036858935 -0.00923703 -0.061548803 -0.011359134 -0.010644039
-0.0039040414 0.011914619 -0.07201426 -0.06602626 -0.05149366 -0.039865986 -0.05061888 -0.049780663
0.03988177 0.07686858 -0.07963664 -0.019854316 -0.035825875 -0.048571546 -0.032167118 -0.021514965
-0.0073982575 -0.026726285 -0.03408854 -0.041663032 0.017340962 0.036781847 0.0830836 0.066294566
0.044616412 0.05557551 0.05068248 0.08828435 -0.024823017 -0.033725295 0.035491303 -0.047244202
-0.08273935 -0.030732132 -0.07774313 -0.029121365 0.017609922 0.08131176 0.010522403 0.06469254
0.025387565 0.06421247 -0.07907427 -0.011827385 -0.008531039 -0.014445463 0.058975916 0.019154541
-0.0128158135 -0.01995277 0.041143574 -0.043156117 0.026809936 -0.047273684 -0.025550231 0.043962765
0.049344875 0.057492334 -0.009506274 0.07935472 0.08245384 -0.08342162 0.026771087 -0.045872986
-0.055250376 0.08685751 -0.030736875 -0.08695106 0.058270272 0.05838235 -0.06967966 -0.072414905
0.065674685 -0.045247823 0.011942773 -0.0058724363 -0.049525484 0.002919923 -0.08700071 -0.07081251
-0.07967819 0.07868746 0.08737244 -0.047971047 -0.033115525 0.023795962 0.034887884 -0.027687645
00000000: 90f9 9d3d 1669 b2bc ce2a da3c e3af 21bd
00000010: 538b 95bd c852 b43c 6564 923c e211 f7bc
00000020: 3c88 debb db21 fcbb fa98 57bd 9e62 223d
00000030: 9c47 cb3b 10c7 8b3d 2b22 8c3d 8d3f 0bbd
00000040: b895 a23c 8f91 bcbc 1360 81bd 5482 903d
00000050: 4774 a73d 9386 a7bd c183 803d 9a23 6fbd
00000060: 83b3 643c 544e 623d ab52 78bc 53e7 743d
00000070: b1b2 21bd 9ca7 9dbd fd21 67bb df5a 55bc
00000080: c488 77bd 5dc2 7f3d 2817 8abd f8d6 af3c
00000090: ff32 6a3d 5a44 8ebd 350e ca3c 7a28 88ba
000000a0: 7f94 833d bae5 a03d 539b 8e3d 2f33 b8bb
000000b0: a1f2 ebbc 7dd4 6dbd 53e1 483d a3de 813d
000000c0: 2920 0d3c 2afa 85bd bf7e a73d 280a 9d3d
000000d0: eaa7 6cbd 6d35 f1bc 0d67 953c 42e7 a53d
000000e0: 0231 97bd 6b8c 93bd 4366 6a3d 9ab1 84bd
000000f0: 35bf 393c 26d4 5abd 5ab7 02bd 4dcc 9d3c
00000100: 0342 3abd dc23 0cbd f9e1 44bd 6937 43bd
00000110: f067 603d 183e 98bd b53b 8cbd 8b9f a4bc
00000120: 3f70 99bd b76d a93d 4d62 98bd 42d6 9bba
00000130: 874f 4e3c edc1 76bd 95f7 12bd cec8 93bd
00000140: d705 fb3c dfc9 5cba fb3f af3b 5412 703d
00000150: 71a7 50bd db27 b0bd f310 0f3d 1099 f53c
00000160: 0504 c63c 43ba 12bd eda9 78bd 7437 b23d
00000170: b3b7 d13c 7290 fdbc 36d9 913d 79e7 aa3d
00000180: 1b1a 443b 00f5 a43d 394f 9fbd 593c a8bc
00000190: 652d 0ebc 1afe 8ebc 70e7 853d 3eab 70bd
000001a0: 766a 3e3d 6ce8 213d 1030 ad3d cb36 8bbd
000001b0: 4bfb e23b 5257 5e3d 6c73 2f38 6df1 473d
000001c0: 949a 44bd d9db efbc 0982 643d 485b 9cbb
000001d0: 460b b2bd 84e3 9a3d 8333 ebbc 2ee0 0abc
000001e0: 29a9 4b3d cb1d 82bd b7ce 9dbd 856e 48bd
000001f0: c11a 4bbd df35 57bc a310 9ebd 1acf 96bc
00000200: 1679 ba3c 7ed6 e03a ff4d 4739 8206 50bd
00000210: 8234 4bbd 14cd 83bc aa32 5c3d 82e4 783d
00000220: d7ec 06bc 6346 2b3d e525 3ebd 16a4 893d
00000230: e434 acbd 05cb b23b 0a55 8ebd 6c59 36bb
00000240: d5ac 8d3d 094c 113d de81 67bd d445 5f3c
00000250: b692 b1bd 245e 75bd fa1f 3dbd ce15 0ebd
00000260: 91c4 e53c 4a21 7a3d 9a19 ccbc 128b e5bc
00000270: d021 8abd b2ff 33bd 2907 3f3d 2094 053c
00000280: d3f3 a13d 799d 6ebd 97df 65bd 65f9 163d
00000290: e956 17bc 991a 7cbd a91b 3abc 5664 2ebc
000002a0: f2da 7fbb 8935 433c 367c 93bd c738 87bd
000002b0: 04eb 52bd 844a 23bd be55 4fbd cfe6 4bbd
000002c0: 115b 233d 466d 9d3d 8918 a3bd 85a5 a2bc
000002d0: 27be 12bd f5f2 46bd abc1 03bd 2740 b0bc
000002e0: 156d f2bb 15f1 dabc 6da0 0bbd dba6 2abd
000002f0: a20e 8e3c 90a8 163d bc27 aa3d 72c5 873d
00000300: b3bf 363d 25a3 633d 6f98 4f3d 6dce b43d
00000310: a459 cbbc 8923 0abd 545f 113d 2383 41bd
00000320: 4073 a9bd f4c1 fbbc ca37 9fbd ee8f eebc
00000330: af42 903c c886 a63d 2866 2c3c 867d 843d
00000340: 95f9 cf3c d481 833d b1f1 a1bd a6c7 41bc
00000350: c5c5 0bbc aaac 6cbc bb90 713d fce9 9c3c
00000360: 6bf9 51bc fe73 a3bc 2a86 283d 78c4 30bd
00000370: 83a0 db3c 0da2 41bd b84e d1bc 4d12 343d
00000380: da1d 4a3d 157d 6b3d 34c0 1bbc ba84 a23d
00000390: 8fdd a83d f4d8 aabd 0a4f db3c 50e5 3bbd
000003a0: 384e 62bd 5ae2 b13d e6cb fbbc 6613 b2bd
000003b0: cfac 6e3d 5522 6f3d 36b4 8ebd 444e 94bd
000003c0: 7380 863d c855 39bd 9fab 433c 916d c0bb
000003d0: 3cdb 4abd 2e5c 3f3b 6e2d b2bd 2606 91bd
000003e0: 522e a3bd e426 a13d 52f0 b23d 4a7d 44bd
000003f0: 25a4 07bd c0ef c23c 99e6 0e3d 33d1 e2bc

layer2.bias f4 [128]
0.03488242 -0.0767702 0.051184904 0.0048574135 -0.013592063 0.079426326 0.00037437992 -0.043800816
-0.06547544 -0.06008463 -0.0073612523 -0.06806664 -0.03577 -0.018025806 0.013202595 -0.067709774
0.032487717 -0.043974746 0.028854627 0.01760752 -0.018170318 0.05806979 -0.05898583 -0.0325202
0.07852779 -0.009744499 -0.082633935 0.04934181 0.0070159435 0.028560515 -0.027155815 0.041874737
-0.0779985 -0.043879822 -0.014968106 0.052299496 0.019882997 0.07057273 -0.08297886 0.024935666
0.036492553 0.009109261 0.027044494 0.08383651 0.0033797242 0.07750656 -0.043021522 0.03463781
-0.073964 -0.010730682 -0.076870695 0.011270836 -0.04073611 -0.052443396 0.011816501 0.034560192
0.01987559 -0.06255268 0.05095159 0.06962175 -0.027077727 0.037408035 0.083114386 -0.042585637
0.035103444 0.0066004912 -0.08681891 -0.011144585 -0.014122239 0.056988966 0.011983645 0.010043731
-0.030136218 0.06943179 0.0719093 -0.065557495 -0.06704771 -0.007282512 -0.07525294 0.023436671
-0.08318093 0.036927994 0.06513806 -0.076010756 -0.060182992 0.0174016 -0.06281588 -0.035691764
0.037660927 -0.0030659197 -0.05019517 -0.022511685 -0.005789997 0.031243384 -0.08835858 -0.07176404
0.022452543 0.025603356 0.053080827 0.003466125 0.049674 0.00290769 0.07471476 0.08553943
0.044933893 -0.08503511 -0.006854405 0.04408987 -0.08697013 -0.085177116 0.083462015 -0.070970505
-0.01858069 -0.03462881 -0.006559124 0.07764577 -0.0113198 -0.017253192 -0.08783393 0.0145424325
0.04957407 0.006467002 -0.052525435 -0.07826567 -0.021760123 -0.05167129 0.081332915 -0.042224366
00000000: dee0 0e3d b239 9dbd 43a7 513d f02a 9f3b
00000010: 3fb1 5ebc 45aa a23d 6c48 c439 7c68 33bd
00000020: fd17 86bd 4d1b 76bd a936 f1bb 8666 8bbd
00000030: 9083 12bd dbaa 93bc b24f 583c 6cab 8abd
00000040: d711 053d dd1e 34bd 8a60 ec3c a53d 903c
00000050: ebd9 94bc 97da 6d3d 209b 71bd e733 05bd
00000060: 2ed3 a03d 64a7 1fbc fb3b a9bd a31a 4a3d
00000070: 00e6 e53b bef7 e93c df75 debc d884 2b3d
00000080: adbd 9fbd 54bb 33bd c93c 75bc ff37 563d
00000090: abe1 a23c 6f88 903d d2f0 a9bd e245 cc3c
000000a0: 3779 153d 033f 153c 6a8c dd3c 7ab2 ab3d
000000b0: 5d7e 5d3b c2bb 9e3d 5637 30bd 60e0 0d3d
000000c0: 707a 97bd becf 2fbc 626e 9dbd 50a9 383c
000000d0: e8da 26bd e3ce 56bd ff99 413c fd8e 0d3d
000000e0: 22d2 a23c 9f1b 80bd 9db2 503d d995 8e3d
000000f0: 1cd2 ddbc 2b39 193d e037 aa3d 476e 2ebd
00000100: a1c8 0f3d ef48 d83b 1dce b1bd c797 36bc
00000110: f760 67bc 436d 693d 0d57 443c 768e 243c
00000120: 3be0 f6bc 4132 8e3d 2f45 933d 0243 86bd
00000130: 4f50 89bd 23a2 eebb 371e 9abd 43fe bf3c
00000140: c35a aabd cf41 173d 1a67 853d 87ab 9bbd
00000150: 7182 76bd cd8d 8e3c 9da5 80bd 8731 12bd
00000160: 5842 1a3d 99ed 48bb 7399 4dbd 6d6a b8bc
00000170: 04ba bdbb 20f2 ff3c 58f5 b4bd 06f9 92bd
00000180: 65ee b73c 21be d13c 486b 593d ee27 633b
00000190: f776 4b3d f18e 3e3b 0d04 993d 4c2f af3d
000001a0: 9a0c 383d e326 aebd eb9a e0bb 9497 343d
000001b0: 651d b2bd 5771 aebd 22ee aa3d fc58 91bd
000001c0: 8836 98bc f0d6 0dbd eced d6bb bf04 9f3d
000001d0: af76 39bc 9156 8dbc 47e2 b3bd 6243 6e3c
000001e0: 2e0e 4b3d 25e9 d33b e924 57bd c049 a0bd
000001f0: 4942 b2bc 46a5 53bd df91 a63d 75f3 2cbd
