custom_maze/static/custom_maze/run/jknjkjksfd/trained_model.pth (torch, 146066 bytes, 12 tensors)

layer1.weight f4 [128, 4]
-0.06498855 -0.19178951 0.03361982 -0.13498122 0.26568258 0.03338474 0.19793308 -0.49686098
0.48215383 -0.11739665 0.4452045 -0.18752241 0.19258785 -0.088413954 -0.21885002 -0.21686995
0.3039627 0.19751585 -0.45032692 -0.49911022 -0.49844897 -0.3609668 0.41658247 0.36526412
0.36400038 0.40533382 -0.18911779 0.13362312 0.290927 0.32434207 -0.02614677 0.3873099
-0.15831906 -0.078258514 0.03141296 0.36630315 0.41399014 -0.1083141 -0.20449948 -0.09899175
0.103943884 -0.04008317 0.27765477 0.4713667 -0.33587444 0.47038025 -0.048014164 0.038451254
-0.060570896 0.45892823 -0.22583216 -0.13047987 0.33353812 0.16461569 -0.014530659 0.3417983
0.26013726 -0.07029873 0.4486791 -0.17395574 0.29529595 -0.49487394 -0.26349044 -0.024328053
-0.16873437 -0.11592764 0.41121435 0.4700384 -0.19057697 -0.14491326 -0.24256843 0.13279104
-0.2881871 0.48269093 0.33627355 -0.039771795 -0.48571634 -0.37037927 -0.36227947 0.41235787
0.297031 -0.35197556 -0.38905877 0.45688987 -0.029333591 -0.359851 0.33196938 0.25314754
0.43574518 -0.26466548 0.20630735 0.012184799 -0.42782593 -0.12307531 -0.33431923 -0.38274473
-0.07219523 0.48860472 0.1054827 0.05178088 -0.32324684 -0.33734322 -0.085038185 -0.09105635
-0.15211475 0.3886642 0.48359144 0.2786442 -0.32019365 -0.16755933 0.3740393 -0.09097707
0.09109223 -0.45934904 -0.28417426 -0.014967024 0.12126809 -0.29134107 0.10566491 -0.3854509
0.38775927 0.04563278 0.3716451 -0.39570916 -0.24961466 -0.4014212 -0.13110828 -0.09815019
-0.10970032 0.065451145 -0.39455098 -0.24944007 -0.4730997 -0.11236036 0.0084296465 -0.48884892
-0.02354014 0.34859407 0.2201423 -0.015680075 -0.064698994 -0.46558422 -0.3322941 -0.0625934
0.32902634 -0.3805747 0.37791497 -0.2710145 0.20450544 0.3241542 -0.37780327 -0.050953507
-0.15607327 -0.23331761 0.15013844 -0.03209734 0.4448322 -0.49485415 0.16514814 0.086848915
0.38285768 -0.17907155 0.3098927 -0.24499089 -0.078951 -0.40607405 -0.14756405 0.07719457
-0.022266567 0.18999153 0.25128782 0.46079016 -0.21854031 0.43890715 -0.25794637 -0.19016778
-0.26272553 -0.28735644 0.16600996 -0.4684816 0.41755235 0.29068977 0.014375448 -0.043810666
0.38879704 0.15801382 0.24862987 -0.07858467 0.20849305 -0.15019602 0.16917914 -0.03666359
-0.030493557 -0.2882868 -0.28850067 0.39263332 -0.08252275 -0.39532387 -0.47164524 -0.31511486
-0.24205011 -0.42078924 0.2524197 0.49882257 0.39596796 0.1998496 -0.17467618 -0.050784647
0.030377746 -0.2794615 -0.40577143 0.27523333 0.1821925 -0.28311503 0.016506612 -0.20004469
0.42016876 -0.109173596 -0.22345132 0.07223272 -0.37379104 -0.1148209 0.14590508 0.11227542
-0.1974464 -0.22884697 0.107515275 -0.08793324 -0.39669812 -0.4318143 -0.32330132 -0.23431778
-0.4998181 -0.41613317 -0.45312274 -0.15779895 0.20770204 -0.3070935 0.06269479 0.0693149
-0.30836362 0.14704865 -0.35415298 0.48871946 0.23298597 -0.18094105 -0.41463798 0.31219792
0.33351016 -0.21146303 0.48923552 -0.32450646 0.12595904 0.4499994 0.24915588 -0.1797806
00000000: b818 85bd 7864 44be f0b4 093d 8438 0abe
00000010: 8c07 883e 70be 083d f8ae 4a3e 9064 febe
00000020: dedc f63e a86d f0bd d8f1 e33e e005 40be
00000030: c035 453e 6012 b5bd 381a 60be 2813 5ebe
00000040: 00a1 9b3e 9841 4a3e 4091 e6be 608b ffbe
00000050: b434 ffbe a4d0 b8be 4c4a d53e e603 bb3e
00000060: 425e ba3e ea87 cf3e 18a8 41be 80d4 083e
00000070: 62f4 943e 2a10 a63e c031 d6bc 7c4d c63e
00000080: 641e 22be 0046 a0bd e0aa 003d 168c bb3e
00000090: 84f6 d33e c8d3 ddbd 5068 51be 30bc cabd
000000a0: 88e0 d43d 402e 24bd c428 8e3e fa56 f13e
000000b0: bcf7 abbe aed5 f03e 80aa 44bd 107f 1d3d
000000c0: 3019 78bd a4f8 ea3e 8c40 67be 849c 05be
000000d0: 82c5 aa3e 0491 283e 0012 6ebc 3000 af3e
000000e0: b630 853e c8f8 8fbd 44b9 e53e 7421 32be
000000f0: 0831 973e 1e60 fdbe 38e8 86be a04b c7bc
00000100: b4c8 2cbe 786b edbd b08a d23e e0a8 f03e
00000110: 9c26 43be 2464 14be dc63 78be 60fa 073e
00000120: 428d 93be 4423 f73e 0c2c ac3e c0e7 22bd
00000130: d0af f8be 5aa2 bdbe b27c b9be 9220 d33e
00000140: 7214 983e 2436 b4be b632 c7be 78ed e93e
00000150: 004d f0bc 643e b8be e4f7 a93e 8e9c 813e
00000160: fe19 df3e 3c82 87be 3c42 533e c0a2 473c
00000170: 000c dbbe e80e fcbd e42b abbe 1ef7 c3be
00000180: 18db 93bd 662a fa3e 5007 d83d 3018 543d
00000190: 9c80 a5be 40b8 acbe 8028 aebd c07b babd
000001a0: f8c3 1bbe fefe c63e 4c99 f73e 74aa 8e3e
000001b0: 6cf0 a3be ac94 2bbe 1482 bf3e 3052 babd
000001c0: 908e ba3d cc2f ebbe 4a7f 91be 4038 75bc
000001d0: 685b f83d a82a 95be d866 d83d d259 c5be
000001e0: 6288 c63e 70e9 3a3d 4448 be3e 649a cabe
000001f0: fc9a 7fbe 1487 cdbe 4041 06be f802 c9bd
00000200: 90aa e0bd 400b 863d 9602 cabe 386d 7fbe
00000210: 203a f2be 301d e6bd 801c 0a3c 684a fabe
00000220: 40d7 c0bc ec7a b23e fc6c 613e 8073 80bc
00000230: e880 84bd 0e61 eebe 7422 aabe f830 80bd
00000240: 2476 a83e b0da c2be 127e c13e 6ac2 8abe
00000250: e069 513e 8af7 a53e 6e6f c1be a0b4 50bd
00000260: acd1 1fbe d0ea 6ebe e4bd 193e 8078 03bd
00000270: 0cc1 e33e 865d fdbe 981c 293e d8dd b13d
00000280: ec05 c43e 885e 37be 42aa 9e3e e4de 7abe
00000290: 10b1 a1bd f0e8 cfbe 081b 17be 3018 9e3d
000002a0: 6068 b6bc 248d 423e cca8 803e b0ec eb3e
000002b0: 08c9 5fbe 70b8 e03e 8c11 84be 58bb 42be
000002c0: f683 86be 6220 93be 84fe 293e d2dc efbe
000002d0: 6cc9 d53e 4ad5 943e 0087 6b3c d072 33bd
000002e0: 6810 c73e 60ce 213e d498 7e3e 00f1 a0bd
000002f0: 347f 553e fccc 19be 4c3d 2d3e 902c 16bd
00000300: a0cd f9bc 549a 93be 5cb6 93be 3c07 c93e
00000310: b001 a9bd e467 cabe 7c7b f1be bc56 a1be
00000320: fcdb 77be b071 d7be 283d 813e ac65 ff3e
00000330: 50bc ca3e 60a5 4c3e 50de 32be 9003 50bd
00000340: c0da f83c 9415 8fbe 46c1 cfbe 62eb 8c3e
00000350: ac90 3a3e 74f4 90be e038 873c 84d8 4cbe
00000360: 5c20 d73e 6896 dfbd 6cd0 64be c0ee 933d
00000370: 8a61 bfbe 3827 ebbd 2468 153e a8f0 e53d
00000380: 642f 4abe dc56 6abe f830 dc3d 5816 b4bd
00000390: 041c cbbe c416 ddbe c087 a5be 00f1 6fbe
000003a0: 28e8 ffbe 680f d5be b4ff e7be 0c96 21be
000003b0: d8af 543e 5c3b 9dbe 2066 803d f8f4 8d3d
000003c0: d6e1 9dbe ec93 163e 8a53 b5be 7039 fa3e
000003d0: e093 6e3e 9c48 39be 6e4b d4be 68d8 9f3e
000003e0: d8c1 aa3e c489 58be 147d fa3e b625 a6be
000003f0: 68fb 003e 5266 e63e b822 7f3e 6818 38be

layer1.bias f4 [128]
0.2920515 -0.4668004 0.12936234 -0.3359195 0.33000457 0.38634765 0.06771481 0.26625645
-0.21658957 0.29420853 0.48138863 0.30019146 -0.029143453 0.13036978 -0.019669652 0.39848626
-0.14056212 -0.13241452 0.08344662 0.007379353 -0.26572776 0.10476363 -0.31042695 0.22876948
0.035161734 -0.12098336 0.22117656 -0.30040473 -0.0440526 -0.2743175 0.021705925 -0.21914428
-0.3242123 -0.15227365 0.33407736 -0.10445756 -0.051850915 -0.46643895 0.34875387 0.344743
0.0036848187 0.16003823 0.32285255 -0.12755209 0.36726695 -0.06256896 0.2718041 0.109921455
0.33067548 0.046702206 0.45737982 0.25134814 -0.4304573 0.31655133 -0.28187525 0.37788504
-0.37438267 -0.27217448 0.20155269 0.33840275 -0.3929454 -0.36832678 -0.22707778 -0.45495713
-0.49390864 -0.14635366 -0.39969122 -0.32900983 -0.016834676 -0.3603298 0.42367893 0.0038369298
-0.024329424 0.04886329 0.08840811 0.38539398 0.0010225773 -0.4086743 0.09598851 -0.36753547
-0.34740615 -0.2841096 0.39938438 0.036999166 -0.49275553 -0.39801425 0.10226941 0.18001002
0.06424153 0.33224547 0.38468337 0.42374474 0.2457608 0.38238 0.018679678 0.45234615
0.023709416 -0.39005792 0.045050204 -0.08028388 0.16191566 0.047017634 0.30062187 0.072882116
0.46082586 0.23383582 -0.3654456 0.3939882 0.31058472 0.12309945 0.32919294 -0.4142999
-0.26649135 -0.0043281913 -0.233957 0.2948078 0.059321225 -0.18050432 -0.073521554 0.07229608
0.35952824 -0.37956393 -0.33028746 -0.4071933 -0.00022006035 -0.03848958 0.106966615 0.09608382
00000000: c687 953e 7600 efbe 9077 043e a4fd abbe
00000010: 5cf6 a83e 5ccf c53e 10ae 8a3d c452 883e
00000020: a8c9 5dbe 80a2 963e 9278 f63e b2b2 993e
00000030: 40be eebc a87f 053e 4022 a1bc 6406 cc3e
00000040: 84ef 0fbe ac97 07be 10e6 aa3d 80ce f13b
00000050: 780d 88be 508e d63d 48f0 9ebe 8c42 6a3e
00000060: c005 103d 20c6 f7bd 1c7c 623e a6ce 99be
00000070: 8070 34bd 5873 8cbe a0d0 b13c 5c67 60be
00000080: 28ff a5be a0ed 1bbe 300c ab3e d8ed d5bd
00000090: a061 54bd 16d1 eebe de8f b23e 2882 b03e
000000a0: 007d 713b 10e1 233e ee4c a53e 049d 02be
000000b0: 6a0a bc3e 2824 80bd e829 8b3e 801e e13d
000000c0: 4c4e a93e d04a 3f3d b02d ea3e b4b0 803e
000000d0: e664 dcbe 0413 a23e f451 90be 267a c13e
000000e0: 16af bfbe 745a 8bbe d463 4e3e 2043 ad3e
000000f0: 2430 c9be 5495 bcbe 1487 68be 24f0 e8be
00000100: 98e1 fcbe bcdd 15be 54a4 ccbe fa73 a8be
00000110: e0e8 89bc 267d b8be 72ec d83e 0075 7b3b
00000120: 804e c7bc e024 483d 500f b53d 5c52 c53e
00000130: 0008 863a c23d d1be a095 c43d 9c2d bcbe
00000140: 38df b1be d076 91be 1c7c cc3e 708c 173d
00000150: 744a fcbe 86c8 cbbe a072 d13d 8c54 383e
00000160: 1091 833d 141c aa3e 38f5 c43e 12f5 d83e
00000170: b8a8 7b3e 50c7 c33e 2006 993c ea99 e73e
00000180: 403a c23c acb5 c7be 9086 383d e06b a4bd
00000190: 38cd 253e 9095 403d 1ceb 993e 3843 953d
000001a0: 5ef1 eb3e a872 6f3e b01b bbbe d2b8 c93e
000001b0: f604 9f3e 901b fc3d fa8b a83e 1e1f d4be
000001c0: 8e71 88be 80d3 8dbb 6c92 6fbe 0cf1 963e
000001d0: d0fa 723d 20d6 38be 7892 96bd f80f 943d
000001e0: 1614 b83e 3456 c2be 701b a9be a47b d0be
000001f0: 00c0 66b9 40a7 1dbd 5011 db3d 98c7 c43d

layer2.weight f4 [128, 128]
0.023816593 0.06420842 0.07368108 0.06600342 0.051494427 -0.06501064 0.014958665 -0.053680733
0.045144785 0.08432931 -0.044756044 -0.07263086 0.065176815 0.06649412 -0.026364285 0.047258556
-0.06148834 0.042489164 0.01004824 0.087578654 -0.08082386 -0.08579162 -0.038445387 0.049981695
-0.048188705 -0.056137905 0.05297572 0.05398497 -0.08743101 0.06599625 0.07646844 -0.06321385
0.03762547 -0.06481606 0.0779083 -0.036392864 0.05428378 -0.0034163813 0.062431484 0.035036232
0.032238144 0.07295145 -0.046671692 -0.05890538 0.040230263 0.0859468 0.08246233 -0.0067157527
-0.033919245 -0.051646907 0.0005452748 -0.0677535 0.048577655 0.005408663 0.007774787 0.020164812
-0.005281474 -0.032131143 0.024185441 -0.0053530815 0.069024764 -0.08805773 -0.026335469 -0.047420356
-0.008717918 0.016961789 -0.015895842 0.06793258 0.011680156 0.017228536 -0.053862154 0.04364503
-0.012603561 -0.024405753 0.012103099 -0.02994799 -0.0077718156 0.06585499 0.077276655 -0.07716011
-0.06383602 -0.045313288 0.017528316 0.0041329516 0.0025848977 0.0724548 -0.05404526 -0.08381705
-0.050639912 -0.032975692 0.046013862 0.07039703 0.087271094 -0.07906928 -0.0225202 -0.07438001
-0.06694491 -0.02479614 0.062192447 0.08791406 -0.05888255 0.07986168 0.007485765 0.016378202
0.004118632 -0.026429845 0.05759117 -0.0022848332 -0.013627003 0.04050349 -0.024556356 0.017845355
0.08836662 0.0030443617 -0.04526246 -0.04207469 0.021853015 0.003819242 -0.08031949 -0.06698845
-0.00252153 -0.02719637 -0.013283317 -0.069962375 0.030834582 0.03243693 -0.037979558 0.05664885
-0.000105346044 -0.0030534337 -0.034443077 0.0758043 -0.05631395 0.025297318 -0.047301427 -0.051968854
0.00029789392 0.0026787694 0.06990274 0.009708305 -0.068020724 0.033854708 -0.01989973 0.06919227
0.024505906 0.07316152 0.052394073 -0.03337884 0.063060015 0.081268616 -0.019080605 -0.028337717
0.00027888568 0.027188426 -0.08184316 -0.060365666 -0.03542173 -0.08115493 -0.02569805 0.06977347
0.061400972 -0.025730219 -0.05872392 0.054956127 -0.011520272 -0.015957503 0.08249885 -0.08377334
-0.06380506 -0.04280984 0.0598339 0.040866047 0.04457281 0.053249676 -0.0816826 -0.08081362
-0.022049723 -0.00883929 -0.07666228 -0.06765579 0.033275746 0.040164102 -0.08768407 0.041926008
0.041821253 0.0560744 0.085929774 0.07969627 0.006897321 -0.0112042865 0.021276245 0.04261177
-0.039814737 -0.023102436 -0.06694767 0.08381403 0.08682646 0.02708247 0.04704778 -0.024735648
0.0858705 0.047687292 -0.0021575603 0.012263542 -0.073842205 -0.0020479364 0.06704746 -0.03210832
0.02997369 -0.053556327 -0.02193125 0.024146128 0.029102914 0.014689494 -0.039339732 0.04148825
0.052895833 -0.012672946 -0.051905245 0.06820685 0.07257708 -0.0063037565 0.028552594 -0.013282105
0.07125253 0.07707055 -0.07137087 -0.075541325 0.07362775 0.056067318 0.082102165 -0.063514635
-0.045595102 -0.04140345 -0.038150124 0.050286848 0.015682051 -0.022537753 0.064847454 0.08596126
0.037486818 0.06884333 0.045049608 0.00877018 0.08700061 0.042185023 -0.08246525 -0.02812082
0.04206935 -0.07660334 0.019865064 0.061539393 0.028363796 0.010090229 -0.054067526 -0.03556275
00000000: 041b c33c b47f 833d 1be6 963d cd2c 873d
00000010: d2eb 523d 4c24 85bd 3015 753c 54e0 5bbd
00000020: bde9 383d d8b4 ac3d 1d52 37bd 7dbf 94bd
00000030: 6c7b 853d 122e 883d eaf9 d7bc 3092 413d
00000040: 33db 7bbd 1e09 2e3d 60a1 243c 705c b33d
00000050: fb86 a5bd 84b3 afbd e978 1dbd 9bb9 4c3d
00000060: 8561 45bd dcf0 65bd 12fd 583d 581f 5d3d
00000070: 080f b3bd 0b29 873d 7c9b 9c3d 4376 81bd
00000080: 2a1d 1a3d 48be 84bd 638e 9f3d af10 15bd
00000090: ab58 5e3d 5ee5 5fbb 28b8 7f3d 2782 0f3d
000000a0: 250c 043d 9267 953d d12a 3fbd c546 71bd
000000b0: 7dc8 243d e004 b03d 03e2 a83d d10f dcbb
000000c0: e8ee 0abd b58b 53bd c6f0 0e3a 59c2 8abd
000000d0: 5df9 463d 273b b13b a4c3 fe3b ad30 a53c
000000e0: 3710 adbb f29b 03bd 8c20 c63c e768 afbb
000000f0: db5c 8d3d 9c57 b4bd 7bbd d7bc d93b 42bd
00000100: 99d5 0ebc 73f3 8a3c ff37 82bc 3d20 8b3d
00000110: 205e 3f3c dc22 8d3c 909e 5cbd 22c5 323d
00000120: 2b7f 4ebc 93ee c7bc 144c 463c 7d55 f5bc
00000130: b7aa febb fbde 863d 3943 9e3d 1f06 9ebd
00000140: 76bc 82bd 6d9a 39bd 8b97 8f3c b66d 873b
00000150: 6367 293b 2f63 943d 905e 5dbd 46a8 abbd
00000160: cc6b 4fbd 8511 07bd 0879 3c3d 512c 903d
00000170: 30bb b23d 13ef a1bd 487c b8bc 8c54 98bd
00000180: 6a1a 89bd 4621 cbbc 82bd 7e3d 490c b43d
00000190: d42e 71bd 858e a33d 264b f53b 942b 863c
000001a0: 97f5 863b 6783 d8bc b8e4 6b3d 24bd 15bb
000001b0: cb43 5fbc fde6 253d 692a c9bc 6c30 923c
000001c0: 8ff9 b43d ea83 473b 2165 39bd 8356 2cbd
000001d0: 1805 b33c 3f4c 7a3b 8b7e a4bd 3e31 89bd
000001e0: 4140 25bb ecca debc 45a2 59bc 6f48 8fbd
000001f0: ce98 fc3c 96dc 043d 7490 1bbd a008 683d
00000200: 3aed dcb8 1e1c 48bb 2f14 0dbd 493f 9b3d
00000210: 75a9 66bd 523c cf3c 24bf 41bd 4bdd 54bd
00000220: a52e 9c39 4b8e 2f3b 2b29 8f3d 950f 1f3c
00000230: 734e 8bbd 3cab 0a3d c204 a3bc adb4 8d3d
00000240: 9cc0 c83c b5d5 953d 2b9b 563d 40b8 08bd
00000250: 9c25 813d 2970 a63d ee4e 9cbc 8024 e8bc
00000260: 6737 9239 43ba de3c 639d a7bd fd41 77bd
00000270: 6016 11bd 8e34 a6bd b884 d2bc 65e5 8e3d
00000280: 967f 7b3d 2ec8 d2bc 7e88 70bd ad19 613d
00000290: 86bf 3cbc 4fb9 82bc 28f5 a83d 5b91 abbd
000002a0: 3aac 82bd 5f59 2fbd 6414 753d 2863 273d
000002b0: fb91 363d 551c 5a3d 3549 a7bd 9c81 a5bd
000002c0: 9fa1 b4bc abd2 10bc 1d01 9dbd 1e8f 8abd
000002d0: 264c 083d 1d83 243d b593 b3bd 9bba 2b3d
000002e0: c34c 2b3d 45ae 653d f3fb af3d cc37 a33d
000002f0: ec02 e23b 2f92 37bc 854b ae3c ae89 2e3d
00000300: c714 23bd 5241 bdbc dc1b 89bd b1a6 ab3d
00000310: 12d2 b13d 0edc dd3c 2cb5 403d 6aa2 cabc
00000320: dfdc af3d c053 433d db65 0dbb 06ed 483c
00000330: 953a 97bd ac36 06bb 2e50 893d 0484 03bd
00000340: 628b f53c e15d 5bbd 2aa9 b3bc 1ace c53c
00000350: 3c69 ee3c 34ac 703c b322 21bd 95ef 293d
00000360: 4da9 583d 30a2 4fbc 989a 54bd 08b0 8b3d
00000370: 4ba3 943d be8f cebb 21e7 e93c 309d 59bc
00000380: d9ec 913d 2ad7 9d3d e42a 92bd 69b5 9abd
00000390: 25ca 963d d8a6 653d 2e25 a83d f613 82bd
000003a0: eec1 3abd aa96 29bd 4e43 1cbd 95f9 4d3d
000003b0: a577 803c 18a1 b8bc bece 843d 750c b03d
000003c0: c78b 193d bbfd 8c3d f085 383d cdb0 0f3c
000003d0: 602d b23d 34ca 2c3d 8ae3 a8bd a25d e6bc
000003e0: e950 2c3d 36e2 9cbd 0fbc a23c bb10 7c3d
000003f0: 315b e83c 7d51 253c e975 5dbd 3faa 11bd

layer2.bias f4 [128]
0.055847514 0.05484446 -0.050787836 0.010917329 0.0008608388 0.07154957 -0.010717691 0.052687794
-0.052787505 -0.0547563 -0.039921556 0.07676037 0.046673503 -0.07469517 0.005862005 0.026421702
-0.08020076 0.029973416 0.015225254 0.00079562713 0.081962556 0.00063178124 -0.00992868 -0.020411013
-0.052616745 0.0049599465 0.008339449 0.057394788 -0.029699704 -0.00583737 0.038238686 -0.00014931575
-0.083763 0.08292464 0.04447838 -0.036593556 0.07354771 0.020450735 0.031609166 0.028186359
0.055644386 0.02641796 0.08822531 0.033671044 -0.07616942 -0.04039101 0.011596126 -0.041946936
-0.005759999 0.030499777 -0.04632049 0.047817748 0.082907654 -0.08343472 0.008949852 -0.063884854
-0.020361817 0.06350608 0.00827722 -0.020932337 0.0029279836 0.06358392 -0.07663598 -0.046685506
-0.08407353 -0.0022393041 0.04641078 -0.053964604 -0.019614711 -0.02742096 0.08529186 -0.031663124
0.06601321 0.040940963 0.05203846 0.03802397 -0.08301105 0.046024673 0.039780535 0.040698323
0.015247824 -0.06204861 -0.018288223 -0.08701468 0.006539663 -0.06946361 0.0822181 -0.0028223952
-0.012447587 -0.017437689 0.02267768 0.0178533 -0.08263316 0.077979185 -0.0017509486 0.075686656
-0.08584108 0.023344949 -0.04105204 0.06788047 -0.042375263 -0.026666226 -0.08047727 -0.07756222
-0.06431079 0.042927735 0.0010814565 0.00038665519 0.06689694 0.002917468 0.06015162 -0.045911457
-0.08132297 -0.07215506 0.04761911 0.016771369 -0.025155978 0.016167583 -0.03600796 -0.0033435305
0.0016460347 0.048814796 -0.049455006 0.007188988 0.0484356 0.06791849 0.073237784 -0.0675483
00000000: 5dc0 643d 96a4 603d e806 50bd 99de 323c
00000010: eaa9 613a 9588 923d 4199 2fbc 28cf 573d
00000020: b637 58bd 2448 60bd c984 23bd 8a34 9d3d
00000030: b72c 3f3d c8f9 98bd 1016 c03b 5372 d83c
00000040: 4c40 a4bd cf8a f53c 5873 793c a291 503a
00000050: fcdb a73d 1f9e 253a e7ab 22bc ff34 a7bc
00000060: a884 57bd 0c87 a23b 2fa2 083c cc16 6b3d
00000070: cb4c f3bc 6947 bfbb 2ba0 1c3d a491 1cb9
00000080: f08b abbd 65d4 a93d f62e 363d 20e3 15bd
00000090: 2fa0 963d 4d88 a73c 9d78 013d 14e7 e63c
000000a0: 5eeb 633d 7a6a d83c 79af b43d a6ea 093d
000000b0: b6fe 9bbd 0b71 25bd adfd 3d3c 8dd0 2bbd
000000c0: 60be bcbb abda f93c 8eba 3dbd 8bdc 433d
000000d0: 7dcb a93d d3df aabd 66a2 123c 10d6 82bd
000000e0: d3cd a6bc 7a0f 823d 2d9d 073c 4b7a abbc
000000f0: 6ae3 3f3b 4938 823d 53f3 9cbd 4d39 3fbd
00000100: be2e acbd 4ac1 12bb 3b19 3e3d fd09 5dbd
00000110: 08af a0bc eca1 e0bc 80ad ae3d 31b1 01bd
00000120: ef31 873d b6b1 273d 4826 553d 06bf 1b3d
00000130: b301 aabd 5e84 3c3d eaf0 223d 49b3 263d
00000140: 02d2 793c af26 7ebd 2fd1 95bc c134 b2bd
00000150: ab4a d63b f042 8ebd f761 a83d eff7 38bb
00000160: f7f0 4bbc 7cd9 8ebc 8bc6 b93c 1541 923c
00000170: 933b a9bd 8db3 9f3d 1680 e5ba 9b01 9b3d
00000180: 73cd afbd e83d bf3c 2f26 28bd ea04 8b3d
00000190: af91 2dbd 2173 dabc 44d1 a4bd f1d8 9ebd
000001a0: 60b5 83bd fed4 2f3d a9bf 8d3a fbb7 ca39
000001b0: 4301 893d fe32 3f3b 8c61 763d a70d 3cbd
000001c0: a88c a6bd 08c6 93bd 420c 433d 1c64 893c
000001d0: e913 cebc e171 843c 157d 13bd 221f 5bbb
000001e0: c2bf d73a 06f2 473d 5591 4abd 9a91 eb3b
000001f0: 6864 463d d918 8b3d b1fd 953d c356 8abd

layer3.weight f4 [4, 128]
-0.024268335 0.070373006 -0.035945285 -0.07410056 0.064004876 -0.027252574 -0.03010741 0.037613723
0.0829649 0.029438898 0.0028192764 0.044062927 -0.033363834 0.04645812 0.028779712 -0.006276182
0.0067148358 0.013550549 0.068245 -0.046881676 -0.025808496 0.08682966 0.016135879 0.037394308
-0.076293886 0.029840928 0.08243255 -0.082540914 -0.081055574 -0.024835473 -0.079974696 -0.078166485
0.052555453 -0.025174165 -0.068182565 0.010031098 0.042904817 0.06873487 -0.06536043 -0.040929448
-0.057647943 -0.0046271863 -0.06797812 0.0457663 -0.06395283 -0.041434545 -0.0407247 -0.06714994
0.0116983 -0.03656613 0.023811769 -0.023499692 -0.076087534 0.05872721 0.057841953 -0.017885352
-0.058452472 -0.0642683 -0.032689527 0.029930037 -0.0056333584 -0.044341307 0.0404095 0.050626982
-0.01790551 0.032482523 0.010342858 0.081305824 -0.053334117 0.0117799705 0.03344976 -0.020747544
-0.06274337 -0.026059533 0.021550432 0.021159299 0.024682343 -0.07629157 0.061431453 -0.011147125
-0.05187964 -0.04696044 0.05891713 0.080373056 0.018834563 0.072628036 0.0626108 -0.07220724
0.054028478 -0.020935351 -0.038676698 0.014803922 0.04272346 -0.033272754 0.058532394 -0.04918021
0.058649234 0.07843497 0.037547205 0.07715971 0.050934665 0.017190246 0.05535471 -0.051957138
0.049881447 -0.06385252 0.07582031 0.017790932 0.06782417 -0.05956637 0.05489039 0.070801534
-0.06294538 0.074419826 0.081861004 -0.014515912 -0.01277844 -0.05337226 0.0102663925 0.060334098
0.044361707 0.016901191 0.028878747 0.081631534 0.061840184 0.026541797 -0.0033399903 -0.051624134
0.08724076 0.07010282 0.023554513 -0.022629611 -0.016121633 0.08739939 -0.007001329 0.04480427
0.015014013 -0.029041812 -0.0030911237 -0.038070932 -0.03213359 0.062177517 0.02857374 -0.084770605
0.013174504 0.064102635 0.035573974 -0.04080521 0.07292815 -0.08781615 -0.02153704 0.05178972
0.018841136 -0.013129881 -0.024717366 0.045819364 -0.044822246 0.031518467 -0.08752527 0.025344828
-0.009772769 -0.05715753 -0.052675024 -0.06008327 0.019639589 0.076744854 0.08121146 -0.0051801214
0.035790913 -0.00796272 0.080167405 -0.035621926 -0.06328915 0.029870735 0.031655136 -0.075790055
0.009458775 0.05658993 0.07526327 -0.013973377 0.039514165 0.01727439 -0.038215537 0.0019700911
0.027108062 0.0026376657 0.08201685 -0.07929555 -0.03902717 0.07736301 -0.012071237 0.031277217
0.013392309 0.009364829 -0.045542262 -0.0033658578 -0.07302145 0.057581868 0.017953113 0.07413479
0.009858654 0.04755725 0.004108538 0.073603235 -0.044695996 0.06592149 0.0017002143 0.062241107
0.0137151005 0.063347965 -0.007973183 0.045839574 -0.059238575 -0.063121065 0.017538525 -0.011917938
0.07069412 0.05442979 -0.064265154 0.002236417 0.0017434465 0.05474063 -0.042390898 -0.027341282
0.08001741 0.03241592 -0.0612441 0.03887935 -0.06763618 0.06254708 0.019156206 -0.07342255
0.02940908 0.051006105 0.075130194 -0.06771295 -0.0013611219 -0.04783351 0.07032417 -0.042533375
-0.047199737 -0.051691066 -0.041678123 -0.001891245 -0.036419746 -0.044455327 0.030597843 0.08278594
-0.010511972 0.07141548 0.038201038 0.01922875 -0.003028251 0.06776935 -0.029769951 0.08326361
00000000: 63ce c6bc b91f 903d 5d3b 13bd 09c2 97bd
00000010: fd14 833d ca40 dfbc d1a3 f6bc d910 1a3d
00000020: 80e9 a93d d829 f13c 9cc3 383b 547b 343d
00000030: 84a8 08bd df4a 3e3d 6ec3 eb3c 6ea8 cdbb
00000040: 2008 dc3b 1f03 5e3c 09c4 8b3d 0007 40bd
00000050: 576c d3bc c0d3 b13d 642f 843c c62a 193d
00000060: f83f 9cbd f674 f43c 66d2 a83d 360b a9bd
00000070: 7700 a6bd c373 cbbc c6c9 a3bd c015 a0bd
00000080: 6344 573d 0d3a cebc 4da3 8bbd 7959 243c
00000090: f6bc 2f3d dec4 8c3d b0db 85bd a3a5 27bd
000000a0: 4020 6cbd a79f 97bb 1d38 8bbd 7275 3b3d
000000b0: b4f9 82bd 45b7 29bd f1ce 26bd e885 89bd
000000c0: 3aaa 3f3c 5ec6 15bd e610 c33c 6d82 c0bc
000000d0: c8d3 9bbd f18b 703d afeb 6c3d 4d84 92bc
000000e0: dc6b 6fbd 199f 83bd 74e5 05bd d62f f53c
000000f0: 0998 b8bb 3b9f 35bd 6f84 253d 3d5e 4f3d
00000100: 93ae 92bc 650c 053d 1775 293c ab83 a63d
00000110: e074 5abd c700 413c 9e02 093d c1f6 a9bc
00000120: 997f 80bd cd7a d5bc 888a b03c 4456 ad3c
00000130: a032 ca3c c13e 9cbd 8c9f 7b3d 6ea2 36bc
00000140: bf7f 54bd 9759 40bd 1753 713d a19a a43d
00000150: f14a 9a3c 02be 943d 173a 803d 64e1 93bd
00000160: f74c 5d3d 9d80 abbc 756b 1ebd 268c 723c
00000170: cbfe 2e3d 0349 08bd aabf 6f3d 3071 49bd
00000180: 2e3a 703d 83a2 a03d 19cb 193d e905 9e3d
00000190: dea0 503d 8fd2 8c3c 9fbb 623d 02d1 54bd
000001a0: 7d50 4c3d 1cc5 82bd ae47 9b3d 4abe 913c
000001b0: 66e7 8a3d defb 73bd bfd4 603d 6500 913d
000001c0: 82e9 80bd 6c69 983d bea6 a73d 26d4 6dbc
000001d0: a95c 51bc df9c 5abd 5f34 283c e320 773d
000001e0: 9fb4 353d 5e74 8a3c 1f93 ec3c 6f2e a73d
000001f0: 224c 7d3d 2f6e d93c bde3 5abb d473 53bd
00000200: 49ab b23d 1192 8f3d 65f5 c03c bc61 b9bc
00000210: 8411 84bc 74fe b23d 686b e5bb af84 373d
00000220: 56fd 753c 18e9 edbc 7394 4abb 44f0 1bbd
00000230: 839e 03bd daad 7e3d 7a13 ea3c 369c adbd
00000240: e0d9 573c 3e48 833d 04b6 113d 5d23 27bd
00000250: 5b5b 953d f4d8 b3bd 726e b0bc 7521 543d
00000260: ba58 9a3c b61e 57bc 137c cabc 16ad 3b3d
00000270: 8897 37bd 8219 013d 7340 b3bd f59f cf3c
00000280: f71d 20bc 041e 6abd c4c1 57bd e019 76bd
00000290: 34e3 a03c 682c 9d3d 3252 a63d 02be a9bb
000002a0: 7e99 123d 1176 02bc cf2e a43d 4ce8 11bd
000002b0: be9d 81bd 79b3 f43c d1a8 013d d137 9bbd
000002c0: faf8 1a3c d8ca 673d a123 9a3d 97f0 64bc
000002d0: 9bd9 213d 0683 8d3c e587 1cbd a51c 013b
000002e0: ba11 de3c b0dc 2c3b 73f8 a73d b565 a2bd
000002f0: f4da 1fbd 7f70 9e3d 70c6 45bc 8a1c 003d
00000300: 6a6b 5b3c f16e 193c 868a 3abd b995 5cbb
00000310: 458c 95bd f7da 6b3d 6812 933c fbd3 973d
00000320: 3186 213c 64cb 423d eaa0 863b 4bbd 963d
00000330: 2613 37bd d901 873d bad9 de3a 88f0 7e3d
00000340: 4db5 603c 94bc 813d f4a1 02bc 47c2 3b3d
00000350: 26a4 72bd 9e45 81bd f4ac 8f3c 7443 43bc
00000360: 14c8 903d c5f1 5e3d 739d 83bd da90 123b
00000370: 5b84 e43a b637 603d 14a2 2dbd d3fa dfbc
00000380: 2be0 a33d 8ec6 043d 18db 7abd f43f 1f3d
00000390: d684 8abd af18 803d 7aed 9c3c 905e 96bd
000003a0: 50eb f03c c7eb 503d dcdd 993d 16ad 8abd
000003b0: ac67 b2ba 12ed 43bd 1e06 903d 7a37 2ebd
000003c0: 8354 41bd 03ba 53bd aeb6 2abd a7e3 f7ba
000003d0: df2c 15bd ca16 36bd 54a8 fa3c ad8b a93d
000003e0: 683a 2cbc 4742 923d b178 1c3d 9d85 9d3c
000003f0: 9f75 46bb a8ca 8a3d 1de0 f3bc 1d86 aa3d

layer3.bias f4 [4]
-0.033115726 0.056763534 0.015024919 -0.0834479
00000000: 5ba4 07bd e180 683d 142b 763c bce6 aabd

layer1.weight f4 [128, 4]
-0.06498855 -0.19178951 0.03361982 -0.13498122 0.26568258 0.03338474 0.19793308 -0.49686098
0.48215383 -0.11739665 0.4452045 -0.18752241 0.19258785 -0.088413954 -0.21885002 -0.21686995
0.3039627 0.19751585 -0.45032692 -0.49911022 -0.49844897 -0.3609668 0.41658247 0.36526412
0.36400038 0.40533382 -0.18911779 0.13362312 0.290927 0.32434207 -0.02614677 0.3873099
-0.15831906 -0.078258514 0.03141296 0.36630315 0.41399014 -0.1083141 -0.20449948 -0.09899175
0.103943884 -0.04008317 0.27765477 0.4713667 -0.33587444 0.47038025 -0.048014164 0.038451254
-0.060570896 0.45892823 -0.22583216 -0.13047987 0.33353812 0.16461569 -0.014530659 0.3417983
0.26013726 -0.07029873 0.4486791 -0.17395574 0.29529595 -0.49487394 -0.26349044 -0.024328053
-0.16873437 -0.11592764 0.41121435 0.4700384 -0.19057697 -0.14491326 -0.24256843 0.13279104
-0.2881871 0.48269093 0.33627355 -0.039771795 -0.48571634 -0.37037927 -0.36227947 0.41235787
0.297031 -0.35197556 -0.38905877 0.45688987 -0.029333591 -0.359851 0.33196938 0.25314754
0.43574518 -0.26466548 0.20630735 0.012184799 -0.42782593 -0.12307531 -0.33431923 -0.38274473
-0.07219523 0.48860472 0.1054827 0.05178088 -0.32324684 -0.33734322 -0.085038185 -0.09105635
-0.15211475 0.3886642 0.48359144 0.2786442 -0.32019365 -0.16755933 0.3740393 -0.09097707
0.09109223 -0.45934904 -0.28417426 -0.014967024 0.12126809 -0.29134107 0.10566491 -0.3854509
0.38775927 0.04563278 0.3716451 -0.39570916 -0.24961466 -0.4014212 -0.13110828 -0.09815019
-0.10970032 0.065451145 -0.39455098 -0.24944007 -0.4730997 -0.11236036 0.0084296465 -0.48884892
-0.02354014 0.34859407 0.2201423 -0.015680075 -0.064698994 -0.46558422 -0.3322941 -0.0625934
0.32902634 -0.3805747 0.37791497 -0.2710145 0.20450544 0.3241542 -0.37780327 -0.050953507
-0.15607327 -0.23331761 0.15013844 -0.03209734 0.4448322 -0.49485415 0.16514814 0.086848915
0.38285768 -0.17907155 0.3098927 -0.24499089 -0.078951 -0.40607405 -0.14756405 0.07719457
-0.022266567 0.18999153 0.25128782 0.46079016 -0.21854031 0.43890715 -0.25794637 -0.19016778
-0.26272553 -0.28735644 0.16600996 -0.4684816 0.41755235 0.29068977 0.014375448 -0.043810666
0.38879704 0.15801382 0.24862987 -0.07858467 0.20849305 -0.15019602 0.16917914 -0.03666359
-0.030493557 -0.2882868 -0.28850067 0.39263332 -0.08252275 -0.39532387 -0.47164524 -0.31511486
-0.24205011 -0.42078924 0.2524197 0.49882257 0.39596796 0.1998496 -0.17467618 -0.050784647
0.030377746 -0.2794615 -0.40577143 0.27523333 0.1821925 -0.28311503 0.016506612 -0.20004469
0.42016876 -0.109173596 -0.22345132 0.07223272 -0.37379104 -0.1148209 0.14590508 0.11227542
-0.1974464 -0.22884697 0.107515275 -0.08793324 -0.39669812 -0.4318143 -0.32330132 -0.23431778
-0.4998181 -0.41613317 -0.45312274 -0.15779895 0.20770204 -0.3070935 0.06269479 0.0693149
-0.30836362 0.14704865 -0.35415298 0.48871946 0.23298597 -0.18094105 -0.41463798 0.31219792
0.33351016 -0.21146303 0.48923552 -0.32450646 0.12595904 0.4499994 0.24915588 -0.1797806
00000000: b818 85bd 7864 44be f0b4 093d 8438 0abe
00000010: 8c07 883e 70be 083d f8ae 4a3e 9064 febe
00000020: dedc f63e a86d f0bd d8f1 e33e e005 40be
00000030: c035 453e 6012 b5bd 381a 60be 2813 5ebe
00000040: 00a1 9b3e 9841 4a3e 4091 e6be 608b ffbe
00000050: b434 ffbe a4d0 b8be 4c4a d53e e603 bb3e
00000060: 425e ba3e ea87 cf3e 18a8 41be 80d4 083e
00000070: 62f4 943e 2a10 a63e c031 d6bc 7c4d c63e
00000080: 641e 22be 0046 a0bd e0aa 003d 168c bb3e
00000090: 84f6 d33e c8d3 ddbd 5068 51be 30bc cabd
000000a0: 88e0 d43d 402e 24bd c428 8e3e fa56 f13e
000000b0: bcf7 abbe aed5 f03e 80aa 44bd 107f 1d3d
000000c0: 3019 78bd a4f8 ea3e 8c40 67be 849c 05be
000000d0: 82c5 aa3e 0491 283e 0012 6ebc 3000 af3e
000000e0: b630 853e c8f8 8fbd 44b9 e53e 7421 32be
000000f0: 0831 973e 1e60 fdbe 38e8 86be a04b c7bc
00000100: b4c8 2cbe 786b edbd b08a d23e e0a8 f03e
00000110: 9c26 43be 2464 14be dc63 78be 60fa 073e
00000120: 428d 93be 4423 f73e 0c2c ac3e c0e7 22bd
00000130: d0af f8be 5aa2 bdbe b27c b9be 9220 d33e
00000140: 7214 983e 2436 b4be b632 c7be 78ed e93e
00000150: 004d f0bc 643e b8be e4f7 a93e 8e9c 813e
00000160: fe19 df3e 3c82 87be 3c42 533e c0a2 473c
00000170: 000c dbbe e80e fcbd e42b abbe 1ef7 c3be
00000180: 18db 93bd 662a fa3e 5007 d83d 3018 543d
00000190: 9c80 a5be 40b8 acbe 8028 aebd c07b babd
000001a0: f8c3 1bbe fefe c63e 4c99 f73e 74aa 8e3e
000001b0: 6cf0 a3be ac94 2bbe 1482 bf3e 3052 babd
000001c0: 908e ba3d cc2f ebbe 4a7f 91be 4038 75bc
000001d0: 685b f83d a82a 95be d866 d83d d259 c5be
000001e0: 6288 c63e 70e9 3a3d 4448 be3e 649a cabe
000001f0: fc9a 7fbe 1487 cdbe 4041 06be f802 c9bd
00000200: 90aa e0bd 400b 863d 9602 cabe 386d 7fbe
00000210: 203a f2be 301d e6bd 801c 0a3c 684a fabe
00000220: 40d7 c0bc ec7a b23e fc6c 613e 8073 80bc
00000230: e880 84bd 0e61 eebe 7422 aabe f830 80bd
00000240: 2476 a83e b0da c2be 127e c13e 6ac2 8abe
00000250: e069 513e 8af7 a53e 6e6f c1be a0b4 50bd
00000260: acd1 1fbe d0ea 6ebe e4bd 193e 8078 03bd
00000270: 0cc1 e33e 865d fdbe 981c 293e d8dd b13d
00000280: ec05 c43e 885e 37be 42aa 9e3e e4de 7abe
00000290: 10b1 a1bd f0e8 cfbe 081b 17be 3018 9e3d
000002a0: 6068 b6bc 248d 423e cca8 803e b0ec eb3e
000002b0: 08c9 5fbe 70b8 e03e 8c11 84be 58bb 42be
000002c0: f683 86be 6220 93be 84fe 293e d2dc efbe
000002d0: 6cc9 d53e 4ad5 943e 0087 6b3c d072 33bd
000002e0: 6810 c73e 60ce 213e d498 7e3e 00f1 a0bd
000002f0: 347f 553e fccc 19be 4c3d 2d3e 902c 16bd
00000300: a0cd f9bc 549a 93be 5cb6 93be 3c07 c93e
00000310: b001 a9bd e467 cabe 7c7b f1be bc56 a1be
00000320: fcdb 77be b071 d7be 283d 813e ac65 ff3e
00000330: 50bc ca3e 60a5 4c3e 50de 32be 9003 50bd
00000340: c0da f83c 9415 8fbe 46c1 cfbe 62eb 8c3e
00000350: ac90 3a3e 74f4 90be e038 873c 84d8 4cbe
00000360: 5c20 d73e 6896 dfbd 6cd0 64be c0ee 933d
00000370: 8a61 bfbe 3827 ebbd 2468 153e a8f0 e53d
00000380: 642f 4abe dc56 6abe f830 dc3d 5816 b4bd
00000390: 041c cbbe c416 ddbe c087 a5be 00f1 6fbe
000003a0: 28e8 ffbe 680f d5be b4ff e7be 0c96 21be
000003b0: d8af 543e 5c3b 9dbe 2066 803d f8f4 8d3d
000003c0: d6e1 9dbe ec93 163e 8a53 b5be 7039 fa3e
000003d0: e093 6e3e 9c48 39be 6e4b d4be 68d8 9f3e
000003e0: d8c1 aa3e c489 58be 147d fa3e b625 a6be
000003f0: 68fb 003e 5266 e63e b822 7f3e 6818 38be

layer1.bias f4 [128]
0.2920515 -0.4668004 0.12936234 -0.3359195 0.33000457 0.38634765 0.06771481 0.26625645
-0.21658957 0.29420853 0.48138863 0.30019146 -0.029143453 0.13036978 -0.019669652 0.39848626
-0.14056212 -0.13241452 0.08344662 0.007379353 -0.26572776 0.10476363 -0.31042695 0.22876948
0.035161734 -0.12098336 0.22117656 -0.30040473 -0.0440526 -0.2743175 0.021705925 -0.21914428
-0.3242123 -0.15227365 0.33407736 -0.10445756 -0.051850915 -0.46643895 0.34875387 0.344743
0.0036848187 0.16003823 0.32285255 -0.12755209 0.36726695 -0.06256896 0.2718041 0.109921455
0.33067548 0.046702206 0.45737982 0.25134814 -0.4304573 0.31655133 -0.28187525 0.37788504
-0.37438267 -0.27217448 0.20155269 0.33840275 -0.3929454 -0.36832678 -0.22707778 -0.45495713
-0.49390864 -0.14635366 -0.39969122 -0.32900983 -0.016834676 -0.3603298 0.42367893 0.0038369298
-0.024329424 0.04886329 0.08840811 0.38539398 0.0010225773 -0.4086743 0.09598851 -0.36753547
-0.34740615 -0.2841096 0.39938438 0.036999166 -0.49275553 -0.39801425 0.10226941 0.18001002
0.06424153 0.33224547 0.38468337 0.42374474 0.2457608 0.38238 0.018679678 0.45234615
0.023709416 -0.39005792 0.045050204 -0.08028388 0.16191566 0.047017634 0.30062187 0.072882116
0.46082586 0.23383582 -0.3654456 0.3939882 0.31058472 0.12309945 0.32919294 -0.4142999
-0.26649135 -0.0043281913 -0.233957 0.2948078 0.059321225 -0.18050432 -0.073521554 0.07229608
0.35952824 -0.37956393 -0.33028746 -0.4071933 -0.00022006035 -0.03848958 0.106966615 0.09608382
00000000: c687 953e 7600 efbe 9077 043e a4fd abbe
00000010: 5cf6 a83e 5ccf c53e 10ae 8a3d c452 883e
00000020: a8c9 5dbe 80a2 963e 9278 f63e b2b2 993e
00000030: 40be eebc a87f 053e 4022 a1bc 6406 cc3e
00000040: 84ef 0fbe ac97 07be 10e6 aa3d 80ce f13b
00000050: 780d 88be 508e d63d 48f0 9ebe 8c42 6a3e
00000060: c005 103d 20c6 f7bd 1c7c 623e a6ce 99be
00000070: 8070 34bd 5873 8cbe a0d0 b13c 5c67 60be
00000080: 28ff a5be a0ed 1bbe 300c ab3e d8ed d5bd
00000090: a061 54bd 16d1 eebe de8f b23e 2882 b03e
000000a0: 007d 713b 10e1 233e ee4c a53e 049d 02be
000000b0: 6a0a bc3e 2824 80bd e829 8b3e 801e e13d
000000c0: 4c4e a93e d04a 3f3d b02d ea3e b4b0 803e
000000d0: e664 dcbe 0413 a23e f451 90be 267a c13e
000000e0: 16af bfbe 745a 8bbe d463 4e3e 2043 ad3e
000000f0: 2430 c9be 5495 bcbe 1487 68be 24f0 e8be
00000100: 98e1 fcbe bcdd 15be 54a4 ccbe fa73 a8be
00000110: e0e8 89bc 267d b8be 72ec d83e 0075 7b3b
00000120: 804e c7bc e024 483d 500f b53d 5c52 c53e
00000130: 0008 863a c23d d1be a095 c43d 9c2d bcbe
00000140: 38df b1be d076 91be 1c7c cc3e 708c 173d
00000150: 744a fcbe 86c8 cbbe a072 d13d 8c54 383e
00000160: 1091 833d 141c aa3e 38f5 c43e 12f5 d83e
00000170: b8a8 7b3e 50c7 c33e 2006 993c ea99 e73e
00000180: 403a c23c acb5 c7be 9086 383d e06b a4bd
00000190: 38cd 253e 9095 403d 1ceb 993e 3843 953d
000001a0: 5ef1 eb3e a872 6f3e b01b bbbe d2b8 c93e
000001b0: f604 9f3e 901b fc3d fa8b a83e 1e1f d4be
000001c0: 8e71 88be 80d3 8dbb 6c92 6fbe 0cf1 963e
000001d0: d0fa 723d 20d6 38be 7892 96bd f80f 943d
000001e0: 1614 b83e 3456 c2be 701b a9be a47b d0be
000001f0: 00c0 66b9 40a7 1dbd 5011 db3d 98c7 c43d

layer2.weight f4 [128, 128]
0.023816593 0.06420842 0.07368108 0.06600342 0.051494427 -0.06501064 0.014958665 -0.053680733
0.045144785 0.08432931 -0.044756044 -0.07263086 0.065176815 0.06649412 -0.026364285 0.047258556
-0.06148834 0.042489164 0.01004824 0.087578654 -0.08082386 -0.08579162 -0.038445387 0.049981695
-0.048188705 -0.056137905 0.05297572 0.05398497 -0.08743101 0.06599625 0.07646844 -0.06321385
0.03762547 -0.06481606 0.0779083 -0.036392864 0.05428378 -0.0034163813 0.062431484 0.035036232
0.032238144 0.07295145 -0.046671692 -0.05890538 0.040230263 0.0859468 0.08246233 -0.0067157527
-0.033919245 -0.051646907 0.0005452748 -0.0677535 0.048577655 0.005408663 0.007774787 0.020164812
-0.005281474 -0.032131143 0.024185441 -0.0053530815 0.069024764 -0.08805773 -0.026335469 -0.047420356
-0.008717918 0.016961789 -0.015895842 0.06793258 0.011680156 0.017228536 -0.053862154 0.04364503
-0.012603561 -0.024405753 0.012103099 -0.02994799 -0.0077718156 0.06585499 0.077276655 -0.07716011
-0.06383602 -0.045313288 0.017528316 0.0041329516 0.0025848977 0.0724548 -0.05404526 -0.08381705
-0.050639912 -0.032975692 0.046013862 0.07039703 0.087271094 -0.07906928 -0.0225202 -0.07438001
-0.06694491 -0.02479614 0.062192447 0.08791406 -0.05888255 0.07986168 0.007485765 0.016378202
0.004118632 -0.026429845 0.05759117 -0.0022848332 -0.013627003 0.04050349 -0.024556356 0.017845355
0.08836662 0.0030443617 -0.04526246 -0.04207469 0.021853015 0.003819242 -0.08031949 -0.06698845
-0.00252153 -0.02719637 -0.013283317 -0.069962375 0.030834582 0.03243693 -0.037979558 0.05664885
-0.000105346044 -0.0030534337 -0.034443077 0.0758043 -0.05631395 0.025297318 -0.047301427 -0.051968854
0.00029789392 0.0026787694 0.06990274 0.009708305 -0.068020724 0.033854708 -0.01989973 0.06919227
0.024505906 0.07316152 0.052394073 -0.03337884 0.063060015 0.081268616 -0.019080605 -0.028337717
0.00027888568 0.027188426 -0.08184316 -0.060365666 -0.03542173 -0.08115493 -0.02569805 0.06977347
0.061400972 -0.025730219 -0.05872392 0.054956127 -0.011520272 -0.015957503 0.08249885 -0.08377334
-0.06380506 -0.04280984 0.0598339 0.040866047 0.04457281 0.053249676 -0.0816826 -0.08081362
-0.022049723 -0.00883929 -0.07666228 -0.06765579 0.033275746 0.040164102 -0.08768407 0.041926008
0.041821253 0.0560744 0.085929774 0.07969627 0.006897321 -0.0112042865 0.021276245 0.04261177
-0.039814737 -0.023102436 -0.06694767 0.08381403 0.08682646 0.02708247 0.04704778 -0.024735648
0.0858705 0.047687292 -0.0021575603 0.012263542 -0.073842205 -0.0020479364 0.06704746 -0.03210832
0.02997369 -0.053556327 -0.02193125 0.024146128 0.029102914 0.014689494 -0.039339732 0.04148825
0.052895833 -0.012672946 -0.051905245 0.06820685 0.07257708 -0.0063037565 0.028552594 -0.013282105
0.07125253 0.07707055 -0.07137087 -0.075541325 0.07362775 0.056067318 0.082102165 -0.063514635
-0.045595102 -0.04140345 -0.038150124 0.050286848 0.015682051 -0.022537753 0.064847454 0.08596126
0.037486818 0.06884333 0.045049608 0.00877018 0.08700061 0.042185023 -0.08246525 -0.02812082
0.04206935 -0.07660334 0.019865064 0.061539393 0.028363796 0.010090229 -0.054067526 -0.03556275
00000000: 041b c33c b47f 833d 1be6 963d cd2c 873d
00000010: d2eb 523d 4c24 85bd 3015 753c 54e0 5bbd
00000020: bde9 383d d8b4 ac3d 1d52 37bd 7dbf 94bd
00000030: 6c7b 853d 122e 883d eaf9 d7bc 3092 413d
00000040: 33db 7bbd 1e09 2e3d 60a1 243c 705c b33d
00000050: fb86 a5bd 84b3 afbd e978 1dbd 9bb9 4c3d
00000060: 8561 45bd dcf0 65bd 12fd 583d 581f 5d3d
00000070: 080f b3bd 0b29 873d 7c9b 9c3d 4376 81bd
00000080: 2a1d 1a3d 48be 84bd 638e 9f3d af10 15bd
00000090: ab58 5e3d 5ee5 5fbb 28b8 7f3d 2782 0f3d
000000a0: 250c 043d 9267 953d d12a 3fbd c546 71bd
000000b0: 7dc8 243d e004 b03d 03e2 a83d d10f dcbb
000000c0: e8ee 0abd b58b 53bd c6f0 0e3a 59c2 8abd
000000d0: 5df9 463d 273b b13b a4c3 fe3b ad30 a53c
000000e0: 3710 adbb f29b 03bd 8c20 c63c e768 afbb
000000f0: db5c 8d3d 9c57 b4bd 7bbd d7bc d93b 42bd
00000100: 99d5 0ebc 73f3 8a3c ff37 82bc 3d20 8b3d
00000110: 205e 3f3c dc22 8d3c 909e 5cbd 22c5 323d
00000120: 2b7f 4ebc 93ee c7bc 144c 463c 7d55 f5bc
00000130: b7aa febb fbde 863d 3943 9e3d 1f06 9ebd
00000140: 76bc 82bd 6d9a 39bd 8b97 8f3c b66d 873b
00000150: 6367 293b 2f63 943d 905e 5dbd 46a8 abbd
00000160: cc6b 4fbd 8511 07bd 0879 3c3d 512c 903d
00000170: 30bb b23d 13ef a1bd 487c b8bc 8c54 98bd
00000180: 6a1a 89bd 4621 cbbc 82bd 7e3d 490c b43d
00000190: d42e 71bd 858e a33d 264b f53b 942b 863c
000001a0: 97f5 863b 6783 d8bc b8e4 6b3d 24bd 15bb
000001b0: cb43 5fbc fde6 253d 692a c9bc 6c30 923c
000001c0: 8ff9 b43d ea83 473b 2165 39bd 8356 2cbd
000001d0: 1805 b33c 3f4c 7a3b 8b7e a4bd 3e31 89bd
000001e0: 4140 25bb ecca debc 45a2 59bc 6f48 8fbd
000001f0: ce98 fc3c 96dc 043d 7490 1bbd a008 683d
00000200: 3aed dcb8 1e1c 48bb 2f14 0dbd 493f 9b3d
00000210: 75a9 66bd 523c cf3c 24bf 41bd 4bdd 54bd
00000220: a52e 9c39 4b8e 2f3b 2b29 8f3d 950f 1f3c
00000230: 734e 8bbd 3cab 0a3d c204 a3bc adb4 8d3d
00000240: 9cc0 c83c b5d5 953d 2b9b 563d 40b8 08bd
00000250: 9c25 813d 2970 a63d ee4e 9cbc 8024 e8bc
00000260: 6737 9239 43ba de3c 639d a7bd fd41 77bd
00000270: 6016 11bd 8e34 a6bd b884 d2bc 65e5 8e3d
00000280: 967f 7b3d 2ec8 d2bc 7e88 70bd ad19 613d
00000290: 86bf 3cbc 4fb9 82bc 28f5 a83d 5b91 abbd
000002a0: 3aac 82bd 5f59 2fbd 6414 753d 2863 273d
000002b0: fb91 363d 551c 5a3d 3549 a7bd 9c81 a5bd
000002c0: 9fa1 b4bc abd2 10bc 1d01 9dbd 1e8f 8abd
000002d0: 264c 083d 1d83 243d b593 b3bd 9bba 2b3d
000002e0: c34c 2b3d 45ae 653d f3fb af3d cc37 a33d
000002f0: ec02 e23b 2f92 37bc 854b ae3c ae89 2e3d
00000300: c714 23bd 5241 bdbc dc1b 89bd b1a6 ab3d
00000310: 12d2 b13d 0edc dd3c 2cb5 403d 6aa2 cabc
00000320: dfdc af3d c053 433d db65 0dbb 06ed 483c
00000330: 953a 97bd ac36 06bb 2e50 893d 0484 03bd
00000340: 628b f53c e15d 5bbd 2aa9 b3bc 1ace c53c
00000350: 3c69 ee3c 34ac 703c b322 21bd 95ef 293d
00000360: 4da9 583d 30a2 4fbc 989a 54bd 08b0 8b3d
00000370: 4ba3 943d be8f cebb 21e7 e93c 309d 59bc
00000380: d9ec 913d 2ad7 9d3d e42a 92bd 69b5 9abd
00000390: 25ca 963d d8a6 653d 2e25 a83d f613 82bd
000003a0: eec1 3abd aa96 29bd 4e43 1cbd 95f9 4d3d
000003b0: a577 803c 18a1 b8bc bece 843d 750c b03d
000003c0: c78b 193d bbfd 8c3d f085 383d cdb0 0f3c
000003d0: 602d b23d 34ca 2c3d 8ae3 a8bd a25d e6bc
000003e0: e950 2c3d 36e2 9cbd 0fbc a23c bb10 7c3d
000003f0: 315b e83c 7d51 253c e975 5dbd 3faa 11bd

layer2.bias f4 [128]
0.055847514 0.05484446 -0.050787836 0.010917329 0.0008608388 0.07154957 -0.010717691 0.052687794
-0.052787505 -0.0547563 -0.039921556 0.07676037 0.046673503 -0.07469517 0.005862005 0.026421702
-0.08020076 0.029973416 0.015225254 0.00079562713 0.081962556 0.00063178124 -0.00992868 -0.020411013
-0.052616745 0.0049599465 0.008339449 0.057394788 -0.029699704 -0.00583737 0.038238686 -0.00014931575
-0.083763 0.08292464 0.04447838 -0.036593556 0.07354771 0.020450735 0.031609166 0.028186359
0.055644386 0.02641796 0.08822531 0.033671044 -0.07616942 -0.04039101 0.011596126 -0.041946936
-0.005759999 0.030499777 -0.04632049 0.047817748 0.082907654 -0.08343472 0.008949852 -0.063884854
-0.020361817 0.06350608 0.00827722 -0.020932337 0.0029279836 0.06358392 -0.07663598 -0.046685506
-0.08407353 -0.0022393041 0.04641078 -0.053964604 -0.019614711 -0.02742096 0.08529186 -0.031663124
0.06601321 0.040940963 0.05203846 0.03802397 -0.08301105 0.046024673 0.039780535 0.040698323
0.015247824 -0.06204861 -0.018288223 -0.08701468 0.006539663 -0.06946361 0.0822181 -0.0028223952
-0.012447587 -0.017437689 0.02267768 0.0178533 -0.08263316 0.077979185 -0.0017509486 0.075686656
-0.08584108 0.023344949 -0.04105204 0.06788047 -0.042375263 -0.026666226 -0.08047727 -0.07756222
-0.06431079 0.042927735 0.0010814565 0.00038665519 0.06689694 0.002917468 0.06015162 -0.045911457
-0.08132297 -0.07215506 0.04761911 0.016771369 -0.025155978 0.016167583 -0.03600796 -0.0033435305
0.0016460347 0.048814796 -0.049455006 0.007188988 0.0484356 0.06791849 0.073237784 -0.0675483
00000000: 5dc0 643d 96a4 603d e806 50bd 99de 323c
00000010: eaa9 613a 9588 923d 4199 2fbc 28cf 573d
00000020: b637 58bd 2448 60bd c984 23bd 8a34 9d3d
00000030: b72c 3f3d c8f9 98bd 1016 c03b 5372 d83c
00000040: 4c40 a4bd cf8a f53c 5873 793c a291 503a
00000050: fcdb a73d 1f9e 253a e7ab 22bc ff34 a7bc
00000060: a884 57bd 0c87 a23b 2fa2 083c cc16 6b3d
00000070: cb4c f3bc 6947 bfbb 2ba0 1c3d a491 1cb9
00000080: f08b abbd 65d4 a93d f62e 363d 20e3 15bd
00000090: 2fa0 963d 4d88 a73c 9d78 013d 14e7 e63c
000000a0: 5eeb 633d 7a6a d83c 79af b43d a6ea 093d
000000b0: b6fe 9bbd 0b71 25bd adfd 3d3c 8dd0 2bbd
000000c0: 60be bcbb abda f93c 8eba 3dbd 8bdc 433d
000000d0: 7dcb a93d d3df aabd 66a2 123c 10d6 82bd
000000e0: d3cd a6bc 7a0f 823d 2d9d 073c 4b7a abbc
000000f0: 6ae3 3f3b 4938 823d 53f3 9cbd 4d39 3fbd
00000100: be2e acbd 4ac1 12bb 3b19 3e3d fd09 5dbd
00000110: 08af a0bc eca1 e0bc 80ad ae3d 31b1 01bd
00000120: ef31 873d b6b1 273d 4826 553d 06bf 1b3d
00000130: b301 aabd 5e84 3c3d eaf0 223d 49b3 263d
00000140: 02d2 793c af26 7ebd 2fd1 95bc c134 b2bd
00000150: ab4a d63b f042 8ebd f761 a83d eff7 38bb
00000160: f7f0 4bbc 7cd9 8ebc 8bc6 b93c 1541 923c
00000170: 933b a9bd 8db3 9f3d 1680 e5ba 9b01 9b3d
00000180: 73cd afbd e83d bf3c 2f26 28bd ea04 8b3d
00000190: af91 2dbd 2173 dabc 44d1 a4bd f1d8 9ebd
000001a0: 60b5 83bd fed4 2f3d a9bf 8d3a fbb7 ca39
000001b0: 4301 893d fe32 3f3b 8c61 763d a70d 3cbd
000001c0: a88c a6bd 08c6 93bd 420c 433d 1c64 893c
000001d0: e913 cebc e171 843c 157d 13bd 221f 5bbb
000001e0: c2bf d73a 06f2 473d 5591 4abd 9a91 eb3b
000001f0: 6864 463d d918 8b3d b1fd 953d c356 8abd
